1 - Navigation -DQN/trained_agents/ddqn_checkpoint.pth (torch_old, 28417 bytes, 6 tensors)

fc1.weight f4 [64, 37]
-0.121445425 0.20851237 0.13924184 -0.001038722 -0.16207045 -0.04503141 0.28713512 0.1399641
-0.14828593 -1.0605996 0.018131586 0.08313144 0.120238826 0.2120851 0.18956047 -0.5379588
0.15298933 0.14058913 0.0004767508 -0.5559675 -0.11253738 -0.035849288 -0.0036273496 -0.019140033
-0.037708264 -0.35247675 0.16998029 0.010557874 -0.3398767 -0.801081 0.24375507 0.0988152
-0.040248122 -0.091203034 -0.3227272 0.087108396 -0.0010351563 -0.04164326 0.17366081 -0.038920496
0.008929921 0.04171712 0.022163285 0.026643842 0.23710594 -0.2352006 -0.4429815 -0.13467821
0.022634145 0.014516935 0.02575575 -0.06901189 -0.08075798 0.096831314 0.014364633 0.024299128
0.027796242 -0.04096585 -0.14014864 0.12527879 -0.0024183583 -0.44112408 -0.018881276 -0.13222507
0.08488811 -0.11633793 -0.09091226 -0.103833966 0.00254081 -0.034654487 -0.16228823 0.030418461
0.0705314 -0.05878954 -0.07180235 -0.1979628 -0.10007663 0.116157 -0.028829731 0.32483336
0.015385942 -0.41402614 -0.30538028 -1.1855336 0.15923081 -0.053479176 0.10315539 -0.049653348
-0.12130093 0.021821382 0.04449869 0.0052577467 0.14444502 0.078393616 -0.15223087 0.06124229
0.14414018 -0.11449765 -0.08935546 -0.16814898 -0.024986377 0.048260782 0.045888394 0.0672842
-0.039016236 -0.028016154 -0.102161914 0.1322047 -0.26500782 0.032933485 0.039477523 0.03676332
0.13597733 0.011458722 -0.030194806 -0.092140295 0.31614813 -0.16699871 -0.28405815 -0.63010246
-1.6404006 0.06252441 -0.013049755 0.046087824 -0.089067906 -0.108645864 -0.003541825 0.07428462
0.14536722 0.045220528 0.05681783 0.0787718 0.04753941 0.15812112 0.067818075 0.088450715
-0.05108853 -0.15422392 0.12212662 0.0706273 0.028467305 -0.09729653 0.10661433 0.037092265
0.14315206 0.14581102 0.04365939 0.007690715 0.12816972 -0.1531638 0.026881892 -0.016385827
-0.020026304 -0.22664411 0.0786338 -0.0263446 0.08955696 0.7081436 -0.03559236 0.076780125
0.05195524 -0.012024464 -0.033631496 -0.072000355 -0.0031395564 -0.019660285 -0.20141752 -0.002074819
0.09267406 -0.057744775 -0.122178644 -0.10496335 -0.15677115 -0.03674015 -0.28954768 -0.118591815
-0.00946864 0.70708543 0.06514515 -0.124151394 -0.0449694 0.103223085 0.12865421 0.032160453
0.005912122 0.035658754 0.06999526 0.05652375 0.057068594 -0.0076267286 0.038128115 0.06261586
0.082836874 0.09073701 0.030053461 0.026135908 0.023753455 0.012266922 0.0064232964 -0.027167525
-0.002484357 0.037641123 0.03155545 0.06240419 0.04971392 -0.10022009 -0.041702732 -0.033653278
0.045002926 0.14713907 0.03554036 0.024444662 0.046533175 0.08421944 0.054120988 0.4438953
-0.5471126 -0.38714623 -0.38598728 -2.1717706 -0.0020364264 0.0019913313 0.091158725 -0.08827782
-0.1105021 -0.030017896 0.08365141 0.269694 -0.54363304 -0.59525704 -0.42720354 -1.3995842
0.0973579 0.18924148 0.05407091 0.061930932 0.068481766 -0.0924112 0.0074577956 -0.16260242
0.041128255 0.08533846 -0.10151578 0.08648643 -0.024702273 -0.071212485 -0.13215119 0.03744579
0.103899546 0.28093016 -0.035985578 -0.34025875 0.006996636 -0.07760549 -0.040085096 -0.016127031
00000000: 61b8 f8bd 4484 553e 6a95 0e3e ba25 88ba
00000010: ccf5 25be db72 38bd 6003 933e c052 0f3e
00000020: 44d8 17be bac1 87bf b188 943c d140 aa3d
00000030: c63f f63d d62c 593e 241c 423e abb7 09bf
00000040: 3ca9 1c3e 99f6 0f3e 69f4 f939 e353 0ebf
00000050: ff79 e6bd b4d6 12bd d4b8 6dbb 8fcb 9cbc
00000060: fb73 1abd d577 b4be 500f 2e3e effa 2c3c
00000070: 5204 aebe a513 4dbf ee9a 793e a05f ca3d
00000080: 37db 24bd a8c8 babd 803c a5be e365 b23d
00000090: 15ae 87ba 1f92 2abd 24d4 313e 196b 1fbd
000000a0: ce4e 123c 92df 2a3d c78f b53c 3044 da3c
000000b0: e6cb 723e 6dd8 70be 79ce e2be 16e9 09be
000000c0: 3e6b b93c 70d8 6d3c b9fd d23c 1b56 8dbd
000000d0: 7164 a5bd 7f4f c63d a359 6b3c f70e c73c
000000e0: f2b4 e33c cfcb 27bd 2083 0fbe 1549 003e
000000f0: 527d 1ebb 04db e1be e8ac 9abc 0266 07be
00000100: d1d9 ad3d 9542 eebd 3530 babd e7a6 d4bd
00000110: b883 263b ddf1 0dbd e32e 26be 2330 f93c
00000120: c472 903d 4dcd 70bd 1c0d 93bd c3b6 4abe
00000130: faf4 ccbd b9e3 ed3d 542c ecbc 8f50 a63e
00000140: 5115 7c3c 3cfb d3be ce5a 9cbe 91bf 97bf
00000150: 670d 233e fb0c 5bbd 2243 d33d 4f61 4bbd
00000160: 9f6c f8bd c1c2 b23c 4244 363d 2d49 ac3b
00000170: 65e9 133e d58c a03d 69e2 1bbe 32d9 7a3d
00000180: 7c99 133e be7d eabd ffff b6bd 3f2f 2cbe
00000190: 3bb0 ccbc 19ad 453d 78f5 3b3d 4ccc 893d
000001a0: 7dcf 1fbd 2282 e5bc 443a d1bd ab60 073e
000001b0: 1baf 87be 43e5 063d 2fb3 213d 2395 163d
000001c0: a43d 0b3e 5dbd 3b3c 195b f7bc 0db4 bcbd
000001d0: 2bde a13e b601 2bbe 1270 91be 654e 21bf
000001e0: a6f8 d1bf cc0c 803d a4ce 55bc 96c6 3c3d
000001f0: 3c69 b6bd b981 debd f71d 68bb 8922 983d
00000200: 25db 143e 2939 393d d0b9 683d 1c53 a13d
00000210: afb8 423d 81ea 213e 34e4 8a3d a625 b53d
00000220: 3542 51bd e0ec 1dbe 851d fa3d 0ca5 903d
00000230: 4434 e93c 6743 c7bd 9d58 da3d 0fee 173d
00000240: 7496 123e 7c4f 153e 30d4 323d 6502 fc3b
00000250: ec3e 033e f9d6 1cbe 6a37 dc3c 923b 86bc
00000260: 340e a4bc 6515 68be c20a a13d a1d0 d7bc
00000270: a469 b73d e648 353f 4bc9 11bd e63e 9d3d
00000280: 05cf 543d 4202 45bc 2ec1 09bd ec74 93bd
00000290: 04c1 4dbb 9b0e a1bc 6540 4ebe b0f9 07bb
000002a0: e6cb bd3d c985 6cbd cc38 fabd 06f7 d6bd
000002b0: 9e88 20be d77c 16bd 983f 94be 44e0 f2bd
000002c0: 5b22 1bbc 8d03 353f d26a 853d 1643 febd
000002d0: d531 38bd a066 d33d eebd 033e aeba 033d
000002e0: 79ba c13b ea0e 123d ad59 8f3d 7385 673d
000002f0: c2c0 693d a3e9 f9bb 3a2c 1c3d be3c 803d
00000300: 61a6 a93d 53d4 b93d ad32 f63c f91a d63c
00000310: 9b96 c23c 33fb 483c 847a d23b 6e8e debc
00000320: 98d0 22bb 942d 1a3d 4a40 013d 899b 7f3d
00000330: d3a0 4b3d 3140 cdbd 7cd0 2abd 05d8 09bd
00000340: fd54 383d a0ab 163e c592 113d 2c40 c83c
00000350: 9299 3e3d 3e7b ac3d f8ad 5d3d 3f46 e33e
00000360: 920f 0cbf 0838 c6be 20a0 c5be 4afe 0ac0
00000370: 9175 05bb ff80 023b 6db1 ba3d 00cb b4bd
00000380: ed4e e2bd 17e8 f5bc 6e51 ab3d 5515 8a3e
00000390: 892b 0bbf c462 18bf 6cba dabe 9325 b3bf
000003a0: 9463 c73d 85c8 413e 7579 5d3d 4aab 7d3d
000003b0: 2b40 8c3d 1542 bdbd 8660 f43b 4081 26be
000003c0: 1a76 283d eec5 ae3d 81e7 cfbd cc1f b13d
000003d0: 6c5c cabc dad7 91bd a452 07be c260 193d
000003e0: 49c9 d43d 14d6 8f3e 9d65 13bd 6536 aebe
000003f0: 0944 e53b a1ef 9ebd 4530 24bd d61c 84bc

fc1.bias f4 [64]
-0.06989335 0.09724266 0.19157948 0.12642743 -0.15769231 0.013663006 0.029482681 -0.009316072
-0.12917948 0.03693021 -0.12200112 -0.06756981 0.019963585 -0.083066046 -0.1566549 -0.09327608
-0.024320342 0.20165163 0.1731372 -0.03427724 0.099426605 -0.09963076 -0.05501154 -0.03942437
-0.007331587 -0.045132708 -0.16933799 -0.15489393 0.16409612 0.0860387 -0.10329501 -0.11962649
-0.09774942 -0.119005054 -0.023958884 0.14721443 0.007137445 -0.03903164 0.17628865 -0.16343711
-0.20678042 0.06804494 -0.13971625 0.024745157 0.1423535 -0.041185156 -0.14011385 0.082633205
-0.16946274 0.12183491 -0.14945444 0.052030224 -0.16581868 -0.06941864 0.02381742 0.09475284
0.10908454 0.077342115 -0.06805702 0.058776163 0.005722525 -0.11272216 0.043424632 -0.20941176
00000000: 3f24 8fbd 2927 c73d 692d 443e 3176 013e
00000010: 187a 21be cdda 5f3c aa85 f13c 70a2 18bc
00000020: a047 04be 2244 173d b9db f9bd 0a62 8abd
00000030: ac8a a33c 881e aabd 246a 20be 8807 bfbd
00000040: 743b c7bc c47d 4e3e e14a 313e 4b66 0cbd
00000050: 2da0 cb3d 360b ccbd c853 61bd 737b 21bd
00000060: cf3d f0bb 13dd 38bd f066 2dbe 849c 1ebe
00000070: d008 283e 0f35 b03d 568c d3bd bcfe f4bd
00000080: d930 c8bd ecb8 f3bd 6c45 c4bc 61bf 163e
00000090: 3ae1 e93b a4df 1fbd 0385 343e 0f5c 27be
000000a0: 3fbe 53be 255b 8b3d c711 0fbe 5bb6 ca3c
000000b0: 1ec5 113e c4b1 28bd 017a 0fbe 993b a93d
000000c0: a487 2dbe 9584 f93d 960a 19be a51d 553d
000000d0: 5fcc 29be 5c2b 8ebd c01c c33c c70d c23d
000000e0: b767 df3d 8b65 9e3d 7b61 8bbd 46bf 703d
000000f0: 0584 bb3b e0da e6bd 07de 313d 0970 56be

fc2.weight f4 [64, 64]
-0.089132935 0.13021693 0.00074269006 0.10282558 -0.013733989 0.415789 0.17227331 0.025515636
0.12804316 0.11596917 0.15936877 -0.056441553 0.098960556 0.013176293 0.058758672 0.053503066
0.074209146 0.2404975 0.15062015 0.13229994 0.085621744 0.0040948163 0.13436206 0.26878148
0.0998864 0.20512563 0.08640775 -0.035146322 0.18357424 0.115485266 0.15774006 0.14785792
0.114138074 0.0049046697 0.101308964 0.05029726 0.026211502 -0.15012005 0.0725923 -0.06967934
-0.021118877 0.1852531 -0.013489593 -0.057508525 0.0857011 0.15568294 0.06156024 0.06464403
0.017825205 0.062225226 0.086252555 0.106043376 -0.09060642 -0.0601008 0.06604291 0.31515312
0.18185076 0.11733163 -0.022376081 0.14621522 0.14944345 -0.051118303 0.022763766 -0.01717144
-0.116994634 0.056935042 -0.10576237 -0.15574946 0.06623826 -0.6565858 -0.42917755 0.12270184
-0.04147986 0.03412196 0.02733389 -0.08804571 0.068560496 -0.14182813 0.40386042 0.025312841
0.068358734 -0.39792833 0.07676077 -0.04625358 0.023835791 0.018977454 0.44757318 0.6339702
-0.21081653 -0.13808502 -0.10089623 0.11972999 -0.11494242 0.079723105 -0.08310194 -0.07337682
0.059211187 0.0219773 0.020807566 0.00315405 0.047976486 -0.03286714 0.12849805 -0.27360225
-0.040258348 0.081556454 0.03212636 0.7361268 0.00088395854 -0.15718971 0.101048835 -0.08574489
-0.03989385 -0.023480171 -0.25067508 -0.088200115 0.007649999 0.2710458 -0.19516316 -0.32916945
-0.017128458 -0.0025250453 -0.06287246 -0.1878031 0.00936332 -0.008900203 -2.8019e-05 -0.014967668
-0.38734025 -0.06070648 0.114452966 0.0024968009 -0.0027093454 0.30346403 0.052649938 0.10939021
-0.005317635 0.0033098676 0.026531795 0.12306327 0.047650736 0.19620155 0.18123728 -0.11512843
0.009545513 0.21291323 0.012343776 0.012383188 0.04019318 -0.16947915 0.33982754 0.26974413
-0.01748276 0.089410454 -0.07340605 0.007593627 0.15744527 -0.017724551 -0.09620791 0.06192114
0.0682811 0.02405131 -0.03931302 0.113505416 0.048134517 -0.027556632 0.15440062 -0.06783408
-0.06885799 0.034101304 0.084852174 0.25262484 -0.077807136 0.1553813 0.027497455 0.09039873
-0.0947937 -0.01484737 0.0687129 -0.074681595 -0.082064174 -0.29407677 -0.1799147 0.17020664
0.037602186 0.053378757 0.09263328 -0.0775742 -0.044233385 -0.1635353 -0.041924592 0.02080515
-0.23335731 0.20526241 0.0075285207 0.020860868 0.1290832 0.102081634 0.08475592 0.05739342
-0.064465865 0.087565 -0.045930278 -0.13247846 0.10044545 0.19750917 -0.003506202 0.1520017
-0.22961368 0.07394433 0.10053271 0.07828924 0.0038097557 -0.111956 0.2097834 0.004629552
0.15728433 -0.12405692 0.15296954 -0.03443761 0.2052574 -0.003408284 -0.2742089 0.17341848
0.012672795 -0.14644131 0.014678606 -0.14156242 -0.16003437 -0.096053466 0.026176648 -0.005336632
-0.0999874 -0.134333 0.012739692 -0.043177143 0.062091134 0.09767548 0.03682457 0.18951201
-0.16970542 0.08876025 -0.064326674 -0.17370509 -0.0795423 -0.1337817 -0.07905008 0.0037725247
0.1028753 0.008444123 -0.0043699816 0.05162581 0.004940631 -0.024623387 -0.22127299 0.08244482
00000000: 548b b6bd 9657 053e 16b1 423a 3896 d23d
00000010: 8604 61bc 4ce2 d43e 6a68 303e 2b06 d13c
00000020: bf1d 033e 3f81 ed3d 9131 233e 422f 67bd
00000030: d5ab ca3d 61e1 573c efac 703d 0826 5b3d
00000040: f7fa 973d fa44 763e 2b3c 1a3e a379 073e
00000050: 745a af3d cf2d 863b 3596 093e ba9d 893e
00000060: 3e91 cc3d 740c 523e 8cf6 b03d 97f5 0fbd
00000070: e3fa 3b3e 8a83 ec3d 9c86 213e 1168 173e
00000080: 39c1 e93d 5ab7 a03b 137b cf3d 8004 4e3d
00000090: 81b9 d63c 12b9 19be 46ab 943d 0bb4 8ebd
000000a0: 7f01 adbc fdb2 3d3e 7403 5dbc 0f8e 6bbd
000000b0: 0f84 af3d 596b 1f3e 9726 7c3d 1764 843d
000000c0: 2a06 923c e1df 7e3d 2ea5 b03d 452d d93d
000000d0: dc8f b9bd 422c 76bd 8141 873d c05b a13e
000000e0: 1637 3a3e 914b f03d 0b4e b7bc 71b9 153e
000000f0: b407 193e 6d61 51bd 147b ba3c 1fab 8cbc
00000100: e29a efbd b834 693d f199 d8bd c97c 1fbe
00000110: eda7 873d 0216 28bf 29bd dbbe 1a4b fb3d
00000120: c9e6 29bd 78c3 0b3d 52eb df3c 4f51 b4bd
00000130: 7269 8c3d 653b 11be cbc6 ce3e e05c cf3c
00000140: aaff 8b3d 43bd cbbe c034 9d3d 6574 3dbd
00000150: 4743 c33c 9b76 9b3c 5028 e53e df4b 223f
00000160: 4ae0 57be 2966 0dbe afa2 cebd ff34 f53d
00000170: ee66 ebbd de45 a33d 5a31 aabd 9646 96bd
00000180: 6e87 723d bd09 b43c a174 aa3c 2eb4 4e3b
00000190: fe82 443d b29f 06bd fe94 033e 9815 8cbe
000001a0: f0e5 24bd 1207 a73d ee96 033d ce72 3c3f
000001b0: 74b9 673a 57f6 20be b1f2 ce3d 049b afbd
000001c0: bc67 23bd 7d59 c0bc 7c58 80be 43a2 b4bd
000001d0: d8ac fa3b 84c6 8a3e dad8 47be e688 a8be
000001e0: fb50 8cbc 3b7b 25bb 47c3 80bd 754f 40be
000001f0: 9c68 193c 28d2 11bc 580a ebb7 f33a 75bc
00000200: 7651 c6be 5ca7 78bd 5166 ea3d 5ea1 233b
00000210: 468f 31bb a35f 9b3e 76a7 573d f907 e03d
00000220: 8e3f aebb 5dea 583b 3559 d93c 9808 fc3d
00000230: 6b2d 433d 0fe9 483e 4496 393e 74c8 ebbd
00000240: c964 1c3c ed05 5a3e 8d3d 4a3c dbe2 4a3c
00000250: 9ba1 243d f18b 2dbe e0fd ad3e e71b 8a3e
00000260: 0138 8fbc d41c b73d e955 96bd f6d3 f83b
00000270: 5539 213e 1433 91bc a708 c5bd 05a1 7d3d
00000280: f6d6 8b3d 4107 c53c b006 21bd 8775 e83d
00000290: b328 453d 72be e1bc 321b 1e3e 98ec 8abd
000002a0: 6b05 8dbd cfad 0b3d fac6 ad3d 0b58 813e
000002b0: 5959 9fbd 471c 1f3e 5842 e13c f822 b93d
000002c0: 3323 c2bd 6242 73bc 59b9 8c3d aaf2 98bd
000002d0: 4311 a8bd 3b91 96be 8f3b 38be a64a 2e3e
000002e0: c004 1a3d afa3 5a3d 84b6 bd3d 39df 9ebd
000002f0: 112e 35bd cc75 27be 1fb9 2bbd 906f aa3c
00000300: 38f5 6ebe 4f30 523e cfb1 f63b 69e4 aa3c
00000310: 632e 043e 2d10 d13d 8394 ad3d 5d15 6b3d
00000320: ae06 84bd 4755 b33d 6321 3cbd 6fa8 07be
00000330: 58b6 cd3d d83f 4a3e 4fc8 65bb 55a6 1b3e
00000340: d91f 6bbe 2070 973d 18e4 cd3d 1c56 a03d
00000350: 18ad 793b 3049 e5bd 76d1 563e 7fb3 973b
00000360: 250f 213e 8e11 febd 0ca4 1c3e 740e 0dbd
00000370: ff2e 523e 845d 5fbb 1c65 8cbe 9d94 313e
00000380: 8ea1 4f3c b6f4 15be 897e 703c bdf5 10be
00000390: 0de0 23be aeb7 c4bd 6970 d63c eade aebb
000003a0: 32c6 ccbd 978e 09be 24ba 503c 84da 30bd
000003b0: 4653 7e3d 150a c83d 5cd5 163d 700f 423e
000003c0: 42c7 2dbe efc7 b53d b4bd 83bd bfdf 31be
000003d0: 13e7 a2bd 12fe 08be 02e5 a1bd 763c 773b
000003e0: 49b0 d23d 3859 0a3c 1032 8fbb 9675 533d
000003f0: 04e5 a13b fcb6 c9bc 6395 62be d4d8 a83d

fc2.bias f4 [64]
0.49087742 -0.02762448 0.29002184 -0.04352886 -0.15302901 0.009196368 0.069837205 -0.022554995
0.16983107 0.008023713 -0.0029988328 0.13142145 0.1155297 0.0825926 0.04114161 -0.07872092
-0.14022493 0.038729746 -0.08529531 0.12322816 -0.08108481 -0.008196314 0.053444844 0.45021597
0.12751822 -0.12373691 0.091508314 0.046753634 -0.09943325 -0.1629917 0.08483339 -0.2016544
0.1487149 0.07997709 0.0824525 -0.08992917 0.21054502 -0.014445664 -0.026396738 0.059901033
0.11364941 -0.09728898 -0.080453426 0.2415308 0.3071803 0.29658917 0.118890405 0.10302627
0.026327709 0.049136993 -0.06007979 -0.02312728 -0.23061556 0.052878622 0.033313587 -0.0442937
0.04146838 -0.011195576 0.020638308 -0.00026921072 0.06837349 -0.12177701 -0.08554346 -0.0358749
00000000: 4954 fb3e bc4c e2bc be7d 943e 514b 32bd
00000010: a3b3 1cbe 5dac 163c cf06 8f3d 41c5 b8bc
00000020: 32e8 2d3e e475 033c 1188 44bb 5893 063e
00000030: d69a ec3d 4f26 a93d 1b84 283d 6f38 a1bd
00000040: 2097 0fbe 15a3 1e3d 4faf aebd 0c5f fc3d
00000050: cb0f a6bd d549 06bc fbe8 5a3d b582 e63e
00000060: 2394 023e c769 fdbd b668 bb3d bd80 3f3d
00000070: a9a3 cbbd 4ce7 26be 21bd ad3d 7e7e 4ebe
00000080: b848 183e 07cb a33d dbdc a83d c92c b8bd
00000090: 1d99 573e 82ad 6cbc f93d d8bc c95a 753d
000000a0: 06c1 e83d 723f c7bd c4c4 a4bd da53 773e
000000b0: bc46 9d3e 89da 973e d07c f33d 70ff d23d
000000c0: 35ad d73c df43 493d 3a16 76bd 6c75 bdbc
000000d0: 7c26 6cbe 4197 583d d473 083d 506d 35bd
000000e0: bfda 293d a66d 37bc ab11 a93c da24 8db9
000000f0: 6607 8c3d 3a66 f9bd 6931 afbd 8ff1 12bd

fc3.weight f4 [4, 64]
0.1856915 0.39695206 0.187635 -0.1241383 -0.014582375 0.050941594 0.33594903 0.17823513
0.34303042 0.06250608 0.1497501 -0.46709245 -0.61961067 0.24364012 -0.0571125 -0.08613624
-0.111751236 0.30818942 0.33922678 0.19568509 0.012293851 0.21557707 -0.12307214 0.17312564
0.11780205 -0.043120064 0.28607148 0.16752245 -0.18842244 -0.1461091 -0.50275314 -0.09735143
0.41068885 0.31453204 0.07035052 -0.55746865 0.30866182 0.023946779 -0.20039834 0.026439028
0.057274472 -0.15869604 -0.3294453 0.17938387 0.19011073 0.113269374 0.26833108 0.1607904
0.12592891 0.3349954 -0.25977832 0.0091403015 -0.2029006 -0.3706624 0.21304394 -0.17230253
0.17732118 0.025547495 0.02127003 0.19923098 0.1955522 0.06931765 0.107048385 0.0041775396
0.216489 0.4750602 0.08075837 -0.11452272 -0.048324957 0.2194252 0.16569592 0.18859506
0.12938501 0.4409659 0.16904415 -0.016553245 0.12373733 -0.62504673 0.13796452 0.02412602
-0.06039024 0.14535175 0.31114924 0.32154778 -0.018015934 0.221586 -0.3514613 0.15581371
0.15347719 -0.5639773 0.13332248 0.20413953 -0.13517572 -0.1715206 -0.3773547 -0.09145191
0.25880283 0.24909034 0.0266865 -0.009248531 0.12196369 0.019983063 -0.13979918 0.09624438
0.06369834 -0.09629365 0.47982043 0.13435985 0.093810774 0.12229883 0.24084821 0.17014726
0.096834384 0.33970946 0.113247395 0.20496722 -0.18732494 0.050975278 0.48755857 -0.09809454
0.16698866 0.08274526 0.14554362 0.46494544 -0.0021895757 -0.0035560406 0.485079 0.079104915
0.19860011 0.041687008 0.09228178 0.03882556 -0.1579426 0.34147453 0.22391954 -0.022422535
0.13200125 0.029772704 0.37518474 0.12454664 -0.15882781 -0.039659504 0.13987796 -0.03672114
0.1603233 0.3015304 0.4522011 -0.08891511 0.352241 0.2663897 -0.40331626 0.20591614
0.062049348 0.16925597 0.11265479 0.31247056 -0.14508475 -0.18210232 -0.11678421 -0.20628741
0.04182125 -0.04982298 -0.026712816 -0.16984813 0.32555673 -0.23536205 0.099936284 0.031158064
-0.05955566 0.19474348 -0.02868832 0.08950789 0.20768504 0.15060891 0.16313687 0.3490837
0.060024075 0.20605084 -0.71832794 0.038053904 -0.18095562 -0.22457477 0.5980466 -0.31659508
0.24011746 0.12832722 0.12845343 0.13589631 0.2121854 0.16125329 0.10478865 0.0151348775
0.15179051 0.32645297 0.118466265 0.07939988 -0.064937584 0.32316923 0.08618359 0.5106546
0.18801825 -0.3297811 0.23364903 -0.08857085 -0.15662512 0.18546213 0.19206569 0.1504065
-0.13145868 0.22022966 0.14392814 0.06406729 0.17178042 0.30876735 -0.23862708 0.23125705
0.17855176 -0.4217526 0.026521701 0.08488209 0.099906385 -0.09786314 -0.3342076 -0.023806967
0.18157402 0.013228173 0.15185203 -0.043892477 0.16319104 -0.4474374 -0.22010972 -0.49568045
0.19277436 -0.48280925 -0.119322754 0.10856072 0.13398613 0.19995041 0.33934736 0.07209491
-0.21345998 0.36289713 -0.06939248 0.13237725 -0.25976598 -0.6115633 -0.04110489 0.06671564
0.58571947 0.34819105 0.09506692 -0.32914037 -0.08407822 -0.1738816 0.29140112 0.31368953
00000000: ea25 3e3e 4d3d cb3e 6423 403e 393c febd
00000010: eaea 6ebc 22a8 503d 8301 ac3e 4583 363e
00000020: afa1 af3e 3003 803d 1758 193e be26 efbe
00000030: ce9e 1ebf cc7c 793e ccee 69bd 3268 b0bd
00000040: d5dd e4bd 01cb 9d3e 22af ad3e ac61 483e
00000050: 266c 493c 3cc0 5c3e 3f0d fcbd d947 313e
00000060: 3442 f13d aa9e 30bd f677 923e 018b 2b3e
00000070: d0f1 40be a09d 15be 6eb4 00bf 3060 c7bd
00000080: cf45 d23e 580a a13e ef13 903d 44b6 0ebf
00000090: ec08 9e3e 092c c43c 3935 4dbe a996 d83c
000000a0: a398 6a3d 3781 22be 0ead a8be 68b0 373e
000000b0: 63ac 423e c6f9 e73d b162 893e 3da6 243e
000000c0: 82f3 003e 8484 ab3e aa01 85be 34c1 153c
000000d0: 2dc5 4fbe 76c7 bdbe 3128 5a3e 1370 30be
000000e0: af93 353e fb48 d13c 7c3e ae3c 3503 4c3e
000000f0: d63e 483e 69f6 8d3d 2f3c db3d bee3 883b
00000100: 4baf 5d3e 173b f33e a564 a53d e38a eabd
00000110: 64f0 45bd 00b1 603e 31ac 293e 101f 413e
00000120: 817d 043e 48c6 e13e e919 2d3e ac9a 87bc
00000130: ff69 fd3d 1003 20bf 9246 0d3e eea3 c53c
00000140: c25b 77bd 17d7 143e f44e 9f3e e9a1 a43e
00000150: 2796 93bc 71e7 623e bcf2 b3be a18d 1f3e
00000160: 2029 1d3e d160 10bf b085 083e f409 513e
00000170: 816b 0abe 19a3 2fbe a334 c1be 244b bbbd
00000180: ce81 843e 8a11 7f3e a69d da3c 2787 17bc
00000190: 19c8 f93d 85b3 a33c 8427 0fbe c61b c53d
000001a0: 4674 823d 9b35 c5bd 06ab f53e a195 093e
000001b0: dd1f c03d cf77 fa3d eaa0 763e 153b 2e3e
000001c0: 1b51 c63d 66ee ad3e 40ee e73d ede2 513e
000001d0: 1cd2 3fbe 74cb 503d 47a1 f93e cae5 c8bd
000001e0: 13ff 2a3e 5976 a93d 6309 153e 540d ee3e
000001f0: fc7e 0fbb 760c 69bb 465c f83e c201 a23d
00000200: d45d 4b3e ffbf 2a3d 3bfe bc3d 8d07 1f3d
00000210: b4bb 21be c0d5 ae3e 2a4b 653e 77af b7bc
00000220: 562b 073e e3e5 f33c 3718 c03e 4f12 ff3d
00000230: c2a3 22be 0172 22bd 2b3c 0f3e e868 16bd
00000240: cb2b 243e 3162 9a3e e786 e73e 2019 b6bd
00000250: ef58 b43e 3b64 883e 787f cebe aedb 523e
00000260: 7527 7e3d 7051 2d3e 8eb7 e63d 24fc 9f3e
00000270: 1991 14be 0879 3abe 8f2c efbd 023d 53be
00000280: c24c 2b3d 2e13 4cbd d6d4 dabc abec 2dbe
00000290: 5faf a63e c002 71be 65ab cc3d 323f ff3c
000002a0: a3f0 73bd d66a 473e c503 ebbc ea4f b73d
000002b0: 63ab 543e 3939 1a3e 5a0d 273e 19bb b23e
000002c0: cedb 753d fefe 523e 57e4 37bf 69de 1b3d
000002d0: 6e4c 39be eef6 65be 9519 193f c018 a2be
000002e0: 5ae1 753e 3668 033e 4c89 033e 6728 0b3e
000002f0: 2147 593e 951f 253e 6f9b d63d 47f8 773c
00000300: f96e 1b3e d824 a73e 719e f23d 679c a23d
00000310: fffd 84bd 7076 a53e 0681 b03d 43ba 023f
00000320: db87 403e 11d9 a8be b141 6f3e a264 b5bd
00000330: 5662 20be c9e9 3d3e deac 443e 2904 1a3e
00000340: 1b9d 06be e283 613e e661 133e b635 833d
00000350: 35e7 2f3e c116 9e3e a85a 74be a6ce 6c3e
00000360: 46d6 363e f5ef d7be 0a44 d93c a9d6 ad3d
00000370: b89b cc3d 786c c8bd 421d abbe d406 c3bc
00000380: 8aee 393e fbba 583c 197f 1b3e 99c8 33bd
00000390: 8d1b 273e 8416 e5be 7164 61be d4c9 fdbe
000003a0: a466 453e c632 f7be 7d5f f4bd 1555 de3d
000003b0: a933 093e cdbf 4c3e f0be ad3e 7fa6 933d
000003c0: 4195 5abe a7cd b93e a51d 8ebd e78d 073e
000003d0: 0c00 85be 6a8f 1cbf 9a5d 28bd 36a2 883d
000003e0: b6f1 153f 1946 b23e 72b2 c23d 1685 a8be
000003f0: 3431 acbd 050e 32be 8732 953e ea9b a03e

fc3.bias f4 [4]
0.237139 0.32906416 0.24963681 0.24744141
00000000: 91d4 723e 197b a83e cba0 7f3e 4861 7d3e
