1 - Navigation -DQN/trained_agents/dqn_checkpoint.pth (torch_old, 28417 bytes, 6 tensors)

fc1.weight f4 [64, 37]
0.13794076 0.14312746 0.18500677 0.15367912 0.063601986 0.42808855 -0.47671685 -0.5096506
-0.52697307 -1.7945842 0.101044275 0.14440738 0.12449519 0.077519305 -0.008263853 0.03331726
0.08987711 0.08288906 0.057297986 0.0005500505 0.012033628 0.011678682 -0.0011222446 0.035697613
-0.010534944 0.00934378 0.011040512 0.0136216935 0.04795021 -0.037140105 0.1428456 0.0676667
0.10180491 0.08513324 -0.04037447 0.0053493404 0.00048742394 0.26569784 -0.06990917 -0.38031647
-0.07221705 -0.8064431 -0.056382243 0.03859336 0.23319405 0.05155679 0.19417693 -0.287009
-0.051234566 0.11619693 -0.007847134 -0.06470526 -0.20699239 0.1551926 0.04151802 0.04961311
0.1826544 -0.07522632 0.057962365 -0.04329921 -0.019496305 -0.12123095 -0.052091815 -0.124736324
0.05785482 0.074685246 -0.045639165 -0.10512994 -0.050969016 -0.07571608 -0.017325424 0.07899693
0.041473683 -0.015820872 -0.048494812 -0.072990775 -0.05897075 -0.06802525 -0.08923217 0.14395045
-0.022834795 0.07860719 -0.054199606 -0.23686966 0.090977706 0.07714324 0.05986992 -0.049497325
-0.16003245 0.064902335 0.0028849558 0.11530045 0.023705475 0.035564095 0.004378004 -0.047791876
0.02371442 -0.006330641 -0.12060549 -0.015646882 -0.030302716 -0.049453113 -0.12871005 -0.4055306
-0.06771533 -0.1234597 0.0563617 0.033294793 -0.24461342 -0.24785396 0.015142398 -0.06757991
0.07705574 -0.016703922 0.005909427 -0.042055793 0.25524366 -0.41465712 -0.45572335 -0.2706989
-1.6591996 -0.08470281 -0.005765978 -0.05621498 -0.008364855 0.011796581 -0.06648752 0.031246362
0.038774513 0.11596712 0.2301049 -0.0048226602 0.06814057 0.0919356 0.08910124 0.058630515
-0.20255974 -0.032855894 0.08775481 0.053837307 0.35790116 -0.10103315 0.10014572 0.02260949
0.11484568 0.12365581 -0.017168352 0.007112675 0.08178061 -0.055374876 0.09223396 -0.0072465483
-0.045899194 -0.023218306 0.1400677 -0.021332705 0.024374373 -0.013253364 0.20043957 -0.079828545
0.07769929 0.018012874 -0.14274137 -0.120422 0.048820138 0.004615152 0.034274314 0.19007783
0.033583358 0.143438 -0.050609354 -0.01078138 0.041119434 -0.14653997 0.040016897 -0.0003089603
0.056625787 0.23761432 0.32905307 -0.13782093 -0.21287529 -0.122915 -1.003705 -0.012554135
-0.0010584812 0.0996548 -0.030222056 0.10177169 -0.018849492 -0.2094782 0.015554039 0.09899616
0.019190524 0.09140442 0.0007788236 -0.056886785 0.023181437 0.046776365 0.08265702 0.14846621
-0.0627794 -0.055478815 -0.07351952 0.16208093 0.10749651 -0.11489483 -0.15415499 -0.12803008
0.03748438 0.017570022 0.09125587 0.0774562 -0.030178865 -0.12311117 -0.22280672 0.08448532
0.13148373 0.1407034 -0.057564564 -0.2007338 0.021020787 0.031076407 0.013643158 0.07580531
-0.05762876 0.014781803 0.02250024 0.22143055 0.038823694 -0.2371372 -0.17694059 -0.5641647
0.06586912 0.12633538 0.25444275 0.015791079 0.0005545034 -0.040667504 -0.02664711 -0.07766594
-0.059017237 -0.13916664 0.0033154488 0.011726986 0.036657166 -0.12069144 -0.19320945 0.091478884
0.09306932 0.11588997 0.1305368 -0.18105951 0.22900574 -0.1217247 -0.19485737 -0.25354603
00000000: 5840 0d3e 0190 123e 6a72 3d3e 0f5e 1d3e
00000010: c241 823d 6c2e db3e 3b14 f4be 7678 02bf
00000020: b5e7 06bf efb4 e5bf 4df0 ce3d 87df 133e
00000030: 56f7 fe3d 71c2 9e3d 1d65 07bc ae77 083d
00000040: 7e11 b83d bdc1 a93d 4bb1 6a3d 4431 103a
00000050: b228 453c f157 3f3c 4818 93ba a937 123d
00000060: c29a 2cbc a716 193c 43e3 343c 862d 5f3c
00000070: 7067 443d 3920 18bd 1e46 123e d794 8a3d
00000080: 187f d03d 565a ae3d b35f 25bd 8549 af3b
00000090: ef8c ff39 8c09 883e 8a2c 8fbd d7b8 c2be
000000a0: 88e6 93bd 0e73 4ebf 11f1 66bd 1214 1e3d
000000b0: 6cca 6e3e 362d 533d 51d6 463e d8f2 92be
000000c0: 56db 51bd a8f8 ed3d 4491 00bc 3184 84bd
000000d0: d0f5 53be cfea 1e3e cd0e 2a3d 1e37 4b3d
000000e0: c109 3b3e 4210 9abd f269 6d3d 835a 31bd
000000f0: b7b6 9fbc ef47 f8bd 3a5e 55bd c275 ffbd
00000100: 2df9 6c3d 94f4 983d 22f0 3abd 5e4e d7bd
00000110: e3c4 50bd 0811 9bbd 0cee 8dbc 24c9 a13d
00000120: 4fe0 293d c69a 81bc 7fa2 46bd 307c 95bd
00000130: 508b 71bd d350 8bbd 5bbf b6bd bf67 133e
00000140: 0910 bbbc cefc a03d 6800 5ebd f68d 72be
00000150: 8552 ba3d 46fd 9d3d 293a 753d b5bd 4abd
00000160: 8cdf 23be 84eb 843d 8711 3d3b a422 ec3d
00000170: fc31 c23c a8ab 113d 5c75 8f3b 6ac1 43bd
00000180: be44 c23c 4471 cfbb 0300 f7bd e42d 80bc
00000190: 673d f8bc 598f 4abd 91cc 03be b5a1 cfbe
000001a0: 56ae 8abd 70d8 fcbd 87db 663d 1f60 083d
000001b0: f17b 7abe 6ecd 7dbe d217 783c 5667 8abd
000001c0: 66cf 9d3d aad6 88bc dea3 c13b b242 2cbd
000001d0: 4caf 823e f04d d4be 9254 e9be 0c99 8abe
000001e0: a760 d4bf ab78 adbd 87f0 bcbb ae41 66bd
000001f0: bf0c 09bc 7246 413c 9c2a 88bd 5ff8 ff3c
00000200: 06d2 1e3d 2b80 ed3d 9ea0 6b3e 6807 9ebb
00000210: 488d 8b3d bb48 bc3d b67a b63d 8d26 703d
00000220: d26b 4fbe e793 06bd cbb8 b33d 8284 5c3d
00000230: d23e b73e 78ea cebd 3319 cd3d 8a37 b93c
00000240: 3634 eb3d 423f fd3d a5a4 8cbc 7111 e93b
00000250: 987c a73d c4d0 62bd 29e5 bc3d 7474 edbb
00000260: cb00 3cbd 5134 bebc e86d 0f3e edc1 aebc
00000270: c4ac c73c a324 59bc 0840 4d3e 267d a3bd
00000280: ce20 9f3d bc8f 933c cb2a 12be cf9f f6bd
00000290: a0f7 473d b33a 973b 3963 0c3d c3a3 423e
000002a0: b48e 093d 69e1 123e c14b 4fbd 63a4 30bc
000002b0: da6c 283d 930e 16be c2e8 233d f3fb a1b9
000002c0: 71f0 673d 2b51 733e a579 a83e ee20 0dbe
000002d0: fbfb 59be dcba fbbd 6879 80bf dcaf 4dbc
000002e0: bcbc 8aba d117 cc3d 3f94 f7bc ad6d d03d
000002f0: 406a 9abc 7481 56be 5ed6 7e3c 80be ca3d
00000300: 7235 9d3c 3e32 bb3d f829 4c3a 1e02 69bd
00000310: ffe6 bd3c 9398 3f3d 1548 a93d 8707 183e
00000320: 7c92 80bd c13d 63bd 6791 96bd 8bf8 253e
00000330: 2127 dc3d fb4d ebbd ceda 1dbe 511a 03be
00000340: 3989 193d 02ef 8f3c 5ce4 ba3d 5ba1 9e3d
00000350: ab39 f7bc b621 fcbd 7227 64be a406 ad3d
00000360: aca3 063e 8d14 103e d2c8 6bbd 298d 4dbe
00000370: c933 ac3c f393 fe3c 8d87 5f3c d03f 9b3d
00000380: 220c 6cbd 602f 723c 6c52 b83c b1be 623e
00000390: 9805 1f3d 18d4 72be ea2f 35be 196d 10bf
000003a0: 64e6 863d 105e 013e 5246 823e 4b5c 813c
000003b0: 185c 113a f892 26bd 0a4b dabc 520f 9fbd
000003c0: 0fbc 71bd b381 0ebe 0048 593b 8b22 403c
000003d0: d325 163d 132d f7bd b3d8 45be 4859 bb3d
000003e0: 219b be3d b857 ed3d 70ab 053e aa67 39be
000003f0: 7b80 6a3e cd4a f9bd b188 47be c9d0 81be

fc1.bias f4 [64]
-0.011723633 0.06513144 0.17232244 0.034602642 -0.084874205 -0.051143188 0.054495856 0.010446439
-0.15615752 0.008840446 -0.07270899 -0.08986354 -0.07280422 -0.04945581 -0.20608753 0.01671208
0.011261738 0.025410015 0.19508061 -0.0918404 0.009847339 -0.02246254 -0.06343416 -0.021882456
-0.020258248 -0.0672702 -0.1651687 -0.16002068 0.13401595 0.07000634 -0.09528547 -0.18522607
-0.15572451 -0.13649864 -0.032893136 0.101842694 0.009486652 -0.10248535 0.24897167 -0.1511545
-0.16873662 0.02709 -0.1382502 0.024263468 0.12445787 -0.1145519 -0.19499075 0.042996287
-0.12636517 0.10476685 -0.06571335 0.13413258 -0.20306943 -0.17301974 0.028188279 0.061495125
0.16378094 0.061453786 -0.021934714 0.014620679 0.06480589 -0.025676683 0.020039499 -0.17862345
00000000: 7b14 40bc a263 853d 4b75 303e 80bb 0d3d
00000010: 87d2 adbd 857b 51bd 0c37 5f3d 8a27 2b3c
00000020: c2e7 1fbe 85d7 103c 73e8 94bd 600a b8bd
00000030: 611a 95bd 2d92 4abd 9c08 53be c6e7 883c
00000040: 2783 383c aa28 d03c 36c3 473e d216 bcbd
00000050: bc56 213c 5c03 b8bc c5e9 81bd d642 b3bc
00000060: a0f4 a5bc f5c4 89bd fc21 29be 76dc 23be
00000070: 7a3b 093e 7c5f 8f3d 0725 c3bd e7ab 3dbe
00000080: 3f76 1fbe 4dc6 0bbe f4ba 06bd e792 d03d
00000090: e76d 1b3c d7e3 d1bd 6ef2 7e3e 3fc8 1abe
000000a0: 4bc9 2cbe d9eb dd3c 7691 0dbe 2ec4 c63c
000000b0: c5e3 fe3d 309a eabd a8ab 47be e01c 303d
000000c0: df65 01be 0190 d63d b994 86bd 0d5a 093e
000000d0: 6ff1 4fbe 162c 31be 1beb e63c 50e2 7b3d
000000e0: 31b6 273e f7b6 7b3d 6eb0 b3bc 938b 6f3c
000000f0: f3b8 843d e857 d2bc e029 a43c 11e9 36be

fc2.weight f4 [64, 64]
0.21472083 0.098401904 -0.079664364 0.16403261 0.05186955 -0.0012252157 0.13037696 -0.08710427
-0.038674843 0.02620813 0.050244767 -0.09512619 0.059609603 -0.18652868 0.00998484 0.12614639
-0.06215994 0.10063894 0.07606521 0.11997604 0.06878246 0.017426943 0.0022691397 -0.07048097
0.1570375 0.1618372 0.07759938 -0.076607324 0.09822478 0.031205518 0.15520251 0.13448809
-0.079356775 -0.028625103 0.0832168 -0.016672108 0.06272764 -0.07987855 0.0376787 -0.027997665
-0.046022605 0.14315984 0.0200554 -0.1468712 0.063306935 0.06707706 0.023955787 0.12935904
-0.0075665396 0.13796753 0.092536196 -0.014977325 -0.040588178 -0.066220194 -0.29732895 0.09995298
0.14201832 0.06591136 0.13237622 0.38663274 0.08932838 -0.15241659 0.044250324 -0.07783603
0.056117307 -0.2978794 0.09674226 0.15643375 0.05166542 -0.100756355 0.040023837 -0.16931479
0.028851693 -0.183919 -0.329905 -0.033797186 -0.07638898 -0.23437375 -0.292874 0.136599
-0.051120553 0.011090267 0.00995266 -0.057456087 -0.008013202 0.0061651627 0.19700144 -0.18321908
0.066503584 -0.10933726 -0.16085218 0.0017262943 -0.08038239 -0.1085265 0.11814938 -0.21955426
0.14107887 -0.026091697 -0.17053449 -0.4631582 -0.046901707 -0.21445917 0.056010023 0.028442437
-0.04175506 -0.08486784 0.2221225 0.14680266 0.17723304 -0.11228864 -0.14970158 0.13684984
0.30359212 0.038473066 0.071834624 -0.35560244 -0.4657389 -0.008974303 -0.071929984 -0.19595732
-0.03536719 0.026818871 -0.064896494 0.103293926 -0.4402423 -0.14011985 -0.3427531 -0.066319466
0.3525922 0.13173124 0.058952875 0.04862496 -0.08275252 -0.028466856 0.018568851 0.10255033
0.065407984 0.001341601 0.08059201 0.047016844 -0.007466207 0.106921405 0.033909902 -0.073967874
-0.0028907873 -0.08617792 -0.03079132 0.014811186 0.003589641 0.0701125 0.27724218 -0.012266507
-0.010697678 0.07332543 0.024184959 0.0028155786 0.17535213 -0.0017488605 0.0009828478 0.0483265
0.107395 0.04573403 0.039440755 0.15953177 0.06104622 0.08189533 0.21014255 0.014518121
-0.118390486 0.02380435 0.10499746 0.16867386 -0.031888574 0.09921774 0.025274314 0.16038404
0.06477715 0.09327196 0.16498822 -0.035728116 0.04674585 -0.07331699 -0.2962175 0.013831084
0.12874165 0.09177058 0.11194377 0.09702585 0.010484612 0.04242612 -0.03778926 -0.03895858
-0.056778662 0.10771557 0.0035250285 0.06314033 0.11344297 -0.09891715 0.12805666 -0.034979284
0.087402895 0.15301768 0.07106771 -0.19099444 0.14433685 -0.10958906 -0.014174868 0.0812749
-0.04860138 -0.16215818 0.029764527 0.07205695 -0.28412887 0.08204307 0.007999833 -0.072452925
0.14178957 -0.076581776 -0.0056428127 -0.005275828 0.024941739 -0.19172281 -0.15687938 -0.56187075
-0.100241184 0.017144296 -0.027222952 0.0032874795 -0.18735047 -0.07959539 -0.11981196 -0.18263821
0.03546368 -0.13000561 -0.18470147 -0.1325116 0.13107531 -0.2664274 0.048661035 0.1219361
-0.13798255 -0.123426884 -0.18469636 0.11792844 0.061635632 -0.09971794 0.04368679 0.006969688
0.20454901 -0.1841898 -0.10671211 0.085870475 -0.033198994 0.13914526 0.011713812 -0.0596108
00000000: c7df 5b3e f086 c93d 1227 a3bd 2af8 273e
00000010: 2a75 543d 6b97 a0ba 8a81 053e b963 b2bd
00000020: 8369 1ebd 6fb2 d63c 75cd 4d3d 85d1 c2bd
00000030: 3329 743d 6001 3fbe 7497 233c 852c 013e
00000040: 6c9b 7ebd ca1b ce3d 14c8 9b3d 00b6 f53d
00000050: d2dd 8c3d f3c2 8e3c d9b5 143b 5458 90bd
00000060: 70ce 203e a7b8 253e 6cec 9e3d 4de4 9cbd
00000070: 132a c93d b7a2 ff3c 68ed 1e3e 3fb7 093e
00000080: ce85 a2bd 317f eabc 926d aa3d f293 88bc
00000090: 5977 803d 5d97 a3bd fb54 1a3d 5c5b e5bc
000000a0: 3382 3cbd 7e98 123e 394b a43c 6765 16be
000000b0: 11a7 813d b35f 893d ed3e c43c b276 043e
000000c0: bcf0 f7bb 5c47 0d3e 9e83 bd3d 7463 75bc
000000d0: ca3f 26bd 749e 87bd 803b 98be 26b4 cc3d
000000e0: 406d 113e 89fc 863d a28d 073e baf4 c53e
000000f0: ccf1 b63d 1813 1cbe d43f 353d 7f68 9fbd
00000100: 43db 653d a683 98be ce20 c63d 2b30 203e
00000110: 1f9f 533d 5959 cebd 09f0 233d db60 2dbe
00000120: 635a ec3c 4355 3cbe 4fe9 a8be eb6e 0abd
00000130: d371 9cbd acff 6fbe 95f3 95be 9ce0 0b3e
00000140: c963 51bd f4b3 353c 7b10 233c 1357 6bbd
00000150: ce49 03bc 2205 ca3b bfba 493e c89d 3bbe
00000160: 0833 883d 37ec dfbd 6fb6 24be d344 e23a
00000170: 869f a4bd 2443 debd 4df8 f13d d5d2 60be
00000180: fb76 103e 41be d5bc 98a0 2ebe 1223 edbe
00000190: 011c 40bd 2f9b 5bbe c46a 653d 1d00 e93c
000001a0: 5b07 2bbd 31cf adbd 1574 633e 7053 163e
000001b0: 947c 353e 96f7 e5bd 5f4b 19be 5d22 0c3e
000001c0: 6d70 9b3e ef95 1d3d 081e 933d 8611 b6be
000001d0: 5475 eebe f408 13bc 0750 93bd 09a9 48be
000001e0: 30dd 10bd 40b3 db3c 74e8 84bd c48b d33d
000001f0: 7067 e1be 947b 0fbe 567d afbe 80d2 87bd
00000200: f786 b43e 8ee4 063e 9278 713d f72a 473d
00000210: 277a a9bd 5333 e9bc b41d 983c e805 d23d
00000220: 9ff4 853d a9d8 af3a 6c0d a53d bc94 403d
00000230: 15a7 f4bb 9cf9 da3d 1ce5 0a3d 787c 97bd
00000240: 5d73 3dbb 0d7e b0bd 143e fcbc 9eaa 723c
00000250: 2f40 6b3b 2497 8f3d b0f2 8d3e 76f9 48bc
00000260: 5045 2fbc a52b 963d 891f c63c 9285 383b
00000270: 828f 333e 053a e5ba e6d2 803a 02f2 453d
00000280: e9f1 db3d 9b53 3b3d a18c 213d 4c5c 233e
00000290: 9a0b 7a3d bdb8 a73d 9c2f 573e 6add 6d3c
000002a0: b676 f2bd 5701 c33c e908 d73d d7b8 2c3e
000002b0: 989d 02bd ac32 cb3d 140c cf3c b73b 243e
000002c0: e2a9 843d 5f05 bf3d acf2 283e a557 12bd
000002d0: 9478 3f3d 3827 96bd d2a9 97be c59b 623c
000002e0: dad4 033e 37f2 bb3d c642 e53d 7db5 c63d
000002f0: a6c7 2b3c 03c7 2d3d e9c8 1abd 0893 1fbd
00000300: be90 68bd fb99 dc3d 2a04 673b b84f 813d
00000310: ca54 e83d 1395 cabd 4921 033e 7046 0fbd
00000320: 4a00 b33d abb0 1c3e f38b 913d 0c94 43be
00000330: 0acd 133e 3b70 e0bd b53d 68bc 7473 a63d
00000340: 3e12 47bd cb0c 26be bdd4 f33c 9892 933d
00000350: 5779 91be 3206 a83d bb11 033c 3362 94bd
00000360: 4931 113e e8d6 9cbd 58e7 b8bb dae0 acbb
00000370: 9e52 cc3c fc52 44be fda4 20be c3d6 0fbf
00000380: 404b cdbd 3272 8c3c ab02 dfbc c172 573b
00000390: cdd8 3fbe e802 a3bd f95f f5bd 8305 3bbe
000003a0: 5d42 113d 3120 05be 6222 3dbe 1fb1 07be
000003b0: 9b38 063e 2c69 88be cb50 473d a2b9 f93d
000003c0: 4c4b 0dbe 3cc7 fcbd 0b21 3dbe 7784 f13d
000003d0: a575 7c3d eb38 ccbd ebf0 323d fb61 e43b
000003e0: 4c75 513e 409c 3cbe e18b dabd dcdc af3d
000003f0: abfb 07bd 187c 0e3e 4aeb 3f3c 742a 74bd

fc2.bias f4 [64]
0.37826 -0.12588714 0.28486815 -0.077244356 -0.091970384 0.19435929 0.0867712 -0.04503968
0.24216157 0.07020093 -0.10263416 0.02994656 0.12274346 0.052748717 0.002393325 -0.09741331
-0.038685095 0.056312654 0.12137867 0.13251851 -0.13288757 -0.09161717 0.001133281 0.3826657
0.30585408 -0.05240769 0.11615515 0.08242344 0.027239678 -0.09390853 0.03967972 -0.13594584
0.030551476 0.097548455 -0.030274311 -0.19918227 0.14974856 0.15899275 0.2838065 0.061002206
0.08208288 0.088315554 -0.12938121 0.38342488 0.24109358 0.3136673 0.33259094 0.25839448
6.804894e-05 0.13316533 -0.13015078 0.07123526 -0.2542287 -0.030765373 0.078417405 -6.7913206e-06
0.020711826 0.043222826 0.19352902 -0.050529182 0.09987934 -0.1188575 -0.017399205 0.18769307
00000000: 4bab c13e 8fe8 00be 3dda 913e 4a32 9ebd
00000010: f85a bcbd 1f06 473e 19b5 b13d 877b 38bd
00000020: 34f9 773e 81c5 8f3d dc31 d2bd 7d52 f53c
00000030: ec60 fb3d 0a0f 583d 55d9 1c3b a180 c7bd
00000040: 4374 1ebd 19a8 663d 6195 f83d efb2 073e
00000050: ae13 08be c8a1 bbbd 9a8a 943a c2ec c33e
00000060: e898 9c3e 72a9 56bd c0e2 ed3d 9fcd a83d
00000070: bf25 df3c 1e53 c0bd 3487 223d 6335 0bbe
00000080: 1747 fa3c 7cc7 c73d d501 f8bc 70f6 4bbe
00000090: b057 193e ffce 223e 164f 913e 73dd 793d
000000a0: 121b a83d c9de b43d 827c 04be 4450 c43e
000000b0: 3ce1 763e 0099 a03e 5c49 aa3e 484c 843e
000000c0: 7fb5 8e38 7e5c 083e 3f46 05be cbe3 913d
000000d0: 442a 82be aa07 fcbc 4e99 a03d 00e1 e3b6
000000e0: d9ab a93c 6b0a 313d 792c 463e b0f7 4ebd
000000f0: 8a8d cc3d 906b f3bd c788 8ebc 9d32 403e

fc3.weight f4 [4, 64]
0.19556496 -0.047858775 0.17512351 -0.0023065624 -0.09591499 0.10453924 0.10503646 0.063073
0.18222798 -0.33885828 -0.096442975 -0.26922747 -0.44057393 0.26165944 0.4678548 -0.30009755
0.01400208 0.09506334 0.1624159 0.2192592 -0.13108978 0.061770387 0.06957413 0.15433112
0.1315646 0.3066994 0.26087955 0.03923589 -0.69636524 -0.1507761 -0.3673286 -0.23334011
0.13911013 0.21019381 -0.11316694 -0.17472865 0.19982252 0.15626812 0.22728819 0.5086536
0.16571036 0.4615625 -0.29263043 0.16942379 0.16410309 0.11683338 0.16300091 0.21443324
0.32058582 0.38750088 -0.10860386 0.10751021 -0.24067192 -0.34335214 0.31213355 -0.24611402
0.038885683 0.12885438 0.19469036 0.33312723 0.118956625 -0.06355165 0.027847499 0.053066105
0.20261484 -0.0792894 0.13502838 -0.0793345 -0.07503253 0.15346593 0.025547624 0.20878084
0.11825837 0.10008298 -0.012013704 -0.23275751 0.12121392 0.21241869 0.44033936 -0.22074312
0.024040937 0.08659749 0.17659386 0.28868115 0.002413867 0.10134429 -0.00897188 0.10644551
0.13094851 0.2853055 0.16786014 0.12256072 -0.08866226 -0.16109857 -0.21120831 -0.13226928
0.35688758 0.23282664 -0.11570757 -0.24756396 0.11510914 0.09797855 0.24927479 0.4605722
0.16148189 0.21460344 -0.16562673 0.19127911 0.09515644 0.14805187 0.112072565 0.12047623
0.6040144 0.2984224 0.06775781 0.123986855 -0.1809331 -0.054174986 0.47325447 -0.1515174
0.2534366 -0.21752799 0.19552258 0.40512726 0.17218891 -0.22304933 0.06542112 0.0573011
0.18312024 -0.083423205 0.10754328 -0.0025376184 -0.23375946 0.10208798 0.11056124 -0.1637595
0.09767086 0.021176223 0.1711811 0.11045153 -0.14429261 0.31041902 0.54153854 0.048319697
0.3242173 0.17673959 0.32664856 0.12776946 0.15631087 0.07807389 -0.23469198 0.17307068
0.13666308 0.008547939 0.11139794 0.23405913 -0.14675315 -0.15563947 -0.57944906 -0.47346938
0.4440441 0.15617107 -0.19218528 -0.46600336 -0.0041970396 -0.007097328 0.29267162 0.6647241
-0.04202586 0.17679478 -0.033967968 0.14720157 0.19771288 0.16297948 0.11396898 0.14839077
0.67835367 0.11233693 -0.0983024 0.043956827 -0.19907027 -0.27746108 0.05723916 -0.20942543
0.19920927 -0.15691744 0.18265319 0.26588053 0.27366352 0.25296208 0.15794136 0.033557296
0.11546038 0.12540622 0.08213366 -0.2196895 0.095299646 0.22821863 -0.029442778 0.2804894
0.0776161 0.23438393 -0.24931863 -0.23398274 -0.08104879 0.15217505 0.81233114 0.02172268
0.11483594 0.11357047 0.19412075 0.248131 0.2128471 -0.23242095 0.09253062 0.19014862
0.11858402 -0.005802106 0.16391592 0.09870051 -0.14456116 -0.2064762 -0.30544174 -0.005656751
0.2676207 -0.023212984 -0.30846584 -0.056988522 0.046943974 0.047437336 0.20061655 0.38466984
0.1335064 0.12201143 -0.40725186 0.10740113 0.10756529 0.1989019 0.26142293 0.23938748
-0.21162865 0.25637805 0.012011232 0.20046847 -0.207868 -0.36512306 0.5421153 -0.14931336
0.43622965 0.30799127 0.30260968 0.4642611 -0.03422186 -0.11541188 0.23355527 0.16159752
00000000: 2e42 483e 9007 44bd 9453 333e b229 17bb
00000010: 146f c4bd ab18 d63d 5b1d d73d 6b2c 813d
00000020: f999 3a3e d57e adbe e583 c5bd 2fd8 89be
00000030: e892 e1be 3af8 853e aa8a ef3e 63a6 99be
00000040: fb68 653c 92b0 c23d 5b50 263e 7c85 603e
00000050: 663c 06be f202 7d3d e27c 8e3d fa08 1e3e
00000060: dfb8 063e b407 9d3e 0192 853e d0b5 203d
00000070: fe44 32bf 0d65 1abe 7f12 bcbe b6f0 6ebe
00000080: e372 0e3e 0c3d 573e 12c4 e7bd 11ec 32be
00000090: 469e 4c3e c004 203e 3cbe 683e 1f37 023f
000000a0: faaf 293e ec51 ec3e a8d3 95be 6e7d 2d3e
000000b0: a40a 283e 5746 ef3d b6e9 263e 6394 5b3e
000000c0: d323 a43e 8466 c63e b36b debd 502e dc3d
000000d0: b372 76be dacb afbe f8cf 9f3e 5005 7cbe
000000e0: 9846 1f3d 67f2 033e e95c 473e a78f aa3e
000000f0: 889f f33d 5e27 82bd 7020 e43c d85b 593d
00000100: 447a 4f3e 7b62 a2bd e144 0a3e 207a a2bd
00000110: a8aa 99bd 2c26 1d3e 4049 d13c a5ca 553e
00000120: 7231 f23d 4ef8 cc3d 20d5 44bc fc57 6ebe
00000130: 013f f83d 4984 593e 2974 e13e 7c0a 62be
00000140: 80f1 c43c 065a b13d 05d5 343e 04ce 933e
00000150: f831 1e3b 988d cf3d cbfe 12bc 1b00 da3d
00000160: 5e17 063e 9013 923e 87e3 2b3e 1d01 fb3d
00000170: 8f94 b5bd 06f7 24be fe46 58be 9971 07be
00000180: f8b9 b63e 1b6a 6e3e 17f8 ecbd 6881 7dbe
00000190: 57be eb3d faa8 c83d e441 7f3e 1fd0 eb3e
000001a0: 825b 253e 01c1 5b3e 0e9a 29be acde 433e
000001b0: 61e1 c23d e99a 173e 4d86 e53d 3ebc f63d
000001c0: b0a0 1a3f d2ca 983e 9bc4 8a3d d2ec fd3d
000001d0: 8746 39be 97e6 5dbd 694e f23e 6127 1bbe
000001e0: 71c2 813e a8bf 5ebe 1237 483e d76c cf3e
000001f0: 4a52 303e 0b67 64be 82fb 853d 8fb4 6a3d
00000200: df83 3b3e c9d9 aabd a73f dc3d 2c4e 26bb
00000210: a45e 6fbe 8113 d13d ee6d e23d 92b0 27be
00000220: a907 c83d c279 ad3c 194a 2f3e 6934 e23d
00000230: 71c1 13be 3eef 9e3e 45a2 0a3f e0ea 453d
00000240: cfff a53e 39fb 343e 7b3e a73e ffd5 023e
00000250: f50f 203e 34e5 9f3d 1853 70be 7139 313e
00000260: 68f1 0b3e a80c 0c3c 9a24 e43d 32ad 6f3e
00000270: 7546 16be f45f 1fbe c656 14bf 946a f2be
00000280: c059 e33e 4feb 1f3e 38cc 44be fe97 eebe
00000290: 5287 89bb b490 e8bb 0ed9 953e 5c2b 2a3f
000002a0: 4f23 2cbd b109 353e ff21 0bbd 02bc 163e
000002b0: 3f75 4a3e 18e4 263e 9268 e93d c0f3 173e
000002c0: 96a8 2d3f e810 e63d c552 c9bd 130c 343d
000002d0: 14d9 4bbe 610f 8ebe 9c73 6a3d 9f73 56be
000002e0: 84fd 4b3e f7ae 20be 7009 3b3e 7e21 883e
000002f0: a01d 8c3e 3f84 813e 61bb 213e 6073 093d
00000300: 7e76 ec3d 7d6a 003e b135 a83d 49f6 60be
00000310: 762c c33d 25b2 693e fb31 f1bc 4e9c 8f3e
00000320: 31f5 9e3d 5702 703e 624d 7fbe 2c99 6fbe
00000330: e8fc a5bd c7d3 1b3e eff4 4f3f c3f3 b13c
00000340: 1b2f eb3d a297 e83d 97c7 463e 0e16 7e3e
00000350: 97f4 593e c2ff 6dbe b280 bd3d 52b6 423e
00000360: 2edc f23d 981f bebb 93d9 273e 7e23 ca3d
00000370: d707 14be 7f6e 53be dc62 9cbe 445c b9bb
00000380: 9505 893e 2829 bebc 3cef 9dbe cc6c 69bd
00000390: 5348 403d a74d 423d 6d6e 4d3e 72f3 c43e
000003a0: e7b5 083e 21e1 f93d 5183 d0be 20f5 db3d
000003b0: 314b dc3d f1ac 4b3e 3ad9 853e fe21 753e
000003c0: 2eb5 58be fc43 833e c2ca 443c 9b47 4d3e
000003d0: 59db 54be 69f1 babe 11c8 0a3f 9ae5 18be
000003e0: 7e59 df3e 08b1 9d3e a8ef 9a3e a2b3 ed3e
000003f0: 392c 0cbd 105d ecbd 1d29 6f3e d279 253e

fc3.bias f4 [4]
0.17477597 0.24779133 0.24852934 0.18510723
00000000: 79f8 323e 03bd 7d3e 7a7e 7e3e c08c 3d3e
