1 - Navigation -DQN/trained_agents/dqnpriority_checkpoint.pth (torch_old, 28417 bytes, 6 tensors)

fc1.weight f4 [64, 37]
0.12074285 0.035977256 -0.11431575 -0.034172975 0.0021410591 -0.06587646 0.10176245 0.26559168
-0.0050238823 -1.6826124 -0.07981223 0.10530512 0.16912368 0.06739549 -0.12290404 -0.07681983
0.033296358 -0.043411322 -0.052659422 -0.025845848 -0.013679723 0.37764904 0.07208954 -0.3979165
-0.72394085 0.09740611 0.1901147 0.25031924 -0.29868895 -0.5874835 -0.44053543 0.3192189
0.062343117 -0.29221016 -1.7339051 0.0037834493 0.010515795 0.060417388 0.021917539 0.024938969
-0.09127997 -0.13887891 -0.07492335 -0.022257056 -0.018283067 -0.020443026 0.018791514 0.45517752
-0.62221 -0.46102357 -0.6556666 -2.6266415 0.07169415 0.0616008 0.09010392 0.11696389
0.060090885 0.09496921 0.13219045 0.13851771 0.11978837 -0.09070039 -0.036926806 0.048374716
0.06925225 -0.047879614 -0.0049745818 -0.08077382 -0.01141398 -0.058021367 0.15401891 0.11778806
0.018064693 0.006265419 -0.016136898 0.022516781 -0.04661442 0.01903269 -0.08256206 0.23392877
0.0434146 0.03472257 0.2455347 0.33926198 0.07693381 0.19258732 0.14404474 0.06908663
-0.08841691 -0.048931025 0.09501287 0.027100224 0.008078136 -0.297509 0.15147074 -0.09325301
0.009374682 -0.20461166 -0.31093597 0.19765301 -0.14148949 0.04601098 0.20121573 -0.09381469
0.37335965 0.13874137 0.08097417 0.08968324 -0.38376167 -0.020710675 -0.022721332 0.13631801
-0.06521623 -0.019030675 -0.17736928 -0.092910215 -0.07981453 -0.013739039 0.26346913 -0.05359566
0.1391673 0.37151855 0.13229443 -0.04792669 0.08122254 -0.047203593 0.09209376 0.032351825
0.022299653 0.020372326 -0.29740793 -0.07080874 0.14771584 0.037998784 -0.09718424 0.15069418
-0.080675624 -0.007432277 0.042794757 0.41434327 0.18782265 0.12281045 -0.012666263 0.07236397
-0.12834875 0.060696196 0.0011704395 -0.0011221733 0.034091093 -0.26587495 0.021427043 -0.087833196
-0.4946742 0.13246892 0.21092677 -0.9332886 -0.2927709 -0.60040265 0.14502917 0.025452066
0.16658506 -0.083097376 0.14772129 0.12439337 -0.31867602 0.17073491 -0.06738395 -0.018683817
-0.3576757 -0.045592837 0.21056902 0.20566921 -0.22106557 0.036239464 0.24344884 -0.023507956
-0.5602678 -0.37054127 -0.004776374 -0.14943449 0.10613564 0.11895602 0.005920337 -0.028045869
-0.020258164 0.13593164 0.046388317 0.052032616 -0.009084253 -0.13147892 0.34985042 -0.45503822
-0.5410226 -0.57886183 -2.192495 0.11039471 0.08250279 0.05686925 0.044081666 -0.11446741
0.011284266 0.033707082 0.013849957 0.007036642 -0.069226444 0.11728063 0.07583018 0.095486574
0.07068044 0.0014837047 0.008641017 0.031129943 0.04183243 0.11686719 0.086038336 0.009820987
-0.03717566 -0.015114503 -0.01796279 0.03300647 0.00021890088 0.0041278335 -0.022883391 0.07331274
0.18245432 0.18344751 0.32668188 0.0012275319 0.3527278 0.22022976 0.24237874 0.30299225
0.085648976 0.087369695 0.13718393 0.04507787 0.119198024 0.20552626 0.19857797 0.064834386
0.17406696 0.029423602 0.29793018 0.13885377 0.16652118 0.24434045 0.08859051 0.2026709
0.27468017 0.17430069 0.21209814 0.15235008 0.08260721 0.21117501 0.05259856 0.30313736
00000000: 0748 f73d e35c 133d 601e eabd f6f8 0bbd
00000010: 0351 0c3b 3dea 86bd d568 d03d a2fb 873e
00000020: 619f a4bb d85f d7bf 9874 a3bd 36aa d73d
00000030: c22e 2d3e a606 8a3d 1db5 fbbd b753 9dbd
00000040: c361 083d 12d0 31bd 68b1 57bd acba d3bc
00000050: eb20 60bc 375b c13e aea3 933d b6bb cbbe
00000060: 3054 39bf db7c c73d 6ead 423e d829 803e
00000070: c2ed 98be 5265 16bf dc8d e1be a970 a33e
00000080: 7f5b 7f3d 929c 95be 9af0 ddbf bff3 773b
00000090: 714a 2c3c 3978 773d 698c b33c cf4c cc3c
000000a0: fef0 babd 4636 0ebe 6a71 99bd 6e54 b6bc
000000b0: 5fc6 95bc 2278 a7bc a9f0 993c 070d e93e
000000c0: 2849 1fbf 480b ecbe c4d9 27bf e51a 28c0
000000d0: 62d4 923d 1f51 7c3d 6788 b83d c48a ef3d
000000e0: dc21 763d 387f c23d ef5c 073e 96d7 0d3e
000000f0: 9b53 f53d 20c1 b9bd 9040 17bd 9124 463d
00000100: 20d4 8d3d 6a1d 44bd d101 a3bb bf6c a5bd
00000110: b401 3bbc d0a7 6dbd 22b7 1d3e de3a f13d
00000120: 68fc 933c 254e cd3b 8731 84bc 1d75 b83c
00000130: c3ee 3ebd 72ea 9b3c 4c16 a9bd 068b 6f3e
00000140: 82d3 313d 4139 0e3d 736d 7b3e bfb3 ad3e
00000150: 798f 9d3d 9c35 453e 7780 133e 4b7d 8d3d
00000160: ed13 b5bd e66b 48bd 1c96 c23d 4a01 de3c
00000170: 285a 043c 1a53 98be 251b 1b3e 6ffb bebd
00000180: 4498 193c b885 51be 0033 9fbe 8d65 4a3e
00000190: 9fe2 10be 0276 3c3d 7f0b 4e3e eb21 c0bd
000001a0: ff28 bf3e 3812 0e3e c9d5 a53d d9ab b73d
000001b0: 697c c4be 6fa9 a9bc 1622 babc f396 0b3e
000001c0: 1690 85bd 38e6 9bbc 4ba0 35be b647 bebd
000001d0: cd75 a3bd b519 61bc 6de5 863e 1f87 5bbd
000001e0: df81 0e3e ae37 be3e 3178 073e c74e 44bd
000001f0: 0158 a63d 8e58 41bd a79b bc3d 5983 043d
00000200: c3ad b63c dde3 a63c da45 98be 2c04 91bd
00000210: d242 173e 9da4 1b3d 8808 c7bd 934f 1a3e
00000220: 4339 a5bd 758a f3bb 8e49 2f3d cd24 d43e
00000230: 9554 403e 0c84 fb3d 2886 4fbc 9033 943d
00000240: db6d 03be 939c 783d 6f69 993a e315 93ba
00000250: 1aa3 0b3d c320 88be c487 af3c e4e1 b3bd
00000260: f045 fdbe efa5 073e 30fd 573e 00ec 6ebf
00000270: 11e6 95be fdb3 19bf 8782 143e da80 d03c
00000280: 4695 2a3e f52e aabd 4044 173e f3c1 fe3d
00000290: 8129 a3be 22d5 2e3e 9900 8abd ce0e 99bc
000002a0: 4521 b7be 8ebf 3abd 689f 573e f39a 523e
000002b0: 035f 62be d56f 143d a74a 793e c293 c0bc
000002c0: b66d 0fbf 96b7 bdbe 2183 9cbb 5b05 19be
000002d0: a45d d93d 379f f33d 63ff c13b 73c0 e5bc
000002e0: 73f4 a5bc aa31 0b3e ad01 3e3d 2720 553d
000002f0: 1ed6 14bc 69a2 06be 981f b33e c5fa e8be
00000300: 7580 0abf 4a30 14bf d751 0cc0 9f16 e23d
00000310: 39f7 a83d bbef 683d fa8e 343d e46d eabd
00000320: a4e1 383c 7010 0a3d eeea 623c a293 e63b
00000330: 98c6 8dbd d430 f03d da4c 9b3d 778e c33d
00000340: e8c0 903d de78 c23a 0d93 0d3c 3904 ff3c
00000350: 7b58 2b3d 1158 ef3d de34 b03d 34e8 203c
00000360: 8145 18bd d2a2 77bc b326 93bc cb31 073d
00000370: c288 6539 c742 873b f375 bbbc fd24 963d
00000380: 4ed5 3a3e aad9 3b3e d942 a73e 23e5 a03a
00000390: bd98 b43e e983 613e 2232 783e cd21 9b3e
000003a0: bb68 af3d e2ee b23d f279 0c3e 93a3 383d
000003b0: 181e f43d 7a75 523e 0658 4b3e e4c7 843d
000003c0: 9c3e 323e c409 f13c 4e8a 983e af2f 0e3e
000003d0: 8784 2a3e 6234 7a3e f16e b53d f688 4f3e
000003e0: e1a2 8c3e e17b 323e 4130 593e a901 1c3e
000003f0: f82d a93d 433e 583e 9671 573d d234 9b3e

fc1.bias f4 [64]
0.15639476 0.14043637 0.17889906 -0.07579219 -0.011584711 0.17786066 0.28062347 -0.061614137
0.17274548 0.11103117 -0.013810866 -0.06182236 -0.10724087 -0.028521044 -0.06330422 0.025891034
0.0702801 0.09700276 0.011622993 0.057431135 -0.14694722 0.1856329 -0.14713767 -0.041582312
-0.13390103 -0.11353159 -0.0899098 -0.07180231 0.14976163 0.14940841 -0.052141856 -0.026096
-0.12717754 0.08331526 -0.023789989 -0.3787009 0.025256338 0.11745683 0.13438037 -0.11014023
-0.120179266 0.10290188 -0.16217957 -0.005237636 -0.12255838 0.012026447 -0.14001036 -0.0007163317
0.12598284 0.099167995 -0.025688672 -0.113718264 -0.056566153 0.16870204 0.25052688 -0.13814005
-0.054855973 0.06308463 0.01691304 -0.04943884 0.0038432763 -0.20550214 -0.08595386 0.013124476
00000000: f325 203e 8dce 0f3e 5131 373e f038 9bbd
00000010: cdcd 3dbc 1b21 363e e1ad 8f3e 1b5f 7cbd
00000020: 31e4 303e 4f64 e33d f846 62bc 7139 7dbd
00000030: 1aa1 dbbd f7a4 e9bc a5a5 81bd 6f19 d43c
00000040: 03ef 8f3d 62a9 c63d 5e6e 3e3c e93c 6b3d
00000050: 5579 16be 8d16 3e3e 42ab 16be 3752 2abd
00000060: 5a1d 09be 4083 e8bd a122 b8bd 170d 93bd
00000070: 1d5b 193e 85fe 183e b392 55bd 47c7 d5bc
00000080: d43a 02be 31a1 aa3d 39e3 c2bc 16e5 c1be
00000090: 61e6 ce3c 358d f03d 029b 093e 3391 e1bd
000000a0: 8c20 f6bd 39be d23d 6712 26be 7aa0 abbb
000000b0: e3ff fabd 930a 453c e05e 0fbe 35c8 3bba
000000c0: a501 013e 9718 cb3d 0d71 d2bc 1fe5 e8bd
000000d0: e9b1 67bd 3ac0 2c3e 0f45 803e 9674 0dbe
000000e0: a8b0 60bd 8432 813d 378d 8a3c 6280 4abd
000000f0: 7adf 7b3b 276f 52be 9408 b0bd 0b08 573c

fc2.weight f4 [64, 64]
0.13932408 0.27837372 -0.06602363 0.04537664 -0.17999849 -0.4603888 0.012110373 0.20512451
0.3403789 0.12983209 -0.08817502 -0.22221632 0.08907828 -0.012241858 0.69051546 0.03184381
0.07809856 -0.10801357 -0.071740545 0.073491484 -0.013703849 -0.25098643 -0.09322172 0.023774829
-0.008047199 -0.09131122 -0.025871912 -0.06968655 0.0690301 0.0033305367 0.30767497 0.08567478
0.07263247 0.104151435 -0.021652821 0.051262964 -0.40914795 -0.8941672 0.23092075 -0.18704288
-0.29578313 0.03523904 -0.29116762 -0.07607808 0.04689994 0.068158865 -0.073627904 -0.19160286
-0.42478722 -0.0093138255 -0.5770091 -0.16645588 0.065730564 0.04738796 0.041086756 0.025616854
-0.06816508 -0.007260249 -0.04693502 -0.011992809 0.104192555 0.060000237 0.2283376 0.2331232
-0.10523395 0.06659238 0.046345036 0.057378612 -0.12499402 -0.057308648 0.19860497 -0.13358076
0.08452307 0.22075905 -0.06464519 -0.11248382 0.039158843 0.04717747 0.02807881 0.204185
-0.26162937 -0.052379902 0.06332423 -0.017422246 -0.048773628 0.35343227 -0.063794374 0.11303995
-0.00090915343 -0.072032124 -0.02934422 0.03753747 0.24076903 0.24817574 0.023886701 -0.19135176
-0.09448776 0.11265689 0.117293075 -0.28605092 -0.18408185 -0.39169213 0.19233373 0.042052206
-0.12284136 -0.078874506 -0.2629924 0.009776061 0.23353119 -0.10384795 -0.6474944 0.11152041
-0.17146191 0.13728769 0.019531917 -0.15002783 -0.2955581 0.036298156 0.1316982 0.016970823
-0.11037685 0.0120626995 0.19135845 0.11314563 0.06647584 -0.17208867 0.022697143 0.044933822
-0.05289619 0.36948854 0.08541632 0.00414806 -0.17044164 -0.44901937 -0.058193896 -0.039646376
-0.42072693 -0.027284183 -0.08845168 -0.013405091 0.12796772 0.049848724 -0.52352613 0.071442276
-0.11123105 0.14165646 0.11440525 -0.04472136 -0.15289791 -0.20711643 0.038906984 -0.12355132
0.15208223 0.073867455 0.07651083 0.18125112 0.023899913 0.21331877 -0.09370309 0.26930594
0.060542233 0.04452562 -0.0006364866 -0.15929507 -0.012918183 0.17485568 -0.21206643 -0.2075952
0.013341036 -0.020619724 0.21075726 -0.13878196 -0.03808815 0.27809134 -0.14112534 0.10580058
0.14486168 0.07870037 0.15159227 0.15137143 0.26266795 0.15051143 -0.008848172 0.26127946
-0.17788324 0.19756083 0.036946423 -0.05213694 -0.38089162 0.10845216 0.1718249 -0.85879713
0.12340524 -0.3044508 -0.07468381 -0.052992407 -0.14020176 -0.36041942 -0.08866644 -0.02989364
0.9343085 -0.0787973 0.024311509 0.20732664 -0.098944664 -0.23307498 -0.97916955 -0.09504509
0.10639119 0.039910335 0.005809321 -0.36283693 0.20429261 -0.3908056 -0.08747872 -0.030425755
-0.010485433 -0.038977057 -0.05113858 0.077490225 -0.2675608 0.19513993 0.045656554 -0.16744494
-0.09563721 -0.026043326 0.04181449 0.27607086 0.04068846 -0.5263507 -0.07290692 -0.08145898
-0.09562847 -0.077885024 -0.31992242 0.13428834 -0.047862917 0.096907996 -0.094848104 0.05617023
-0.25187063 -0.12208186 -0.035977747 -0.024829783 0.024046335 0.13120238 0.10492424 0.049711328
0.0017416382 0.010289711 -0.11604088 -0.059813242 0.43676314 -0.046234567 -0.124605976 -0.06495042
00000000: f9aa 0e3e 0087 8e3e 6637 87bd dbdc 393d
00000010: 8651 38be 15b8 ebbe 966a 463c 290c 523e
00000020: 2546 ae3e b4f2 043e 1b95 b4bd ad8c 63be
00000030: ac6e b63d 1392 48bc 9fc5 303f a86e 023d
00000040: 23f2 9f3d 3836 ddbd b5ec 92bd b482 963d
00000050: 1c86 60bc 4b81 80be 07eb bebd 6ec3 c23c
00000060: 66d8 03bc 6001 bbbd 55f1 d3bc d2b7 8ebd
00000070: a75f 8d3d 2245 5a3b 9387 9d3e 4276 af3d
00000080: 55c0 943d 594d d53d 4261 b1bc 1df9 513d
00000090: d77b d1be 24e8 64bf 7d76 6c3e 2b88 3fbe
000000a0: e370 97be d056 103d ec13 95be d3ce 9bbd
000000b0: 271a 403d e096 8b3d 3aca 96bd 8a33 44be
000000c0: b67d d9be 0499 18bc deb6 13bf 6973 2abe
000000d0: bf9d 863d e119 423d 964a 283d 70da d13c
000000e0: 229a 8bbd 62e7 edbb ef3e 40bd 7d7d 44bc
000000f0: e862 d53d cfc2 753d 55d1 693e d9b7 6e3e
00000100: e684 d7bd 9661 883d 4bd4 3d3d d605 6b3d
00000110: ddfc ffbd 79bc 6abd 1a5f 4b3e 65c9 08be
00000120: 6e1a ad3d a90e 623e b364 84bd eb5d e6bd
00000130: 0665 203d 2a3d 413d 8805 e63c df15 513e
00000140: 49f4 85be 4f8c 56bd 22b0 813d 19b9 8ebc
00000150: dbc6 47bd 13f5 b43e a0a6 82bd 7d81 e73d
00000160: 4154 6eba 9485 93bd 4a63 f0bc e4c0 193d
00000170: 288c 763e c821 7e3e 0bae c33c b7f1 43be
00000180: cc82 c1bd a8b8 e63d 5a37 f03d 4475 92be
00000190: f47f 3cbe df8b c8be 22f3 443e ef3e 2c3d
000001a0: 4094 fbbd f588 a1bd f1a6 86be c62b 203c
000001b0: cd22 6f3e 3cae d4bd 31c2 25bf d064 e43d
000001c0: b693 2fbe 2595 0c3e 6601 a03c e5a0 19be
000001d0: 6453 97be 60ad 143d e5db 063e 6506 8b3c
000001e0: 420d e2bd a1a2 453c 78f3 433e e5b8 e73d
000001f0: 7c24 883d 0338 30be 5cef b93c 870c 383d
00000200: ada9 58bd 9a2d bd3e c0ee ae3d 73ec 873b
00000210: 4188 2ebe dee5 e5be b95c 6ebd 3d64 22bd
00000220: 8569 d7be 1483 dfbc 2826 b5bd 07a1 5bbc
00000230: f809 033e 2d2e 4c3d cf05 06bf 5450 923d
00000240: 1bcd e3bd 640e 113e 4d4d ea3d bf2d 37bd
00000250: 4591 1cbe 5416 54be ee5c 1f3d 7908 fdbd
00000260: 72bb 1b3e d247 973d b6b1 9c3d e599 393e
00000270: c0c9 c33c 3c70 5a3e 68e7 bfbd 78e2 893e
00000280: 22fb 773d 7f60 363d e5d9 26ba 3f1e 23be
00000290: c9a6 53bc 5e0d 333e f127 59be d693 54be
000002a0: 5c94 5a3c b2ea a8bc c0d0 573e dc1c 0ebe
000002b0: 5202 1cbd fd61 8e3e 2983 10be f9ad d83d
000002c0: 9f56 143e a92d a13d 013b 1b3e 1d01 1b3e
000002d0: 6a7c 863e ab1f 1a3e ecf7 10bc 6cc6 853e
000002e0: 0627 36be 634d 4a3e 2255 173d 8b8d 55bd
000002f0: 3a04 c3be 2b1c de3d def2 2f3e 21da 5bbf
00000300: e3bb fc3d fae0 9bbe d3f3 98bd 910e 59bd
00000310: 0d91 0fbe e588 b8be c096 b5bd 82e3 f4bc
00000320: d82e 6f3f 7b60 a1bd ee28 c73c 6f4d 543e
00000330: 80a3 cabd 35ab 6ebe dbaa 7abf 00a7 c2bd
00000340: a0e3 d93d 0579 233d 1e5c be3b c3c5 b9be
00000350: 1532 513e ac17 c8be 0b28 b3bd 6f3f f9bc
00000360: 18cb 2bbc 68a6 1fbd b076 51bd 32b3 9e3d
00000370: bbfd 88be c3d2 473e 5e02 3b3d b076 2bbe
00000380: 71dd c3bd d058 d5bc ac45 2b3d 2959 8d3e
00000390: f1a8 263d ebbe 06bf 3950 95bd f7d3 a6bd
000003a0: dcd8 c3bd 2f82 9fbd dfcc a3be e282 093e
000003b0: e80b 44bd b377 c63d b93f c2bd c112 663d
000003c0: 30f5 80be 0e06 fabd 675d 13bd d467 cbbc
000003d0: d2fc c43c eb59 063e 85e2 d63d 1b9e 4b3d
000003e0: ae47 e43a 2d96 283c d7a6 edbd bbfe 74bd
000003f0: 6b9f df3e 7560 3dbd 6b31 ffbd ba04 85bd

fc2.bias f4 [64]
0.091525696 0.49220216 -0.108728044 0.03584105 0.3336687 -0.112640165 -0.11723971 0.64102614
0.43592763 -0.019921051 -0.05014632 0.10492451 0.5576528 0.34455454 0.29847312 0.08953144
-0.0700269 -0.19148368 0.1313999 -0.22609599 0.68237317 0.032569956 0.16534373 -0.05432614
-0.021949906 -0.07034172 0.23575488 0.33027276 0.12523152 0.0023298187 -0.038020615 0.0050174035
0.26618025 0.0065587307 -0.077438995 -0.14084616 0.16801213 0.0420881 0.08791798 -0.19923373
-0.15010665 -0.124211535 -0.026132386 0.28572938 -0.121803254 -0.23990645 -0.15374468 0.10147305
-0.18158622 0.05451809 0.36751306 0.17102724 0.5769155 0.076605044 -0.23435457 -0.038917515
0.28588125 -0.03572186 0.15566218 -0.24771805 -0.039438564 -0.2520579 0.7715801 -0.2728868
00000000: d371 bb3d ec01 fc3e cfac debd 11ce 123d
00000010: a0d6 aa3e e3af e6bd 601b f0bd 4a1a 243f
00000020: e831 df3e 7931 a3bc 3a66 4dbd a9e2 d63d
00000030: 55c2 0e3f 7469 b03e 78d1 983e 425c b73d
00000040: 436a 8fbd 4c14 44be b28d 063e b585 67be
00000050: 02b0 2e3f 1368 053d de4f 293e 1685 5ebd
00000060: 4ad0 b3bc 520f 90bd ba69 713e 8319 a93e
00000070: b13c 003e dfaf 183b 81bb 1bbd 0869 a43b
00000080: c748 883e 9fea d63b 5698 9ebd fa39 10be
00000090: 5f0b 2c3e 9264 2c3d 580e b43d ed03 4cbe
000000a0: 8fb5 19be 9e62 febd 9613 d6bc 1f4b 923e
000000b0: fc73 f9bd 09aa 75be 3f6f 1dbe 1ad1 cf3d
000000c0: bdf1 39be 5c4e 5f3d ac2a bc3e c421 2f3e
000000d0: bcb0 133f 1be3 9c3d a5fa 6fbe f967 1fbd
000000e0: 075f 923e 1651 12bd e865 1f3e cda9 7dbe
000000f0: 558a 21bd bc0d 81be 4686 453f d2b7 8bbe

fc3.weight f4 [4, 64]
0.19493872 0.17097826 -0.056615535 0.5006169 0.16919866 -0.22365783 0.3124097 0.19574772
0.17904337 0.42945012 -0.23908032 0.5503037 0.29476863 0.13830003 0.2078289 -0.019282069
-0.048049077 -0.38852486 0.060824316 -0.013211503 0.18758161 0.08973157 0.07280682 0.5516341
-0.030626358 -0.33837962 0.042780995 0.21157491 0.19472985 -0.10735254 0.0047861654 0.02656063
0.05513249 -0.43521246 0.0632437 -0.40559226 0.082067795 -0.032904256 -0.0029677025 -0.13881625
-0.022061152 0.36948067 -0.06834857 0.1659992 -0.09226265 -0.32801273 -0.22635145 0.3454111
0.00947389 -0.064981036 0.19845068 0.39122003 0.2957744 0.14900483 -0.13110074 0.01120878
0.21340409 0.11556092 0.2396465 -0.3525987 -0.2363816 -0.12729417 0.2810396 -0.1833877
0.22500141 0.23925929 -0.016531652 0.4886025 0.17111672 0.207015 0.490996 0.2494046
0.113771126 0.49313614 -0.1372922 0.8047757 0.2829633 0.06918053 0.23066227 0.0023320091
-0.05636845 -0.14972155 0.042685702 -0.023946932 0.20434973 0.24649139 0.17709121 0.55620575
-0.13103913 -0.15147749 0.06677787 0.21469823 0.19238052 0.031228662 -0.11546999 0.0351027
0.117415585 -0.10933052 -0.0935755 -0.34522378 0.16616723 -0.114500955 0.008635326 -0.14387535
0.027985694 -0.5610529 -0.1069007 0.120774895 0.025900802 0.028260168 -0.2057917 0.29826453
0.023950053 -0.14640746 0.19632286 0.3565358 0.08532766 0.274872 -0.061703354 0.02054532
0.19886953 0.09708653 0.24358025 -0.0363873 -0.23956533 -0.12860408 0.34951973 -0.12372208
0.17614752 0.33501706 -0.00067224976 0.4388719 0.17513223 -0.84792835 0.5190791 0.24046043
0.18263295 0.5457611 -0.22075932 -0.032390647 0.1065649 -0.00543627 0.22615427 0.15012486
-0.33834365 -0.5055124 -0.028847508 -0.20454621 0.22923034 0.024312675 0.2036933 0.5090268
-0.17518838 -0.2196361 0.1753282 0.2705409 0.21474324 -0.48724768 0.075809196 0.60941875
0.24342859 -0.385739 0.34504303 -0.059405055 0.66866934 -0.39146227 -0.6473094 -0.19997707
-0.072137944 0.26367053 -0.2888768 0.039857473 0.057458542 0.4899298 -0.431931 0.13210168
0.5509121 -0.1744154 0.2612249 0.27219704 0.21169348 0.07719441 0.13614808 -0.02993598
0.17014427 0.1301519 0.29103774 0.07047727 -0.0755242 -0.13458434 0.25446618 -0.05552422
0.23383087 0.28820074 -0.38052177 0.6512808 0.13510849 -0.021463137 -0.3690867 0.1346682
0.089666754 0.24508445 -0.3304186 0.7850591 0.18467547 0.14274445 0.12957397 0.18717048
-0.11184462 -0.27516422 0.14115915 -0.27582076 0.15443935 0.6707445 0.44550222 0.4189173
0.27093655 -0.052810177 0.18627936 0.22722626 0.20245406 0.14471143 0.5429981 -0.48338303
0.12222966 0.49201834 -0.18959883 0.061599094 0.33306968 -0.21162733 -0.5297918 -0.27305463
0.80808336 -0.16169307 -0.2500836 0.10693927 0.16158764 -0.56974524 -0.04549268 0.51511484
-0.7584209 -0.06274938 0.17208116 0.3371171 0.24912079 0.20441794 0.14332996 0.22788881
0.20852074 0.183067 0.22907603 -0.10839117 -0.22769612 -0.24066372 0.3420805 -0.2272532
00000000: 049e 473e ed14 2f3e b1e5 67bd 6e28 003f
00000010: 6a42 2d3e 8f06 65be 2af4 9f3e 1772 483e
00000020: 2557 373e e3e0 db3e 79d1 74be b4e0 0c3f
00000030: eaeb 963e 869e 0d3e 19d1 543e 6ef5 9dbc
00000040: 1ccf 44bd bbec c6be eb22 793d 0f75 58bc
00000050: 6515 403e 2fc5 b73d be1b 953d e437 0d3f
00000060: 21e4 fabc 1840 adbe 203b 2f3d 18a7 583e
00000070: 4367 473e a6db dbbd 44d5 9c3b ae95 d93c
00000080: 9bd2 613d 2bd4 debe ea85 813d caa9 cfbe
00000090: 2913 a83d 9dc6 06bd c97d 42bb d925 0ebe
000000a0: 97b9 b4bc 922c bd3e 56fa 8bbd b2fb 293e
000000b0: 33f4 bcbd 49f1 a7be adc8 67be b9d9 b03e
000000c0: 6038 1b3c c714 85bd a836 4b3e fe4d c83e
000000d0: be6f 973e b994 183e 463f 06be 08a5 373c
000000e0: 9a86 5a3e 34ab ec3d e465 753e d187 b4be
000000f0: 050e 72be 6759 02be 6ce4 8f3e fcc9 3bbe
00000100: c566 663e 6300 753e 636d 87bc 1b2a fa3e
00000110: 3939 2f3e bdfb 533e d463 fb3e eb63 7f3e
00000120: d600 e93d 577c fc3e 5496 0cbe c805 4e3f
00000130: 91e0 903e 86ae 8d3d bb32 6c3e 9fd4 183b
00000140: 9be2 66bd 9b50 19be 34d7 2e3d 5b2c c4bc
00000150: 0e41 513e 3d68 7c3e 6657 353e 8063 0e3f
00000160: 1f2f 06be ea1c 1bbe d6c2 883d dad9 5b3e
00000170: 66ff 443e 40d3 ff3c 887b ecbd d9c7 0f3d
00000180: 9577 f03d aee8 dfbd 83a4 bfbd 2cc1 b0be
00000190: be27 2a3e 7a7f eabd 2f7b 0d3c 0f54 13be
000001a0: 4142 e53c 2aa1 0fbf c1ee dabd d458 f73d
000001b0: eb2d d43c de81 e73c 0fbb 52be 21b6 983e
000001c0: e732 c43c d6eb 15be dc08 493e dc8b b63e
000001d0: 45c0 ae3d 06bc 8c3e a8bc 7cbd a94e a83c
000001e0: 74a4 4b3e 4dd5 c63d 1a6d 793e d90a 15bd
000001f0: 9d50 75be cab0 03be 40f4 b23e 0062 fdbd
00000200: 0460 343e 5b87 ab3e eb39 30ba d1b3 e03e
00000210: dd55 333e d511 59bf 5ee2 043f 423b 763e
00000220: 2204 3b3e 00b7 0b3f bb0e 62be 0eac 04bd
00000230: b33e da3d bd22 b2bb fc94 673e 55ba 193e
00000240: 613b adbe 4369 01bf 9c51 ecbc 9074 51be
00000250: 5cbb 6a3e 602b c73c fa94 503e 954f 023f
00000260: 9564 33be 49e8 60be 3c89 333e 5684 8a3e
00000270: a7e5 5b3e 8778 f9be da41 9b3d de02 1c3f
00000280: 5845 793e 957f c5be 7ba9 b03e b752 73bd
00000290: ea2d 2b3f be6d c8be 12b6 25bf cac6 4cbe
000002a0: 0fbd 93bd d3ff 863e a9e7 93be 9741 233d
000002b0: a659 6b3d 14d8 fa3e 0f26 ddbe aa45 073e
000002c0: 9308 0d3f f399 32be 45bf 853e 695d 8b3e
000002d0: 2dc6 583e 1a18 9e3d 676a 0b3e 4d3c f5bc
000002e0: 4d3a 2e3e 8a46 053e e602 953e 6356 903d
000002f0: 6fac 9abd 7ad0 09be 6449 823e 5d6d 63bd
00000300: 5c71 6f3e 0c8f 933e c0d3 c2be 57ba 263f
00000310: e159 0a3e 76d3 afbc eff8 bcbe 76e6 093e
00000320: 34a3 b73d 6bf7 7a3e a02c a9be a2f9 483f
00000330: 911b 3d3e 9a2b 123e 0aaf 043e 9ea9 3f3e
00000340: cb0e e5bd 53e2 8cbe 068c 103e 6138 8dbe
00000350: 5925 1e3e e9b5 2b3f de18 e43e 547c d63e
00000360: 32b8 8a3e 7c4f 58bd 04c0 3e3e 00ae 683e
00000370: 1e50 4f3e 3c2f 143e ec01 0b3f fb7d f7be
00000380: 8b53 fa3d d4e9 fb3e 3226 42be 554f 7c3d
00000390: 1c88 aa3e d6b4 58be 6fa0 07bf d1cd 8bbe
000003a0: 8dde 4e3f de92 25be f50a 80be fa02 db3d
000003b0: 3b77 253e d3da 11bf 8856 3abd 91de 033f
000003c0: df27 42bf bf82 80bd 0b36 303e 9d9a ac3e
000003d0: 8519 7f3e f052 513e 17c5 123e af5b 693e
000003e0: 7686 553e ea75 3b3e e892 6a3e 31fc ddbd
000003f0: 2c29 69be 8d70 76be 2d25 af3e 10b5 68be

fc3.bias f4 [4]
0.45263085 0.44593626 0.3857014 0.49766877
00000000: 3bbf e73e c251 e43e a77a c53e 71ce fe3e
