3 - Collab -MADDPG/trained_agents/maddpg_tennis_checkpoint_critic_target_1.pth (torch_old, 644556 bytes, 9 tensors)

fc1.weight f4 [512, 52]
000000 c4 05 be 3b e9 d7 3a 3d c3 d1 b8 bc f9 29 87 bc
       0.005799027 0.045616064 -0.02256096 -0.016499506
000010 35 3f 55 bd 87 90 88 bc 42 e1 17 3d 31 da ad 3c
       -0.052062232 -0.016670479 0.037080057 0.021222206
000020 e6 cc 9e 3c 9a b4 ad 3d 23 d2 2a bc 39 e5 ff bc
       0.019384813 0.08481713 -0.010426077 -0.031237232
000030 5f c6 d0 bc 8c 70 9c 3c e7 7a bf bc a5 b0 36 bd
       -0.025485216 0.019096635 -0.023374034 -0.044602055
000040 cb 08 64 bd 09 46 78 3d 38 19 1b 3d cf 19 d0 3c
       -0.055672448 0.060613666 0.037865847 0.025402931
000050 54 9a 61 3d f3 0f 26 3b 7d 01 e1 3a 21 a2 eb 3c
       0.05507882 0.0025339096 0.0017166581 0.028763833
000060 f1 01 79 3d 51 84 55 3e b9 fb 32 3d 90 86 87 3d
       0.060792867 0.20851256 0.043697093 0.06617463
000070 c4 bd 65 bc 27 28 30 3d df 4a 88 bc 84 27 8c 3d
       -0.014022294 0.043007042 -0.016637264 0.068434745
000080 5b e9 c4 3c 90 72 58 3e 7e 5c 98 bc 12 e2 80 bd
       0.024037054 0.21137452 -0.018598791 -0.062931195
000090 4e 7b 0c bc 59 26 e6 bc 03 36 31 3d 64 17 12 bd
       -0.00857432 -0.028094457 0.0432644 -0.03566684
0000a0 ee 49 27 3d c9 28 26 3e d2 e8 f7 bc 56 40 a6 3c
       0.04084199 0.16226496 -0.030262385 0.02029435
0000b0 5d 63 ab bb bb 36 92 bd 11 c4 0f bd 11 cb 60 3c
       -0.005230351 -0.07139345 -0.035099093 0.01372029
0000c0 43 be 41 3d 1f bc 6a 3d 45 5a 91 3c 97 f1 88 bd
       0.04730059 0.057308313 0.01774324 -0.066867046
0000d0 e8 52 8d 3c 77 88 64 3c dd 34 8a bc 8b 91 82 3d
       0.017251447 0.013948551 -0.01687091 0.06375416
0000e0 1f fb ae 3c 0b 6c 13 3d 3a 17 3b 3c 15 d3 31 3d
       0.021359978 0.03599171 0.011419112 0.043414194
0000f0 fd 4b 70 3b a8 1f 98 bc 46 ed 01 bc 9e d9 0e 3d
       0.0036666386 -0.018569782 -0.007930106 0.034875505
000100 97 1e bf 3c 88 1a 91 3c 8a 6f 0a 3c d6 76 5d 3d
       0.023330016 0.017712846 0.008449445 0.05406841
000110 03 aa 2d bd f5 e2 93 bc 69 a7 c8 3b db af 54 3d
       -0.042398464 -0.018052557 0.0061234725 0.05192552
000120 70 b2 ef 3c 59 64 73 bc b2 0a 9e 3b 8d a8 bf 3c
       0.02925989 -0.014855468 0.0048230523 0.023395801
000130 b6 fb 5a 3d ad 1b 54 bc 59 2b 35 bc f0 49 a7 3d
       0.053462707 -0.012946052 -0.011057698 0.08168399
000140 c2 b5 01 3d 8b b4 0a bc 79 ed 88 bc bd 34 90 3d
       0.03166748 -0.008465896 -0.016714798 0.07041309
000150 bb 88 20 3c 99 bd b9 3c 6d 52 b6 bd f0 84 38 3d
       0.009798224 0.022673415 -0.0890244 0.045048654
000160 0d 66 03 3d 18 89 83 bd 78 49 4d bd 03 55 a1 3d
       0.032079745 -0.06422633 -0.050118893 0.07877543
000170 47 35 4a bd c7 25 2a 3b 59 11 63 bd 1c 87 04 3e
       -0.049367215 0.0025962458 -0.055436466 0.12942165
000180 2d 94 e0 3c 86 4d 16 bd 49 2d 60 3c f3 91 cc 3d
       0.027414406 -0.036695026 0.013682672 0.09988775
000190 38 74 57 3e 50 ec 4d 3d d9 22 d6 bd 1c 42 64 bc
       0.21040428 0.050274193 -0.104558654 -0.013931777
0001a0 10 95 c4 bc 06 dc 95 bd 05 03 0e bd 65 c3 9f bd
       -0.02399686 -0.07317357 -0.03467085 -0.078009404
0001b0 6e e9 69 bc f8 b4 9a bc 50 38 ff bb 29 00 a8 bd
       -0.014276845 -0.01888512 -0.0077886954 -0.082031555
0001c0 6d 5a 7a bb 3b d1 9c bd 9e 04 11 bd 16 ae 97 bd
       -0.003820087 -0.07657095 -0.035404794 -0.07406251
0001d0 f9 09 86 3b e3 73 dd bc 55 7e c6 3c 4c 89 b6 bd
       0.0040905443 -0.027032798 0.024230162 -0.08912906
0001e0 f1 e0 b7 bc 4e 67 92 bd 26 43 53 bc 86 32 93 bd
       -0.022446128 -0.0714861 -0.012894427 -0.07187371
0001f0 e1 15 e6 3c fe 6f b2 bc 22 db fa 3b 7d 47 05 be
       0.028086605 -0.021781918 0.007655517 -0.13015552
000200 53 90 01 3d 1d 02 27 3d 35 c3 42 3b b9 ef 3d 3c
       0.03163178 0.0407735 0.0029718403 0.011592799
000210 11 3c c9 3c 97 aa 94 bd d2 ba 3b bd 1b 0b fc bc
       0.024564775 -0.072591 -0.045832463 -0.030767014
000220 09 76 c4 3c bb 08 94 3c ee 07 bc 3c ef c5 85 bc
       0.023982065 0.01807057 0.022953 -0.016329734
000230 af eb 07 bd 05 ed cc bc 75 bc 91 bc 5e bc 76 bd
       -0.03318375 -0.025015363 -0.017790059 -0.060238235
000240 66 53 5f 3c 33 db 7f bc 71 3e 9e bc 83 fa 55 bd
       0.013630724 -0.015616226 -0.019316884 -0.05224086
000250 e2 3a fd 3b fd ea 48 bd 5b e3 84 3c 7b 33 99 bd
       0.0077279666 -0.049052227 0.016221693 -0.07480522
000260 f3 74 17 3e fa 8c 82 bc 42 81 0f be c8 a9 38 bd
       0.14790706 -0.015936363 -0.14014152 -0.04508379
000270 1e 3c dc 3b 5d 32 b9 bc 25 5a de bc 0a 98 97 3d
       0.0067210337 -0.022607023 -0.027142594 0.07402046
000280 09 8f 3e 3d fe 93 50 bd f3 d8 2a 3d a0 ac 72 3d
       0.046523128 -0.050922386 0.041710805 0.05924666
000290 36 77 3b 3c 90 61 3b 3b 4f 05 5c 3c 06 06 b0 3c
       0.011441996 0.0028592087 0.013429 0.021487247
0002a0 ab 9b a7 3d 4b 62 ce bc d8 6d 94 bc fe a9 90 3c
       0.08183988 -0.025193354 -0.018118784 0.017659184
0002b0 ec d9 c2 3c c3 df 18 bb 2d 7c 20 ba 64 48 cb 3c
       0.023785554 -0.0023326732 -0.0006122019 0.024814792
0002c0 af 97 9f 3c 10 7e e8 bc 78 1e e7 3c 31 fa 6b 3d
       0.019481508 -0.028380424 0.02821277 0.057611648
0002d0 ec 49 a1 bb 52 e2 a0 bd 55 83 82 bc 43 7a 50 bd
       -0.0049221423 -0.07855667 -0.015931765 -0.050897848
0002e0 17 52 93 bd 81 42 3b bd 99 1d 82 bb 49 b4 99 bd
       -0.07193392 -0.04571772 -0.0039708135 -0.0750509
0002f0 5f 17 ac bc c9 e5 9c bd 68 79 15 bd 6d d0 67 3c
       -0.021007238 -0.076610155 -0.036492735 0.014148814
000300 24 94 bc bd 1f 21 2c bd 9b 52 d3 bb 8c 7f 76 bd
       -0.09207943 -0.042023774 -0.0064490563 -0.060180232
000310 33 73 c7 3c d8 81 17 bd ee 31 e1 bc e3 23 a4 bd
       0.024346923 -0.036989063 -0.027489629 -0.08014657
000320 c4 3d 82 bc fe 2b dd bb 72 7b 42 bc 03 80 b0 bc
       -0.015898593 -0.006749629 -0.011870252 -0.021545416
000330 83 74 bb 3d 96 82 c1 bc f9 52 19 bd 53 d5 ad 3d
       0.09153082 -0.023621839 -0.037432645 0.08487954
000340 79 46 e8 3c aa 75 5a 3e d7 f9 cb 3c b1 34 dc bc
       0.028353916 0.21333948 0.024899406 -0.026880594
000350 1e 11 82 bc a7 83 24 bb 8c ba 0a 3a fa c1 33 3c
       -0.015877303 -0.0025102885 0.000529208 0.010971541
000360 a8 31 44 bc dc 6f 1c 3e 0b a9 69 3c 34 70 aa bd
       -0.01197473 0.15277046 0.014261494 -0.08322182
000370 0a 86 0a bd 12 7b 36 bd cc ed 5f bc 58 c4 b5 bd
       -0.033819236 -0.044550963 -0.013667535 -0.0887534
000380 87 f9 58 3c 03 ff 07 3e a3 92 55 bd 33 53 8a bd
       0.013243086 0.13280873 -0.052141797 -0.0675415
000390 24 29 ec bb 02 67 99 bd af 8b 8c bc 51 2c c4 bd
       -0.007207053 -0.0749035 -0.01715645 -0.09578765
0003a0 96 6c 1a bc 83 2f 8e 3d ae 74 9c bc 0c 99 4c bd
       -0.009425303 0.06942656 -0.019098606 -0.049950644
0003b0 fd 64 7e 3c 50 d9 c1 ba d6 c8 c7 bb d5 99 75 bd
       0.015527007 -0.0014789496 -0.0060969396 -0.05996116
0003c0 1f 16 04 3d 2f a9 97 3d 10 c8 d6 3c a5 c5 e5 bc
       0.03224766 0.07405316 0.026218444 -0.028048346
0003d0 5c a6 8e bb c0 55 83 ba 56 f7 aa 3c c8 33 a9 bc
       -0.0043533277 -0.0010020062 0.020869892 -0.020654574
0003e0 a0 32 fa 3a b3 ab 42 3d 56 d7 ab 3c fb 38 08 3c
       0.0019088574 0.047527026 0.020976704 0.008314366
0003f0 f9 79 4c 3c 7c be 3d bd ca 02 b8 3b 51 2f c4 bc
       0.012480252 -0.04632424 0.005615567 -0.023948343

fc1.bias f4 [512]
000000 04 a5 64 bd a0 b4 c8 3d e6 44 1d bd 80 b8 06 be
       -0.055821434 0.098000765 -0.038395785 -0.13156319
000010 ee ff cf bd 2f 77 bd bd c9 53 c8 3d 2e 71 01 3d
       -0.101562366 -0.09251248 0.09781606 0.031602077
000020 ef 95 00 3e c1 7f 10 39 da 30 1f be 10 f0 d3 3d
       0.12557195 0.00013780502 -0.15545979 0.10348523
000030 57 4c a9 3d 7a db 19 3c db d9 47 be 7b a9 8b bd
       0.08266514 0.009390706 -0.19516699 -0.06819435
000040 0f a8 93 bc 5d 8b cd bd 7f d0 a0 bd 1c 7b ca bd
       -0.018024473 -0.10036347 -0.078522675 -0.098867625
000050 9a 23 d9 bd 88 55 27 bc 97 92 59 3d 42 0c 13 be
       -0.106024936 -0.010213263 0.053118315 -0.14360145
000060 34 79 9d 3d b4 73 2b 3d fe 6c a7 bd fb 7c a3 bd
       0.07689133 0.04185839 -0.081750855 -0.079828225
000070 7e 53 5b bd d0 3d d4 3c 32 82 12 be 1a 3a 05 be
       -0.05354642 0.02590838 -0.14307478 -0.13010445
000080 c6 ba 26 bd 25 ed 57 bd 94 c1 d8 bd 93 23 31 be
       -0.040705465 -0.052716393 -0.10583797 -0.17298727
000090 9d ed 67 bd 2f 88 3a be 54 4e 81 3c 78 4f 9f 3d
       -0.05662309 -0.18216012 0.01578442 0.07778829
0000a0 d6 73 c0 bd f7 68 70 bc 34 c2 93 3c 72 8e 8d bc
       -0.09397094 -0.014673463 0.01803694 -0.017279837
0000b0 7a ba e7 bd f2 ec bf 3d 6f 16 a2 3d 4d 32 06 3e
       -0.113148645 0.093713656 0.07914435 0.13105126
0000c0 b3 ab eb bd de 2d a6 bd 94 77 10 be 25 b6 2a 3d
       -0.115073584 -0.08114217 -0.14108115 0.041677613
0000d0 91 53 f4 3c ec 33 a3 3d 1d 45 f3 3c 9b 18 1e 3d
       0.029825004 0.07968888 0.029696042 0.038597684
0000e0 56 73 7e bd a5 3b 92 3d dc f6 29 bd 47 8e a9 3d
       -0.06212171 0.071402825 -0.04149519 0.082790904
0000f0 f7 6a a4 3d 67 5e 2a bd 34 9b 24 be 3e 47 13 3b
       0.080282144 -0.041593935 -0.1607483 0.0022472884
000100 53 68 76 3d a3 df fc bd c7 a8 86 bd 90 a9 02 bd
       0.060158085 -0.12347343 -0.065751605 -0.03189999
000110 eb 42 22 bc 01 44 38 3d cd 3b 81 3d f4 a4 04 be
       -0.00990365 0.04498673 0.06310234 -0.1295355
000120 2e ab b8 bd bd df 4f bd 3b 33 01 bc 0d 51 86 3c
       -0.09017025 -0.050750483 -0.007885749 0.01639607
000130 4d 9b 90 bd b9 74 2b 3c 0b ac 47 bd ea 0b b5 3c
       -0.07060871 0.010464841 -0.048748057 0.022100408
000140 3b 2d c1 bd 8e 26 33 be 33 42 11 bd 7c 69 07 3e
       -0.09432455 -0.17495176 -0.035463523 0.13223833
000150 83 44 ab 3c 31 34 a1 3c 64 a0 14 3d 7e 87 f5 bd
       0.020906692 0.019678207 0.036285773 -0.11988734
000160 fe 96 54 bd 0a 09 7c 3d d1 c5 e0 3d 87 39 46 bd
       -0.05190181 0.061532058 0.109752305 -0.048394706
000170 72 08 0d be c4 b3 e8 bd f0 4d b0 3d df f9 c1 3d
       -0.13772753 -0.113624126 0.086086154 0.09471487
000180 18 60 5d bd 4c 8f 43 bd 46 a8 5d be a5 58 d3 3d
       -0.05404672 -0.04774408 -0.21646222 0.10319642
000190 0b 69 d0 3b 06 4e d1 bd d1 e6 1b bb f3 20 53 3d
       0.0063601783 -0.1021996 -0.00237887 0.051545095
0001a0 43 38 66 3d 20 37 54 bd e1 dc f9 bd 68 92 25 be
       0.056206 -0.051810384 -0.122003324 -0.16169131
0001b0 f9 db 4c bc 9b cd 3f 3d 8e cc 28 bc 36 15 bd bd
       -0.012503617 0.04682694 -0.010302676 -0.09232561
0001c0 87 bb 8d bd 19 ea ab bd 57 c0 f0 3c 34 8f e9 3c
       -0.069205336 -0.0839426 0.02938859 0.028510667
0001d0 e8 62 2a be 1e 3b dc bd 71 57 80 bd 23 ff 48 3d
       -0.16639292 -0.10753463 -0.06266678 0.049071442
0001e0 75 08 00 bd e1 49 9b 3d 66 5e 1b be bf 11 16 be
       -0.031258065 0.07582451 -0.15172729 -0.14655207
0001f0 fe 09 5d 3d 05 db ab 3d c1 1f 15 be e8 d0 46 bd
       0.053964607 0.08391384 -0.14562894 -0.048539072
000200 97 bb 02 3d a2 17 8c 3b d9 3e 4b bb aa 1d e5 3c
       0.03191718 0.004275278 -0.0031012802 0.027968246
000210 3b d8 83 bd fe ed 94 bc 8c 27 2f bd 3c 54 0b be
       -0.06437727 -0.01817989 -0.042762324 -0.13606352
000220 68 76 92 3d 68 7d 82 bd a1 4b 04 be ee 4d 15 be
       0.071514904 -0.063715756 -0.12919475 -0.14580509
000230 dc e5 30 be 43 25 04 3c 0d f6 c9 bc a9 b2 67 3d
       -0.17275184 0.0080655245 -0.024653459 0.056566868
000240 e5 f1 cd bc 75 1c dd bd bb af 0f 3d 7c b7 22 bc
       -0.025139758 -0.107964434 0.0350797 -0.009931441
000250 e5 e8 1c be 71 3a 0b be 45 82 88 bd 63 25 2b bd
       -0.15323217 -0.13596512 -0.06665472 -0.0417837
000260 a1 f4 13 3d 15 f7 dd bd dd 8d 36 3c a7 5d ac bb
       0.03612197 -0.10838143 0.011142221 -0.0052601877
000270 08 85 31 be 72 14 26 be 4e 6d 9d 3d 03 a3 e7 3c
       -0.17335904 -0.16218737 0.07686864 0.028275972
000280 21 f0 d9 bd b6 2b 85 3b 5d a7 08 3e 17 cd 10 be
       -0.10641504 0.0040640486 0.13345094 -0.14140736
000290 29 a8 d3 3d 5e ee 93 bd c2 34 c3 3d e3 aa aa bd
       0.103348084 -0.07223199 0.09531547 -0.08333375
0002a0 2e 83 0d 3e 9c f3 42 bd aa c9 17 3e 6e b4 9e 3c
       0.13819572 -0.047595605 0.14823022 0.019373145
0002b0 ba 10 b6 3d ed e2 43 bd 4c 8a 07 be 79 62 b0 bd
       0.08889909 -0.047823835 -0.1323635 -0.08612532
0002c0 b7 c4 4f ba 65 bb b1 3d 88 ad 27 bd 5b 0e 3d 3d
       -0.0007925736 0.08678321 -0.040936977 0.04615627
0002d0 f3 ea aa bd 72 9d 95 bd cc a9 14 bd f2 34 8a bc
       -0.08345594 -0.07305421 -0.036294743 -0.01687095
0002e0 34 f6 0a be 02 52 00 bd 51 e1 3a 3d 90 ce 13 be
       -0.13570482 -0.03132821 0.045625035 -0.14434266
0002f0 a1 b1 cf bd 52 f6 74 3d aa 8a ce 3d 39 c8 d7 bd
       -0.10141302 0.05980522 0.10085042 -0.10536236
000300 e3 7c 5c bc 1a 65 60 3c d9 da 89 bd 44 67 28 be
       -0.01345751 0.0136959795 -0.06731195 -0.16445643
000310 6e fb cb 3d e0 ad 85 3d 9c 9f 13 bd af 95 a9 3d
       0.09960066 0.06527305 -0.036040887 0.08280503
000320 cf de 47 bd 14 05 b3 bc f4 2f 98 bd e2 d2 8c 3d
       -0.04879647 -0.021853007 -0.07431021 0.0687616
000330 5d 6b d1 3d 8e 8a f2 bd f1 af 15 3d bf c7 24 3d
       0.10225556 -0.118428335 0.036544744 0.040229555
000340 77 57 dd 3d a2 87 90 3d 63 ea 3f 3d 4c 1c 1c 3c
       0.10807698 0.0705712 0.046854388 0.009528231
000350 3d a0 5e 3d ac 5f 02 3b a3 2b 80 3c d2 e3 80 bd
       0.054352034 0.001989345 0.015645808 -0.06293453
000360 5d ce f5 bb 7b 4d 34 3d 7e b7 bf 3c 26 b6 83 bd
       -0.007501407 0.044019204 0.023402926 -0.064312264
000370 0b 41 f1 3d 4c c3 a0 bd d4 dc e9 bd b7 39 f0 bc
       0.11779984 -0.0784975 -0.11419073 -0.029324396
000380 1d 25 bc 3d 8f d0 24 3d cd 35 77 3d 60 f2 b3 3a
       0.09186766 0.04023796 0.060354043 0.001372885
000390 2b 0c 86 3d 74 94 bb bd c4 be 79 3c ac 6f ed 3d
       0.065452896 -0.091591746 0.015243236 0.11593565
0003a0 ef 54 ad 3d 30 a8 03 3e e7 f3 eb 3d b1 9b c4 bd
       0.084634654 0.12857127 0.1152113 -0.09600008
0003b0 33 0d f6 bb 04 4e 68 bd 0f 9b 69 3d dc 72 2a bd
       -0.0075088977 -0.056715026 0.05703264 -0.041613445
0003c0 b6 8a 28 be bb f8 8c bd ba d4 e4 3c 2e 2f 80 bd
       -0.16459164 -0.06883379 0.027933467 -0.06258999
0003d0 57 3b d1 3c 9d 4a fd 3d 87 8e 82 3c 26 ae ee bd
       0.02554099 0.12367747 0.015937103 -0.1165431
0003e0 fe ed bb 3d 5e 4c 8c 3d 88 3e 5a 3d bb de 50 3d
       0.09176253 0.068505034 0.05328229 0.050993662
0003f0 13 9e d5 3c 78 cc 8c 3c 73 aa ad 3d b5 c3 ac 3d
       0.026076352 0.017187342 0.08479776 0.08435766

fc2.weight f4 [256, 512]
000000 8d b1 8e bc 75 06 89 bd 1b 69 02 3b 32 94 40 bd
       -0.017418647 -0.06690685 0.0019899074 -0.04701633
000010 88 02 6a bd c7 fd ef bd 04 ef ab 3c b0 80 31 3c
       -0.05713132 -0.11718326 0.020987995 0.010833904
000020 db 55 18 3d 3a 81 a6 3c a6 25 48 3d 28 55 c9 3b
       0.037191253 0.020325292 0.04886403 0.0061441846
000030 1c a0 83 3d e9 0c c2 bc 8c fd 28 bc ec 68 0d bc
       0.06427023 -0.023687797 -0.010314357 -0.008630972
000040 70 2b b5 bc 72 01 6c 3c 7c d6 7c 3c ae ec 64 bd
       -0.02211544 0.014404641 0.015431996 -0.055889778
000050 6e fa 8d 3d 70 e3 c0 bc ff d8 5f 3d b0 28 ca bc
       0.06932531 -0.02354595 0.054650303 -0.024677604
000060 75 19 80 bc bf 10 dc bc 2d 41 2a 3d a4 87 f6 bc
       -0.015637139 -0.026863454 0.041566063 -0.030093975
000070 d3 f9 60 bd d8 ea 33 bc 9f de eb bb 2b ae 70 3d
       -0.05492575 -0.010981284 -0.0071981694 0.05875985
000080 7e f2 57 3d 78 15 9f bc bd 88 9a bd a3 91 a9 39
       0.052721493 -0.019419417 -0.07545612 0.000323427
000090 f7 97 5a bd eb 2d c2 3b 30 d1 e6 bc 67 3d a5 3c
       -0.05336758 0.005925884 -0.02817592 0.02017088
0000a0 dc 27 aa 3c 6a aa 0e be 10 01 c2 bd 05 09 9f 3c
       0.02077096 -0.13932195 -0.09472859 0.01941348
0000b0 80 7a 97 bd 31 9e 74 bd 69 7b 0f bb 01 54 54 bd
       -0.07396412 -0.059721176 -0.0021893627 -0.051837925
0000c0 cd 25 a5 bb 15 9f 02 3c 62 a4 2e bc 61 71 b6 bb
       -0.0050399066 0.007972498 -0.010659309 -0.005567715
0000d0 3d fa 92 bd 57 07 a3 bb 27 f0 6f bd 31 46 d2 bc
       -0.071766354 -0.00497524 -0.058578636 -0.025668235
0000e0 8c 24 0e 3d 43 b7 39 bd ac c5 71 3c 7d b7 d1 3c
       0.034702823 -0.045340788 0.014756601 0.02560019
0000f0 db 80 dd bd bf ac a7 bd 8d 68 80 bc a0 5f a7 bd
       -0.10815593 -0.081872456 -0.015674854 -0.08172536
000100 f2 ae 99 b9 d5 0e 92 bc 55 61 f6 3b 0f 7e 7b bd
       -0.00029312778 -0.017829338 0.007518927 -0.061399516
000110 0f 0a 0a bd 76 aa ae 3c b7 0c 12 bc e9 44 13 bd
       -0.033701 0.021321516 -0.008914164 -0.03595439
000120 f5 a0 8a bd 6a d8 f2 bc 97 ba 47 3d dd cf ed bc
       -0.06768981 -0.02964421 0.04876193 -0.029029781
000130 10 34 19 3d 83 40 3d 3d 56 ac f9 bc 50 d5 10 bd
       0.037403166 0.0462041 -0.030477684 -0.03535968
000140 d2 b6 82 bd 65 ab 82 bd 66 37 2c bc ac 62 3e 3d
       -0.063825265 -0.06380347 -0.010511255 0.04648082
000150 dd 02 77 bc ec 66 82 3d 40 aa ba 3c 94 b7 15 bd
       -0.015076366 0.06367287 0.02278626 -0.036552027
000160 d3 0c 44 3d 8b 3b 38 bc 42 3c 42 3d 14 8d 89 bd
       0.047863793 -0.011244665 0.047420748 -0.06716362
000170 31 27 61 bc 96 cf 20 bd 35 d2 53 bc 8f 13 ea 3b
       -0.013742254 -0.03926047 -0.012928535 0.007143445
000180 40 43 6f 3d a7 2b 63 3d cd 95 9c bd 8a c3 62 3b
       0.058413744 0.055461552 -0.0764576 0.0034601414
000190 a4 d3 fc ba 5e 38 21 bd 26 35 ec bb 9b b5 14 3d
       -0.0019289148 -0.039360397 -0.007208484 0.036306005
0001a0 a6 bd 69 bd fe 67 28 bd 33 74 10 3c 99 0a 80 bd
       -0.05706563 -0.0411148 0.008816767 -0.06252021
0001b0 e2 5b 46 3c 2f 61 02 bc cc e2 28 bd f1 11 e1 bd
       0.0121068675 -0.007957741 -0.041231915 -0.1098975
0001c0 8f bd d3 3c ce a7 36 bd 8a 03 8c 3c 26 a0 07 bd
       0.025847225 -0.044593625 0.017091531 -0.033111714
0001d0 8b ad 50 b8 52 2d 27 3c e1 fb 04 3c ed 4d ec bc
       -4.975269e-05 0.010203676 0.008116693 -0.028845752
0001e0 b4 83 75 bd 8e dd c0 3c d4 a9 86 bc d2 79 29 bc
       -0.059940055 0.023543146 -0.016438402 -0.010343986
0001f0 ec 67 54 3d b0 af ce bc 8a 31 4e bd 73 91 7d bd
       0.05185692 -0.025230259 -0.050340213 -0.06190629
000200 a8 a5 44 3a 8b db c6 bd 91 39 3c 3d 77 63 20 3c
       0.00075014913 -0.09709843 0.045953337 0.009789339
000210 86 76 18 be c1 f7 ed 3c dd 41 55 3b 4f 85 0d bd
       -0.14888963 0.029048802 0.0032540478 -0.03455096
000220 8a fb 67 bd 4a 56 65 3d d5 85 89 3a 0d c3 55 3c
       -0.05663637 0.055990495 0.0010492156 0.013046992
000230 86 87 58 bd 24 4f 16 3d 27 5e fd 3c 4e f8 a0 bc
       -0.05286362 0.036696568 0.030928684 -0.01964965
000240 61 82 2c 3d 32 b2 a4 bb fa 5f 74 3b cd 3d 1d 3d
       0.042116527 -0.0050261253 0.0037288652 0.038389016
000250 eb 2a 98 bc 5b a3 c3 3b dd af 23 bd 28 42 50 bd
       -0.018575152 0.005970401 -0.03996264 -0.05084434
000260 58 0a b8 bd 56 30 8b bc 5d 90 38 3d 61 76 8f 3d
       -0.08986348 -0.016990822 0.04505955 0.07005001
000270 d1 58 14 bb bf c4 b3 bd cd 31 8f bc f8 c7 ea bc
       -0.0022635947 -0.08777761 -0.017479802 -0.028659806
000280 e6 bb e9 bc 0a 67 04 bd 1d 11 25 bc 45 1d 7f 3d
       -0.02853198 -0.03232483 -0.010074881 0.062283773
000290 58 34 b7 bd 1e 9e 42 3c bc 6c 2c 3d a4 be 74 bc
       -0.08945531 0.011878518 0.042095885 -0.01493803
0002a0 72 86 f5 3c 77 50 58 3c ca ca 6c 3d af 8a 5a bc
       0.029971335 0.013202778 0.057810582 -0.013338729
0002b0 1b ec ea bd cb f2 b5 bc 75 ed c0 3c 9e f8 84 3c
       -0.11470815 -0.0222105 0.023550728 0.016231831
0002c0 dd 9e 91 bc 57 ef 90 bb 3c 27 c4 3c f3 ff 1b bd
       -0.017775947 -0.004423063 0.02394449 -0.03808589
0002d0 8b 71 d9 3d 02 1f ff bc cb bf 5f bd 1f e4 d2 3c
       0.1061736 -0.031142715 -0.054626267 0.025743542
0002e0 01 5a 8e bd 90 e4 80 bd be 9e 0b bd ea 9c 64 bd
       -0.06950761 -0.06293595 -0.034086935 -0.055813707
0002f0 4f 13 6f bd ca f9 1e bd 53 b6 bb bd de 23 64 bc
       -0.058368023 -0.038812436 -0.09165635 -0.013924567
000300 a7 7a 2b 3c 84 b7 9d 3c 8c 43 d0 bc b2 d5 8b bc
       0.010466254 0.019252546 -0.025422834 -0.017069671
000310 2a 9e f5 bc cc 60 aa bd 14 38 e8 3c d5 33 73 bc
       -0.029982645 -0.08319244 0.028347053 -0.014843901
000320 30 af 0c bc 3d c4 6b bd be 99 43 bd 5b c6 01 3d
       -0.00858669 -0.057560194 -0.04775404 0.031683307
000330 e2 b7 b5 3b fa a2 62 bd b4 1a e8 3c af 46 f1 bc
       0.005545602 -0.055331208 0.028333046 -0.02945265
000340 50 78 b7 bd 6f 88 5c bc de 74 d7 3a cd 05 87 3d
       -0.08958495 -0.013460263 0.0016438027 0.06592903
000350 56 2f 3c 3d fd 63 61 3d 2c 18 6b 3c 40 03 38 3d
       0.04594358 0.055026997 0.014349025 0.044924974
000360 2d 2d 41 3d 08 44 de 3b dd 40 9f bc a3 2a 8e bd
       0.047162224 0.0067830123 -0.019440109 -0.06941726
000370 68 ca 23 3d 1c eb 8c bd 97 22 68 bd 3e 28 45 bd
       0.03998795 -0.06880781 -0.056673612 -0.04813408
000380 c6 d8 39 3d 8c 8f da 3c 72 ca a0 3c 50 27 55 bc
       0.045372747 0.026679777 0.019627783 -0.013009861
000390 26 74 90 bc 33 05 f9 3c cb ed ba 3d c3 3a a5 3d
       -0.017633509 0.030397987 0.09127387 0.080678485
0003a0 b8 ce 02 3d 64 53 2b bd d1 f4 5f bd 53 d3 79 bd
       0.031935424 -0.041827574 -0.054676834 -0.06099255
0003b0 b3 31 68 bc 80 e9 dc 3c 8f 82 09 3d f0 69 3c bc
       -0.0141720055 0.02696681 0.033571776 -0.011499867
0003c0 ec 3f c5 3c 54 fb 99 bd be d9 01 bd 4d 35 8a bd
       0.024078332 -0.0751864 -0.031701796 -0.067484476
0003d0 a6 54 82 bd 66 ea 0b 3c 04 80 69 3d 14 05 a4 bd
       -0.06363802 0.008539772 0.05700685 -0.08008781
0003e0 09 8b 17 3d 85 73 44 3d 5b 5f 09 bd 77 87 b7 3c
       0.03699783 0.04796173 -0.033538204 0.022403462
0003f0 53 67 ad 3d 45 20 ad 3c a9 e1 8e bd 70 85 b1 3c
       0.08466973 0.021133551 -0.06976635 0.021670073

fc2.bias f4 [256]
000000 ac fd 99 bd 4e de fc bc b6 4c 69 bd c1 02 5a bd
       -0.07519087 -0.030867722 -0.056957923 -0.053225283
000010 93 f8 a9 bc b3 8b f6 bd 0c 45 38 bd b4 2d e5 3b
       -0.020748412 -0.12038364 -0.044987723 0.0069939736
000020 81 a2 9f bd 9a 75 78 bd bf c2 a8 bc c2 c2 69 bc
       -0.07794667 -0.06065903 -0.020600675 -0.014267625
000030 26 15 2c bd 52 8f 33 bd fb a1 53 bd 8d bc 16 bd
       -0.042012356 -0.043837853 -0.05166815 -0.03680091
000040 82 bd 2c bb 44 19 df bc e1 99 8e bd db 83 32 bd
       -0.0026358073 -0.027233727 -0.06962944 -0.04358278
000050 c0 54 48 bd 8c 0e 26 bd f1 4e 21 bd f1 71 a8 bb
       -0.04890895 -0.040541217 -0.039381925 -0.005140536
000060 c1 76 a4 bc 83 5e c6 bd fc 66 a4 bd 9b 7c 2e bd
       -0.020076158 -0.096859954 -0.08027455 -0.0425993
000070 f7 ef f3 bc 7d de d7 bb 36 13 ff bc 47 15 89 bc
       -0.02977751 -0.006587802 -0.03113709 -0.016733779
000080 bf 35 75 bd bd 50 15 bd 54 a3 21 bb 54 30 5b bd
       -0.05986571 -0.03645395 -0.0024664002 -0.053512886
000090 cf 3c 8a bc c9 fb 58 bd 61 cc 85 bd 4a cb 24 bd
       -0.016874699 -0.052974496 -0.06533123 -0.040232934
0000a0 0f 13 a2 bb 2d 0b 10 bd 80 29 02 bc fa ed 75 bc
       -0.0049461196 -0.035166908 -0.007944465 -0.015010351
0000b0 75 0a 86 bd 90 81 dd bc e5 b5 aa bd f1 9c 9e bc
       -0.06544963 -0.02703932 -0.08335475 -0.019361945
0000c0 fe 7b 2c bd d4 ef a1 bd 81 79 36 bd 14 2b a3 bd
       -0.042110436 -0.07907072 -0.04454947 -0.07967201
0000d0 d7 d9 b9 bc 94 b9 76 bd 4a ce 38 bd e7 f6 c2 bd
       -0.022686882 -0.060235575 -0.045118608 -0.09519749
0000e0 fc a9 e5 bc 36 98 b2 bc b4 e9 cf bd 5d de 07 bd
       -0.028035156 -0.021801095 -0.10151997 -0.033171047
0000f0 44 e7 71 bd c1 85 8c bd 9d f1 1a bd e0 e0 8d bc
       -0.059058443 -0.06861449 -0.037828077 -0.017319143
000100 f4 0e 9d bd f5 37 e8 bc c3 84 87 bd 7a d2 64 bd
       -0.07668868 -0.028346995 -0.06617119 -0.05586479
000110 35 b1 3c bd 09 dd b2 bd 99 51 8f bd 00 95 a5 ba
       -0.046067435 -0.08733565 -0.069979854 -0.0012632906
000120 ca 1f b1 bd fa f1 09 bd 47 d9 43 bd 78 a6 81 bd
       -0.086486414 -0.033678032 -0.047814634 -0.063305795
000130 3e 55 8f bd 5b 17 d9 bc 75 fc 9b bd a5 5b ec bc
       -0.069986805 -0.026500395 -0.07616512 -0.028852293
000140 b7 b7 cf bd fd b7 c6 bc 4f 73 58 bc 27 36 31 bd
       -0.10142463 -0.024257654 -0.013211085 -0.043264534
000150 4a 64 8a bd b2 07 ef bc 39 d8 be bd a1 cd 9e bd
       -0.0675741 -0.029178474 -0.09318585 -0.07754064
000160 6a ad 85 bd 9c dc b8 bd bb b1 83 bc b1 1f 5b bd
       -0.06527217 -0.09026453 -0.01607596 -0.05349702
000170 dd 64 81 3b b6 1d 8c bc 33 de 68 bd 0e 55 85 bc
       0.0039487914 -0.017104011 -0.05685253 -0.016275909
000180 60 70 bb bd ae 3e 49 bd d1 07 a1 bd c8 92 87 bc
       -0.09152293 -0.04913204 -0.07862819 -0.016549483
000190 ac 59 23 bd 4e 69 80 bd 46 0a 57 bd be 06 91 bd
       -0.03988044 -0.06270085 -0.052500032 -0.07081364
0001a0 39 40 a0 bd c0 2e 16 bd ea a1 e1 bc 41 de c7 bd
       -0.078247495 -0.036665678 -0.027543027 -0.097591884
0001b0 fa dd b2 bc 08 09 ba bc 50 b1 71 bd cd 60 9c bd
       -0.021834362 -0.022709385 -0.05900699 -0.07635651
0001c0 63 29 31 bd e0 d2 f1 bd 58 3b bc bd be 76 b4 bc
       -0.04325236 -0.11807799 -0.091910064 -0.022029277
0001d0 aa 10 73 bd 99 dd d8 3c 8d c1 5d bd d3 32 38 bd
       -0.059342064 0.026472853 -0.054139663 -0.044970345
0001e0 b6 be 00 bd 14 8f a2 bb f8 d0 32 bd de 2c 47 bd
       -0.031431876 -0.004960904 -0.04365632 -0.048626773
0001f0 0f 2b 91 bd 55 c1 c9 bd 6a 92 6a bc 3c 7c a3 bd
       -0.07088291 -0.09851328 -0.014317134 -0.0798268
000200 d2 44 31 3c 78 67 96 bd 46 96 0f bd 0c 7b 55 bd
       0.010819631 -0.07343954 -0.03505542 -0.0521193
000210 fc 39 84 bd f0 75 82 bd 29 fe e5 bb 29 98 49 bd
       -0.06456372 -0.06370151 -0.0070188236 -0.049217377
000220 e8 aa 71 bd b8 14 9d bd 84 fe 0a bc b9 3b 42 bd
       -0.05900088 -0.076699674 -0.008483533 -0.047420237
000230 0c e8 0e bd 56 fd a6 bd 5d ea 8b 3b 05 6f 55 bd
       -0.034889266 -0.08153789 0.0042698816 -0.05210783
000240 8f a2 75 bd 3e c3 3b bd ff b2 c1 bd c2 27 91 bd
       -0.05996948 -0.045840494 -0.09457969 -0.07087661
000250 75 4d 67 3c b0 9c d6 bb 49 b6 2c bc 74 1a 4e bd
       0.014117588 -0.0065494403 -0.010541507 -0.050318196
000260 f5 4f fc bb 45 ea aa 3c bc c1 eb bc ef 4c ab bc
       -0.0076999613 0.020863662 -0.028778903 -0.020910708
000270 97 8f 4c bd ab a9 b9 bd cc e1 54 bd 13 ec 91 bd
       -0.049941625 -0.09065565 -0.05197315 -0.07125106
000280 ce 58 ed bd da d8 f1 bb 0f c0 81 bd 25 a7 6f bd
       -0.11589204 -0.007380587 -0.063354604 -0.05850901
000290 f0 a0 fa bc c0 6a 0f bd 0e ec 94 bd 06 b7 2a bc
       -0.03059432 -0.035013914 -0.07271586 -0.010419613
0002a0 ff b3 13 bd d8 c7 65 bc 6d 37 9d bd fb 79 8f bd
       -0.03606033 -0.014024697 -0.07676587 -0.07005688
0002b0 7f 90 5b bd c5 c8 c6 bc d8 f0 c0 bc f9 8d 67 bd
       -0.0536046 -0.024265656 -0.023552343 -0.05653188
0002c0 82 68 91 bc 9d 08 84 bd ec aa 31 3b 4f b6 27 bd
       -0.017750029 -0.06446955 0.0027109934 -0.040945347
0002d0 11 1b e6 bd 01 1b 77 bd f4 c9 40 bd 8c af 13 bd
       -0.11235631 -0.060328487 -0.047067598 -0.036056086
0002e0 91 dc cc bd 13 4b a4 bc 25 2e 51 bd 01 24 82 bd
       -0.10003007 -0.02005533 -0.051069397 -0.063545235
0002f0 d3 d7 a6 bd ea cf a7 bd d4 f9 3e bc c7 a0 c1 bd
       -0.08146634 -0.08193953 -0.011656243 -0.09454494
000300 75 0a 4b bd a7 85 d5 bd 65 c1 ca bb 6d d9 3b bd
       -0.04957052 -0.10425883 -0.006187605 -0.04586165
000310 da eb 9e bd d5 36 8c bd d7 67 fa bc 82 dd a0 bd
       -0.07759829 -0.06846396 -0.030567093 -0.07854749
000320 d1 e4 76 bc cb 4a 91 bc 21 57 96 bd 1a b6 95 bd
       -0.0150692025 -0.01773586 -0.07340837 -0.07310124
000330 3b de 21 bd b2 d7 d0 bd 9a d1 cd bc 38 15 cf bc
       -0.039518576 -0.101973906 -0.02512436 -0.025278673
000340 e2 0e 4e bd 10 91 87 bd 90 1f 16 bd 70 88 f2 bc
       -0.050307162 -0.06619465 -0.036651194 -0.029606074
000350 4f 68 2d bd af 0e 96 bc 4f bd 29 bd 7b f6 bd bb
       -0.042335805 -0.018317549 -0.041440304 -0.005797205
000360 23 96 6b bd 60 e7 3e bd db 1e b5 bd 2c 04 07 bd
       -0.05751623 -0.046607375 -0.08843776 -0.032962963
000370 0f 59 7b bd 13 70 57 bd 53 51 48 bd 46 99 32 bd
       -0.06136423 -0.052597117 -0.04890568 -0.043603204
000380 0b 90 a9 bc c6 18 a7 bd c7 10 c9 bc ae 2e 80 bd
       -0.020698568 -0.08159022 -0.024544133 -0.062589034
000390 58 33 2d bd 1e 92 4d bd 0e 8c 04 bd 07 e9 33 bc
       -0.042285293 -0.050188176 -0.03236013 -0.010980851
0003a0 ae 9c 08 be 01 e9 5d bd f3 5c 16 bd 69 65 b0 bd
       -0.13341019 -0.054177288 -0.036709737 -0.086130925
0003b0 ba 3c 59 bd db b2 7f bd b0 44 87 bd 04 c8 6a bd
       -0.05303643 -0.06242643 -0.06604898 -0.057319656
0003c0 8c e5 5b bd 42 ac 90 bd 39 f8 0a 3c 68 3e 4a bd
       -0.05368571 -0.070641056 0.008482032 -0.04937592
0003d0 c2 92 8f bc d8 2b 77 bd 01 84 35 bd 37 cf 82 bc
       -0.017526034 -0.060344547 -0.04431534 -0.015967948
0003e0 21 38 5e bd f2 7b 00 bd d0 07 95 bd ae fa f9 bc
       -0.054252747 -0.031368203 -0.07276881 -0.030515041
0003f0 91 cf da bd 12 6e 9d bd ee 31 9c bd 1d 69 cc bc
       -0.106841214 -0.0768701 -0.07626711 -0.024952466

fc3.weight f4 [1, 256]
000000 cc 95 bb bc 92 dd 3e 3c 10 a6 01 3c d0 e5 8a bc
       -0.022898577 0.011649506 0.007913128 -0.016955286
000010 8a 94 d3 3b f5 e0 52 3d 67 8d 37 3c ea 08 06 3c
       0.006456916 0.051484067 0.011203147 0.008180836
000020 ea bb 74 bc d7 b6 0c 3c f9 6f e0 3c e4 87 87 3c
       -0.01493738 0.008588514 0.027397143 0.01654429
000030 a2 9a eb bc 0c d3 6f bc 11 a7 3e 3c 5d 64 c1 3c
       -0.028760258 -0.01463772 0.011636511 0.023607427
000040 a1 5b da 3b 38 b6 af 3c e9 55 ae 3b 5a e4 25 bc
       0.006663755 0.021449193 0.0053203 -0.010125244
000050 fc f8 39 3d be 1a 35 bc 14 6b 26 bd dc 0d ec 3b
       0.045403466 -0.011053739 -0.04062946 0.0072038006
000060 1c 54 14 3c 84 b2 17 bc 79 f2 94 bc 47 f4 52 3c
       0.009053256 -0.00925887 -0.018182026 0.012875623
000070 80 44 b6 3c 02 9f 22 3c 63 7f bb 3c 4e 06 50 3c
       0.02224946 0.009925606 0.022887891 0.012696816
000080 0f c2 94 3c 65 63 3d 3c f8 e6 6d 3b 39 17 ff 3b
       0.01815894 0.011559342 0.0036300998 0.007784751
000090 44 35 1b bd 5b 5b 0b 3c e2 e8 95 bc fa 6c 28 bd
       -0.037892595 0.008505668 -0.018299524 -0.041119553
0000a0 12 1a 1e 3c 36 98 32 3c 5d c5 bb 3b fb 0b 43 3c
       0.00964977 0.010900548 0.0057303146 0.011904712
0000b0 0e 9d 2a 3c 9d fa 35 3c 44 58 ad bc 87 2c 5b 3c
       0.010413421 0.011107114 -0.021160252 0.013377315
0000c0 78 9d 6e 3d 4a 1b 44 3d a7 c8 e0 3b be 62 9d 3c
       0.058255643 0.047877587 0.006859857 0.019212123
0000d0 66 36 27 bc 2c 39 b6 3d 91 7b 05 3d 34 04 06 bc
       -0.010205841 0.088976234 0.032588545 -0.008179713
0000e0 67 2e c4 3b a4 78 55 3c bf 2d 6f 3d 8e f0 55 3c
       0.005986977 0.013029251 0.058393236 0.013057841
0000f0 2b 8d 9e bc f6 74 20 3c e1 db 84 3c 1a b2 c0 bc
       -0.019354424 0.009793511 0.016218128 -0.023522425
000100 3e 1e e8 3c cf 61 b4 3b b1 33 dd 3c 05 fa 3b bd
       0.028334733 0.0055048238 0.027002187 -0.045892734
000110 fb de 94 bc 9d e4 66 bc 06 a0 97 bc 19 06 0a 3c
       -0.018172732 -0.014092592 -0.018508922 0.008424305
000120 b5 13 d4 bc a7 e9 aa 3b ee 19 11 3c c7 c5 34 3d
       -0.025888303 0.005215842 0.00885628 0.044133928
000130 d4 1d 19 3c eb 1f 0a bc 82 68 0a 3c ab db 46 bc
       0.0093454905 -0.008430461 0.008447768 -0.012137334
000140 b2 42 60 bc 22 19 29 bc 6f 01 1a 3c db 1e 88 bc
       -0.013687776 -0.010320934 0.009399756 -0.016616276
000150 8d c9 16 bd 0a a9 60 bc a8 1c 9f 3d f6 69 62 bc
       -0.036813308 -0.013712177 0.077691376 -0.013819208
000160 c7 6c 74 bc e8 fc b0 3c 59 5b d1 3c 39 09 60 bc
       -0.014918513 0.02160497 0.025556253 -0.013674074
000170 dd ef 46 3c 24 31 31 3c 47 3c 4a bc 08 ce b0 3b
       0.012142149 0.010814939 -0.012343473 0.0053956546
000180 64 96 93 3c 9a 00 04 3d b7 d8 ce bc b7 f6 55 3c
       0.018016048 0.032227136 -0.025249822 0.01305931
000190 e1 1a 55 bc 22 eb e7 bc a6 37 9a bc ef d6 46 bc
       -0.013006897 -0.028310362 -0.018825363 -0.012136205
0001a0 56 a5 2a bd 92 2d e8 3b 9d 0c 81 bc b1 8f 9a bc
       -0.041661583 0.0070855105 -0.015753085 -0.018867346
0001b0 a7 80 80 3c 38 81 cb bc 88 54 66 bc d1 04 8f bc
       0.015686346 -0.02484189 -0.01405824 -0.017458351
0001c0 d4 37 a4 bc 94 77 1d bd eb 79 2f 3c cc b0 66 3c
       -0.020046152 -0.038444117 0.01071022 0.014080238
0001d0 fe 5c 21 3c f8 17 be 3b 0a e6 19 bc fd 01 38 3c
       0.009848831 0.005801197 -0.0093932245 0.011230943
0001e0 62 6c 25 3c 89 de 59 bc 8a 95 3e bc 4f 4d 45 3c
       0.010096641 -0.013297685 -0.011632333 0.012042358
0001f0 40 07 84 bc 1f 84 ac bc a1 a7 9e bc a9 a4 91 bc
       -0.016116738 -0.021059094 -0.019367041 -0.017778711
000200 63 58 dc 3b ec 13 1c 3c d3 f7 28 bc 66 eb 59 bc
       0.0067244037 0.009526234 -0.010312992 -0.013300752
000210 7f 94 93 3c 20 f8 3b bc e3 d6 96 bb 90 0d 81 3c
       0.018015144 -0.011472732 -0.004603253 0.015753537
000220 20 7c 1f bc 41 e2 1e bc ed ed 03 3c de 0e 0c 3c
       -0.009734184 -0.009697498 0.008052331 0.0085484665
000230 f4 51 0f 3c f3 c6 83 bc e2 c4 b0 3b 59 bf 42 3c
       0.0087475665 -0.016086077 0.005394564 0.011886441
000240 32 2e c6 3c fe 95 8f bc 0c b0 c3 3c 71 b2 54 bc
       0.02419195 -0.017527577 0.023887657 -0.012981997
000250 02 62 c6 3b 9d 39 09 3c 51 13 c6 bb ef 6e 0a 3c
       0.006054164 0.0083755525 -0.006044783 0.0084493
000260 9a 9d 1c 3c 8a 91 29 3c b4 21 c8 3b 26 8c f5 3b
       0.0095590595 0.010349641 0.0061075334 0.0074935136
000270 0e 75 69 bc 19 05 af 3b 92 fa 35 bc cb 85 03 3d
       -0.014249099 0.005341184 -0.011107104 0.032110017
000280 f5 06 c6 3c 87 b5 25 3c cf 11 cc bc 0f 67 5e bc
       0.02417324 0.01011408 -0.024910836 -0.013574376
000290 5c 6f 80 bc a7 c3 b5 bc 70 ca b4 3c b1 07 a0 3c
       -0.0156781 -0.02218802 0.022069186 0.019534918
0002a0 c2 95 14 3d 59 b8 d5 3b ae 50 27 bc f1 87 18 bc
       0.036275633 0.00652222 -0.010212107 -0.009309755
0002b0 44 18 c8 3c 1b a5 f7 3b 5e 90 34 3c 2e 04 70 3c
       0.024425633 0.007557524 0.011020748 0.014649434
0002c0 34 d7 fc 3b e5 6a 2e bc c3 3f 0a 3c b3 13 ce 3c
       0.007716084 -0.010645603 0.008438054 0.025155878
0002d0 4c 14 ad bc 94 d7 81 3d ae 3c 12 3c 71 fe c4 bc
       -0.021127842 0.063399464 0.0089256 -0.024047108
0002e0 2f a7 17 bd 88 80 a3 3c a8 c7 49 3c df 7c 97 3c
       -0.037024673 0.01995875 0.012315668 0.01849216
0002f0 93 4b 87 bc 4a 0c ad 3c a8 5d a1 3c f4 39 f2 3c
       -0.016515529 0.021124024 0.01969798 0.02956865
000300 af fc 05 3c ab 16 2a 3d 2d 8a eb 3b 4e 69 43 bc
       0.00817792 0.041525524 0.0071881027 -0.011926962
000310 11 7d 4c bc 05 a0 01 3c f8 a4 ea 3b ad 69 31 bc
       -0.01248099 0.007911687 0.007160779 -0.010828418
000320 94 9e dc bc e1 48 14 bc 73 37 08 3d e8 7f 8c 3d
       -0.026931085 -0.009050579 0.033256005 0.06860334
000330 e8 1b 15 bc e3 b9 0c bd 24 11 6e bc 5d 3c 33 3c
       -0.009100892 -0.034356963 -0.014530454 0.010939685
000340 5e c2 44 3c 08 fd 94 3c d7 21 22 3c 9b 96 06 3c
       0.012009231 0.018187061 0.009895763 0.008214618
000350 99 2e 19 bc 1b 64 40 3c 1b 7c 1f bc 71 3b 36 3c
       -0.009349489 0.011742617 -0.009734179 0.01112257
000360 fa 2b e0 bc 3f fe f7 3b 0e 96 07 bd 21 98 ba 3c
       -0.02736472 0.0075681503 -0.033102088 0.022777619
000370 77 ef c2 bc 46 e6 52 bc 55 78 79 bc 0b 11 5b 3c
       -0.023795826 -0.012872284 -0.015226443 0.013370763
000380 f7 8a 5a bc 12 65 6c 3d 8c c8 63 3c d3 5b ab 3c
       -0.013338796 0.057713576 0.013902795 0.020917809
000390 1c c3 8a 3d 89 d4 9d 3d 33 b9 25 3c 0c 98 08 3c
       0.067754954 0.077065535 0.010114956 0.008337032
0003a0 5c 83 dd bc 68 94 42 bc 38 b4 8e bc 60 ee 44 3d
       -0.027040176 -0.011876203 -0.01741992 0.048078895
0003b0 8b c5 11 bc 66 e8 5e bd 0c a4 03 3c a0 f5 75 bc
       -0.008897196 -0.05442085 0.008034717 -0.015012175
0003c0 37 0e 56 3d 97 b9 2a 3c 86 1d 27 3c 6d e9 83 bc
       0.05225965 0.010420225 0.01019991 -0.016102517
0003d0 af 40 01 3c f4 a7 39 3c 9b 87 bc bb b8 fd f5 bb
       0.007888957 0.011331547 -0.00575347 -0.0075070523
0003e0 67 1b 2c 3c e3 78 b1 3c 9f a4 5b 3c 25 c1 48 bc
       0.01050458 0.021664089 0.013405948 -0.0122530805
0003f0 5b e4 59 bd 6c 46 8b bc fa 14 be bc 8b d8 5a bc
       -0.053196292 -0.017001353 -0.023203362 -0.013357292

bn1.weight f4 [512]
000000 68 f5 8a 3e c0 3b 25 3f 33 62 5f 3e 39 79 27 3e
       0.27140355 0.64544296 0.21814804 0.16354837
000010 a8 36 40 3f f8 74 6d 3e 47 39 11 3f e7 86 10 3e
       0.750834 0.23189151 0.56728023 0.14113961
000020 61 08 00 3f a1 91 05 3f c9 bc 4f 3f 79 50 7e 3e
       0.50012785 0.5217534 0.8114744 0.24835385
000030 80 2d 4f 3f 54 d6 9e 3e c4 e3 f1 3e e4 11 b6 3e
       0.809288 0.31022894 0.47244084 0.35560524
000040 fd 98 4b 3d 41 90 1b 3f da 43 cf 3e df 46 50 3f
       0.049706448 0.6076699 0.40481454 0.8135814
000050 77 ee 56 3f 22 c6 42 3e 86 e3 58 3e 40 43 bc 3e
       0.8395762 0.19020894 0.21180543 0.36770058
000060 2a 18 d3 3d fb 3c 64 3e 54 a3 00 3f 57 f8 09 3f
       0.10307343 0.22288887 0.5024922 0.5389456
000070 24 53 32 3f 4c 0e 1c 3f 08 f0 4e 3f 17 82 5b 3f
       0.6965811 0.60959315 0.8083501 0.85745376
000080 fe b5 32 3e 5a e9 4c 3e c7 72 38 3f 09 51 f7 3e
       0.17452237 0.20010892 0.72050136 0.48304012
000090 f4 cf 0e 3f bb 5a 7a 3e d8 1b 44 3f b9 44 58 3f
       0.5578606 0.24448673 0.76604986 0.8447986
0000a0 bb be 2b 3f d8 4a 5f 3e fc 3b 26 3e f0 65 4c 3f
       0.67087907 0.21805894 0.1623382 0.79843044
0000b0 7a 2e 54 3e ea ba 5b 3f 28 b1 02 3f 35 fd 69 3e
       0.20720854 0.85832083 0.5105157 0.22850497
0000c0 19 82 de 3e 06 4f ca 3e 2e 5a 8a 3e 3f 82 e5 3e
       0.43458632 0.39513415 0.27021927 0.44825932
0000d0 57 2d 2a 3e 0f 9a 74 3e 17 bd 2c 3e 40 4b e6 3e
       0.16618858 0.23886894 0.16869007 0.44979286
0000e0 4c 5b 2a 3f b3 e8 7b 3f da 01 10 3f 92 52 24 3d
       0.6654556 0.98401946 0.56252825 0.040117808
0000f0 f9 e8 cb 3d b7 c1 4e 3f a8 77 f6 3e e9 d5 44 3f
       0.099565454 0.80764335 0.48138165 0.768889
000100 f9 70 56 3f 9e 80 5b 3e 22 39 2f 3f e6 84 0f 3e
       0.8376613 0.21435782 0.6844655 0.1401554
000110 da b4 45 3f fb 25 8c 3e e2 2b 57 3f c2 b1 ce 3d
       0.7722908 0.27372727 0.84051335 0.10092498
000120 6c a2 3a 3e 30 2a 84 3e 50 1a 59 3f 7b 91 55 3f
       0.18226022 0.25813437 0.84805775 0.8342511
000130 fc e8 35 3f 1a ed 54 3f 4e 61 51 3f d7 8f 94 3e
       0.7105863 0.8317429 0.817891 0.2901599
000140 27 85 33 3f 4b f3 9f 3e b1 8a 32 3f 5e 28 50 3f
       0.7012505 0.31240305 0.69742876 0.81311595
000150 61 ce 4e 3f 0c e3 bb 3d 2f 78 04 3f c9 17 cb 3e
       0.8078366 0.09174165 0.51745886 0.39666584
000160 f5 c4 bc 3e 3f 7f f6 3e bb 66 a3 3e b5 e4 07 3f
       0.36869016 0.48143956 0.31914315 0.53083354
000170 c7 d5 10 3f d8 b6 52 3f c6 a5 36 3f 46 13 1c bc
       0.565762 0.8231025 0.713467 -0.0095260795
000180 ca 6e a7 3e bb 59 5c 3e b8 d9 12 3f ab fb 0a 3f
       0.32701713 0.21518604 0.5736346 0.54290265
000190 12 9a 6b 3e 22 fa 75 3e cf 97 ad 3e b6 a8 67 3f
       0.23007992 0.240212 0.33904883 0.9049181
0001a0 29 7d 65 3f 83 45 0d 3f 9b 39 3f 3f 4f 36 5c 3f
       0.89644104 0.5518419 0.74697274 0.8602037
0001b0 af 00 3c 3f 72 0a 0b 3f 7f 17 98 3d 47 f7 40 3f
       0.73438543 0.54312813 0.074263565 0.75377315
0001c0 92 3a 51 3f 3a ad 45 3f 35 8b 4a 3f c1 48 94 3e
       0.81729996 0.7721745 0.79118663 0.28961757
0001d0 a0 3a b0 3e d6 70 83 3e aa f3 2e 3f 6a 65 26 3f
       0.34419727 0.25672024 0.6834055 0.64998496
0001e0 e8 33 b4 3e 9a a5 43 3f 58 28 b8 3e ed 89 f9 3d
       0.3519585 0.7642456 0.3596828 0.121845104
0001f0 8a 9e ad 3e 60 35 37 3f a2 08 a8 3e 8c 33 ba 3e
       0.33910018 0.7156582 0.32819086 0.36367452
000200 6a c2 24 3f 42 27 ea 3e 19 d9 32 3f 63 df 19 3f
       0.6435915 0.45733076 0.69862515 0.60106486
000210 67 29 15 3e 88 b9 db 3e 8a f6 89 3d 28 5b 52 3f
       0.14566575 0.42914987 0.06736477 0.82170343
000220 f9 39 5f 3f a5 41 59 3f 7d 3f 1a 3f ad bc 0b 3e
       0.87197834 0.8486579 0.60253125 0.13646193
000230 ec 8f 41 3f be c7 1a 3f 1e d6 cf 3e b0 ae a1 3e
       0.7561023 0.6046103 0.40593046 0.31578588
000240 b7 2c 17 3f 96 59 1f 3f 90 fe 92 3e b3 81 68 3f
       0.59052604 0.6224607 0.2870984 0.90822905
000250 f0 03 c5 3e ef 4c c7 3e 26 f8 e0 3e b0 5c eb 3e
       0.38479567 0.38925883 0.43939322 0.45969152
000260 40 41 9c 3e 8c 73 59 3f e1 b1 11 3f 00 51 cc 3e
       0.30518532 0.84941936 0.56912047 0.39905548
000270 48 df 15 3f 1c 77 87 3e f1 6c 7b 3e 6b de 60 3f
       0.58543825 0.2645806 0.24553277 0.8783938
000280 f5 a8 3c 3e 0f 82 37 3e 49 db ad 3e 14 67 ac 3e
       0.18423827 0.17920707 0.33956364 0.33672392
000290 86 17 93 3e f3 0b fc 3e e3 66 a7 3e 7d cb 0f 3f
       0.28728884 0.49227867 0.32695684 0.56169873
0002a0 1d 07 31 3f 6a ed 28 3f ca a4 35 3f 55 61 23 3e
       0.6915148 0.65987265 0.70954573 0.15955098
0002b0 f2 6a 4b 3e 42 61 88 3e 6e b3 29 3f 9a 02 40 3e
       0.19865015 0.26636702 0.6628941 0.18750992
0002c0 ae 88 06 3f 34 7b ac 3e 87 15 00 3f 0e b8 11 3f
       0.52552307 0.33687747 0.5003285 0.5692147
0002d0 91 6b 4b 3f 96 98 44 3f bd 9b 46 3f fe 48 2b 3f
       0.7946101 0.7679533 0.7758139 0.6690825
0002e0 81 94 12 3e e5 45 24 3e 49 a2 8a 3e 5c 52 4b 3f
       0.14314462 0.16042288 0.2707694 0.79422545
0002f0 2e 14 04 3f 8b 41 8a 3e 16 9f 29 3e 96 3c 6d 3f
       0.5159329 0.2700313 0.16564593 0.9267057
000300 87 21 47 3f 50 83 19 3f 6a 01 91 3e 50 b0 29 3f
       0.77785534 0.5996599 0.2832139 0.66284657
000310 9b 95 15 3e ca f1 2f 3e e4 6f aa 3e 59 ba 71 3e
       0.14607851 0.17182079 0.3328849 0.23606242
000320 df a5 34 3f c3 ea a3 3e 6c b5 57 3f ba 4c 78 3e
       0.705656 0.32015046 0.842612 0.24248019
000330 90 08 db 3e 40 d3 84 3e ec 42 12 3e 72 98 26 3f
       0.4277997 0.2594242 0.14283341 0.65076363
000340 54 0b 46 3e cf 0e 50 3f 2d f2 b3 3e d8 94 1e 3f
       0.19340259 0.81272596 0.35145703 0.6194587
000350 4c b2 34 3f c3 55 0d 3e 73 c7 0c 3f b7 42 ea 3e
       0.7058456 0.13802247 0.54991835 0.45754024
000360 54 68 3e 3f ff 83 39 3e 6e a3 57 3f bf 0d 16 3e
       0.7437794 0.18116759 0.8423375 0.14653681
000370 0c 8a db 3e 4d 3e 28 3f 09 df 36 3e a8 e7 95 3e
       0.4287876 0.65720063 0.17858519 0.29278302
000380 8a f9 49 3f 94 58 9d 3e da 33 37 3f cc 84 ee 3e
       0.7889639 0.30731642 0.71563494 0.4658569
000390 ac 4c 2c 3f 9b d4 66 3e cc 1a a1 3e 89 db a0 3e
       0.6730449 0.2254204 0.31465757 0.31417492
0003a0 81 8a 23 3f 8c 17 55 3f ce e5 42 3e dc ac 3d 3e
       0.63883215 0.83239055 0.19032976 0.18522972
0003b0 9b 52 2c 3f e1 4a 11 3f 93 3c 3b 3f 54 a0 0f 3f
       0.67313546 0.5675488 0.73139304 0.56104016
0003c0 3d 71 1f 3e 24 7a 4a 3e 26 8c 57 3e df cc ea 3e
       0.1557054 0.19773155 0.21049556 0.4585943
0003d0 49 cd 2c 3f a5 52 7a 3e f7 f7 38 3f 3f b5 08 3f
       0.6750074 0.24445589 0.72253364 0.5340156
0003e0 7f 73 cc 3e 51 ac d2 3e 1b 2f 46 3f 0f 64 fe 3e
       0.39931867 0.41147092 0.7741563 0.49685714
0003f0 d3 39 ec 3e 77 f8 87 3e 28 a4 81 3e c8 2c 2c 3f
       0.46137866 0.2655675 0.25320554 0.6725583

bn1.bias f4 [512]
000000 73 82 b2 bc 1f fd f4 3d b4 97 e5 3d 74 e6 31 bd
       -0.021790719 0.119623415 0.11210576 -0.043432668
000010 a1 3e 67 3d 95 b1 46 3d cc df 2f 3d 53 c2 f5 bc
       0.056456212 0.0485092 0.04293804 -0.029999888
000020 3c 79 d4 3d be ce 91 bd 76 b3 34 3d 14 47 85 3d
       0.10374686 -0.07119511 0.04411646 0.06507698
000030 2e 25 b0 3d e5 8b 16 3e 07 94 03 3d 49 63 50 3d
       0.086008415 0.14701803 0.03212359 0.050875936
000040 09 f0 02 3e cf 6e dc 3b 3d 82 92 3d c1 ae 00 3b
       0.12786879 0.0067270766 0.07153747 0.0019635411
000050 60 0f 78 3d 41 ce 39 3c 29 e7 65 3b f4 62 46 bc
       0.060561538 0.011340679 0.003508041 -0.012108553
000060 b8 de dd bd d9 c4 65 3e 83 47 bf 3d 87 5a f6 bb
       -0.10833496 0.22438373 0.09339812 -0.007518116
000070 9b 74 06 bd e5 9f d5 3d 16 5a e2 3d e3 67 26 3d
       -0.032826047 0.10430888 0.11052339 0.040626418
000080 26 b1 67 bd f6 2b 11 bd ee 30 ab 3d a8 cb 9f 3d
       -0.056565426 -0.035442315 0.08358942 0.07802516
000090 fc 9f fb 3d fe 34 23 3d 6f 44 b3 3d d0 ed 1d 3d
       0.12286374 0.03984546 0.08753287 0.038556874
0000a0 57 2a b4 3d ec e8 d8 3d 23 3a 01 3d c2 d6 c5 3d
       0.08797138 0.10591301 0.031549584 0.096601024
0000b0 f4 bb 2c 3e ce ba 42 bc 96 ca 33 3b 83 4e f6 3c
       0.16868573 -0.011885358 0.0027433983 0.030066734
0000c0 ff d2 c2 3d e6 e1 81 bc 2d fc 9e 3c d4 20 8a 3d
       0.095129006 -0.015854787 0.019407356 0.06744543
0000d0 3b 9b 55 3e d1 ab 71 3e f3 8b 82 3d 12 89 08 3e
       0.20859997 0.23600699 0.063743494 0.13333538
0000e0 57 87 eb 3d ab f7 1d 3d 67 a7 0e 3e f5 f1 62 be
       0.115004234 0.038566273 0.13931046 -0.22162612
0000f0 ab f7 2e 3e 40 4a 96 3d cb 20 d4 3d 1a 21 50 3d
       0.17086665 0.07338381 0.10357817 0.050812818
000100 3c 0b 6f 3d 1e 0b 89 3d 28 ca 46 3d 2d f0 c8 3d
       0.058360323 0.066915736 0.048532635 0.09811435
000110 34 23 31 3e f9 48 a1 3b ad 57 80 3d a8 3e e2 3d
       0.17298585 0.004922029 0.06266723 0.11047107
000120 31 c2 b4 3b e4 34 c5 3d 9a ea 68 bc 77 13 be 3d
       0.0055163135 0.09629229 -0.01421609 0.092810564
000130 87 3c 0f 3d 5b 96 19 3e 4a a0 c3 3d 3c c9 bf 3d
       0.034969833 0.14998762 0.09552057 0.09364554
000140 e7 ea 2b 3d 8c 1a be 3c 75 dc 11 3d 39 91 bf 3d
       0.041972067 0.023206018 0.035610635 0.09353871
000150 ac 58 c8 3d ed c3 51 3d f0 33 68 3d 3f b5 83 bd
       0.09782538 0.05121224 0.056690156 -0.06431054
000160 2e 60 cd 3d fd c2 73 ba 96 c2 8d 3d 4d 67 3e 3d
       0.100281104 -0.000929877 0.0692188 0.046485234
000170 61 d9 d3 bd 5c e6 c0 3d ba 7f dc bc 8d 20 94 be
       -0.10344196 0.094189376 -0.026916374 -0.28931084
000180 c8 c7 24 bd 5b 1d 22 3d 59 d5 f9 3d e3 b3 c5 bd
       -0.04022959 0.039578777 0.12198896 -0.09653451
000190 ee 90 08 bd de 29 a4 3d df 10 7f bb a7 91 4a 3d
       -0.03334134 0.08015798 -0.0038919968 0.04945531
0001a0 bb c1 de 3c 89 9e a4 bb e5 84 80 3d e4 fd 7e 3d
       0.027191987 -0.0050237817 0.062753476 0.062253848
0001b0 88 35 c0 3d 60 40 90 3d 26 0c 94 3d 79 9b 8a 3d
       0.0938521 0.070435286 0.0722888 0.06767935
0001c0 c4 30 12 be 8c 48 e3 3d 2b cc 0c 3d 3b 87 4e 3d
       -0.14276415 0.110978216 0.034374397 0.050421935
0001d0 2b ca 32 3e cb 40 77 bd 0f d6 d0 3d c7 26 54 3e
       0.17459933 -0.060364526 0.101970784 0.20717917
0001e0 d8 a5 9d 3c ef b3 89 3d b0 fb cb 3c 4c 91 a1 bc
       0.01924412 0.06723773 0.024900287 -0.019722603
0001f0 d3 d7 e5 3c 16 4c e4 3d 7a 25 a9 3d f9 2f 0e 3e
       0.028057015 0.11147325 0.08259101 0.13885488
000200 a9 3c 68 bd ac e9 db 3d 7d 6b 46 bd 38 49 15 3e
       -0.056698475 0.10737929 -0.048442353 0.14578712
000210 72 d1 56 3d b8 8d 56 3d aa 5c 15 3e 45 34 05 3e
       0.052445836 0.052381247 0.1458613 0.1300822
000220 8b ea cb 3d bc ad df 3b 72 7d 9f 3d 0f 43 fb bc
       0.09956845 0.0068261307 0.07787599 -0.030671624
000230 af a1 07 3e df 42 90 3d 78 3e 05 3d 4b ee 52 bc
       0.13245271 0.07044005 0.032530278 -0.012874196
000240 e4 59 64 bd 94 af 57 3d 77 22 a0 bc 9a e3 23 3e
       -0.05574979 0.05265768 -0.019547684 0.16004792
000250 44 e0 6d 3d a1 9c fc 3d 34 d9 90 3d 58 b8 a6 3b
       0.058075204 0.12334562 0.07072678 0.0050878935
000260 53 ab 26 3d 34 5b a3 3d cd e9 be 3d 8c 6a 6b 3c
       0.04069073 0.0797638 0.09321938 0.0143686645
000270 17 d8 80 3d d8 83 a7 3b 9d 05 11 3d 84 da 9b 3d
       0.06291216 0.0051121525 0.035405744 0.07610038
000280 c2 43 0b 3c 6f 7c 26 bd ca 41 5e 3e 0b a5 b2 3c
       0.008500041 -0.040646013 0.21704784 0.021807214
000290 f9 47 ba 3c a5 13 2b be a0 01 45 3d e6 9b 2c 3d
       0.022739397 -0.16706713 0.048097253 0.042140864
0002a0 f1 0a 17 3d 97 a6 a5 3d 04 71 14 bc 56 e1 55 3c
       0.03687567 0.08088415 -0.009060148 0.013054213
0002b0 e6 b7 41 3d 44 ff 07 3d 35 e4 88 3d 68 ac ba 3d
       0.04729452 0.033202425 0.06684152 0.09114915
0002c0 37 55 9c 3d 9a b0 6e 3d 31 f0 67 3b 3e a8 00 3d
       0.07633441 0.05827389 0.0035390968 0.03141045
0002d0 1b e0 0b 3e b0 05 11 3e 2c 96 57 bd 36 d5 a7 bc
       0.13659708 0.14162326 -0.05263345 -0.02048741
0002e0 ce 64 05 3e fe 6a 66 3e 20 f2 2e 3b c7 bf 2c 3e
       0.13026735 0.22501752 0.002669461 0.16870032
0002f0 8e 9b 24 3d 46 46 33 3d 21 89 26 3d 0b b2 2a 3e
       0.04018741 0.04376819 0.04065812 0.1666948
000300 dc e6 ac bc fc 42 b3 3d ca 9b 8b 3d 95 07 a1 3d
       -0.021106176 0.08753011 0.06816824 0.07862774
000310 fe 30 f6 3c 87 7e c2 3c 3a 7b 80 3b e7 46 64 3d
       0.030052658 0.023741974 0.0039209398 0.05573168
000320 75 69 7f 3c 86 43 8a 3d d5 3b b1 3c 08 7f 9b bd
       0.015589108 0.0675116 0.021634975 -0.07592589
000330 7d 7c 49 3d e2 19 0e 3d 3a 5c 50 be 83 92 c3 bd
       0.049190987 0.034692653 -0.20347682 -0.09549429
000340 ac 55 59 3e bc 59 95 3c 4f 55 e2 b7 f7 e2 b7 bd
       0.21224087 0.018231265 -2.6981024e-05 -0.08978837
000350 ec b2 89 3c 39 41 ff bc 54 30 67 3d fd 99 94 bc
       0.01680895 -0.03115903 0.056442574 -0.018139834
000360 63 93 d7 3d a0 49 e2 bd c7 d4 43 3d d3 e7 59 bd
       0.10526159 -0.11049199 0.047810342 -0.0531996
000370 22 90 13 bd db ff c4 3d 6e 9d 3f 3d af 84 5b 3d
       -0.036026128 0.09619113 0.046780996 0.053593334
000380 46 ca 8b 3d 43 56 42 3c 0e f8 34 3d 90 a4 0b be
       0.0682569 0.011861387 0.044181876 -0.13636994
000390 ab 76 89 bc b2 11 fc bd 80 7c 6c 3d e4 ca 57 be
       -0.016780218 -0.123080626 0.05773592 -0.2107349
0003a0 6c 76 8e 3d 94 07 84 bd b1 fa 8c 3d 1b 6f 03 bd
       0.06956181 -0.06446758 0.06883753 -0.03208838
0003b0 09 4c df 3c 36 86 62 3d ea f8 51 bc a6 c8 ba 3c
       0.027257936 0.055303775 -0.012815693 0.022800755
0003c0 67 34 83 bd ff 38 d9 3c db c0 2a 3c c4 ce 82 3d
       -0.06406479 0.026516436 0.010421957 0.06387094
0003d0 66 af 23 3d 3e 28 0d 3e 56 b7 30 3d b8 57 61 3d
       0.039962195 0.13784882 0.043143593 0.055015296
0003e0 7b 31 a1 3c e8 d8 88 bd 18 cc 4d 3e e8 1c a1 3c
       0.019676914 -0.066819966 0.20097387 0.019667104
0003f0 6a 5c ac 3d 93 07 bd 3c a2 0b 4d 3e 58 74 12 bd
       0.08416064 0.0230749 0.20023969 -0.035755485
