3 - Collab -MADDPG/trained_agents/maddpg_tennis_checkpoint_critic_local_0.pth (torch_old, 644536 bytes, 9 tensors)

fc1.weight f4 [512, 52]
00000000: 1832 4fbe 1394 78bd a08c 803b 5634 af3d
00000010: b7fa bb3e 2a20 0ebe 34fa 863c dea1 273d
00000020: 5cc9 f1bc 192f 503d 4346 bbbb e7d3 463e
00000030: b324 893e c8bd 7dbd a523 ce3c e33d 483e
00000040: 3bb6 323e b60b 45bb c6af b23c 46a6 d43d
00000050: 35c8 263e 3cbd 873e ecf9 61bd 6f0c 0a3e
00000060: 222a 383e 937d b9bd 959a 41bd 4bd9 d63c
00000070: 65dd a8be c6b3 00be f23b 913c 19bc 423b
00000080: 6c73 f63e 61b1 9fbd 1e46 823c a540 74bd
00000090: b94e 6dbe 9db6 cfbd 7d83 3dbd 9e00 c2bd
000000a0: ce69 403f 902f 17be db46 a0bc 53db febd
000000b0: 0be1 19be 9ead 793e 2b96 883d 51ba 13be
000000c0: a2fe c73f 7f0f 673f 1c35 493f a490 6ebf
000000d0: 435b 8f3e bb21 8e3f 0a33 adbd 6a53 27be
000000e0: 0569 46be db18 1a3e 2eaa 3ebd e411 18be
000000f0: 1935 b73e 5c00 903f a1b6 153e d31b 3abd
00000100: f6f4 00be e4da 8abe d599 1a3e 2136 173c
00000110: 138a 753e e098 963f c176 3c3e 769d d4be
00000120: 69d3 8abc b0b5 4ebf d441 e83d 5677 d0be
00000130: c66d 003d fc93 8b3d 1549 9ebc 3189 c9bd
00000140: 1fd7 5f3e 2799 433e 52ed 21bd 6af2 fabd
00000150: 0e04 b43d 78b0 eeb9 6913 12be 3e9f 42be
00000160: a739 143e 50ca 71be b1fc 3abe 6463 3ebe
00000170: 6b6e 6b3d 971f 8dbd 8ea6 0ebe 2a18 1abe
00000180: cbbd 0e3d 242b 3bbf ffd6 edbd 091d acbd
00000190: 2a37 39bd abc0 0ebf 2b15 64be 483e bdbe
000001a0: 4838 43bd e628 eebd 1aaf 3c3d c696 babc
000001b0: 3227 083e 6555 e1bd 9150 6d3c 974e 15bd
000001c0: 3d93 49bd 7256 e8bd 2468 26bc f832 75be
000001d0: 7da3 a3bd a246 9bbe 0c25 0f3d e0d4 5ebe
000001e0: 385e cfbd b2f4 80be aeac 10bd 5dcc 62bf
000001f0: 0e7f b4be e3a5 07bf 74b5 3d3c 7ba1 6dbf
00000200: 1dac 633e da1d bbbe 7db8 d0bb 2491 3bbe
00000210: bdb9 8cbd 0228 06be 2255 c93c da7b 12be
00000220: 4bb8 db3e 6637 8bbe efd4 4b3d 9a98 5bbd
00000230: 72e5 033e 067f 81be 2e35 073b 49c4 63bc
00000240: c06c c63e 92f5 aabd 57b7 d43b 459b 1f3d
00000250: 3a5e c13e c1e8 04bf 4ac4 2fbd 009b 753d
00000260: 758f 8ebf 7a4a 813f 1f1f 8f3f 5d2a f33e
00000270: 6baf 583e bf3e 393e dd60 4bbd 9869 ffbd
00000280: 6a41 ae3d fea7 5ebe 8347 77bd 48a9 0abe
00000290: 5cc5 e2bc 9df1 ce3d 8eaf 21bd 2114 a63b
000002a0: 5c08 9f3d 4ca1 0bbe 1599 bdbb 7bbf 72bc
000002b0: e52c bdbd a0cc 573d 303f c2bd 477b 6abe
000002c0: 6d1d 243e 5276 63be 45e0 37bd 1d49 61be
000002d0: 9feb 7e39 4a70 a83e b83a eebd 0753 be3d
000002e0: 2458 e7bd 9420 45be 3a15 aabd fd59 bd3d
000002f0: db24 9d3d 3082 a93e 3eec f33d a9bc b93e
00000300: 36f5 0cbe a136 79bd aaba bf3d cb27 bc3e
00000310: 28ed 8e3e 3261 8f3e b86f a23d 5940 bf3c
00000320: 234a 39be 94d0 57be 26ba d63c a055 2f3c
00000330: ec58 3140 9c5b 51bd 30ad c93f bac2 20be
00000340: 3ee8 0ebd 1e1b 39bd 5953 68bc ee06 8d3c
00000350: 195f bcbe 9aa6 823d c1b9 1a3c e5e9 543c
00000360: 1348 623e 957a 4e3e b283 903c 966a 3fbd
00000370: c596 89be a2c0 a0be 97f0 c9bc e3a2 cebc
00000380: dee4 6b3e 5166 623e 2f61 67bd b1fe 603f
00000390: ac6f 95bd 4822 3dbe 55fc c0bc 8ff6 683f
000003a0: e8a3 0cbe 797c a13f 45c3 e03b c8cd 823e
000003b0: bbf5 9c3e eac3 913d d451 653d a409 933e
000003c0: 9cd1 fabc 71dd b63f 54b8 d73c 1f53 cebd
000003d0: 7658 5d3e f8d5 8cbe 2349 c33c cf55 debd
000003e0: 1a91 7f3d 63da b63f 0213 513d a36c b2be
000003f0: 1182 f73b e9b4 82be a895 9cbc e3bf 9dbe
-0.20233953 -0.06068809 0.003923014 0.08554904 0.36714718 -0.13879457 0.016476728 0.040925853
-0.029514961 0.050826166 -0.005715163 0.19416772 0.26785812 -0.061948568 0.025163481 0.19554858
0.17452328 -0.0030066795 0.021812331 0.10383277 0.1628731 0.26511562 -0.055169985 0.13481306
0.17984822 -0.090571545 -0.04726656 0.02622666 -0.3298141 -0.12568578 0.01772878 0.0029714166
0.48134935 -0.07797504 0.015902575 -0.059631962 -0.23174562 -0.101422526 -0.046267975 -0.09472774
0.75161445 -0.14764237 -0.019565037 -0.124441765 -0.15027253 0.24382636 0.06669267 -0.14426543
1.5624583 0.9025802 0.78596663 -0.93189454 0.27999315 1.1104044 -0.084570006 -0.16340414
-0.19376 0.15048544 -0.046549015 -0.14850575 0.35782698 1.125011 0.14620449 -0.04543669
-0.12593445 -0.27120125 0.15097745 0.009229214 0.23978452 1.1765404 0.18404676 -0.41526383
-0.016946511 -0.80745983 0.11340681 -0.40716046 0.031354688 0.06815335 -0.019321958 -0.0984062
0.21859406 0.19101392 -0.039532967 -0.12253268 0.08789836 -0.00045526377 -0.14265217 -0.19006059
0.14475118 -0.23612332 -0.18260457 -0.18592602 0.05747835 -0.06890791 -0.13930723 -0.1504828
0.03484897 -0.731127 -0.11613273 -0.084039755 -0.045218624 -0.5576274 -0.222737 -0.3696158
-0.047661096 -0.116288945 0.046065427 -0.022776973 0.13296202 -0.11002616 0.014484541 -0.036451902
-0.049212683 -0.11344613 -0.010156665 -0.23945224 -0.07990167 -0.30327326 0.03494744 -0.21760893
-0.10125393 -0.25186688 -0.03532093 -0.88593084 -0.35253185 -0.529875 0.011578906 -0.92824525
0.22233625 -0.36546212 -0.006369649 -0.18317086 -0.06871364 -0.131012 0.024576727 -0.14305058
0.42914042 -0.27190703 0.049763616 -0.05361233 0.12880495 -0.25292224 0.0020631063 -0.0139017785
0.38754845 -0.0834762 0.0064915824 0.038966436 0.37767202 -0.51917654 -0.042911805 0.059962273
-1.113753 1.0100853 1.1181372 0.47493258 0.21160667 0.18090342 -0.049652923 -0.12471312
0.085085705 -0.21743771 -0.060370933 -0.13541138 -0.027681999 0.10104678 -0.039474063 0.0050683175
0.07765266 -0.13635749 -0.005786071 -0.01481616 -0.092370786 0.05268538 -0.09484708 -0.22898589
0.1602685 -0.22213104 -0.044891614 -0.22000547 0.00024311103 0.3289817 -0.116322935 0.0929318
-0.11296108 -0.19250709 -0.0830483 0.092456795 0.07673045 0.33107138 0.11910294 0.3627675
-0.13765416 -0.060843114 0.09361775 0.3674911 0.2791531 0.28003842 0.07931465 0.023346113
-0.18094687 -0.2107566 0.02621181 0.010701567 2.7710524 -0.051112756 1.5755978 -0.15699282
-0.034889452 -0.045191877 -0.014180028 0.017215218 -0.36791304 0.06379433 0.009443701 0.012995218
0.22097807 0.20163949 0.017640922 -0.046732508 -0.2687284 -0.31396967 -0.024650855 -0.025224155
0.23036525 0.22109343 -0.056489166 0.8788863 -0.0729669 -0.18470109 -0.023557821 0.9100122
-0.137344 1.2616111 0.0068592154 0.25547624 0.30656227 0.07117446 0.05598624 0.28718293
-0.030617528 1.4286329 0.026333012 -0.10074448 0.21615776 -0.27506995 0.023838585 -0.108562104
0.06239424 1.4285396 0.051043518 -0.34848508 0.007553347 -0.25528648 -0.01911433 -0.3081046

fc1.bias f4 [512]
00000000: 7f2e 13bf 3d0a 99be f9fe 193e 84cc 3fbe
00000010: 356f bebe cc11 40be 00a6 01bf 854a 91be
00000020: 4bac a0be 98d6 d8be 361d 8d3c d1be 2cbe
00000030: 3268 06bf a4a9 93be a202 a0be f110 f9be
00000040: 3087 f3be bb9c 8fbe f6c0 d5bd e96f 5fbe
00000050: e3c0 97be e4f8 d3be 1118 16be 3099 0bbe
00000060: 1f9d 70be e304 adbe d7fc 9a3a 0c04 c6be
00000070: 5389 54be 42d4 ebbe c8e4 debe a206 55be
00000080: 47ff 04be 2f6c ab3e f6d3 acbc c6aa f8be
00000090: 0818 48bf b29d 94be 848c 2ebe 67a2 c5be
000000a0: 2d83 9dbf 3a11 09be a503 8bbd 2726 1fbf
000000b0: fdb1 76bf 4c49 95be 57a5 dfbd 1634 61be
000000c0: 4eb1 3abd 4ab9 07bf a54e c4bd 63c9 d7be
000000d0: d6d8 bcbe e876 ebbe 1906 04bf 99b6 2dbf
000000e0: 1084 b7be 8dad e8be 0067 aa3b 4d59 bfbe
000000f0: 329c 66be b440 c7be 5416 2fbe f7c4 ef3d
00000100: 8f2f a3bd 338d a33d 7b34 373e 6162 243e
00000110: 16a7 cdbe 2893 88bd 25f0 bb3d 6e64 c6be
00000120: 9869 72be 9d14 80be ab20 a9be 6bdb 3abf
00000130: 38fe e6be d093 10bf 385c 18be aabb 05bf
00000140: d624 f5be 0f90 50be 5d04 debd 3832 a1bd
00000150: f9fa 0d3e 1f60 c03e 961c d4be 9c7b ddbe
00000160: 0a67 4a3c 3401 2ebd 6d53 efbe 8374 cbbe
00000170: 3607 b13e 8198 973d a360 26be 6d6a 94be
00000180: fd36 b3bd ccff 4bbf 0faf 69be ce2c c5bd
00000190: d2e9 ba3e f2d7 603c 6883 1bbe 4ed6 15bf
000001a0: 8f23 843e 69ca 17bf 60dc 93bd 5a67 003d
000001b0: 3dc9 7fbe ef09 3bbf 4816 8dbf 7478 bdbe
000001c0: 5f3f 073e 9527 0abd 645f 05bf b49c bdbe
000001d0: 5ea7 f73d d86d d03e fa9b dcbe 8252 e8be
000001e0: 4fd3 0ebc 054c 91be e7b4 9abe 738b 60bf
000001f0: db04 e3bd 6691 37bf 019e ab3e 3858 993e
00000200: b447 b5be 82d0 f9be e85f 5dbd 9143 3fbe
00000210: e2e9 9abd 74c1 01be 0740 363e 40eb cbbd
00000220: 2b60 75be cc04 28bf 3364 80bf 002b dfbe
00000230: 37c0 d6be 0942 f8bd b075 d5be d2c8 14bf
00000240: 27d1 e8be c334 043d 689d d4bc 99c3 583d
00000250: 8021 76be a3ef b43d 1dcb 81be 2540 923e
00000260: 542b 39be fdfe 74be 1107 eabe b4fc 96be
00000270: 3617 533d 0222 05bf bf1d f2be d11a f5be
00000280: 4727 353e 3c8c debe 0f7f b6be 2818 64be
00000290: b705 47bd 63e5 9fbe 0afc 073c 0ecb 71be
000002a0: b959 b63d 13d8 233c 4eb8 02be 2b99 edbd
000002b0: 3329 e5be 44d9 21be 4f48 aabe 3aae 87be
000002c0: d8f4 73be 45f1 e1be 0aca 44be 4c1d 7a3d
000002d0: 608b dabe 5cc4 ecbd 70f6 4fbe fa0b edbd
000002e0: 3140 ff3d fba7 cabe 4e1b 99bb 70d8 e73d
000002f0: 0338 8c3d d057 babb b2bf 143e 715d 2a3d
00000300: f7da 553e 782d 54be c981 00bf cd78 eabe
00000310: 5bb3 efbe e674 63bf 031b 59bf 03b2 8bbd
00000320: 2afd fc3d cb4a a0be c9f2 cdbe 094f 8bbe
00000330: b956 2dbf 918b c7be 7fb9 05bf bfd3 cfbe
00000340: 14c1 f738 aa99 9cbc 1023 8bbf 44a1 4abe
00000350: 9bd0 8a3c 8bda 99be 5f32 823d 4d57 9ebd
00000360: 64df efbd 75bd 0dbf f320 a03b ee25 b7bd
00000370: 2903 bbbe f60f d3be 6e8f 1bbf 541d c1bf
00000380: 68cf 29bf 96ab 413c 7801 403c 5519 edbd
00000390: 3471 abbd dd7b e5be f2a3 71be 4edd 01bf
000003a0: 43db 8bbe 7efc ba3e a1bb 9abe 563e a6be
000003b0: 6825 2bbd 5dd3 99be 70de b23e 17e9 14be
000003c0: 42b0 dfbd e5ea c3be ea16 80bd a93e 9bbe
000003d0: 8555 01bf d7ed 09bf 264c ecbe 1729 80be
000003e0: 1f30 79be 18b2 79be 720a a3be 3fce fabe
000003f0: fd32 8dbd 54c1 82be 124f 943d 0d77 1ebe
-0.5749282 -0.29890624 0.1503867 -0.1873036 -0.3719422 -0.18756789 -0.5064392 -0.28377166
-0.3138145 -0.42351222 0.017225843 -0.16869666 -0.5250274 -0.28840363 -0.3125201 -0.48645738
-0.47564077 -0.28049263 -0.10437195 -0.21820034 -0.29639348 -0.41400826 -0.14657618 -0.13632655
-0.23497437 -0.3379279 0.001182462 -0.38674963 -0.2075551 -0.46060377 -0.4353392 -0.20803311
-0.12988006 0.33480975 -0.021097165 -0.4856779 -0.7816167 -0.29026562 -0.1704579 -0.38600466
-1.2305657 -0.13385478 -0.067878045 -0.6216759 -0.9636534 -0.29157484 -0.10920208 -0.21992525
-0.045579247 -0.53017104 -0.09585313 -0.42145833 -0.36884183 -0.45989156 -0.51571804 -0.67856747
-0.35842943 -0.4544491 0.005200267 -0.3737282 -0.22520521 -0.38916552 -0.17098361 0.1170749
-0.079680555 0.07985916 0.17891113 0.16053154 -0.4016654 -0.06668693 0.09176663 -0.38748497
-0.23673093 -0.25015727 -0.33032736 -0.72991055 -0.4511583 -0.56475544 -0.14878929 -0.5223948
-0.47879666 -0.20367454 -0.10840676 -0.078709066 0.1386527 0.37573335 -0.4142806 -0.4325837
0.012353668 -0.042481616 -0.46743336 -0.3973733 0.34575814 0.07402135 -0.16247801 -0.28987446
-0.087507226 -0.7968719 -0.22820686 -0.096276864 0.36506516 0.01372336 -0.15186846 -0.5853013
0.2580838 -0.5929323 -0.072197676 0.031348564 -0.2497911 -0.7306203 -1.1022425 -0.3700596
0.13207768 -0.033729155 -0.5209868 -0.37033617 0.1209247 0.40708804 -0.4308775 -0.45375448
-0.008717372 -0.2837831 -0.30216143 -0.8771278 -0.110849105 -0.71706235 0.33518985 0.29950118
-0.35406268 -0.4879189 -0.05404654 -0.18678118 -0.07564141 -0.12671453 0.17797862 -0.0995698
-0.23962466 -0.6563232 -1.0030578 -0.43587494 -0.41943523 -0.1212197 -0.4169135 -0.5811893
-0.4547207 0.03227688 -0.025953963 0.05292091 -0.24036217 0.088347696 -0.25350276 0.28564563
-0.18082935 -0.23925395 -0.45708516 -0.29489672 0.051535808 -0.52005017 -0.4728832 -0.47872022
0.17690764 -0.43466365 -0.35643813 -0.2227484 -0.048589434 -0.31229696 0.008299837 -0.23612615
0.08903832 0.010000247 -0.12765619 -0.1160148 -0.44757995 -0.15805537 -0.33258292 -0.26500112
-0.23823869 -0.44129387 -0.19217697 0.061063096 -0.4268446 -0.1156089 -0.20308852 -0.1157455
0.124634154 -0.39581284 -0.0046724444 0.11320579 0.06846621 -0.0056867376 0.14526251 0.04159302
0.2088431 -0.2072047 -0.50198036 -0.4579529 -0.46816525 -0.8885025 -0.8480684 -0.068210624
0.12352975 -0.31307063 -0.40224293 -0.27208737 -0.67710453 -0.38973668 -0.5223617 -0.40591237
0.000118138414 -0.019116241 -1.0870075 -0.1978808 0.016945174 -0.30049548 0.06357264 -0.07731495
-0.1171253 -0.55367213 0.0048867404 -0.089427814 -0.36525849 -0.41223115 -0.6076573 -1.5087075
-0.663321 0.011820694 0.0117191 -0.11577097 -0.08371201 -0.44821063 -0.23597696 -0.5072831
-0.2731572 0.3652076 -0.30221274 -0.32469434 -0.04178372 -0.3004407 0.3493533 -0.14542042
-0.109222904 -0.38265148 -0.062543705 -0.30321243 -0.5052112 -0.5387854 -0.46151847 -0.2503135
-0.24334763 -0.24384344 -0.31843907 -0.48985478 -0.06894491 -0.25538123 0.07241644 -0.15475102

fc2.weight f4 [256, 512]
00000000: 79eb e7bd e53a b9bd 5675 473e 107e b0bd
00000010: 27f6 1fbe 0ed4 4a3d 923d 283e 01f5 793c
00000020: 470e 8c3e 0e04 19be dd3b 24be e4d9 b53c
00000030: 8ec7 923d 118e 10bd 2737 04bf 332e b7be
00000040: de5b 82be 9588 22be bd78 bcbc 0998 013e
00000050: 7857 033d 7fe1 77be 6363 d7be c46d 2c3e
00000060: 4066 d53d ffa7 19be 7859 d13d 76e0 d8bd
00000070: dd45 1d3e 9efb dfbc ea92 683e d121 053e
00000080: a194 14be 08a9 07be dabf 89be 0c9f 48bd
00000090: 012e 193e f94d 17be 8fe1 3c3e 8d34 84be
000000a0: 25e1 f03c 9000 a03e 561b f23c 75e9 953e
000000b0: 477a a5bd 9af0 293d 8436 12bf 074d d6be
000000c0: 403a 78be 79e8 13bc 87fe 913e b3e0 66be
000000d0: f7a4 12be 9188 513c 5675 cdbd b324 abbd
000000e0: dffa 8cbd d58d 843e 6686 08bf b04a d0be
000000f0: e179 1f3e 89d2 1fbe f1d0 1f3e 4cd4 b9bd
00000100: 3917 6ebe fba3 10bd a7f1 083e f22b 1e3e
00000110: 12de 62be a705 a73e 0e82 e03d 2813 61bd
00000120: 7c8c d43d 6e34 a2be bf0f 9abe b948 03be
00000130: 7708 21be fb29 f4bd c9f1 9fbc c911 dbbc
00000140: 1c93 3ebe 40e4 b83c 7ed2 af3c 932f 8eb9
00000150: 82b9 7e3e ae63 3cbd d4ff 15bf 7e8c 4f3e
00000160: 8a10 ac3e a520 b43d 2528 0bbf 54b6 f6bd
00000170: 0fe2 9d3e 863a 653b ab13 e5be 78e6 343e
00000180: 9115 f0bd bdf1 8c3e 1e8f bdbd 7864 a8be
00000190: 9051 523b e776 a93d 5c17 13be d867 8f3e
000001a0: eb99 403e 7695 483c 0442 003e 28f6 51bd
000001b0: b877 0bbe 1254 65be f16b 8fbe 3b16 87be
000001c0: 1b64 8bbe 63de 9ebe c1d0 1b3e 0933 f0bd
000001d0: 0dd7 11bb 9475 42be f477 e83d d3c7 09be
000001e0: 8855 db3d fe74 1f3e cf92 783d 31f8 e93c
000001f0: f84b 19bf 6dec 313e 550d 113e 4eae b1be
00000200: ec94 973c 7384 e93d 6e67 773e 9bbe 713d
00000210: 33a9 a33c f668 843e 0250 56bc ad18 5d3b
00000220: 61d5 6e3e 1e7c b23e c326 0f3e aa80 813e
00000230: 759c 4d3c e019 b1be e73b 05be 31fd 17be
00000240: 1e3c babe 8421 07be 0d11 523d 2957 8e3e
00000250: 1710 4d3d cbce dabc 4a42 17be b7d8 00be
00000260: a733 cc3d 3236 eabd f4e0 a23e b1b0 cebc
00000270: fae6 a1bb a06a 55be 685f c2bd be8c 5d3e
00000280: 4b5c a13d e87e 2e3e 43e1 bcbd c787 103e
00000290: f643 b83d 6924 c6be 4a27 3c3b c5fb 10be
000002a0: 7f1b adbe 9a0b 73bd 2c01 4abe ba18 21bd
000002b0: 57a5 b5bd b625 3abe 2ee1 11bd 9358 abbc
000002c0: cddc 1ebd 528d 183e cd79 553c d9d4 aebd
000002d0: 2639 c9bd 093b aebe f963 94bd 2b35 c63d
000002e0: 0774 293d 6749 10be 0cf5 923c ef10 7a3d
000002f0: 2146 77be 7548 a1be 8179 13bc 92c0 3bbd
00000300: 39e1 b83d 11a7 403d a245 11bd 78db 03bf
00000310: 1232 603e 72e2 183d 2850 413e 4815 993a
00000320: 4714 233c 8e1b 503e 3bd2 10be 6215 e2be
00000330: 9e76 5abe 8841 963d d549 39be ff2a bebd
00000340: 1906 ee3d 4686 e2be efb4 65be 897b c3be
00000350: 8efe 84be 0239 14be 1e42 01bc 25b9 ad3c
00000360: 04ef 913d ce30 be3d 38f8 4c3d d2ca 1abe
00000370: 71df 30be 0152 a33d d43d 313d 2a85 aebe
00000380: dd95 9e3c 5b55 3a3c e059 a4bc 1856 343e
00000390: 478c 11bd cdf8 23be e92c 4abd f685 cbbd
000003a0: e3c0 ffbd c1f2 9f3e 9d21 d9bd 49b7 bbbd
000003b0: 11be 743e 7dad d83b 0d98 c3be d54e 4e3e
000003c0: 013d e4bd c961 a4be 102d abbe e716 c1bd
000003d0: afac a3be 28bf 7d3d 43b2 6a3d 3250 89bd
000003e0: 32be 3bbf 874c e33b 5bb1 2bbe 31cd b5bd
000003f0: 5e80 153e c05f 2d3e 13c2 e1bd 94b1 c63d
-0.1132421 -0.09044436 0.19478354 -0.086177945 -0.15621243 0.049518637 0.16429737 0.015256167
0.27354643 -0.14942953 -0.16038461 0.022198625 0.07166968 -0.035291735 -0.51646656 -0.35777435
-0.25460714 -0.15872414 -0.023006791 0.12655653 0.03206584 -0.24207114 -0.42068014 0.16838747
0.10419893 -0.15005492 0.10222143 -0.105896875 0.15358682 -0.02734166 0.22712293 0.13001181
-0.14509822 -0.13248074 -0.26904184 -0.048979804 0.14958955 -0.14775838 0.18445419 -0.25821343
0.029404232 0.3125043 0.02955405 0.29279676 -0.08079963 0.04148922 -0.57114434 -0.41855642
-0.2424097 -0.009027594 0.285145 -0.22546653 -0.14320742 0.012788908 -0.10032146 -0.08356609
-0.06883787 0.2588946 -0.53330076 -0.40681982 0.15573837 -0.15607657 0.15607049 -0.090736955
-0.23251046 -0.035312634 0.13373433 0.15446451 -0.22155026 0.326215 0.10962306 -0.05494991
0.10378358 -0.31680626 -0.30090138 -0.1282071 -0.15725885 -0.1192207 -0.019524472 -0.026741879
-0.18610805 0.022569776 0.021462675 -0.00027119796 0.24875453 -0.0459935 -0.5859349 0.20268437
0.33606368 0.08795289 -0.5435813 -0.12046495 0.30836532 0.003497751 -0.44741568 0.17666042
-0.117228635 0.27528182 -0.09255813 -0.32889152 0.0032092072 0.08274632 -0.1436438 0.28008914
0.18808715 0.0122426655 0.12525183 -0.051260144 -0.13619888 -0.22395352 -0.2801204 -0.26384148
-0.27224812 -0.31029043 0.15216352 -0.11728484 -0.0022253424 -0.18990165 0.11351004 -0.13455133
0.10709673 0.15571973 0.060686883 0.02856073 -0.59881544 0.17375346 0.14165242 -0.34703296
0.018503629 0.11402216 0.24160549 0.059019666 0.019978141 0.2586133 -0.013080599 0.0033736632
0.23323585 0.3486032 0.1397963 0.25293475 0.012549509 -0.34590054 -0.13011132 -0.14842679
-0.3637399 -0.13196379 0.051285792 0.27800873 0.050064173 -0.026709935 -0.14771381 -0.1258267
0.099707894 -0.11436118 0.3181225 -0.025230737 -0.0049408646 -0.20841455 -0.094908535 0.2163572
0.078789316 0.17040598 -0.09222653 0.14114295 0.089973375 -0.38699654 0.0028709942 -0.14158542
-0.3381004 -0.059337236 -0.1972701 -0.03933022 -0.08869427 -0.18178448 -0.03561514 -0.020916259
-0.03878479 0.1489766 0.013029528 -0.08536691 -0.09825353 -0.34029415 -0.07245631 0.0967811
0.041370418 -0.14090501 0.017939113 0.061051305 -0.24147846 -0.31500593 -0.009001137 -0.045837946
0.09027333 0.047034327 -0.035466798 -0.5150676 0.218941 0.03732533 0.18878233 0.0011679316
0.009953565 0.20323011 -0.14142697 -0.4415694 -0.21334311 0.07336718 -0.18094571 -0.092855446
0.11622257 -0.44243068 -0.22432302 -0.38180187 -0.2597546 -0.14474872 -0.007889299 0.021206448
0.07125667 0.092866525 0.050041407 -0.15116432 -0.17272736 0.079746254 0.043271855 -0.3408597
0.01935857 0.011372889 -0.020062387 0.17610967 -0.03553417 -0.16012879 -0.049359236 -0.099376604
-0.12487962 0.31239894 -0.10602114 -0.09165818 0.2390063 0.0066124783 -0.38201943 0.2014726
-0.11144448 -0.32105854 -0.33432817 -0.094281964 -0.31967685 0.06194988 0.05729891 -0.06704749
-0.7333709 0.006936613 -0.16766874 -0.08877028 0.1459975 0.16931057 -0.11023345 0.09701839

fc2.bias f4 [256]
00000000: bcf8 09be 2e27 28be c7f2 25be 1d1e e8bd
00000010: 6da6 b3bd 6258 b1bd ff55 0fbe 068d 56be
00000020: 3486 51be 0365 cebd 9895 62be dc73 efbd
00000030: a8bf 9ebe 4ee9 ccbd 00df 07be 48b7 1abe
00000040: 535d 14be 1cbf f0bd fd6a 3bbe 0de7 fcbd
00000050: 6ee5 91be 50c2 24be aa0f 22be 799c a9bd
00000060: 71be bcbd 2f9a 53be e8ce 12be 59b3 3dbe
00000070: 80c6 2bbe b7d2 e4bd 5cb5 0fbe b584 86bd
00000080: 4cb6 66be 8866 ebbd 3813 c2bd 0afe 9cbd
00000090: 0c54 a1bd 07e0 19be 7fbb 2bbe e7f7 c1bd
000000a0: 4373 6abe ec74 cabd a78c d8bd b1bd 16be
000000b0: fb8f f4bd ba48 e0bd 7a1a 0bbe a511 9cbe
000000c0: b5ad 09be cfda 0ebe f697 02be 9a18 32be
000000d0: 3426 f4bd ea39 e0bd b6b7 efbd 60ab 1abe
000000e0: a97f 2cbe 6124 cebd c3a5 bfbd 70c7 39be
000000f0: 10b8 04be 9290 c5bd 0d58 45bd 8ef8 d8bd
00000100: e7dc edbd 2c9d bebd cd82 30be 0134 32be
00000110: e2e4 4abe 04d4 d1bd e384 59be da0d 3bbe
00000120: 48f0 85be 149d 13be 88c3 9dbd 48be 1abe
00000130: 9674 06be 19d8 1cbe 69f5 c6bd 6c63 bbbd
00000140: cdaa 18be 117b 16be aece f1bd 4af7 15be
00000150: e53d dabd d8d1 1ebe 04f8 fbbd 90e6 d3bd
00000160: dea6 22be 6f34 83be 63e8 26be ab0b efbd
00000170: fa01 3cbe 82d1 d1bd ea30 20be 7877 10be
00000180: 7c75 10be 6108 fdbd 66dd 2bbe 16d5 1cbe
00000190: 195a 47be b71d 90bd c0e6 f2bd 594c 8bbd
000001a0: f2ab 12be 4107 97be fc08 74be 1eca b0bd
000001b0: 2bec 0ebe db93 13be dd62 30be 38ed 50be
000001c0: d19e 20be e4f8 aabd 77ba 0bbe b322 083d
000001d0: fae6 65bd 5361 dcbd 17ef ebbd 0561 01be
000001e0: 0ded 10be 4fe1 6dbd 81ed 12be 9aec 1fbe
000001f0: 39d5 cbbd 34b6 cdbd 6cc4 ebbd 32f5 4a3d
00000200: 40f4 05be ded7 563a c655 dcbd 9151 0abe
00000210: 6b87 fabd 3c7e f2bd ddb8 f1bd 1914 04be
00000220: 37ae 46bd b115 d4bd 8fac 2bbe 4471 16be
00000230: 2149 17be 3091 32be e4a4 12be b0fc 03be
00000240: f688 abbd ba76 bebd d214 31be 96d5 15be
00000250: ea64 623d 9277 cabd 51b9 e1bd 83cc 9cbd
00000260: 85f3 cdbd 3812 12be d401 b1bd d5cb 11be
00000270: 1af8 cdbe 3fea 08be 8e9f f0bd 4f02 10be
00000280: 820c debd 85c3 39be a329 13be 0cdd 2abe
00000290: ffdc a0bd 7d03 9cbd e8bf fdbd 496d e7bd
000002a0: fc9f 10be 9e52 3fbe bd7b 04be a956 56be
000002b0: 3aeb d6bd 5e54 e8bd fdf0 01be af5d 51be
000002c0: 281d 0bbe b5b1 01be a46c 35be 5f8e ccbd
000002d0: a493 b2bd ab77 22be 72db 00be 887e cabd
000002e0: 5958 fdbd edc5 1abe 87e3 e5bd 1146 afbd
000002f0: 2bbf 1fbe d87b 7ebe 8378 edbd cdb6 0fbe
00000300: 1974 2fbe 321a e7bd 79bc f4bd c353 0bbe
00000310: 7edd 1ebe d24e bfbd faba 0abe 307a dcbd
00000320: bc75 19be 847e 10be b65d aabd 431b 71be
00000330: b18c 85bd 3c75 b3bd 98b0 02be d8ac 0dbe
00000340: 9436 13be a505 50be a5c2 b5bd b357 32be
00000350: 9a09 20be 45e2 ccbd 1955 143e e482 85be
00000360: 844a 5bbe b6ac 2bbe 7ec6 82be b712 9fbe
00000370: 956e 3cbe a61c 0bbe 3a6e 69bd 8e49 cebd
00000380: 6bbe c9bd 90e4 66be 36c4 39be 7615 d9bd
00000390: df39 acbd f393 b9bd ac17 72be b764 27be
000003a0: 4cd9 0fbe 7714 c4bd e6ac f3bd f5fc 78be
000003b0: e2a2 8cbe 8c8a c5bd cf26 ecbd d247 14be
000003c0: 1d73 d2bd 7401 7cbe fcce 26be a3e3 ecbd
000003d0: 5c32 eebd 9f8d 09be 217e 31be d187 09be
000003e0: a084 cb3d 7e37 18be 9215 2e3d 3c6f 2ebe
000003f0: 9e06 0cbe 441b 07be 554f 00be aa25 d1bd
-0.13473791 -0.16421196 -0.16205893 -0.11333869 -0.087719776 -0.08659436 -0.13997649 -0.20952234
-0.2046135 -0.1007786 -0.22127378 -0.1169202 -0.31005597 -0.10005437 -0.13268661 -0.15108979
-0.14488725 -0.11755201 -0.18302532 -0.12348757 -0.28495353 -0.1608975 -0.15826288 -0.08281798
-0.09216011 -0.20664285 -0.14336741 -0.18525447 -0.1677494 -0.11173003 -0.14034027 -0.065682806
-0.22530478 -0.11494166 -0.09476322 -0.076656416 -0.07877359 -0.15026866 -0.16770743 -0.09471112
-0.22895531 -0.09885582 -0.10573702 -0.14720799 -0.119415246 -0.109513715 -0.13584319 -0.30482212
-0.1344517 -0.13950656 -0.12753281 -0.17392197 -0.11921349 -0.10948546 -0.11704962 -0.15104437
-0.16845573 -0.100655325 -0.093577884 -0.18142486 -0.1296084 -0.09646715 -0.048179675 -0.10594283
-0.116143994 -0.09307322 -0.17237397 -0.1740265 -0.19813874 -0.10245517 -0.21242099 -0.18267003
-0.26159883 -0.1441539 -0.0770331 -0.15111649 -0.13130412 -0.1531681 -0.09714777 -0.091498226
-0.14908905 -0.14695384 -0.11806999 -0.14645115 -0.10656337 -0.15509737 -0.123031646 -0.10346711
-0.15883967 -0.2562594 -0.16299586 -0.11672147 -0.18360129 -0.102450386 -0.15643659 -0.14108074
-0.14107317 -0.12355114 -0.16783676 -0.15315661 -0.19467963 -0.07036918 -0.11860418 -0.068016715
-0.14323404 -0.29497722 -0.23831552 -0.08632301 -0.13957278 -0.14411871 -0.17225213 -0.20402992
-0.15685584 -0.08348253 -0.1364535 0.033236217 -0.05612848 -0.107607506 -0.11520212 -0.12634666
-0.14152928 -0.0580762 -0.14348413 -0.156176 -0.09952778 -0.10044518 -0.11512074 0.049550243
-0.13081455 0.0008195619 -0.107585475 -0.13507678 -0.1223286 -0.118404835 -0.11802838 -0.12898292
-0.048505988 -0.103557 -0.16765045 -0.14691645 -0.1477399 -0.17438197 -0.14320713 -0.12889361
-0.083757326 -0.09299989 -0.17293099 -0.14632258 0.05527202 -0.098860875 -0.110216744 -0.07656195
-0.10056213 -0.14264762 -0.08642927 -0.14237912 -0.4022835 -0.13370608 -0.11749183 -0.1406338
-0.108422294 -0.18140991 -0.14371352 -0.16685885 -0.07854652 -0.07617853 -0.12390119 -0.11300141
-0.14123529 -0.1868386 -0.12937827 -0.20931496 -0.10494085 -0.11344217 -0.12689586 -0.20445894
-0.13585341 -0.12665446 -0.17717224 -0.09988093 -0.087195665 -0.15865962 -0.12583712 -0.09887415
-0.123703666 -0.15114565 -0.11225038 -0.08558286 -0.15600269 -0.2485193 -0.115952514 -0.14034577
-0.17134131 -0.11284293 -0.11950011 -0.13606171 -0.1551418 -0.09341206 -0.13547888 -0.10765493
-0.14986318 -0.14110762 -0.08318655 -0.23545556 -0.065209754 -0.08762595 -0.12762678 -0.13835466
-0.14376289 -0.20314653 -0.08875016 -0.17416267 -0.15628663 -0.10004095 0.14485587 -0.26076424
-0.21415144 -0.16765103 -0.25542063 -0.31068966 -0.18401559 -0.13585147 -0.056989886 -0.10072623
-0.098507725 -0.22548127 -0.18141255 -0.105997965 -0.084094755 -0.09061422 -0.23641843 -0.16347013
-0.14047736 -0.09574216 -0.11898212 -0.24315245 -0.2746802 -0.09645566 -0.1153084 -0.14480522
-0.10275862 -0.2460993 -0.16289896 -0.11566856 -0.11630699 -0.1343293 -0.1733327 -0.13430716
0.099374056 -0.14864919 0.04250104 -0.1703462 -0.136744 -0.13193995 -0.12530263 -0.10212262

fc3.weight f4 [1, 256]
00000000: 276c d9bc 2068 f0bb 2019 4a3b 9c1a d8bb
00000010: 0ac4 d03b 2f4c 8f3a 8b2f 3e3b 43c0 183d
00000020: 6463 a6bc a665 e2bb 3012 29bd 205b 1bbc
00000030: d4b3 debc 68c9 12bc 225a fe39 4e0c 913d
00000040: 27e2 44bd 6be2 b0bb 9fe7 9bbc f149 0abc
00000050: fea6 383d fe25 b43c 2c39 13bc 1f6e 063d
00000060: 465f 933c bc3c 2e3d 5c2f 9abc 6873 113d
00000070: 8756 3bbd 3fe2 333c b096 223d f5f2 d7bc
00000080: 318b 1f3d 30e8 223d 0987 0abc 2378 9abb
00000090: 2c26 993b 4f06 f03c a870 36bc ff6a ddbc
000000a0: edf7 4f3d e24b 6dbc 6295 86bc 6b5a f5bc
000000b0: d4fb 2abb 837a 733b c794 e2bc afb0 173d
000000c0: 282a 073d 1b28 17bb 2a9d ee3b 2461 093c
000000d0: 6d57 ebba 7fd6 8bbc 170e 1fbb 0527 0dbc
000000e0: ac10 2bbc 5ccd 8d3c cdff f6bc f2b2 f8ba
000000f0: ab16 833a a41c a23b a921 603b 51b3 ad3b
00000100: 718b 48bc d6ab dd3b c472 44bc 144f 043d
00000110: ccf5 043d 381b d13b 354c 9f3c 92e9 8a3c
00000120: d82f 0c3d 48b5 deba 2345 833c 2d07 b6bc
00000130: f7b3 1d3c b67e 3bbc bae1 213d 9830 943b
00000140: b41b 52bb a59f 6c3d 1394 edba be2e 773b
00000150: 80b3 a8bc 6dea 28bd 61a2 513c 2caf 473c
00000160: 22f7 38bc 1c35 0cbd 9e8b c5bc 3e04 acbd
00000170: 51f5 83bd 0bea c33a 7e13 3739 7691 84b9
00000180: 4b5d c43b cd3e 4dbb 5be9 cc3c 587e a3ba
00000190: 01e6 13bd b323 0c3a 54c6 47bc 622c 6f3c
000001a0: c504 4ebc 0c92 91bc a064 363d d8cb d7bb
000001b0: dcfa 66bb ea0e 283c 246e b3bc 0a3e 2d3d
000001c0: dd66 093d 4371 d439 e100 843d 5505 a33c
000001d0: f9b0 81ba f8d3 193d 7789 03bd 6258 97bc
000001e0: 31b0 24bc 8ce3 b2bc 663e cbbc bee8 313a
000001f0: 7280 6a38 fa91 653c 8fce e4bc 354b a93c
00000200: 8371 27bc 40f3 b23c 82ea 12bd d918 673b
00000210: 6b57 2abc 163b 37bc c223 23ba 8efa c53a
00000220: f6f5 f0bc 96e6 b63c 78c5 9e3c b667 52bb
00000230: a680 853b e23d 36bb 2f84 aa3c a402 fd3c
00000240: 5d11 123b 8e8e 94bb f695 193c 7b53 093d
00000250: 91c9 483c 31d4 46bb 87ac 01bb cf1a 5fbb
00000260: 6626 babb 9be9 593c 40f5 1c3d edf3 a1b9
00000270: f6b9 9cbc 2a75 953c 6484 31bb 54b8 4b3a
00000280: 03ea 4c3a 5aa9 30b8 6577 d3b8 5f14 a33c
00000290: 6d4b f9bb 6348 2e3c ca36 313c 9889 3e3c
000002a0: 0690 aabb 3a7c 08bc 6d59 863a 1619 3cbd
000002b0: d06f 92ba bddf 84bb 70c4 0f3d 512e 4c3c
000002c0: 8379 b53c fd61 753b b5af f6bc 831b f039
000002d0: 1dca 0ebc be43 80bb 549b 2b3d fb15 1fbc
000002e0: 26a9 e4bb b65e 083c 1c54 113c e10e 01bc
000002f0: a141 c4bc 8cdd 253d 8d03 05bb 633f 91bb
00000300: 2e30 e2bb 79a4 71bc ab3f 3dbc 2bf7 383d
00000310: eb79 d9bb 8f96 163c ccfa 59bd e4ab 4dbb
00000320: aef0 293b a9d8 723b 0898 7d3c 0052 dcbc
00000330: 7363 87bc 18cd 0f3d 1339 843b 6a33 bf38
00000340: 4c9a 1b3d 79ce 9abd c2f3 b8bb e4d5 a9bc
00000350: 6e9c 083c 0312 393c c424 d93c 25b1 c6bc
00000360: fdaa ba3c b518 3c3d 0ab1 f6bc eed8 dcbc
00000370: a9a7 a0bc 3fb4 1dbc cb14 e6bc f7ac 50bc
00000380: f594 fe3b 7144 7bbb 5e4b 1fbd c484 12bc
00000390: ff53 c93c 56a7 c73a 396a e8bc c744 f5bc
000003a0: 9df7 1b3b f433 12ba a7ca 063c af81 343d
000003b0: 5862 0c3d ecc6 9f3b b540 8b3c 9fd7 f1bb
000003c0: 7797 02bc d7d0 173d 0e6b a2bb ef75 663c
000003d0: d367 04bc c5b4 0f3d 149a e7ba 6caf 72ba
000003e0: 7865 93bc aeb5 313c 852d a23c a4d3 3ebd
000003f0: 89eb 703c d1d0 aa3c 3967 1cbc 1289 12bb
-0.026540829 -0.0073366314 0.003083773 -0.006594969 0.006371026 0.0010932739 0.0029020037 0.03729273
-0.020311065 -0.00690909 -0.04127711 -0.009482175 -0.027185358 -0.008959152 0.0004851381 0.07082425
-0.04806724 -0.005398085 -0.019031344 -0.008440481 0.04508113 0.021990772 -0.008985799 0.032819863
0.017989766 0.04253839 -0.01882141 0.03551045 -0.045736816 0.010979234 0.039694488 -0.026360968
0.038951103 0.039772213 -0.008455046 -0.0047140284 0.00467374 0.029299883 -0.011135258 -0.027028559
0.05077355 -0.014483424 -0.016428653 -0.029950341 -0.0026090043 0.003715188 -0.027658833 0.037033733
0.032999188 -0.0023064676 0.007281919 0.008384977 -0.0017955132 -0.017070053 -0.0024269873 -0.00861526
-0.010440987 0.017309837 -0.030151272 -0.0018974228 0.0010001262 0.004947262 0.003419975 0.005300917
-0.012240277 0.006764869 -0.011990253 0.032301977 0.032460973 0.0063814186 0.019445518 0.016957078
0.034225315 -0.0016991282 0.016024178 -0.022220219 0.0096254265 -0.011443784 0.03952191 0.0045223944
-0.003205997 0.057769436 -0.0018125795 0.003771707 -0.020593405 -0.04123919 0.012795062 0.01218776
-0.01128939 -0.034230337 -0.024114426 -0.08399247 -0.06443275 0.001494707 0.00017459501 -0.0002528538
0.0059925667 -0.003131795 0.025013616 -0.0012473566 -0.03610802 0.0005345896 -0.012193281 0.014597984
-0.012574379 -0.017769836 0.044529557 -0.0065855794 -0.0035244739 0.010257462 -0.021903105 0.042295493
0.033545364 0.00040520178 0.0644548 0.019900003 -0.0009894661 0.037555665 -0.03211352 -0.018474761
-0.010051773 -0.021837018 -0.024810027 0.00067866954 5.590957e-05 0.014011854 -0.027930526 0.020665744
-0.010219934 0.021844506 -0.035868175 0.0035262613 -0.010396819 -0.011183521 -0.0006223285 0.0015104578
-0.029414158 0.022326749 0.01938127 -0.0032105274 0.004074174 -0.002780788 0.020814983 0.030885048
0.0022288181 -0.0045335954 0.009374132 0.03352688 0.012255088 -0.0030338878 -0.0019786672 -0.0034043079
-0.005680847 0.013300325 0.038319826 -0.00030890052 -0.019131642 0.018244345 -0.0027086968 0.00077713025
0.0007816853 -4.211939e-05 -0.00010083503 0.019907175 -0.0076078684 0.0106373755 0.010816285 0.011629485
-0.005205157 -0.008330399 0.001025004 -0.04592236 -0.0011172239 -0.004054992 0.035099447 0.012462215
0.022152668 0.0037442439 -0.03011308 0.00045796865 -0.00871518 -0.0039143255 0.04189618 -0.00970983
-0.006978172 0.008323362 0.008870151 -0.007877083 -0.023957076 0.040494487 -0.0020296306 -0.004432605
-0.006902716 -0.014748686 -0.011550824 0.045157593 -0.006636848 0.009191169 -0.053217694 -0.0031382972
0.002593081 0.003705541 0.015478142 -0.02689457 -0.016526913 0.035107702 0.004035124 9.117166e-05
0.037988946 -0.07558913 -0.0056442926 -0.020731874 0.008338077 0.011295798 0.026506789 -0.024254391
0.022786612 0.045922 -0.030113716 -0.026958909 -0.019611197 -0.009625494 -0.028086087 -0.0127365505
0.007769222 -0.0038340355 -0.038890235 -0.008942787 0.024576185 0.0015232365 -0.028370963 -0.029940022
0.0023798712 -0.00055771996 0.008227027 0.04406899 0.034273475 0.0048760083 0.016998628 -0.0073804404
-0.007970682 0.0370644 -0.0049566096 0.0140662035 -0.008081394 0.035084505 -0.001766982 -0.0009257707
-0.01799272 0.0108465385 0.019797096 -0.046588555 0.014704593 0.020851525 -0.009546095 -0.0022359532

bn1.weight f4 [512]
00000000: 2d7a e13e 2b03 983e 16c4 913e 26c7 303e
00000010: a38e ea3e f18c 863e b1d0 843e 4bfc 403e
00000020: f369 4b3e fbcf 233e 3580 dc3d 0cdf e93d
00000030: 512e fd3e 49be 283e 2057 463e ab88 2d3e
00000040: 263a 753e c9d0 a33e 7355 3e3e 877a 333f
00000050: 8539 273e b448 0c3e 33f8 233e cb52 833e
00000060: f37a 863e ebf7 8b3f 8cae 793e d0c3 753e
00000070: ae34 b73e cda9 d43e 9416 7b3e e271 133e
00000080: de5c 4f3f f473 f83d 96c9 473e 5d5f 8d3e
00000090: 0991 143f 7a04 0e3e 8a84 9e3e 1d76 ec3e
000000a0: 04f5 fc3e 5b7e 153e e1a8 7fba a384 313e
000000b0: 5041 fa3e 423d 6c3e f67d 763e 25cd 593e
000000c0: bb2c 893e 6805 d03d 665c 373e 99c9 433e
000000d0: 098b 6d3e 9027 723e e969 223e 5a89 753e
000000e0: 5dd8 483e 447c 513e c70d 8c3e 031a c83e
000000f0: e06b e93d 5019 4f3f cfb4 0c3e bdc2 2e3e
00000100: 0f50 643e 0ec7 6e3e feee 8a3e ba40 603e
00000110: 6fbf 073f 9d30 ea3e f39b e73d 9f5d 3f3e
00000120: 0d47 263e 84f0 133e 912b 233e 8b5c 363e
00000130: 2015 5b3e 61e3 563e c9dd 3d3e ac96 ab3e
00000140: 51ff 013f bd45 8d3e b61c cab9 0bd6 953e
00000150: dd73 b13d 1258 f43e c718 8a3e a437 583e
00000160: eda5 073f 2221 653e 9264 563e 0576 8f3e
00000170: 7235 c03e 84e7 23bb 4514 f53d d3ac c43e
00000180: 3d6f c73d 651f bf3e 457a da3e f8ab 133e
00000190: 64ec c83e 9549 893e dc84 9e3e 4d44 863e
000001a0: 34f3 07be 12a0 9d3e 733d 883e a1c2 843e
000001b0: 46cf d63e 8362 193f 1fb9 7f3e 15b8 453e
000001c0: 1a83 423e 6b06 c63d 7710 673e f707 753e
000001d0: 1e01 0f3b c585 de3e 3430 263e 931d 843e
000001e0: 40b1 f5bd 3abf 693e a6b6 fe3e efe8 a3be
000001f0: e422 903e d231 5a3e ee30 af3e e1c4 6c3e
00000200: 7598 073e 0891 5ebe fa3c e53e 0641 043e
00000210: ca29 3a3e 5fd1 683e 9ee4 963e f932 6aba
00000220: 1829 7c3e 9b05 a23e 4a95 d93e 4f7a 6a3e
00000230: 4cce 8b3e 7894 a83e 486b 343e 0b90 2c3e
00000240: 1b55 223e bf8f d43e bab6 133e 8639 4a3e
00000250: af32 593f c32c ea3e 18be 133e 821a 873e
00000260: 2206 563e 670a 193e ecba 593e f127 c43d
00000270: 665c 1aba e44b dc3e d8ed 043e 8cea 9d3e
00000280: 1edc 7c3e 00ac c03e 16bf 683e 3bd7 3c3e
00000290: 8785 ba3e 3c6b 5c3e 0cd8 a03e c558 3f3e
000002a0: d4c6 8b3e c9cf 293e 996c 3b3e ff18 d03d
000002b0: bdcc 233e 4b30 4c3e 1f3f 7d3d 0659 d4bd
000002c0: e232 1f3e 7bb2 663e 7715 aa3e d512 043e
000002d0: 40fa 263e b187 903e f760 763e 02a0 6f3e
000002e0: 9d13 c63e 2d03 153d 1d8b 453e c374 7c3e
000002f0: bac0 263e 3e74 bd3e dd7e 833e 6332 b63e
00000300: 71b1 bd3e 4e1b 4c3e aeca 873e d592 d73d
00000310: dceb 383e 7809 e83e b47f 043f 6cc6 6d3e
00000320: efb0 b33e 2ccd 8d3e 7fe2 323e 1f60 453e
00000330: b3ef 903e 4bee 513e 2ec6 293f c44f a53e
00000340: 48c9 c33e eef3 853e ea92 403f c594 1f3e
00000350: e31d f23e 13a5 1e3e deca 5a3e 4032 09ba
00000360: 8698 e93d 48fc 013f be3a a6be d683 053e
00000370: 5093 fd3d fa59 3b3e c583 383e 18bf 883e
00000380: 6eb0 803e 2c88 7b3e 16a3 d03e fee6 3d3e
00000390: 92b2 203e 0c44 f03d b950 f03e 66f4 2f3e
000003a0: e4e4 583e d741 c33d 641a 533e 458d e43e
000003b0: 8966 cc3e 28bc b13e 15f9 fd3e 0d15 16be
000003c0: d507 883e 757a 523e 1d4f c63e c098 613e
000003d0: cde3 123e 8f53 8a3e 62ba 813e 62dd 553e
000003e0: 9bd0 203e 7883 10be 88e1 2d3e f365 e93d
000003f0: ce74 743e 9eeb 1c3e d3db 493e 2a5c 373e
0.44038525 0.29689917 0.28469914 0.17263469 0.45811948 0.26279405 0.2594047 0.18846242
0.19864635 0.15997307 0.10766641 0.11419496 0.494494 0.16478838 0.19369173 0.16946666
0.23947963 0.31995228 0.18587284 0.70108837 0.16330536 0.13699609 0.16012649 0.25649104
0.26265678 1.0935034 0.2438299 0.24000478 0.3578238 0.41535798 0.24520332 0.14398912
0.8100108 0.12131491 0.19510493 0.2761182 0.58033806 0.13868895 0.30960494 0.46183863
0.49405682 0.14598982 -0.0009752643 0.17335753 0.48877954 0.23070243 0.24071488 0.21269663
0.2679194 0.10157281 0.17906341 0.19119872 0.23197569 0.23647904 0.15860714 0.23978177
0.19613786 0.2045756 0.2735426 0.39082345 0.11397529 0.80898 0.13740848 0.17066474
0.22296165 0.23318121 0.27135462 0.21899691 0.5302648 0.45740214 0.11309042 0.18688057
0.16238041 0.14447218 0.15934588 0.1780874 0.21394777 0.20985176 0.18541636 0.3351339
0.50780207 0.2759227 -0.00038549834 0.29264864 0.08664677 0.47723442 0.2697203 0.21114975
0.5298756 0.2237592 0.20936802 0.2801973 0.37540776 -0.002500982 0.11966757 0.38413104
0.09738014 0.3732864 0.4267141 0.1442107 0.39242852 0.2681395 0.3096074 0.26223984
-0.13276368 0.30786186 0.26609382 0.2592974 0.41955012 0.5991594 0.24972962 0.19308503
0.18995324 0.09669193 0.22564875 0.2392882 0.0021820734 0.43461433 0.16229326 0.25803813
-0.119966984 0.22826853 0.49748725 -0.32013652 0.2815162 0.21308067 0.34217018 0.23121978
0.13241751 -0.21735013 0.44773084 0.1291543 0.18180004 0.22736119 0.29471296 -0.0008933987
0.24625051 0.31644902 0.4249671 0.2289822 0.2730583 0.32925773 0.1761905 0.16851823
0.15852778 0.4151592 0.14425173 0.19748506 0.8484296 0.45737275 0.14427984 0.2638741
0.20900777 0.14945374 0.21262711 0.09577931 -0.0005888402 0.4302665 0.12981355 0.30843008
0.24693343 0.37631226 0.22729144 0.18441479 0.36429998 0.21525282 0.3141483 0.18686207
0.2730013 0.1658317 0.18303145 0.101610176 0.1599607 0.19940297 0.061827775 -0.103685424
0.15546754 0.22529022 0.332195 0.12897809 0.163064 0.28228524 0.24060427 0.23400882
0.3868684 0.03637998 0.19291349 0.24653916 0.16284457 0.37002748 0.25682727 0.35585317
0.3704944 0.19932291 0.2652182 0.10526053 0.18058723 0.45319724 0.5175736 0.23220223
0.35095927 0.27695596 0.17469214 0.19274949 0.28307876 0.20501058 0.66318023 0.3228742
0.38239503 0.26162666 0.75224173 0.15584095 0.47288427 0.15492658 0.2136645 -0.0005233623
0.11406045 0.50775576 -0.32466692 0.13038573 0.12381613 0.18296042 0.18019016 0.26708293
0.25134605 0.24563664 0.40749425 0.18545148 0.15693119 0.11731729 0.46936586 0.17183074
0.21181065 0.09534042 0.20615536 0.4463903 0.39921978 0.34713864 0.49604097 -0.14656468
0.26568475 0.20554526 0.38732234 0.22030926 0.14344712 0.27016875 0.2533751 0.20885232
0.15704577 -0.14112651 0.16980565 0.113963984 0.23872682 0.15324256 0.19712763 0.17906252

bn1.bias f4 [512]
00000000: 5e15 2c3e 075b e03d 53f4 ba3d 22b9 763d
00000010: f8e5 5c3e d2c0 5d3d 6001 de3d 5577 4e3d
00000020: 984d a73d 9133 263d 8fd0 e53d ee2d 96bb
00000030: b11a 4f3e ce3b 3e3d f7a7 3a3d 55d4 8e3d
00000040: 05df 083e 9482 d73d dbb3 063d 246f 0d3e
00000050: f14e 1d3d 8c47 193d 8325 bf3b feb0 133d
00000060: 4884 ee3d a6ea bc3e 25de 8b3d c8f7 be3d
00000070: 2cc8 fc3d ba60 083e 357a ca3d baef 483d
00000080: bee8 923e a5e9 963c aa14 b83d e775 b33d
00000090: 2348 2f3e 71bf 1f3d e97a 5b3d b059 153e
000000a0: 82f0 143e 4a6c 9ebc 0214 04bb 5c6e 0e3d
000000b0: 5cbb 0a3e d848 833d 8ec7 8d3d c9fb 9c3d
000000c0: 706c b23d f754 fcbb ab05 963c 8cc2 a33d
000000d0: 6b36 883d f90f 5b3d 1fb2 5b3d ee61 81bd
000000e0: 1f24 5d3d 0e54 593d 38ed 8a3d a442 7d3c
000000f0: 995f fe3c f09b 0e3e 0ce3 7c3d 7ff3 b13c
00000100: ee19 bf3d b067 0f3d 27b3 a33d ec80 033e
00000110: 6923 623e c930 2c3e dce8 8dbb 876d 943d
00000120: 0912 723d 6edd f83d 1c2c 583d e990 2b3d
00000130: f67c 433d 95ab 163d 1de2 9a3d 01e3 213e
00000140: 1597 d83d b6d8 ad3d 55f6 843a a3fa c63d
00000150: 83f6 f5bd 98ce fe3d 26de ab3d d665 743d
00000160: c02c c43d 98d7 813d 7e26 dd3d dbf4 c73d
00000170: 9331 113e 5a53 b0ba a07f 283b 9141 dc3d
00000180: a522 ba3c 0013 583e bd59 cd3d dc09 d93d
00000190: d9ab 883d 3999 8e3d 3cd8 de3d 792e 803d
000001a0: 37ba e5bc ea30 0d3e 9924 653d dc83 a13d
000001b0: 5628 583e 9413 63bd aacd ad3d fccd 3c3d
000001c0: af51 123d 5382 00bd 9050 853d 3bb1 9c3d
000001d0: 2bb4 303a 0806 dc3d b3b1 473d 5cf4 ed3d
000001e0: e0cd 01bc 35cf 823d 905c 593e cf19 2dbd
000001f0: ee70 b23d 9407 c33d 3f1f a23d 0f03 8d3d
00000200: 1962 db3c 0a5e f1bd d7d3 6b3e 1c3e 073c
00000210: 66b0 223d 0845 d33d 2b5e 103d 8422 cbba
00000220: f53a 8c3d eee1 bf3d 6c30 523e 702c 8f3d
00000230: f11a a03d 1206 c13d c140 923d 4016 bc3d
00000240: 415e 473d 43eb 1d3e c04f 8e3d 0a0b 393d
00000250: 8bfd 5c3e df78 273e 9950 dd3c f112 953d
00000260: 7d36 8b3d 7c13 673c 3c10 ac3d a9b5 eb3b
00000270: 1c52 78b9 7e09 3f3e 312b 043e 53b5 cd3d
00000280: 0e80 883d e653 243e a1ec b73d 4c03 253d
00000290: b918 023e 48e5 613d 545f ed3d 605c 1a3d
000002a0: 74c3 7e3d 2320 9d3c 9be3 903d dd57 84bc
000002b0: 0312 893d 0155 913d c80b 2d3d 89c7 21bb
000002c0: 2326 1abc 5b40 6b3d 747a ac3d 5846 be3c
000002d0: 972f 3e3d c5cb 9b3d 3cf9 933d 19ce de3d
000002e0: c7db 073e 1857 893c 0918 3b3d 9e45 913d
000002f0: 615f e93d cd40 bc3d ec1e 8e3d 541c a93d
00000300: dae6 b93d a7df 3d3d ae27 aa3d 5cdc 813c
00000310: 2263 9f3d 2f04 083e a1b1 4b3e 31e7 bcba
00000320: 7b89 df3d d87c 9b3d 4517 5b3d 1477 323d
00000330: ea78 b23d 63ce a03d 5994 893e b7ac 1b3e
00000340: 531f 183e ac85 b43d 44d7 943d ce69 313c
00000350: e611 fd3d 92af 3e3d a0f6 973d d26a dd39
00000360: ffb1 8bbd aca7 3f3e 7eb6 48bd f4ee 5b3c
00000370: 9eaf 233d 0079 b33d 237b 263d eb1a c93d
00000380: c1d4 9a3d 7b2b 963c 396b 103e b920 813d
00000390: d521 843d 55a7 c13c 748d 093d 8179 923d
000003a0: ad95 8d3d 0748 a1bd 56a0 f93d e5e5 413e
000003b0: 35e7 b93d 55aa 903d 73f2 a93d 0ac4 ebbd
000003c0: 1c35 bd3d 97c2 ca3d 6cfc c23e 3184 f53d
000003d0: b796 323d a5db a63d eb17 d53d 192d f23d
000003e0: 053a 553d d854 b8bd 7a1c 573d 69b2 c83c
000003f0: 1844 403d 2831 833d d0cb 163e afc8 573d
0.16805026 0.10954862 0.091286324 0.06023515 0.21572101 0.054138966 0.10840106 0.050406773
0.08169097 0.04057652 0.1122142 -0.004583112 0.20225026 0.046443753 0.04557034 0.06974093
0.13366325 0.10522953 0.032886367 0.13811928 0.038405363 0.037421748 0.005833329 0.036057465
0.116463244 0.36897773 0.0682948 0.09324604 0.12342867 0.13318148 0.098865904 0.049056746
0.28693193 0.018421957 0.08988316 0.087627225 0.17117362 0.039000932 0.053584013 0.14584994
0.14544871 -0.019338746 -0.0020153527 0.034773216 0.13548034 0.06410378 0.06922828 0.07665212
0.08712089 -0.0077005583 0.01831325 0.07996091 0.066510044 0.05348203 0.053636666 -0.06317507
0.053989526 0.053058676 0.06783527 0.015457783 0.031051444 0.13926673 0.061739966 0.021722553
0.093311176 0.035010993 0.07993155 0.12842149 0.2208382 0.16815485 -0.0043307375 0.07247453
0.05909923 0.12151609 0.05277644 0.041886244 0.047726594 0.036784727 0.07562659 0.15809251
0.105756916 0.084886 0.0010144213 0.09715774 -0.12009909 0.124417484 0.08391981 0.05966743
0.09578848 0.06339949 0.107983574 0.09763499 0.14179067 -0.0013452575 0.0025710836 0.10754693
0.022721598 0.21100998 0.10026882 0.10597584 0.06673402 0.06962819 0.10881087 0.06258864
-0.028042896 0.1378819 0.055943105 0.07886478 0.21109137 -0.055438593 0.08486493 0.04609488
0.03572243 -0.031374287 0.06509507 0.076509915 0.00067407143 0.10743338 0.04875345 0.116188735
-0.00792262 0.06387178 0.21226716 -0.04226094 0.08712946 0.0952293 0.07916116 0.06885349
0.026780175 -0.11785515 0.23030029 0.008254554 0.039719008 0.10315901 0.035246056 -0.0015497957
0.06847183 0.093692645 0.20526284 0.06990898 0.07817639 0.09424986 0.07141257 0.09183931
0.048673872 0.15421776 0.06948805 0.045176543 0.21581094 0.16354702 0.027015971 0.072790034
0.06797502 0.0141037665 0.08401534 0.0071932864 -0.00023681711 0.18655965 0.12907101 0.100443505
0.066650495 0.1604763 0.0898068 0.040286347 0.12704743 0.0551503 0.11590448 0.037685752
0.062198117 0.019180363 0.07074662 -0.016155178 0.066928886 0.07096291 0.042247564 -0.0024685583
-0.009408507 0.05743442 0.084217936 0.023226902 0.046432104 0.07607225 0.07225272 0.10879154
0.13267432 0.016765162 0.04567722 0.070933565 0.11395145 0.09192047 0.06939492 0.08257356
0.090772346 0.04635587 0.083083495 0.015852146 0.0778258 0.13282846 0.19891979 -0.0014412162
0.10914894 0.075921714 0.05348899 0.043570593 0.08714469 0.07851865 0.26870993 0.15202604
0.14855699 0.088145584 0.07267621 0.010828448 0.123569295 0.046554156 0.07420087 0.00042231992
-0.068210594 0.18716305 -0.049002163 0.01342367 0.039962403 0.08763313 0.040644776 0.09819587
0.07560111 0.01833128 0.14103402 0.063050695 0.064517654 0.02363936 0.033582166 0.07152081
0.06913314 -0.07875066 0.12188785 0.18935354 0.09077302 0.07063738 0.08298197 -0.11512001
0.092386454 0.09900396 0.38083208 0.11988104 0.043600764 0.081473626 0.104049526 0.11825008
0.052057285 -0.09000558 0.05251739 0.024499135 0.04693994 0.0640586 0.14726186 0.05268162

bn1.running_mean f4 [512]
00000000: 357a 3f3f b231 b53f 1cfc b13f a5fb 4f3f
00000010: fdf2 0d40 3aff 983f 8fe0 6040 e267 d63f
00000020: f3fc 8640 925f d53f 8cc0 6a41 d14f 5240
00000030: 1c55 d33f 782c 6b3f b4f2 503f a576 8541
00000040: b4de 413f 820f 1b40 6778 463f c2bc 0e3e
00000050: 7811 3d40 47b0 a23f 910c 2940 12f4 1540
00000060: ddeb 1e40 8fdc ed41 225c b23f 67d4 eb3f
00000070: 485b 8a40 10d1 e93f 2880 2e40 3356 4c40
00000080: 24fb 4a3f fc84 a83f 3e17 4540 38d0 b53f
00000090: a62c 473f 829e 9040 f881 8d3f cb8a 703f
000000a0: 5474 d43f b537 8840 8424 643f 3509 ad3f
000000b0: e910 843f 4d6d 9d3e fe85 983f 2422 1a3f
000000c0: 01b1 0240 b9a0 d43f b9a4 7a3f ee49 3f40
000000d0: e979 703f cc9c f040 b585 5241 1f61 bd40
000000e0: ef58 883f 0c51 1440 ccb4 5e3f 1889 9d3f
000000f0: 3219 9e40 eca4 5c3e 09e7 7140 8189 4b3f
00000100: 8412 a83f a83e 593f 847b 3e3f 10fa 8340
00000110: 7aad 4541 8069 973f e4df 1440 d3d1 8d3f
00000120: a79e 9640 68d5 8640 248b dc3f 39b6 4140
00000130: 6139 fc3e 7d01 0940 596e c140 9881 d03f
00000140: 02d3 2c41 6a40 4a3f b74d 4441 ccae bd3f
00000150: 579a 1c40 4eff 1a3f 4e43 dd3f 99e6 cb3f
00000160: 7f1b 453e f692 273f 5e4d 9e3f f11e 7840
00000170: ac69 c43f af5c 1841 0f0e 5e3f c055 023f
00000180: 5c33 3440 d239 f83f 0127 833e 91dc 4f41
00000190: bd5a 493e c3ae ca3f 9ece d03f 2fc9 983e
000001a0: 3f65 9c3e a434 0240 3922 353e a80f b43f
000001b0: d8ca 9440 d5a9 2441 5f35 0c40 d0e5 8f40
000001c0: f700 b63f 0f54 e33f ad91 0440 28b9 de3f
000001d0: f44a 8a3f 6bba ac3e 0784 593f 1bdb 0340
000001e0: a10d 1d3e 3eac 103f fca3 1140 4910 d23e
000001f0: af65 483f 5ab5 f13f 728b d83f 7028 db3f
00000200: f85a 6b40 688e 8140 2322 3840 2228 b13f
00000210: 0b25 0e40 43c0 7240 0189 303f b4ca 1941
00000220: 3f8e 1840 10e6 4040 42dc d13f 02b9 453f
00000230: 6d90 f43e 86ce ac3f 88ef 1b40 7cad 1240
00000240: b5ac e43f 8a51 c63f 94a3 ac3f 201d 3a3f
00000250: 1425 e941 aa91 8c3f 85fc 923e 4b00 ed3e
00000260: d283 3a3f 64a4 183e aa50 e03f 7277 543d
00000270: 2ca1 3140 9716 443f 57be c040 ae1f 713e
00000280: aa89 d83f 4a93 f53f 1fef ac3f c8bb 043f
00000290: 808e 973f b4fe fb3f c69b 8b3f 8a50 953f
000002a0: 4d32 cb3f b2fc 043f 9e4c aa3f 10c2 f93f
000002b0: f06a a640 5ce2 4440 68f4 5d41 911f 3b40
000002c0: 38f8 2f40 2913 d23f ab51 893e 08a2 fe40
000002d0: febb 3d40 2c7f e63e 11c1 1b3f 0d05 6940
000002e0: 0c9a 5840 a084 a041 2c28 483f 6037 2240
000002f0: 17ec 9d40 7f0a 833f 0749 413f 536d 873f
00000300: 0bc8 fe3e 75bf 563f 3f55 573f 34fd 4a3f
00000310: 51d5 5a40 e4ba 0d40 72da 9340 0400 0000
00000320: 92a7 b13f dc12 7f3f ee82 0540 8c92 7d3f
00000330: fa4e 7f3f 2807 d63f 427c f63f cbd6 4b40
00000340: f734 a33f 94cf 5b3f 23b4 3740 9cfa 1941
00000350: ec75 883f e031 3240 9ed7 5f3e b33b 3e40
00000360: 1a00 ab40 c450 103f 21be ff3f 83f9 af3f
00000370: 3694 0340 25d4 e140 f1a4 c93f dfb4 1e40
00000380: 4ea9 5f40 3f91 4a40 ae53 0b3f cd27 9e3f
00000390: f9fe 3940 805a 6640 d98d 4e41 d35d b33f
000003a0: 7f55 2c40 a5ed 3f40 fa31 d53f 6036 2e40
000003b0: 9c15 173f 7154 ca3e c1dd 5e3e 1e84 2241
000003c0: c873 ca3f f0fc 953f 88e9 9c41 d8cc cd40
000003d0: 1ecf fa3f 32ac 3a3f 842c 973f c025 e840
000003e0: 3fc1 2c40 1515 9b40 16a4 8540 d02c 1641
000003f0: a4ff 9e3e 6514 8240 b6ff 7640 c160 003f
0.7479585 1.4155791 1.3905063 0.81243354 2.2179558 1.1952889 3.513706 1.6750453
4.2183776 1.6669791 14.6720085 3.2861216 1.6510348 0.9186473 0.81620336 16.682932
0.75730443 2.4228215 0.7752747 0.13939193 2.9541912 1.2710046 2.641392 2.3430219
2.483146 29.732695 1.3934367 1.8424195 4.3236427 1.8266926 2.726572 3.1927612
0.7928946 1.3165584 3.0795436 1.4204168 0.77802503 4.519349 1.1055288 0.9396178
1.6598 4.2568 0.8911822 1.3518435 1.031766 0.30747452 1.1915891 0.60208344
2.0420535 1.6611549 0.97907597 2.9888873 0.9393602 7.5191402 13.157643 5.9181056
1.065214 2.3174467 0.86994624 1.2307463 4.9405756 0.21547288 3.7797263 0.7950669
1.313065 0.8486123 0.7440722 4.124275 12.354853 1.1829071 2.3261652 1.1079658
4.7068667 4.2135506 1.7229962 3.026747 0.49262527 2.1407158 6.04472 1.6289549
10.801516 0.7900454 12.268973 1.4818969 2.4469202 0.60545814 1.7286165 1.5929748
0.1924877 0.6545862 1.236736 3.8768885 1.5344748 9.522628 0.867402 0.50912094
2.8156347 1.9392645 0.25615695 12.991349 0.1966352 1.5834583 1.6313055 0.2984099
0.30545995 2.034463 0.17688836 1.4067278 4.649761 10.291463 2.1907575 4.4968033
1.4219044 1.7760028 2.0713913 1.7400255 1.0804124 0.33735976 0.8496708 2.0602481
0.1533723 0.5651282 2.2756338 0.4102805 0.78280157 1.8883469 1.6917555 1.7121716
3.6774273 4.0486336 2.8770835 1.3840373 2.221011 3.7929847 0.6895905 9.611988
2.383682 3.014042 1.6395342 0.77235425 0.47766438 1.3500526 2.4364948 2.2918386
1.7865206 1.5493634 1.348742 0.7270069 29.143105 1.0981953 0.28708282 0.46289286
0.7285739 0.1490646 1.7524617 0.051871724 2.7754622 0.7659697 6.023235 0.23547241
1.6917012 1.9185574 1.3510474 0.5184903 1.1840363 1.9687104 1.0906913 1.1665204
1.5874726 0.5194808 1.3304632 1.9512348 5.200554 3.0763159 13.8721695 2.9238017
2.749525 1.6412097 0.2682012 7.957279 2.9645991 0.450189 0.6084147 3.6409333
3.3844023 20.064758 0.781863 2.5346298 4.9350696 1.0237578 0.75502056 1.0580238
0.49761996 0.8388589 0.8411445 0.7929261 3.4192698 2.214532 4.6204157 6e-45
1.3879263 0.9963815 2.0861163 0.9905174 0.99729884 1.6720934 1.925667 3.184985
1.2750539 0.85863614 2.8703697 9.623684 1.0660987 2.7842941 0.21859595 2.9723938
5.3437624 0.5637324 1.9979898 1.374802 2.055921 7.0571465 1.5753461 2.4797895
3.4947085 3.165115 0.5442456 1.2355896 2.9061873 3.5992737 12.909631 1.4013008
2.6927183 2.9988797 1.6655877 2.7220688 0.5901735 0.3951755 0.2176428 10.157255
1.5816584 1.1717815 19.614029 6.4312553 1.9594457 0.72919 1.181046 7.254608
2.6992948 4.8463235 4.17628 9.385941 0.31054413 4.0649896 3.8593574 0.50147635
