3 - Collab -MADDPG/trained_agents/maddpg_tennis_checkpoint_actor_local_0.pth (torch_old, 588220 bytes, 10 tensors)

fc1.weight f4 [512, 24]
000000 cc d7 79 bd cf cf 5a bc 37 8f a8 bc 51 8d 15 3d
       -0.060996816 -0.0133552095 -0.020576103 0.036511723
000010 09 70 e6 bd 1f 9a 53 3c 4d 02 ee 39 cd d9 34 3d
       -0.11251838 0.012915163 0.00045396612 0.044153024
000020 7b 61 1b 3d a9 b7 12 bc f4 55 83 3d 66 fb ad bc
       0.03793476 -0.008954921 0.06412879 -0.02123804
000030 e1 de cd bd 42 31 aa bd 17 bc 6f 3d 58 0b 57 bc
       -0.100522764 -0.083101764 0.058528986 -0.013125263
000040 4e f1 a8 bc 23 93 aa 3b ee 85 6c 3c 85 93 33 bc
       -0.020622876 0.0052055283 0.014436228 -0.010960464
000050 a7 a5 7f bd 72 d2 2d be df 08 8f bc 6e c7 5a 3d
       -0.062413838 -0.1697481 -0.017460285 0.053412847
000060 aa bd 20 3d 6f cc 06 be de 40 60 bc 70 f6 97 3a
       0.039243378 -0.13163923 -0.013687341 0.001159383
000070 04 c0 3f 3d 26 64 1a 3b 4c 11 80 bd 75 e6 82 bc
       0.04681398 0.0023558228 -0.06253299 -0.015979031
000080 2a be 8f 3d fe 0a f3 bd bb cf 0b bd 54 2d bc 3d
       0.07018693 -0.11867331 -0.034133654 0.09188333
000090 33 a6 3f 3d a4 71 11 3d 35 41 f1 3c 4e 06 88 3d
       0.04678936 0.035508767 0.029450038 0.066418275
0000a0 c4 e8 06 3d a3 39 20 be bd 22 32 3c bf 5c 78 bc
       0.032936826 -0.15646987 0.01087254 -0.015158831
0000b0 11 75 2f 3d b9 14 ee 3d 03 36 30 3d 9d a3 cc bc
       0.042836253 0.11625046 0.04302026 -0.02498036
0000c0 71 a0 ab 3d 6f b3 16 bb 3e 5a 9d bc 1c 48 30 bd
       0.08380211 -0.0022995134 -0.01920807 -0.04303752
0000d0 b8 be 15 3d 42 8c 65 bd 31 88 44 3c dc a8 ef 3c
       0.036558837 -0.056041963 0.011995361 0.029255323
0000e0 cc 04 8b 3d 85 cf f8 3b 6c 92 a5 bb ea 99 ee ba
       0.06788024 0.0075930976 -0.0050528552 -0.0018203829
0000f0 34 6c 0f bc e0 b2 b4 bc 4f 7e b9 3a 9d 99 33 3b
       -0.008753825 -0.02205795 0.0014152023 0.0027404793
000100 9a 04 da bb f7 4f 34 3d 65 a6 88 bc 9c fb 3b bc
       -0.0066533806 0.044021573 -0.016680906 -0.011473563
000110 33 2c 10 bd 8c ee bb bc 38 2f 5c 3c 0d 61 d5 3c
       -0.0351984 -0.022940896 0.013438992 0.026047254
000120 fc 52 49 3c e3 b4 39 bc 80 2b f5 bc d6 2c 02 bd
       0.012287851 -0.011334631 -0.029927969 -0.03178104
000130 42 06 18 3d 95 09 8d be 46 ff 57 bb 32 35 f9 ba
       0.037115343 -0.27546373 -0.0032958551 -0.0019013046
000140 00 98 93 bc 87 b9 d2 bc f1 b6 f6 bb 43 77 d7 bc
       -0.018016815 -0.025723232 -0.0075291325 -0.026301986
000150 ed 2d 11 3b a4 2a 9e bd e9 4a 83 3a 9b 9a ef bb
       0.0022152618 -0.07722977 0.0010016832 -0.0073121316
000160 ee 71 9c bd 00 9a 5c 3d 8b b2 f8 bc 18 1b 93 3d
       -0.07638918 0.053857803 -0.030358573 0.07182902
000170 3b ec 30 3c 7e 1d 5c bb 9f e5 10 bb 62 37 52 3d
       0.010798509 -0.0033586915 -0.002210952 0.05132235
000180 f6 b8 af 3b a5 16 7d 3c b3 30 07 3d 40 2d bb bd
       0.0053626252 0.015447293 0.033005428 -0.0913949
000190 d4 3c ea bd d4 dd 06 bc 93 1a fa 3c 3c 45 0d be
       -0.11437383 -0.008231599 0.03053025 -0.13795942
0001a0 fa e1 c9 3b 91 51 b5 3c db 06 0c bc ff b4 11 3c
       0.0061609717 0.02213362 -0.008546556 0.0088932505
0001b0 c5 83 23 3b 1a bf b8 bd 93 90 28 bd 37 c2 9f bc
       0.0024950367 -0.09020825 -0.0411535 -0.019501789
0001c0 4e da fd bc 80 52 a3 bc 30 5f 26 b9 14 cf 40 bd
       -0.030987885 -0.0199368 -0.00015866454 -0.047072485
0001d0 ff b7 c3 3d 45 06 16 be af ea f8 bc 7c 1c 1b bd
       0.09556579 -0.14650829 -0.030385343 -0.03786896
0001e0 e3 26 f8 3d 9b 0d 9c bd 26 a5 ec bc 28 08 26 3d
       0.12116792 -0.076197825 -0.028887343 0.040535122
0001f0 b6 f0 0e 3d 19 b4 1e be 6b d8 0f 3a cd fb b9 3d
       0.03489753 -0.1549839 0.0005487266 0.0908123
000200 bf c3 cc 3d a9 29 cf bd c5 53 ad 3b e1 d1 e0 3c
       0.09998273 -0.10115368 0.005289527 0.027443828
000210 5e 6b 8c bc e7 52 97 3c 7a 17 81 bc e5 93 46 bc
       -0.01714104 0.018472148 -0.015758265 -0.012120222
000220 44 b7 d6 3c 88 9c 11 be 22 71 65 3c df fd 2a 3b
       0.026210435 -0.14219868 0.014004024 0.002609126
000230 1f f2 30 bd 61 27 dd 3d d0 77 38 3c 1f 2d 95 bc
       -0.043199655 0.107985266 0.011259034 -0.018209992
000240 33 da ec bb 4c a5 43 3b 1f 19 97 3c 6a 98 ca bc
       -0.00722816 0.0029853163 0.018444596 -0.02473088
000250 d7 85 b2 3d ad 1e 84 bc d4 e6 4e bc 8a 01 aa bc
       0.08716934 -0.016127909 -0.012628276 -0.020752687
000260 f8 4c fc 3c 37 9b f9 bc 95 d4 b5 3c 25 37 d6 3c
       0.03079842 -0.03046952 0.022196094 0.026149342
000270 42 cf 84 bd 71 44 39 bd af 80 d2 bc 4b ec bf 3c
       -0.06484844 -0.045231286 -0.025696127 0.023428103
000280 19 12 dd bc 81 42 25 bd fa a8 f7 bb 68 46 5b 3d
       -0.026986169 -0.040346626 -0.0075579854 0.05353394
000290 12 52 d8 be 84 26 36 bc 72 c6 bc 3c 04 99 54 3d
       -0.42250115 -0.011117581 0.023043845 0.05190374
0002a0 65 50 d7 3c 9a 6c cc bc 3d 6d 49 bd 08 36 85 3d
       0.026283452 -0.024954129 -0.049176443 0.06504446
0002b0 7c 92 91 bd 59 a1 dd bd fb 19 db bd 86 db 41 bb
       -0.07108018 -0.1082179 -0.10698315 -0.002958031
0002c0 7e 9a 38 3d 1a f8 61 bc 96 ee 4a 3c 92 1d 2b b8
       0.04506921 -0.013792062 0.012385985 -4.0797117e-05
0002d0 2e d9 9f 3a fb a6 10 bd 6d 20 f3 3c 6c 5c fc 3c
       0.0012195462 -0.035315495 0.029678548 0.030805789
0002e0 f0 37 44 39 45 09 1a 3d f3 7c 4a 3d 6a 7d 5a bc
       0.00018712855 0.037606496 0.049435567 -0.013335565
0002f0 f0 e5 ca bb 28 09 ac bd 3f da 12 3d 87 10 3c bd
       -0.0061919615 -0.08400184 0.035852667 -0.0459142
000300 95 5f 17 3d 0b 26 ae bd 8f 7c 0a bd 48 cb eb bc
       0.03695639 -0.0850335 -0.033810195 -0.028783455
000310 9f 69 f4 3c 40 1f 19 3d e3 17 39 3c 2d 0b 5e 3c
       0.02983552 0.037383318 0.011297199 0.013552469
000320 02 bc e6 3c 6a a3 28 bd e4 38 97 3b 1c 11 21 3b
       0.028165821 -0.04117147 0.004614936 0.0024576848
000330 93 8e 89 bd fa 70 2d 3b a3 cb 7e 3c 6f 62 2a bc
       -0.06716647 0.0026465044 0.01555148 -0.010399445
000340 61 47 a9 3d 84 db ca bd a1 e2 3b bd 3e b1 a4 bd
       0.082655676 -0.099051505 -0.045870427 -0.08041619
000350 6d ee 14 be d3 88 19 bb 88 c2 b4 3c 11 8f 74 bc
       -0.14544077 -0.00234275 0.022065416 -0.014926688
000360 5c 32 4b 3d c3 a9 25 3e 95 ca 3c 3d c2 87 7c 3d
       0.049608573 0.1617804 0.046091635 0.061652906
000370 d2 75 97 bc c2 ee 73 bd 54 70 00 3c 02 49 95 3d
       -0.018488798 -0.05955387 0.007839281 0.07289316
000380 30 db 41 3d 62 0c dd 3d 50 e1 4b 3d c1 fb b1 3d
       0.047328174 0.107933775 0.04977542 0.08690596
000390 7e 3c d3 bc 38 2f 1a bd 5f 38 81 3d 05 1c cf 3d
       -0.02578568 -0.037642688 0.0630958 0.10112766
0003a0 68 29 91 3d a2 8a 1f 3e 61 b0 a8 bc 7a 0e 91 3c
       0.07087976 0.15580228 -0.020591917 0.017707098
0003b0 63 37 b6 bb 2e 11 8a 3d 06 fd 1f 3c ce 69 f1 3c
       -0.005560802 0.06741558 0.009764915 0.029469397
0003c0 ea 14 58 3e 17 28 94 3d 67 1a de bc 5e 7e 6e 3d
       0.21101728 0.07234209 -0.027112199 0.058225982
0003d0 2b 81 af bc 28 da 04 bd 46 c5 9b 3b f3 02 be 3d
       -0.021423897 -0.032434613 0.0047537414 0.09277906
0003e0 04 c5 11 3e b8 83 16 3e 5d 42 b2 bc f0 b8 04 ba
       0.14235312 0.14698684 -0.02176016 -0.0005062958
0003f0 72 8f 11 bd a4 cf 55 bc 08 db 18 3d dd 82 0a bc
       -0.03553719 -0.013049994 0.03731826 -0.008454052

fc1.bias f4 [512]
000000 c3 fe 71 be 83 74 81 be 25 bc 7b be 72 a0 d7 3d
       -0.2363234 -0.25284204 -0.2458349 0.105286494
000010 1e df ca 3c 1d 3c 7e 3e 7f 23 09 3d c9 71 4d bd
       0.024764594 0.24827619 0.033481117 -0.050157342
000020 55 98 c0 bd 9f 38 58 be a3 da d8 bc 37 b0 53 3c
       -0.09404055 -0.21115349 -0.026471442 0.012920431
000030 6c 8a 89 3d d6 18 46 3e b3 f7 35 be 85 92 bd 3d
       0.06715855 0.19345412 -0.17770271 0.09256462
000040 bc 8e 04 3e b8 d9 ce bb e9 5f 23 be 01 52 9d bd
       0.12945074 -0.006312575 -0.15954556 -0.07681657
000050 49 9e 8a bd 87 d1 2b be 29 e3 a6 bc 26 4e 53 be
       -0.06768472 -0.16779147 -0.02037199 -0.2063528
000060 2b 8f 10 3d 02 f7 2f 3d d1 d2 d3 bb 3b a8 88 bc
       0.035292786 0.042960174 -0.0064643403 -0.016681781
000070 a2 8e bd bd b0 f1 21 3e 68 ab 8a bc 0f fa 27 be
       -0.09255721 0.15814853 -0.016927436 -0.16403984
000080 c2 50 64 bd c2 56 01 bf 39 42 d7 bd 9d 9d 06 3e
       -0.05574108 -0.50523007 -0.10510678 0.13146062
000090 a2 28 ba 3d a6 ef 61 3e 8d c1 77 be c4 5d 20 3d
       0.09089781 0.22064075 -0.24194928 0.039151922
0000a0 7d 6a 77 be 36 a6 ea 3d b5 27 0f be ac de 56 3b
       -0.24161716 0.114574835 -0.13979991 0.0032786531
0000b0 42 39 07 3d 4f b0 34 3d e7 d5 9d be 76 e4 97 bb
       0.03301359 0.044113453 -0.30827257 -0.004635389
0000c0 8a de dc bd d7 a7 95 3c 57 7a 04 3e 93 c6 24 be
       -0.107846335 0.018268509 0.12937294 -0.16091375
0000d0 d4 88 86 be 8b 02 ca 3d c4 99 0f be f4 90 fe bd
       -0.26276267 0.09863766 -0.140235 -0.12429991
0000e0 e5 d9 0f 3e 0f 49 55 bd 8c 0d 81 be b5 ac 58 bd
       0.14047964 -0.052071627 -0.25205648 -0.05289908
0000f0 0e dd 0b be 70 91 d1 be 19 42 94 bc 15 b0 70 be
       -0.13658544 -0.40931273 -0.018097924 -0.2350467
000100 cc 7f 8a 3d da a2 39 bd 58 fc 42 3e a3 b0 96 be
       0.067626566 -0.045321323 0.19041574 -0.29431638
000110 d6 20 2e be ba 30 28 be 47 26 5c 3e 32 e3 38 3c
       -0.17004713 -0.16424838 0.21498977 0.011284636
000120 ec 75 0f be 62 a0 17 3e 5d 0a ed 3d 6d ca 9c be
       -0.14009827 0.14807275 0.11574242 -0.3062319
000130 21 eb 7f be a3 98 73 be eb d1 e5 bd a9 a9 9d be
       -0.24992038 -0.23788695 -0.11221679 -0.30793503
000140 b0 df 47 bd ac 11 6a 3e 4b e4 56 be b5 af 63 3d
       -0.04879731 0.22858304 -0.20985524 0.05558749
000150 c5 62 2c be 91 63 ad 3d 7c e5 9f 3d 29 29 2c be
       -0.16834553 0.084662564 0.078074425 -0.16812576
000160 15 10 cd 3b 10 a0 5c 3d 69 fb 46 bd 2b 65 b3 bc
       0.0062580206 0.053863585 -0.048579607 -0.021898827
000170 2c 26 2e be 95 cc 06 be 5d 05 1b bc fa af 89 bb
       -0.17006749 -0.1316398 -0.009461728 -0.0042018862
000180 16 f5 bd 3d 50 90 bc 3d 98 d2 fb bd b5 93 07 bf
       0.09275262 0.09207213 -0.12296027 -0.5295976
000190 f3 ed 2a 3d 3f 36 4c be 88 3a b3 bd ea 4c 50 be
       0.041730832 -0.19942568 -0.08751398 -0.2034184
0001a0 8e f3 89 bc d6 f8 fc bd 77 89 bb bd c9 ed 8e bd
       -0.016839769 -0.12352149 -0.09157079 -0.06978948
0001b0 cd cf 77 3d 0f ac 47 3e 3d 36 1b be 74 79 f9 bd
       0.06050091 0.19499229 -0.15157409 -0.121813685
0001c0 78 d0 4a be 15 8e 1f 3e af e7 ba 3d 06 94 28 bd
       -0.19806087 0.15581544 0.091262214 -0.04115679
0001d0 8d e4 ae bd 23 0e 21 3d 97 47 b9 3d 58 4f 4f be
       -0.08539686 0.039320122 0.09046858 -0.20245111
0001e0 ce 0b 8c be 43 49 97 3d d2 85 79 3d 22 d6 c8 bd
       -0.27352756 0.073870204 0.060918637 -0.098064676
0001f0 36 c1 8b 3c 18 a8 2d bb 4d 81 2a be a1 26 9d bd
       0.017059904 -0.0026497897 -0.16650887 -0.076733835
000200 f2 75 1f bd c1 3a 4e 3c 13 fd 6c be 06 f2 d6 bc
       -0.03893084 0.01258725 -0.23143415 -0.026238453
000210 b7 fe 59 3e b7 78 f4 3c 78 61 37 bc dd 93 28 be
       0.21288572 0.029842718 -0.011192672 -0.16462655
000220 c8 0d a0 be 1f 1e 23 bd 61 f4 c2 bd b7 c9 4c be
       -0.31260514 -0.039823648 -0.09519268 -0.19998823
000230 55 f3 4c bd 42 ee 14 be a4 6f 29 3c 2d e6 df bc
       -0.050036747 -0.14544013 0.010341559 -0.027331436
000240 6f 37 be bd 01 72 e0 bd 9b c4 3f 3e 83 a6 23 3e
       -0.09287917 -0.109592445 0.18727343 0.15981488
000250 37 b7 32 be f9 12 d1 3d fd e1 0b be c3 b7 73 be
       -0.17452703 0.10208697 -0.13660426 -0.23800568
000260 b9 96 b3 3d f7 f5 43 be 3e 4e a3 bd f7 e9 45 be
       0.087689824 -0.19136797 -0.07973908 -0.19327532
000270 03 38 bc bc 63 61 3a be 6d a5 f6 bd 8d d4 36 be
       -0.022975927 -0.18201213 -0.12043271 -0.17854519
000280 c8 6b ef bd 3b a6 dd bc 88 70 e0 bd e2 94 a1 3d
       -0.116904795 -0.027056804 -0.10958964 0.07889725
000290 8d f0 13 3d 2d 04 95 be 95 3f d6 bd 0d db 0c be
       0.03611808 -0.29104748 -0.10461346 -0.13755436
0002a0 8f f3 fa bd b2 d9 fb 3b 34 ac 0b be 53 98 02 3d
       -0.12253486 0.0076858634 -0.13639909 0.03188355
0002b0 1f d8 c6 bc 3c e7 a8 3d 44 be 19 3e 8b 1f ae bd
       -0.024272976 0.082472295 0.15013987 -0.0850211
0002c0 f9 51 00 be ae 44 5d be 78 7d f6 bd 06 96 5d be
       -0.1253127 -0.2160823 -0.1203565 -0.2163926
0002d0 2c a3 c5 3c 8e 5b f5 3d 57 24 d1 bd 68 ad 17 3e
       0.024125658 0.11980353 -0.102120094 0.14812243
0002e0 4a b6 fc 3d 99 a3 32 3e 84 62 f9 bd dd de 00 be
       0.123394564 0.1744522 -0.121769935 -0.12585016
0002f0 08 dc 4f bc 3c 82 4c 3e 7e 08 de 3c d6 44 91 3d
       -0.012686737 0.19971555 0.027103659 0.070932075
000300 db a5 21 3e 7a 9d 88 be b6 2d 4b 3d 1c 00 95 3c
       0.15785925 -0.26682645 0.04960414 0.018188529
000310 9d 5f d2 3c 1d f8 31 be c0 78 d8 be 8f 38 9e 3d
       0.025680358 -0.17379804 -0.42279625 0.077256314
000320 e2 bf d9 bd 57 72 ab bd 4c 14 9d be e2 e9 15 3d
       -0.10632302 -0.08371418 -0.30679548 0.0366
000330 2a 75 5b be 06 0f fb 3d e0 15 18 be 28 74 70 3d
       -0.21431413 0.12258725 -0.14852095 0.058704525
000340 27 e9 35 be e3 28 10 bd 4f 11 1b be ad 43 c5 bd
       -0.17764722 -0.035195243 -0.15143321 -0.09632049
000350 ad 89 4e 3d 3b 35 1d 3d 02 1e 63 be 9a cc c3 3d
       0.050424267 0.038380843 -0.22179416 0.09560509
000360 51 51 87 3d ba 89 bc bd a9 ec 49 be ed 86 6a 3d
       0.06607307 -0.09205957 -0.19719185 0.05725758
000370 59 b4 6a 3d ed 41 d4 bd 9b a7 0b 3e 63 33 e9 bd
       0.0573009 -0.10364137 0.13638155 -0.11386754
000380 6d e8 a0 3c c5 3b 26 3d 5a 81 1b be e1 65 70 3e
       0.01964208 0.040584344 -0.15186062 0.23476364
000390 08 be e3 bd a0 7e 3b be f2 e2 5d be 2f f7 90 be
       -0.1112023 -0.18310022 -0.21668604 -0.28313586
0003a0 d1 e4 8f bd 27 b8 9b 3d 80 b2 39 bc 75 68 46 bd
       -0.07026065 0.07603484 -0.011334062 -0.04843946
0003b0 09 19 67 be ec 7e 3f be b3 65 96 3b 34 8e f3 3d
       -0.22568144 -0.1870076 0.00458976 0.118923575
0003c0 77 6d 5f 3d 47 72 8d bc 47 4c 85 bd 77 b8 93 bd
       0.054547753 -0.017266406 -0.065086894 -0.07212918
0003d0 5e 8a 3d be 91 98 79 bd 9a a0 c7 be 3c 87 6d bd
       -0.18509814 -0.060936514 -0.38989717 -0.057990298
0003e0 4d b1 7b 3d f4 50 35 3d d4 88 18 be 98 85 52 be
       0.061448384 0.044266656 -0.14895946 -0.20558774
0003f0 90 32 3e 3e 87 26 7c be a0 11 d2 bd 50 4e 1e be
       0.18573976 -0.24624072 -0.10257268 -0.15459561

fc2.weight f4 [256, 512]
000000 eb 22 98 bc 01 0c 77 bd ff 2d bb bd 44 5f 8d bd
       -0.018571338 -0.060314182 -0.091396324 -0.06902936
000010 5e ec 4d be 24 bf 56 3d e8 77 03 3e d9 73 04 be
       -0.20109698 0.05242838 0.1283871 -0.12934817
000020 f3 7f f7 bc 8c 1b 8b ba 2e 68 28 3c 64 e6 5f bc
       -0.030212378 -0.0010613068 0.010278745 -0.013665769
000030 fd 58 c0 3d 51 3a 80 3c 58 dc aa 3c e8 6e 12 3d
       0.09391973 0.015652807 0.020857021 0.0357503
000040 c9 ea 18 3d d4 3b e6 3d dc d0 09 be a3 ab bc 3d
       0.037333284 0.1124188 -0.1345858 0.092124246
000050 55 ff 8f 3b 75 7a 10 bd 63 23 7a 3b be 50 54 bc
       0.0043944516 -0.035273034 0.0038168065 -0.012958704
000060 24 43 e8 bc c0 86 50 3c ef c6 ed bb 2d b9 c4 bd
       -0.028352328 0.012727439 -0.0072563807 -0.09605632
000070 a7 88 a6 3d d1 20 63 bd 38 55 17 3c 77 12 43 be
       0.08131533 -0.055451218 0.009236626 -0.19050013
000080 0a cb 40 be 0a cd 29 3e 24 91 37 bd fa 9d e2 3d
       -0.18827453 0.16582122 -0.04481615 0.11065288
000090 29 39 96 bd 1d 54 3d be 7a 43 18 3d 1a 6f 39 3d
       -0.07335121 -0.18489118 0.037173726 0.04527197
0000a0 49 3f b9 bb dd 86 5b 3d a7 fe 89 bc d0 9a 72 3c
       -0.005653296 0.053595413 -0.01684506 0.014807418
0000b0 08 ba 7e 3d d8 25 ea bd ac 0c 2b 3e 0a 62 c3 3d
       0.062189132 -0.11432999 0.16704053 0.09540184
0000c0 60 84 aa 3d e6 7f bb bb 6e 5d 70 bd 19 5d 65 3d
       0.0832603 -0.005722034 -0.05868285 0.055996988
0000d0 cf f8 0e be 69 fb fb bc 91 d4 e7 3d fe 3c ef 3d
       -0.139621 -0.03075953 0.11319841 0.11681555
0000e0 f8 a1 60 3d fc ea 09 3e 5b 16 0f 3e e1 2b 6a bd
       0.054841965 0.13468546 0.13973372 -0.057170752
0000f0 96 54 d8 bd 58 99 3f 3e 0d e3 db bd 93 f8 24 bd
       -0.105630085 0.1871084 -0.10736666 -0.04027612
000100 d8 44 d0 3d 77 54 b9 3d 5a ca aa bd ac b3 90 3c
       0.10169381 0.090493135 -0.08339377 0.0176638
000110 2a a8 09 bd 78 f6 42 3d fa 8d bf 3d 3e 64 c5 bc
       -0.03360764 0.047598332 0.09353252 -0.02409565
000120 77 da 40 bc af fa e5 bb 86 c9 c6 bc dc fb c4 3c
       -0.011770836 -0.007018409 -0.024266016 0.024045877
000130 1a 15 34 bb 23 4a 9b 3d 3a c9 6b bd 71 5e 0f 3e
       -0.0027478398 0.075825 -0.05756495 0.1400087
000140 11 99 13 bd 42 61 fa bc 9d 20 a9 3d 0b ff 9b bd
       -0.036034647 -0.030563954 0.082581736 -0.07617005
000150 22 dd a5 bb 59 0f b1 38 83 04 30 3c 89 00 e3 bc
       -0.0050617615 8.4428764e-05 0.010743263 -0.027710216
000160 26 3d a3 3c 92 10 43 bc 5e 0c 38 3d 03 bb b3 3d
       0.019926619 -0.011905806 0.04493367 0.08775904
000170 98 7c c5 bd 6c d2 a0 3d 36 36 2a bd e8 54 ae 3d
       -0.09642905 0.07852635 -0.041555606 0.08512288
000180 90 fc bb 3c 0c cd 50 bd f0 89 bf bd 5a b7 2e 3e
       0.02294758 -0.050976798 -0.09352481 0.1706213
000190 fb 47 95 bd b0 3b bc 3c 9c c2 93 3d c8 3e b7 3d
       -0.0728912 0.02297768 0.07214853 0.089475214
0001a0 49 f1 e2 bd 76 b5 6d 3d 7e 51 ac 3d 82 9d 1d bd
       -0.11081178 0.058034383 0.08413981 -0.03848029
0001b0 b5 6d 97 bc 7b a9 55 bc 0e c4 df bd 90 3f 9b 3d
       -0.01848493 -0.013040896 -0.10926066 0.07580483
0001c0 28 a5 e8 bd 2a 63 7b 3c 18 6d aa 3d 39 3f 44 be
       -0.11359626 0.015343467 0.08321589 -0.19164743
0001d0 ce 90 ab bc 73 3d 5a 3e 2f 17 6a 3d dc 15 e3 3c
       -0.020943072 0.21312504 0.057151016 0.027720384
0001e0 e9 30 3c bd a8 4f 08 3d cf b2 6a 3d c7 22 ca 3d
       -0.04594508 0.03327909 0.05729943 0.098699145
0001f0 c0 99 66 3c 9d f2 d2 bc 65 02 74 3b a6 3d 55 3d
       0.014074743 -0.025750453 0.0037232873 0.052060746
000200 96 2a f6 3d 3f c0 53 bc c1 ca 0d 3d 65 d9 92 bc
       0.120198414 -0.012924253 0.03461719 -0.017925927
000210 93 77 0d 3e 29 bd 41 be 7d 28 2a 3d 83 81 63 bd
       0.13815145 -0.18919815 0.04154252 -0.055543434
000220 8a 44 0a 3e ce 75 1b bb 43 44 e0 3d 2e 55 d1 bc
       0.13502708 -0.002372134 0.1095052 -0.025553312
000230 f6 ce 5f bd f6 a1 cb bd 62 30 2a 3d 2d be 22 bd
       -0.054640733 -0.09943001 0.041550048 -0.039732147
000240 de 33 ee 3c 3b 2b 75 3c f5 fb cc bc 84 fd 0c be
       0.029077467 0.01496392 -0.025022486 -0.13768584
000250 72 b0 61 bc 8d b5 5a 3d e7 7b 2c be 87 ac 68 bc
       -0.013774978 0.053395797 -0.1684414 -0.01420129
000260 53 a6 27 be 24 15 5c 3d 5e 80 7b bb 01 e8 bd 3d
       -0.16372041 0.0537311 -0.0038376073 0.09272767
000270 85 01 65 3d a9 25 a0 bd b9 cc f2 3c 09 77 db bd
       0.055909652 -0.07819683 0.029638635 -0.107160635
000280 d0 23 ef 3c dc d3 77 bc 3f 11 aa bc 0d 6c 27 3d
       0.029191881 -0.015126195 -0.020760177 0.04087453
000290 dd 04 28 3c 53 d1 9e 3c 89 f4 5e b8 c1 83 57 bd
       0.010255066 0.019386923 -5.3156666e-05 -0.052615885
0002a0 cc 3f d2 bc c7 96 08 3d b8 f1 5d bd 8e 9a 2e 3d
       -0.025665186 0.033346917 -0.0541856 0.042627864
0002b0 a6 fa a0 bc e6 9d ce 3c 38 3d 45 3a d6 32 23 be
       -0.019650768 0.025221776 0.0007524076 -0.15937361
0002c0 4c 86 26 3d 05 79 4a bd 3b 80 cc 3d 7c de 4b be
       0.04065542 -0.04943182 0.099853955 -0.1990909
0002d0 6c 16 2d 3e 54 6f 9b bc 03 1e 96 bd 09 61 f1 bc
       0.16903085 -0.018973984 -0.07329943 -0.029465215
0002e0 4e 15 3c 3e 3b 53 c6 3b b3 8e 55 bd fe 95 10 bd
       0.18367502 0.0060524023 -0.05213804 -0.035299294
0002f0 7e 97 95 3c b8 61 09 3e 7a c2 48 3d 4f 97 d7 3c
       0.018260714 0.13416183 0.049013592 0.026317267
000300 2e db 4e bd a5 82 b1 3d d9 c2 3e bd 64 68 37 3c
       -0.050501995 0.086674966 -0.04657254 0.011194322
000310 c3 19 ae bc d3 32 66 3c 5e 33 92 3e 0a 70 73 3d
       -0.021252519 0.014050203 0.28554815 0.05943302
000320 4f 56 f1 3b 2f 59 a6 3d 15 e3 b0 bd b9 44 c4 3d
       0.007365025 0.08122479 -0.086370625 0.0958342
000330 aa 6f 25 3e 9e 0c 95 bd 62 08 da bd 76 82 95 3c
       0.16155878 -0.07277797 -0.1064613 0.018250685
000340 7f f5 1d bc 1f bb 05 bd 77 17 75 bd 07 48 32 bd
       -0.00964105 -0.032649156 -0.05983683 -0.043525722
000350 20 ac ad bd 6a 88 de bd be ff 08 3d 60 6d 91 bd
       -0.08480096 -0.10865863 0.03344702 -0.0710094
000360 62 8f e1 bd 41 8e 97 bc 5b f6 84 bd d6 b9 79 3d
       -0.11013676 -0.01850045 -0.06492301 0.060968243
000370 21 97 12 3e f9 59 e0 3d 92 9a 95 3d 61 0d c8 bc
       0.14315464 0.10954661 0.073048726 -0.024420442
000380 13 db 0b be ae 8a f6 bd df d2 57 3c 1b ef 9d 3c
       -0.13657789 -0.1203817 0.013172834 0.019279053
000390 d7 68 ea 3d 16 a2 16 bd 45 e0 9a 3b bf 1a 01 be
       0.11445778 -0.03677567 0.004726442 -0.12607859
0003a0 5c 25 1f 3c 26 07 b2 3b ac c7 12 be ef bd 7e bd
       0.009713497 0.005432981 -0.14333981 -0.062192854
0003b0 9c e6 0f 3d 2f 55 5a be 81 3e a4 3d 95 c6 81 3d
       0.035132036 -0.21321557 0.08019734 0.06336705
0003c0 ed 89 06 3e c3 a0 74 bb 17 19 60 bd 82 44 56 bd
       0.13138552 -0.0037327267 -0.054711428 -0.052311428
0003d0 d0 85 ad bd 7a 18 79 bd 22 5f f8 3d 98 8d f8 3d
       -0.08472788 -0.06081436 0.1212752 0.12136382
0003e0 50 13 7c 3d d8 e4 9d 3d 57 56 4e 3d 43 54 83 3d
       0.061541855 0.07709664 0.05037531 0.06412556
0003f0 ce 0c 07 bd 13 85 e5 bc ab a4 90 bd 26 79 12 bc
       -0.032971196 -0.028017556 -0.07062658 -0.008940017

fc2.bias f4 [256]
000000 14 9a 6f bd cf be 0e bc a2 71 90 3d dc 85 db 3c
       -0.05849655 -0.0087124845 0.07052924 0.026797228
000010 19 31 41 3d d3 85 db bc 5c 21 7c bd 3f 81 25 bd
       0.047165964 -0.02679721 -0.06155525 -0.04040646
000020 e7 28 90 bc 4e 02 64 bd ad 7c 4b 3d 91 f2 93 3d
       -0.017597629 -0.05566626 0.049679447 0.07224
000030 82 dc b2 3d 1c 45 a5 3c 13 8e fe 3d b2 01 d1 bd
       0.08733465 0.020174555 0.12429442 -0.102054015
000040 9c e0 bf bb 8f 53 2e bd c7 42 eb 3c 2f 1d ad 3d
       -0.005855633 -0.042560156 0.028718365 0.08452832
000050 d8 bc 51 bc 30 f7 db 3c da 6e 46 3c a9 8d 96 3d
       -0.0128013715 0.026851267 0.01211139 0.07351238
000060 91 fb ce 3d 1b 74 5a bd 1a b6 02 3d 8a 39 70 3d
       0.10106576 -0.053333383 0.031911947 0.058648624
000070 79 7e 8e 3d e0 2b 93 3c 09 83 6a 3b 43 3f a5 3d
       0.069577165 0.017965257 0.003578367 0.08068707
000080 a0 7a f5 3d 7a 78 48 3d dc 62 9a 3d 02 92 c3 3b
       0.119862795 0.04894302 0.07538387 0.005968333
000090 af 79 01 3d c6 78 81 3c ba 6e dd 39 23 c4 a0 3b
       0.031610187 0.01580466 0.00042234903 0.004906194
0000a0 a3 e9 13 bc 5c e2 04 bd 94 cd 49 3d 26 1e f5 3c
       -0.009027871 -0.032442436 0.04926832 0.029921602
0000b0 ca f3 db 3c e3 a2 3a 3c 48 d6 d8 3d 16 04 4f 3d
       0.026849646 0.011391374 0.10587746 0.050541006
0000c0 58 7f 0d 3d 54 50 24 bc 07 57 e5 3b 43 1c 77 3d
       0.034545273 -0.010028917 0.0069989 0.060329687
0000d0 6b 64 7e 3b c2 f4 06 bb bc 66 6e 3d 75 61 c4 3d
       0.0038817178 -0.0020592664 0.058203444 0.09588901
0000e0 d9 7f 9c 3b ae cf 0c bd e2 ef 96 bc ee 44 90 bb
       0.004775983 -0.034377746 -0.018424932 -0.0044027483
0000f0 b4 aa 45 3d e2 43 7d bd 2d ce 1b 3d f3 6a ae bc
       0.0482585 -0.061832316 0.03803842 -0.021291232
000100 1f 5d 13 bd 6f c7 82 3d 4c 36 0f 3d 77 f1 ce bb
       -0.03597748 0.06385695 0.03496389 -0.006315406
000110 ed 61 6a bc 10 91 bf 3b e8 71 a6 3d 53 3b 1c 3c
       -0.014305574 0.00584615 0.08127195 0.009535628
000120 f5 df 07 bd e2 60 c4 3c 62 ff 58 bd a9 96 bd 3d
       -0.033172566 0.023971979 -0.052977927 0.09257252
000130 f1 35 4e bc 26 cc 01 3a 9c 45 98 bc 4b 7c 9d bd
       -0.012586103 0.000495138 -0.01858788 -0.076897226
000140 4a fd b4 bd f3 38 9e 3d 9a 9f 96 3c 4e 54 95 bc
       -0.088373736 0.07725706 0.01838665 -0.018228676
000150 69 69 b8 bc 2c a5 81 3d 27 28 00 bd 35 45 22 3b
       -0.022511201 0.06330332 -0.031288292 0.002476049
000160 3a c4 8c 3d 4e f0 9c 3d 13 68 07 bd b0 c1 2b 3d
       0.06873365 0.07663022 -0.033058237 0.04193276
000170 31 e6 bc bd c7 0c 5b 3d 40 e5 82 bd 98 b4 36 3d
       -0.09223593 0.053478982 -0.06391382 0.04460582
000180 a8 0c b5 bc d8 93 58 3d 16 2a 9d 3c 26 23 05 3d
       -0.022100762 0.05287537 0.019185107 0.032504223
000190 fd 58 8a bc 43 f9 db 3c 26 27 10 3d ac f8 81 bc
       -0.016888136 0.026852256 0.035193585 -0.015865646
0001a0 29 a0 c2 bc 2d 18 10 3d 3a f5 a1 3d 7a 51 46 3c
       -0.023758011 0.035179306 0.079081014 0.012104386
0001b0 10 a2 33 bd 44 a7 2f bd 99 d4 ba 3d b3 ee 35 3d
       -0.043855727 -0.042884126 0.09122581 0.044417094
0001c0 1b b5 dc bc 48 97 da bd 40 6d 05 bd 3f 23 36 3d
       -0.026941827 -0.10673386 -0.032574892 0.044467207
0001d0 0b 2c 9a 3d c6 0b 91 3c 0c e4 1b bd 83 62 b5 bc
       0.07527932 0.01770581 -0.03805928 -0.0221417
0001e0 84 4b 2e bc a4 44 8b 3d 1b 8d 42 bd 0a 61 b6 3d
       -0.0106381215 0.068002015 -0.04749785 0.089052275
0001f0 e6 a5 c8 bc 8f af 3d bc c7 f1 b2 bb 62 8f 68 3d
       -0.024493169 -0.011577501 -0.005460951 0.056777366
000200 dc 7c eb 3c 78 77 79 bd 13 a7 cb bc 5a cb 9e 3c
       0.028746061 -0.06090495 -0.02485994 0.019384075
000210 fd 54 03 be 42 cd fa 3c ca e0 c2 3d 8a a0 58 3c
       -0.12825389 0.030615453 0.09515531 0.013221869
000220 51 ad 3e 3d 16 94 03 3d 57 21 d6 bb 55 54 00 3d
       0.046552006 0.032123648 -0.006534736 0.031330425
000230 99 6f a2 3d 40 dd 5d bb 51 02 eb 3c 02 b2 f5 bc
       0.07931442 -0.00338538 0.028687628 -0.029992107
000240 80 fe 7b bc 0b 86 03 3d 1d cd bb 3d 4b ae 63 bd
       -0.015380502 0.032110255 0.09169982 -0.05558614
000250 55 4b 29 bd 02 8d ae 3c f1 12 03 bd ea 65 83 3d
       -0.041331608 0.021307472 -0.032000486 0.06415923
000260 42 c9 5e 3d f0 45 72 3c c9 7f fc 3c 7b 50 90 bd
       0.054391153 0.014787182 0.030822651 -0.070466004
000270 a9 e8 aa bb fd 4c 3b 3d 80 48 14 bd be a5 ec bc
       -0.0052157235 0.04572772 -0.036201954 -0.028887626
000280 ec 26 c8 bc 07 18 5d bd b6 3c a3 3b 04 75 17 bd
       -0.024432622 -0.053977992 0.0049816025 -0.03697683
000290 53 09 0d 3d ce d7 cc 3c 00 53 40 3d 44 60 1c 3d
       0.03443272 0.025005247 0.046954155 0.038177744
0002a0 a5 c1 c4 bc 38 29 8e bd a0 b6 ee 3d b3 24 80 3c
       -0.024018118 -0.069414556 0.11655927 0.0156425
0002b0 e2 96 9f 3d 2e 34 03 bd fd 2b 0d bd 42 f5 81 bd
       0.077924505 -0.032032184 -0.03446578 -0.06345607
0002c0 26 da 8e 3d 44 ea 8d 3d a9 4a 68 3d 84 6a 1b 3d
       0.06975202 0.06929448 0.056711826 0.037943378
0002d0 52 7f 84 3d 76 4b 07 bc 92 91 79 3d d3 bd 1b bd
       0.06469597 -0.008257737 0.060929842 -0.038022827
0002e0 70 db c4 bb 75 b2 fe 3c 95 86 d4 bb a8 e6 79 3c
       -0.0060076043 0.031090954 -0.00648577 0.015252747
0002f0 05 2a 56 3c 28 bb cb 3d e2 dc 88 3c 90 d1 23 3d
       0.013071542 0.099478066 0.016706888 0.039994776
000300 0a a5 d9 bb 75 e8 af bb 5c 7b 40 3d 59 5e 72 3c
       -0.0066419886 -0.005368287 0.046992645 0.014793002
000310 fa ac 2d bd 82 39 67 3b 0d cb 7a 3d b8 2c 56 3d
       -0.04240129 0.003528208 0.0612288 0.05228874
000320 55 d8 8b bc 99 71 91 3d b1 a8 8d bd 56 0f 7c bc
       -0.017070929 0.07101745 -0.06916941 -0.015384516
000330 92 db 93 bd 16 46 05 3e cf 21 da 3d a3 5c e0 3c
       -0.07219614 0.13015017 0.1065098 0.027387923
000340 37 99 5c 3c 86 52 08 3d da 6d 87 ba 65 b4 85 3a
       0.013464264 0.033281825 -0.0010332421 0.0010200856
000350 39 2a 2c 3d c1 ed 71 3d a1 7b 12 bd 17 59 b6 3c
       0.042032454 0.05906463 -0.035762433 0.022259278
000360 25 ac f7 3c 57 4c c7 3d 8b 39 14 3d ea 8a 00 3d
       0.030233452 0.097313575 0.03618769 0.03138248
000370 2a db 12 3d b7 ae c7 bb 8b 55 5e bd da b1 8f 3d
       0.035853542 -0.0060938257 -0.0542808 0.07016344
000380 48 b6 3f bc bc b0 e0 bc 2c 32 3d 3d 30 db 4c 3d
       -0.011701174 -0.027428024 0.046190426 0.05001372
000390 a0 9e 02 3d f6 d8 7c bc 7b 35 29 3d bc a4 2a bd
       0.031889558 -0.015432587 0.04131077 -0.04166101
0003a0 3b 69 c9 bb fd be 9a 3d b8 7f 8f bc 48 15 96 3d
       -0.0061465777 0.075559594 -0.017516956 0.07328278
0003b0 79 bf 39 bc fd 20 89 bd 15 02 e3 3c bd ed 28 bd
       -0.011337155 -0.06695745 0.027710954 -0.04124235
0003c0 5c a1 26 bd 90 a3 82 3d d8 bb 37 3e a9 79 dd 3b
       -0.040681228 0.06378853 0.1794275 0.006758888
0003d0 db b3 68 3d 35 13 c0 bc fd 65 2c 3d e4 92 00 3e
       0.05681215 -0.023446659 0.04208945 0.12556034
0003e0 6d 79 03 3d 07 97 a8 ba a6 9b 88 3c 75 85 1d 3d
       0.032098223 -0.0012862392 0.016675781 0.038457353
0003f0 0d 2e 8b bd c2 f4 8c bd 31 df 77 3d bc 62 f5 3c
       -0.06795893 -0.06882621 0.060515586 0.029954307

fc3.weight f4 [2, 256]
000000 3d d1 e9 3e 82 12 82 3d 67 17 11 3e 8b b5 97 be
       0.4566745 0.06351186 0.14169084 -0.29630694
000010 2d 97 4d 3e c7 ba 64 3d b8 7e 2a 3e 77 20 9e 3e
       0.200772 0.055842187 0.16649902 0.30884144
000020 e3 ad 89 3e 7e 06 14 3c 5a e5 c6 be ac 92 41 3d
       0.26890478 0.009034751 -0.38846856 0.047259018
000030 a1 5a a9 3e f5 2f bb 3d 50 f7 b5 3e fa d8 ae 3e
       0.33076957 0.091400065 0.35540247 0.34149915
000040 ec 01 3f be 34 80 96 bd e4 e4 29 be ed a1 6a 3e
       -0.18653077 -0.073486716 -0.16591221 0.22913332
000050 53 fa 99 3e f2 01 cb bd 16 06 2e 3e 88 da 6e 3e
       0.30073795 -0.099124804 0.16994509 0.2332555
000060 5a 22 43 3d 12 d0 21 be c4 a4 76 bd f1 fc 53 ba
       0.047640182 -0.15802029 -0.060215726 -0.00080867024
000070 2e 42 2a 3e 76 7e a5 be d5 ad 9f bd 46 85 9a bd
       0.16626808 -0.32323045 -0.07796828 -0.07544951
000080 e3 9d 9c 3e b5 91 d5 be e2 9a 97 3e f4 45 cc 3e
       0.30589208 -0.41712728 0.29610354 0.3989712
000090 0c e8 18 3d 71 cf 7d bd 18 76 82 bc a2 6d ad 3e
       0.037330672 -0.06196541 -0.015925452 0.33872706
0000a0 9a 6d 44 3e 2b d3 4f bc 9b 3f 32 be 31 c4 11 bc
       0.19182435 -0.012684624 -0.17407076 -0.008896873
0000b0 b3 c7 bd 3d 62 46 5f be 32 38 03 3e 76 b6 26 be
       0.09266605 -0.21804193 0.12814406 -0.16280541
0000c0 08 60 50 be c9 d1 41 be b4 13 1f bd f9 db fc 3d
       -0.20349133 -0.18927683 -0.03883715 0.12346644
0000d0 b8 0a fd 3d 7a 73 37 be ee a7 8e be 61 ed ba 3d
       0.1235556 -0.17915145 -0.27862495 0.09127308
0000e0 c8 7b 71 3e 29 61 b6 3d ad 3a 5d 3c df b1 44 3e
       0.23582375 0.089052506 0.013502759 0.19208477
0000f0 e2 cc ff bc 3d 1d 97 3e fb ca cb 3c 22 89 22 3e
       -0.031225625 0.29514495 0.024877062 0.15872625
000100 e3 82 30 3d a0 a1 d7 3e 22 b1 34 be 95 2a 83 be
       0.043093573 0.42115498 -0.17645696 -0.25618425
000110 3f 04 29 3e 4e e7 cf 3e 1f f3 51 be d5 fb 6d be
       0.16505526 0.4060616 -0.205029 -0.23240598
000120 2b 8a 7f 3e 25 0c 2b be 4d c8 16 3e 9b cc 23 3e
       0.2495505 -0.16703852 0.14724846 0.1599602
000130 11 3d 75 3e 54 6b 8b be 90 9e 56 be 34 d3 a0 be
       0.23949076 -0.27230322 -0.20958924 -0.31411135
000140 7a 69 60 3e 36 2d 58 be 8f 13 8e be a9 8a 13 3e
       0.21915236 -0.21110997 -0.27749297 0.14408363
000150 f5 48 1f 3e c9 b5 0b be e3 1f 24 3d 7c 5b 0e 3e
       0.15555175 -0.13643564 0.040069472 0.13902086
000160 1a 2b d2 3d cb 94 97 3e 4a f1 0f bd 8e 6b 5a 3e
       0.10262127 0.29605708 -0.03514222 0.21330091
000170 2b c3 8e 3d 8d bb 2e 3e b9 f0 66 3e 82 e2 c3 3d
       0.06970819 0.17063732 0.22552766 0.09564687
000180 7a ba 35 be 88 0d 96 be de df 2f be fd 61 7f 3e
       -0.17746916 -0.293072 -0.17175242 0.24939723
000190 52 15 a1 3d ff 16 19 be 1d 4d d6 be ce 19 5f 3d
       0.07865395 -0.14950179 -0.41855708 0.05446797
0001a0 86 15 8d 3e 68 37 90 3e 2e 7e 0b 3e 55 c2 5c 3e
       0.27555484 0.28167272 0.13622352 0.21558507
0001b0 12 21 e7 3c 59 0d 01 be be 6c 34 3e 45 f6 33 be
       0.028214011 -0.12602748 0.17619607 -0.17574413
0001c0 e7 7e b5 bd f6 ea 34 3d 8b 81 74 3e fe ac 89 bd
       -0.08862095 0.04416939 0.23877542 -0.06722449
0001d0 3d 4f 0e be 2f 5c 22 3e dc 11 d8 bd d0 23 23 be
       -0.13897415 0.15855478 -0.105502814 -0.1593163
0001e0 70 40 0b 3e e6 61 a4 3e 9b c4 1f 3e b1 20 59 bd
       0.135988 0.3210594 0.15602343 -0.053009693
0001f0 06 39 ed 3c bf cc ce 3d 50 44 d9 bd 4d 52 80 3e
       0.028957855 0.10097646 -0.10608733 0.2506279
000200 f6 a9 d8 be fd 98 87 3d 86 7b 55 3d 3c 97 ce 3c
       -0.4231717 0.06620977 0.052119754 0.025218599
000210 21 e8 9e 3e 2e 5f 02 3e 23 35 7d 3e 8f 58 ad bd
       0.31036475 0.1273162 0.24727301 -0.08464157
000220 1b 8c 9b 3e d4 64 bd 3d 4c b9 8f 3e 8c a0 ae bd
       0.3038033 0.09247747 0.28071058 -0.08526716
000230 ec 41 49 3e 38 81 55 bd 11 c6 28 be 69 c9 c8 bd
       0.19654053 -0.052125186 -0.16481806 -0.09804041
000240 39 d1 2c be 9d 63 d1 3d 7a 33 fa bc a9 3c 5f 3d
       -0.16876687 0.10224078 -0.030542124 0.05450121
000250 74 5a 60 3e 2c 63 b1 bd 46 b3 79 bd 3d 8d c3 3d
       0.21909505 -0.08661494 -0.060961984 0.095484234
000260 e1 9e 28 3e c9 e9 9e bd 2a de 2f bc 10 51 2a be
       0.16466857 -0.07759435 -0.01073412 -0.16632485
000270 95 a6 79 3d ba 59 47 3e 0d 7c 42 bd 6e ca fb 3d
       0.06094988 0.19467822 -0.047481585 0.1229447
000280 14 41 b3 3d 88 e5 0f 3d ef a2 58 3d 12 da f5 bd
       0.08752647 0.035131007 0.05288976 -0.12004484
000290 96 68 81 3e 43 0d 5b 3e 60 9a 9e 3c e2 b9 ae bd
       0.25275105 0.21391778 0.019360721 -0.08531548
0002a0 16 c7 41 be e3 2b 17 be 62 91 50 3e 8a 44 f8 3c
       -0.18923602 -0.14762835 0.20367959 0.03030612
0002b0 00 f3 8d 3c 18 e0 61 be bb d6 56 be 59 51 78 be
       0.017327785 -0.22058141 -0.2098035 -0.24249782
0002c0 98 e4 0f 3f 1d 36 16 3e 38 9f 9b be 7d 3a 7d be
       0.5620818 0.1466908 -0.30394912 -0.24729343
0002d0 7a 9f 05 3e b9 14 54 3e e9 4b 58 be 8c ff a4 3e
       0.13049117 0.2071103 -0.21122707 0.32226217
0002e0 cd ce 0e bd 8b 2e d6 be aa df 25 3e 68 a9 08 3e
       -0.03486519 -0.41832384 0.16198602 0.13345873
0002f0 00 28 a8 be b6 4f 75 be f9 f5 a0 be 45 de 84 be
       -0.32843018 -0.23956189 -0.31437662 -0.25950828
000300 0f f9 1f 3e 26 1d 45 be cc 77 9e be 78 17 1e be
       0.15622352 -0.192494 -0.30950773 -0.1543864
000310 bc 38 be be c7 1f 45 be 60 a9 cf 3d 7f 28 9b 3e
       -0.3715266 -0.19250403 0.101397276 0.30304334
000320 2f af 94 bd 7f c8 83 3e 83 31 93 3c e5 29 1a be
       -0.07259976 0.25738904 0.017967945 -0.15055044
000330 03 44 97 3d c7 5a ca bc 9b 29 8e bc 33 c7 a5 3d
       0.07386019 -0.02470149 -0.017353823 0.08094635
000340 12 17 94 be 36 9b ef 3c 57 04 99 be f7 87 19 3e
       -0.2892385 0.029248815 -0.29886124 0.14993273
000350 7f 89 e4 3e 39 18 7b bd 01 6c c0 bd a3 ef 15 be
       0.4463615 -0.061302397 -0.093956 -0.14642195
000360 a7 84 e5 bd c0 f1 b4 be 0e cf 3d bc 84 58 ee bd
       -0.11206942 -0.3534069 -0.01158501 -0.11637977
000370 9a 9b 73 be c6 29 4d be 42 1c 66 3d 5e 41 d7 bd
       -0.23789826 -0.20035467 0.056179293 -0.10510515
000380 c8 18 ef 3c 41 75 2e 3e 2e f5 1a bd 30 b7 99 bd
       0.029186621 0.17036916 -0.037831478 -0.07505643
000390 17 be a7 be a6 12 a5 be ef b1 5b 3d ab 12 cb 3d
       -0.32762215 -0.3224079 0.053636488 0.0991567
0003a0 b8 47 75 bc 7f a4 9f 3e 32 52 91 3d da 2c 9c be
       -0.014970712 0.31180188 0.07095756 -0.3050297
0003b0 8c 23 39 3e 76 83 c6 bc e4 44 ba be 85 c8 3b 3e
       0.18079966 -0.024232607 -0.36380684 0.18338211
0003c0 2c ef 23 be d4 63 65 bd 50 81 a7 3e 57 a0 0b bd
       -0.16009206 -0.056003407 0.32715845 -0.03408846
0003d0 65 98 bf be c1 50 b1 3c 58 e4 22 be c6 cd 33 be
       -0.37420955 0.021644952 -0.15907419 -0.17558965
0003e0 b6 94 6d bc b6 7a e1 be 8c 40 03 bd 36 e9 e2 bd
       -0.0145007875 -0.44038934 -0.03204398 -0.11079638
0003f0 33 af f6 bd 69 bd 62 be 56 d1 c8 3d b9 4d 02 3e
       -0.12045135 -0.22142567 0.09805553 0.12724961

fc3.bias f4 [2]
000000 bf 80 56 bd 97 7d a4 bd
       -0.052368876 -0.08031767

bn1.weight f4 [512]
000000 4b d3 29 3f 13 ae 4a 3f d9 15 63 3e 83 e7 bc 3e
       0.6633803 0.79171866 0.22176303 0.3689538
000010 c2 b1 33 3f f2 d1 40 3f c4 ff 0c 3f 32 3d 71 3e
       0.7019311 0.7532035 0.5507777 0.235585
000020 77 5a ca 3e 09 6f 6d 3f 74 a4 8f 3e 02 b7 36 3e
       0.39522144 0.9274755 0.28055155 0.1784325
000030 e9 ce f5 3e 68 18 e6 3e b7 de 8f 3f 9f c7 da 3e
       0.48009422 0.44940495 1.1239842 0.42730424
000040 84 82 99 3e 6a 25 de 3e e2 5a c0 3e 3e 2e 1a 3f
       0.29982388 0.4338792 0.37569338 0.6022681
000050 8e 37 5a 3e a4 a2 dd 3e 33 d6 35 3e 1a 02 66 3f
       0.21310255 0.43288147 0.17757492 0.89846957
000060 3b 7e 95 3e 78 d4 50 3f d7 66 70 3f 22 d6 00 3f
       0.2919787 0.815742 0.9390692 0.5032674
000070 48 d3 36 3f 67 d3 9c 3e 01 41 2e 3f 13 d6 c8 3e
       0.7141614 0.30630037 0.6806794 0.39225826
000080 43 da 08 3f b0 57 42 3f 75 ae 01 3f a7 ba 81 3f
       0.5345804 0.7591505 0.50656825 1.0135087
000090 1d b3 a0 3e eb 19 d5 3e 70 c9 60 3f 7c 8f 59 3f
       0.31386653 0.41621336 0.8780737 0.84984565
0000a0 64 2a 60 3f e6 82 19 3f a4 48 30 3f 90 39 4a 3f
       0.8756468 0.5996536 0.6886084 0.78994083
0000b0 92 2f 57 3f 62 85 85 3e 2a ee 2e 3f e0 da 83 3f
       0.8405696 0.26078326 0.6833216 1.030117
0000c0 c9 64 1d 3f bc bd 80 3f 08 75 23 3f 14 49 0e 3f
       0.6148191 1.0057902 0.6385045 0.5558026
0000d0 cb b2 2f 3f 25 e0 7f 3f c0 be 4d 3f 47 f8 b2 3e
       0.6863219 0.9995139 0.80369186 0.34955046
0000e0 64 83 6e 3f 46 27 bd 3e ff e9 f5 3e fb a5 6a 3e
       0.93169236 0.36944026 0.48030087 0.22914879
0000f0 ff 78 a3 3e dd 35 bf 3e c5 34 89 3e 5c 8a 3b 3f
       0.3192825 0.37345782 0.26798072 0.73257995
000100 28 78 14 3f 63 3a 4b 3e 85 7c 55 3f 0c 3a 34 3f
       0.57995844 0.19846492 0.83393127 0.7040107
000110 76 26 1b 3f c8 a4 73 3e d3 b1 95 3f 85 ae f9 3e
       0.6060556 0.23793328 1.1694893 0.4876596
000120 c5 58 35 3f c9 4b 66 3f 25 8e 8c 3e 46 83 32 3f
       0.70838577 0.8995939 0.27452198 0.6973156
000130 e4 da f5 3e 39 e6 7d 3f f2 c2 9d 3e 49 5b f0 3e
       0.48018563 0.99179417 0.30812794 0.46944645
000140 da e2 b2 3e 70 09 73 3f 5b b2 5d 3f 2f 11 3f 3f
       0.349387 0.94936275 0.86600274 0.74635595
000150 c1 8b 7c 3f cb 82 09 3f a2 a0 76 3f 6a 37 2a 3f
       0.9865075 0.537152 0.96338856 0.66490805
000160 44 3c d2 3e 00 8f 94 3e 1a 05 5d 3e 5b ee ac 3e
       0.41061604 0.2901535 0.21583977 0.337756
000170 93 4a 83 3f cb 05 21 3f 34 3a 53 3f 49 dc 66 3f
       1.0257133 0.62899464 0.82510686 0.9017988
000180 53 20 00 3f 87 59 59 3e 74 d1 0d 3f f4 dc 2a 3f
       0.5004932 0.21225558 0.55397725 0.667434
000190 1e da 58 3f c7 b0 03 3f 12 33 6f 3f eb 18 cd 3e
       0.8470782 0.51441616 0.934373 0.40058073
0001a0 8c 68 22 3f 0b 70 4e 3f 82 ff 1b 3f 13 f5 69 3f
       0.63440776 0.80639714 0.6093675 0.9138958
0001b0 e6 56 45 3e f0 f0 eb 3e 69 71 6b 3f 97 1a f3 3e
       0.1927143 0.46082258 0.91969925 0.47481224
0001c0 d0 db fc 3e 82 d1 0f 3f 6f 53 1b 3f 42 50 0e 3f
       0.49386454 0.5617906 0.60674185 0.55591214
0001d0 db ae 7b 3f bc 39 0c 3f 78 76 6c 3f 3d a7 8a 3e
       0.98313683 0.54775596 0.9236827 0.27080718
0001e0 d4 ad 8d 3e 6f fb 95 3e cd 65 fc 3e ad d9 e6 3e
       0.27671683 0.2929339 0.49296418 0.45087948
0001f0 a9 32 51 3f df 0d 62 3f d8 dd aa 3e cd d5 87 3f
       0.81717926 0.88302416 0.33372378 1.0612122
000200 9a 7b c7 3e 6b a7 f1 3e de d4 03 3f fa 1d 18 3f
       0.38961488 0.47198042 0.51496685 0.5942074
000210 32 23 8a 3f 3c 90 5d 3f 35 79 cb 3e 12 c0 a2 3f
       1.0791991 0.8654821 0.3974091 1.2714865
000220 32 41 69 3f e6 0c 43 3f 84 a8 81 3e 7a 56 84 3e
       0.91115105 0.76191556 0.2532388 0.25847226
000230 41 22 35 3f e1 76 b8 3e 52 1b f7 3e 78 3f 6c 3e
       0.7075539 0.36028197 0.4826303 0.23071086
000240 bd 73 3d 3f 90 60 f8 3e 90 a5 88 3f 41 41 94 3e
       0.7400473 0.4851117 1.0675526 0.28956035
000250 e2 fa fb 3e 4b 03 8a 3f 2d 39 ec 3e 83 fa 10 3f
       0.49214846 1.0782255 0.46137372 0.5663225
000260 21 c5 ae 3e 94 a7 bd 3e 7f 58 6d 3e f1 83 eb 3c
       0.34134772 0.37041914 0.2317829 0.028749438
000270 f0 34 a4 3e 58 a3 5b 3f 41 78 f2 3e 67 39 35 3f
       0.32071638 0.8579612 0.4735737 0.70790714
000280 29 5f 06 3f a1 ad 50 3f e2 28 67 3f c7 b1 02 3f
       0.5248895 0.81514937 0.9029676 0.51052517
000290 95 37 b8 3e a7 5f 86 3e c8 a3 f5 3e 91 50 f0 3d
       0.35979906 0.26244852 0.47976518 0.11734117
0002a0 e2 58 60 3f 9b 99 99 3e a8 6b 12 3f c8 be 01 3f
       0.87635624 0.30000004 0.5719552 0.50681734
0002b0 be 8e eb 3e 51 fa 0f 3f cd de 89 3e 9b 98 0d 3f
       0.4600734 0.5624133 0.26927796 0.5531098
0002c0 2a a0 74 3f 06 84 bf 3e 07 fa 54 3f 0a c2 d0 3e
       0.9555689 0.37405413 0.8319401 0.4077304
0002d0 64 ec 64 3e ec 9d 90 3e 0b 91 6b 3f ed 5d 21 3f
       0.22355801 0.28245485 0.92018193 0.63033944
0002e0 30 24 ea 3e 44 1a c8 3e d5 56 67 3f ba 18 41 3f
       0.45730734 0.3908254 0.9036687 0.75428355
0002f0 4f b7 79 3f 4a 17 69 3f 0e 94 75 3f 77 cc 13 3f
       0.9754533 0.9105116 0.9592904 0.57733864
000300 1a 0e 32 3f f2 b0 3e 3f 5a 98 6c 3f 3b 3d 3a 3f
       0.6955277 0.7448875 0.9241997 0.7274968
000310 29 6c 2f 3f f9 ed 21 3f d5 6f 5f 3f e3 7f 65 3f
       0.68524414 0.6325374 0.8728002 0.89648265
000320 72 0f 65 3f 78 42 1f 3f 0a 9f 22 3f ef 7f 5f 3f
       0.8947669 0.622108 0.63523924 0.87304586
000330 64 20 a5 3e 55 58 36 3e 91 66 c3 3e d6 2c 1c 3f
       0.32251275 0.17807133 0.3816419 0.61005914
000340 65 0a 84 3f 74 69 04 3f 4a cb ab 3e 65 a7 63 3f
       1.0315672 0.5172341 0.33553535 0.889273
000350 64 e7 48 3f 74 8c 81 3f 87 d4 01 3f a6 8a 69 3f
       0.78478074 1.0120988 0.50714916 0.91227186
000360 f2 6f 63 3f a5 59 38 3f 11 cc e7 3e 0f 25 f6 3e
       0.8884269 0.72011787 0.45272878 0.48075148
000370 a2 2f 0d 3f b4 ea 5f 3f cc 5d 81 3f 63 ef 03 3f
       0.55150807 0.87467504 1.010675 0.5153715
000380 df 36 42 3f ca fb 3a 3f d0 90 81 3f 01 6a 86 3e
       0.75864977 0.7304045 1.0122318 0.2625275
000390 00 24 ff 3e 6a 46 82 3f 35 a6 3b 3f 84 c4 16 3f
       0.49832153 1.0177739 0.73300487 0.5889361
0003a0 52 26 7d 3f 5b 4b 2b 3f 39 82 1b 3f 31 a3 49 3f
       0.988866 0.6691186 0.6074558 0.78764635
0003b0 74 74 78 3f 35 3e 13 3f 39 ce 5a 3f fb a8 59 3f
       0.97052693 0.57516795 0.8547092 0.8502347
0003c0 69 a4 e8 3e b4 4a 56 3f f8 af 1e 3f b3 e0 38 3f
       0.45437935 0.8370774 0.61987257 0.72217864
0003d0 3e 33 65 3f 95 40 cc 3e 07 9f 5f 3f 6a 75 8e 3f
       0.89531314 0.39893022 0.8735203 1.1129582
0003e0 7e 80 2e 3f 4b d8 11 3f 6c 19 6a 3f 34 0a 88 3f
       0.68164814 0.5697066 0.9144504 1.0628114
0003f0 0d 57 80 3f 13 15 7f 3f da f2 e0 3e 48 dc a2 3e
       1.0026566 0.9964153 0.4393528 0.31808686

bn1.bias f4 [512]
000000 7d a2 eb 3c 1d 54 af 3b 1b 9b ce 3d 10 00 1c 3d
       0.028764004 0.0053506033 0.10088178 0.038085997
000010 ad 14 54 3c 2f 14 a1 3d c9 30 d3 bc ea 57 ad 3c
       0.012944383 0.07865178 -0.025780099 0.021160085
000020 7a bf d3 3c 20 e1 3b bc 59 45 00 3d 2c 6f 17 3e
       0.02584814 -0.011467248 0.031316135 0.14788502
000030 04 a7 e7 3c 1e 46 db 3c 3e 64 9c 3d ac 99 f9 bb
       0.028277881 0.026766833 0.07636307 -0.007617196
000040 6a b1 89 bd eb b9 68 bd 4c 7d 42 3d 35 4f 4f 3c
       -0.06723292 -0.05681793 0.047482774 0.012653162
000050 2c 89 48 3d b0 e5 a3 3c ca 36 6d 3c a5 31 01 bc
       0.048958942 0.020006984 0.014478395 -0.007885371
000060 a6 4f 06 3d 13 e5 c8 bb a6 38 8a bc 4d 70 32 3d
       0.032790802 -0.0061308234 -0.016872715 0.04356413
000070 5d 9f 28 3d 53 ee 79 bd c9 25 a9 bd 8d 2e 3c 3d
       0.041167606 -0.0610183 -0.0825916 0.04594283
000080 d0 eb a5 3c f0 da 29 be 02 27 d8 3c 6b 32 2b 3b
       0.020254046 -0.16587424 0.026385788 0.002612258
000090 6c b8 04 bc a7 f0 88 3d a3 9d 4c 3d 86 d1 80 3d
       -0.00810061 0.06686526 0.04995502 0.062899634
0000a0 fd 55 a6 3c 41 10 97 3c 3a 6b bc 3c 3b fd 29 bc
       0.020304674 0.018440368 0.023000348 -0.010375316
0000b0 b3 4d 86 bb a5 6c af 3d 8d fd 4d be c0 b7 26 3d
       -0.004098618 0.08565644 -0.20116253 0.04070258
0000c0 5f 12 ef 3a 0b c3 bd 3d c6 1d 28 3d f6 8b 2a bd
       0.0018239728 0.09265717 0.04104402 -0.041637383
0000d0 ca 60 27 3c 9c 01 b8 3c 8e 8f 44 3d 54 db 76 3c
       0.010215947 0.022461705 0.047988467 0.01506694
0000e0 e1 b9 8a bb 47 34 52 bd 52 af 31 3d 19 49 6e 3d
       -0.0042335843 -0.051319387 0.04338009 0.05817518
0000f0 3d a6 a3 bc b8 34 90 be e3 85 1e 3d e7 55 2a 3c
       -0.01997673 -0.2816522 0.038701903 0.010396457
000100 8a 17 31 bc 5c 23 17 bd 95 27 bf 3b d3 91 cd bd
       -0.010808835 -0.036898956 0.005833576 -0.100375794
000110 e9 bb ce 3c da 06 00 be cd 4b 87 3b fc 8e 66 bc
       0.025236087 -0.12502614 0.004128909 -0.014072176
000120 97 d0 a0 bc 43 b7 7a 3d 77 f7 0e 3d 82 74 76 3c
       -0.019630713 0.06120993 0.03490397 0.015042426
000130 fe b5 90 3d d6 1e ba bc 24 25 1f bd db f0 ed 3c
       0.07065962 -0.022719782 -0.03885378 0.029045513
000140 46 f4 fe 3c 53 9c 8f 3c 00 d9 5e bc 68 81 a4 3d
       0.031122338 0.017530596 -0.0136015415 0.08032495
000150 0a 66 8c 3d 81 c3 1f 3d 84 c7 33 3d fe 5b f7 ba
       0.068554 0.039004806 0.043891445 -0.001887202
000160 43 bf 36 ba e6 95 60 3b e2 1b a1 bd df b1 10 3d
       -0.0006971249 0.0034269034 -0.07866646 0.03532588
000170 0d e9 93 bc 1a bb 98 bd 83 97 4f 3d 45 d5 52 b9
       -0.018055463 -0.07457562 0.050681602 -0.0002010661
000180 4c 79 c1 3c 9b 22 75 3d d4 72 e7 3c eb c7 2b be
       0.02361741 0.059847455 0.028252997 -0.16775481
000190 c5 79 c1 3c 24 36 d9 bb b6 22 f6 bc 8f 90 77 3c
       0.023617635 -0.0066287685 -0.030045848 0.015110149
0001a0 f1 61 90 3c ec 8f 8a 3a 3a 25 25 3d ee 83 f0 3c
       0.017624827 0.0010571457 0.040318705 0.029359784
0001b0 cb 79 ac 3c eb e3 17 3d 4f 4b 20 b9 9b 67 08 be
       0.02105417 0.037082594 -0.00015286844 -0.13320772
0001c0 93 17 86 3c fd 4f 85 bc f1 8e 47 bc ee b0 a1 3c
       0.016368663 -0.016273493 -0.012180076 0.019737687
0001d0 de 8f fa bc c9 f7 aa 3c 2c 77 03 3d e6 36 79 bb
       -0.03058618 0.020870106 0.032096073 -0.0038027107
0001e0 41 28 1a bd db 46 07 bd 24 97 ea 3b 2d 5d 1a bd
       -0.037636045 -0.033026557 0.0071591306 -0.037686516
0001f0 ea e1 f3 3c 1a 9d 9c 3c bb 38 14 3b 78 8b f1 3b
       0.02977081 0.01911788 0.0022616822 0.0073713623
000200 f0 87 11 be 2d 22 c8 ba 7a 39 12 bd a4 fe 54 3d
       -0.14212012 -0.0015268974 -0.035699345 0.052000657
000210 0a e2 43 bc d3 59 ae 3d 54 0f d8 3c 4b 71 ec 3d
       -0.011955747 0.08513226 0.026374497 0.115450464
000220 ef 08 65 be 8d ce 63 bc a0 99 34 bd 34 ee b8 bc
       -0.22366689 -0.013904226 -0.04409182 -0.022574522
000230 b6 37 81 ba f4 7f 64 3d e1 3d 11 3a 03 2e 82 bd
       -0.0009858522 0.055786088 0.0005540532 -0.06356432
000240 44 6a ca 3c f2 0f ac 3c 27 56 0f 3d c8 a9 0d 3e
       0.024708875 0.021003697 0.03499427 0.13834298
000250 6c bb b9 bb 09 82 78 3c 75 7d da 3d 06 da 49 bb
       -0.0056680944 0.015167722 0.1066846 -0.0030800118
000260 24 89 ff b9 7b 3d 53 bd 9b 94 e0 bd 59 19 aa bc
       -0.00048739568 -0.051572304 -0.10965844 -0.02076404
000270 70 ee 99 bb 45 1b 03 3b f1 da e9 3c 43 48 07 3d
       -0.0046976134 0.0020005268 0.028546782 0.0330279
000280 e7 90 75 3c 1b 88 48 3b 37 4d 6e 3c fa 4c 1f bd
       0.014988161 0.0030598703 0.014544777 -0.03889177
000290 89 62 ba bb 37 06 8d bc 3a dc 2e bd a8 7a a7 bb
       -0.005688016 -0.017214878 -0.042690493 -0.0051110573
0002a0 18 78 98 3c 33 b4 b3 bc f0 89 cd 3b db a5 4d 3d
       0.018611953 -0.021936512 0.006272547 0.050207
0002b0 35 bf 3b 3d 7d 11 81 bc 93 b6 58 3b 43 f4 ed 3d
       0.045836646 -0.01575541 0.0033067807 0.11618855
0002c0 be 15 54 3d 50 4e bf 3c 34 c3 d6 ba 62 d8 cc 3d
       0.051778547 0.023352772 -0.0016385079 0.10002209
0002d0 f8 02 8e bd 08 4e cf 3c 25 0f a8 3d b0 96 18 3b
       -0.0693416 0.025305763 0.082060136 0.0023283176
0002e0 dc fd 1c bb 63 90 12 3d 19 f0 50 3d 17 d7 91 bc
       -0.0023955023 0.03578223 0.051010225 -0.017802758
0002f0 48 07 81 bc 52 21 44 bb 82 1f c8 3c 56 fb d1 bc
       -0.015750542 -0.0029927087 0.024429087 -0.025632542
000300 d2 1f 93 3d a5 79 7b bb 31 45 b2 bc 44 02 cf bc
       0.071838036 -0.0038372066 -0.021761509 -0.025269635
000310 11 83 89 bd a2 d5 87 bc 92 05 dc 3b 01 a4 0b 3d
       -0.06714452 -0.01658136 0.006714531 0.034091953
000320 47 b4 f4 bb cc 0c 3d 3a f3 58 d1 3d e1 ca f6 bc
       -0.00746778 0.0007211685 0.10222044 -0.030126037
000330 42 30 89 bc 80 a1 4a ba 22 ed f6 3c 52 39 da bc
       -0.016746644 -0.0007729754 0.03014237 -0.02663866
000340 52 71 9c 3d aa 0b 82 3a 50 9a 85 3a 61 ab 92 bb
       0.07638802 0.0009921689 0.0010193083 -0.0044759964
000350 8c 52 43 bd 82 c4 1f bc 50 3b ac bc db dd c2 3d
       -0.047686145 -0.009751441 -0.021024376 0.09514972
000360 63 18 08 3d 1a 28 59 3d dd a5 00 3d 7a f7 2e 3d
       0.033226382 0.05301676 0.03140818 0.04271648
000370 97 a2 1c bc ad 2f 63 bc 55 8b 06 3d 59 2e 36 bd
       -0.009560249 -0.013866347 0.03284772 -0.044477794
000380 d5 79 18 3d 98 5b 4c 3d 8e 46 c3 bc ee fa 78 3d
       0.037225563 0.049892038 -0.023837354 0.06078618
000390 c1 d7 91 be e0 dc 75 3d ec 36 40 3d ea bf d2 3c
       -0.2848492 0.060025096 0.046927378 0.025726277
0003a0 a4 b4 0a 3d d1 82 f1 3c a1 50 08 3d 32 ed c3 3b
       0.03386368 0.029481323 0.03328002 0.0059792036
0003b0 69 d6 01 bb 0e 4e 3e 3c 2f d4 2c 3d 1a 56 10 bc
       -0.0019811636 0.011615289 0.04219454 -0.008809591
0003c0 00 fd 93 3d 20 e5 89 bc ea c7 20 3d d3 eb 1d 3c
       0.0722599 -0.016832888 0.039253153 0.009638744
0003d0 f0 38 3d 3d 39 77 e8 3c a4 81 7e be 5c a1 f8 bd
       0.046196878 0.028377162 -0.24854141 -0.12140152
0003e0 89 d8 ef 3c fa 5f ea bb 43 81 37 be 99 c6 80 3d
       0.029278057 -0.0071525546 -0.17920403 0.062878795
0003f0 f1 dd 45 3d b9 92 4e 3d d4 cc 75 3d 7a dd 4d 3d
       0.048307363 0.050432894 0.060009792 0.050260045
