3 - Collab -MADDPG/trained_agents/maddpg_tennis_checkpoint_actor_target_1.pth (torch_old, 588240 bytes, 10 tensors)

fc1.weight f4 [512, 24]
0	0xbc3780f9	-0.011200183
1	0xbcc65c52	-0.024213944
2	0xbcf18f80	-0.029487371
3	0xbbff7aa5	-0.007796603
4	0xbcb1bf11	-0.021697553
5	0x3cf73193	0.030175006
6	0x3cadcb9a	0.021215249
7	0xbb68bcff	-0.003551304
8	0xbd09a039	-0.033600066
9	0x3c0e9564	0.00870261
10	0xbcecd317	-0.02890925
11	0x3d215b78	0.039393872
12	0xbd68da07	-0.056848552
13	0xbce3fd53	-0.027830755
14	0xbd2a7afe	-0.0416212
15	0x3ce73cd5	0.02822725
16	0xbcb5f804	-0.02221299
17	0x3ab17762	0.0013539607
18	0xbced3061	-0.028953733
19	0xbabe2596	-0.0014507051
20	0xbc3e08d3	-0.011598784
21	0x3cd81163	0.026375478
22	0x3d0469e5	0.03232755
23	0x3cebce12	0.028784785
24	0xbc98c1a8	-0.01864703
25	0x3d2dadb9	0.042402003
26	0x3cc8018b	0.024414798
27	0xbd6679df	-0.05626857
28	0xbd5cf7ed	-0.053947378
29	0xbd425156	-0.04744085
30	0xbd052533	-0.03250618
31	0xbcdd6a68	-0.027028278
32	0xbb9b0a9c	-0.0047314893
33	0x3d6b82fd	0.057497967
34	0x3d0a0839	0.033699248
35	0xbcbd3ca7	-0.02310021
36	0x3c0fb5b5	0.00877135
37	0xbd2d6687	-0.042334106
38	0xbc116ca1	-0.008875997
39	0xbd768af5	-0.060191114
40	0x3c590eb6	0.013248136
41	0x3d2eaca3	0.042645108
42	0x3c0a7b90	0.008452311
43	0x3cd91dfd	0.026503557
44	0xbce8a485	-0.028398762
45	0xbd7ad0f8	-0.061234444
46	0x3cefd243	0.029275065
47	0xbd0673d7	-0.032825317
48	0xbd20868e	-0.03919082
49	0xbc1868a4	-0.009302292
50	0x3b6b4d7e	0.0035904343
51	0x3d49de9c	0.049284562
52	0xbd659aa3	-0.056055676
53	0xbd6a5696	-0.05721148
54	0xbb36be78	-0.0027884524
55	0x3d487f4a	0.048949517
56	0x3d48562b	0.0489103
57	0xbd5f0762	-0.0544504
58	0x3c91cb1b	0.017797044
59	0x3d1253ea	0.035724558
60	0xbd0a4714	-0.03375919
61	0xbd71c25b	-0.059023242
62	0xbc9ca124	-0.019119807
63	0x3ca73383	0.020410305
64	0x3ce5eb1e	0.028066214
65	0xbd30b28e	-0.043139033
66	0xbc17c966	-0.009264326
67	0x3cd8620a	0.026413936
68	0x3c080114	0.008301038
69	0x3d12371b	0.035697084
70	0x3c7a6f0b	0.015285264
71	0x3d7ba379	0.061435197
72	0x3ceb9aca	0.028760333
73	0xbd060627	-0.03272071
74	0x3b914dad	0.0044343085
75	0x3bdd0078	0.0067444406
76	0x3c3a5fd3	0.011375385
77	0xb9924e6c	-0.0002790572
78	0x3d053594	0.0325218
79	0xbc3b5166	-0.011432981
80	0x3d03cf10	0.032179892
81	0xba1369c8	-0.00056233676
82	0xbc8d503f	-0.017250178
83	0xbc9f2ecc	-0.019431494
84	0x3bc73dc6	0.006080362
85	0x3b1c2d3b	0.002383067
86	0xbc5249e0	-0.012834996
87	0x3d07daea	0.033167757
88	0x3d8a26f5	0.06745712
89	0xbd896eb9	-0.06710572
90	0xbc965afe	-0.018353935
91	0x3d23ed46	0.040021203
92	0x3d807ab4	0.06273404
93	0x3cd84a58	0.026402637
94	0x3c8e4159	0.017365145
95	0xbaea0bef	-0.001785634
96	0x3a649639	0.00087198947
97	0x3d112c30	0.03544253
98	0x3d2dfeaf	0.042479213
99	0xbccd943e	-0.025095101
100	0x3d882d05	0.06649212
101	0x3d769858	0.06020388
102	0xbc874081	-0.01651025
103	0x3d778e33	0.060438346
104	0xbce5ee00	-0.028067589
105	0xbc8f7897	-0.017513556
106	0x3c3b9fac	0.011451643
107	0xbd2fe9a2	-0.04294742
108	0xbb9c656d	-0.004772833
109	0x3ca6baea	0.0203528
110	0x3c6f78c8	0.014616199
111	0xbc7184c7	-0.014741129
112	0xbd94013f	-0.072268
113	0x3ae92c2b	0.0017789652
114	0xbc8821fa	-0.016617764
115	0x3b7a7498	0.0038216468
116	0x3c56634d	0.013085199
117	0x3d5d7ccc	0.054074094
118	0xbce5c0a0	-0.028045952
119	0x3b6e440a	0.0036356472
120	0x3d2647ca	0.040595807
121	0x3ba5be15	0.00505806
122	0x3a49b94b	0.00076951523
123	0x3cde81f9	0.027161585
124	0xbd826360	-0.063666105
125	0x3a847e83	0.0010108504
126	0x3ba4697c	0.0050174575
127	0x3ca46736	0.020068746
128	0x3d4bea8c	0.04978423
129	0xbd1c81f0	-0.038209856
130	0xbc85232e	-0.016252127
131	0x3d8e47b9	0.06947274
132	0x3c3d5567	0.011556006
133	0xbd460b8c	-0.048350856
134	0x3bc82610	0.006108053
135	0x3cd96dc3	0.026541596
136	0x3dc7b45d	0.097511984
137	0x3d61819f	0.055055257
138	0xbba20e76	-0.0049455715
139	0x3d0af63f	0.033926245
140	0xbc82972f	-0.01594123
141	0xbc2d7262	-0.010586353
142	0x3d098bc9	0.033580575
143	0x3bb7a75f	0.005604669
144	0xbd6ad5b8	-0.057332724
145	0xbca706a2	-0.020388905
146	0x3b23ce7f	0.0024994907
147	0xbd446364	-0.04794635
148	0xbc526b1c	-0.01284292
149	0x3d44ccfd	0.048047055
150	0xbd34ca90	-0.04413849
151	0xbd74dba2	-0.05977977
152	0xbc5cf1e4	-0.013485406
153	0xbc852685	-0.01625372
154	0x3b4eecd1	0.003157426
155	0xbcbeca53	-0.023289835
156	0x3c3899e4	0.011267159
157	0xbc846b7c	-0.016164534
158	0xbca02b87	-0.019552005
159	0xbc13e141	-0.009025873
160	0x3b90a283	0.004413904
161	0xbc66f85c	-0.014097299
162	0xbd2b9bfb	-0.0418968
163	0xbce94c82	-0.028478865
164	0xbccc736b	-0.02495738
165	0x3cdfa850	0.027301937
166	0x3c56f6be	0.013120351
167	0x3cff1c3a	0.03114139
168	0x3d9a35ee	0.075298175
169	0xbbe28c39	-0.0069136885
170	0xbc15983b	-0.009130533
171	0xbbb297d1	-0.005450227
172	0x3d02401b	0.031799417
173	0x3cad7d7b	0.021177998
174	0x3ceef7eb	0.02917095
175	0xbc8c50ee	-0.017128434
176	0x3c28a625	0.010293518
177	0xbd2076fa	-0.039175965
178	0xbd454b67	-0.048167612
179	0xbbb570c1	-0.005537123
180	0x3cbb64b5	0.02287517
181	0x3d035687	0.03206494
182	0xbcc87819	-0.02447133
183	0x3cc1c3cf	0.02365294
184	0x3d58f3f9	0.052967045
185	0x3b66c9c1	0.003521547
186	0xbc1d8757	-0.009614787
187	0x3ce1436c	0.02749797
188	0x3c80bd1b	0.015715173
189	0x3c8a2165	0.016861627
190	0x3c4543b6	0.012040069
191	0x3d1f6745	0.038916845
192	0xbcb97c7b	-0.022642365
193	0x3bb2f555	0.0054613748
194	0x3bec6ccc	0.007215118
195	0x3d3b190c	0.045678183
196	0xbd4c1059	-0.049820278
197	0xbc0bacb7	-0.008525065
198	0xbcba222a	-0.022721369
199	0xbc184293	-0.009293216
200	0xbbb5eab7	-0.005551662
201	0x3cc53b6e	0.02407619
202	0x39e3ac2e	0.00043425098
203	0x3d68a761	0.05680025
204	0xbd843b89	-0.06456668
205	0xbcfe8058	-0.031067058
206	0xbc80bd6b	-0.015715322
207	0xbc7f0eb9	-0.015567475
208	0x3c7ab2cc	0.015301418
209	0x3d1fef59	0.03904662
210	0xbb3cb6ac	-0.0028795404
211	0xbd30518a	-0.04304651
212	0xbd4b5a28	-0.049646527
213	0xbc787015	-0.015163441
214	0x3d0a7612	0.033804007
215	0xbb36dcb1	-0.0027902538
216	0x3cff6ee7	0.031180812
217	0xbd1b9579	-0.037984345
218	0x3ae68d53	0.0017589725
219	0xbc9dce18	-0.019263312
220	0xbd974a45	-0.07387213
221	0xbd65e6b1	-0.056128208
222	0xbbe3b7ac	-0.0069493856
223	0x3cea80dd	0.0286259
224	0x3b8e423d	0.0043413923
225	0xbd02ed2f	-0.031964477
226	0x3b09e2f6	0.002103982
227	0xbae8b443	-0.0017753917
228	0x3cf31132	0.029671285
229	0x3b40f828	0.0029444788
230	0x3b5fba32	0.003413808
231	0x3d5695b5	0.052388866
232	0x3cea4acb	0.028600117
233	0xbaab7d5b	-0.0013083623
234	0xbc8c4f80	-0.017127752
235	0xbcaa6849	-0.02080168
236	0xbd01b2d4	-0.031664684
237	0xbd132e49	-0.035932813
238	0x3d12ec9e	0.035870187
239	0x3d371792	0.044700213
240	0xbc9232ea	-0.017846543
241	0xbce1f8cc	-0.027584456
242	0xbcdfd647	-0.027323855
243	0x3cfefe53	0.03112713
244	0x3c993809	0.018703477
245	0xbda06ee5	-0.078336515
246	0x3cf17c22	0.029478136
247	0xbbccca85	-0.006249728
248	0xbcd67d9e	-0.026182946
249	0xbd4a8d31	-0.049451057
250	0xbb6ec087	-0.0036430673
251	0x3cedd2b7	0.02903114
252	0x3c8fbd3b	0.017546287
253	0xbd7cbd82	-0.061704166
254	0xbb69271e	-0.0035576294
255	0xbd356407	-0.044284847

fc1.bias f4 [512]
0	0xbd18a39c	-0.037265405
1	0x3e2dcfd1	0.16973807
2	0xbe6e437c	-0.23267931
3	0x3e3a35b7	0.18184553
4	0xbd52d82e	-0.051475696
5	0x3daaf932	0.083483115
6	0xbdd4147c	-0.103554696
7	0xbd694a7f	-0.05695581
8	0xbde98734	-0.11402741
9	0x3e0d5bc8	0.13804543
10	0x3daa697b	0.083209
11	0xbde7dbfa	-0.11321254
12	0xbda03a3f	-0.078236096
13	0xbe215b23	-0.15757422
14	0xbe4fc20a	-0.20288864
15	0x3e2025b6	0.15639386
16	0x3dbaab0a	0.09114654
17	0xbcf28a71	-0.02960703
18	0xbe2f8f74	-0.17144567
19	0x3da8b510	0.0823766
20	0xbdca5b67	-0.09880715
21	0xbe426836	-0.18985066
22	0xbe72398c	-0.23654765
23	0xbe156fad	-0.14593382
24	0x3e22f243	0.15912728
25	0xbe36a8d9	-0.17837848
26	0xbe27e5d2	-0.16396263
27	0xbdfc44c6	-0.12317805
28	0x3c9c8767	0.019107534
29	0xbd6b1000	-0.057388306
30	0x3d6ff4be	0.058583014
31	0xbd7029e7	-0.05863371
32	0xbe036293	-0.12830572
33	0xbe1f94c0	-0.15584087
34	0x3e0d0c33	0.13774185
35	0x3cd05a87	0.025433792
36	0x3dfad85f	0.12248301
37	0xbdfc1c52	-0.12310089
38	0xbe2462f8	-0.16053379
39	0xbe138811	-0.14407374
40	0xbc9ab500	-0.018885136
41	0x3d155b71	0.03646416
42	0x3e2a11b7	0.1660832
43	0xbe207b46	-0.15672025
44	0x3c8c40c2	0.017120723
45	0x3cc04e3a	0.023474801
46	0x3d8c087d	0.068375565
47	0xbd93a93d	-0.07210014
48	0x3e10ca55	0.14139684
49	0x3e0856d0	0.13314366
50	0x3e26dcc9	0.1629516
51	0x3cfea026	0.031082224
52	0xbda9a656	-0.08283679
53	0x3e318aa1	0.17338039
54	0xbe192219	-0.14954413
55	0xbe1662f3	-0.14686184
56	0xbd1fcca2	-0.039013512
57	0xbc5fbaec	-0.0136554055
58	0xbe775345	-0.24152859
59	0x3d6a1334	0.05714722
60	0xbd77e9a1	-0.06052554
61	0xbe610ffa	-0.21978751
62	0x3e435995	0.19077142
63	0x3d7dd230	0.06196803
64	0x3dbf3fac	0.09338316
65	0xbd494e29	-0.049146805
66	0xbc890597	-0.016726298
67	0xbe7580a7	-0.23974858
68	0x3d8c665e	0.068554625
69	0x3e0996e7	0.13436471
70	0x3d8f645a	0.070015624
71	0xbd0918b5	-0.033470828
72	0xbddcbe7f	-0.10778522
73	0xbe674764	-0.22585827
74	0x3e22028c	0.15821284
75	0x3d3efe9f	0.046629544
76	0xbe2fe9c9	-0.17179026
77	0x3dc1d2ac	0.094640106
78	0xbe281e57	-0.16417824
79	0xbe8388cf	-0.25690314
80	0x3e156a94	0.14591438
81	0xbe16cc66	-0.1472641
82	0x3d2568ce	0.040383153
83	0xbc578574	-0.013154376
84	0xbcd49553	-0.02595011
85	0x3c9784fb	0.018496027
86	0x3e262dca	0.16228405
87	0x3e0eeda8	0.13957846
88	0xbe42a998	-0.19010007
89	0x3db43453	0.087990426
90	0x3de44ba8	0.11147243
91	0x3dd5bf0b	0.10436829
92	0xbdc0efea	-0.0942076
93	0x3db11dd7	0.086482696
94	0xbe167163	-0.14691691
95	0xbe236929	-0.15958084
96	0xbd89cd92	-0.067286626
97	0x3cb55b0a	0.022138137
98	0x3d1920df	0.037384864
99	0xbe6ba6f3	-0.23012905
100	0x3d6935f6	0.056936227
101	0x3d59b475	0.053150613
102	0xbe44b89a	-0.19211045
103	0xbcb4936b	-0.02204295
104	0x3e3bea0d	0.18351002
105	0xbe0abeb4	-0.1354931
106	0xbe60c69e	-0.21950766
107	0x3c06f1df	0.0082363775
108	0x3d7dfa1e	0.06200611
109	0xbc45fde0	-0.012084454
110	0x3d4326d8	0.047644466
111	0xbcd3ad13	-0.025839364
112	0xbdb77867	-0.08958512
113	0x3e29b810	0.1657412
114	0x3e285862	0.16439965
115	0xbde3e4dc	-0.11127636
116	0x3da4d610	0.08048642
117	0xbe6e4ea6	-0.2327219
118	0x3d9b68d1	0.075883515
119	0xbe15dee7	-0.14635812
120	0x3d753061	0.05986059
121	0xbdfcd4d7	-0.123452835
122	0x3e1c8280	0.15284157
123	0x3cec086a	0.028812606
124	0xbe92883c	-0.28619564
125	0x3da77193	0.081759594
126	0xbdd79c8f	-0.10527908
127	0xbd4bf24c	-0.04979162
128	0xbd91c6c6	-0.07117991
129	0xbe176fd1	-0.14788748
130	0xbcd988bd	-0.02655446
131	0xbd05a2a4	-0.03262581
132	0xbe7aa2a1	-0.244761
133	0x3c7b3735	0.015332987
134	0x3c46cabe	0.012133298
135	0x3e259f3c	0.16174024
136	0xbe5de775	-0.21670325
137	0x3e0b7c68	0.13621676
138	0x3d847d48	0.06469208
139	0x3df50f00	0.11965752
140	0x3d13a521	0.03604615
141	0x3d9a0d9e	0.075221285
142	0x3d596dc4	0.053083196
143	0x3cff2cd7	0.031149311
144	0xbd79723f	-0.06089997
145	0xbde62c97	-0.112389736
146	0xbda206f1	-0.0791148
147	0x3e08c3f9	0.13356008
148	0xbe6b21ea	-0.22962156
149	0xbd801893	-0.06254687
150	0x3da7aafb	0.08186909
151	0xbe07a712	-0.13247326
152	0xbdb4bc82	-0.088250175
153	0xbe4b4224	-0.1984945
154	0x3c7665b7	0.015038899
155	0xbe174468	-0.14772189
156	0xbe3db654	-0.18526584
157	0x3e2d0e6e	0.16900036
158	0xbe356fde	-0.17718455
159	0x3e1e7133	0.1547287
160	0xbcd97785	-0.02654625
161	0x3e3669f9	0.17813863
162	0xbac7a663	-0.0015232082
163	0xbe79ed86	-0.24407014
164	0xbe02f192	-0.12787464
165	0xbe03bd0c	-0.12865084
166	0xbe379c2c	-0.17930669
167	0xbdc252d9	-0.09488458
168	0x3dfde5db	0.12397357
169	0xbc8d5028	-0.017250136
170	0xbd34fe19	-0.04418764
171	0xbca44175	-0.020050744
172	0xbdc45990	-0.09587395
173	0x3d75518e	0.05989223
174	0xbd7096d8	-0.058737606
175	0x3d0659e0	0.032800555
176	0x3d87f4b1	0.06638468
177	0xbe0f4635	-0.13991626
178	0xbe19f0dd	-0.15033288
179	0xbda8debe	-0.0824561
180	0xbd8b936d	-0.068152286
181	0xbe807b19	-0.25093916
182	0xbe3345ba	-0.17507067
183	0xbe126f7a	-0.14300337
184	0xbddb06cc	-0.10694656
185	0x3e33889c	0.17532581
186	0xbe017711	-0.12643076
187	0x3d8737d1	0.06602443
188	0x3e0908ae	0.13382217
189	0xbe04aeec	-0.12957352
190	0x3c75d174	0.015003551
191	0x3e078762	0.13235238
192	0xbdb4cb00	-0.08827782
193	0x3d1d6170	0.038423
194	0x3db45888	0.088059485
195	0x3e1594ff	0.14607619
196	0xbe4ab1a9	-0.19794334
197	0xbcceb6c5	-0.025233636
198	0xbcf7858e	-0.030215051
199	0x3d4d865a	0.050176956
200	0xbe5894a0	-0.21150446
201	0xbd7daf1d	-0.06193458
202	0x3d79ae87	0.060957458
203	0xbe4b6f4e	-0.19866678
204	0xbd0c3e65	-0.03423919
205	0xbd9c5542	-0.07633449
206	0x3e340403	0.17579655
207	0x3e0e96a7	0.13924657
208	0x3c1d080e	0.00958444
209	0x3dcd6f96	0.10031049
210	0xbe1c1de4	-0.15245777
211	0x3e509fc0	0.2037344
212	0xbe6ab3ae	-0.22920105
213	0x3cbf404f	0.023346094
214	0x3dbc8777	0.09205525
215	0x3df6ae31	0.12044943
216	0xbe292610	-0.16518426
217	0xbd924139	-0.071413465
218	0x3e21b13c	0.15790266
219	0x3d891913	0.06694236
220	0x3dbed39d	0.09317706
221	0xbd947988	-0.07249743
222	0xbd588b7a	-0.05286739
223	0x3e18c798	0.14919889
224	0xbe301684	-0.17196089
225	0x3e1f613f	0.1556444
226	0x3d99997d	0.07499979
227	0xbdc4f6cb	-0.096173845
228	0xbd987c3f	-0.07445573
229	0xbe0b3eb5	-0.1359814
230	0x3cdca455	0.026933828
231	0x3d1f9a81	0.038965706
232	0x3bb9e719	0.005673301
233	0xbd229d7d	-0.039700974
234	0xbe0580a0	-0.13037348
235	0xbda566af	-0.08076226
236	0xbded0526	-0.115732476
237	0x3dd7e182	0.10541059
238	0xbe1ba5bf	-0.15199946
239	0xbe87e219	-0.26539686
240	0xbd28f2f7	-0.041247334
241	0x3b17e9d7	0.002318015
242	0xbe1d7b6d	-0.15379114
243	0xbe608742	-0.21926597
244	0xbdd40417	-0.103523426
245	0xbe6099f3	-0.21933727
246	0xbd70f2ba	-0.058825232
247	0xbe703a1a	-0.23459664
248	0xbe297546	-0.16548643
249	0xbe48e5f0	-0.19618964
250	0x3e03a714	0.12856704
251	0x3cfc8b47	0.030828131
252	0xbe666347	-0.22498809
253	0xbdfbb76e	-0.12290846
254	0xbd590182	-0.052979954
255	0x3bf5cfde	0.0075015863

fc2.weight f4 [256, 512]
0	0x3db78e37	0.08962672
1	0xbc5ac8c2	-0.013353528
2	0xbd644f24	-0.055739537
3	0x3d232d3a	0.039838053
4	0xbd0c4154	-0.03424199
5	0xbd8ca303	-0.068670295
6	0xbc734168	-0.014847137
7	0x3ce09a62	0.027417365
8	0x3d2b24f9	0.041783307
9	0x3d4f6baf	0.050639804
10	0xbd7a591b	-0.061120134
11	0xbdf5fff4	-0.1201171
12	0x3cde864a	0.027163643
13	0x3ca5c593	0.020235812
14	0x3d4c57d5	0.04988845
15	0xbcb743e0	-0.022371233
16	0xbc7fc743	-0.015611473
17	0x3b0745b8	0.002064092
18	0x3c994e6e	0.018714156
19	0x3c6115cf	0.01373811
20	0xbd755093	-0.059891295
21	0x3d14ad7d	0.036298264
22	0x3ce16405	0.027513513
23	0x3ccaa29d	0.024735743
24	0x3e08606b	0.1331803
25	0xbc816f37	-0.015800102
26	0xbc2f48bb	-0.010698493
27	0xbda95e2e	-0.082699165
28	0x3b9f848f	0.004868097
29	0xbc5ac49e	-0.013352541
30	0xbd219a6e	-0.039453916
31	0xbdb3b2d9	-0.08774347
32	0x3d537a74	0.051630452
33	0xbe10932b	-0.1411864
34	0xbd9b2dcb	-0.07577094
35	0xbcff88af	-0.031193106
36	0x3d61e9cd	0.05515461
37	0x3dcbcb55	0.09950892
38	0xbd69951b	-0.057026964
39	0x3da52485	0.08063606
40	0xbcd03c48	-0.02541937
41	0xbbe3a00e	-0.0069465702
42	0xbd95fadc	-0.07323238
43	0xbdaf80a8	-0.08569461
44	0x3bac1171	0.0052511026
45	0xbd206a19	-0.039163683
46	0xbd447756	-0.04796537
47	0x3c8fa44a	0.017534394
48	0xbc86de2d	-0.016463364
49	0x3d136896	0.035988413
50	0x3c86e493	0.016466415
51	0x3d77f9ff	0.06054115
52	0xbe339b97	-0.17539822
53	0xbbcaa70f	-0.0061844657
54	0x3db0870e	0.0861951
55	0xbda58bc0	-0.08083296
56	0xbdc0a859	-0.0940711
57	0xbc8a3cc6	-0.016874682
58	0xbd3d843d	-0.04626869
59	0x3d46299b	0.04837952
60	0xbcdc809a	-0.02691679
61	0xbdb76ef3	-0.08956709
62	0xbde24e68	-0.11050111
63	0xbbecbd9d	-0.007224752
64	0xbd256d70	-0.04038757
65	0xbdbc4d99	-0.09194488
66	0xbd1c67e0	-0.038185
67	0xbd9e6f59	-0.07736082
68	0xbd1e2d24	-0.03861727
69	0x3cb8e0f1	0.022568198
70	0x3d821bc8	0.06352955
71	0x3d4e6ebc	0.050398573
72	0xbc12b174	-0.008953441
73	0x3d597b77	0.05309626
74	0x3d3775ff	0.044790264
75	0xbd617977	-0.05504748
76	0xbc2741cb	-0.010208557
77	0xbc35f808	-0.011106499
78	0xbdac686c	-0.084183544
79	0xbc3767c1	-0.01119417
80	0xbc2df403	-0.010617259
81	0xbd87aed0	-0.0662514
82	0xbcb5c78b	-0.022189876
83	0x3d0b7991	0.03405148
84	0x3d444e81	0.04792643
85	0x3cf8e4b6	0.030382495
86	0xbcea33ef	-0.028589217
87	0xbceb2ebb	-0.028708806
88	0x3d5ca136	0.05386468
89	0xbdc9a5d6	-0.09846084
90	0x3d60ebe2	0.054912455
91	0x3d6ac10a	0.057313003
92	0x3c057305	0.008145099
93	0x3cf0245c	0.029314213
94	0x3c72ff5c	0.01483139
95	0xbdf14773	-0.11781206
96	0x3d381195	0.044938643
97	0x3d89622a	0.067081764
98	0xbc425922	-0.011862071
99	0x3cbcfcac	0.023069702
100	0xbcd73bd4	-0.026273645
101	0xbb62202c	-0.003450404
102	0xbc2fd359	-0.010731542
103	0xbb156989	-0.00227985
104	0x3cc7f07f	0.02440667
105	0x3d1ed482	0.038776882
106	0xbd9c577d	-0.076338746
107	0x3d6eeb1d	0.05832969
108	0x3d039e1b	0.032133203
109	0xbbabb5fb	-0.0052401996
110	0x3c974a03	0.018467909
111	0xbcd73904	-0.026272304
112	0xbd133c15	-0.03594597
113	0xbd921800	-0.07133484
114	0x3d2baa90	0.041910708
115	0x3bb98be5	0.0056624287
116	0xbca963e9	-0.020677524
117	0xbd71792c	-0.05895345
118	0x3d661665	0.0561737
119	0xbd521e9e	-0.05129873
120	0xbb8d0368	-0.0043033846
121	0xbdab3a1a	-0.08360691
122	0x3c762bfd	0.015025136
123	0xbdb0c901	-0.086320885
124	0xbd74b8a9	-0.05974642
125	0x3d4a78cc	0.049431607
126	0xbd85ad82	-0.065272346
127	0x3beae618	0.0071685426
128	0xbd9eca85	-0.07753471
129	0xbd5f599c	-0.054528818
130	0xbd08afcf	-0.03337079
131	0x3d0d56c9	0.034506593
132	0x3d2e22c2	0.042513616
133	0x3cf825bb	0.030291429
134	0x3c9393b0	0.018014759
135	0x3d287395	0.041125853
136	0x3d11d4b7	0.03560325
137	0x3cda8c0a	0.026678104
138	0x3c616c64	0.0137587525
139	0xbdaf25e7	-0.08552151
140	0x3d6de47e	0.058079235
141	0xbd2eaaeb	-0.04264347
142	0x3de864c9	0.11347348
143	0x3d51610c	0.05111794
144	0xb9a1e078	-0.00030875555
145	0xbd07d5e2	-0.03316296
146	0xbcac8737	-0.02106057
147	0xbd879557	-0.06620281
148	0x3db308ae	0.0874189
149	0xbda22e03	-0.07918932
150	0xbdcf8f8f	-0.101348035
151	0xbc46819d	-0.012115863
152	0x3d43f581	0.047841553
153	0xbb07c07f	-0.0020714102
154	0x3d91cd3d	0.07119224
155	0xbd42213c	-0.047394976
156	0xbd30a99d	-0.043130506
157	0x3cbe642b	0.023241123
158	0x3d313085	0.043259162
159	0x3d13416f	0.035951074
160	0x3d47924b	0.0487235
161	0xbde14a5b	-0.1100051
162	0xbabd05bd	-0.0014421266
163	0x3a888e47	0.0010418379
164	0x3d5a7e2c	0.053342983
165	0xbc4c9f8e	-0.012489213
166	0x3d3802fb	0.044924717
167	0xbd85c987	-0.06532579
168	0xbd30ecfa	-0.04319475
169	0x3af3b297	0.0018592653
170	0xbcf8b18f	-0.030358104
171	0xbc8dd1a4	-0.017311879
172	0x3d828228	0.063724816
173	0x3d036722	0.032080777
174	0xbd399f53	-0.04531796
175	0xbc1fe87d	-0.009760019
176	0x3d03e53d	0.03220104
177	0xbd8868c5	-0.06660608
178	0xbd8e7562	-0.06955983
179	0x3dcafe0d	0.099117376
180	0xbd38b0ee	-0.04509061
181	0x3c06c56f	0.008225783
182	0xbd256300	-0.040377617
183	0x3c4fe71f	0.012689381
184	0x3cee80d2	0.02911416
185	0x3d536a26	0.051614903
186	0x3b88e403	0.0041775717
187	0xbb32013f	-0.0027161387
188	0xbd81ca95	-0.063374676
189	0x3c3b8d7c	0.011447307
190	0x3c174524	0.009232793
191	0xbd1d8da8	-0.038465172
192	0x3c8b9b58	0.017041847
193	0x3a9e9c41	0.0012101011
194	0x3cbe2544	0.023211129
195	0xbdc37544	-0.09543851
196	0xbd30dfe3	-0.043182265
197	0x3d1e5e78	0.03866431
198	0xbcf1ee48	-0.029532567
199	0x3c0ac063	0.00846872
200	0xbd493792	-0.04912526
201	0xbd0e7457	-0.03477892
202	0x3c797531	0.0152256945
203	0xbd0cbcb8	-0.034359664
204	0xbcb6c751	-0.022311838
205	0xbda3ac01	-0.079917915
206	0xbc0e1f57	-0.008674464
207	0xbd2651a3	-0.0406052
208	0x3db5f4e1	0.088845976
209	0x3da0a778	0.07844442
210	0xbd2cbef4	-0.042174295
211	0xbc1aa1df	-0.009438007
212	0x3d945ca3	0.072442316
213	0x3d0c840f	0.03430563
214	0xbd6dfd9e	-0.058103196
215	0x3d9d6d61	0.07686878
216	0xbd8c97f0	-0.06864917
217	0x3c91842e	0.017763223
218	0xbd715309	-0.05891708
219	0xbd0ecec4	-0.034865156
220	0xbbdbadca	-0.006704067
221	0x3d85029a	0.06494637
222	0xbd73319e	-0.05937349
223	0xbcd3f149	-0.02587189
224	0x3c0555c1	0.008138121
225	0x3d335804	0.04378511
226	0xbd2fa01e	-0.04287731
227	0x3c92ced8	0.017920896
228	0x3d815369	0.06314737
229	0xbdb393cf	-0.087684266
230	0x3b8ed3fa	0.0043587657
231	0xbd91802e	-0.071045265
232	0xbd85952d	-0.06522594
233	0xbcfa3a32	-0.030545328
234	0xbc361b38	-0.011114888
235	0x3c9bde4c	0.019026898
236	0xbca168e7	-0.019703342
237	0xbda0f882	-0.07859899
238	0xbcf7b2be	-0.030236598
239	0xbd5106fe	-0.05103206
240	0xbd1cd499	-0.038288686
241	0xbd8d7a86	-0.06908135
242	0x3d20c332	0.039248653
243	0x3d5211fd	0.051286686
244	0xbd8a52e2	-0.0675409
245	0x3bc7741c	0.0060868394
246	0x3a1e6f82	0.00060438376
247	0x3dc3a8a1	0.09553648
248	0x3d96e0d7	0.073671035
249	0xbdc662ee	-0.09686838
250	0x3c9c4350	0.019075066
251	0xbdd38b3c	-0.10329291
252	0xbd6e7f23	-0.058226716
253	0xbca9c13c	-0.020722024
254	0xbd52f94e	-0.051507287
255	0x3bcddbe6	0.0062823175

fc2.bias f4 [256]
0	0x3d14d7ec	0.03633873
1	0x3b478472	0.0030443934
2	0x3d80a3ff	0.0628128
3	0x3c910c37	0.01770602
4	0x3e026467	0.12733613
5	0x3da15580	0.07877636
6	0x3db39202	0.08768083
7	0x3cb63013	0.02223972
8	0x3cb68640	0.022280812
9	0x3d8820b0	0.0664686
10	0x3cac3a6e	0.021023955
11	0x3d85265f	0.06501459
12	0x3d82090f	0.06349384
13	0x3d8cbf5f	0.06872439
14	0x3d962184	0.07330611
15	0x3bb5a69d	0.0055435435
16	0x3d9269b9	0.07149071
17	0x3d2ac231	0.0416891
18	0x3d66b7e0	0.0563277
19	0x3d6fa95a	0.058511116
20	0x3d570b5b	0.052501064
21	0x3deb979e	0.11503528
22	0x3c120655	0.0089126425
23	0x3d5f4dd0	0.054517567
24	0x3cd4d479	0.025980221
25	0x3dfa1746	0.1221147
26	0x3d0a6fe8	0.03379813
27	0x3d71b8b3	0.059014034
28	0xbc27af5c	-0.01023468
29	0x3e020f8d	0.12701245
30	0xbc1e5d86	-0.009665852
31	0x3e0eb551	0.13936354
32	0x3d8a0871	0.06739891
33	0x3d9a5591	0.07535852
34	0x3d7e9e57	0.062162723
35	0x3d301b21	0.042994622
36	0x3cc5dc52	0.024152908
37	0x3da900bd	0.08252094
38	0xbb0791aa	-0.0020686188
39	0x3d379dd5	0.044828255
40	0xbbb9421b	-0.0056536323
41	0x3dd2425f	0.102665655
42	0x3e09e8e6	0.1346775
43	0x3c31b647	0.010846681
44	0x3d4ee65e	0.050512664
45	0x3d996d38	0.07491535
46	0x3cc0afab	0.023521265
47	0x3d24be1a	0.040220357
48	0x3d32fec2	0.043699987
49	0x3e1df9e7	0.15427361
50	0x3cfcef45	0.030875811
51	0x3d3dffb9	0.046386454
52	0x3d20585e	0.039146774
53	0x3d5665a0	0.05234301
54	0x3d5accb1	0.053417865
55	0x3d60dc78	0.054897755
56	0x3d860810	0.065445065
57	0x3dce741a	0.10080738
58	0x3d92d5ad	0.07169662
59	0x3d8109e4	0.063007146
60	0xbb6cae3d	-0.0036114596
61	0xbc64b31d	-0.01395872
62	0x3ca63a94	0.020291604
63	0x3c7456a4	0.014913235
64	0x3de1da0c	0.11027917
65	0x3d82c046	0.063843295
66	0x3d9a5c15	0.075370945
67	0x3e0d83ab	0.13819759
68	0x3cadd2f2	0.02121875
69	0x3d9c132b	0.076208435
70	0x3b99d62e	0.0046947217
71	0x3cff7b72	0.031186793
72	0x3d889454	0.06668916
73	0x3d79a9b3	0.060952853
74	0x3d41144f	0.04713851
75	0x3dacb10c	0.084322065
76	0x3da6f3ec	0.08151993
77	0x3d3bcbb1	0.045848552
78	0x3da3bf2d	0.07995448
79	0x3e02c742	0.12771323
80	0x3d47af57	0.0487512
81	0x3ded6759	0.115919776
82	0x3dc42e9e	0.09579204
83	0x3cacb0d9	0.021080421
84	0x3b103bc6	0.0022008284
85	0x3d451009	0.048110995
86	0x3dd2e1a0	0.10296941
87	0x3d9efa28	0.07762557
88	0x3dbb831c	0.091558665
89	0x3d77aa92	0.060465403
90	0x3d4312a8	0.047625214
91	0x3d2ab43b	0.041675787
92	0x3cf4704c	0.029838704
93	0x3c2d5445	0.010579173
94	0xbbd6f0ba	-0.0065594586
95	0x3d731130	0.059342563
96	0x3ab3342b	0.0013672163
97	0x3d036278	0.03207633
98	0x3d1eb23b	0.038744193
99	0x3d8e93aa	0.069617584
100	0x3d8a94a6	0.06766634
101	0x3d96c3d9	0.07361574
102	0x3db88169	0.09009058
103	0x3be67a48	0.00703362
104	0x3db10d4d	0.08645115
105	0x3c9d0be8	0.019170716
106	0x3d99cef2	0.07510175
107	0x3e0d9581	0.13826562
108	0x3d703a07	0.05864909
109	0x3d48b97d	0.04900502
110	0x3daa77e0	0.083236456
111	0x3d1abd04	0.037777916
112	0x3db2a044	0.087219745
113	0x3c050759	0.008119428
114	0x3d301746	0.042990945
115	0x3d46aff1	0.048507635
116	0x3d5e2b2c	0.05424039
117	0xbc9f586c	-0.019451343
118	0x3cf233e4	0.029565759
119	0x3baeea45	0.0053379857
120	0x3c2e37d0	0.010633424
121	0x3d9cc10a	0.07654007
122	0x3ccfccde	0.025366243
123	0x3d9aa273	0.07550516
124	0x3cd73324	0.026269503
125	0x3dcef227	0.10104781
126	0x3d76c084	0.06024219
127	0x3d807dcd	0.062739946
128	0x3c89500e	0.016761806
129	0x3da6c94d	0.08143864
130	0x3d63ecfd	0.05564593
131	0x3dae8431	0.08521307
132	0x3d946a03	0.07246783
133	0x3ca1bc3c	0.019743077
134	0x3d358b3b	0.044322234
135	0x3d45015b	0.048096996
136	0x3d160fda	0.03663621
137	0x3dc037cc	0.093856424
138	0x3da89be3	0.08232858
139	0x3cd4207c	0.025894396
140	0x3d76a9d8	0.06022057
141	0x3dbee4bc	0.09320971
142	0x3d55e094	0.052216128
143	0x3cbe294a	0.023213048
144	0x3c8b8ce6	0.017034959
145	0x3db8fd18	0.09032649
146	0x3d8018c1	0.062547214
147	0x3d46fe0d	0.048582125
148	0x3d7dc1d6	0.061952434
149	0x3c27e64e	0.01024778
150	0x3da296d0	0.079389215
151	0x3d721c68	0.05910912
152	0x3d5cd3cd	0.053912926
153	0x3defbf85	0.11706451
154	0x3d69e9f8	0.057107896
155	0x3cf5d64b	0.03000941
156	0x3dbe8a03	0.093036674
157	0x3daf331f	0.085546724
158	0x3d3edf74	0.04659982
159	0x3cb375b4	0.021906711
160	0x3cf46f7b	0.029838314
161	0x3d5b73a5	0.053577084
162	0x3c9816bd	0.01856553
163	0x3dd6bb18	0.10484904
164	0x3cf91f29	0.030410366
165	0x3d93ef69	0.07223398
166	0x3d3b6e25	0.04575934
167	0x3d72f31c	0.05931388
168	0x3c692165	0.014229153
169	0x3c36dfcc	0.011161756
170	0x3dc6f308	0.09714323
171	0x3cc6436a	0.024202067
172	0x3d9dadd6	0.07699172
173	0x3db8e97d	0.09028909
174	0x3d8476d6	0.06467979
175	0x3cca9b18	0.024732158
176	0x3d85b963	0.065295
177	0x3c6bcb2b	0.014391701
178	0x3d5da2c2	0.054110296
179	0x3d94ddff	0.07268905
180	0x3de329cb	0.11091956
181	0x3d1dbd51	0.038510624
182	0x3c8dad02	0.01729441
183	0x3b06ffc9	0.0020599237
184	0x3db6f332	0.089331046
185	0x3d82bee1	0.063840635
186	0x3d38911e	0.04506027
187	0x3c409439	0.011754089
188	0x3e1d9bff	0.15391539
189	0x3e0adb2f	0.13560174
190	0x3dae6fb4	0.085173994
191	0x3d9eb596	0.077494785
192	0x3d727d25	0.05920138
193	0x3d8c27a0	0.06843495
194	0x3d1338b4	0.03594275
195	0x3bca366a	0.0061710374
196	0x3e1d8496	0.15382609
197	0x3d75da6c	0.060022756
198	0x3db52745	0.08845381
199	0x3d8473fd	0.064674355
200	0x3d836252	0.064152375
201	0x3bca7917	0.006178986
202	0x3d982b1c	0.074300975
203	0x3d5f1c73	0.05447049
204	0x3cfc3074	0.030784823
205	0xbaffffd6	-0.0019531201
206	0x3d6643a4	0.05621685
207	0x3d25c110	0.040467322
208	0x3d8ad23c	0.0677838
209	0x3d23b132	0.03996391
210	0x3d354ae1	0.044260863
211	0x3d570e5e	0.052503936
212	0x3c392bd3	0.011301952
213	0x3db5b96e	0.088732585
214	0x3d0a98eb	0.03383724
215	0x3caf42c7	0.021394147
216	0x3d956189	0.07293994
217	0x3d4d6621	0.050146226
218	0x3d8e1cd0	0.06939089
219	0x3d169882	0.036766537
220	0x3ce65929	0.028118687
221	0x3d4ee70a	0.050513305
222	0x3dbee72f	0.093214385
223	0x3da16f71	0.07882584
224	0x3ce6586c	0.028118335
225	0x3dab5181	0.08365155
226	0xbc371e2d	-0.011176628
227	0x3cfc995d	0.030834848
228	0x3db11243	0.08646061
229	0x3d87d2db	0.06632014
230	0x3c02fb81	0.0079945335
231	0x3d8f12ae	0.06985985
232	0x3cf3c806	0.029758465
233	0x3d9f89aa	0.07789929
234	0x3d3f6ddc	0.04673563
235	0x3d97182f	0.073776595
236	0x3d29789a	0.04137478
237	0x3c989e2d	0.018630112
238	0x3d8fc975	0.07020847
239	0x3d2f81be	0.04284834
240	0x3d57aad7	0.05265316
241	0x3d8f12fe	0.06986044
242	0x3ccd9038	0.025093183
243	0x3cb14679	0.02164005
244	0x3d5f4e29	0.0545179
245	0x3d898236	0.06714289
246	0x3da60d30	0.08107984
247	0x3d5e3fc8	0.054260045
248	0x3df279d0	0.1183964
249	0x3d836cae	0.064172134
250	0xbbadbca8	-0.0053020306
251	0x3d5f0fe2	0.054458506
252	0x3d565a17	0.05233201
253	0x3daada9e	0.08342479
254	0x3cbad255	0.022805372
255	0x3d538d26	0.05164828

fc3.weight f4 [2, 256]
0	0xbdee2e20	-0.116298914
1	0xbdf680c3	-0.12036278
2	0x3d47712b	0.04869191
3	0xbdb7dc18	-0.089775264
4	0xbd946607	-0.07246023
5	0x3d59af79	0.05314586
6	0xbde7270c	-0.112867445
7	0x3de41c9a	0.11138268
8	0xbe0497ee	-0.12948582
9	0xbdae4012	-0.08508314
10	0x3d698240	0.05700898
11	0x3dadbbc4	0.08483079
12	0x3daede7a	0.08538528
13	0x3d9f5407	0.07779699
14	0x3d3d4dda	0.046216823
15	0x3e2e198e	0.17001936
16	0x3d96658d	0.07343588
17	0x3d938797	0.07203596
18	0xbe03fcca	-0.128894
19	0xbe317fd5	-0.1733392
20	0xbe038f2d	-0.12847586
21	0xbe1a45b2	-0.15065649
22	0x3e311ad9	0.17295398
23	0x3d7d93f3	0.061908673
24	0xbdf5b907	-0.11998182
25	0xbe18e7a0	-0.14932108
26	0x3d6fa5b2	0.05850763
27	0x3dbd0778	0.0922994
28	0x3dd187ed	0.10231004
29	0xbe07ba26	-0.13254604
30	0x3e0b8bd1	0.13627554
31	0xbdac92a3	-0.08426406
32	0xbde911a7	-0.1138032
33	0xbe0c53dc	-0.13703865
34	0x3da2cb30	0.07948911
35	0xbdb39964	-0.08769491
36	0x3dbe7cae	0.093011245
37	0xbdcec420	-0.100960016
38	0x3e0a6330	0.135144
39	0x3e23b667	0.1598755
40	0x3e0fe503	0.14052205
41	0x3d867f0a	0.065671995
42	0xbd7478f5	-0.059685666
43	0xbe1f9f19	-0.15588035
44	0x3dfeda01	0.12443925
45	0x3d4d3157	0.050095882
46	0xbe01ae82	-0.12664226
47	0x3db38d7c	0.087672204
48	0xbe0fa88f	-0.14029144
49	0xbba3df9b	-0.005001021
50	0x3dcbea19	0.0995676
51	0x3e461692	0.19344547
52	0xbe184374	-0.14869481
53	0x3d82386d	0.063584186
54	0x3dc06ef9	0.09396166
55	0x3da09e55	0.078426994
56	0x3cb756f0	0.022380322
57	0xbd94a1a7	-0.07257395
58	0xbe313024	-0.1730352
59	0xbe024ebf	-0.12725352
60	0x3d95aca0	0.07308316
61	0x3e0f1090	0.13971162
62	0x3dedfd3b	0.116205655
63	0x3e2fb39c	0.1715836
64	0xbde8506a	-0.11343463
65	0xbdf95fe5	-0.121764936
66	0x3daa4958	0.083147705
67	0xbe0b5d7a	-0.13609877
68	0xbe07e894	-0.13272315
69	0x3da8e802	0.08247377
70	0x3e1daf3d	0.1539888
71	0x3d9ffbb0	0.078116775
72	0xbe10c613	-0.1413806
73	0x3e1e3586	0.15450105
74	0x3dd9c41a	0.106331065
75	0x3e1df7de	0.15426585
76	0x3d807bff	0.062736504
77	0x3daa82c5	0.083257236
78	0xbe10dc9c	-0.14146656
79	0xbe1e833a	-0.15479746
80	0x3daff36c	0.08591351
81	0xbc9a2000	-0.018814087
82	0xbd9f2e9a	-0.077725604
83	0xbe0d5fd1	-0.13806082
84	0xbdfc269a	-0.1231205
85	0xbdb3c506	-0.087778136
86	0x3cf12355	0.029435793
87	0xbdea67d3	-0.11445584
88	0x3dee878c	0.11646947
89	0x3dd07a0c	0.101795286
90	0x3e03afcd	0.12860031
91	0x3d0d9594	0.034566477
92	0xbda887dc	-0.08229038
93	0x3dea1c95	0.11431233
94	0x3e0b6b65	0.13615187
95	0xbe1ad4b5	-0.15120204
96	0xbddc56fd	-0.10758779
97	0x3d8596ab	0.06522878
98	0xbe180336	-0.14844975
99	0x3db6c3cb	0.08924063
100	0xbe177cad	-0.14793654
101	0x3e012c3f	0.12614535
102	0x3da926b0	0.08259332
103	0x3e1b1e68	0.15148318
104	0xbdadc6ae	-0.08485161
105	0x3dd225ae	0.10261093
106	0xbdcbe28c	-0.0995532
107	0xbe2d58b4	-0.16928369
108	0x3d4d0cff	0.050061222
109	0xbdfd46c1	-0.12367011
110	0x3dbdbbc2	0.092643276
111	0xbde6cee7	-0.11269932
112	0xbe0b03cb	-0.13575666
113	0x3d6fc103	0.05853368
114	0xbdaa61d5	-0.08319441
115	0x3e67e702	0.22646716
116	0xbdee4d91	-0.11635888
117	0xbdc172fa	-0.09445758
118	0x3dda1607	0.10648733
119	0xbe4e7e95	-0.20165475
120	0xbd72178f	-0.0591045
121	0x3e27213b	0.1632127
122	0xbdcd0b8c	-0.10011968
123	0xbd93f46c	-0.07224354
124	0xbe03083f	-0.12796114
125	0x3db4b0cc	0.08822784
126	0x3da40371	0.08008469
127	0xbdd4dbf9	-0.10393519
128	0x3d7d878f	0.061896857
129	0x3e1b74c2	0.15181258
130	0x3e28cf9f	0.16485451
131	0xbdf047e3	-0.11732461
132	0x3dba8bd1	0.09108699
133	0xbdcb2cd9	-0.099206634
134	0x3da37734	0.079817206
135	0xbe04b7d2	-0.12960747
136	0x3e0ade24	0.13561302
137	0xbd8e4afd	-0.06947897
138	0x3dd11682	0.10209371
139	0x3e3b837f	0.1831188
140	0xbd99683e	-0.07490586
141	0xbe0ee6bf	-0.1395521
142	0x3e3556ef	0.17708944
143	0x3de21ed0	0.11041033
144	0x3df69f1f	0.12042069
145	0xbdff0ee4	-0.12454012
146	0xbe13c722	-0.14431432
147	0x3d965dca	0.073421076
148	0xbe02438d	-0.12721081
149	0x3d8b2fab	0.06796201
150	0x3e2acd1b	0.16679804
151	0x3d1c6b43	0.03818823
152	0x3d882deb	0.06649383
153	0xbe31387b	-0.17306702
154	0x3de0f0db	0.109834395
155	0x3dbed1c7	0.093173556
156	0xbe2d4352	-0.16920212
157	0xbdda1050	-0.106476426
158	0xbe218506	-0.157734
159	0x3de71122	0.11282565
160	0x3d961579	0.07328314
161	0xbe100c97	-0.14067303
162	0x3e586ead	0.2113597
163	0x3d62bc31	0.055355255
164	0x3e1845f8	0.14870441
165	0xbddbeeac	-0.107388824
166	0xbd9b228a	-0.07574947
167	0x3d41a75c	0.047278747
168	0x3db94dab	0.09048017
169	0x3df59900	0.11992073
170	0xbde2ea53	-0.1107985
171	0x3e092a61	0.13395073
172	0x3d9155ed	0.07096467
173	0x3d591512	0.05299861
174	0xbdad8da7	-0.08474284
175	0x3e11629b	0.14197771
176	0xbe48523e	-0.19562623
177	0x3e1fff25	0.15624674
178	0x3d9b028d	0.07568846
179	0xbe0d3a0b	-0.13791673
180	0xbe024559	-0.12721767
181	0x3dafa85c	0.08577034
182	0x3d99fe29	0.0751918
183	0xbe036fca	-0.12835613
184	0x3da4cc20	0.08046746
185	0xbdbeadca	-0.093104914
186	0x3e10c557	0.14137779
187	0x3d700c43	0.058605444
188	0xbda4bff8	-0.08044428
189	0xbdd7212a	-0.105043724
190	0x3d9f8827	0.07789641
191	0x3de2150d	0.11039171
192	0x3e064c1a	0.13114968
193	0xbdbf1626	-0.09330396
194	0xbdd57625	-0.10422925
195	0x3e20925b	0.1568083
196	0x3caeb646	0.02132715
197	0x3d276f57	0.040877666
198	0xbdb4f39c	-0.08835527
199	0xbdbba51a	-0.0916235
200	0x3d950f7d	0.07278345
201	0xbdd6ee2d	-0.10494647
202	0xbd88503d	-0.06655929
203	0xbdf4ad3d	-0.11947105
204	0x3d8d0dc5	0.06887392
205	0x3d55e3dc	0.052219257
206	0xbd91abb0	-0.07112825
207	0x3df229cd	0.11824379
208	0xbda41c84	-0.080132514
209	0xbe22c190	-0.1589415
210	0x3e2c484d	0.16824456
211	0x3e320e9c	0.17388386
212	0x3d72d784	0.059287563
213	0xbdb6a588	-0.08918291
214	0x3d6a447a	0.05719421
215	0xbd7001de	-0.05859553
216	0x3dd0b72f	0.101911895
217	0xbe01eca0	-0.12687922
218	0x3e14067e	0.14455602
219	0xbe075391	-0.13215472
220	0x3de070b4	0.109589964
221	0xbe1418f9	-0.14462651
222	0xbe0903f2	-0.13380411
223	0x3e010b92	0.1260207
224	0x3d57356c	0.05254118
225	0xbe497b91	-0.19676043
226	0x3e043d92	0.12914112
227	0x3d6f89c3	0.05848099
228	0x3d67cd5f	0.05659234
229	0xbe2705e0	-0.16310835
230	0x3daf514c	0.08560428
231	0xbe1cc0e7	-0.15307961
232	0x3e122958	0.14273584
233	0xbe3b5faf	-0.18298219
234	0x3e2c55ad	0.16829558
235	0x3debd963	0.115160726
236	0xbe04670f	-0.12929939
237	0x3de21230	0.11038625
238	0xbce3e3ed	-0.027818644
239	0x3d3a9cce	0.045559697
240	0xbdd3ba97	-0.103383236
241	0xbdf0a222	-0.117496744
242	0xbe3e06df	-0.18557309
243	0x3da111b3	0.07864704
244	0x3de04c72	0.10952081
245	0x3dfa2e79	0.12215895
246	0x3da97876	0.08274929
247	0x3d5d56cd	0.054037858
248	0xbe0d8285	-0.1381932
249	0x3daf4dc6	0.08559756
250	0x3e1dd0c7	0.15411673
251	0x3d9b9e68	0.07598573
252	0x3e35bb2c	0.17747182
253	0xbe0b0e5a	-0.13579693
254	0x3d9f4748	0.07777268
255	0x3da4ef6a	0.08053477

fc3.bias f4 [2]
0	0xbdaa46af	-0.08314263
1	0x3d2fb348	0.042895585

bn1.weight f4 [512]
0	0x3ef26ac8	0.47347093
1	0x3f26a6ca	0.6509825
2	0x3f79b2c1	0.9753838
3	0x3f4c66a1	0.798441
4	0x3f6049fa	0.8761288
5	0x3f63c815	0.88977176
6	0x3eb9cc70	0.36288786
7	0x3f52a60e	0.8228463
8	0x3f21283b	0.6295201
9	0x3f36ba31	0.71377856
10	0x3e935d50	0.2878213
11	0x3ef3dec1	0.47630885
12	0x3dda62e4	0.10663393
13	0x3ddbe426	0.10736875
14	0x3f199f39	0.6000858
15	0x3e081a46	0.13291273
16	0x3e439ea2	0.19103482
17	0x3ec8545e	0.39126867
18	0x3e9303d3	0.28713855
19	0x3e87021d	0.263688
20	0x3efdc7a3	0.49566373
21	0x3f6bbd53	0.9208576
22	0x3ecd7728	0.40129972
23	0x3f0dae95	0.55344516
24	0x3e90aaf2	0.2825542
25	0x3f5a52a7	0.8528237
26	0x3e05cf07	0.13067256
27	0xbd1ad595	-0.037801344
28	0x3ed18843	0.40924272
29	0x3f16f1e6	0.5896286
30	0x3efd7bf5	0.49508634
31	0x3f0729a5	0.5279792
32	0x3eb344db	0.3501347
33	0x3e7f328a	0.24921623
34	0x3f37ea28	0.7184167
35	0x3ea9e0d7	0.33179352
36	0x3ee7c76a	0.45269328
37	0x3ee67ab7	0.450155
38	0x3f08e687	0.53476757
39	0x3ecfaeb3	0.40562972
40	0x3f7d1e1f	0.98874086
41	0x3ee71902	0.45136267
42	0x3e0434cc	0.12910765
43	0x3e255e5d	0.16149278
44	0x3f203634	0.6258271
45	0x3f1b82b3	0.60746306
46	0x3f4ef3f1	0.80840975
47	0x3e5b0a3a	0.2139062
48	0x3f6f8b44	0.9357188
49	0x3f56d4e8	0.8391862
50	0x3ebbc679	0.3667486
51	0x3ea37ebd	0.3193263
52	0x3f529292	0.822549
53	0x3f30dab6	0.69083726
54	0x3ed383f4	0.4131161
55	0x3f1d19e4	0.6136763
56	0x3f2439ec	0.6415088
57	0x3f17b86b	0.59265774
58	0x3e56a012	0.209595
59	0x3f2e0162	0.6797086
60	0x3f1706f1	0.58994967
61	0x3f8687e5	1.0510222
62	0x3f88d1b2	1.0688994
63	0x3f212c6e	0.6295842
64	0x3f6c8568	0.9239106
65	0x3f330155	0.6992391
66	0x3f2af15d	0.6677454
67	0x3e3d3da5	0.18480547
68	0x3f5b8940	0.857563
69	0x3f16b9f8	0.58877516
70	0x3f8080f5	1.0039355
71	0x3ea15ce5	0.31516185
72	0x3ec8adb5	0.39195028
73	0x3eaf7377	0.3426778
74	0x3f5b3c48	0.85638857
75	0x3f14fde6	0.5819992
76	0x3ea8833b	0.3291262
77	0x3f382b17	0.7194075
78	0x3ef97d14	0.4872824
79	0x3eb006d8	0.3438022
80	0x3f211e9f	0.6293735
81	0x3f2bc273	0.6709358
82	0x3f5403cd	0.828183
83	0x3e0b0355	0.1357549
84	0x3e4cf086	0.20013627
85	0x3f1f2f71	0.62181765
86	0x3eeaa8a9	0.45831802
87	0x3f1c474b	0.61046284
88	0x3e9fa415	0.31179872
89	0x3f4598ab	0.7718608
90	0x3e8ae057	0.27124283
91	0x3f07bed0	0.5302553
92	0x3f19ff66	0.6015533
93	0x3e3cd62e	0.18441078
94	0x3e9e37ba	0.3090189
95	0x3ee125e0	0.4397421
96	0x3f27b1f5	0.65505916
97	0x3e475121	0.19464542
98	0x3e4c076a	0.19924703
99	0x3f5c1685	0.8597186
100	0x3f72b477	0.9480662
101	0x3f47281c	0.7779558
102	0x3f44567f	0.7669448
103	0x3e84812f	0.2587981
104	0x3db9e78d	0.09077368
105	0x3f08dd86	0.5346302
106	0x3f895c92	1.0731375
107	0x3f0a5c95	0.5404752
108	0x3df98aa5	0.121846475
109	0x3f29a6d6	0.66270196
110	0x3f351760	0.7073879
111	0x3eb9815c	0.36231506
112	0x3edf4388	0.4360621
113	0x3f1c2a0f	0.61001676
114	0x3ef7b0b7	0.4837701
115	0x3f542d8b	0.82881993
116	0x3f7c2d61	0.9850674
117	0x3e22d9fd	0.15903468
118	0x3ef587e3	0.47955236
119	0x3eb7ce89	0.3589976
120	0x3f7eefb5	0.99584514
121	0x3f140e19	0.5783401
122	0x3f727ea7	0.94724506
123	0x3e9e0f8d	0.3087124
124	0x3efa32e4	0.4886695
125	0x3f41ff07	0.75779766
126	0x3f2f2f4b	0.6843154
127	0x3e0d4256	0.13794836
128	0x3f2ef3fe	0.6834105
129	0x3e91539e	0.28384107
130	0x3f826f0a	1.0190136
131	0x3f6b95c0	0.92025375
132	0x3f0fa89e	0.56116664
133	0x3f3db683	0.74106616
134	0x3f265942	0.64979947
135	0x3f426457	0.75934356
136	0x3f0c7432	0.548648
137	0x3df4518a	0.11929615
138	0x3ebc6eed	0.3680338
139	0x3f253507	0.6453404
140	0x3f01fbd8	0.5077491
141	0x3f6ba63e	0.9205054
142	0x3f110e40	0.5666237
143	0x3eb3e50f	0.35135695
144	0x3ea1bcd4	0.31589377
145	0x3e3f5af5	0.18687041
146	0x3f133d05	0.57514983
147	0x3f0100fb	0.5039212
148	0x3f43689f	0.76331514
149	0x3f209ad8	0.6273627
150	0x3f6e8393	0.93169516
151	0x3e69bf84	0.22826964
152	0x3f6263e6	0.8843368
153	0x3f0fd3fb	0.5618283
154	0x3edaf2ac	0.4276327
155	0x3f3e57d0	0.7435274
156	0x3edcd73c	0.4313296
157	0x3e05b6c4	0.13058001
158	0x3f2848a2	0.6573583
159	0x3f2a5168	0.66530466
160	0x3e9826af	0.29717013
161	0x3eea4d50	0.4576211
162	0x3e5ee322	0.21766332
163	0x3ee6a88e	0.45050472
164	0x3f6e85b2	0.9317275
165	0x3f3be052	0.7338916
166	0x3f7361d7	0.95071167
167	0x3efdbd33	0.4955841
168	0x3f7ff949	0.99989754
169	0x3f239f00	0.6391449
170	0x3f710689	0.94150597
171	0x3eee568d	0.46550408
172	0x3e65c162	0.22437051
173	0x3ee2dc68	0.44308782
174	0x3f1fb245	0.6238139
175	0x3edd370e	0.43206066
176	0x3e0cac9d	0.13737722
177	0x3f272b7a	0.65300715
178	0x3f445680	0.7669449
179	0x3f3edadf	0.7455272
180	0x3f87c13c	1.0605845
181	0x3f6225ba	0.88338816
182	0x3f098711	0.5372172
183	0x3e4136d9	0.18868579
184	0x3edf8b6e	0.43661064
185	0x3e98b313	0.29824123
186	0x3f1a041d	0.60162526
187	0x3f347cd4	0.7050297
188	0x3f6cd464	0.9251158
189	0x3f885358	1.0650434
190	0x3e864b45	0.262293
191	0x3e93fc5b	0.2890347
192	0x3f543442	0.8289224
193	0x3dd53f75	0.10412494
194	0x3f140ed1	0.5783511
195	0x3f5f2704	0.8716891
196	0x3f06cc6f	0.5265569
197	0x3f1df377	0.6169962
198	0x3f4ce39a	0.8003479
199	0x3f4f46f2	0.8096763
200	0x3e3c081f	0.18362473
201	0x3f512666	0.81699216
202	0x3eb24911	0.3482137
203	0x3f110894	0.56653714
204	0x3e5fdc05	0.21861275
205	0x3ef2c47e	0.47415537
206	0x3f4ee6aa	0.80820715
207	0x3f26ea95	0.65201694
208	0x3f4036b3	0.75083464
209	0x3f2d7c8b	0.6776816
210	0x3f742384	0.9536669
211	0x3f3d769c	0.7400911
212	0x3f162068	0.586432
213	0x3f43f6c3	0.76548404
214	0x3ea7644c	0.32693708
215	0x3f030239	0.51175267
216	0x3e750d99	0.23930968
217	0x3f45c058	0.7724662
218	0x3f800253	1.0000709
219	0x3f62deee	0.88621414
220	0x3f7cb613	0.98715323
221	0x3eb33b1d	0.35006037
222	0x3f5b10c8	0.8557248
223	0x3e977ab1	0.29585794
224	0x3efdb37d	0.49551
225	0x3f216929	0.63051087
226	0x3f2944ed	0.661208
227	0x3f3a535d	0.7278345
228	0x3ef6525e	0.48109716
229	0x3f02c149	0.5107618
230	0x3f3c2a98	0.7350249
231	0x3f387963	0.7206022
232	0x3f2714d0	0.6526613
233	0x3f79e369	0.97612625
234	0x3eed0ffe	0.46301264
235	0x3f796f8a	0.9743582
236	0x3f1f0ea7	0.6213173
237	0x3f073781	0.5281907
238	0x3f52edbc	0.82394004
239	0x3ec99c10	0.3937688
240	0x3f8734df	1.056301
241	0x3e8b8ecc	0.27257383
242	0x3f5f306b	0.87183255
243	0x3e303401	0.17207338
244	0x3f1d01e0	0.61330986
245	0x3f04157f	0.515953
246	0x3f7c6073	0.9858467
247	0x3e42bb0b	0.19016664
248	0x3f4c41ef	0.79788107
249	0x3f093401	0.53594977
250	0x3e4b8c8b	0.19877832
251	0x3f14351f	0.57893556
252	0x3f71b1d7	0.9441199
253	0x3f866fb7	1.0502843
254	0x3f6317fb	0.88708466
255	0x3f6ac8e3	0.9171278

bn1.bias f4 [512]
0	0x3ad41f58	0.0016183658
1	0xbd159756	-0.03652128
2	0xbd73e4b7	-0.05954429
3	0x3bfa651e	0.0076414486
4	0x3cc21aa4	0.023694344
5	0xbceb0538	-0.028689012
6	0x3ca790ff	0.020454882
7	0x3dd70e3b	0.10500761
8	0xbc76aa16	-0.0150552
9	0xbd5cc9ce	-0.053903393
10	0x3d82ede4	0.0639303
11	0x3c81d03d	0.015846366
12	0x3d61e8e4	0.055153742
13	0x3e12342d	0.14277716
14	0x3d52e3d2	0.051486798
15	0x3db0efd3	0.08639493
16	0x3ca539ee	0.020169225
17	0xbb4fcbc7	-0.0031707154
18	0x3c96ed7a	0.018423785
19	0x3dd88945	0.10573057
20	0x3d9d7b69	0.07689554
21	0xbca85889	-0.02055003
22	0x3cb8469f	0.022494612
23	0xbd6e90f2	-0.0582437
24	0x3d4083c6	0.04700067
25	0xbcc310a5	-0.023811648
26	0x39d2fa1c	0.00040240667
27	0xbe53e2e0	-0.20692015
28	0xbcaffd66	-0.021483134
29	0xbcc21532	-0.023691747
30	0xbd2b6563	-0.041844737
31	0xbcf8c7c1	-0.030368688
32	0x3daff708	0.08592039
33	0xbdbec6f9	-0.09315295
34	0x3936c4ba	0.00017430159
35	0xbc35aa82	-0.0110880155
36	0xbcf77842	-0.03020871
37	0xbd399ccb	-0.045315545
38	0x3c495d09	0.012290248
39	0x3bd84d33	0.0066009997
40	0x3d75b94e	0.059991173
41	0x3d419592	0.047261782
42	0xbe66f642	-0.22554877
43	0x3a7a32bc	0.0009544303
44	0xbd375852	-0.044761963
45	0xbced7dc3	-0.028990632
46	0xbad01112	-0.0015874228
47	0x3d92ed53	0.07174172
48	0xbd2d28b1	-0.042275134
49	0xbd200d69	-0.03907529
50	0xbcc45d2d	-0.02397021
51	0xbd4bc988	-0.049752742
52	0x3b3c7497	0.0028756016
53	0xbd2aadf1	-0.04166979
54	0x3c5597d7	0.01303669
55	0xbda0bbce	-0.07848321
56	0xbd042508	-0.03226188
57	0x3aa5223e	0.0012598706
58	0xbd87ac29	-0.06624634
59	0xbcdf5f9d	-0.027267272
60	0xbbcf8c8f	-0.0063338946
61	0xbdc65299	-0.09683723
62	0xbd6188a8	-0.055061966
63	0xbd36915d	-0.044572223
64	0xbd3ac4c8	-0.04559782
65	0xba7ad881	-0.0009569005
66	0xbdb37e6c	-0.087643474
67	0xbda733de	-0.0816419
68	0xbd2b2ea1	-0.041792516
69	0xbc66fefe	-0.014098881
70	0x3c0984e3	0.008393499
71	0xbd23c0c9	-0.039978776
72	0x3d35c470	0.04437679
73	0xbce45f48	-0.027877465
74	0xbb7c6fc3	-0.0038518764
75	0x3d8a1a97	0.06743353
76	0xbc67d739	-0.014150434
77	0xbcdef0ce	-0.027214434
78	0xbcc9679e	-0.024585541
79	0xbd18a6ed	-0.037268568
80	0xbd49b517	-0.049244966
81	0xbd54edb4	-0.051984504
82	0x3d103987	0.035211112
83	0x3e22fa4b	0.15915792
84	0x3d2ec00a	0.04266361
85	0xbb37bca7	-0.002803603
86	0xbd823312	-0.06357397
87	0xbc849a5a	-0.016186882
88	0xbbde4018	-0.006782543
89	0xbc86a237	-0.016434772
90	0x3d7cdd81	0.06173468
91	0x3c3598cc	0.011083793
92	0xbd688387	-0.05676606
93	0x3da5f46f	0.08103263
94	0x3d3a0338	0.045413226
95	0x3d87a1ed	0.06622682
96	0xbd183886	-0.03716328
97	0xbbec7b76	-0.007216866
98	0xbc96f89b	-0.018429091
99	0xbce60a09	-0.028080957
100	0xbc6dd1e6	-0.014515376
101	0xbc16ef0b	-0.009212266
102	0xbd0a6280	-0.033785343
103	0x3cb21a4a	0.021741051
104	0xbe223784	-0.1584149
105	0xbd56208b	-0.05227713
106	0xbc93692a	-0.017994482
107	0xbd138b7c	-0.036021695
108	0xbdcca2ae	-0.09991966
109	0xbd08e5ac	-0.033422157
110	0xbd066810	-0.032814085
111	0xbcf00d0b	-0.029303094
112	0xbdc08bc3	-0.094016574
113	0xbd289803	-0.041160595
114	0xbd1254db	-0.035725456
115	0xbd0ce4ac	-0.034397766
116	0x3da01ce4	0.078180104
117	0xbe2f605b	-0.171266
118	0xbd7ba682	-0.06143809
119	0xbcdb8392	-0.026796136
120	0xbd04fe2c	-0.03246896
121	0xbcd60388	-0.02612473
122	0xbdb8f67c	-0.09031388
123	0x3d2715f8	0.040792435
124	0xbd155fb2	-0.036468215
125	0xbd59013a	-0.052979685
126	0xbd417525	-0.04723086
127	0x3d7d1228	0.061784893
128	0xbb939cd3	-0.004504779
129	0xbe14d392	-0.14533833
130	0xbd0a9169	-0.03383008
131	0xbd4f8e5d	-0.050672878
132	0xbd06599c	-0.032800302
133	0x3d32a217	0.043611612
134	0xbced7013	-0.028984105
135	0xbdad3d6d	-0.08458982
136	0xbd912d52	-0.07088722
137	0x3d216399	0.039401624
138	0x3d03d186	0.03218224
139	0xbc02d27a	-0.007984752
140	0xbc093ba0	-0.008376032
141	0xbc713fd0	-0.014724687
142	0xbcb455cf	-0.022013573
143	0xbdc3c603	-0.09559252
144	0xbdb40837	-0.08790629
145	0xbdb078c3	-0.086167835
146	0xbca43d65	-0.020048806
147	0x3c60cc8e	0.013720645
148	0xbc76cbdf	-0.015063255
149	0xbdd991f1	-0.10623539
150	0xbd6c9c7c	-0.057766423
151	0xbde5fec4	-0.11230233
152	0x3c975b1b	0.01847606
153	0x3d09c4ce	0.033634953
154	0xbb8b3652	-0.004248419
155	0xbd0bbf85	-0.034118194
156	0xbcf520e2	-0.029922906
157	0x3dedd055	0.11612002
158	0xbd5786e8	-0.05261889
159	0x3d333646	0.04375293
160	0xbd5a8cba	-0.053356864
161	0x3d438434	0.0477335
162	0xbca42c08	-0.020040527
163	0x3d589d2a	0.05288426
164	0xbd268acd	-0.040659714
165	0xbdd90e1f	-0.105983965
166	0x3cbfc759	0.023410486
167	0xbba19e4b	-0.0049322
168	0xba83a5fd	-0.0010043975
169	0xbd12913c	-0.035783038
170	0xbccfbbb4	-0.025358059
171	0x3a0a4d4a	0.0005275799
172	0xb778869f	-1.4813296e-05
173	0xbd01fd44	-0.031735674
174	0xbd8573f5	-0.06516258
175	0xbc46c5f7	-0.012132159
176	0x3c3129bc	0.010813173
177	0x3d1702c1	0.03686786
178	0xbda0d7e2	-0.078536764
179	0xbc07fd7d	-0.008300182
180	0xbd9d22e4	-0.076726705
181	0x3cd5e222	0.026108805
182	0x3d244f52	0.04011471
183	0xbdc91fdd	-0.098205306
184	0xbd5ce2f8	-0.05392739
185	0xbde450e0	-0.11148238
186	0x3cca77f2	0.024715398
187	0xbd09e8e8	-0.033669382
188	0xbc821a98	-0.015881822
189	0x3ce2b36b	0.027673444
190	0xbdaad9f1	-0.0834235
191	0xbcc39819	-0.023876237
192	0xbcf0fbc3	-0.029416924
193	0xbc53451c	-0.012894895
194	0xbd237d75	-0.039914567
195	0xbd818683	-0.06324484
196	0xbbb5c5c6	-0.005547258
197	0xbc756192	-0.014976876
198	0xbd9c2fa9	-0.07626278
199	0xbc4d40b2	-0.012527632
200	0xbd7eab36	-0.062175
201	0xbd3100f9	-0.04321382
202	0xbdd18d2b	-0.10232004
203	0xbd4e34d6	-0.050343357
204	0xbda11a3a	-0.078663304
205	0xbd28e2c9	-0.041231904
206	0x3d63b7cc	0.055595204
207	0xbb655c4e	-0.0034997645
208	0x3c264f4f	0.010150745
209	0x3d3c8441	0.046024565
210	0xbd807ed8	-0.062741935
211	0x3c7fa6ce	0.015603734
212	0x3b8eb42d	0.0043549747
213	0xbc2124b7	-0.009835414
214	0xbcf2b62d	-0.029627884
215	0x3caa53cc	0.02079191
216	0xbe3db0c5	-0.18524463
217	0x3ccceaa5	0.025014231
218	0xbce6b36d	-0.028161729
219	0xbb0a7324	-0.0021125758
220	0xbcd3909b	-0.02582579
221	0xbd658404	-0.056034103
222	0x3c3f23ff	0.011666297
223	0xbc96ac24	-0.01839263
224	0xbd677f63	-0.05651797
225	0x3cba7c88	0.02276446
226	0x3c0ab705	0.008466487
227	0x3cd2ced9	0.025733398
228	0x3c75a134	0.014992047
229	0xbd8ec19e	-0.06970523
230	0x3dbdc7c8	0.09266621
231	0xbcea9544	-0.028635629
232	0xbd98b5d6	-0.074565575
233	0x3b9902ed	0.0046695382
234	0x3d6a2acd	0.057169724
235	0xbc0e8416	-0.008698484
236	0xbd7cd899	-0.06173
237	0x3d75c2bd	0.06000017
238	0xbcfa5e7f	-0.030562637
239	0xbd6b4cb9	-0.057446215
240	0xbd525644	-0.0513518
241	0x3d3f4899	0.046700094
242	0xbd8b8e3f	-0.06814241
243	0xbdb29217	-0.08719271
244	0xbd19fa0b	-0.037591975
245	0xbc57270b	-0.013131867
246	0xbc1fcb80	-0.009753108
247	0x3d25f034	0.04051228
248	0xbd272e28	-0.040815502
249	0x3c2396d3	0.00998469
250	0xbd8299e9	-0.06377012
251	0xbd5562cd	-0.052096177
252	0xbd017af5	-0.0316114
253	0xbc169fca	-0.00919337
254	0xbc219e58	-0.009864412
255	0x3d1e7f60	0.038695693
