3 - Collab -MADDPG/trained_agents/maddpg_tennis_checkpoint_critic_target_0.pth (torch_old, 644536 bytes, 9 tensors)

fc1.weight f4 [512, 52]
-0.20188083 -0.055807415 0.0066158995 0.06786185 0.36810392 -0.14127515 0.019169737 0.023238072
-0.029793194 0.053007413 -0.002636928 0.17832538 0.26859483 -0.060691062 0.028242135 0.1797063
0.17338832 -0.002516586 0.02017442 0.08933656 0.16520424 0.26783267 -0.056808915 0.12031725
0.17797825 -0.08203982 -0.046527017 0.023890361 -0.33076978 -0.1281661 0.018469127 0.00063479674
0.47864196 -0.069487266 0.021433951 -0.059550755 -0.23248202 -0.100165434 -0.040737405 -0.09464702
0.7490622 -0.13890347 -0.012717538 -0.12940484 -0.15260412 0.24654259 0.073541425 -0.14922838
1.5665982 0.8979814 0.7782523 -0.92178077 0.28157395 1.0945984 -0.08001884 -0.15814155
-0.18781595 0.148746 -0.041997313 -0.1432431 0.36069122 1.107772 0.15099327 -0.048385993
-0.12337256 -0.26916793 0.15576631 0.006280598 0.24334751 1.162039 0.19169897 -0.4108815
-0.016260475 -0.80420285 0.12105853 -0.40277812 0.031702526 0.052852273 -0.015396137 -0.10601051
0.21265005 0.18927528 -0.035607446 -0.13013707 0.08597382 -0.012038308 -0.14360853 -0.17618425
0.1421895 -0.23408951 -0.18356128 -0.17205007 0.05561246 -0.07623455 -0.1391853 -0.13614956
0.0341631 -0.7278677 -0.11601063 -0.06970568 -0.040976416 -0.5595064 -0.22912374 -0.36925665
-0.051692948 -0.1267908 0.040350765 -0.027716635 0.13514113 -0.105742946 0.008769522 -0.041391734
-0.054217596 -0.123567365 -0.014283948 -0.24180785 -0.077233404 -0.29774952 0.03082077 -0.21996412
-0.10834073 -0.2592402 -0.046456765 -0.88349795 -0.3477396 -0.52370244 0.00044373362 -0.9258141
0.22534788 -0.37764132 -0.0010548029 -0.18923247 -0.07089204 -0.12672925 0.029892003 -0.14911187
0.42455187 -0.28295982 0.04797345 -0.052824493 0.12613717 -0.24739778 0.00027236607 -0.013113458
0.3855399 -0.095850095 0.013464038 0.047048464 0.3728797 -0.5130042 -0.035940003 0.0680446
-1.1206828 1.0009669 1.114037 0.47129914 0.21821874 0.17983872 -0.051248167 -0.12175254
0.079757854 -0.22266066 -0.061966214 -0.13245086 -0.023832742 0.10132497 -0.04857952 0.00958407
0.07538463 -0.13763154 -0.014891075 -0.010300692 -0.088669516 0.052044243 -0.094005354 -0.2259468
0.16020025 -0.22088894 -0.04404929 -0.21696624 0.011024362 0.33269954 -0.12224765 0.0976057
-0.1076336 -0.19772977 -0.08897252 0.097130775 0.08418066 0.32985073 0.11913309 0.3460854
-0.1353871 -0.062116668 0.09364769 0.3508091 0.28342953 0.27602094 0.07452631 0.024770647
-0.18087877 -0.20951451 0.021422751 0.012125927 2.7593577 -0.057457574 1.5681866 -0.14541326
-0.031258944 -0.037186418 -0.01718691 0.007321456 -0.3677019 0.06112926 0.0064371345 0.0031014027
0.22419906 0.20432171 0.012686738 -0.051498234 -0.26838806 -0.31312522 -0.02960558 -0.029989608
0.23010191 0.22105817 -0.05955557 0.87233305 -0.074183404 -0.17999414 -0.026623787 0.90346074
-0.12994322 1.2564342 0.009730826 0.24968676 0.306351 0.068509616 0.058858432 0.28139466
-0.0251907 1.4217665 0.024932412 -0.10693346 0.21581668 -0.2742253 0.022437964 -0.11475115
0.065025374 1.4207661 0.054603875 -0.3527417 0.008768897 -0.25058028 -0.015554891 -0.3123609
00000000: d9b9 4ebe 5196 64bd 30ca d83b 27fb 8a3d
00000010: 1e78 bc3e 6faa 10be da09 9d3c c55d be3c
00000020: db10 f4bc 4d1e 593d 50d0 2cbb ee9a 363e
00000030: 4385 893e 3197 78bd 0d5c e73c ee04 383e
00000040: b58c 313e 4fed 24bb d344 a53c 16f6 b63d
00000050: 4d2b 293e 5d21 893e 77b0 68bd e468 f63d
00000060: ee3f 363e 7e04 a8bd 1d93 3ebd b8b5 c33c
00000070: a85a a9be f93d 03be 914c 973c 7d68 263a
00000080: 8f10 f53e 574f 8ebd 4196 af3c 7eeb 73bd
00000090: c40f 6ebe 8923 cdbd 44dc 26bd 4cd6 c1bd
000000a0: 8ac2 3f3f b63c 0ebe 385d 50bc b482 04be
000000b0: 4144 1cbe a975 7c3e e39c 963d 53cf 18be
000000c0: 4a86 c83f 1ce2 653f 8b3b 473f d3f9 6bbf
000000d0: 762a 903e cd1b 8c3f ebe0 a3bd dcef 21be
000000e0: d352 40be df50 183e 6005 2cbd 52ae 12be
000000f0: 85ac b83e 79cb 8d3f fb9d 1a3e 6430 46bd
00000100: c1aa fcbd 61d0 89be 3481 1f3e 7acd cd3b
00000110: 1730 793e b2bd 943f bc4c 443e 0f5f d2be
00000120: b034 85bc 3de0 4dbf 89ed f73d ef38 cebe
00000130: 82da 013d a07b 583d 1440 7cbc 0a1c d9bd
00000140: efc0 593e 61d1 413e 1dd9 11bd a742 05be
00000150: 0b13 b03d 533c 45bc 1d0e 13be a569 34be
00000160: 209a 113e 29b5 6fbe 7df7 3bbe e52d 30be
00000170: e4c9 633d dc20 9cbd 9786 0ebe ca6a 0bbe
00000180: 9bee 0b3d 8a55 3abf fb96 edbd dac1 8ebd
00000190: e3d6 27bd d03b 0fbf 6a9f 6abe 350f bdbe
000001a0: fcbb 53bd 73d5 01be d846 253d ff0d e3bc
000001b0: 7062 0a3e c28f d8bd 0bae 0f3c 618a 29bd
000001c0: 4513 5ebd e310 fdbd 3807 6abc 7a9c 77be
000001d0: 8c2c 9ebd a072 98be d77b fc3c 463e 61be
000001e0: bfe1 ddbd 22bb 84be 7349 3ebd ec2c 62bf
000001f0: ed0a b2be 5d11 06bf eba4 e839 2702 6dbf
00000200: 98c1 663e 345a c1be 5041 8aba 28c6 41be
00000210: d92f 91bd 50c5 01be 13e0 f43c c8b0 18be
00000220: dd5e d93e 1ce0 90be cf7f 443d 7f5e 58bd
00000230: 1a2a 013e d855 7dbe 5bcc 8e39 d4d9 56bc
00000240: 7c65 c53e 0e4d c4bd 4598 5c3c e4b5 403d
00000250: 17ea be3e 3e54 03bf d335 13bd f85a 8b3d
00000260: 8972 8fbf af1f 803f c498 8e3f 1f4e f13e
00000270: bc74 5f3e a427 383e 99e9 51bd 6559 f9bd
00000280: 1658 a33d 2801 64be 49d0 7dbd 33a1 07be
00000290: e23c c3bc 7783 cf3d 52fb 46bd 8106 1d3c
000002a0: 4263 9a3d 48ef 0cbe b2f9 73bc 3cc4 28bc
000002b0: 5d98 b5bd 582c 553d e185 c0bd 995e 67be
000002c0: 890b 243e b630 62be 076d 34bd 662c 5ebe
000002d0: 879f 343c 9857 aa3e fa5c fabd 7fe5 c73d
000002e0: 016f dcbd ac79 4abe 3937 b6bd 80ec c63d
000002f0: e966 ac3d 32e2 a83e 0dfc f33d 1b32 b13e
00000300: eaa2 0abe 0c6e 7ebd 5cca bf3d 409d b33e
00000310: ad1d 913e 9e52 8d3e 40a1 983d d0eb ca3c
00000320: 4938 39be f98a 56be c47e af3c d3ab 463c
00000330: 5199 3040 a258 6bbd 57ba c83f 37e7 14be
00000340: 6109 00bd c950 18bd 90cb 8cbc d3e8 ef3b
00000350: 6c43 bcbe ad62 7a3d 99ee d23b e740 4b3b
00000360: 7094 653e b639 513e 09dc 4f3c d0ef 52bd
00000370: 296a 89be f351 a0be 6787 f2bc c4ac f5bc
00000380: d69f 6b3e 135d 623e 8bf0 73bd 3851 5f3f
00000390: 78ed 97bd 6250 38be 211a dabc 3449 673f
000003a0: d60f 05be d6d2 a03f 0b6e 1f3c e3ad 7f3e
000003b0: 0ada 9c3e c54e 8c3d 8a15 713d f612 903e
000003c0: ba5c cebc 72fc b53f 0f3f cc3c eeff dabd
000003d0: 0cff 5c3e 4267 8cbe d2cf b73c a702 ebbd
000003e0: 062c 853d aadb b53f 50a8 5f3d 8f9a b4be
000003f0: 6bab 0f3c 0f4c 80be f1d9 7ebc c5ed 9fbe

fc1.bias f4 [512]
-0.57032436 -0.29666346 0.1525583 -0.1873805 -0.37474707 -0.18958531 -0.51186633 -0.28436813
-0.32238623 -0.41955248 0.02312087 -0.16360107 -0.52917737 -0.28119642 -0.30899215 -0.48782614
-0.4760264 -0.27973 -0.09534196 -0.21120103 -0.30086714 -0.41218737 -0.14792423 -0.12899043
-0.23233296 -0.34228337 0.003766396 -0.3810458 -0.20629832 -0.453487 -0.43008918 -0.21784064
-0.13031523 0.3316028 -0.013888904 -0.49551764 -0.77992177 -0.28120327 -0.1693431 -0.38510293
-1.2181959 -0.13167745 -0.06760551 -0.6156047 -0.95498514 -0.28617403 -0.10098841 -0.22047843
-0.046118725 -0.5243471 -0.099689305 -0.41473666 -0.3735907 -0.46882093 -0.5095973 -0.6779928
-0.35492295 -0.46123677 0.010591616 -0.37114906 -0.23871706 -0.3884748 -0.16977403 0.11122973
-0.07774105 0.08714528 0.17151965 0.15661037 -0.40984377 -0.06353897 0.090619385 -0.39063233
-0.23571336 -0.24803014 -0.33077574 -0.72641194 -0.44582954 -0.5554232 -0.14338972 -0.51258427
-0.47941333 -0.20367129 -0.10846194 -0.080900066 0.13315555 0.38239443 -0.42147443 -0.42471543
0.015496196 -0.04902272 -0.46291304 -0.39957806 0.34618935 0.0740319 -0.16680433 -0.29165995
-0.08260407 -0.7959296 -0.23033765 -0.10135577 0.37356988 0.012436253 -0.14369307 -0.5838787
0.2513643 -0.58627254 -0.077735186 0.030177115 -0.25170946 -0.72338194 -1.0950963 -0.37073815
0.13244806 -0.025402766 -0.5246088 -0.3636324 0.12125896 0.40328297 -0.42127874 -0.45731246
-0.0042108283 -0.28138116 -0.3030592 -0.8738354 -0.112136535 -0.7068949 0.3299116 0.29571483
-0.3553114 -0.4900578 -0.04967099 -0.17772518 -0.08024161 -0.13492677 0.1836274 -0.099565096
-0.24349628 -0.6604772 -1.0058752 -0.43936047 -0.42317683 -0.12416287 -0.4169855 -0.5833133
-0.45747593 0.035291877 -0.024095517 0.05134336 -0.2384935 0.090927504 -0.24982259 0.28008857
-0.17368196 -0.22901595 -0.46174017 -0.29103136 0.051561106 -0.51602453 -0.46986562 -0.48351568
0.17306815 -0.43661693 -0.35169563 -0.22868071 -0.05342378 -0.3072825 0.0072978893 -0.23260306
0.088541225 0.022220016 -0.12594193 -0.12451989 -0.44576854 -0.16101176 -0.33474755 -0.27065176
-0.24142411 -0.44317722 -0.19781625 0.062142342 -0.43020564 -0.11187252 -0.20408963 -0.112830974
0.1250068 -0.39614794 -0.01514817 0.108310804 0.07517002 -0.00454618 0.14123333 0.037651844
0.20924911 -0.20298837 -0.49922955 -0.4540579 -0.4631702 -0.88653 -0.8296907 -0.06820722
0.12411652 -0.32074097 -0.39681756 -0.2632243 -0.68428445 -0.38658267 -0.5174428 -0.40768486
0.0007170394 -0.018609244 -1.0897319 -0.20319997 0.014770035 -0.2969529 0.068463944 -0.07728998
-0.11309766 -0.5524251 -0.00011694725 -0.07811015 -0.36093974 -0.41108528 -0.6071965 -1.5022475
-0.66984916 0.01744389 0.0034055347 -0.111032516 -0.08775227 -0.4449699 -0.22557071 -0.5082815
-0.2720368 0.36987066 -0.29289073 -0.31941804 -0.041297227 -0.29862234 0.33573633 -0.14704229
-0.11049716 -0.37871847 -0.059721176 -0.28842404 -0.5048336 -0.53668153 -0.46266395 -0.2475971
-0.2423569 -0.23208159 -0.32211918 -0.49096602 -0.069725156 -0.25187725 0.07007898 -0.14418446
00000000: c700 12bf 46e4 97be 3e38 1c3e ace0 3fbe
00000010: d9de bfbe a722 42be ac09 03bf b398 91be
00000020: cf0f a5be 95cf d6be fb67 bd3c 0a87 27be
00000030: 2b78 07bf faf8 8fbe 3834 9ebe 59c4 f9be
00000040: bbb9 f3be c538 8fbe a542 c3bd 1545 58be
00000050: 420b 9abe 390a d3be 7379 17be 1116 04be
00000060: b1e8 6dbe c43f afbe a4d5 763b 6f18 c3be
00000070: de3f 53be 732f e8be a634 dcbe 9e11 5fbe
00000080: 5b71 05be d8c7 a93e 498e 63bc 7db4 fdbe
00000090: f4a8 47bf e0f9 8fbe 4768 2dbe 362c c5be
000000a0: d8ed 9bbf 74d6 06be c274 8abd 4598 1dbf
000000b0: e879 74bf 6785 92be 03d3 cebd 19c5 61be
000000c0: fde6 3cbd 9d3b 06bf e829 ccbd 5d58 d4be
000000d0: 4847 bfbe 4c09 f0be f874 02bf f090 2dbf
000000e0: 76b8 b5be 3a27 ecbe 7588 2d3c 4007 bebe
000000f0: 3f72 74be 2be6 c6be 3ed9 2dbe 6acc e33d
00000100: b336 9fbd 3979 b23d d9a2 2f3e 785e 203e
00000110: 0bd7 d1be b820 82bd a896 b93d f600 c8be
00000120: d85e 71be 9dfb 7dbe 705b a9be 22f6 39bf
00000130: c543 e4be 3730 0ebf c1d4 12be b938 03bf
00000140: aa75 f5be 358f 50be 4b21 debd efae a5bd
00000150: ee59 083e 34c9 c33e 7fcb d7be 4d74 d9be
00000160: c2e3 7d3c 0ccc 48bd f002 edbe 7f95 ccbe
00000170: bb3f b13e 099e 973d c1ce 2abe 7454 95be
00000180: 532c a9bd 0bc2 4bbf a2dd 6bbe 9d93 cfbd
00000190: 8d44 bf3e 6dc1 4b3c 4724 13be 1379 15bf
000001a0: d2b2 803e f515 16bf a033 9fbd ff35 f73c
000001b0: 10e0 80be 8f2f 39bf 1e2c 8cbf 64d1 bdbe
000001c0: 77a0 073e 7619 d0bc c34c 06bf 072e babe
000001d0: 9e56 f83d 1b7b ce3e d9b1 d7be dc24 eabe
000001e0: fdfa 89bb 3111 90be 932a 9bbe adb3 5fbf
000001f0: d7a7 e5bd 10f7 34bf 2cea a83e ef67 973e
00000200: 60eb b5be dbe8 fabe cf73 4bbd 97fd 35be
00000210: b755 a4bd 3e2a 0abe d208 3c3e c9e8 cbbd
00000220: 1757 79be 0915 29bf 85c0 80bf dbf3 e0be
00000230: a2aa d8be 1a49 febd 207f d5be 0554 15bf
00000240: 493a eabe 378e 103d f663 c5bc 6a4d 523d
00000250: a437 74be 3338 ba3d 7ed1 7fbe c567 8f3e
00000260: afd9 31be 2883 6abe 3569 ecbe 1002 95be
00000270: bd31 533d 2f1a 04bf 3a92 f0be 5e8f f7be
00000280: c738 313e 418c dfbe 7311 b4be 472b 6abe
00000290: e5d2 5abd 2254 9dbe 2223 ef3b 7f2f 6ebe
000002a0: 1a55 b53d c006 b63c ecf6 00be 4904 ffbd
000002b0: c63b e4be 44e0 24be 0864 abbe de92 8abe
000002c0: e237 77be 20e8 e2be 5890 4abe f888 7e3d
000002d0: ea43 dcbe 6b1d e5bd dffc 50be ed13 e7bd
000002e0: c801 003e e7d3 cabe 0830 78bc 0ed2 dd3d
000002f0: bdf2 993d 1ff8 94bb 789f 103e d238 1a3d
00000300: 6645 563e 2fdc 4fbe 049b ffbe 477a e8be
00000310: a524 edbe a1f3 62bf 9c66 54bf 3ab0 8bbd
00000320: cd30 fe3d 2938 a4be ac2b cbbe 56c5 86be
00000330: 442d 2fbf 2aee c5be 2277 04bf 12bc d0be
00000340: b3f7 3b3a 6a72 98bc 567c 8bbf a713 50be
00000350: 04fe 713c 360a 98be d336 8c3d 364a 9ebd
00000360: bf9f e7bd bb6b 0dbf 9441 f5b8 37f8 9fbd
00000370: 18cd b8be c579 d2be 3b71 1bbf a549 c0bf
00000380: 3c7b 2bbf 7de6 8e3c 642f 5f3b 0465 e3bd
00000390: 76b7 b3bd 18d3 e3be 02fc 66be bd1e 02bf
000003a0: 6848 8bbe b05f bd3e c6f5 95be c38a a3be
000003b0: 4827 29bd 07e5 98be a2e5 ab3e 4192 16be
000003c0: 564c e2bd 63e7 c1be 319e 74bd 51ac 93be
000003d0: c63c 01bf f663 09bf 4ae2 ecbe 188a 7dbe
000003e0: 682c 78be cca6 6dbe ceec a4be e65f fbbe
000003f0: 10cc 8ebd 0ef6 80be 9185 8f3d 17a5 13be

fc2.weight f4 [256, 512]
-0.10291067 -0.09744486 0.18738224 -0.08405402 -0.15142785 0.049172185 0.1539368 0.012786886
0.2660586 -0.14931437 -0.16756186 0.01781793 0.06507722 -0.03414619 -0.521178 -0.36299258
-0.2592351 -0.16309397 -0.011746106 0.13008639 0.041507404 -0.24003047 -0.41005233 0.15828465
0.10343406 -0.15682617 0.107716955 -0.108289115 0.1480809 -0.028425325 0.22185907 0.11659834
-0.14829533 -0.12180831 -0.25255686 -0.051260117 0.1478343 -0.15470679 0.18757765 -0.2618029
0.020550655 0.306318 0.029860742 0.28927743 -0.08752673 0.051414125 -0.5647269 -0.41074947
-0.23742682 -0.01811468 0.28661913 -0.2094083 -0.14338286 0.0008548976 -0.09982808 -0.08428341
-0.056864474 0.2565577 -0.5324744 -0.40272793 0.15128611 -0.13216579 0.15854038 -0.08654533
-0.21987261 -0.040766135 0.13624279 0.13785486 -0.22204903 0.32547054 0.09432055 -0.0686926
0.08531185 -0.322243 -0.29028365 -0.12218943 -0.1656747 -0.12079965 -0.019591045 -0.024212979
-0.19209903 0.025545862 0.0174866 0.0045875013 0.24612218 -0.03159928 -0.5922299 0.19747247
0.3351786 0.07789962 -0.53794944 -0.1158902 0.308741 0.0017590416 -0.43362308 0.17681062
-0.115727164 0.26905608 -0.09351688 -0.32634434 -0.0060426556 0.09004848 -0.14518267 0.28005037
0.19036134 0.00956158 0.141195 -0.05243423 -0.13537452 -0.22122462 -0.28852868 -0.2582169
-0.2883293 -0.3086235 0.16483733 -0.11195656 -0.0062534157 -0.19207285 0.10039633 -0.13156305
0.11233633 0.14324698 0.060487173 0.02919219 -0.59839535 0.17189124 0.15145102 -0.34266052
0.017799014 0.12440962 0.2354311 0.063857645 0.02522733 0.26347983 -0.010078933 0.0014235884
0.23629141 0.34599572 0.14328259 0.24233346 0.011816697 -0.3388894 -0.13056965 -0.15627734
-0.35760307 -0.14859527 0.04729381 0.28545249 0.045903735 -0.018273182 -0.13871749 -0.120564945
0.10507575 -0.11186924 0.32684907 -0.02034856 -0.0026280107 -0.22163804 -0.097932436 0.20807186
0.074690305 0.17634906 -0.093141906 0.13625075 0.0742732 -0.3785161 0.00114381 -0.13674764
-0.33121926 -0.06610378 -0.18657206 -0.039910562 -0.08373427 -0.1728561 -0.030988561 -0.009029958
-0.032950163 0.15146568 0.022601642 -0.07388356 -0.090000875 -0.33230814 -0.07349005 0.101767294
0.03884135 -0.14208771 0.027293794 0.061357826 -0.2413424 -0.31023088 -0.012164726 -0.034378476
0.0813602 0.032655183 -0.040251642 -0.5038057 0.20911443 0.041496105 0.18132553 0.0020229158
0.026518306 0.2075164 -0.13982064 -0.45147067 -0.22023465 0.068321005 -0.18763584 -0.099483386
0.11823352 -0.44213426 -0.22052924 -0.37265173 -0.26260248 -0.13534959 -0.009569202 0.016779032
0.07717897 0.09295173 0.05151065 -0.13807333 -0.18165083 0.062290374 0.035718802 -0.33436203
0.02766644 0.022196854 -0.02255913 0.17773533 -0.030331958 -0.16615486 -0.05440867 -0.09705667
-0.12509526 0.31254798 -0.10743312 -0.08126964 0.2261924 0.010530347 -0.39146978 0.19374506
-0.12111877 -0.3236848 -0.33457422 -0.099824704 -0.32816333 0.04591324 0.05431507 -0.070163704
-0.7438687 0.0106432345 -0.1687421 -0.076464 0.12759826 0.17237626 -0.10944767 0.091756314
00000000: d4c2 d2bd 2c91 c7bd 21e1 3f3e 8424 acbd
00000010: e70f 1bbe c668 493d 9ca1 1d3e 1680 513c
00000020: d538 883e dee5 18be 5695 2bbe e8f6 913c
00000030: 3547 853d e0dc 0bbd ec6b 05bf 2ada b9be
00000040: 77ba 84be 1b02 27be bd72 40bc 5e35 053e
00000050: ab03 2a3d 8cca 75be 61f2 d1be 5f15 223e
00000060: 3dd5 d33d 0a97 20be b59a dc3d afc6 ddbd
00000070: 85a2 173e 3adc e8bc 062f 633e 1ccb ee3d
00000080: bbda 17be a376 f9bd 224f 81be 21f6 51bd
00000090: e061 173e 756b 1ebe 5b14 403e 080b 86be
000000a0: d959 a83c b7d5 9c3e 849e f43c 2c1c 943e
000000b0: 3741 b3bd 9e97 523d f191 10bf c14d d2be
000000c0: 0420 73be 3d65 94bc bebf 923e 216f 56be
000000d0: f5d2 12be 351b 603a aa72 ccbd c89c acbd
000000e0: b9ea 68bd 885b 833e 3e50 08bf 5b32 cebe
000000f0: bfea 1a3e 7856 07be 6958 223e ae3e b1bd
00000100: 4926 61be 64fa 26bd 3b83 0b3e d329 0d3e
00000110: d260 63be 13a4 a63e 222b c13d b5ae 8cbd
00000120: fbb7 ae3d 09fd a4be 0fa0 94be 743e fabd
00000130: a1a6 29be cf65 f7bd 667d a0bc 4c5a c6bc
00000140: 9cb5 44be 8e45 d13c 0f40 8f3c c052 963b
00000150: 7407 7c3e 3f6e 01bd 619c 17bf 3936 4a3e
00000160: 889c ab3e d689 9f3d 0eb7 09bf d757 edbd
00000170: 4d13 9e3e a48f e63a d803 debe d80d 353e
00000180: 5d02 edbd b8c1 893e c785 bfbd 9b16 a7be
00000190: 7801 c6bb 566b b83d c4aa 14be c362 8f3e
000001a0: 15ee 423e 2ca8 1c3c 6c95 103e 46c5 56bd
000001b0: 9e9f 0abe b588 62be 08ba 93be 0135 84be
000001c0: e69f 93be e603 9ebe 1ecb 283e 7b49 e5bd
000001d0: 74e9 ccbb bfae 44be 979c cd3d 77b8 06be
000001e0: 9710 e63d 56af 123e 66c1 773d 7624 ef3c
000001f0: 7030 19bf 4204 303e fa15 1b3e 3371 afbe
00000200: 3dcf 913c 79ca fe3d da14 713e ccc7 823d
00000210: 8ca9 ce3c d4e6 863e 1c22 25bc b397 ba3a
00000220: 60f6 713e 5a26 b13e acb8 123e 4326 783e
00000230: d29a 413c e982 adbe 0db4 05be 2b07 20be
00000240: c017 b7be 5c29 18be 27b7 413d d426 923e
00000250: 8e05 3c3d a4b1 95bc f50b 0ebe c1ea f6bd
00000260: f431 d73d b31b e5bd c358 a73e 06b2 a6bc
00000270: b43a 2cbb 15f5 62be cd90 c8bd ca10 553e
00000280: 3bf7 983d d994 343e 2fc1 bebd 5185 0b3e
00000290: 8c1c 983d ddcc c1be e5eb 953a 9307 0cbe
000002a0: 9295 a9be 6b61 87bd bf0c 3fbe 4279 23bd
000002b0: df7c abbd 3101 31be b9db fdbc 64f2 13bc
000002c0: c0f6 06bd d219 1b3e 1427 b93c 4450 97bd
000002d0: 6152 b8bd 4b24 aabe f481 96bd 5f6b d03d
000002e0: 1b18 1f3d 717f 11be 3c97 df3c 5852 7b3d
000002f0: 7622 77be 95d6 9ebe 8f4e 47bc 72d0 0cbd
00000300: 2da0 a63d 71c1 053d e8de 24bd 69f9 00bf
00000310: 1822 563e d2f7 293d 66ad 393e e592 043b
00000320: eb3c d93c 2e7f 543e 242d 0fbe 2a27 e7be
00000330: 3185 61be e2eb 8b3d 9c23 40be f2bd cbbd
00000340: 6a24 f23d 6c5f e2be 6bd2 61be 35cc bebe
00000350: d573 86be 1599 0abe 24c8 1cbc 2e74 893c
00000360: 0210 9e3d 7a5d be3d d5fc 523d 1863 0dbe
00000370: ad02 3abe 3124 7f3d e14d 123d 8031 abbe
00000380: bba4 e23c 2dd6 b53c edcd b8bc 4000 363e
00000390: ba7a f8bc 8024 2abe a0db 5ebd a6c5 c6bd
000003a0: f918 00be 4a06 a03e e505 dcbd b270 a6bd
000003b0: fb9e 673e 7a87 2c3c ba6e c8be 1b65 463e
000003c0: 1e0d f8bd 04ba a5be 504d abbe e570 ccbd
000003d0: 0605 a8be 860f 3c3d 7b79 5e3d fdb1 8fbd
000003e0: 2e6e 3ebf f660 2e3c bbca 2cbe 2899 9cbd
000003f0: 1ea9 023e 6783 303e 1a26 e0bd bcea bb3d

fc2.bias f4 [256]
-0.13665868 -0.16420546 -0.16205968 -0.11333597 -0.08336386 -0.08658804 -0.13997586 -0.20628473
-0.20512629 -0.10077413 -0.21847114 -0.11691975 -0.30336708 -0.10005141 -0.1326742 -0.14797635
-0.14222845 -0.117553055 -0.18455617 -0.12348379 -0.28013209 -0.16089737 -0.15825982 -0.07920261
-0.09171986 -0.20610982 -0.14288609 -0.18635885 -0.17072298 -0.11172663 -0.13885623 -0.0644346
-0.22389233 -0.11385147 -0.09476143 -0.07665629 -0.078772284 -0.15174714 -0.16770728 -0.09319203
-0.22330828 -0.09885185 -0.10573628 -0.14570884 -0.11941572 -0.109513775 -0.14011168 -0.30535245
-0.13444747 -0.13949902 -0.12753324 -0.17392115 -0.11921456 -0.10948397 -0.11704641 -0.15103267
-0.16845235 -0.100654915 -0.094739035 -0.18141653 -0.12960452 -0.09646764 -0.04817794 -0.10593745
-0.11614487 -0.09307013 -0.1723714 -0.17426156 -0.1967292 -0.102450535 -0.21160617 -0.18266824
-0.26335156 -0.14400856 -0.07924468 -0.15045053 -0.13130328 -0.15316357 -0.09626787 -0.09149804
-0.14908059 -0.14566746 -0.11806715 -0.14644305 -0.10597718 -0.15511134 -0.1230293 -0.10346382
-0.15884098 -0.2555771 -0.16298355 -0.12043592 -0.18353692 -0.102450535 -0.15642697 -0.14107856
-0.14106366 -0.12355085 -0.16502303 -0.15314867 -0.19423474 -0.07036792 -0.118603595 -0.068013504
-0.14322436 -0.29596528 -0.23684415 -0.08631982 -0.13957353 -0.14411844 -0.16778772 -0.20342703
-0.15415445 -0.08348111 -0.13823353 0.031720962 -0.05612781 -0.10432108 -0.1147105 -0.12716602
-0.14152561 -0.05788588 -0.14215922 -0.15617363 -0.09952241 -0.1004463 -0.117802605 0.04954971
-0.13081154 -0.00018566598 -0.10558853 -0.13507332 -0.12232894 -0.11840243 -0.11802989 -0.12897867
-0.048138198 -0.104559146 -0.16651066 -0.14669015 -0.14773947 -0.17222025 -0.1445702 -0.13064224
-0.08375678 -0.09299562 -0.17292276 -0.1412819 0.055454496 -0.0988593 -0.11021414 -0.07655943
-0.10055806 -0.14264321 -0.08636369 -0.14237499 -0.40030527 -0.13463385 -0.11715517 -0.14063153
-0.108418524 -0.18140163 -0.14370121 -0.16719607 -0.07854131 -0.076179445 -0.12390103 -0.11299618
-0.14122759 -0.18684062 -0.1293661 -0.20847642 -0.10493906 -0.11344028 -0.12718673 -0.20421574
-0.13737068 -0.12665406 -0.17543453 -0.09988005 -0.087191544 -0.15864727 -0.124891855 -0.098874204
-0.12369986 -0.15113698 -0.111955754 -0.0855822 -0.15268606 -0.24707636 -0.11595116 -0.1403335
-0.17134322 -0.11171235 -0.11949768 -0.13506582 -0.15513055 -0.09341286 -0.1353036 -0.10765111
-0.14985546 -0.14110836 -0.083548725 -0.2323402 -0.06522233 -0.088370755 -0.12139886 -0.13835162
-0.14204918 -0.20184554 -0.08874874 -0.17107844 -0.15627795 -0.10003651 0.14420147 -0.25757706
-0.21421938 -0.15831286 -0.25628117 -0.3102966 -0.1825256 -0.1358482 -0.056663807 -0.10072198
-0.09600305 -0.22547983 -0.18113475 -0.105997056 -0.08367424 -0.090611406 -0.23390023 -0.16344632
-0.14046761 -0.09573747 -0.11898358 -0.239436 -0.2740873 -0.096452735 -0.11300565 -0.14480391
-0.10275601 -0.2458826 -0.16289414 -0.11566803 -0.116301335 -0.13456419 -0.17332509 -0.13418478
0.097717494 -0.14864846 0.041378655 -0.1734512 -0.13674228 -0.13192913 -0.12529804 -0.1021227
00000000: 41f0 0bbe 7a25 28be f9f2 25be b01c e8bd
00000010: acba aabd 1255 b1bd d555 0fbe 4e3c 53be
00000020: a00c 52be ab62 cebd e6b6 5fbe 9f73 efbd
00000030: ee52 9bbe c1e7 ccbd bfdb 07be 1d87 17be
00000040: 56a4 11be a8bf f0bd 4bfc 3cbe 12e5 fcbd
00000050: 796d 8fbe 48c2 24be dd0e 22be fa34 a2bd
00000060: 9fd7 bbbd 740e 53be bb50 12be dbd4 3ebe
00000070: 01d2 2ebe eed0 e4bd 5430 0ebe 4af6 83bd
00000080: 0844 65be f62a e9bd 4812 c2bd f9fd 9cbd
00000090: 5d53 a1bd 9a63 1bbe 75bb 2bbe 77db bebd
000000a0: edaa 64be d772 cabd 438c d8bd b334 15be
000000b0: 3b90 f4bd c248 e0bd 7079 0fbe 2857 9cbe
000000c0: 99ac 09be d5d8 0ebe 1398 02be 6318 32be
000000d0: c326 f4bd 2239 e0bd 07b6 efbd 4fa8 1abe
000000e0: c67e 2cbe 2a24 cebd 8a06 c2bd 41c5 39be
000000f0: 0cb7 04be d390 c5bd 3b56 45bd bcf5 d8bd
00000100: 5ddd edbd 8d9b bebd 2182 30be 9f71 32be
00000110: 6173 49be 96d1 d1bd 4aaf 58be 620d 3bbe
00000120: 04d6 86be fb76 13be 094b a2bd b40f 1abe
00000130: 5e74 06be e9d6 1cbe 1728 c5bd 5363 bbbd
00000140: 95a8 18be da29 15be 31cd f1bd 2bf5 15be
00000150: 900a d9bd 82d5 1ebe c9f6 fbbd d7e4 d3bd
00000160: 36a7 22be 00db 82be 29e5 26be 1ca7 f6bd
00000170: 1af1 3bbe 96d1 d1bd 642e 20be e676 10be
00000180: fe72 10be 3a08 fdbd ccfb 28be 01d3 1cbe
00000190: 79e5 46be 0e1d 90bd 71e6 f2bd aa4a 8bbd
000001a0: 68a9 12be c388 97be 4687 72be 72c8 b0bd
000001b0: 5dec 0ebe c993 13be 8bd0 2bbe 2d4f 50be
000001c0: aada 1dbe 25f8 aabd 178d 0dbe d7ed 013d
000001d0: 46e6 65bd 4aa6 d5bd 57ed eabd cf37 02be
000001e0: 17ec 10be bf19 6dbd 3092 11be fbeb 1fbe
000001f0: 68d2 cbbd cab6 cdbd 7e42 f1bd a3f4 4a3d
00000200: 76f3 05be 55af 42b9 cd3e d8bd a950 0abe
00000210: 9887 fabd f97c f2bd a8b9 f1bd fc12 04be
00000220: 8f2c 45bd 1b23 d6bd c581 2abe f135 16be
00000230: 0449 17be 815a 30be 360a 14be 14c7 05be
00000240: ad88 abbd 7d74 bebd aa12 31be 34ac 10be
00000250: 4124 633d bf76 cabd f3b7 e1bd 31cb 9cbd
00000260: 62f1 cdbd 1011 12be 72df b0bd c0ca 11be
00000270: d0f4 ccbe 75dd 09be 0def efbd b601 10be
00000280: 880a debd 59c1 39be 6926 13be 7235 2bbe
00000290: 44da a0bd f803 9cbd d3bf fdbd 8b6a e7bd
000002a0: f79d 10be 2653 3fbe 8c78 04be d87a 55be
000002b0: 4aea d6bd 6153 e8bd 3d3d 02be ee1d 51be
000002c0: e6aa 0cbe 9ab1 01be 1ca5 33be e98d ccbd
000002d0: 7b91 b2bd 6e74 22be 4dc7 ffbd 8f7e cabd
000002e0: 5a56 fdbd a7c3 1abe 0f49 e5bd b845 afbd
000002f0: bc59 1cbe 9601 7dbe cd77 edbd 96b3 0fbe
00000300: 9974 2fbe 72c9 e4bd 33bb f4bd b24e 0abe
00000310: 8bda 1ebe 3e4f bfbd 078d 0abe 2f78 dcbd
00000320: b673 19be b67e 10be 981b abbd 97ea 6dbe
00000330: 4993 85bd bafb b4bd f79f f8bd 0cac 0dbe
00000340: 5775 11be 99b0 4ebe e6c1 b5bd 302f 2fbe
00000350: 5407 20be f1df ccbd 8da9 133e 24e1 83be
00000360: 535c 5bbe c41c 22be 4937 83be 32df 9ebe
00000370: fee7 3abe ca1b 0bbe 4f18 68bd 5347 cebd
00000380: 3f9d c4bd 2fe4 66be 637b 39be fc14 d9bd
00000390: 665d abbd 7992 b9bd 8b83 6fbe 795e 27be
000003a0: bed6 0fbe 0212 c4bd aaad f3bd b62e 75be
000003b0: 2c55 8cbe 0389 c5bd 826f e7bd 7a47 14be
000003c0: be71 d2bd a6c8 7bbe b9cd 26be 5ce3 ecbd
000003d0: 652f eebd 32cb 09be 227c 31be bc67 09be
000003e0: 1c20 c83d 4d37 18be aa7c 293d 319d 31be
000003f0: 2b06 0cbe 6e18 07be 214e 00be b525 d1bd

fc3.weight f4 [1, 256]
-0.026852839 -0.0073363553 0.0030837653 -0.006595013 0.007032973 0.0010933285 0.0029019222 0.03686531
-0.021594336 -0.006908873 -0.040124264 -0.009481452 -0.029152015 -0.008959903 0.00048515253 0.07179345
-0.04670562 -0.0053977827 -0.023337506 -0.00844022 0.041398577 0.02198974 -0.008985981 0.029688792
0.018542754 0.039258745 -0.017824031 0.035113458 -0.055079654 0.010979038 0.03970084 -0.0268074
0.038483296 0.03767851 -0.008456051 -0.0047141826 0.00467367 0.03460631 -0.01113457 -0.026556814
0.04857579 -0.014483649 -0.016427811 -0.030209556 -0.0026090175 0.0037152101 -0.030034274 0.039259087
0.032997187 -0.0023063337 0.0072823376 0.0083843395 -0.0017955548 -0.01707043 -0.0024269416 -0.008615311
-0.010440727 0.017308854 -0.029365432 -0.0018974196 0.001000195 0.0049470165 0.0034202097 0.005301389
-0.012240065 0.0067649814 -0.0119806975 0.029320236 0.029300423 0.006381272 0.020524258 0.01695867
0.031712636 -0.001312817 0.017106619 -0.022056757 0.009625808 -0.011443774 0.039615616 0.0045223283
-0.0032062356 0.054309975 -0.001812668 0.0037715558 -0.022553679 -0.04054878 0.01279514 0.01218791
-0.011290103 -0.037898272 -0.024115045 -0.07761441 -0.06347544 0.0014946174 0.00017458886 -0.0002528428
0.0059924396 -0.003131729 0.02376041 -0.0012474643 -0.0347817 0.00053461513 -0.012192567 0.0145972725
-0.012574414 -0.018167822 0.046481725 -0.0065852343 -0.0035247519 0.010257253 -0.020461794 0.04278465
0.03173962 0.00040520332 0.06444985 0.019481298 -0.0009893684 0.031544898 -0.03251835 -0.018763267
-0.010052359 -0.019378876 -0.025353206 0.00067868095 5.5910994e-05 0.014011463 -0.027875807 0.02060077
-0.0102200005 0.021822765 -0.031795643 0.003526149 -0.010396022 -0.011183 -0.0006223934 0.0015104502
-0.026792027 0.020590406 0.020836357 -0.0028021124 0.0040743556 0.0017063457 0.020798998 0.029065752
0.0022290328 -0.004533504 0.009373417 0.03148575 0.012096879 -0.003033706 -0.0019787366 -0.003404377
-0.0056809084 0.013300854 0.03883501 -0.00030902974 -0.018041557 0.018586941 -0.002531258 0.00077716954
0.00078165164 -4.212288e-05 -0.00010083516 0.02057123 -0.0076078395 0.010638169 0.010816054 0.011610464
-0.005204996 -0.008331253 0.001024992 -0.042135183 -0.0011173104 -0.0040547983 0.03193815 0.009202768
0.023530185 0.0037440816 -0.028725121 0.00045796923 -0.008715894 -0.0039141667 0.041723933 -0.009709629
-0.006978257 0.008323803 0.008529421 -0.007876762 -0.024426408 0.040696982 -0.0020294946 -0.0044329194
-0.006901947 -0.015184182 -0.011551808 0.042454895 -0.006636923 0.009190876 -0.052966617 -0.003138481
0.0025931846 0.003705431 0.015770271 -0.029955195 -0.015669057 0.03587382 -0.0021532355 9.1172566e-05
0.03493899 -0.06854041 -0.0056441207 -0.019400455 0.008338704 0.011295692 0.026886942 -0.02371738
0.022674216 0.04170496 -0.03036953 -0.030203443 -0.019806739 -0.009624878 -0.024257964 -0.012736467
0.0028373809 -0.003834188 -0.037706 -0.008942209 0.024991449 0.0015233723 -0.027328337 -0.02839837
0.0023796763 -0.00055778207 0.0082278745 0.045259517 0.034070678 0.0048757694 0.018855585 -0.0073801284
-0.007969896 0.035749607 -0.0049567954 0.014065481 -0.008080725 0.034249842 -0.0017670327 -0.00021461613
-0.017675946 0.010845857 0.020036342 -0.04749393 0.014704376 0.020851651 -0.009545714 -0.0022360177
00000000: 7cfa dbbc cf65 f0bb ff18 4a3b fb1a d8bb
00000010: db74 e63b 044e 8f3a 2d2e 3e3b 1400 173d
00000020: 9be6 b0bc d463 e2bb 5759 24bd 1858 1bbc
00000030: 35d0 eebc 8fcc 12bc 125c fe39 7208 933d
00000040: 644e 3fbd e2df b0bb 4c2e bfbc d948 0abc
00000050: 8e91 293d d423 b43c f039 13bc e935 f33c
00000060: f9e6 973c c7cd 203d b403 92bc 21d3 0f3d
00000070: 349b 61bd 6ce1 333c 599d 223d 319b dbbc
00000080: a9a0 1d3d c854 1a3d 408b 0abc 6e79 9abb
00000090: 9625 993b 59bf 0d3d c66d 36bc ad8d d9bc
000000a0: 68f7 463d d44c 6dbc 9e93 86bc 087a f7bc
000000b0: 0dfc 2abb e27a 733b 700a f6bc 23ce 203d
000000c0: 0f28 073d dc25 17bb ada0 ee3b 785e 093c
000000d0: d258 ebba 49d7 8bbc 530d 1fbb 3c27 0dbc
000000e0: 950f 2bbc 4ccb 8d3c c68f f0bc d6b2 f8ba
000000f0: fa18 833a 951a a23b 9925 603b 46b7 ad3b
00000100: 8e8a 48bc c7ac dd3b b04a 44bc fe30 f03c
00000110: 7107 f03c fd19 d13b 7d22 a83c e9ec 8a3c
00000120: 1ce5 013d d412 acba 2e23 8c3c 5fb0 b4bc
00000130: 91b5 1d3c ab7e 3bbc fc43 223d 0a30 943b
00000140: b51f 52bb 2374 5e3d 0c97 edba 352c 773b
00000150: 7ec2 b8bc 7a16 26bd b5a2 513c cdaf 473c
00000160: 20fa 38bc 383b 1bbd ea8c c5bc 4ef4 9ebd
00000170: 69ff 81bd 0ae7 c33a d711 3739 fc8f 84b9
00000180: 3a5c c43b b23d 4dbb 31a5 c23c f581 a3ba
00000190: 4177 0ebd 6a25 0c3a 55c3 47bc 6629 6f3c
000001a0: ea04 4ebc afd4 94bc 9f63 3e3d f3c8 d7bb
000001b0: 86ff 66bb 0a0e 283c 7e9f a7bc f53e 2f3d
000001c0: 6701 023d 7871 d439 48fe 833d 3e97 9f3c
000001d0: b2ad 81ba 3935 013d f631 05bd 6cb5 99bc
000001e0: a6b2 24bc 73c0 9ebc 87b1 cfbc 82e9 313a
000001f0: f981 6a38 5690 653c ce5b e4bc f2c2 a83c
00000200: ca71 27bc a8c5 b23c 263c 02bd f716 673b
00000210: 1454 2abc e738 37bc 1d28 23ba 4cfa c53a
00000220: f47a dbbc 36ad a83c 02b1 aa3c a5a3 37bb
00000230: 2c82 853b 76a7 df3a a962 aa3c 4d1b ee3c
00000240: f714 123b ca8d 94bb f692 193c 34f7 003d
00000250: fd31 463c 24d1 46bb b1ad 01bb f81b 5fbb
00000260: ea26 babb d3eb 593c 7611 1f3d 4505 a2b9
00000270: e3cb 93bc a443 983c 76e3 25bb f7ba 4b3a
00000280: c1e7 4c3a 19ad 30b8 7777 d3b8 ff84 a83c
00000290: 2f4b f9bb b74b 2e3c d235 313c d139 3e3c
000002a0: ac8e aabb cf7f 08bc 0659 863a f195 2cbd
000002b0: b772 92ba 1dde 84bb 94d1 023d 35c7 163c
000002c0: 60c2 c03c 445f 753b f250 ebbc 971b f039
000002d0: 1ccd 0ebc 6942 80bb b7e6 2a3d 2315 1fbc
000002e0: dda9 e4bb 8f60 083c fcbe 0b3c 890d 01bc
000002f0: e419 c8bc e1b1 263d 4501 05bb 0642 91bb
00000300: ba29 e2bb 13c7 78bc cb43 3dbc 2fe5 2d3d
00000310: 8c7a d9bb 5495 163c 86f3 58bd f9ae 4dbb
00000320: 6bf2 293b d1d6 723b a830 813c 9964 f5bc
00000330: 655c 80bc 6df0 123d 4c1d 0dbb e633 bf38
00000340: 301c 0f3d ea5e 8cbd 51f2 b8bb b4ed 9ebc
00000350: 0f9f 083c 9111 393c 0142 dc3c f34a c2bc
00000360: 47bf b93c d2d2 2a3d 85c9 f8bc 366d f7bc
00000370: be41 a2bc aab1 1dbc a3b8 c6bc 9dac 50bc
00000380: 5af3 393b 0047 7bbb 9b71 1abd 5882 12bc
00000390: deba cc3c e4ab c73a addf dfbc b3a3 e8bc
000003a0: 58f4 1b3b 1f38 12ba 35ce 063c 0b62 393d
000003b0: b28d 0b3d ebc4 9f3b 0777 9a3c 01d5 f1bb
000003c0: 2b94 02bc 2e6e 123d 9d6c a2bb e772 663c
000003d0: 0465 04bc 9049 0c3d c79b e7ba 940a 61b9
000003e0: 25cd 90bc d2b2 313c 4123 a43c ff88 42bd
000003f0: a0ea 703c 15d1 aa3c a065 1cbc 278a 12bb

bn1.weight f4 [512]
0.43693036 0.29814535 0.286648 0.17458954 0.46134093 0.26569048 0.26109216 0.19079375
0.19898908 0.16105871 0.107783824 0.11750422 0.48681805 0.16797979 0.18691933 0.1696508
0.2405098 0.3180521 0.18702501 0.7029487 0.16713765 0.13418567 0.15643089 0.26646042
0.2672632 1.0922054 0.2484351 0.23989838 0.36225075 0.41129556 0.24597475 0.14036655
0.8125699 0.1251994 0.1959558 0.2788509 0.57341254 0.13768591 0.3096938 0.46943447
0.49514413 0.14526306 -0.00077164255 0.18217511 0.48986194 0.22841117 0.23886046 0.2143476
0.26788568 0.10319144 0.18085967 0.19221817 0.23290718 0.2359609 0.1567294 0.2391879
0.20278566 0.19876724 0.26794145 0.38648644 0.115736775 0.8061482 0.13920052 0.17979111
0.22566113 0.2228758 0.27287933 0.21673572 0.5312729 0.45549706 0.10781463 0.18723209
0.16366279 0.14815229 0.15721704 0.17613532 0.21042323 0.21693256 0.18519011 0.33806646
0.5080738 0.27287525 -3.5513287e-05 0.2939812 0.0855598 0.47784117 0.27057943 0.21397373
0.5281959 0.22071351 0.21162617 0.28448394 0.3738131 8.622917e-05 0.12255343 0.37727675
0.09590366 0.3694981 0.4210756 0.14328608 0.39106435 0.27218214 0.30891246 0.26471505
-0.13574682 0.30939114 0.25908503 0.2582173 0.4216695 0.60091615 0.24574351 0.19631651
0.19296224 0.10633623 0.22074927 0.2412237 0.0005856979 0.44285625 0.15765125 0.25910938
-0.11789538 0.22612451 0.4954898 -0.32048374 0.28460938 0.21289705 0.34491912 0.23251267
0.13587323 -0.21674792 0.44421905 0.1279016 0.17958902 0.23387633 0.295592 0.00018134483
0.2430381 0.31503215 0.42706537 0.22481453 0.27171025 0.33059084 0.17245767 0.17508687
0.16077885 0.41835013 0.14934261 0.19078834 0.8486306 0.4599308 0.14360818 0.26269194
0.2098775 0.14411919 0.21740337 0.09806429 0.00044376697 0.43627965 0.13201483 0.31268278
0.2523897 0.38263384 0.22584072 0.18433028 0.35890958 0.21778055 0.32026345 0.1910537
0.26555318 0.16918626 0.18317825 0.10167602 0.16038348 0.1974018 0.05383871 -0.10737532
0.16034457 0.23241009 0.34091687 0.13318475 0.16109198 0.286826 0.24289891 0.23972903
0.3897393 0.02936874 0.19087873 0.25303757 0.16347626 0.37135676 0.26937738 0.35353312
0.35940343 0.19866084 0.27092257 0.10586318 0.18012525 0.45470455 0.51596177 0.23221523
0.3517058 0.27235603 0.1763079 0.18817681 0.2754029 0.20215489 0.6633115 0.3296506
0.37945116 0.2586062 0.7541874 0.1589491 0.4727756 0.15719064 0.21070705 0.0004439708
0.11065009 0.5164392 -0.32736152 0.12434118 0.12706703 0.18590575 0.17679337 0.26743424
0.24406257 0.24550155 0.40583882 0.17806765 0.15839355 0.11612521 0.46867415 0.16490623
0.20509748 0.101538606 0.20709082 0.4483469 0.40358213 0.34136873 0.4979343 -0.14563814
0.27037883 0.20937821 0.38824373 0.21354273 0.14981677 0.26669264 0.2612188 0.21101944
0.15817146 -0.14038569 0.16966012 0.10937835 0.23761727 0.15487865 0.19936219 0.18052652
00000000: 56b5 df3e 82a6 983e 87c3 923e 9ac7 323e
00000010: e134 ec3e 9508 883e dfad 853e 705f 433e
00000020: cbc3 4b3e 93ec 243e c4bd dc3d 0da6 f03d
00000030: 3740 f93e e502 2c3e c867 3f3e f0b8 2d3e
00000040: 3348 763e bad7 a23e 7c83 3f3e 72f4 333f
00000050: 2226 2b3e f867 093e 6b2f 203e 806d 883e
00000060: b9d6 883e 63cd 8b3f c565 7e3e eca7 753e
00000070: ee78 b93e 5595 d23e cee0 7b3e 40bc 0f3e
00000080: 9504 503f 4634 003e a3a8 483e 8cc5 8e3e
00000090: 2acb 123f 89fd 0c3e 3090 9e3e b759 f03e
000000a0: 8883 fd3e d7bf 143e 0e48 4aba 1d8c 3a3e
000000b0: 2fcf fa3e 9ee4 693e d697 743e f07d 5b3e
000000c0: 5028 893e 0956 d33d 4733 393e d7d4 443e
000000d0: 387f 6e3e bc9f 713e ac7d 203e aced 743e
000000e0: 0ba7 4f3e a489 4b3e 9f2f 893e 8de1 c53e
000000f0: 6707 ed3d ba5f 4e3f 958a 0e3e 291b 383e
00000100: b613 673e 8e39 643e d7b6 8b3e f8ef 5d3e
00000110: 8001 083f e936 e93e ebcd dc3d c5b9 3f3e
00000120: 3897 273e 3cb5 173e 81fd 203e d15c 343e
00000130: 3079 573e 9223 5e3e 7aa2 3d3e 0c17 ad3e
00000140: 2011 023f 4eb6 8b3e 1af4 14b8 b484 963e
00000150: fa39 af3d 99a7 f43e 6389 8a3e ee1b 5b3e
00000160: d937 073f b902 623e 88b4 583e e1a7 913e
00000170: 6e64 bf3e efd5 b438 4bfd fa3d 6b2a c13e
00000180: 2369 c43d db2e bd3e 3997 d73e 96b9 123e
00000190: 9639 c83e 755b 8b3e c629 9e3e bb88 873e
000001a0: 3701 0bbe 8468 9e3e cba6 843e 0f35 843e
000001b0: 11e5 d73e a4d5 193f 30a4 7b3e 3207 493e
000001c0: e597 453e cfc6 d93d 190c 623e 5803 773e
000001d0: 8589 193a 0ebe e23e 546f 213e fca9 843e
000001e0: 2273 f1bd 2f8d 673e d7b0 fd3e 7216 a4be
000001f0: 52b8 913e af01 5a3e 3d99 b03e cd17 6e3e
00000200: 5a22 0b3e 2bf3 5dbe ae70 e33e a3f8 023e
00000210: 2fe6 373e 477d 6f3e d657 973e 6227 3e39
00000220: fbde 783e e54b a13e 50a8 da3e c835 663e
00000230: 9b1d 8b3e 3443 a93e be98 303e f949 333e
00000240: 36a3 243e fd31 d63e 45ed 183e 055e 433e
00000250: db3f 593f 0d7c eb3e 060e 133e 8f7f 863e
00000260: 21ea 563e fb93 133e fd9e 5e3e eed5 c83d
00000270: 65a9 e839 0c60 df3e e52e 073e f517 a03e
00000280: 3939 813e 95e8 c33e ca42 673e 14c1 3c3e
00000290: ffc2 b73e dd01 5f3e 92f9 a33e 95a3 433e
000002a0: 96f6 873e 2a3f 2d3e 1493 3b3e 843b d03d
000002b0: 913b 243e b323 4a3e fb85 5c3d 97e7 dbbd
000002c0: 5e31 243e e9fc 6d3e a88c ae3e 9561 083e
000002d0: 4cf5 243e dcda 923e 7eba 783e 877b 753e
000002e0: e98b c73e b696 f03c b775 433e 248e 813e
000002f0: 5266 273e 7922 be3e d5eb 893e 4b02 b53e
00000300: ba03 b83e bf6d 4b3e 5db6 8a3e cbce d83d
00000310: c172 383e 09cf e83e 1216 043f d4c9 6d3e
00000320: c812 b43e 4072 8b3e 0f8a 343e 6cb1 403e
00000330: 9c01 8d3e b101 4f3e c8ce 293f f7c7 a83e
00000340: 6c47 c23e 0868 843e 6d12 413f 8ec3 223e
00000350: a50f f23e 95f6 203e 97c3 573e c1c4 e839
00000360: 849c e23d 5c35 043f ee9b a7be 97a6 fe3d
00000370: dc1d 023e 145e 3e3e 5209 353e 24ed 883e
00000380: 8aeb 793e c264 7b3e 1bca cf3e 5e57 363e
00000390: eb31 223e 0ed3 ed3d 0ff6 ef3e 2edd 283e
000003a0: 1305 523e 79f3 cf3d 9e0f 543e ba8d e53e
000003b0: 51a2 ce3e e2c7 ae3e 3ff1 fe3e 2a22 15be
000003c0: 186f 8a3e 3e67 563e e2c7 c63e f2aa 5a3e
000003d0: 9169 193e f08b 883e 78be 853e 7b15 583e
000003e0: b3f7 213e 44c1 0fbe 62bb 2d3e c201 e03d
000003f0: f151 733e 8298 1e3e 9a25 4c3e f2db 383e

bn1.bias f4 [512]
0.16823447 0.10838511 0.09229743 0.057981934 0.21858299 0.054327823 0.107962735 0.04883644
0.08199768 0.040916465 0.112232424 -0.0043049734 0.20359084 0.049696248 0.044569217 0.0685042
0.1325007 0.104612276 0.032876797 0.13834591 0.03879052 0.036387835 0.0060348995 0.03491591
0.11897912 0.3687319 0.068216525 0.094406895 0.12449876 0.13567944 0.09779638 0.048097663
0.28580582 0.017409097 0.08876965 0.086638354 0.17003013 0.036899153 0.054692157 0.14398861
0.1456135 -0.020172436 -0.0001403612 0.03452584 0.13539703 0.064641826 0.06917724 0.07526912
0.08848924 -0.010259074 0.01925701 0.07796548 0.067492455 0.052740652 0.052799556 -0.064833544
0.05527848 0.052166194 0.06733085 0.015275837 0.03043128 0.13959886 0.061268706 0.020534776
0.092633136 0.035266075 0.080156505 0.12886786 0.22131008 0.16764086 -0.0038040725 0.07269243
0.058452364 0.121437214 0.05186975 0.042079054 0.049657162 0.036936536 0.07556029 0.1610781
0.1054416 0.08334753 -3.3328934e-06 0.09806163 -0.120224096 0.12596358 0.08145819 0.05723226
0.09555257 0.06332129 0.10740206 0.09727702 0.14179206 6.175448e-05 0.00022266155 0.10565159
0.02186142 0.21130021 0.09805166 0.10694629 0.066691265 0.06968273 0.10809579 0.06248084
-0.026245086 0.13994177 0.05419911 0.08103801 0.21060558 -0.056162287 0.08477002 0.045754813
0.036424506 -0.031967055 0.064188555 0.077789 2.5650166e-05 0.105886936 0.04657714 0.11608272
-0.008931602 0.064363115 0.21240112 -0.043774944 0.086556144 0.0958247 0.08114976 0.067038074
0.028488047 -0.11807699 0.22956556 0.006381923 0.03968342 0.10112557 0.0356462 5.601478e-05
0.06906459 0.094795726 0.2062608 0.06911675 0.07959781 0.094435185 0.07124007 0.09167925
0.049957838 0.1540998 0.06809589 0.043939427 0.21564135 0.16556725 0.025379604 0.07198331
0.068910964 0.013602545 0.081290424 0.0070270947 1.1852743e-05 0.18884437 0.12980711 0.09989581
0.06897259 0.1599722 0.08956509 0.04082309 0.12598398 0.05542077 0.11745474 0.039212108
0.061325934 0.01800882 0.069522806 -0.015756365 0.06617248 0.072860524 0.04260367 -0.0028591356
-0.00991418 0.058804937 0.08638314 0.022127341 0.044483785 0.07412435 0.07140403 0.10585694
0.13263679 0.014076341 0.047570992 0.06915707 0.115030766 0.092720084 0.06991888 0.08295274
0.09093745 0.047301684 0.08327011 0.016295917 0.078172766 0.13492022 0.19765745 -2.786448e-06
0.10716776 0.07480175 0.052911226 0.043819994 0.08585785 0.07888532 0.2696339 0.15125461
0.14990604 0.08636898 0.072335005 0.010828534 0.12441427 0.04696599 0.070709705 0.00016086471
-0.06802731 0.18721911 -0.049530488 0.014495678 0.040274844 0.08791284 0.03840355 0.09726357
0.07769333 0.019490406 0.14080086 0.06488738 0.06399137 0.023341756 0.033419043 0.07217643
0.069406286 -0.078890964 0.11938703 0.18892322 0.09159208 0.06824171 0.08257368 -0.11400978
0.093344025 0.09949746 0.37964162 0.12043302 0.043948367 0.08395246 0.103229985 0.11957905
0.05348822 -0.0884508 0.053316865 0.023645554 0.046565656 0.06301732 0.14551616 0.049317762
00000000: a845 2c3e 03f9 dd3d 6f06 bd3d 777e 6d3d
00000010: 38d4 5f3e da86 5e3d 911b dd3d b808 483d
00000020: 66ee a73d 0698 273d 1dda e53d bc10 8dbb
00000030: 1e7a 503e 4b8e 4b3d 368e 363d ee4b 8c3d
00000040: 43ae 073e f63e d63d d2a9 063d 8daa 0d3e
00000050: cfe2 1e3d 690b 153d 68c0 c53b fc03 0f3d
00000060: 53ab f33d 6dca bc3e 1bb5 8b3d 6758 c13d
00000070: 35f9 fe3d 8def 0a3e 7849 c83d 0e02 453d
00000080: 2455 923e 869d 8e3c ddcc b53d 736f b13d
00000090: 611c 2e3e 9123 173d e204 603d c071 133e
000000a0: b51b 153e aa40 a5bc ec2d 13b9 f86a 0d3d
000000b0: 85a5 0a3e ef62 843d ccac 8d3d b226 9a3d
000000c0: d939 b53d ad15 28bc e1c0 9d3c 5eac 9f3d
000000d0: 7c39 8a3d 9506 583d 5944 583d 73c7 84bd
000000e0: b06b 623d 38ac 553d c2e4 893d 8147 7a3c
000000f0: 054b f93c 01f3 0e3e e5f4 7a3d 8c38 a83c
00000100: 71b6 bd3d 2973 103d 1829 a43d f0f5 033e
00000110: 1c9f 623e 0caa 2b3e bf4d 79bb c5df 943d
00000120: bf6b 6f3d 13b4 f83d 6075 543d 165b 2c3d
00000130: 4f65 4b3d c44a 173d 5abf 9a3d a8f1 243e
00000140: c4f1 d73d 1cb2 aa3d acaa 5fb6 89d4 c83d
00000150: 0d38 f6bd 99fc 003e 8dd3 a63d 606c 6a3d
00000160: 11b1 c33d 98ae 813d 9cf5 db3d 2d39 c73d
00000170: f031 113e 2f82 8138 417a 6939 dc5f d83d
00000180: b816 b33c 155f 583e 4fcf c83d a806 db3d
00000190: 6e95 883d d2b5 8e3d 5361 dd3d e9eb 7f3d
000001a0: efff d6bc e54c 0f3e e3ff 5d3d 42f7 a53d
000001b0: fda8 573e 6d0a 66bd e79b ad3d 6669 3b3d
000001c0: dd31 153d e3ef 02bd 4a75 833d d74f 9f3d
000001d0: 502b d737 40db d83d acc7 3e3d c7bc ed3d
000001e0: db55 12bc cfd0 833d ae7f 593e 5b4d 33bd
000001f0: 5944 b13d be3f c43d d831 a63d 424b 893d
00000200: c45f e93c 59d2 f1bd 3c13 6b3e 731f d13b
00000210: 158b 223d ec1a cf3d c001 123d 69f1 6a38
00000220: bc71 8d3d 4324 c23d 0836 533e 158d 8d3d
00000230: 2d04 a33d 3c67 c13d 50e6 913d 55c2 bb3d
00000240: 97a0 4c3d 57cc 1d3e dc75 8b3d d4f9 333d
00000250: 16d1 5c3e 768a 293e e3e8 cf3c fc6b 933d
00000260: 3121 8d3d 35dd 5e3c 987b a63d 8b43 e63b
00000270: 25db 4637 6b60 413e 28ec 043e 2d96 cc3d
00000280: 8041 8d3d c1cf 233e e76d b73d 1d36 273d
00000290: f201 013e e400 633d 1c8c f03d e09c 203d
000002a0: e730 7b3d 3c87 933c f961 8e3d 7e13 81bc
000002b0: 7085 873d e637 953d 3081 2e3d 5660 3bbb
000002c0: 166f 22bc 72dd 703d a5e9 b03d 6644 b53c
000002d0: a134 363d 82ce 973d 473c 923d 86cb d83d
000002e0: f0d1 073e 74a0 663c cdd9 423d 39a2 8d3d
000002f0: 4095 eb3d 07e4 bd3d a131 8f3d 20e3 a93d
00000300: 6a3d ba3d 69bf 413d 8589 aa3d 047f 853c
00000310: 0b19 a03d 8728 0a3e b766 4a3e d0fe 3ab6
00000320: c57a db3d a931 993d 71b9 583d 987c 333d
00000330: 3ed6 af3d a08e a13d 740d 8a3e 7de2 1a3e
00000340: f880 193e 38e2 b03d 6024 943d 2a6a 313c
00000350: e9cc fe3d 695f 403d 40d0 903d cbad 2839
00000360: e751 8bbd 5eb6 3f3e 7be0 4abd 487f 6d3c
00000370: 3cf7 243d a60b b43d 0a4d 1d3d 1f32 c73d
00000380: ae1d 9f3d 58aa 9f3c 1a2e 103e ade3 843d
00000390: e80d 833d 3637 bf3c 68e2 083d 3cd1 933d
000003a0: e224 8e3d 9691 a1bd 3081 f43d 1775 413e
000003b0: a194 bb3d 4fc2 8b3d 641c a93d f67d e9bd
000003c0: 272b bf3d 53c5 cb3d 6360 c23e 96a5 f63d
000003d0: 3403 343d 44ef ab3d 3e6a d33d dce5 f43d
000003e0: 7716 5b3d b125 b5bd c962 5a3d 52b4 c13c
000003f0: a1bb 3e3d 3a0f 813d 3002 153e 6c01 4a3d

bn1.running_mean f4 [512]
0.8119987 1.5499235 1.3761857 0.7383308 2.1142192 1.2154313 3.3650923 1.5156252
4.2656193 1.8777593 15.387964 3.3667 1.576273 1.0495601 0.87194675 16.618309
0.78461325 2.2427337 0.8663788 0.17773429 2.873434 1.1807945 2.5461085 2.5126233
2.3158555 29.996485 1.4922676 1.8629777 4.486108 1.8346533 2.7556996 3.2440667
0.7390851 1.2668571 3.1626723 1.2844222 0.73836356 4.8669806 1.0927105 0.90741557
1.6388334 4.137705 0.95999455 1.3438935 1.079733 0.28734088 1.2473576 0.5371429
2.0418658 1.718847 1.0369031 2.8991094 0.8713372 7.3584576 13.145666 5.695217
0.9904155 1.9962859 0.9755878 1.2206244 4.6923866 0.2206319 3.7697196 0.8025423
1.2418634 0.7802533 0.80704874 4.304597 12.517083 1.1966226 2.3773406 0.97056437
4.935206 4.466215 1.7733765 3.0118434 0.4922671 2.2056737 6.2152157 1.7651869
10.478157 0.7997657 12.282037 1.5190929 2.5072036 0.71750706 1.664142 1.4953582
0.16589944 0.5953432 1.2530422 3.6564786 1.6326257 9.45856 0.71279263 0.47681043
2.7495627 1.8388381 0.28310195 12.209125 0.23414038 1.4469024 1.6743225 0.29767904
0.31432056 2.0588684 0.23832996 1.3958303 4.289516 10.400022 2.165653 4.275462
1.5052959 1.8426486 2.0062962 1.7831396 1.0287397 0.3502069 0.9129112 2.0867863
0.2066685 0.630226 2.222139 0.44548005 0.7453921 2.1082227 1.6551038 1.6749672
3.513489 3.763466 2.8580077 1.3583504 1.9359808 3.6251838 0.7322918 9.788282
2.188105 2.7835004 1.599088 0.7710925 0.4345534 1.2119821 2.3506186 2.3067243
1.8196794 1.6074969 1.410345 0.79895335 29.395311 1.0053911 0.2913486 0.46705163
0.72899324 0.11698 1.2805135 0.040836602 2.5101635 0.75231785 6.008166 0.2930318
1.59672 1.7864664 1.3576455 0.45483506 1.0597618 1.9216776 1.0399209 1.054781
1.6265991 0.6969814 1.3130722 2.0299087 5.008105 2.716167 13.721924 2.9314756
2.5273309 1.645997 0.24914259 8.187943 2.920388 0.50901884 0.6354176 3.546977
3.4372237 19.345013 0.76980263 2.110904 5.0371428 1.0679127 0.70271546 0.9972859
0.48047638 0.8231835 0.89628243 0.8183522 3.483822 2.2180948 4.820475 6e-45
1.3388296 0.9336913 2.1080613 1.0632256 0.9621575 1.7306025 1.8683579 3.0408869
1.2601273 0.94081074 2.732899 9.399893 1.15014 2.904923 0.26138246 2.8085465
5.2978425 0.5613822 1.9966426 1.6726232 2.1615224 7.182235 1.5502156 2.301306
3.2577047 3.2503865 0.50931174 1.3351842 2.709756 3.7549844 12.679349 1.4821136
2.6466374 3.291917 1.7811506 2.8849592 0.5876593 0.441286 0.19550778 9.843135
1.4244912 1.1230336 19.05963 6.663692 2.009356 0.72499025 1.2343318 7.2669454
2.6279159 4.889183 4.102944 8.944615 0.3103625 3.8010373 3.692474 0.6420355
00000000: 26df 4f3f e563 c63f da26 b03f 3f03 3d3f
00000010: 5e4f 0740 4193 9b3f ac5d 5740 0200 c23f
00000020: f47f 8840 6b5a f03f 1a35 7641 0378 5740
00000030: 50c3 c93f fc57 863f e737 5f3f 4cf2 8441
00000040: 6adc 483f f388 0f40 00cb 5d3f faff 353e
00000050: 58e6 3740 4624 973f 71f3 2240 d2ce 2040
00000060: fa36 1440 cdf8 ef41 a002 bf3f 0e76 ee3f
00000070: 328e 8f40 ebd5 ea3f 625d 3040 ca9e 4f40
00000080: ae34 3d3f 6028 a23f 3969 4a40 f267 a43f
00000090: 6505 3d3f 4ebe 9b40 f0dd 8b3f 634c 683f
000000a0: 4bc5 d13f 1468 8440 34c2 753f b404 ac3f
000000b0: b134 8a3f 581e 933e 6aa9 9f3f 3282 093f
000000c0: eead 0240 2e03 dc3f 3eb9 843f 028b 3940
000000d0: f40f 5f3f 7c78 eb40 a654 5241 383f b640
000000e0: df8b 7d3f 4c86 ff3f 1fc0 793f 6c3d 9c3f
000000f0: 0828 9640 54ed 613e 1643 7140 6a73 4d3f
00000100: 61f5 9e3f aebe 473f bf9a 4e3f 42bf 8940
00000110: f945 4841 ee2a 993f 5926 1840 e876 783f
00000120: 35ed 9d40 3ceb 8e40 00fe e23f 0bc2 4040
00000130: 6f0a fc3e c229 0d40 0ce3 c640 a5f1 e13f
00000140: 88a6 2741 72bd 4c3f 3983 4441 a371 c23f
00000150: 0676 2040 8bae 373f 9b02 d53f e667 bf3f
00000160: 8be1 293e 6968 183f b063 a03f bf03 6a40
00000170: e1f9 d03f 4356 1741 9479 363f 7f20 f43e
00000180: d6f8 2f40 0c5f eb3f bdf2 903e 9358 4341
00000190: 7fc2 6f3e 1934 b93f 3350 d63f 6369 983e
000001a0: a0ee a03e 80c4 0340 c50c 743e 91aa b23f
000001b0: b743 8940 7d66 2641 0f9a 0a40 96d0 8840
000001c0: 89ad c03f e9db eb3f 2867 0040 eb3d e43f
000001d0: bead 833f 524e b33e 8cb4 693f e88d 0540
000001e0: e8a0 533e 7e56 213f 8637 0e40 f615 e43e
000001f0: 04d2 3e3f 1fed 0640 71da d33f 5365 d63f
00000200: 01dd 6040 a0dc 7040 99e9 3640 6dde ad3f
00000210: 38ce f73f 0303 6840 7a77 3b3f ce9c 1c41
00000220: ea09 0c40 df24 3240 eaae cc3f 5166 453f
00000230: c97d de3e 3b22 9b3f 8970 1640 5fa1 1340
00000240: 41eb e83f 75c2 cd3f 2f86 b43f 3588 4c3f
00000250: 9929 eb41 a8b0 803f a52b 953e 6421 ef3e
00000260: 4d9f 3a3f 3693 ef3d dee7 a33f 4844 273d
00000270: 85a6 2040 e797 403f e542 c040 4408 963e
00000280: 5261 cc3f eeaa e43f 54c7 ad3f 24e0 e83e
00000290: 46a6 873f 88f9 f53f 211c 853f 1003 873f
000002a0: 6634 d03f 5f6d 323f c012 a83f 06ea 0140
000002b0: 6542 a040 aed5 2d40 008d 5b41 4c9d 3b40
000002c0: cabf 2140 08b0 d23f 3c1f 7f3e d101 0341
000002d0: a3e7 3a40 0f4f 023f baaa 223f ac01 6340
000002e0: 79fb 5b40 96c2 9a41 c911 453f 0d19 0740
000002f0: 4630 a140 5db1 883f 29e5 333f 214e 7f3f
00000300: 0001 f63e 27bc 523f c472 653f 887f 513f
00000310: f1f6 5e40 44f5 0d40 5541 9a40 0400 0000
00000320: c55e ab3f 6506 6f3f 7aea 0640 c717 883f
00000330: f44f 763f 6284 dd3f 5a26 ef3f e49d 4240
00000340: da4b a13f f9d8 703f d1e7 2e40 f665 1641
00000350: ca37 933f 42ea 3940 ecd3 853e 3abf 3340
00000360: ed87 a940 beb6 0f3f fc91 ff3f 8418 d63f
00000370: 6256 0a40 ded4 e540 776d c63f 9948 1340
00000380: 3c7e 5040 5506 5040 4162 023f 51e7 aa3f
00000390: a46c 2d40 aa51 7040 9dde 4a41 e6b5 bd3f
000003a0: 8262 2940 c5ae 5240 befc e33f 2ca3 3840
000003b0: d770 163f 3df0 e13e 3133 483e 7b7d 1d41
000003c0: ba55 b63f 91bf 8f3f 1f7a 9841 f73c d540
000003d0: 4a99 0040 f698 393f 96fe 9d3f d18a e840
000003e0: c62f 2840 3074 9c40 514b 8340 251d 0f41
000003f0: d5e7 9e3e 3244 7340 7e51 6c40 705c 243f
