3 - Collab -MADDPG/trained_agents/maddpg_tennis_checkpoint_critic_local_1.pth (torch_old, 644536 bytes, 9 tensors)

fc1.weight f4 [512, 52]
0	0x3e58e892	0.21182469
1	0xbe24683f	-0.16055392
2	0xbb99b1ca	-0.0046903836
3	0x3e52523f	0.20539187
4	0xbe18c3bb	-0.14918415
5	0xbf2e4c50	-0.68085194
6	0x3cf9c858	0.03049104
7	0x3e50a2b9	0.20374574
8	0x3c9e36e2	0.01931328
9	0xbe0bf4db	-0.13667624
10	0xbd0c31bd	-0.03422712
11	0x3f136f3a	0.57591593
12	0x3c95601e	0.018234309
13	0xbf09d7ca	-0.5384489
14	0xbdc52ea0	-0.09628034
15	0x3f158aa8	0.584147
16	0xbe7f9893	-0.24960546
17	0xbdd222b0	-0.10260522
18	0x3deb6c27	0.11495238
19	0xbe06fa14	-0.13181335
20	0x3df7a700	0.120923996
21	0x3f020580	0.5078964
22	0x3dfe25b3	0.12409534
23	0xbe35ed36	-0.1776627
24	0xbd8da6da	-0.0691659
25	0xbf071e74	-0.5278084
26	0xbc6b8d9d	-0.014377025
27	0x3e4bf5bd	0.1991796
28	0x3e1f65fd	0.15566249
29	0xbf2dd7f0	-0.6790762
30	0xbca15915	-0.019695798
31	0x3e164317	0.1467403
32	0xbe247a6e	-0.16062328
33	0xbebc306b	-0.3675569
34	0xbd7c0b59	-0.06153426
35	0xbc347c14	-0.011015911
36	0xbd264c30	-0.0406
37	0xbf02adaa	-0.5104624
38	0xbd30130e	-0.042986922
39	0x3d6fb826	0.058525227
40	0xbe4f6cba	-0.2025632
41	0xbee5ca8a	-0.44881088
42	0xbc00c463	-0.007859322
43	0xbe72b5ea	-0.23702207
44	0xbddecf2e	-0.1087936
45	0x3ef2a109	0.47388485
46	0x3ca2eaa6	0.01988728
47	0xbe4b276c	-0.19839257
48	0xbea70e51	-0.3262811
49	0xbe2c2f17	-0.16814838
50	0x3fc0044d	1.5001312
51	0xbd699e3c	-0.05703567
52	0xbead7dbd	-0.33884993
53	0x3e09d303	0.13459401
54	0xbc822f3e	-0.015891667
55	0x3db40786	0.087904975
56	0xbc87ff0c	-0.016601108
57	0xbe91ebfc	-0.28500354
58	0x3c95464a	0.018221993
59	0x3daaa6e2	0.083326116
60	0xbe60c82b	-0.21951358
61	0x3e87f1cb	0.2655166
62	0x3e2fad61	0.17155983
63	0xbdd2e085	-0.1029673
64	0xbe1e02cb	-0.15430753
65	0xbf0bc8b7	-0.5460314
66	0x3e423041	0.1896372
67	0xbdf18015	-0.11792008
68	0xbda35e19	-0.07976932
69	0x3e9b0b1e	0.3028192
70	0x3d0169b2	0.03159494
71	0x3bf468e2	0.007458792
72	0xbe244453	-0.16041689
73	0xbf585607	-0.8450627
74	0x3d4fb798	0.050712198
75	0x3d75f73e	0.06005024
76	0xbe0db74d	-0.13839455
77	0xbe438100	-0.19092178
78	0xbda57887	-0.080796294
79	0x3e5af5d0	0.21382833
80	0x3c91f4ee	0.017816987
81	0xbe9c4406	-0.30520648
82	0xbdb36fc1	-0.0876155
83	0x3e3f165a	0.1866087
84	0x3d46a132	0.04849357
85	0xbe3f28c0	-0.18667889
86	0xbd84ff56	-0.06494014
87	0x3c671c66	0.014105892
88	0x3e30d807	0.17269908
89	0xbf033b0f	-0.5126199
90	0xbd856b49	-0.06514604
91	0xbd13d3a2	-0.0360905
92	0x3e7a2ed4	0.24431926
93	0xbd57092d	-0.052498985
94	0x3cf888f2	0.030338738
95	0x3ecc88e8	0.399482
96	0x3e29da59	0.165872
97	0xbf6edafb	-0.9330289
98	0x3b50ff28	0.0031890366
99	0x3ee537c2	0.44769102
100	0x3e68209d	0.22668691
101	0xbf026b47	-0.5094494
102	0x3fcdfb5c	1.6092334
103	0xbeb9faae	-0.36324066
104	0x3ec113b7	0.37710354
105	0xbe4fc92f	-0.20291589
106	0x3b4a618a	0.0030880892
107	0x3cf1562d	0.029460037
108	0x3d980daa	0.07424481
109	0xbd01619c	-0.03158723
110	0xbd051c8c	-0.032497928
111	0x3d8b9469	0.06815416
112	0x3fab8454	1.3399758
113	0xbea08079	-0.31348017
114	0xbb111aaf	-0.0022141149
115	0xbc9a6f37	-0.01885186
116	0x3e5e7cd6	0.21727309
117	0x3e8738ab	0.26410422
118	0xbd80a089	-0.0628062
119	0xbdc21203	-0.09476092
120	0x3fac4a7b	1.346023
121	0xbe3014f2	-0.1719549
122	0xbc3582c6	-0.011078542
123	0x3d1bd081	0.03804064
124	0x3f18a15a	0.596212
125	0x3d9f836b	0.07788738
126	0xbd1eaf21	-0.038741235
127	0x3c89cdd5	0.016821781
128	0x3eaf0d71	0.34189942
129	0x3ee4c8a3	0.44684324
130	0x3cbc6426	0.022996973
131	0x3de68988	0.11256701
132	0xbdec2c76	-0.11531918
133	0xbd2a0ffa	-0.041519143
134	0xba6ef80f	-0.0009115943
135	0x3e39a13a	0.1812791
136	0x3e86faaf	0.2636313
137	0x3e4b85b9	0.1987523
138	0xbc29da1a	-0.010366941
139	0xbdc7c368	-0.09754068
140	0xbe891ecc	-0.2678131
141	0x3e90f34c	0.2831062
142	0x3d039689	0.032125983
143	0xbd904afa	-0.07045551
144	0x3e9cb0f4	0.30603755
145	0x3e5fa92d	0.21841879
146	0x3c2165c1	0.00985092
147	0xbded955d	-0.116007544
148	0xbf22fd78	-0.6366801
149	0x3d24ca42	0.04023195
150	0xbce45147	-0.027870787
151	0xbdce6899	-0.10078544
152	0xbce1a26c	-0.02754327
153	0x3e854f0e	0.26036876
154	0x3f511a9a	0.81681216
155	0xbd61bc67	-0.055111315
156	0x3db96625	0.09052686
157	0xbedb17ef	-0.42791697
158	0xbbf5faed	-0.0075067193
159	0xbdc821ac	-0.097720474
160	0xbd9b4183	-0.07580855
161	0x3e419435	0.18904193
162	0x3ca0c053	0.019622957
163	0xbd392dd3	-0.045209717
164	0x3e772253	0.24134187
165	0xbebd62f9	-0.36989573
166	0xbce0cd95	-0.02744178
167	0x3e4b17c7	0.19833289
168	0xbe4eb00f	-0.20184349
169	0x3f13f113	0.57789725
170	0xbc214f6c	-0.009845596
171	0x3e168a53	0.14701204
172	0x3ec2daf1	0.38057664
173	0xbeb667cb	-0.35626063
174	0xbe196ca9	-0.14982857
175	0x3e95fd2c	0.29294717
176	0xbe288b80	-0.16459465
177	0x3f3c59c3	0.73574466
178	0xbda5d90b	-0.08098038
179	0x3e87a1b8	0.2649057
180	0x3e112923	0.14175849
181	0x3edbaffd	0.42907706
182	0xbda2583a	-0.07926984
183	0xbdb1b803	-0.086776756
184	0x3df52773	0.11970415
185	0x3e890821	0.26764014
186	0xbdbbfe14	-0.09179321
187	0xbe147620	-0.14498186
188	0x3e875963	0.26435384
189	0x3ece7c05	0.40328994
190	0xbd84eb98	-0.064902484
191	0x3dc9cfb5	0.0985407
192	0x3e5f8a77	0.21830164
193	0x3f1e168f	0.6175317
194	0xbddfbbcb	-0.109244905
195	0x3d9c65f3	0.07636633
196	0x3e9a8dfd	0.30186453
197	0x3f0069ac	0.5016124
198	0xbd2e699f	-0.042581197
199	0x3ea41008	0.3204348
200	0x3dde5ac1	0.10857154
201	0x3f2de547	0.67927974
202	0xbd0eb5b3	-0.03484125
203	0x3e9c0384	0.30471432
204	0xbe589944	-0.21152216
205	0x3f75696a	0.95863974
206	0x3ea68275	0.32521406
207	0x3f4dcb42	0.8038827
208	0x3d90679e	0.070510134
209	0x3f81ffb8	1.0156164
210	0xbb5b1e16	-0.003343468
211	0xbe692d16	-0.22771105
212	0x3dba890c	0.09108171
213	0xbec8d69f	-0.39226243
214	0x3c9d9057	0.019233866
215	0xbe2e9b2e	-0.17051384
216	0xbe53a101	-0.20666887
217	0x3f5343a7	0.82525104
218	0x3cb3b201	0.021935465
219	0xbebe959f	-0.37223527
220	0x3de72888	0.112870276
221	0xbc2a0592	-0.010377305
222	0xbb0c7a5c	-0.0021435237
223	0xbec50ff5	-0.38488737
224	0xbe2dede6	-0.16985282
225	0x3f27d983	0.6556627
226	0x3c222985	0.009897594
227	0xbf2393aa	-0.6389719
228	0xbd3e68f8	-0.046486825
229	0x3f2174c8	0.6306882
230	0x3c996ce1	0.018728675
231	0xbf254742	-0.64561856
232	0x3ea8fd1e	0.33005613
233	0x3ee6bda5	0.45066562
234	0xbd3ecdf7	-0.046583142
235	0xbc5ff560	-0.013669342
236	0xbe0ad2e7	-0.13557015
237	0xbed8598b	-0.42255816
238	0xbcb9eb55	-0.022695223
239	0xbd51a6a1	-0.0511843
240	0x3e981ee9	0.29711083
241	0x3f12352c	0.57112384
242	0xbc108686	-0.008821135
243	0x3f08b9cc	0.53408504
244	0xbdd8186c	-0.10551533
245	0x3cbd1cf4	0.023085095
246	0x3ca017fa	0.019542683
247	0x3f0f8260	0.5605831
248	0x3e78ca1d	0.2429585
249	0x3f0d8b36	0.55290544
250	0x3cb295dd	0.021799976
251	0xbd3dc400	-0.0463295
252	0x3dafc19f	0.08581852
253	0x3f34b4ea	0.7058855
254	0x3cf74067	0.030182077
255	0xbdac9ebe	-0.08428715

fc1.bias f4 [512]
0	0xbe5ed0c4	-0.21759325
1	0xbee2404e	-0.44189686
2	0xbf63d080	-0.8899002
3	0xbf37e8ee	-0.718398
4	0xbede05aa	-0.43363696
5	0x3e25390f	0.16135047
6	0xbe6a1094	-0.22857887
7	0xbeb90923	-0.36139783
8	0xbdb8ccc2	-0.090234295
9	0xbda8de2f	-0.08245503
10	0xbf08afd5	-0.533933
11	0xbd1e88fc	-0.038704857
12	0xbf456e6e	-0.7712163
13	0xbec108f7	-0.37702152
14	0xbeaea5bc	-0.3411082
15	0x3e094ba9	0.13407768
16	0x3da5adeb	0.08089813
17	0xbe99f52e	-0.3006987
18	0xbf014cd9	-0.50507885
19	0xbbf89c4f	-0.007586993
20	0xbee8e5cd	-0.45487824
21	0xbedab840	-0.42718697
22	0xbed83e64	-0.422351
23	0xbe5f599b	-0.21811526
24	0x3d71e5de	0.05905711
25	0xbe464e6d	-0.19365855
26	0x3e77e613	0.2420886
27	0xbe8ed2ee	-0.27895302
28	0xbe868115	-0.26270357
29	0xbf380e64	-0.7189696
30	0xbe1a68b3	-0.15079002
31	0xbf1256ce	-0.57163703
32	0xbe79466f	-0.24343275
33	0xbf4eadcf	-0.8073396
34	0xbdebd650	-0.11515486
35	0xbdb83f7d	-0.089964844
36	0xbec719e2	-0.38886935
37	0x3ea638b1	0.32465127
38	0xbec7c116	-0.390145
39	0xbde8ff2d	-0.11376796
40	0x3d8c6a78	0.06856245
41	0xbe12f85c	-0.14352554
42	0xbf4108f6	-0.754043
43	0xbe2c3b1a	-0.1681942
44	0xbe579b6b	-0.21055381
45	0xbdd62d58	-0.104578674
46	0xbf13329b	-0.5749909
47	0xbf2e00f3	-0.679702
48	0xbf484a99	-0.78238827
49	0xbe75f675	-0.24019797
50	0xbeec2e4f	-0.4612908
51	0xbead2dd6	-0.33824033
52	0xbd6b1bdb	-0.057399612
53	0xbec3e8b7	-0.38263485
54	0xbe3e43a4	-0.1858049
55	0xbf25562c	-0.6458461
56	0xbeebc6bb	-0.46050057
57	0xbe32ef0b	-0.17474
58	0xbeb170ed	-0.34656468
59	0x3ee079a0	0.43842793
60	0x3d30f227	0.043199684
61	0xbddad35e	-0.10684846
62	0x3d3c75ed	0.0460109
63	0xbe33e7d4	-0.17568904
64	0x3cdeb060	0.027183712
65	0xbed986db	-0.424857
66	0xbe8e18f9	-0.27753428
67	0xbe7743db	-0.24146979
68	0xbe9256c5	-0.28581825
69	0xbe9030e3	-0.28162298
70	0xbee48a00	-0.44636536
71	0xbf4b5196	-0.79421365
72	0x3e3a5792	0.18197468
73	0xbee5aa19	-0.44856337
74	0xbf3513e0	-0.7073345
75	0xbd49623a	-0.04916594
76	0xbe50d158	-0.20392358
77	0xbd0c9674	-0.03432317
78	0xbf0b33f7	-0.5437617
79	0xbdf51395	-0.119666256
80	0xbe3ac0e8	-0.1823765
81	0x3e10d47c	0.14143556
82	0x3c826a92	0.015919957
83	0xbea0950f	-0.31363723
84	0xbe1db1fa	-0.15399924
85	0x3dcc1ae2	0.09966065
86	0xbf8361ae	-1.0264184
87	0xbe3f4b24	-0.18681008
88	0xbf1cc862	-0.6124326
89	0x3edb7026	0.42859
90	0xbee7f7ee	-0.45306343
91	0xbf46d246	-0.776646
92	0x3e07d95a	0.13266507
93	0xbe4caf52	-0.19988754
94	0xbdeb6722	-0.114942804
95	0xbe23073a	-0.15920725
96	0xbf628f4a	-0.8849989
97	0xbe61962c	-0.22029942
98	0xbeb6ac73	-0.35678443
99	0xbef9680d	-0.48712197
100	0xbf98e825	-1.1945845
101	0xbf800917	-1.0002774
102	0x3c34ac04	0.01102734
103	0xbdae39cb	-0.08507117
104	0x3d270b96	0.040782534
105	0xbefc41ba	-0.49268895
106	0xbedb0149	-0.42774418
107	0xbe6b7e91	-0.229975
108	0xbf12de77	-0.57370704
109	0xbc3cc6c8	-0.0115220025
110	0xbf10ac3a	-0.56512797
111	0xbe3ca71a	-0.18423119
112	0xbe3f157e	-0.18660542
113	0xbf3846b2	-0.7198287
114	0xbe96e293	-0.29469737
115	0xba696e2c	-0.00089046615
116	0xbed51774	-0.41619456
117	0xbea70901	-0.32624057
118	0xbd44940f	-0.047992762
119	0x3db2b23f	0.08725404
120	0x3e5de6d2	0.21670082
121	0xbe843b21	-0.25826362
122	0xbeaa14b6	-0.33218926
123	0x3e163748	0.14669526
124	0xbe837075	-0.25671735
125	0xbe0b614f	-0.13611339
126	0xbd6a5ac8	-0.057215482
127	0x3cfe124e	0.031014588
128	0xbecf8e45	-0.4053823
129	0xbde4a35b	-0.1116397
130	0xbe2a591e	-0.16635558
131	0xbea6427c	-0.324726
132	0x3e563b08	0.20920956
133	0xbdc8962c	-0.09794268
134	0xbe3d69cd	-0.18497391
135	0xbf3f5b40	-0.7474861
136	0xbf098dcb	-0.53731984
137	0xbf2e6641	-0.6812478
138	0xbee5666e	-0.4480471
139	0xbe06e0c7	-0.13171683
140	0xbe9a4b54	-0.30135596
141	0xbeca9569	-0.39567116
142	0xbee28887	-0.44244787
143	0xbe872096	-0.2639205
144	0x3d139c3d	0.036037672
145	0xbe1a9399	-0.15095367
146	0xbf1c79ba	-0.6112324
147	0xbeb67d57	-0.35642502
148	0xbd79d840	-0.060997248
149	0xbe0a0b45	-0.13480861
150	0x3ecc88d8	0.39948153
151	0xbe96b562	-0.2943526
152	0xbee7ca6f	-0.45271632
153	0xbe59bb04	-0.21262747
154	0xbddf6cb7	-0.109094076
155	0xbe79a688	-0.24379933
156	0xbe731487	-0.237383
157	0x3e39ca38	0.18143547
158	0xbf0d8725	-0.5528434
159	0xbf0a214d	-0.5395706
160	0xbf0e64ed	-0.5562275
161	0xbe651cd3	-0.22374277
162	0xbf3b7423	-0.73224086
163	0xbf2ad572	-0.6673194
164	0xbdffabce	-0.12483941
165	0xbea6a81a	-0.32550126
166	0xbe340d0f	-0.17583106
167	0xbed1cdf5	-0.40977445
168	0xbe45e1ec	-0.19324464
169	0xbd705239	-0.058672164
170	0xbe05a335	-0.1305054
171	0xbec3b1f9	-0.3822172
172	0xbe9089e5	-0.28230205
173	0xbf867aff	-1.0506285
174	0xbd9a695a	-0.075396255
175	0x3d63223d	0.055452574
176	0xbf04f188	-0.5193105
177	0xbeeb9362	-0.46010882
178	0xbf02d2bf	-0.51102823
179	0xbf0e7d11	-0.55659586
180	0xbe524fe1	-0.20538284
181	0x3d5ad77d	0.053428162
182	0xbe9e3bd8	-0.30905032
183	0xbed54c2a	-0.4165967
184	0xbd05bc59	-0.032650325
185	0xbf0b38b2	-0.54383385
186	0xbe17c860	-0.14822531
187	0xbd8ddd30	-0.06926954
188	0xbe784d7a	-0.24248305
189	0xbebd0283	-0.3691598
190	0xbf693c6b	-0.91107816
191	0x3da7ac8c	0.081872076
192	0xbde6cf33	-0.11269989
193	0xbe1e1a60	-0.15439749
194	0x3e4a679a	0.19766083
195	0xbefa28b2	-0.48859173
196	0xbf42558a	-0.7591177
197	0x3e3a3fe0	0.18188429
198	0xbf809e90	-1.004839
199	0xbf3a6635	-0.72812206
200	0xbe68825f	-0.22705983
201	0xbed25e8e	-0.41087765
202	0xbf286cea	-0.6579119
203	0x3da73547	0.08164459
204	0xbd6e96fc	-0.05824946
205	0x3dd8f6ec	0.105939716
206	0xbd70b8b3	-0.058769893
207	0x3d9aa8c1	0.075517185
208	0xbca9a7d7	-0.020709915
209	0xbe87e411	-0.26541188
210	0xbf246c34	-0.64227605
211	0xbe64f237	-0.22358023
212	0xbed5e53a	-0.41776448
213	0xbe29def6	-0.16588959
214	0xbe508038	-0.20361412
215	0xbea67937	-0.32514355
216	0x3e1e87a7	0.15481435
217	0x3d13d247	0.036089208
218	0xbea19da9	-0.31565598
219	0xbf315012	-0.692628
220	0xbe289753	-0.16463976
221	0xbeb2ca0f	-0.34919783
222	0xbd1ddce7	-0.038540747
223	0x3cffe32e	0.031236257
224	0x3e63a3b9	0.22230424
225	0xbe9d8c08	-0.30770898
226	0xbf1bfc63	-0.60931987
227	0xbe7d29f0	-0.24723029
228	0xbee62761	-0.4495192
229	0xbf52b9fb	-0.82315034
230	0xbea3976e	-0.3195147
231	0xbe713e41	-0.23558904
232	0xbda74bc3	-0.08168747
233	0xbd42270d	-0.047400523
234	0xbdc81069	-0.09768755
235	0xbe7b4511	-0.24538065
236	0xbea27fff	-0.31738278
237	0xbe98332a	-0.29726535
238	0x3df5c59d	0.12000582
239	0xbe9655ac	-0.29362237
240	0xbe4c412f	-0.1994674
241	0x3d6ed1f1	0.058305684
242	0xbf48d010	-0.7844248
243	0xbed40ccb	-0.4141601
244	0xbf351ed7	-0.7075018
245	0x3dc8c655	0.09803454
246	0x3e10560d	0.14095326
247	0xbecfbbc8	-0.40572953
248	0xbd04efa4	-0.0324551
249	0xbca61d64	-0.020277686
250	0xbf037308	-0.513474
251	0xbde91016	-0.11380021
252	0xbe7dc9df	-0.24784039
253	0xbe0f1599	-0.13973083
254	0xbd81e360	-0.063421965
255	0xbdc80f87	-0.097685866

fc2.weight f4 [256, 512]
0	0x3cb32512	0.021868262
1	0xbd89592a	-0.0670646
2	0x3cafb6ea	0.021449525
3	0xbd9aa0a0	-0.07550168
4	0xbd4e7e37	-0.050413337
5	0x3b26b6e3	0.0025438599
6	0xbd0357c5	-0.032066125
7	0xbc9fe843	-0.01951993
8	0x3d1ac03d	0.03778099
9	0x3cb1ae38	0.02168952
10	0xbb8e2caf	-0.004338823
11	0x3cd27f6f	0.02569553
12	0xbd28359c	-0.04106675
13	0x3c79b621	0.015241177
14	0x3c3b8cbc	0.011447128
15	0x3d43b224	0.04777731
16	0x3d2d40a7	0.042297985
17	0xbd1692b7	-0.036761012
18	0x3c2613dc	0.010136571
19	0x3c899afc	0.016797535
20	0xbd1fa066	-0.038971327
21	0xbd1699a8	-0.03676763
22	0x3b91bdd8	0.00444768
23	0xbb65fc11	-0.003509287
24	0xbd487052	-0.048935242
25	0xbca95cad	-0.020674074
26	0xbb85cc83	-0.0040832176
27	0xbccb892d	-0.024845684
28	0x3d23ab52	0.039958306
29	0x3c8ebc02	0.017423633
30	0xbc220ba7	-0.009890473
31	0xbc7393ec	-0.01486681
32	0x3c2e69b6	0.010645321
33	0xbd6e5cb7	-0.05819389
34	0xbbe9a2cc	-0.0071300026
35	0xbc8972bc	-0.016778342
36	0xbe2aef08	-0.16692746
37	0x3c38978a	0.0112665985
38	0xbd9bfd23	-0.07616641
39	0xbb176a11	-0.0023103992
40	0xbc541e99	-0.012946748
41	0x3c3c1488	0.011479504
42	0xbda0bae2	-0.07848145
43	0xbd82a0e6	-0.06378345
44	0xbd5cb734	-0.053885654
45	0xbb8e2a64	-0.0043385495
46	0xbcbc908b	-0.023018142
47	0x3d511b42	0.051051386
48	0x3db03be2	0.08605172
49	0x3d49c7f0	0.04926294
50	0x3c51f530	0.012814805
51	0xbcba17da	-0.022716451
52	0xbcbff903	-0.023434168
53	0x3bca948d	0.0061822594
54	0xbd00cb02	-0.031443603
55	0x3d1fa7ca	0.038978375
56	0xbd968ccd	-0.07351074
57	0xbcecd5ea	-0.028910596
58	0x3c9c8bd8	0.019109651
59	0x3b4ecc72	0.0031554964
60	0xbd86d5fd	-0.06583784
61	0x3d5e2310	0.054232657
62	0x3d57e258	0.052706093
63	0xbd3a0f35	-0.04542466
64	0xbd5292c1	-0.051409487
65	0xbc3b88d8	-0.0114462
66	0x3d72cd1f	0.05927765
67	0x3c8fb9d5	0.017544666
68	0xbd72a6b9	-0.05924103
69	0x3c9a881c	0.01886373
70	0xbca7e365	-0.020494172
71	0xbd67c586	-0.056584857
72	0x3ce3df64	0.027816482
73	0xbcabfef5	-0.020995596
74	0xbd3a3093	-0.04545648
75	0x3dbbc487	0.09168344
76	0xbcea023d	-0.02856552
77	0xbc8222e1	-0.015885772
78	0xbd825087	-0.063630156
79	0xbccd7374	-0.025079466
80	0xbd08ce6b	-0.03339998
81	0xbd62cced	-0.055371214
82	0xbcf08a12	-0.029362712
83	0xbccc96be	-0.024974223
84	0x3d9df1df	0.07712149
85	0xbd2c8fc9	-0.04212931
86	0xbbf5dc38	-0.0075030588
87	0xbc05bf25	-0.008163248
88	0x3d3db6a1	0.046316747
89	0x3c84f699	0.016230868
90	0xbca9321c	-0.020653777
91	0xbdae5379	-0.08512015
92	0xbc948dbf	-0.018133996
93	0xbdd0a857	-0.10188358
94	0xbd51881d	-0.0511552
95	0x3cc90319	0.02453761
96	0xbdc9e166	-0.098574445
97	0xbcfb7f60	-0.030700386
98	0xbca1e273	-0.0197613
99	0xbd2fd494	-0.04292734
100	0xbcb6689b	-0.022266677
101	0xbdc590f1	-0.09646786
102	0xbd841035	-0.06448404
103	0x3c577395	0.0131501155
104	0xbb896382	-0.0041927705
105	0xbd1721dd	-0.03689753
106	0x3d504f31	0.050856773
107	0x3d1bd0d4	0.03804095
108	0xbc66760d	-0.014066231
109	0x3caedcbe	0.021345492
110	0x3c58947e	0.013218997
111	0xbc8d65dd	-0.017260486
112	0x3d66d9c9	0.05636004
113	0xbd66087d	-0.05616044
114	0xba1cdd5b	-0.0005983912
115	0xbc85a485	-0.0163138
116	0xbd1dc315	-0.038516123
117	0xbbd4024e	-0.0064700013
118	0x3d2fb1b7	0.04289409
119	0x3cc25c00	0.02372551
120	0xbb003120	-0.001956053
121	0xbc9d2851	-0.019184263
122	0xbdd0f1d5	-0.10202376
123	0x3c446ad8	0.011988364
124	0xbda99e28	-0.08282119
125	0xbd5ec3eb	-0.05438606
126	0xbd532a2d	-0.051553894
127	0xbc38228e	-0.011238707
128	0xbdd24551	-0.10267127
129	0xbd15a3cf	-0.036533173
130	0x399b806e	0.0002965959
131	0xbd3f7b7b	-0.04674862
132	0x3c88b767	0.016689016
133	0xbd16ddb2	-0.03683252
134	0xbd310588	-0.043218166
135	0xbcc312a1	-0.023812594
136	0x3cd35dcf	0.025801567
137	0x39b06af4	0.00033649022
138	0x3d209651	0.039205853
139	0x3d0f3101	0.034958843
140	0x3cdcb7e9	0.026943164
141	0xbca3eb99	-0.020009803
142	0xba5cbc8d	-0.000842043
143	0xbb3e95eb	-0.0029081057
144	0xbd8ba64b	-0.06818827
145	0xbdbffa5b	-0.093739234
146	0xbc8d5e67	-0.017256929
147	0x3ba02705	0.004887464
148	0xbcb3a364	-0.021928497
149	0xbcae77f1	-0.021297427
150	0x3bec1528	0.0072046705
151	0xb9be80d8	-0.0003633562
152	0xbc387c8c	-0.011260163
153	0x3cf5656a	0.029955585
154	0x3d375f94	0.044768885
155	0x3d74b449	0.059742246
156	0x3d6500b8	0.05590889
157	0xbd9dd864	-0.07707289
158	0xbb136597	-0.0022490972
159	0x3d67a54b	0.05655412
160	0x3b3bb86b	0.0028643857
161	0xbd1cd954	-0.038293198
162	0xbb110e45	-0.002213375
163	0x3c5181d4	0.012787301
164	0x3c633370	0.013867244
165	0xbc9dacf9	-0.019247519
166	0x3c498da5	0.012301837
167	0xbc68915c	-0.014194813
168	0xbc39966b	-0.011327366
169	0xbcedc8ab	-0.02902635
170	0x3cd61da0	0.026137173
171	0x3cec8bb6	0.028875213
172	0xbe1986a8	-0.14992774
173	0x3c35f0ec	0.0111048035
174	0xbd3bf17e	-0.0458846
175	0xbd0284db	-0.031864982
176	0x3c60d96e	0.013723714
177	0xbd77a2c3	-0.060457956
178	0xbd0082c7	-0.03137472
179	0xbbdbb571	-0.006704979
180	0x3bed6aa9	0.007245381
181	0x3d19a19f	0.03750765
182	0xbd6c14ac	-0.0576369
183	0x3b8b0812	0.0042429054
184	0xbd38df79	-0.045134995
185	0xbce175d5	-0.027522007
186	0xbc6213f7	-0.013798705
187	0x3c3a6130	0.01137571
188	0x3ce627ed	0.02809521
189	0xba046e04	-0.0005051794
190	0x3d366a8e	0.044535212
191	0xbd050528	-0.03247562
192	0x3d44c3ae	0.048038177
193	0x3c251793	0.010076421
194	0xbb1fcfb7	-0.0024385282
195	0x3da669ac	0.08125624
196	0xbd0370d6	-0.03209003
197	0xbcada36a	-0.021196086
198	0xbccab414	-0.024744071
199	0x3c34cfc3	0.011035862
200	0xbd229d2f	-0.039700683
201	0xbd468982	-0.04847098
202	0x3d2b3fed	0.04180901
203	0x3ca0e5a3	0.01964075
204	0xbd94331e	-0.07236312
205	0xbca40651	-0.020022543
206	0x3d42fe6d	0.04760592
207	0xbd0b344a	-0.033985414
208	0xbd186afb	-0.0372114
209	0x3d9e3643	0.07725193
210	0xbca6e070	-0.020370692
211	0x3b514bcd	0.003193605
212	0x3d8a3394	0.06748119
213	0xbcb67c3d	-0.022276038
214	0xbd6af8bf	-0.05736613
215	0xbbe42bb9	-0.00696322
216	0x3d52b140	0.05143857
217	0x3bf100cc	0.0073548313
218	0xbd3bb1d0	-0.045823872
219	0x3d1e395b	0.038628917
220	0xbac90227	-0.0015335724
221	0xbd10bcfe	-0.035336487
222	0xbceba64f	-0.028765826
223	0xbe045299	-0.12922134
224	0xbce61e78	-0.0280907
225	0x3c9a5b1c	0.018842272
226	0xbce875f0	-0.02837655
227	0x3d312178	0.04324481
228	0x3cbdf899	0.02318983
229	0xbd4899bd	-0.04897474
230	0x3b658381	0.003502101
231	0x3c85b05b	0.016319444
232	0x3ce460c3	0.02787817
233	0xbcc97487	-0.024591697
234	0xbd840cee	-0.06447779
235	0xbd700c8c	-0.058605716
236	0xbd8273b7	-0.06369727
237	0xbd22274d	-0.03958826
238	0x3c18267d	0.00928652
239	0x3c21ca1b	0.009874846
240	0xbd226e79	-0.039656136
241	0xbdbcd6b8	-0.09220642
242	0x3cff4a33	0.03116331
243	0xbdcfdf5d	-0.10150025
244	0xbc3afef5	-0.011413326
245	0xbc648ed8	-0.013950072
246	0x3d892097	0.06695669
247	0x3c946bb7	0.018117769
248	0xbd9e4a62	-0.07729031
249	0xbc8b161a	-0.016978312
250	0x3ccc2258	0.02491872
251	0x3d1e5fda	0.03866563
252	0x3cfaa25c	0.030594997
253	0x3bd79dcf	0.0065800915
254	0xba793178	-0.00095059676
255	0xbd24e2b0	-0.04025525

fc2.bias f4 [256]
0	0xbdf83395	-0.121192135
1	0xbd9b5f9b	-0.07586595
2	0xbe7829a3	-0.24234633
3	0xbe1ed2e4	-0.15510136
4	0xbe0266a0	-0.12734461
5	0xbdc7bff1	-0.09753407
6	0x3ad83c7d	0.0016497519
7	0xbe08d668	-0.1336304
8	0xbe372cd5	-0.17888196
9	0xbe0115db	-0.12605993
10	0xbe05ff1f	-0.13085602
11	0xbe0874d7	-0.13325821
12	0xbe38acb6	-0.18034634
13	0x3ddce869	0.10786516
14	0xbdf0f83a	-0.117660955
15	0xbdf35d6d	-0.11883054
16	0xbdffb232	-0.1248516
17	0xbe27a809	-0.16372694
18	0xbdb4987b	-0.08818146
19	0xbdbb900e	-0.091583356
20	0xbc108385	-0.008820419
21	0xbdffc6cf	-0.124890916
22	0xbe2814bf	-0.16414164
23	0xbd50380b	-0.050834697
24	0xbda1aef2	-0.07894696
25	0xbe47bc82	-0.19505504
26	0xbd970528	-0.0737403
27	0xbdc32f17	-0.09530466
28	0xbdbb78c2	-0.09153892
29	0xbe2ac25c	-0.16675705
30	0xbdef5fd9	-0.11688203
31	0xbde97633	-0.11399498
32	0xbd91e3b3	-0.07123508
33	0xbe2a41ba	-0.16626635
34	0xbe5459b2	-0.20737341
35	0xbd86b92c	-0.065782875
36	0xbe76d0c5	-0.24103077
37	0xbe89dad9	-0.2692478
38	0xbde83457	-0.11338108
39	0xbd85d0ef	-0.065339915
40	0xbe157094	-0.14593726
41	0xbdcaf994	-0.099108845
42	0xbe67e577	-0.22646128
43	0xbde69953	-0.11259713
44	0xbe5d958a	-0.21639076
45	0xbd9e67cd	-0.07734642
46	0xbe954609	-0.29154995
47	0xbe0c426e	-0.13697216
48	0xbdf34e57	-0.118801765
49	0xbe0f01f8	-0.13965595
50	0xbe1650c7	-0.14679252
51	0xbd9dc2b3	-0.077031516
52	0xbd9e640e	-0.07733928
53	0xbe7fa442	-0.24965003
54	0xbe12d4bc	-0.14338964
55	0xbe1d08ea	-0.15335432
56	0xbe1e8fb8	-0.15484512
57	0xbdf9cfcd	-0.12197838
58	0xbe554a3a	-0.20829096
59	0xbda64613	-0.08118834
60	0xbe3c6591	-0.1839812
61	0xbe19361e	-0.1496205
62	0xbdbef9f1	-0.09325016
63	0xbe535ac7	-0.20640098
64	0xbe2afc1d	-0.16697736
65	0xbe062173	-0.13098697
66	0xbdc07b3f	-0.09398507
67	0xbdf84168	-0.1212185
68	0xbe04f33e	-0.12983415
69	0xbe2f9694	-0.17147285
70	0xbde2c67c	-0.11073014
71	0xbe3e019c	-0.18555301
72	0xbd89da24	-0.0673106
73	0xbe237640	-0.15963078
74	0xbda4e4a5	-0.08051423
75	0xbdccf7e0	-0.10008216
76	0xbe333492	-0.17500523
77	0xbdccff9d	-0.10009692
78	0xbe46159c	-0.19344181
79	0xbe650dc9	-0.2236854
80	0xbe293068	-0.16522372
81	0xbe2863c3	-0.16444306
82	0xbe20949d	-0.15681691
83	0xbe313a35	-0.1730736
84	0xbe02cde9	-0.12773861
85	0xbe58a159	-0.21155299
86	0xbe5343ad	-0.20631285
87	0xbe309662	-0.17244866
88	0xbe5a57de	-0.21322581
89	0xbdca87c2	-0.09889175
90	0xbe06d571	-0.13167359
91	0xbe483e26	-0.19554958
92	0xbd933cad	-0.07189307
93	0xbd947471	-0.07248772
94	0xbdc3a1d3	-0.0955235
95	0xbdbe9749	-0.09306199
96	0xbd748c5d	-0.059704173
97	0xbdf7582e	-0.12077366
98	0xbdba3f57	-0.09094112
99	0xbe131ff1	-0.14367653
100	0xbdbab634	-0.09116784
101	0xbef96cbc	-0.4871577
102	0xbcd1d76c	-0.025615416
103	0xbe0380b6	-0.12842068
104	0xbe0f850f	-0.14015602
105	0xbe82dc1c	-0.25558555
106	0xbe289504	-0.16463095
107	0xbe8db336	-0.2767579
108	0xbe434b2e	-0.19071648
109	0xbe318992	-0.17337635
110	0xbd65d414	-0.056110457
111	0xbdf48ee8	-0.1194132
112	0xbde8d2dd	-0.11368344
113	0xbe182e00	-0.14861298
114	0xbddb31c6	-0.10702853
115	0xbe0f3a7a	-0.13987151
116	0xbda8ee0a	-0.08248527
117	0xbe6acabb	-0.22928898
118	0xbd8d52ff	-0.06900596
119	0xbe361a6f	-0.17783521
120	0xbd99ec14	-0.075157315
121	0xbe00be0c	-0.12572497
122	0xbddf3eda	-0.1090066
123	0xbd9a2939	-0.07527394
124	0xbe3bac52	-0.18327454
125	0xbda45dfb	-0.08025738
126	0xbe7b31e8	-0.24530756
127	0xbdcca198	-0.09991759
128	0xbdd773a7	-0.10520106
129	0xbe067c25	-0.13133295
130	0xbe00fba9	-0.12596
131	0xbdc6fb41	-0.09715892
132	0xbe0b377f	-0.13595389
133	0xbdb846a9	-0.08997852
134	0xbdd8d2ff	-0.10587119
135	0xbd2a4673	-0.04157109
136	0xbdf06547	-0.11738067
137	0xbe25d198	-0.16193235
138	0xbdba0790	-0.09083474
139	0xbe3037be	-0.17208764
140	0xbe6092cf	-0.21931003
141	0xbe2879cb	-0.1645271
142	0xbd914d82	-0.070948616
143	0xbe37a62e	-0.17934486
144	0xbe0a2429	-0.13490357
145	0xbd64a4d3	-0.05582125
146	0xbdf0fbee	-0.11766802
147	0xbe10ffcd	-0.1416008
148	0xbdf498e7	-0.11943226
149	0xbe67d524	-0.226399
150	0xbdee6827	-0.11640959
151	0xbdd8e0fd	-0.10589788
152	0xbd965964	-0.07341269
153	0xbde254a9	-0.11051304
154	0xbe6ae80e	-0.22940084
155	0xbdabd226	-0.08389692
156	0xbdea3d4d	-0.114374734
157	0xbe2f4bbf	-0.17118739
158	0xbe245661	-0.16048576
159	0xbe325fb5	-0.17419322
160	0xbe501c4f	-0.20323299
161	0xbe6613c5	-0.22468479
162	0xbe018eb7	-0.12652098
163	0xbe49ef49	-0.19720186
164	0xbe2b93b6	-0.16755566
165	0xbe18841b	-0.14894144
166	0xbd9b6e9f	-0.07589459
167	0xbde06837	-0.109573774
168	0xbdbe8fbe	-0.093047604
169	0xbdb35158	-0.087557495
170	0xbe04f1e4	-0.12982899
171	0xbdf2550b	-0.11832627
172	0x3de28b6f	0.11061751
173	0xbe40f4f3	-0.1884344
174	0xbe1d908e	-0.15387174
175	0xbe0f6aaf	-0.1400554
176	0xbdadab9a	-0.08479996
177	0xbdd4a5c2	-0.10383178
178	0xbdabf9c2	-0.08397247
179	0xbdd8959a	-0.10575409
180	0xbe886cb6	-0.2664544
181	0xbe1f428b	-0.15552728
182	0xbd86f0bc	-0.06588885
183	0xbe477639	-0.19478692
184	0xbdc92231	-0.098209746
185	0xbd990f62	-0.07473637
186	0xbe16a08e	-0.14709684
187	0xbdf5d356	-0.120032
188	0xbe119934	-0.14218599
189	0xbe4d73cf	-0.20063709
190	0xbdf63ea5	-0.12023667
191	0xbdff0c0a	-0.12453468
192	0xbda81ab6	-0.0820822
193	0xbdb06eaf	-0.08614861
194	0x3d873bb2	0.06603183
195	0xbdd8bc84	-0.105828315
196	0xbde8fad3	-0.11375966
197	0xbda7f40c	-0.08200845
198	0xbe482c5a	-0.19548169
199	0xbd966093	-0.07342639
200	0xbd99f651	-0.07517684
201	0xbd6c96e8	-0.057761103
202	0xbdb72156	-0.08941905
203	0xbe0b7fe4	-0.13623005
204	0xbeaa6d91	-0.33286718
205	0xbddf097c	-0.10890481
206	0xbe53a045	-0.20666607
207	0xbe964d8f	-0.29356048
208	0xbe75d41a	-0.24006692
209	0xbe418ad6	-0.18900618
210	0xbe060835	-0.13089068
211	0xbdcee7be	-0.10102795
212	0xbe033202	-0.12812045
213	0xbe3b2e82	-0.1827946
214	0xbe2022bd	-0.15638252
215	0xbe05d0d2	-0.1306794
216	0xbdb2c22a	-0.0872844
217	0xbe8f9495	-0.28043047
218	0x3d7c7efd	0.061644543
219	0xbe09f0ed	-0.13470812
220	0xbe3f461f	-0.18679093
221	0xbde0a734	-0.109693915
222	0x3dcb86d8	0.09937829
223	0xbd248f15	-0.040175516
224	0xbe1380fc	-0.14404672
225	0xbe4f137d	-0.20222278
226	0xbe1eb582	-0.15498927
227	0xbe10cace	-0.14139864
228	0xbe3557f5	-0.17709334
229	0xbd84f981	-0.064929016
230	0xbe4d4e7f	-0.20049475
231	0xbdf4278c	-0.119216055
232	0xbe2452e6	-0.16047248
233	0xbe602efc	-0.21892923
234	0xbe9804c6	-0.29691142
235	0xbcf53d99	-0.029936599
236	0xbe30ce13	-0.17266111
237	0xbdf6a485	-0.12043098
238	0xbda20794	-0.07911602
239	0xbe77d444	-0.24202067
240	0xbda33ffa	-0.07971187
241	0xbdc67c27	-0.09691649
242	0xbded561e	-0.11588691
243	0xbdb66a3c	-0.08906981
244	0xbe6ef4a5	-0.23335512
245	0xbe89ea8b	-0.26936755
246	0xbe62b12e	-0.22137901
247	0xbe2383bc	-0.15968221
248	0xbe6dd34e	-0.23225138
249	0xbe6725b7	-0.22572981
250	0xbd0c76c2	-0.034292944
251	0xbe0b21df	-0.1358714
252	0xbd9bf62f	-0.07615315
253	0xbe1c5c32	-0.15269545
254	0xbe22d4c4	-0.15901476
255	0xbdac665c	-0.08417961

fc3.weight f4 [1, 256]
0	0x3c97d32f	0.018533317
1	0xbd086192	-0.033296175
2	0x3d06fcbc	0.03295587
3	0xbd126cae	-0.035748176
4	0xbd1f853d	-0.038945425
5	0xbcf874b9	-0.030329095
6	0x3c5cc3f6	0.013474455
7	0xbd10a2c8	-0.03531149
8	0xbc95fc1c	-0.018308692
9	0x3c3d07e8	0.0115375295
10	0xba834052	-0.0010013676
11	0xbc0a7d14	-0.0084526725
12	0x3cf1c021	0.02951056
13	0x3c542423	0.012948069
14	0xbcfeb9d1	-0.031094464
15	0x3b859205	0.004076245
16	0x3b04ac91	0.002024446
17	0x3b504352	0.0031778407
18	0x3be3381a	0.006934178
19	0x3c5749e5	0.013140176
20	0x3c7fe751	0.015619115
21	0x3bb79f3b	0.0056036985
22	0xbb78c55c	-0.0037959432
23	0x3b038359	0.0020067303
24	0xbc1b8709	-0.009492644
25	0xbd0a0994	-0.03370054
26	0x3c52c52b	0.012864391
27	0xbcc81f8d	-0.024429107
28	0x3bbe4332	0.00580635
29	0x3cc23044	0.023704655
30	0x3cfbd394	0.030740537
31	0x3cbb0f45	0.02283443
32	0x3c92d675	0.017924527
33	0x3d0a75f5	0.0338039
34	0xbb5bff3e	-0.0033568884
35	0xba558459	-0.00081450265
36	0xbd1a0d81	-0.037610535
37	0xbcb4e9ed	-0.0220842
38	0xbc5356cd	-0.012899113
39	0x3c65d4da	0.014027799
40	0x3cde3cd3	0.027128613
41	0xbb6b1b55	-0.0035874445
42	0x3c9ece30	0.019385427
43	0xbcdcabdd	-0.02693742
44	0xbd8b1b33	-0.06792297
45	0x3ce89d6b	0.028395375
46	0xbd04d558	-0.032430023
47	0x3d2568f6	0.0403833
48	0x3cc16b46	0.023610722
49	0x3bf9bc42	0.007621319
50	0x3bee2165	0.0072671645
51	0xbb15aa55	-0.0022837122
52	0xbc190db8	-0.00934165
53	0xbd288302	-0.041140564
54	0xbd342278	-0.043978184
55	0xbae72e6d	-0.0017637737
56	0xbcfd1017	-0.030891461
57	0xbd1294c1	-0.035786394
58	0x3d1e6a3d	0.038675535
59	0x3a423bb8	0.00074094115
60	0xbcaf800f	-0.021423368
61	0xbbe52852	-0.006993332
62	0x3c59008d	0.01324476
63	0x3d4e7520	0.050404668
64	0x3c6e988a	0.014562735
65	0x3b86894f	0.004105724
66	0xbb4c6f5b	-0.0031194303
67	0xbc58f255	-0.01324137
68	0x3bebade9	0.0071923626
69	0x3d5dea41	0.05417848
70	0xbca6aec6	-0.02034701
71	0xbdf8d9dd	-0.12150929
72	0xbac82cd0	-0.0015272144
73	0xbcfbb0bc	-0.030723922
74	0xbc0778c8	-0.008268543
75	0x3b7e83a3	0.0038835786
76	0xbcdbce6a	-0.026831824
77	0xbc95245a	-0.01820581
78	0xbab326e4	-0.0013668207
79	0x3ced0542	0.028933171
80	0x3d16f6ca	0.03685645
81	0x3a5e68e6	0.0008484259
82	0xb9314392	-0.00016905207
83	0x3d138f19	0.03602514
84	0xbc428e15	-0.011874695
85	0xbcbda599	-0.023150252
86	0x3cb92e97	0.022605224
87	0xbd606066	-0.054779433
88	0xbd78737f	-0.06065702
89	0xbc248262	-0.010040851
90	0xbb4058f7	-0.0029349902
91	0xbc0d7b4a	-0.008635351
92	0xbd08d150	-0.03340274
93	0xbb0591fb	-0.00203812
94	0x3c1f0fd4	0.009708364
95	0xbbce6a38	-0.0062992834
96	0xb9aeac5d	-0.00033316287
97	0xbbb16da1	-0.00541468
98	0xbae76e64	-0.00176568
99	0xbb97ef5d	-0.0046366886
100	0xbb3c2539	-0.002870871
101	0x3cc71c1e	0.0243054
102	0x3c8386e5	0.016055534
103	0x3bca19cb	0.0061676255
104	0x3c0eda7e	0.008719085
105	0xbca88758	-0.02057235
106	0x3cfe5b85	0.0310495
107	0x3cf57ea1	0.029967608
108	0x3ccd4788	0.025058523
109	0xbc1dcf1a	-0.009631896
110	0x3b5a2c7b	0.0033290673
111	0xbce4c082	-0.027923826
112	0x3cdde15e	0.027085003
113	0xbb954dc9	-0.004556392
114	0xbb9705e7	-0.004608858
115	0xbaee9cc2	-0.0018204676
116	0x3b5381ee	0.003227349
117	0xbd3a00b0	-0.045410812
118	0x3ba014b8	0.0048852824
119	0xbaf5ea3b	-0.0018761823
120	0x3c453fd2	0.012039142
121	0x3c6d3eb9	0.014480286
122	0xbbb30d0c	-0.005464202
123	0x3d18c312	0.03729541
124	0x3cc0ac9a	0.023519803
125	0x3c82bb27	0.015958382
126	0x3cc9ff5b	0.024657896
127	0x3cdd49d1	0.027012737
128	0xbb04e67d	-0.0020278983
129	0x3b2b9213	0.0026179596
130	0x3b60c149	0.0034294894
131	0xbd281bbc	-0.041042075
132	0x3b13b57b	0.002253859
133	0x3a4f8d8a	0.00079175143
134	0xbbc940ab	-0.006141742
135	0x3cfd10f4	0.030891873
136	0x3ccfa6f3	0.025348162
137	0xbd02182c	-0.031761333
138	0xbc2b82a3	-0.010468158
139	0xbcf2ac87	-0.029623283
140	0xbd22c814	-0.03974159
141	0x3c2158a0	0.00984779
142	0x3b6588c4	0.0035024146
143	0x3c8b8707	0.01703216
144	0x3ca2e6c3	0.019885426
145	0xbd068ef7	-0.032851186
146	0x3a87eebb	0.001037083
147	0x3d78530c	0.060626075
148	0x3bf54be9	0.007485856
149	0x3d06cbb1	0.0329091
150	0xbc9ce807	-0.019153608
151	0xbb9b6470	-0.0047421977
152	0xbb96f6f6	-0.0046070768
153	0x3afc1acc	0.001923406
154	0x3d1d61f4	0.038423494
155	0x3c087726	0.008329188
156	0x3d064a82	0.0327859
157	0x3c7bb22f	0.0153623065
158	0x3c29d5f0	0.010365948
159	0x3ceda70a	0.029010314
160	0xbceb6b2e	-0.02873763
161	0x3c605a80	0.013693452
162	0x3c2cfc9d	0.010558275
163	0x3d45c2da	0.048281528
164	0xbd68e6f9	-0.056860898
165	0xbd1afb6e	-0.03783744
166	0x3ba309f3	0.0049755513
167	0x3c856c4e	0.016286995
168	0xba80cdd6	-0.0009826969
169	0x3cebb1bb	0.028771272
170	0x3c890204	0.016724594
171	0xbce5125e	-0.02796286
172	0xbcafdeba	-0.021468509
173	0x3d94f138	0.07272571
174	0xbb87949b	-0.004137588
175	0xbc48cb17	-0.012255452
176	0xbd0a973e	-0.033835642
177	0xbb44d367	-0.0030033232
178	0x3a0345ba	0.00050076435
179	0xbabd318a	-0.001443432
180	0x3ceb9734	0.028758623
181	0x3ba7b6ab	0.0051182113
182	0xbc4117e8	-0.011785485
183	0xbba0dc88	-0.004909102
184	0x3c45b896	0.0120679345
185	0xbcfc3911	-0.03078893
186	0xbcecf994	-0.028927602
187	0xbc9178ad	-0.017757738
188	0xbb81a8a2	-0.00395687
189	0xbcf85925	-0.030315945
190	0xbc04666d	-0.008081061
191	0xbc90251e	-0.017595824
192	0xba7aae6e	-0.0009562735
193	0xbcbe46ed	-0.02322718
194	0x3cad4538	0.02115117
195	0x3ccca1c8	0.024979487
196	0xbbaa9a74	-0.0052064005
197	0xbb59aa97	-0.0033213252
198	0xbd340c52	-0.043957062
199	0x3bf8debb	0.007594911
200	0x3bba8ca0	0.0056930333
201	0x3c85fd61	0.016356172
202	0xbb869819	-0.004107487
203	0xbcd5874b	-0.02606549
204	0xbcdb1b33	-0.026746368
205	0xbb6e6c51	-0.003638048
206	0x3c1c1d82	0.00952852
207	0xbcae69aa	-0.021290619
208	0x3d4929d9	0.049112175
209	0xbd314f31	-0.043288413
210	0xbc53a952	-0.012918787
211	0x3c2745ae	0.010209484
212	0x3bf5352a	0.0074831443
213	0x3cfb5522	0.030680243
214	0xbd223b72	-0.039607473
215	0x3cf89800	0.030345917
216	0xbd1ff51f	-0.039052125
217	0xbdbf999b	-0.0935547
218	0x3c77c85f	0.015123456
219	0xbbb77e8f	-0.0055998038
220	0xbcbc7919	-0.023006963
221	0xbcd894ed	-0.0264382
222	0xbc9a7dec	-0.018858872
223	0xbd12ded5	-0.03585704
224	0x3ca95b7f	0.020673512
225	0xbb217308	-0.0024635214
226	0x3d1c220f	0.03811842
227	0x3c622457	0.013802609
228	0x3cc50d9b	0.02405434
229	0x3c316efa	0.0108296815
230	0x3ce8c408	0.028413787
231	0x3cac85c8	0.021059886
232	0x3b68fe18	0.0035551842
233	0x3ca21dd9	0.019789623
234	0x3d0ea92f	0.034829315
235	0x3cc0ff2d	0.023559177
236	0x3d1bd410	0.038044035
237	0x398af5a8	0.0002650444
238	0xbb0ba533	-0.0021308183
239	0xbca745cc	-0.020419024
240	0xb9ce2ccb	-0.00039324755
241	0xb9879f0a	-0.000258677
242	0x3c9ec3e9	0.019380527
243	0xbbbd4b80	-0.0057768226
244	0x3d158675	0.03650518
245	0xbceced15	-0.028921643
246	0xbd4edccf	-0.05050355
247	0xbd0e2db1	-0.034711543
248	0xbd310f91	-0.043227736
249	0x3d06aecd	0.032881547
250	0x3c89ce58	0.016822025
251	0x3d49664d	0.049169827
252	0x3bc0aed6	0.005880217
253	0x3b93bda5	0.0045086914
254	0xbd1f0532	-0.038823314
255	0xbbc847ed	-0.00611209

bn1.weight f4 [512]
0	0x3e07a5ee	0.13246891
1	0x3e717eed	0.23583575
2	0x3e92c0a5	0.286626
3	0x3e4c84be	0.19972512
4	0x3ea245e1	0.31693938
5	0x3e19d20f	0.15021537
6	0x3dd809a8	0.10548717
7	0x3de68b74	0.11257067
8	0x3e081947	0.13290893
9	0x3e5bb6e1	0.21456482
10	0x3e56bab1	0.20969655
11	0x3e21ea13	0.15811948
12	0x3e12e03a	0.14343348
13	0x3f180c77	0.5939402
14	0x3e0be99b	0.13663332
15	0x3e049a25	0.12949426
16	0x3b387b67	0.0028149725
17	0x3e2e7933	0.17038421
18	0x3e274120	0.16333437
19	0x3ddb6cdc	0.10714123
20	0x3e07a3b3	0.1324604
21	0x3e8c0017	0.2734382
22	0x3e5e1033	0.21685867
23	0x3e059506	0.13045129
24	0x3df84883	0.121232055
25	0x3de739aa	0.112902954
26	0x3ef89f35	0.48558965
27	0x3e261054	0.16217166
28	0x3e8262bd	0.25465956
29	0x3e912a15	0.2835242
30	0x3f571ad7	0.8402533
31	0x3e8501e9	0.2597802
32	0x3deee263	0.116642736
33	0x3f08a379	0.5337444
34	0x3ea3fb48	0.3202765
35	0x3f335d0a	0.7006384
36	0x3e13a335	0.14417727
37	0x3dbcb67b	0.09214493
38	0x3e07d273	0.13263874
39	0x3dfa4f70	0.12222183
40	0x3df63bb4	0.12023106
41	0x3e6632db	0.22480337
42	0x3e843cdd	0.25827685
43	0x3e20f161	0.15717079
44	0x3dd22dba	0.10262628
45	0x3e16718d	0.14691754
46	0x3e7ff9be	0.24997613
47	0x3e733156	0.23749289
48	0x3f7278a6	0.94715345
49	0x3dcaf6ac	0.0991033
50	0x3e8c330f	0.27382705
51	0x3e2d6727	0.16933881
52	0x3b72a34b	0.00370236
53	0x3e850b25	0.25985065
54	0x3e047d89	0.12938513
55	0x3e564511	0.20924784
56	0x3e119e5a	0.14220563
57	0x3e41cbb3	0.18925361
58	0x3e511e1f	0.20421647
59	0x3e351e58	0.17687356
60	0x3e6fd6de	0.23421809
61	0x3e8be953	0.2732645
62	0x3eb91b21	0.3615351
63	0x3e1d4481	0.15358163
64	0x3bbb5c83	0.0057178154
65	0x3df438ff	0.11924934
66	0x3df75c07	0.120781
67	0x3da7be42	0.08190586
68	0x3f51080a	0.8165289
69	0x3e54f624	0.2079702
70	0x3e252c5c	0.16130203
71	0x3e05ff36	0.13085636
72	0x3e245ead	0.16051741
73	0x3e55860b	0.20851915
74	0x3f1120c6	0.56690633
75	0x3db8100d	0.089874364
76	0x3f456aa4	0.77115846
77	0x3e8758a0	0.26434803
78	0x3e1b9176	0.15192208
79	0x3e394e28	0.1809622
80	0x3de779bd	0.113025166
81	0x3e5887c7	0.21145545
82	0x3f04c1d2	0.51858246
83	0x3df913d3	0.12161984
84	0x3dd9fb04	0.106435806
85	0x3e6eb7a5	0.23312242
86	0x3f55fae3	0.8358595
87	0x3e4a3074	0.19745046
88	0x3da6dc60	0.08147502
89	0x3e43994b	0.19101445
90	0x3e8746aa	0.264211
91	0x3e7d8afd	0.24760051
92	0x3e4900f1	0.19629265
93	0x3e3b3ec9	0.1828567
94	0x3e237551	0.15962721
95	0x3e2c05fc	0.16799158
96	0x3e2a9569	0.16658558
97	0x3e15c173	0.14624576
98	0x3e6ac1d0	0.22925496
99	0x3e36a436	0.17836079
100	0x3e8d81e4	0.2763816
101	0x3e130b49	0.14359774
102	0x3e4aba4e	0.19797632
103	0x3e311baf	0.17295717
104	0x3e982aa1	0.29720023
105	0x3b0d401d	0.0021553107
106	0x3e154435	0.145768
107	0x3e228076	0.15869316
108	0x3e999946	0.2999975
109	0x3e0afeb5	0.13573726
110	0x3e460e55	0.19341405
111	0x3e55727e	0.20844457
112	0x3e4f5294	0.20246345
113	0x3e25d73c	0.16195387
114	0x3efd05dd	0.49418536
115	0x3c6f1363	0.0145920245
116	0x3e768e72	0.24077776
117	0x3de1be92	0.110226765
118	0x3e65caf4	0.22440702
119	0x3aaa2391	0.001298057
120	0x3ea6ba7f	0.3256416
121	0x3df1a5ee	0.11799227
122	0x3df47116	0.11935632
123	0x3e2406d4	0.1601823
124	0x3e2bcee8	0.16778147
125	0x3ef0d021	0.4703379
126	0xbb85858b	-0.0040747575
127	0x3e676b19	0.22599448
128	0x3e9508ea	0.29108363
129	0x3e22ea4c	0.1590969
130	0x3e27aae9	0.16373791
131	0x3d98d40f	0.07462322
132	0x3e33b240	0.17548466
133	0x3e53c8e8	0.20682108
134	0x3e2d9b85	0.16953857
135	0x3e1bba5a	0.15207806
136	0x3e2c543b	0.16829006
137	0x3e1ccab8	0.15311706
138	0x3ebd49e7	0.36970446
139	0x3de9dd96	0.11419217
140	0x3e0620a8	0.13098395
141	0x3e93833c	0.2881106
142	0x3dba6aea	0.091024235
143	0x3e292d60	0.16521215
144	0x3ddc8ef9	0.10769457
145	0x3d04d2a0	0.03242743
146	0x3d865f89	0.06561191
147	0x3ea801d9	0.3281391
148	0x3dfb390d	0.12266741
149	0x3e2d834f	0.16944622
150	0x3e14d20a	0.14533249
151	0x3e2f766a	0.17135015
152	0x3e829fe7	0.2551262
153	0x3e47714f	0.19476818
154	0x3ddb9d67	0.107233815
155	0x3df3e0b9	0.11908097
156	0x3e58ac9b	0.21159594
157	0x3e946397	0.2898223
158	0x3e702cee	0.2345464
159	0x3e425936	0.18979344
160	0x3e809105	0.2511064
161	0x3e2b2d5c	0.16716522
162	0x3ddfc001	0.10925294
163	0x3df3225f	0.1187179
164	0x3e50b612	0.20381954
165	0x3e7c3023	0.24627738
166	0x3de036a8	0.10947925
167	0x3e2c2854	0.16812259
168	0x3dbb270d	0.09138308
169	0x3e6b67a8	0.2298876
170	0x3e483a52	0.19553497
171	0x3d37094f	0.04468661
172	0x3dbc1b86	0.09184937
173	0x3eddeb09	0.4334338
174	0x3e07283c	0.13198942
175	0x3dfa4c32	0.12221564
176	0x3eb17489	0.34659222
177	0x3d95145c	0.07279274
178	0x3e31d80b	0.1736757
179	0x3ddc607c	0.107605904
180	0x3e4cf69a	0.20015946
181	0x3e82a462	0.2551604
182	0x3e230636	0.15920338
183	0x3eaa02f0	0.33205366
184	0x3de09f47	0.1096788
185	0x3dcae9f1	0.09907902
186	0x3dfda7e6	0.1238554
187	0x3e8be80f	0.27325484
188	0x3e8ddca9	0.27707413
189	0x3e16affc	0.1471557
190	0x3e9269a6	0.28596228
191	0x3e333701	0.17501451
192	0x3e05124c	0.12995261
193	0x3dbfe3e0	0.093696356
194	0x3e75ae19	0.23992194
195	0x3e11a893	0.14224462
196	0x3eafda3c	0.34346187
197	0x3e95a67f	0.2922859
198	0x3f25c86a	0.6475893
199	0x3e85d7ba	0.2614115
200	0x3e6300f7	0.22168337
201	0x3e1b560f	0.15169547
202	0x3e35780f	0.1772158
203	0x3f15fdbb	0.58590287
204	0x3f2026f9	0.6255947
205	0x3e919f72	0.2844196
206	0x3e4739d3	0.19455652
207	0xba178fe8	-0.00057816366
208	0x3df91209	0.12161643
209	0xbe36460e	-0.17800161
210	0x3e16accf	0.14714359
211	0x3e087c4d	0.13328667
212	0x3e4ba781	0.19888116
213	0x3e610ff6	0.21978745
214	0x3de01369	0.10941202
215	0x3d9fcee1	0.07803131
216	0x3ebd3a5f	0.36958596
217	0x3e3e5875	0.18588431
218	0x3e95b090	0.2923627
219	0x3e8ce79f	0.27520463
220	0x3e482e15	0.19548829
221	0x3e3cf9ce	0.18454668
222	0x3e130d21	0.14360477
223	0x3e9c7841	0.30560496
224	0x3e8f8620	0.28032017
225	0x3e1a4756	0.15066275
226	0x3e885877	0.26629993
227	0x3e199961	0.14999916
228	0x3e38a401	0.18031313
229	0x3e374452	0.17897156
230	0x3dc9d357	0.09854763
231	0x3e3e024f	0.18555568
232	0x3e11ab25	0.14225443
233	0x3e10c709	0.14138426
234	0x3e500f54	0.20318347
235	0x3ea35780	0.31902695
236	0x3e5ea524	0.21742684
237	0x3e2a9498	0.16658247
238	0x3e5de3f0	0.21668983
239	0x3e2d38dd	0.16916223
240	0x3e2ce707	0.16885005
241	0x3b272983	0.002550692
242	0x3ebd91cf	0.37025306
243	0x3e1bbd63	0.15208964
244	0x3e922106	0.2854082
245	0x3e5582c8	0.2085067
246	0x3dd4f8bd	0.103990056
247	0x3efb2f94	0.49059737
248	0x3ded815d	0.1159694
249	0x3ebc13a3	0.36733732
250	0x3e1f2604	0.15541846
251	0x3e491585	0.19637115
252	0x3e360e6c	0.17778939
253	0x3e516742	0.20449546
254	0x3e2227f1	0.15835549
255	0x3e36f702	0.17867664

bn1.bias f4 [512]
0	0xbb35b921	-0.0027728754
1	0x3d84b18c	0.06479177
2	0x3d9244bc	0.07142016
3	0x3ddc0d1e	0.107446894
4	0x3e069cfa	0.1314582
5	0x3d7424cf	0.059605416
6	0x3cde5d92	0.027144227
7	0x3c3a56c1	0.011373223
8	0x3d52fd3a	0.051511027
9	0x3d8a8172	0.06762971
10	0x3d6f616e	0.058442526
11	0x3c4cb818	0.012495063
12	0x3d8276e7	0.06370335
13	0x3e1346d4	0.14382488
14	0x3db8ca47	0.09022956
15	0x3cef983d	0.029247398
16	0xb73fe390	-1.1437471e-05
17	0x3d903831	0.07041968
18	0x3d231624	0.039816037
19	0x3c6b8987	0.014376051
20	0x3d4862d4	0.048922375
21	0x3daeb602	0.08530809
22	0x3d7e7b09	0.062129054
23	0xbb6d53ee	-0.0036213356
24	0x3d210169	0.039307985
25	0x3c4dc2bf	0.012558638
26	0x3debca68	0.11513215
27	0x3d67d01d	0.056594957
28	0x3d6ced02	0.057843216
29	0x3dfeaf14	0.12435737
30	0xbd8559f6	-0.06511299
31	0x3dd2e262	0.10297085
32	0x3c8382a5	0.016053507
33	0x3e6a01bb	0.22852223
34	0x3e25fb5f	0.16209172
35	0x3df5256d	0.11970029
36	0x3d99c631	0.07508505
37	0x3c40882f	0.011751219
38	0x3d818bfc	0.06325528
39	0x3cf2184a	0.029552598
40	0x3d4915bf	0.049093004
41	0x3dd86623	0.10566356
42	0x3de50155	0.11181895
43	0x3d591486	0.05299809
44	0x3cf448d5	0.029819885
45	0x3d534e46	0.05158832
46	0x3e17afcc	0.14813155
47	0x3dd9fb8a	0.106436804
48	0x3ebfebfa	0.37484723
49	0xbd5e2fe8	-0.054244906
50	0x3dc2a8e2	0.09504868
51	0x3d213638	0.039358348
52	0x39e21456	0.0004312123
53	0x3d9930b1	0.0747999
54	0x3d25015d	0.040284503
55	0x3d8090e6	0.06277637
56	0x3d60712e	0.054795437
57	0x3d6f2b4e	0.058390908
58	0x3d76e260	0.06027448
59	0x3d931ce2	0.07183243
60	0x3de1bc62	0.11022259
61	0x3db524de	0.088449225
62	0x3d690e11	0.05689818
63	0x3cfb5858	0.030681774
64	0x3a8233f4	0.0009933696
65	0x3cb7002c	0.02233895
66	0x3be34508	0.0069357194
67	0x3d8d5764	0.06901434
68	0x3e14f1bb	0.14545338
69	0x3d8188d6	0.063249275
70	0x3dbe545a	0.092934325
71	0x3d5001c6	0.05078294
72	0x3d376bc8	0.044780523
73	0x3d9971b9	0.07492394
74	0x3e1e360c	0.15450305
75	0x3b8363fd	0.0040097223
76	0x3e7360a8	0.2376734
77	0x3d3b8b31	0.04578704
78	0x3d538eb4	0.051649764
79	0x3d226351	0.039645497
80	0x3d1191e2	0.035539515
81	0x3d6ca3f8	0.05777356
82	0x3e354135	0.17700656
83	0x3d20143d	0.0390818
84	0x3cad15ba	0.021128524
85	0x3d8cf9a3	0.06883552
86	0x3b34039e	0.0027467976
87	0x3d988921	0.0744803
88	0x3cb8ec58	0.022573635
89	0x3d83a176	0.064272806
90	0x3dae08a0	0.08497739
91	0x3ddb0949	0.106951304
92	0x3da85901	0.08220101
93	0x3da74592	0.08167566
94	0x3d79fd7a	0.06103275
95	0x3cce0351	0.025148066
96	0x3e09182c	0.13388127
97	0x3d454f2d	0.04817121
98	0x3d906f9d	0.070525385
99	0x3d9b1022	0.075714365
100	0x3e18a923	0.1490827
101	0x3d1456c4	0.03621556
102	0x3dcbf2a0	0.099583864
103	0x3d1685d9	0.03674874
104	0x3db84eb6	0.08999388
105	0x3a35cbde	0.00069349806
106	0x3d0c7a5d	0.034296382
107	0x3d4227f9	0.047401402
108	0x3de363a5	0.1110299
109	0x3c4c28bc	0.012460884
110	0x3db95e4b	0.09051188
111	0x3d8027ae	0.06257568
112	0x3d816a9e	0.06319164
113	0x3d8960e2	0.06707932
114	0x3dddef18	0.10836619
115	0x393f4ab4	0.00018243009
116	0x3dad52fc	0.08463094
117	0x3cef8908	0.029240146
118	0x3d92ba6e	0.07164465
119	0x3aa9b808	0.0012948522
120	0x3e008665	0.12551267
121	0x3d0074f6	0.031361543
122	0x3d3fb46f	0.046802934
123	0xbcf82a33	-0.03029356
124	0x3d43166b	0.0476288
125	0x3e21ebf2	0.15812662
126	0x3a285021	0.00064206315
127	0x3d8f971b	0.07011243
128	0x3dd9ddd0	0.106380105
129	0x3d0f7b93	0.03502996
130	0x3d1492cd	0.036272813
131	0x38d2beda	0.00010049129
132	0x3d9027ce	0.07038842
133	0x3d9eaeaf	0.07748162
134	0x3d156581	0.036473755
135	0x3d594a56	0.053049408
136	0x3d4943be	0.04913687
137	0x3d5c7ede	0.053831927
138	0x3e11f7e3	0.14254718
139	0x3cf57802	0.02996445
140	0x3d035432	0.032062717
141	0x3d976ded	0.073940136
142	0x3d216cff	0.039410587
143	0x3d7ffc93	0.062496733
144	0x3cac1021	0.021003785
145	0x3e966102	0.29370886
146	0x3cf397d5	0.029735485
147	0x3d9ec218	0.07751864
148	0x3d4c6a35	0.049905974
149	0x3d866797	0.06562727
150	0x3cc1b493	0.023645675
151	0x3d7b11bb	0.061296206
152	0x3da5ab6f	0.08089339
153	0x3d865df9	0.065608926
154	0x3c4c25ff	0.012460231
155	0x3d0ffe6b	0.03515474
156	0x3d947f49	0.0725084
157	0x3d800f01	0.06252862
158	0x3d5ad02f	0.053421196
159	0xbb5751d8	-0.003285518
160	0x3deca0b3	0.115540884
161	0x3d86b52f	0.06577527
162	0x3c610ca3	0.013735923
163	0x3cd527e6	0.026020002
164	0x3d54f439	0.05199072
165	0x3db6dd9d	0.08928988
166	0xbcf46520	-0.029833376
167	0x3d423589	0.047414336
168	0x3ccfeb89	0.025380867
169	0x3dcd585e	0.1002662
170	0x3dd754d7	0.10514229
171	0xbdb52221	-0.088444
172	0x3e89450a	0.26810485
173	0x3dff0842	0.12452747
174	0x3cf66f05	0.030082235
175	0x3cd6a587	0.026201976
176	0x3ddb36be	0.107038006
177	0x3ceebd92	0.029143129
178	0x3d79c0d2	0.060974903
179	0x3d0866eb	0.033301275
180	0x3d8ff0bb	0.070283376
181	0x3dbebdfb	0.0931358
182	0x3d7e6d4b	0.06211595
183	0x3df93acd	0.121694185
184	0x3c9c508b	0.019081375
185	0x3c53e6b5	0.012933423
186	0x3d3933f4	0.045215562
187	0x3da5d030	0.08096349
188	0x3dad03c4	0.08447984
189	0x3cbe3df5	0.023222903
190	0x3e1d79db	0.15378515
191	0x3d07c47a	0.03314636
192	0x3cda1f73	0.026626324
193	0x3cfa4edd	0.030555183
194	0x3d927050	0.07150328
195	0x3d31d8e6	0.04341974
196	0x3e0ecf81	0.13946344
197	0x3da8b65f	0.082379095
198	0x3d7d0c3e	0.061779253
199	0x3e2bebd6	0.16789183
200	0x3dcf4b8f	0.101218335
201	0x3d3cd15b	0.046098094
202	0xbd12886c	-0.035774633
203	0x3dbb4f7d	0.091460206
204	0x3e0a8468	0.13527071
205	0x3d93ac14	0.07210556
206	0x3cd33a36	0.025784593
207	0x39d796cb	0.00041120345
208	0x3cfe7e4b	0.03106608
209	0xbd140844	-0.036140695
210	0x3e0b948b	0.13630883
211	0x3cccef22	0.025016371
212	0x3db11f73	0.086485766
213	0x3d68804c	0.05676298
214	0x3d140ff3	0.036148023
215	0x3c85adb3	0.016318178
216	0x3de115c5	0.1099048
217	0x3d2459e4	0.04012479
218	0x3e060459	0.13087596
219	0x3e170e20	0.14751482
220	0x3d3d776b	0.046256464
221	0x3d418b37	0.047251906
222	0x3d3412c1	0.043963198
223	0x3dabdf02	0.08392145
224	0x3d8a953a	0.06766744
225	0x3d1224a1	0.035679463
226	0x3d5d13bd	0.053973902
227	0xbbc82b4e	-0.006108678
228	0x3d7bb8df	0.061455604
229	0x3d772ca5	0.06034531
230	0x3c53bfaf	0.012924119
231	0x3dd751a8	0.105136216
232	0xbbdf7d88	-0.0068203844
233	0x3d576c8a	0.052593745
234	0x3d6df8a9	0.05809847
235	0x3dc23339	0.09482426
236	0x3d8f0613	0.069835804
237	0x3d538d84	0.05164863
238	0x3d90b68c	0.07066068
239	0x3d474ef1	0.04865927
240	0x3d1b35b8	0.037893027
241	0x3a9f1965	0.0012138305
242	0x3e2e23e3	0.17005877
243	0x3d2b00ec	0.041748926
244	0x3dbde91c	0.09272978
245	0x3d9761ff	0.07391738
246	0xbda1be89	-0.0789767
247	0x3e50550a	0.2034494
248	0x3d24daab	0.0402476
249	0x3dacbbdd	0.084342696
250	0x3cc9bcfe	0.024626251
251	0x3d3435e2	0.0439967
252	0x3d21241f	0.03934109
253	0x3d76c0d9	0.060242508
254	0x3d331c80	0.04372835
255	0x3d80004d	0.06250057
