3 - Collab -MADDPG/trained_agents/maddpg_tennis_checkpoint_actor_local_0.pth (torch_old, 588240 bytes, 10 tensors)

fc1.weight f4 [512, 24]
00000000: 6291 babc f299 47bd 4c1b 26bc 9051 2f3d
00000010: 4bc8 1bbb 8a7b 12bb c429 1db9 790e 8bbc
00000020: 31fc 7a3d bf6c 0d3d f8be 9e3c 6c8c 0abd
00000030: 1835 013d f242 be3c 2256 aebc 00e4 c03c
00000040: ab02 9c3d c70d 613d 57c2 f2bc ca2b 3ebd
00000050: 2cd8 133d c6f9 123d dced 1a3d c1d8 47bc
00000060: a9ab db3c 9c39 e2bc 8b25 aa3c ea3a 293d
00000070: 09c6 0f3d 2b31 5bbd 2739 ebbc 60df ec3c
00000080: 308f 2dbd 3412 b9bc 7473 a13c fa71 183d
00000090: d2a3 523d 41e7 8bbd c1f5 20bd acb9 3a3d
000000a0: bef6 973a d799 38bb 13a9 ccbb 8895 1abd
000000b0: 13d1 99bc 01ff 7abd 7351 f43c cca6 9cbc
000000c0: 0290 273d a33d 52bc 6775 c73c 4beb 62bd
000000d0: ecec 0e3c 9ba6 4abc f182 013d 657a 16bc
000000e0: 071b 793d bbda 56bc 7f32 8ebc 6f9d 53bd
000000f0: 88f7 30bc faaa 5fbd 9034 003d 74ed 85bd
00000100: e286 b5bc 3ebd 19bd c4c5 76bb 021d db3c
00000110: db07 ee3b 38c3 90bc 5b28 35bd 8dd2 29bd
00000120: c9f6 4bbb dd0f bcbc 2982 5b3d 69a3 f5bc
00000130: e2a2 d6bb 10ce b4bc 25fa bb3c a55c 48bd
00000140: 871f 14bd a70f 82bd 3caf 17bc 36b1 b9bc
00000150: 9bfe 643c 5b4d c53a 1813 77bc a6f6 36bc
00000160: 1096 91bc e115 bcbd cf4e fcbc 02aa 9f3c
00000170: c2ff 0cbd e5ed 4c3d 5af5 93bc e0ad 873c
00000180: 9645 8f3d 6b35 85bc fdcf 18bb 79c3 12bd
00000190: 48e5 913d cd01 bebb 65d8 f5bb c8ae 6fb9
000001a0: 3813 bc3c 833e 76bd 2128 19ba a33e 1cbd
000001b0: 2269 603d e64a 313b 8130 b4bb bcde 6bbb
000001c0: 52d2 923c 2aa8 a63a 0ae1 de3c 4758 91bc
000001d0: eefe d6bc c1e9 9c3c f251 c4bc 0437 f2ba
000001e0: e912 babc 58e4 18bc f72f 0fbc acee 773d
000001f0: 01df a5bc 5a73 f5bc 779e f5bc 4575 143c
00000200: 1cee 8dbc ad1f 6e3a 345f 5f3c ffa1 29bd
00000210: d77a 22bd f2e6 8ebd 4fb0 cd3c 8e5b 6a3c
00000220: 18c6 b9bb 9f1b 733c 46a3 bbbb 68ca 853d
00000230: 0e68 c0bc 4101 0fbd 47e4 ffb8 055f 88ba
00000240: 815b 95bc 3409 7d3d 5d13 fabc e07e 12bd
00000250: c00e 50bd 7fe6 8ebc 1c61 363d 2def 683c
00000260: c1da b6bc a02e 183c ef9f 94bc 0eeb c7bb
00000270: f9cd 81bc 2223 49bd c5c2 1a3a 5589 58bd
00000280: 8697 6e3d 4c3a 943d b172 4ebc 6cfb 6abd
00000290: 9e5e bb3b 10ee 0fbd a7fa 143c 7cc4 0dbd
000002a0: 29ef 323d 1d6f b83c 2c4b 8fbc 189c 34bd
000002b0: f12d 11bc 7ca6 ed39 c4f7 f4bc 4f77 cc3c
000002c0: ecf3 09bd a087 57bd fc5d c1bc 95de 84bd
000002d0: d008 25bd 7336 a4bc 777d 8bbc b795 73bd
000002e0: 1205 dabc 691e 97bc c029 2bbd 740e ccbc
000002f0: a259 45bd 8932 bebb 7436 ab3c e15f 3cbd
00000300: ebc7 bb3c 8417 4fbd 1a9c 30bc cba6 07bd
00000310: 3870 07bc adaf c73c b252 15bd 47bd 163d
00000320: f25b 103d 28ce a9bc 52b6 0a3c 6e61 09bc
00000330: e53e ce3b 5245 0e3d fcd2 8b3c aafd 373b
00000340: b062 223d ceba 8abd 59a8 aa3c 73a0 143d
00000350: 04c4 b1bb f06d c73b a0c9 1f3d 9696 ad3d
00000360: eaa9 043d 24b2 183d 311d 013d 5766 503c
00000370: 4ccf 013d 8c27 acbc 280f 30bd 95bb 553c
00000380: 2dc4 f2ba ff78 6b3d 58b8 4cbc ea6b 40bb
00000390: 9678 753c 1340 a0bd 5cab a23c df80 5ebc
000003a0: c564 8fbc 846e 92ba 4668 953c cf4b f8bc
000003b0: b04c ca3d 452a 95bc 25ab 72bb 3b81 c6bc
000003c0: 7b37 16bc a16f 28bd ebbb a23c b441 233d
000003d0: ebbb 17bd d5d3 9a3d 68d9 4e3c 8ece 2e3d
000003e0: 497e 053b 83ab 81bd f8ac 1e3d 6bc5 dfbc
000003f0: d633 28bc 5b98 563d 7874 9fbc f32d d6bc
-0.022774402 -0.048730798 -0.010138344 0.042802393 -0.0023770507 -0.0022351467 -0.00014988246 -0.016974675
0.061275665 0.034527536 0.01937817 -0.033825323 0.031544775 0.023225281 -0.021281306 0.023546219
0.076176964 0.05494478 -0.029633684 -0.04642848 0.03609483 0.035882734 0.037824497 -0.012197674
0.026815252 -0.02761536 0.020769855 0.04131595 0.03510097 -0.053513687 -0.028713776 0.028915107
-0.042372882 -0.022591688 0.019708373 0.03721807 0.051425762 -0.068312176 -0.03929687 0.045587227
0.0011593921 -0.0028167868 -0.006245741 -0.03774026 -0.018776452 -0.061278347 0.029823994 -0.019122504
0.04090882 -0.012832078 0.024347974 -0.055400174 0.008723479 -0.012368823 0.031619016 -0.009184455
0.06081679 -0.013113673 -0.017358063 -0.051663812 -0.010801204 -0.054606415 0.031300128 -0.06539431
-0.022159044 -0.03753399 -0.0037654499 0.02674723 0.00726412 -0.017671213 -0.04422794 -0.041460562
-0.0031122437 -0.022956783 0.053590927 -0.029985147 -0.006550179 -0.022070915 0.022946427 -0.048916478
-0.03616288 -0.06350642 -0.009258088 -0.022667509 0.013976718 0.0015052961 -0.015080236 -0.011167204
-0.01777175 -0.091838606 -0.030799298 0.019490246 -0.034423597 0.05003156 -0.018061329 0.016562402
0.06995694 -0.016260823 -0.002331733 -0.03583095 0.0712381 -0.0057985545 -0.007502603 -0.00022857927
0.022958383 -0.06011821 -0.00058424665 -0.038145673 0.054787762 0.00270527 -0.005498946 -0.0035990914
0.017922554 0.0012714912 0.027206916 -0.01774229 -0.026244607 0.019154431 -0.023964856 -0.0018479531
-0.022714095 -0.009331785 -0.008739463 0.06053035 -0.020247938 -0.02996223 -0.029982788 0.009061162
-0.017325453 0.00090836996 0.013633538 -0.041414257 -0.03966793 -0.06977643 0.025108485 0.014304055
-0.0056693666 0.014838128 -0.005726251 0.065327466 -0.023487117 -0.034913305 -0.000122018675 -0.0010404295
-0.018232109 0.061776355 -0.030526811 -0.03576553 -0.050795317 -0.017443893 0.044526204 0.01421718
-0.022321107 0.00928846 -0.018142669 -0.0061010187 -0.015845286 -0.04910577 0.0005903657 -0.052865345
0.058249973 0.07237682 -0.012600587 -0.05736868 0.0057180664 -0.035139143 0.009092963 -0.03461121
0.043685112 0.02251392 -0.0174919 -0.044094175 -0.008861051 0.00045328203 -0.0299033 0.024959235
-0.033679888 -0.052619576 -0.023604386 -0.06487767 -0.040291607 -0.020045495 -0.0170276 -0.05946895
-0.026613746 -0.018447118 -0.041787863 -0.024909236 -0.048181184 -0.005804364 0.020899989 -0.045989875
0.022922477 -0.050559536 -0.010779405 -0.03311805 -0.008266501 0.02437576 -0.036455818 0.036801603
0.035243936 -0.020728186 0.00846632 -0.008385045 0.0062941187 0.034734078 0.017068379 0.002807478
0.039644897 -0.067739114 0.020832228 0.03628583 -0.005424978 0.0060861036 0.039010644 0.084759876
0.032388605 0.037279263 0.03152198 0.012719712 0.031691834 -0.021014951 -0.042983204 0.013045211
-0.00185216 0.057488438 -0.012495123 -0.0029361197 0.014982363 -0.07824721 0.019857101 -0.01358053
-0.017504105 -0.0011171852 0.018238198 -0.030309586 0.09877908 -0.018208632 -0.003702828 -0.024231544
-0.009168501 -0.041122083 0.019864997 0.03985758 -0.037044447 0.07559935 0.012625076 0.042677455
0.0020369461 -0.063315414 0.038739175 -0.027315816 -0.010266265 0.05239139 -0.019464716 -0.026144957

fc1.bias f4 [512]
00000000: 20be 0f3d 4d9e f2bc f295 05be 7ddf 89bd
00000010: 32be 813d 84ce ce3d 2bbb 443d 03d2 abbd
00000020: b966 2cbe 43d0 9fbd 8200 fc3d 8e42 74be
00000030: 21a6 123c d250 2fbe 9f31 d9bd c3de 173e
00000040: f4b5 2cbe e94d eebd ecc5 25be 0f98 8d3d
00000050: 368c ea3d 0289 73bd 602e b73d 98c6 62be
00000060: 42ad a0bd 10f3 5cbe f07d b0bd ad4e 32be
00000070: d769 61bd 54ac c63d 5b7d d33d 7182 27bd
00000080: 8c31 e43d 4bab 59be d9ae 653d 6e3d a73d
00000090: 2bd6 433e c8ca 04be 3729 5e3d c050 e83d
000000a0: 5b03 4cbe 52e9 403e aed7 08be b195 24be
000000b0: a24c 8bbe 9f8e 1bbe b62f 4bbe 8cf2 25be
000000c0: f265 d8bd a8d8 183e 0238 c0bc f76a 35be
000000d0: 38c6 4dbe bd8a de3d c7cd f4bc a6ef 31be
000000e0: b866 ccbc 34bd fabc 6783 163e f7ca 6fbc
000000f0: 5bae 2e3b 08d4 bebd ef89 273d 2799 e5bd
00000100: 58fc fabc cd3d 5a3d 2697 f33c a0ad bb3b
00000110: 0486 4bbe 837d 05bd 5cdb b93d 408c e0bd
00000120: e839 2c3e 9a15 26bd 065b df3d 68d5 f33d
00000130: 04a0 16be 25ee 863e 6e78 3a3d 77ff 13be
00000140: 1849 c1bd a1aa cdbd ed63 923d 650b 823a
00000150: 8a70 f8bd 0f54 9fbd c917 fd3d 1073 1dbe
00000160: 65a4 9f3d e442 bfbd 5e35 cabd 46da 57be
00000170: cd0e c13d a426 603d df58 1f3c d668 ec3d
00000180: 34db 6cbd be9f 88be b3d0 0bbe b9b9 033e
00000190: c7a2 d1bc 3f47 68be 8e60 073e c3c7 b2bd
000001a0: c84b 0ebe 5efc 903c 6236 de3d 8f58 ecbd
000001b0: d37b 58be 4473 19be c417 d53d ae4d a53d
000001c0: c3f7 f6bc 1143 e63d db91 69be a6ce f13c
000001d0: 96ca 93bd e626 20be f476 27be 5b0b ddbd
000001e0: 9553 fd3c de66 41be 65c1 13be d831 80be
000001f0: 03b8 cbbd 4ec6 d7bb 9548 fdbd 0236 60be
00000200: 387f fabc 8c5c abbd e228 563d 691c 1e3e
00000210: f2b4 f03c 5c91 383e dff3 09be 6f4c 5bbd
00000220: 4ca0 2dbe c898 093d 9f5f df3d 2946 eebc
00000230: 86c0 f9bd f922 d93d e24a 2c3e 1178 273e
00000240: c551 a03d ed97 0f3e 398d 8c3d 36be 01be
00000250: f7d1 bcbd 67e5 aabd 7a0b 0e3e 9efb 833d
00000260: 05d5 cc3d d25d 9fbd 95ee 52be 78a9 1ebe
00000270: b6ba 1abe 391a 0cbe 7bce 1e3e 57eb b83d
00000280: e336 2cbd 0a1a fabd cc62 dabd 6713 1cbe
00000290: ee6f dc3d 1e02 173e a041 a63d fa0a bdbd
000002a0: 03e7 67be ccf9 d3bd e4b6 62be 28e5 4cbe
000002b0: cceb 63bd 6391 3b3d 9543 58be ca49 cf3d
000002c0: bb19 983c a59f 1ebe 65b6 6bbe a4d7 68be
000002d0: 1b02 b2bd 2601 74be 4280 1dbd 1160 133e
000002e0: 3031 c0bd 5c9a cebd e83b 483d 1b87 f2bd
000002f0: df26 6abe 689d e5bd e1bb efbc a754 11be
00000300: 25d0 30bd 1b68 5cbe a328 953d ee7f 29be
00000310: 27a8 dcbc 6fa0 cebd 7b9e 293d ed3c a03c
00000320: 5537 d5bc 0a08 09be 2170 77be 20ee 2cbd
00000330: 253f 57be f180 ff3d 1e04 0cbe d511 813d
00000340: 3a2a 8c3c a28c d83c 3bab dc3c 8380 a93d
00000350: 9097 3b3e 5c16 f73d c9d3 af3c 96f4 173e
00000360: 6292 ef3d 5474 8ebd b25a d4bd 4655 2c3e
00000370: 19aa 06be e6dd 8b3d bd64 2d3d 3c07 003e
00000380: e7ac e1bd d1bd 223e 2ca7 4cbe cd24 4abe
00000390: d615 2a3e 447b c33c 342a 23bd 80da 393d
000003a0: ee12 cdbd 319f d1bd 5428 07be c515 f5bd
000003b0: c771 223d 89ab 493c 724d d8bd f41b cc3d
000003c0: 2737 04bc 3ced 21be 319f 363e 3314 ed3d
000003d0: 1d82 613d c4fc 79bd d7ee 70be 1ad9 d03d
000003e0: e116 363d 6695 a4bd 8b0f 08be bd72 ac3d
000003f0: cf9f 44be e732 eebd 68fb 5cbe 566d 963d
0.035093427 -0.0296165 -0.13045481 -0.0673208 0.06335105 0.100979835 0.04803006 -0.08389666
-0.1683606 -0.07803395 0.12304784 -0.23853514 0.008950741 -0.17120674 -0.106051676 0.1483107
-0.16866285 -0.11635954 -0.16188782 0.069137685 0.11452524 -0.059456833 0.08944392 -0.2214607
-0.07845546 -0.21577096 -0.08617771 -0.17412825 -0.055032577 0.09700838 0.10326644 -0.040895883
0.11142263 -0.2125675 0.05607495 0.08166014 0.19124667 -0.1296798 0.054238524 0.11343527
-0.19923155 0.18839005 -0.13363525 -0.16072728 -0.27206904 -0.15191124 -0.19842419 -0.16205806
-0.105663195 0.14926398 -0.023464207 -0.17716585 -0.20095146 0.10866306 -0.029883279 -0.17376575
-0.024951324 -0.030607797 0.14698564 -0.014635793 0.0026654217 -0.093177855 0.040903028 -0.11210852
-0.030637905 0.053281594 0.02973516 0.005727485 -0.19875342 -0.0325904 0.090750426 -0.109642506
0.16818964 -0.040547945 0.10906033 0.119059384 -0.14709479 0.26353565 0.045525007 -0.14452921
-0.0943777 -0.100423105 0.071479656 0.0009921609 -0.1213084 -0.07779705 0.12358052 -0.15375924
0.07795028 -0.0933893 -0.0987346 -0.21079358 0.09426651 0.05472435 0.009725778 0.11543433
-0.057826236 -0.26684374 -0.13653831 0.12863816 -0.025590314 -0.22683428 0.13220426 -0.08729508
-0.13896096 0.017698463 0.108502164 -0.11540329 -0.21140985 -0.14985377 0.104049236 0.08071457
-0.030147439 0.11243261 -0.22809546 0.029517483 -0.072163746 -0.15639839 -0.16353971 -0.107931815
0.030923644 -0.18886897 -0.14429243 -0.25038028 -0.09947207 -0.006584919 -0.123673595 -0.21895602
-0.03057824 -0.08367261 0.052285083 0.15440525 0.029383156 0.180242 -0.13471936 -0.05353969
-0.1695568 0.03359297 0.1090691 -0.02908619 -0.12194924 0.10602374 0.1682544 0.16354395
0.07828096 0.14022799 0.068628736 -0.12670216 -0.09219735 -0.08344536 0.13871565 0.064444765
0.10001568 -0.07781567 -0.20598824 -0.15494335 -0.15110287 -0.13681878 0.15508454 0.090292625
-0.04204453 -0.12211998 -0.10663375 -0.15241776 0.107635364 0.14746901 0.08117986 -0.09230609
-0.22646718 -0.10350379 -0.2214008 -0.20009291 -0.055644795 0.04579295 -0.2111953 0.10121496
0.018566957 -0.15490587 -0.23018797 -0.2273851 -0.08691808 -0.23828563 -0.038452394 0.14392115
-0.09384382 -0.100880355 0.048885256 -0.118421756 -0.2286639 -0.112116635 -0.029264392 -0.14192449
-0.043167252 -0.21524088 0.072831415 -0.16552708 -0.02693565 -0.10089194 0.041410904 0.019560302
-0.02602736 -0.13381973 -0.24163868 -0.04221928 -0.21020181 0.124757655 -0.13673446 0.06302229
0.017109979 0.026434246 0.026937118 0.08276465 0.18319535 0.120648116 0.021463292 0.14839396
0.11697842 -0.069557816 -0.10368861 0.16829404 -0.13150825 0.06829433 0.0423324 0.1250276
-0.11019307 0.15892722 -0.19985646 -0.19740601 0.16609892 0.023862489 -0.03983517 0.045374393
-0.10013376 -0.102354415 -0.13198978 -0.11967043 0.039659288 0.012308964 -0.105616465 0.09966269
-0.00806979 -0.15813154 0.17834164 0.11576118 0.055055726 -0.06103207 -0.2352861 0.10197659
0.044455413 -0.08036308 -0.13287179 0.08420322 -0.19201587 -0.116308026 -0.21580279 0.07345073

fc2.weight f4 [256, 512]
00000000: 84be 7fbd 97da fcbc 2291 4fbd fa49 dfbb
00000010: c53a 6b3d 6412 a63c 60b6 6a3d 09a8 d93b
00000020: ac26 19bd 4976 aebd 0e60 9f3d b592 8e3c
00000030: b0e0 aabd 1e83 06bd 59ca 883d c7ab 05be
00000040: fe84 93bd d5d4 44bd 95c8 89bc 71e7 82bd
00000050: 28c6 443c 0322 7f3d b81d edbc aca0 a03d
00000060: 316b 3a3d 6720 43bd 7fbb 4ebc 30a6 01bd
00000070: 16ce ff3c 8df5 5e3d 95d0 453c ec57 82bd
00000080: 0957 083d 0d0d d73d 165f 9c3d 8d03 7dbd
00000090: bc77 b83d ff01 46bc 5e44 583d 67a9 8b3c
000000a0: c7ee 9abd a2eb 933d 9e3e 2dbc 5b83 123c
000000b0: 6388 c63c fcd5 f3bc 91b1 b33c 35ed af3a
000000c0: f716 cf3c 1a4c 31bd ee11 b7bc 0495 13bd
000000d0: 7a10 5139 b622 1939 76a8 033c e8b2 463d
000000e0: 75b7 1e3e 6b7d bebd 8610 173d 0380 14bd
000000f0: ba5f dc3d 8625 6ebd 6d08 5cbd 1fb6 4e3d
00000100: c461 99bd 2553 423d 58c1 db3d d6c8 6a3c
00000110: 88de 43bd 197a 06bd 97c6 c4bc 3731 0ebc
00000120: aa87 25be 4af0 543c 3a43 74bc 3793 533d
00000130: d1a9 1c3d f6b7 813d a3c5 15bc d4db 393c
00000140: 8ae8 52bb 1f63 96bc 2fee b23d f24b 9e3d
00000150: 3e97 78bc ae29 e1bd 68fb b23c d106 81bd
00000160: c76d 11bd 9b7c c6bc 89fc e7bd eedd 2a3c
00000170: 6954 0d3d fd64 31bd 40f3 943c 7ee2 8abd
00000180: 42ed 7e3d ba30 cabd a500 18bd ef4a 413d
00000190: 5c3e 3ebd 0b54 99bd 5b38 e33c 4269 903d
000001a0: dc52 343b 4ed9 dd3c 9621 c43d 9fbb 583d
000001b0: 493c 473d 3480 c63c edd4 86bd 7131 8fbc
000001c0: da0c 0ebd 9c33 aa3d 3cbb 793d 148a 80bc
000001d0: 9706 9e3d b290 a1bc 85c7 4abd 453b 55bd
000001e0: 0090 263d 0072 633d 1736 f3bb 4740 c5bc
000001f0: 47a8 42be 2676 52bd 412a 51bd e31b d5bd
00000200: 9d01 da3c 48cc ba3d c6b8 8ebc fb5c 1ebd
00000210: c297 a43a 1712 91bc b1fe 9dbd 7466 78bc
00000220: 9eab 12be 418f 233d 4e0e 2f3e b168 96bd
00000230: 225a 343d e1c5 ccbd 659b 13bd a720 373d
00000240: 41f5 a8bd 5f7a 32bd 9718 e93b 0deb babc
00000250: e478 dc3c 8692 de3d eba8 033c 0403 613d
00000260: 4265 21bd f905 82bd a9df 36bd ee52 3fbd
00000270: 823d 25bd 3657 853b 1baf b2bc 0d1e 3ebd
00000280: c03e e63c 62d9 053d 9804 983c 6e99 343b
00000290: e399 c13b afa9 523d af6a c23d 0385 cd3d
000002a0: d04a 33bd d281 9dbc e8a4 2c3c 4783 02be
000002b0: aed9 043d dcad bf3c 8b0e c43c ad01 583d
000002c0: a41e 91bd 96ca b03c 7b3e a4bc 293d bdbd
000002d0: 0207 dc3d 52e9 96bd 648d 45bd a7b4 943d
000002e0: 9ad0 56bd 5947 fc3c 7538 18be eead 3b3c
000002f0: 9a49 633d 70ac 733d 8b6a 16bd 7937 9b3d
00000300: 8771 5abb 2e4c 4ebd 2cfc 6bbd 53b3 eb3c
00000310: cf85 b53c 50c5 b8bb 6e5c 953c 9dda 83bc
00000320: b33c d4bd 5ea6 9bbc e49b 633d 750e a13d
00000330: 8427 07bc 23da 64bd beef 18bc d32f 27bd
00000340: 1c2e 51bd 54fc 103d 2ae7 89bd 8b12 c0bb
00000350: c304 9ebc c18a 183c b245 903d 8711 ec3c
00000360: 77fd b5bb 83fb 15bd 338c 9cbd 915a a83d
00000370: c14b c93c b222 de3c d7f2 f63c f873 4b3d
00000380: c630 b7bd 7b28 a13d 7f42 11bd b016 c8bd
00000390: bc4e dfbc 3e03 3d3d a943 dabc 0ae5 1bbe
000003a0: f81c 17be eaf8 bc3c 25ea 9f3b 28fb 5fbd
000003b0: ed70 8e3c 0e29 bb3d cab7 2f3d 62fb 5c3d
000003c0: e275 943d 156e 993d 4c44 ce3b 1aee 4abc
000003d0: 312f d7bd 3a6b 7bbc 9f45 d73b 9a66 813d
000003e0: 0f62 ddbc dac0 fabb 93ea c13d faf0 b7bc
000003f0: 04c0 db3d 7487 05be 8d6a e13d ad54 ff3c
-0.06243755 -0.03086595 -0.05067552 -0.0068142386 0.057429094 0.020272441 0.057302833 0.006642346
-0.037390396 -0.08518655 0.07781993 0.01740394 -0.08343637 -0.032839887 0.0667922 -0.13053809
-0.072031006 -0.048054535 -0.016819278 -0.063918 0.012010135 0.062288295 -0.028944835 0.07843146
0.045512382 -0.047638323 -0.012617945 -0.03165263 0.0312262 0.054433394 0.012073656 -0.06364426
0.03328613 0.10500536 0.07635324 -0.061770964 0.090072125 -0.012085437 0.052799575 0.01704855
-0.075650744 0.07222678 -0.010574011 0.00894245 0.024234956 -0.029765122 0.021935256 0.0013422134
0.025279505 -0.043285467 -0.022347417 -0.036030784 0.00019937931 0.00014604148 0.00803577 0.048510462
0.15499671 -0.09301265 0.036880992 -0.036254894 0.10760446 -0.058141254 -0.053718973 0.050466653
-0.074893504 0.047442574 0.10730237 0.01433011 -0.047819644 -0.032831285 -0.024020476 -0.008678726
-0.16165033 0.0129967425 -0.014908606 0.051654067 0.038247887 0.06333916 -0.009141359 0.011343915
-0.003218206 -0.018357811 0.08736836 0.07729329 -0.015172778 -0.10994278 0.021848395 -0.06300128
-0.035505082 -0.024229338 -0.11327464 0.010428889 0.034504328 -0.0433092 0.018182397 -0.06781481
0.062237985 -0.09872575 -0.03710999 0.047190603 -0.04644619 -0.07486733 0.027736833 0.07051326
0.0027515208 0.027081158 0.095767185 0.052913304 0.048641477 0.024231054 -0.06583581 -0.01747963
-0.034680225 0.08310625 0.060969576 -0.01569084 0.07716101 -0.019722316 -0.049506683 -0.052058477
0.040664673 0.05552864 -0.0074222195 -0.024078501 -0.19009505 -0.051382206 -0.051065687 -0.104057096
0.026612097 0.09120995 -0.017422091 -0.03866289 0.0012557434 -0.017708821 -0.07714594 -0.0151611455
-0.1432328 0.03993154 0.170953 -0.07344187 0.04403127 -0.0999868 -0.036036868 0.044708874
-0.082499035 -0.043573733 0.007113527 -0.02281716 0.026913114 0.10867791 0.008035879 0.054934517
-0.039403208 -0.063487954 -0.044646893 -0.046709947 -0.04034186 0.0040692342 -0.021812012 -0.046415377
0.028106093 0.032678016 0.018556878 0.0027557272 0.0059082373 0.051431354 0.094930045 0.100351356
-0.04377252 -0.019226942 0.010537364 -0.12745391 0.032434158 0.023398332 0.023932716 0.052735973
-0.07085922 0.021580976 -0.020049324 -0.09240181 0.10743524 -0.07368721 -0.048230544 0.07261019
-0.05244503 0.03079574 -0.14865287 0.011455042 0.055490114 0.05949062 -0.0367227 0.0757894
-0.0033331828 -0.05036562 -0.057613537 0.028772032 0.022158531 -0.005638756 0.01823255 -0.016095454
-0.1036314 -0.019000228 0.05556859 0.078640856 -0.008249167 -0.055872094 -0.009334503 -0.040817093
-0.051069364 0.03539689 -0.06733544 -0.0058615855 -0.01928938 0.009310425 0.07044543 0.028816951
-0.005553897 -0.036616813 -0.076439284 0.08220399 0.024572255 0.027116153 0.030145092 0.049671143
-0.0894485 0.07869049 -0.035463806 -0.09769952 -0.027259223 0.04614567 -0.026643591 -0.1522409
-0.14757144 0.02306791 0.004880207 -0.05468288 0.017387832 0.0913869 0.042899884 0.053950675
0.07249047 0.074916996 0.0062947627 -0.012385869 -0.10507048 -0.015345389 0.006569579 0.06318398
-0.027024297 -0.007652384 0.094685696 -0.022453774 0.107299834 -0.13039953 0.11006651 0.031168306

fc2.bias f4 [256]
00000000: 0bed 703d 2c40 903d 46ac 333d fb39 8b3d
00000010: fdab c93d 2f3b c63c 518d c13d 6a46 4bbc
00000020: eaa9 043e ac82 3e3d 18fa 9b3d ed21 a93d
00000030: 297a 403d e6e8 7d3d 4092 853b 0018 bd3d
00000040: 2939 6d3d 9aae f23d e2a0 ad3d 1aed 4d3d
00000050: d8b5 cb3d 1c12 a83d d5ff 7e3d eadf a83d
00000060: d5f3 ac3d d08a 303d 8c70 b23d 9147 033d
00000070: 0784 a43d 401c 2b3d a39e eb3c a381 873d
00000080: cd1d 7b3d 4340 523c 0f22 943d 058f 903d
00000090: cf8b 343d 3f2b 8f3c 1abb a23c aee7 913d
000000a0: 1411 6c3d 1e10 a93d 6b0f a13d ba28 f23c
000000b0: 9a13 903d 94ed cb3d 2630 723d 434c 513d
000000c0: 0d8d c33d e82d 2c3d f458 633d 7924 5c3d
000000d0: c055 fd3d d971 11bb e8b2 063d e3bc 433d
000000e0: 8b4a 483d 6138 933d c90f 053d 86e1 113d
000000f0: 0ad2 c93c 5fca 1e3d 287e 743d 8268 0b3d
00000100: 624c 8e3d 96f7 cd3c 62c5 863d aca4 943d
00000110: 6045 513d 9209 a83d 00be 323d cd47 313d
00000120: f291 2a3d 4e21 c23d 8255 4b3b cbce c53d
00000130: 137a 5c3d 36e6 cc3d e399 773d 0326 413d
00000140: 553a 8f3d eb8a 9c3c 9152 c23d aec9 883d
00000150: 30b8 cd3d 8038 283d be19 9b3c 2f62 df3c
00000160: 4f2e 3e3d 2fcf 873d db73 343d 3078 b73c
00000170: 697f 803a e618 e83d 2705 993d c3c7 373d
00000180: e22c 5f3d df6b cd3d 5bbe 0b3d 8b9c 883d
00000190: 92b2 a63d 247a b33d e460 803d 4ad0 543d
000001a0: bb5b a63d 4c04 ab3d 25c0 573d 6b17 b13d
000001b0: b795 a63d 8714 bb3d 5577 503d 4af7 6f3d
000001c0: ca38 d53d 66ae 253d ee0d d63d 5e04 923d
000001d0: bfaa 733d fea7 8c3d 3097 c83d d514 223d
000001e0: e170 7a3d 771f b63d 786d 5b3c 0dc7 523c
000001f0: bb9f 9f3d 651d e23c 7cc9 8b3d 3938 cf3d
00000200: 3ce2 163d b777 513d dd61 453d 8dd3 073d
00000210: 40eb 753d 0df7 813d ef9b 223d 151d cc3d
00000220: 1a4e 413d 2a8c 4b3d d620 cd3d 45b8 213d
00000230: 6852 433c 040c d03c c13e 753d d619 a93d
00000240: 1a16 f13d ae2e 173d 40a9 733d 2ecc ac3d
00000250: 7f98 c03d 459f 6bbb 4c52 973d 4ebb ca3c
00000260: c8c6 833d 5a3a af3d 4157 c63c bbc6 b83c
00000270: 51fe e73c e003 d93d 83be 0f3d cc1b 033d
00000280: 39e0 a93d 2bda 1f3d d7f6 103d b6dc 543d
00000290: 377e ab3d 2552 bf3d ea2d aa3d 367f 7f3b
000002a0: 40c1 3a3d 2128 a13d 683e 723d 583c 3e3d
000002b0: 0794 403d dc47 ad3d 4c60 aa3d dae4 a33d
000002c0: 6a6d b43d 064f c33c 8b80 9e3d e492 d33c
000002d0: 4dc1 493d a057 933d 18ed b93c 466a e23d
000002e0: 67dd 163c 37e5 b43c d08e 5c3d a4ed 813c
000002f0: b46b e13d 9f71 9a3d c243 a63d 3128 ca3d
00000300: 3c49 c33d f2fc cb3c a7f6 ad3d fbbd ef3d
00000310: e0ed 5c3d 4592 c43d fdd6 e63c 2a6b bb3d
00000320: 3cfb 8f3d bd1c a13d 5941 b33d caed 433d
00000330: 69e0 383d 629f 0b3d 057f 9f3d 5d44 d63d
00000340: dec4 513d 707a dd3d 7eca 883d 2a5b ea3c
00000350: e9b0 5b3d 2901 0d3d 1c75 163d cbce d23d
00000360: 2dea 983d a510 af3d 3339 683d a7ff 9a3d
00000370: 9392 3c3d 36b9 7e3d 9ffe 9c3d 1ac1 163d
00000380: 7967 853d 9364 c43d 9b68 443d 950a 023d
00000390: 8ecf 493d af6b 4a3d 2aa8 053d a411 623d
000003a0: b9a9 ed3d 2109 ed3d 81d3 1f3d ada5 fd3d
000003b0: 43de 083d f383 073d fd7b 4c3d b52e 833c
000003c0: bec8 d33d f3f8 143d e343 033d 94da 173c
000003d0: d91c 183d f755 713d 6418 4b3d ca49 783c
000003e0: 5b33 be3d 5bc4 ef3d b069 983d 6ff3 253d
000003f0: 4040 9c3d 3b12 7d3d 6f5f 833d dab4 c03d
0.05881981 0.0704349 0.043865465 0.06798168 0.09847257 0.024198143 0.09450782 -0.012406925
0.12955442 0.046511337 0.07616061 0.08258424 0.0469915 0.061989687 0.0040762722 0.09233093
0.05791584 0.11849709 0.084779516 0.050274946 0.09946793 0.08206579 0.0622557 0.08245833
0.08444945 0.043101132 0.08712873 0.032050673 0.08032995 0.04177499 0.028762167 0.06616523
0.061307717 0.012832704 0.07233059 0.07058529 0.044078644 0.017476676 0.019864608 0.071242675
0.057633474 0.08255027 0.07864269 0.029560436 0.07034989 0.09957424 0.05912795 0.05109812
0.09548388 0.042035967 0.055504754 0.05374572 0.12369871 -0.0022193103 0.032885462 0.04778756
0.048899215 0.07188488 0.032485757 0.035615467 0.024636287 0.038767215 0.059690624 0.034035213
0.069481626 0.025142472 0.065806165 0.07257971 0.05109155 0.082049504 0.04363823 0.043281365
0.04164309 0.094790086 0.0031026308 0.09658583 0.053827357 0.10004847 0.060449492 0.04715539
0.06993548 0.01910921 0.094884045 0.06679092 0.100448966 0.041069508 0.018933173 0.027268497
0.046430882 0.06631314 0.0440558 0.022396177 0.0009803596 0.11332874 0.07471686 0.044868242
0.054486163 0.100303404 0.034117084 0.06670483 0.08139528 0.08763531 0.062684804 0.051956452
0.08122965 0.08350429 0.052673478 0.08647045 0.081340246 0.09134775 0.050895054 0.058585443
0.10411222 0.040449522 0.104518756 0.07129739 0.059489008 0.068679795 0.09794462 0.03957065
0.061142806 0.0889272 0.013392799 0.01286484 0.07794138 0.027601907 0.068255395 0.101181455
0.036836848 0.05113956 0.048189033 0.033160735 0.060038805 0.06345949 0.03969949 0.099664845
0.047193624 0.049694218 0.100160286 0.039482374 0.011921503 0.025396354 0.0598743 0.08256881
0.11771794 0.03690975 0.05948758 0.08437382 0.09404086 -0.0035953086 0.07388744 0.024747517
0.06434399 0.085560516 0.024211528 0.0225557 0.02831951 0.10596442 0.035093796 0.03200893
0.0829472 0.03902642 0.035391655 0.0519683 0.08373683 0.0934184 0.08309539 0.0038985736
0.045594454 0.07868982 0.059141546 0.046444267 0.04701617 0.08460972 0.083191484 0.08002634
0.088099316 0.023841392 0.077393614 0.025826879 0.04925661 0.071944475 0.022696063 0.11055426
0.00920806 0.022081954 0.053847134 0.015860386 0.11006871 0.07541203 0.081183925 0.09870947
0.09535453 0.024900887 0.08494311 0.11706158 0.053937793 0.09598211 0.028178686 0.09151299
0.07030341 0.078668095 0.087526985 0.047834195 0.04513589 0.034087546 0.07787899 0.10462258
0.051213138 0.10814369 0.06679247 0.028607924 0.05363551 0.034424935 0.036732778 0.10293349
0.074665405 0.085480966 0.056695174 0.07568293 0.04603822 0.06218835 0.076657526 0.03680525
0.065138765 0.095894955 0.047951322 0.031748373 0.049270205 0.0494191 0.032631077 0.055192605
0.11604638 0.11574007 0.039020065 0.12385116 0.03341509 0.03308482 0.049922932 0.016013483
0.10341023 0.03637023 0.032047164 0.009268422 0.037136886 0.058919873 0.049583808 0.015154311
0.09287139 0.11707374 0.07442033 0.04051536 0.07629442 0.061784964 0.06414687 0.09409495

fc3.weight f4 [2, 256]
00000000: d4c6 ffbc 03a2 cabd d45f fcbd 24f0 da3d
00000010: 3e8b bbbd 8c82 24bd c2a2 ffbd 88a4 28be
00000020: 74ed 083e f282 bf3d 58b5 073e 4fa6 a33d
00000030: 745c c83d c6ae 0c3e 1afc 69be 5988 e2bd
00000040: 42a4 40bd 195c 14bd 606c 2cbd badf 30bd
00000050: a919 043e b660 583d a9b4 e0bd cac8 dcbd
00000060: eb65 8dbd e45f 0d3e 17b1 0e3e b5f3 063e
00000070: 5201 5abd 4f3d dd3d 708e 6ebe 0466 6ebd
00000080: c8d1 063e 1493 a4bd f3ae f1bd 7e6b c03d
00000090: 078c 8fbd 3b9f 08be c289 a73d 776a 913d
000000a0: e538 623e a0c6 d3bd 509b a13d abe2 efbd
000000b0: 6ed9 193e 3c57 0dbe e2f6 babd 1a3d 93bd
000000c0: 0ee2 be3d 1d8e 15be 42d8 debd d231 46bd
000000d0: 274f f73d 3976 0fbe ea3c e8bd 13fe c13d
000000e0: e8d6 7cbd bc28 a5bd 77c1 dd3d 21bd e73d
000000f0: 6bb2 1bbe dc96 b43d b216 933d 5338 05be
00000100: b1b6 cb3d 3e2c b4bd 9c22 693d 637e f3bd
00000110: 679f e6bd 49b3 713d 5922 dfbd 3e3a c73d
00000120: 9bcf 20be 5ddd fc3d 4eaf 9fbd bc2d dc3d
00000130: ae4c efbd 78cd f43d 476d a03d cdf5 2abd
00000140: 95e0 083d a7cd 23be 540b 58bd d40d a0bd
00000150: 2bc3 2a3e ac4b 2ebd 9113 f4bd 9451 0fbe
00000160: cde4 0f3d 7ca1 78be 81a6 b9bb c7fc 1ebe
00000170: e5a2 17bd a819 113e 818c dfbd 2370 e6bd
00000180: 7d4d 12bd 8163 5dbd 38f8 c33d 9249 cbbd
00000190: 3fdd 023e ba0c 9a3d 20ae a0bd bfa0 25be
000001a0: 926e ef3d e6e9 c2bd b2d9 ae3d efb9 273e
000001b0: f765 d3bc be56 b73d 1c4d fabd baf4 13be
000001c0: 8c37 79bb f630 1abd 9789 0a3e 423e 21bd
000001d0: 553c 1ebd 73d1 acbd f98c 133e 0b44 37bd
000001e0: daa5 22be 499d c83d c4c5 69be d000 52be
000001f0: 7e0f cdbd fcf5 93bd 68a4 abbd 1cc4 04be
00000200: 53fe 92bd 5f10 793d 62b5 b03d e017 d3bd
00000210: dffd 053e 0832 2b3e 7bf1 b7bc 35e5 88bd
00000220: 640f 59bd 5cd6 10be d3da 5d3e f753 953d
00000230: fc00 e0bd cf3a fcba 97c8 d53d 43ba 4d3d
00000240: 7a77 c63d 91af b6bd f0a6 3ebe 6559 ac3d
00000250: 66be bebd 4834 b6bd f9d7 e83d 800d c8bd
00000260: 106b bd3d 5603 debc 9a18 f6bc 39bf bd3d
00000270: ca8f d6bd 9391 fa3d f303 23bd 7297 9b3d
00000280: d66f 013e 37c2 15be b2f9 8f3d 4968 bfbd
00000290: d196 d83d 78c4 9ebd b7dc ea3d 682f a9bd
000002a0: 8a82 a93d b157 783d 9102 74bd e51f 43bd
000002b0: 37c0 853d b8ed 86bd 7839 3bbe f9b4 d53d
000002c0: ad1d 61bd cc61 003e e926 d43d 53d8 cc3d
000002d0: 1dbb 74bd 1972 0cbd f654 b0bd e42a 283e
000002e0: 0d3c f6bc 59e0 22bd fc81 92bc 276b 073e
000002f0: e208 cd3d 0caa 973d 9275 d9bd c712 fc3d
00000300: e8d9 acbd c459 1bbe a8c1 883d 84fa 67bd
00000310: dc35 fa3d d159 c9bc 7265 43bd 4da9 e5bd
00000320: 75a0 f43d 8534 41bd 1d04 593d 03ff f0bd
00000330: 68fc c73d a41c 23be c772 ecbd 6472 dc3d
00000340: 61c7 b6bd 3908 68bd a5cd fb3d 9975 a43c
00000350: 8d9f d73d 8431 b9bd 3246 b63d 6e37 d6bd
00000360: b1aa bd3d 3242 e03d af1c 9a3b 07c0 8bbd
00000370: ac40 a73d 2d40 d33d 0a35 ffbd a04d 073e
00000380: 3422 25bc d356 c5bd 58be afbd 3f44 fcbd
00000390: 84e5 11be 5267 cabd f8da bebd f643 c73d
000003a0: 38b9 313e 0d9c 66bc 629b 4a3e cc3c cb3d
000003b0: 727f 02be d1d0 ba3d e12b 9abd 598c e3bd
000003c0: bd8d 933d 4915 f7bc e795 a2bd 3f97 3ebd
000003d0: 7ccc afbd 07d6 b3bd 4022 c23d 854a 0cbe
000003e0: 2d86 6abc 8f7c c33d 1577 ca3d 5593 d8bd
000003f0: 96de fc3d 1fe1 1e3d 5a0c df3d 45d5 c4bd
-0.031222738 -0.098941825 -0.12322965 0.106903344 -0.09157418 -0.04016356 -0.124822155 -0.16469014
0.13371831 0.09351148 0.13252771 0.07990705 0.09783259 0.13738546 -0.22850075 -0.110611625
-0.04703165 -0.036220644 -0.042095542 -0.043182112 0.12900414 0.052826606 -0.10971958 -0.10780485
-0.06904205 0.1380611 0.13934742 0.13178904 -0.053223915 0.10802709 -0.23296523 -0.05820276
0.13165963 -0.080358654 -0.11800947 0.093955025 -0.0700913 -0.13341992 0.08180572 0.07100385
0.22092016 -0.10340619 0.07890952 -0.11713155 0.15024349 -0.13802809 -0.091291204 -0.071893886
0.0932046 -0.14604993 -0.10881092 -0.048387356 0.12075644 -0.14009942 -0.113397434 0.09472289
-0.061728388 -0.0806441 0.10827916 0.1131537 -0.1520478 0.08817837 0.07182063 -0.13009767
0.09946955 -0.08797501 0.05691777 -0.11889341 -0.11260872 0.05900887 -0.10895223 0.09727906
-0.15704195 0.12346909 -0.077971086 0.10750911 -0.11684547 0.119532526 0.07833343 -0.04173832
0.033417303 -0.15996419 -0.05274518 -0.078151375 0.16676013 -0.042552635 -0.119177945 -0.13995963
0.03513031 -0.24280351 -0.0056656008 -0.15526114 -0.037020583 0.14169943 -0.10915471 -0.11251857
-0.03571843 -0.054049972 0.09568828 -0.09926142 0.12779711 0.07521959 -0.07845712 -0.16174601
0.116910115 -0.09517269 0.08537616 0.16379522 -0.025805457 0.08952092 -0.12221739 -0.14448825
-0.0038027493 -0.03764435 0.13529049 -0.039366014 -0.038631756 -0.08438387 0.14409246 -0.044742625
-0.1588358 0.09795625 -0.22829348 -0.20508122 -0.100127205 -0.07224652 -0.083809674 -0.12965435
-0.07177415 0.06080663 0.08628346 -0.10307288 0.13085125 0.16718304 -0.022454014 -0.06684343
-0.052993193 -0.14144272 0.21665506 0.07291406 -0.10937688 -0.00192436 0.1043865 0.05022646
0.09690757 -0.089202054 -0.18618369 0.08415488 -0.09313659 -0.088966906 0.113693185 -0.097682
0.09248936 -0.0271012 -0.030041028 0.092649885 -0.10476644 0.12234797 -0.03979869 0.07597245
0.12640318 -0.14624868 0.070300475 -0.09346063 0.10575641 -0.07752317 0.11467879 -0.08260995
0.082768515 0.060630504 -0.05957276 -0.04763784 0.06530803 -0.0658831 -0.18283641 0.104349084
-0.05495994 0.12537307 0.10358984 0.10002198 -0.059748758 -0.0342885 -0.08609955 0.16422611
-0.030057931 -0.039764736 -0.017884247 0.13224469 0.1001146 0.07405481 -0.10618128 0.12308269
-0.0844 -0.15170962 0.06677562 -0.056635395 0.12217304 -0.02457896 -0.047704168 -0.11213932
0.11944667 -0.047169227 0.05298244 -0.117673896 0.097649395 -0.15928894 -0.115453295 0.10764006
-0.08924747 -0.056648467 0.12295083 0.020075606 0.10528479 -0.090426475 0.089001074 -0.10459791
0.092610724 0.10950126 0.0047031264 -0.06823736 0.08166632 0.10314975 -0.12461288 0.13213205
-0.010078955 -0.09635701 -0.08581227 -0.123177044 -0.1424771 -0.09882988 -0.09319109 0.097297594
0.17355812 -0.014075291 0.19785836 0.099237055 -0.12743929 0.0912186 -0.075279005 -0.111107536
0.07204769 -0.030161517 -0.07938748 -0.04653096 -0.08583924 -0.08781057 0.09479189 -0.13700302
-0.014314217 0.09545242 0.09885994 -0.10574976 0.123471424 0.03878891 0.10891028 -0.096109904

fc3.bias f4 [2]
00000000: 4835 38bd 7146 22bc
-0.044972688 -0.00990449

bn1.weight f4 [512]
00000000: b502 5b3f 9940 003f eb8f 573f a771 6b3e
00000010: 20a9 6e3f c67e 563f 77e0 ed3e 4aa1 853f
00000020: 84e0 dc3e 0c14 453e faaf 753f e02c 023f
00000030: f5e4 233f b157 213f 70ee a03e e4bc c83e
00000040: 096f 5a3e 7c78 193f cca7 cc3e b2f2 663f
00000050: a089 813f deb1 6a3f df9b 483f 7464 363f
00000060: 9f38 e03e df17 243f 2927 723e bc7c 993e
00000070: bc77 de3e e21a 553f 7e22 973e e159 023f
00000080: 5b04 5f3f d91f 523f 3290 973e fb56 c83e
00000090: b772 6c3e 59de 213f f364 043f 1a78 813f
000000a0: 15bb a53e 0864 083f 0149 d53e c5f7 833f
000000b0: 8a57 4a3f c0c5 d13e d753 763e ae62 483e
000000c0: 2b59 513f d1b4 643e 5a73 bf3e a0bb 703e
000000d0: 740b 803f 7f87 fd3d 28bf 0e3f f3f3 643f
000000e0: 98e0 903f 755b c93e 6d0b ec3e 7ef2 813f
000000f0: 9442 a03e 8993 223e 19db 7e3f 6788 683f
00000100: 182c 783f 21a3 6c3f 5366 403f b4b1 b43e
00000110: 2100 f23e b2ab b83e 841a 873f 2dd6 5c3e
00000120: 80d7 393f 9a75 083f 490b 383f 6a3e 5d3f
00000130: 7122 813f 00ad e83e 9753 b43e 8755 6e3f
00000140: e957 6b3f fb07 8a3f 4e06 803f c311 283f
00000150: 2107 263f 9672 033f 9b4f 1c3f ef94 043e
00000160: 0b92 7a3e f2b2 543f 8b56 2e3f af6f 813f
00000170: 6df8 483f 59bb 773e 56ad 693f 708a 1d3f
00000180: a5ba e63e 0a19 723f ed3d 4d3f 0b55 6c3f
00000190: c8eb 003f ff4b 273f 8575 753f d6e7 bf3e
000001a0: e86c 063f c841 833f 96b8 373f 76dd 193f
000001b0: 0884 7f3f 8fec 4a3f fb13 fd3e 0961 f33e
000001c0: 041a 633f c0b5 bf3e 109b 3b3f 1310 7d3e
000001d0: 8607 883f cd64 3b3f 5189 613f 959b 7d3f
000001e0: d21b 3b3e 0935 2d3f c133 573f d0e9 7a3f
000001f0: f270 cd3e 5ef9 f93e f679 463f f629 4c3f
00000200: 6f49 d73e 7cb3 ae3e 7cb3 e83e b94b c43e
00000210: fd5a 733f 48df 3d3f 1242 743f 037e a53e
00000220: 95ba e13e fb1e 4d3e f9a3 b13e 5bec ce3e
00000230: dd0e b03e 031b f23e 0e3c 683f 2471 143f
00000240: 9471 4b3f 0dc5 263f 882d 5f3e 9ae5 693f
00000250: 49d4 4b3f 1970 ab3e ce6c 9a3e 2fa6 363f
00000260: 1e87 413f 5076 073f d4f9 453f c594 ad3e
00000270: 8cec 703e ba34 133f c9c5 dd3e 4a14 5b3f
00000280: 0ee2 4d3e 59f9 763f 8897 123f 72e9 5c3f
00000290: 11f8 663e 6eae 233f 7e05 723f ef35 743f
000002a0: 44d5 6d3f 15fa a83e f12c 7b3e 0eca 923e
000002b0: 6f1d 833f 446f 223f d29b 153f 301a b73e
000002c0: 40d9 d83e 5929 503f c6da 0e3d 6101 723e
000002d0: 8f16 2e3f 21f8 fe3e 56ae 7e3f 0a90 7c3f
000002e0: 8fac 803e 764a 253f 39e1 eb3e 509a 7d3f
000002f0: 7101 8a3e 3780 573f a51d a03e f5cc 683f
00000300: 69f5 133e 3cad 7d3f 094a 693f e139 223f
00000310: 2a0a 9f3e 5dd9 be3e 5fca 7e3f 746a dd3e
00000320: fbc1 b53e bce1 cb3e 6917 233f f299 d23e
00000330: f2c6 4a3e ad77 273f f4cf 673f 0220 493e
00000340: f9bf c23d 5c44 393f 898b 913e b4a3 0e3f
00000350: 32a9 3e3e 733c 313f 847f 833f 2c5f 603d
00000360: 0b54 433f a008 e03e 4860 6b3f b606 9f3e
00000370: c016 063f d972 2a3f 5c76 b33e f823 a23e
00000380: 1c94 d53e 3cb7 ec3e 142d 933e 8466 553f
00000390: 9211 a43e 6c70 043e a8ab 873f acff 013f
000003a0: 2234 003f 6d77 ec3e 6b08 863e 3b79 823f
000003b0: ebe2 ba3e 4ac5 b73e 7809 8a3f 3e2b 153f
000003c0: df67 0d3f e1f9 443f dbaf 343f 65cd aa3e
000003d0: 4eca e03e bd0e 6b3f bf1b 123e a828 713f
000003e0: c14d 653f c622 1a3f f171 723e ede3 653f
000003f0: c611 5c3f 5e8c 873e c2d0 a53e bf95 573f
0.85551006 0.5009857 0.84203976 0.22992574 0.93226814 0.8378719 0.46460316 1.0439847
0.43140042 0.19245929 0.95971644 0.50849724 0.64021236 0.6302443 0.31431913 0.39206612
0.21331419 0.5994947 0.3997177 0.90214074 1.0120125 0.91677654 0.7836284 0.7124703
0.43793198 0.64098924 0.23647751 0.29977977 0.43450725 0.83244145 0.29518503 0.50918394
0.8711602 0.82079846 0.296022 0.3912886 0.23090635 0.632299 0.51716536 1.0114777
0.32369295 0.53277636 0.4165726 1.0309988 0.79039824 0.40971184 0.2405542 0.19568893
0.81776685 0.22334601 0.37392694 0.23509073 1.0003495 0.123793595 0.5576043 0.89434737
1.131854 0.3932759 0.46102467 1.0152128 0.31300795 0.15876593 0.99553066 0.90833133
0.9694228 0.92436415 0.75156134 0.35291827 0.47265723 0.36068493 1.0554967 0.21566077
0.7259445 0.53304446 0.7189222 0.8642336 1.0088636 0.4544449 0.35220024 0.93099254
0.91931015 1.0783685 1.0001924 0.656521 0.6485463 0.5134672 0.6105897 0.12947439
0.24469773 0.8308555 0.68100804 1.0112208 0.7850407 0.24192561 0.91280115 0.61539364
0.45064273 0.94569457 0.80172616 0.92317265 0.50359774 0.65350336 0.95882446 0.37481564
0.5250993 1.025445 0.7176603 0.6010355 0.9981084 0.7926721 0.49429306 0.4753497
0.8871157 0.37443352 0.7328348 0.24713163 1.0627296 0.73200685 0.88100153 0.99065524
0.18272331 0.6765905 0.84063345 0.9801302 0.40125233 0.48823065 0.7752985 0.7975153
0.42048213 0.3412131 0.45449436 0.38339022 0.9506071 0.74168825 0.95413315 0.32322702
0.44087663 0.2003135 0.34695414 0.404147 0.3438634 0.47286233 0.90716636 0.5798514
0.7947018 0.65144426 0.21794713 0.9136597 0.79620796 0.3348396 0.30161136 0.71347326
0.755968 0.52914906 0.7733433 0.33902565 0.23527735 0.5750233 0.4331496 0.85577834
0.20105764 0.96474224 0.5726247 0.8629371 0.22555567 0.63938034 0.9453963 0.95394796
0.9290354 0.33003297 0.24528863 0.2866978 1.0243357 0.6345103 0.5844089 0.35762167
0.4235325 0.8131309 0.034876607 0.23633339 0.6800317 0.49798682 0.99484766 0.98657286
0.25131652 0.64566743 0.4607027 0.9906359 0.26954225 0.84180015 0.31272617 0.9093774
0.14449085 0.9909246 0.91128594 0.63369566 0.31062442 0.3727521 0.99527544 0.4324528
0.35499558 0.3982066 0.63707596 0.41133076 0.19802454 0.65416986 0.90551686 0.19641116
0.09509272 0.72369933 0.2842677 0.5571854 0.1861923 0.69232863 1.027329 0.054778263
0.76300114 0.4375658 0.9194379 0.31059808 0.52378464 0.66581494 0.3505124 0.31668067
0.4171456 0.46233547 0.2874533 0.8335955 0.32044655 0.1293351 1.059926 0.5078075
0.5007955 0.46184865 0.26178297 1.0193247 0.3650125 0.35892707 1.078414 0.5826911
0.5523662 0.76943785 0.70580834 0.3335983 0.43904346 0.91819364 0.14268397 0.9420266
0.8957177 0.6020931 0.23676278 0.8980091 0.8596462 0.2647428 0.32385832 0.8421287

bn1.bias f4 [512]
00000000: b67c 6ebb f6ee bebc 9991 55bd d090 2fbd
00000010: a086 dbbd 206d 1dbd ca6c 753b b55d cebc
00000020: 451b 903c af57 5ebd ae9e 8b3c bfe1 2fbd
00000030: 60f2 a03b aee7 00bd 4db5 253d fb1c 37bd
00000040: cdc0 0bbc 7d4b 64bc 1563 4dbc 79ef 8ebc
00000050: bd09 d8bb cae6 b6bd 4d1f 763d e428 27bd
00000060: 561d fcbc 973d 283c 7401 823c a2ad 56bd
00000070: 3187 cb3c 4991 1abd 99a4 883c 2684 aabc
00000080: 6c1d b5bc f56a d3bd 603b 70bc 4bf8 e4bb
00000090: 28f4 693d da54 abbc e23b 7ebd b5ab 033d
000000a0: 71e4 823d a5bc babc 2717 033d ca47 9e3c
000000b0: 497d 8bbb 5d4f 54bd 2132 0bbe e718 243e
000000c0: e7f8 72bc 81a7 ae3d c341 91bc 2e03 ed3c
000000d0: b358 26bd 008b 313d 6d03 76bc 3583 03bd
000000e0: 8f94 5fbd 0b25 75bd 5183 833c 6bf1 083c
000000f0: 5525 de3d 3963 dfbd f8f0 1bbd b603 53bd
00000100: ea70 16bd 2402 813d 4aa2 b6bd 9aff 03be
00000110: d283 42bd cdf7 e1bc 221b 8ebc 1ee4 bb3d
00000120: e176 0abd 791d 05bd c8e7 453d 36d7 4b3d
00000130: 5786 75bd aabb 7fbd 7fb2 18bc 2b2b ddbb
00000140: f317 3ebd 8204 a9bd 6506 813d b102 103c
00000150: 8960 8fbc 6d1f 8fbc 2348 2abd e61d ee3d
00000160: 7ad7 9b3c 9d69 23bd 2009 34bd 6c13 77bd
00000170: d393 e0bc c71a 9fbc 184a 683c d0c8 253d
00000180: f9fe 4fbd 5efb 26bd 38c6 24bd f701 10bd
00000190: b45c 1abd 359e 34bd a176 70bd 578b da3b
000001a0: 3a98 643c 9cd5 bd3d 2a3a a2bb e96d 15bd
000001b0: 66e1 94bd 8b81 f23c 4644 8fbd 4705 ee3c
000001c0: da60 193d 0796 c23a 2810 e4bc a65b 073d
000001d0: 10d8 693c 53e0 15bd 07df abbd 4317 7a3b
000001e0: 247b 173d 2dbe 9cbd 17b1 e2bc dd09 58bd
000001f0: 55b6 eb3c dbbe 73bd 32b9 2dbd ff0c 60bd
00000200: 2545 d0bc 03b4 a83d 25ad 3f3c ccdb 6f3d
00000210: e46e d63c 538c 1cbd de16 85bb b0a7 73bc
00000220: 4220 28bd 5ea6 203e 412d 313d 89fe adbd
00000230: cba9 833c f14a 5dbd fb68 ecbc 9a69 ac3c
00000240: 0408 6abc ee80 a5bc 7dc2 43bd 5e12 98bc
00000250: 9c6b 67bc 9446 943d 2ae6 8b3c e2ee 7339
00000260: 96b7 173d 0f51 e83c 2006 c5bc 9d11 33be
00000270: aebc c5bd 79fd 863c b6c2 a5bd d50c a9bd
00000280: fb1d 88bd 4a30 98bc 2dac 7fbd 4ba0 b33c
00000290: 3480 173e a01b 0e3d 9f1d edbc df26 6b3b
000002a0: c27e 0dbd 656a 97bd 8739 d9bd fb4f 81bd
000002b0: 58ec 37bb 94f7 fd3c a02f 423b 189b 2e3d
000002c0: 5510 71bd 85cd 27bd 3695 32be 8843 4cbe
000002d0: 3012 413d 953c 32bd 4c92 4e3d e497 00bd
000002e0: e342 7dbd cd42 9c3c 04a9 c0bb 1cb6 93bd
000002f0: 2bfa 3dbd aac2 9bbc 095f d6bc c7b9 253b
00000300: 349c 45be 1b6c 943c 77b4 43bd b8fd 5cbd
00000310: f874 fd3c fbdf b9bd e541 6c3c 3d2e 58bd
00000320: 3857 11bd c5c8 033d fe76 1fbd 41cd c8bd
00000330: fe65 56bb 53b9 263b d883 babc 1442 43be
00000340: 3d0e f23d 3b36 80bc 5c63 60bd 9733 09bd
00000350: e34b 8dbc 154f c4bc c488 de3c c220 4a3e
00000360: 32bd 56bd 030b 90bd c67e 5e3c f5bc c1ba
00000370: 34fb ea3c 92dd c63d a95b 853b b2b0 8abd
00000380: 354b 49bd f75d 0f3d eef1 c5bd dd73 2bbd
00000390: 0ad3 1ebd 23b0 10be 5f76 48bd 3251 823d
000003a0: 276f e9bd 57e7 90bd cbca 2abe 2db4 cbbc
000003b0: 62c6 f73c ac03 afbb ca3f 2a3d 8369 833a
000003c0: 6f28 1ebd 4b23 0fbd bf7d 2bbd e772 76bd
000003d0: e272 a13c 54a1 a1bc 9ec2 d7bd 1ee9 28bd
000003e0: c928 f9bc 1109 6cbd c9b8 8abd 2b30 92bc
000003f0: a836 953c c25d 35bd 35e1 7e3c 2a9a 68bd
-0.0036390251 -0.023307305 -0.052140806 -0.042862713 -0.10719037 -0.038434148 0.0037448877 -0.025191167
0.017591128 -0.05428284 0.017043438 -0.042939898 0.004911706 -0.031470947 0.040456105 -0.044705372
-0.008529854 -0.013934013 -0.01253583 -0.017448174 -0.006592958 -0.08930738 0.060088445 -0.04081048
-0.030775707 0.01026859 0.015869834 -0.052411683 0.024844738 -0.03773621 0.016680049 -0.020814966
-0.022108756 -0.10323135 -0.014662594 -0.0069876066 0.05711761 -0.020914484 -0.062068827 0.032146174
0.06391228 -0.02279503 0.0320045 0.019321341 -0.0042568785 -0.0518335 -0.13593341 0.16025124
-0.014829851 0.085280426 -0.017731553 0.02893218 -0.040611934 0.04334545 -0.015015465 -0.03210755
-0.054585036 -0.05984978 0.016053827 0.00835834 0.10846964 -0.10907597 -0.038071603 -0.05151721
-0.036728777 0.062992364 -0.08917673 -0.12890473 -0.047488995 -0.027583981 -0.017346922 0.09174369
-0.033804778 -0.03249881 0.048316747 0.049765788 -0.05994257 -0.06243483 -0.009319901 -0.006749531
-0.04640956 -0.08252813 0.06300048 0.008789704 -0.017502086 -0.01747104 -0.0415727 0.116267964
0.019023646 -0.039895643 -0.043954015 -0.060321257 -0.027414238 -0.019421948 0.014177822 0.040474713
-0.05078027 -0.040767066 -0.0402281 -0.035158124 -0.037686065 -0.04409619 -0.058706883 0.0066694426
0.013952309 0.092692584 -0.0049507814 -0.03648177 -0.07269554 0.029602787 -0.06995444 0.02905525
0.03744588 0.0014845737 -0.027839735 0.033046387 0.014272705 -0.036590885 -0.083921485 0.0038160838
0.03698267 -0.07653461 -0.027672334 -0.05274378 0.028773466 -0.059508186 -0.042412944 -0.054699894
-0.025423596 0.082374595 0.011698996 0.058559224 0.026175924 -0.03821976 -0.004061564 -0.014871523
-0.04104639 0.15688464 0.043256048 -0.08495814 0.016072175 -0.054026548 -0.028858652 0.021046448
-0.014284138 -0.02020308 -0.0477929 -0.018563446 -0.014124777 0.07240024 0.017077524 0.00023263277
0.037040316 0.028358964 -0.024050772 -0.17487188 -0.096551284 0.016478287 -0.08093779 -0.08254401
-0.06646343 -0.018577714 -0.06242006 0.02192702 0.14795 0.034694314 -0.028944789 0.0035881323
-0.034544714 -0.0739334 -0.106066756 -0.06314083 -0.0028064456 0.031001844 0.0029630437 0.042628378
-0.058853466 -0.040967483 -0.17439732 -0.19947636 0.047136486 -0.043514807 0.05043249 -0.031394854
-0.061831366 0.019074822 -0.005879523 -0.07212469 -0.046381157 -0.019013721 -0.026168363 0.0025287734
-0.19297868 0.018117955 -0.047779527 -0.053952903 0.030939564 -0.09075924 0.014420007 -0.05277847
-0.03548357 0.03217389 -0.03893184 -0.09804774 -0.00327146 0.0025440052 -0.022767946 -0.19068176
0.11819122 -0.01565086 -0.054782256 -0.033496466 -0.0172481 -0.02396349 0.027164824 0.19739059
-0.052426524 -0.0703335 0.01358003 -0.0014781045 0.028684236 0.0971023 0.0040697646 -0.06771983
-0.04914399 0.03500172 -0.09665285 -0.041858543 -0.03877548 -0.14129691 -0.048941012 0.06363143
-0.11398154 -0.070753746 -0.16678922 -0.024866188 0.030245963 -0.005341014 0.04156474 0.0010025952
-0.03861278 -0.034945767 -0.041867968 -0.060168173 0.0197081 -0.019730248 -0.10535167 -0.041237943
-0.030414956 -0.057625834 -0.06773526 -0.017845234 0.018214539 -0.044278868 0.015556623 -0.056787647

bn1.running_mean f4 [512]
00000000: db8f 5c3d 552e 033e 1d59 9a3e b675 523f
00000010: 06de 583d 15a2 c23e d4eb f93d d591 d83e
00000020: c7aa 023f c4bd 623e 60f4 843f d1e1 1b3d
00000030: 3e5b ee3e 8a36 413a ab9e 493f dfe7 3e3e
00000040: 74ae 873d 7b61 4e3e 5b54 313f 5588 213f
00000050: 5fa1 333e 6c90 f03d f49a c13e 7231 883d
00000060: 7de2 8a3f 285f a839 9dd8 b63d ebf1 193f
00000070: 19b7 693b f398 223f e1db d33e a5d8 233f
00000080: d2b0 983e e6e7 ac3c 4720 213f 3936 083d
00000090: e375 4f3e 913c 2e3f a41d 403e 6380 853e
000000a0: 6d78 293e 5132 f73e 078d 8e3e 00ac 2e3e
000000b0: f519 0e3d b684 6f3f 90ad ac3d 9893 cd3d
000000c0: 9ff4 893f 7afe 633f d8f8 8d3f b14a ef36
000000d0: 8c80 0b3e d715 463f 9566 9b3e 600d db3d
000000e0: 97a9 bc3d a3f7 c13c e35d 8b3f fef2 5a3f
000000f0: 212d 923e ba61 bd3e 27c0 603e 52e8 893e
00000100: ff1f 4e38 3070 653f cb84 a93e 2655 a43f
00000110: 2e90 163d e99c 983f 7601 a03e 0400 0000
00000120: 89e6 8a3d 7329 a23e 1e43 663e 672c aa3e
00000130: e982 d03e 8bc5 a93f af1f 543e ff93 3e3f
00000140: a1e9 993d 0720 fe3d 72c6 6e3e c089 e03f
00000150: 9c60 963e ae31 3e3d b7f5 f33e 492f 443e
00000160: 50ab ce3c 82a5 0d3e 8b2a ae3d c028 193e
00000170: 418b 803f 1ed8 e03e bc97 7f3f f1e7 b33f
00000180: 0c67 9a3e 0400 0000 765e 983c daae 003f
00000190: 9959 ab3e 8922 6e3d d22f c43e fdcf f43d
000001a0: bb57 c237 6c78 763e 9a7b 803d 2277 053e
000001b0: e757 9936 aa09 e13e bdb5 983e 1c1e ea3e
000001c0: aedd 2c3e 6072 8f3e 34c3 163e 7c50 463f
000001d0: 1c1b e73e 4f9d 093f 2735 7e3c 0400 0000
000001e0: d0be aa3e 0400 0000 914f b93e afd8 b53d
000001f0: 7118 133d 9091 e03e 8eb3 c73e 3fe7 853e
00000200: 426c 083e 1313 023f 8444 8c3e 6800 c53d
00000210: d184 873f c272 053f 6d89 b53d 2b25 f338
00000220: 0400 0000 f402 503f 0bd3 763e c562 b43b
00000230: d9ed 293f d76b 2f3f b0fe 093f cc3f 1b3f
00000240: de2b a539 ce95 6c3f 6da5 953e 1338 ff3e
00000250: 31e2 1b3e c41d e53d b560 c73e 47df c03e
00000260: 343d f83e 1b39 523d 7110 5639 84dc 283a
00000270: 3c88 d13d a8ea 753d d118 563f ba9d 8b3e
00000280: 6c06 053f 7470 ba3e b26e 853d 8337 7e3e
00000290: a08a b43e cd1f 3b3f cabc 3e3e 76d8 2d36
000002a0: bda0 2f3e ca07 aa3e e341 1814 57f5 a33c
000002b0: 74f6 513d eec6 fe3e c090 783e 1c6d f43e
000002c0: e851 7e3e 344c 823d da2e 0d3f f703 c63d
000002d0: d5d2 6e3d 0400 0000 2c7c 2d3e 83cd 893d
000002e0: 00f3 3f3e 65cf 863e bcce 553d f22f b93d
000002f0: 9cd9 c43e 224e b13e 6892 293f 20e5 aa3e
00000300: 0a80 5c3d 1202 bf3d 42de 883f 4ccc 963e
00000310: 5052 a93f 0cfb 033e ab87 b93e 1f18 cd3e
00000320: 8d92 493e 1c82 743c 0c38 023e de45 653c
00000330: 84d0 463f 46b5 173f f454 213f 8b8d 953d
00000340: d45d 7f3f 90bc 783f 34af 953d 50f2 153f
00000350: 747e 163f c7d0 3a3f 4640 883e d44a e03e
00000360: 60d3 a83e 8bbc 573e 66f6 4f3f 0a25 6e3f
00000370: fe35 e13e 2ac5 373f 1b5d 073e 3152 3e3f
00000380: 3f8f 883d c9ab 1a3f e4a0 8a3e 9435 403e
00000390: ba83 fc3e 07bb 013e 1c40 733e 3958 c93d
000003a0: fafb ad3c ef4b 3a3c add0 f73a 766b 803e
000003b0: 2532 ac3f 2bdd 483e 62ea ff3d 3ca1 643f
000003c0: e654 2f3d d9dc 4d3f 8b17 963e 61da e93d
000003d0: 0400 0000 8983 973e 83de 8b3e cbd6 293f
000003e0: 8840 eb3e 6a34 ba3e 2011 d439 9af2 303e
000003f0: 2bcb 393f 6490 b13c 7fa8 ce3d a165 673e
0.05384813 0.12810643 0.30146113 0.8221086 0.052946113 0.38014284 0.12203184 0.4229876
0.51041836 0.22142702 1.0387077 0.038057152 0.46553987 0.00073704927 0.78757733 0.1864314
0.06625071 0.20154373 0.6926934 0.6309865 0.17542027 0.11746296 0.37813532 0.06650056
1.0850369 0.00032114354 0.089280345 0.6013476 0.0035662113 0.6351463 0.41378692 0.6400245
0.29822403 0.021106672 0.62939876 0.033254836 0.20259814 0.68061167 0.18761307 0.26074514
0.16549845 0.48280576 0.2784197 0.170578 0.034692723 0.93561876 0.08431542 0.10037917
1.0777777 0.89060175 1.1091566 7.1314503e-06 0.13623255 0.77377075 0.303517 0.106959105
0.09212034 0.023677653 1.0888027 0.85527027 0.28550056 0.36988622 0.219483 0.2693506
4.9144026e-05 0.8962431 0.33109125 1.2838485 0.036758594 1.1922885 0.31251115 6e-45
0.06782252 0.31672248 0.2248654 0.33237 0.40724877 1.326341 0.20715211 0.74444574
0.07515264 0.124084525 0.23317888 1.7542038 0.29370582 0.046434097 0.47648403 0.19158663
0.025228173 0.13832667 0.08504208 0.14956951 1.0042497 0.43914884 0.99840903 1.4055158
0.30156744 6e-45 0.01859973 0.502668 0.33466795 0.058138404 0.38317734 0.11953733
2.3167455e-05 0.24069375 0.06273575 0.13033727 4.5699885e-06 0.43952686 0.29826155 0.45726097
0.16881439 0.2801695 0.14722902 0.7746656 0.4513787 0.5375566 0.015515602 6e-45
0.33348703 6e-45 0.36193517 0.0887922 0.03591198 0.43861055 0.39004177 0.2615299
0.13322547 0.50810355 0.27396023 0.09619218 1.0587407 0.5212823 0.088641025 0.00011594066
6e-45 0.81254506 0.24103944 0.0055049383 0.6637855 0.68523926 0.5390425 0.6064422
0.00031503936 0.92416084 0.29227772 0.4984747 0.15223004 0.11187318 0.3894097 0.37670347
0.48484194 0.05132399 0.00020414755 0.0006441551 0.10231063 0.06003824 0.83631617 0.27268773
0.51962924 0.3641392 0.06515254 0.24825864 0.35262012 0.730954 0.18626705 2.5905006e-06
0.1715116 0.33209068 7.687033e-27 0.020014448 0.051260427 0.49761146 0.24273968 0.47739494
0.24835932 0.06362191 0.55149615 0.09668725 0.058306534 6e-45 0.16941899 0.067286514
0.18745041 0.26330104 0.05219911 0.09042348 0.38447273 0.34629923 0.66239023 0.33377934
0.053833045 0.09326567 1.0692828 0.2945274 1.3228245 0.12888736 0.3623632 0.40057465
0.19684811 0.014923599 0.12716693 0.013993708 0.7766192 0.59260976 0.63020253 0.07302388
0.99752545 0.97162724 0.07308808 0.58572865 0.587867 0.7297482 0.26611537 0.4380709
0.32973766 0.21068017 0.8123535 0.9302527 0.43986505 0.71785223 0.1321911 0.74344164
0.06667947 0.60418373 0.27075875 0.18770438 0.4931925 0.12669002 0.23754925 0.0983128
0.021238316 0.011370643 0.0018906795 0.25081986 1.3452803 0.19615619 0.12495877 0.89308524
0.042805575 0.8041511 0.29314837 0.114186056 6e-45 0.2959254 0.273182 0.66343373
0.4594767 0.36368114 0.0004044855 0.17280045 0.72575635 0.021675296 0.10090732 0.22597362
