3 - Collab -MADDPG/trained_agents/maddpg_tennis_checkpoint_actor_target_0.pth (torch_old, 588220 bytes, 10 tensors)

fc1.weight f4 [512, 24]
-0.060999658 -0.011925065 -0.019523874 0.03738799 -0.11271053 0.014445501 0.0015064615 0.045029335
0.037808366 -0.0076648705 0.06438886 -0.021102069 -0.10110075 -0.0812127 0.05878911 -0.012989218
-0.02077113 0.0062905434 0.014477629 -0.011693766 -0.0630527 -0.16731435 -0.017419307 0.052680373
0.03891982 -0.13151765 -0.013428679 0.00019515467 0.04843414 0.0010116021 -0.062274966 -0.016943445
0.07002378 -0.11826432 -0.033925813 0.09241903 0.047243625 0.03411732 0.029658731 0.06695364
0.032447908 -0.15654366 0.010452601 -0.016279645 0.042351168 0.11506212 0.04260079 -0.0261013
0.083801486 -0.0022995814 -0.019206913 -0.043040693 0.03655861 -0.056042127 0.011996054 0.029254152
0.06787939 0.007592938 -0.005053188 -0.0018203517 -0.008754079 -0.022058658 0.0014151047 0.0027405682
-0.0066536865 0.044020463 -0.016679272 -0.011473577 -0.035198856 -0.022941563 0.013439623 0.026048496
0.013760533 -0.012098047 -0.029150259 -0.030107392 0.034809332 -0.27686062 -0.0025177884 -0.00022728986
-0.015835613 -0.02513949 -0.0054873494 -0.022508115 0.0009183363 -0.08017125 0.003043575 -0.0035179711
-0.0740928 0.054859284 -0.029888494 0.07405028 0.009864745 -0.005325432 -0.0017405003 0.053543378
0.0054830317 0.016346473 0.0336105 -0.091447204 -0.11333337 -0.007821738 0.031135265 -0.13801232
0.006151244 0.021867117 -0.008641973 0.0074625546 0.0029913534 -0.089248486 -0.041249357 -0.020932842
-0.030717976 -0.020279009 0.0002990137 -0.04708433 0.09560391 -0.14529942 -0.029928042 -0.03788061
0.122627765 -0.07255966 -0.02839587 0.03864746 0.03342647 -0.15380278 0.0010405481 0.088925354
0.10168592 -0.097548105 0.005546423 0.025210463 -0.017398808 0.019057183 -0.015501636 -0.014354055
0.028126542 -0.13963264 0.015336058 0.0008092141 -0.04333876 0.108591154 0.012591052 -0.020010145
-0.0071390294 0.0037475985 0.018909134 -0.025117673 0.084971115 -0.0154138645 -0.012164171 -0.021139411
0.031059025 -0.029454421 0.022675166 0.025489273 -0.0661478 -0.044619627 -0.025217682 0.022767995
-0.02678856 -0.039785456 -0.0065442156 0.05222364 -0.4221799 -0.010821949 0.02405799 0.050593432
0.027752016 -0.022773536 -0.04969561 0.06379252 -0.07271481 -0.10818892 -0.107503206 -0.004210865
0.046356488 -0.012086756 0.012135495 -0.0004385648 2.5407877e-05 -0.035284594 0.029428262 0.03040845
0.0010773513 0.039688222 0.047424804 -0.013462667 -0.007410578 -0.08453476 0.03384177 -0.046041727
0.0355571 -0.08711814 -0.03275319 -0.026761949 0.02811595 0.03813722 0.01235484 0.015574532
0.027371734 -0.04146455 0.0050824266 0.006918395 -0.06825421 0.0032047436 0.016019095 -0.0059388992
0.081752285 -0.09897733 -0.04518127 -0.07951244 -0.14653145 -0.0018793104 0.022755435 -0.014022123
0.04671616 0.16160274 0.04615961 0.064055234 -0.017862994 -0.058529083 0.007906796 0.07529565
0.043067697 0.10886797 0.048905805 0.090282634 -0.025267307 -0.037236337 0.062226474 0.10450452
0.06653777 0.15766346 -0.021350728 0.019334456 -0.004818056 0.067023724 0.009006501 0.03109697
0.21226989 0.07297267 -0.029185949 0.055486605 -0.020071786 -0.034425743 0.0026804088 0.09004014
0.14079544 0.14564994 -0.023337066 -0.0020047731 -0.03708043 -0.0139719825 0.035742085 -0.009952644
00000000: c7da 79bd 5961 43bc 88f0 9fbc 2624 193d
00000010: c7d4 e6bd d3ac 6c3c 7674 c53a ae70 383d
00000020: f2dc 1a3d 9829 fbbb 4ede 833d 3fde acbc
00000030: e90d cfbd d852 a6bd dacc 703d bbd0 54bc
00000040: 3828 aabc e720 ce3b 9433 6d3c 3697 3fbc
00000050: c621 81bd 7454 2bbe efb2 8ebc 60c7 573d
00000060: 646a 1f3d 90ac 06be f603 5cbc 6fa2 4c39
00000070: e062 463d bc97 843a 0914 7fbd fbcc 8abc
00000080: a168 8f3d 9034 f2bd cbf5 0abd 3046 bd3d
00000090: 8882 413d 9abe 0b3d def6 f23c fd1e 893d
000000a0: 19e8 043d fb4c 20be 6341 2b3c e45c 85bc
000000b0: 6b78 2d3d b0a5 eb3d 2a7e 2e3d 65d2 d5bc
000000c0: 1da0 ab3d 93b4 16bb d157 9dbc 704b 30bd
000000d0: 7bbe 153d 6e8c 65bd 198b 443c 67a6 ef3c
000000e0: 5a04 8b3d 2ece f83b 3795 a5bb de98 eeba
000000f0: 456d 0fbc 5cb4 b4bc 097b b93a 1b9b 333b
00000100: 2b07 dabb cd4e 343d f8a2 88bc abfb 3bbc
00000110: ad2c 10bd f2ef bbbc dd31 5c3c a863 d53c
00000120: dc73 613c e336 46bc 86cc eebc c7a3 f6bc
00000130: 3b94 0e3d adc0 8dbe 7b01 25bb a854 6eb9
00000140: b0b9 81bc 55f1 cdbc 39cf b3bb f062 b8bc
00000150: 82bc 703a d330 a4bd b776 473b c38d 66bb
00000160: f7bd 97bd 21b4 603d b7d8 f4bc aca7 973d
00000170: bd9f 213c f680 aebb 8021 e4ba 4d50 5b3d
00000180: 01ab b33b 0ae9 853c 2aab 093d ac48 bbbd
00000190: 531b e8bd bf26 00bc 620f ff3c 1a53 0dbe
000001a0: 6090 c93b ab22 b33c 1097 0dbc 7288 f43b
000001b0: 950a 443b e9c7 b6bd 16f5 28bd 5a7b abbc
000001c0: 44a4 fbbc 2a20 a6bc f1c4 9c39 80db 40bd
000001d0: fccb c33d 5fc9 14be a72b f5bc b328 1bbd
000001e0: 4424 fb3d 299a 94bd 759e e8bc cd4c 1e3d
000001f0: 32ea 083d 7a7e 1dbe 0063 883a 7f1e b63d
00000200: b540 d03d 4dc7 c7bd c5be b53b 2c86 ce3c
00000210: f287 8ebc cf1d 9c3c 93fa 7dbc 452d 6bbc
00000220: a269 e63c dcfb 0ebe 1744 7b3c 7021 543a
00000230: fc83 31bd 0a65 de3d b34a 4e3c 51ec a3bc
00000240: 85ee e9bb 459a 753b 54e7 9a3c 94c3 cdbc
00000250: 5605 ae3d 6f8a 7cbc 3b4c 47bc 8f2c adbc
00000260: 7f6f fe3c 664a f1bc 45c1 b93c e1ce d03c
00000270: 7f78 87bd 12c3 36bd 5095 cebc f283 ba3c
00000280: af73 dbbc 13f6 22bd dc70 d6bb 75e8 553d
00000290: f727 d8be 8b4e 31bc 4315 c53c 0f3b 4f3d
000002a0: 3258 e33c 918f babc a08d 4bbd a7a5 823d
000002b0: 81eb 94bd 2792 ddbd a42a dcbd 4cfb 89bb
000002c0: 4de0 3d3d 8707 46bc f5d3 463c 2cef e5b9
000002d0: 0023 d537 9486 10bd 8a13 f13c 241b f93c
000002e0: e935 8d3a 1e90 223d 8340 423d 8592 5cbc
000002f0: 6fd4 f2bb 8f20 adbd ab9d 0a3d 4096 3cbd
00000300: 52a4 113d ff6a b2bd 3528 06bd e03b dbbc
00000310: 6c53 e63c c635 1c3d f46b 4a3c 522c 7f3c
00000320: b03a e03c bbd6 29bd 7c8a a63b b4b3 e23b
00000330: ddc8 8bbd ad06 523b 7a3a 833c 199b c2bb
00000340: be6d a73d a0b4 cabd ff0f 39bd 6bd7 a2bd
00000350: 570c 16be 3153 f6ba 9b69 ba3c 0cbd 65bc
00000360: 7259 3f3d 307b 253e dc11 3d3d 642f 833d
00000370: 6a55 92bc 31bc 6fbd 828b 013c 9b34 9a3d
00000380: c167 303d 2cf6 de3d 7451 483d 1ae6 b83d
00000390: 62fd cebc 2185 18bd 30e1 7e3d 7706 d63d
000003a0: f444 883d 8872 213e b9e7 aebc 4b63 9e3c
000003b0: c8e0 9dbb bc43 893d 0190 133c 13bf fe3c
000003c0: 475d 593e b272 953d 5f17 efbc ec45 633d
000003d0: 966d a4bc 0202 0dbd cca9 2f3b f766 b83d
000003e0: ae2c 103e 4225 153e 602d bfbc 8362 03bb
000003f0: a6e1 17bd beea 64bc 4b66 123d 6a10 23bc

fc1.bias f4 [512]
-0.2350525 -0.2532061 -0.24583508 0.10263588 0.025784751 0.24835767 0.033369996 -0.05207558
-0.09205399 -0.20840761 -0.026774535 0.011278904 0.06798977 0.19506371 -0.17851019 0.09279421
0.13069908 -0.004182826 -0.16057158 -0.07779943 -0.06447626 -0.16480939 -0.020265229 -0.2072302
0.037567537 0.042378783 -0.005860288 -0.014828113 -0.091288865 0.16259076 -0.013561998 -0.16404155
-0.05457217 -0.5038489 -0.106547445 0.12926157 0.09050996 0.21932444 -0.24181281 0.0408519
-0.24103315 0.11634195 -0.13988213 0.0027922115 0.030837275 0.043173533 -0.30645177 -0.0029748566
-0.10586737 0.016418472 0.1292564 -0.16008075 -0.26275557 0.10041903 -0.1382371 -0.12281422
0.14110683 -0.051860366 -0.25257632 -0.05237164 -0.13667005 -0.4016734 -0.017891167 -0.23661329
0.06717522 -0.043763645 0.18914214 -0.29497156 -0.1687466 -0.16365904 0.216986 0.011193173
-0.14245918 0.14876218 0.114803985 -0.30526355 -0.2488958 -0.23787776 -0.112962015 -0.30765086
-0.04753406 0.22941606 -0.209198 0.055937167 -0.1675691 0.08461627 0.075240076 -0.16717045
0.007103332 0.053504538 -0.046598554 -0.0207428 -0.16973 -0.13015825 -0.009422789 -0.005059435
0.09278967 0.09373379 -0.12295479 -0.52787536 0.044533916 -0.20054796 -0.089563265 -0.20299308
-0.016097747 -0.12357088 -0.0936298 -0.06906038 0.05910177 0.1960651 -0.15098335 -0.12200565
-0.1973365 0.15294689 0.0895714 -0.042361543 -0.085647926 0.040789824 0.090555705 -0.20318677
-0.27253526 0.07566115 0.05960086 -0.09806208 0.019373434 -0.0019838861 -0.1659681 -0.07651078
-0.035502058 0.012562041 -0.23170432 -0.025551807 0.2136305 0.030039527 -0.0119743785 -0.16589141
-0.30888176 -0.039720085 -0.09649566 -0.19927599 -0.047732607 -0.14591536 0.011597689 -0.02746974
-0.09387112 -0.107317284 0.18706161 0.15763679 -0.1736738 0.101426445 -0.13472308 -0.2387077
0.08649504 -0.19217803 -0.07936199 -0.18978322 -0.022962285 -0.18349634 -0.11869654 -0.17882518
-0.117003866 -0.027495414 -0.1105276 0.07796086 0.036281522 -0.29267275 -0.10438758 -0.13754694
-0.12292968 0.006561642 -0.1371849 0.034008436 -0.024523268 0.081821255 0.14958094 -0.08374421
-0.12318425 -0.21776883 -0.12216797 -0.21693116 0.02412622 0.118939824 -0.10211525 0.14714633
0.12340973 0.17496416 -0.12333625 -0.12797466 -0.015617883 0.1990677 0.02905351 0.06959252
0.15838246 -0.26760662 0.051253524 0.018972 0.024208514 -0.1716912 -0.42201373 0.076760225
-0.10465019 -0.08430696 -0.30490035 0.03467641 -0.2131636 0.122854576 -0.14851435 0.06091309
-0.17535953 -0.036734875 -0.14995474 -0.096124634 0.049504433 0.04048749 -0.22333643 0.0948677
0.065388896 -0.09173975 -0.19763303 0.056912668 0.05957545 -0.10540594 0.1374439 -0.112275936
0.021100823 0.038307276 -0.15060836 0.2350112 -0.11521557 -0.1828483 -0.21624222 -0.283383
-0.071521334 0.07651 -0.012991133 -0.049599603 -0.22407322 -0.1878905 0.0030824344 0.11947304
0.056651995 -0.018163137 -0.065977305 -0.07301369 -0.18421265 -0.059075408 -0.384948 -0.05914619
0.062714785 0.042751294 -0.1493901 -0.2050148 0.18712975 -0.24660683 -0.103810884 -0.15379512
00000000: 9ab1 70be 3ba4 81be 31bc 7bbe c332 d23d
00000010: 8b3a d33c 7951 7e3e faae 083d 344d 55bd
00000020: cd86 bcbd ce68 55be 4556 dbbc 27cb 383c
00000030: 383e 8b3d c8be 473e 60cb 36be e40a be3d
00000040: fbd5 053e 1610 89bb e06c 24be 4f55 9fbd
00000050: 210c 84bd cbc3 28be 4403 a6bc 2734 54be
00000060: 6be0 193d 6095 2d3d a907 c0bb 9df1 72bc
00000070: a8f5 babd 317e 263e 2433 5ebc 82fa 27be
00000080: 1187 5fbd 3efc 00bf 8c35 dabd 255d 043e
00000090: 495d b93d 9696 603e c79d 77be 5254 273d
000000a0: 65d1 76be b044 ee3d 433d 0fbe 89fd 363b
000000b0: 749e fc3c bbd6 303d 3fe7 9cbe d0f5 42bb
000000c0: fed0 d8bd 0880 863c ca5b 043e 35ec 23be
000000d0: e687 86be 7ea8 cd3d 078e 0dbe 0686 fbbd
000000e0: 4f7e 103e 896b 54bd af51 81be a583 56bd
000000f0: 3cf3 0bbe 23a8 cdbe 7f90 92bc c14a 72be
00000100: 2993 893d 8241 33bd 7aae 413e 8306 97be
00000110: e9cb 2cbe 3c96 27be 9431 5e3e 9263 373c
00000120: d2e0 11be 1d55 183e 5a1e eb3d 814b 9cbe
00000130: 8ade 7ebe 3a96 73be a158 e7bd 6a84 9dbe
00000140: 13b3 42bd 0bec 6a3e 0038 56be 5f1e 653d
00000150: 3c97 2bbe 4c4b ad3d 7817 9a3d bb2e 2bbe
00000160: 11c3 e83b 9327 5b3d 20de 3ebd ceec a9bc
00000170: b3cd 2dbe 3448 05be 0b62 1abc 9ec9 a5bb
00000180: 8308 be3d 80f7 bf3d b9cf fbbd d722 07bf
00000190: 3269 363d 725c 4dbe f26c b7bd 6bdd 4fbe
000001a0: 6cdf 83bc bb12 fdbd fbc0 bfbd 876f 8dbd
000001b0: b314 723d 4ac5 483e 619b 1abe 19de f9bd
000001c0: 9412 4abe 1c9e 1c3e 3671 b73d 4c83 2dbd
000001d0: 2e68 afbd 3b13 273d 4575 b93d 3110 50be
000001e0: be89 8bbe 3cf4 9a3d 0820 743d c6d4 c8bd
000001f0: 09b5 9e3c 1604 02bb 8bf3 29be afb1 9cbd
00000200: 9b6a 11bd 05d1 4d3c e643 6dbe 0652 d1bc
00000210: f4c1 5a3e 7415 f63c 2f30 44bc 70df 29be
00000220: c025 9ebe 87b1 22bd 849f c5bd 010f 4cbe
00000230: 4483 43bd d66a 15be 3c04 3e3c 3808 e1bc
00000240: 803f c0bd 2ac9 dbbd 148d 3f3e 8a6b 213e
00000250: 8bd7 31be abb8 cf3d d9f4 09be cb6f 74be
00000260: 5024 b13d 51ca 44be 8a88 a2bd 8856 42be
00000270: 671b bcbc 77e6 3bbe 2c17 f3bd f31d 37be
00000280: b99f efbd 103e e1bc 4b5c e2bd f2a9 9f3d
00000290: ef9b 143d 34d9 95be 28c9 d5bd 1bd9 0cbe
000002a0: 8ec2 fbbd 0b03 d73b 337a 0cbe 6e4c 0b3d
000002b0: 05e5 c8bc e791 a73d bf2b 193e 1682 abbd
000002c0: 0648 fcbd cbfe 5ebe 3333 fabd 3423 5ebe
000002d0: 5aa4 c53c b996 f33d cd21 d1bd 87ad 163e
000002e0: 3ebe fc3d ce29 333e b797 fcbd ca0b 03be
000002f0: 26e2 7fbc 67d8 4b3e a001 ee3c 8686 8e3d
00000300: 032f 223e bc03 89be 37ef 513d 2b6b 9b3c
00000310: ef50 c63c d1cf 2fbe 2f12 d8be 7734 9d3d
00000320: d752 d6bd 21a9 acbd e61b 9cbe da08 0e3d
00000330: 8f47 5abe 2e9b fb3d 2514 18be 0180 793d
00000340: 7391 33be 4f77 16bd bc8d 19be fedc c4bd
00000350: 29c5 4a3d 36d6 253d 4eb2 64be ff49 c23d
00000360: 9dea 853d 0de2 bbbd 5060 4abe 421d 693d
00000370: 6305 743d 12df d7bd 18be 0c3e edf0 e5bd
00000380: a2db ac3c 17e8 1c3d 1439 1abe c7a6 703e
00000390: 24f6 ebbd 963c 3bbe 9a6e 5dbe 9417 91be
000003a0: c779 92bd 46b1 9c3d c3d8 54bc f428 4bbd
000003b0: 7373 65be 5e66 40be ab02 4a3b 48ae f43d
000003c0: ec0b 683d dcca 94bc 1c1f 87bd 3488 95bd
000003d0: 3ea2 3cbe 0ef9 71bd e717 c5be 4643 72bd
000003e0: 9c70 803d fb1b 2f3d b8f9 18be 66ef 51be
000003f0: f19e 3f3e 8086 7cbe cd9a d4bd 787c 1dbe

fc2.weight f4 [256, 512]
-0.01929538 -0.057301532 -0.092141785 -0.06536798 -0.19890477 0.051290154 0.12939198 -0.12956868
-0.028432975 -0.0027880042 0.00862894 -0.014707915 0.09419713 0.016960097 0.022300296 0.036327068
0.03596435 0.11374375 -0.13463652 0.09090616 0.004056242 -0.033157635 0.0055362293 -0.010591915
-0.02923529 0.013681862 -0.006144292 -0.096439034 0.08048902 -0.055889007 0.008214046 -0.1912873
-0.1859809 0.16552795 -0.042598624 0.1099952 -0.07254288 -0.18461978 0.03520986 0.044458117
-0.0045239995 0.05211815 -0.016329031 0.014922168 0.062564775 -0.115373224 0.16437012 0.0954022
0.08204199 -0.0060315453 -0.05837803 0.05655898 -0.14039122 -0.03224147 0.112602204 0.11663136
0.05495613 0.13331887 0.13836405 -0.05664659 -0.10816555 0.18862237 -0.10956026 -0.037481036
0.10083154 0.091492206 -0.082711644 0.01835429 -0.033372696 0.049694415 0.09171399 -0.024439909
-0.01134384 -0.009227123 -0.022961311 0.022939201 -0.002280537 0.07660504 -0.057945803 0.1394774
-0.037098646 -0.0303136 0.08312276 -0.07403409 -0.005695409 -0.0018198286 0.010187957 -0.024646109
0.020797243 -0.010839762 0.0480493 0.08688783 -0.097484276 0.07720881 -0.04263735 0.08581447
0.022323003 -0.054642804 -0.09430263 0.16846567 -0.070822574 0.022099085 0.07212361 0.087549746
-0.11063363 0.05811509 0.08541589 -0.037920743 -0.01873185 -0.013924099 -0.10783408 0.076794334
-0.11321217 0.014598795 0.083628766 -0.1907352 -0.021612871 0.2129841 0.055339303 0.028832564
-0.045310155 0.033526152 0.05918842 0.099498816 0.014746421 -0.026892424 0.003844961 0.051644415
0.120795935 -0.012906686 0.033304904 -0.019507779 0.1361211 -0.18597633 0.045129627 -0.049042866
0.13664193 -0.0019973728 0.10659633 -0.024708193 -0.051759265 -0.097996764 0.043094147 -0.040900286
0.027786357 0.014474245 -0.027477035 -0.13642363 -0.011818458 0.050696515 -0.16526058 -0.014821804
-0.16408125 0.054971494 -0.0017278355 0.0933538 0.056613404 -0.08041443 0.030454867 -0.11270693
0.024069639 -0.017012168 -0.021279948 0.042182725 0.012405458 0.019986896 -0.0009852813 -0.05239271
-0.026963174 0.03269885 -0.054476753 0.041308448 -0.020935174 0.02690603 -0.0011913605 -0.15778983
0.038711395 -0.048004903 0.09879746 -0.19997646 0.16977625 -0.018538581 -0.07403894 -0.02833812
0.18068942 0.003986428 -0.05299691 -0.035458125 0.017198874 0.13361642 0.05003836 0.02894276
-0.051516533 0.08467303 -0.046917085 0.009539096 -0.01926365 0.014843866 0.28496638 0.05878083
0.0064091627 0.08124426 -0.088006586 0.09642451 0.15830809 -0.07324696 -0.10709385 0.01743142
-0.0109196305 -0.031722195 -0.06121826 -0.043253556 -0.085423745 -0.1089927 0.029722588 -0.073913835
-0.10966962 -0.0175682 -0.06459594 0.060499143 0.14282745 0.106071055 0.07207557 -0.024544705
-0.13620012 -0.12405134 0.01303706 0.017174356 0.11651047 -0.037444152 0.0035498287 -0.12570755
0.009967627 0.0061249975 -0.14483252 -0.06302526 0.035102032 -0.2099955 0.08123831 0.06444634
0.1284633 -0.0040714117 -0.056092065 -0.05267503 -0.08706951 -0.061884627 0.12264059 0.119820334
0.06383426 0.07834677 0.051524077 0.06375426 -0.035307296 -0.02568705 -0.071825236 -0.0070452983
00000000: 5811 9ebc 03b5 6abd d5b4 bcbd a6df 85bd
00000010: b1ad 4bbe a015 523d 557f 043e a7ad 04be
00000020: 45ec e8bc f3b6 36bb 6660 0d3c 77f9 70bc
00000030: 6dea c03d e7ef 8a3c 1caf b63c b1cb 143d
00000040: 5b4f 133d 7cf2 e83d 28de 09be 022d ba3d
00000050: 39ea 843b 4dd0 07bd 4269 b53b b689 2dbc
00000060: d97e efbc e329 603c 0f56 c9bb d481 c5bd
00000070: 6dd7 a43d dfeb 64bd 3594 063c d1e0 43be
00000080: c771 3ebe 2980 293e e57b 2ebd 2a45 e13d
00000090: 5d91 94bd f80c 3dbe 3738 103d b719 363d
000000a0: 0f3e 94bb d779 553d 76c4 85bc 1c7c 743c
000000b0: f621 803d cc48 ecbd a450 283e 3b62 c33d
000000c0: a105 a83d 45a4 c5bb cd1d 6fbd 64aa 673d
000000d0: b7c2 0fbe a20f 04bd fc9b e63d 6cdc ee3d
000000e0: ae19 613d be84 083e 4eaf 0d3e 4106 68bd
000000f0: e685 ddbd 3926 413e 2161 e0bd b785 19bd
00000100: c480 ce3d 4460 bb3d b964 a9bd bc5b 963c
00000110: cfb1 08bd 5f8c 4b3d 8bd4 bb3d 3436 c8bc
00000120: 83db 39bc 5c2d 17bc 5c19 bcbc feea bb3c
00000130: 1075 15bb 1ae3 9c3d 9458 6dbd 2ad3 0e3e
00000140: c0f4 17bd 3a54 f8bc 443c aa3d 2f9f 97bd
00000150: 8ea0 babb 5187 eeba 64eb 263c a3e6 c9bc
00000160: fb5e aa3c 4299 31bc 58cf 443d 3ff2 b13d
00000170: d6a5 c7bd a71f 9e3d 80a4 2ebd 7fbf af3d
00000180: bbde b63c 22d1 5fbd bd21 c1bd 4482 2c3e
00000190: 6d0b 91bd 2409 b53c 8bb5 933d 484d b33d
000001a0: e293 e2bd 170a 6e3d 87ee ae3d c852 1bbd
000001b0: 8973 99bc e721 64bc 1dd8 dcbd 5946 9d3d
000001c0: c8db e7bd c92f 6f3c 8f45 ab3d 1750 43be
000001d0: 7a0d b1bc 8118 5a3e 77ab 623d 4532 ec3c
000001e0: 2497 39bd b852 093d 8f6f 723d 09c6 cb3d
000001f0: f99a 713c 804d dcbc befb 7b3b 1889 533d
00000200: dc63 f73d 9176 53bc b96a 083d c7ce 9fbc
00000210: 5463 0b3e 9470 3ebe d8d9 383d 2ce1 48bd
00000220: ddeb 0b3e 5be6 02bb 2d4f da3d d668 cabc
00000230: 8601 54bd 87b2 c8bd 7d83 303d 0f87 27bd
00000240: 37a0 e33c 6225 6d3c 8517 e1bc a3b2 0bbe
00000250: 35a2 41bc 26a7 4f3d 123a 29be 27d7 72bc
00000260: ea04 28be ca29 613d 8a78 e2ba 4730 bf3d
00000270: 75e3 673d 52b0 a4bd 7c7c f93c e4d2 e6bd
00000280: b12d c53c 1a5d 8bbc 4953 aebc cbc7 2c3d
00000290: 4340 4b3c 8fbb a33c 8e24 81ba bd99 56bd
000002a0: e0e1 dcbc 3bef 053d 0423 5fbd 0c33 293d
000002b0: 3e80 abbc 096a dc3c 6d27 9cba a893 21be
000002c0: d78f 1e3d caa0 44bd 5356 ca3d a1c6 4cbe
000002d0: d3d9 2d3e 39de 97bc baa1 97bd 5825 e8bc
000002e0: a606 393e 95a0 823b 4a13 59bd 8a3c 11bd
000002f0: a7e4 8c3c bed2 083e 06f5 4c3d 5e19 ed3c
00000300: 0003 53bd 0e69 ad3d 212c 40bd de49 1c3c
00000310: cdce 9dbc b033 733c 1de7 913e 2bc4 703d
00000320: f403 d23b 6463 a63d cc3c b4bd 377a c53d
00000330: 841b 223e 8102 96bd 0554 dbbd 56cc 8e3c
00000340: 40e8 32bc 22ef 01bd 00c0 7abd a42a 31bd
00000350: a5f2 aebd 9137 dfbd c97c f33c 2360 97bd
00000360: 779a e0bd 30eb 8fbc e04a 84bd f3cd 773d
00000370: 5c41 123e c83b d93d 5b9c 933d fa11 c9bc
00000380: 0b78 0bbe a10e febd 6599 553c 3cb1 8c3c
00000390: 0b9d ee3d 0a5f 19bd 3ea4 683b 7bb9 00be
000003a0: 424f 233c 34b4 c83b fa4e 14be 6313 81bd
000003b0: 26c7 0f3d 0f09 57be 4560 a63d 71fc 833d
000003c0: e28b 033e 7a69 85bb cbc0 65bd c6c1 57bd
000003d0: 8051 b2bd bc7a 7dbd fd2a fb3d 5d64 f53d
000003e0: 89bb 823d 4574 a03d e90a 533d 9891 823d
000003f0: 629e 10bd a66d d2bc 1c19 93bd 3fdc e6bb

fc2.bias f4 [256]
-0.059227448 -0.0077491403 0.07091941 0.026415655 0.048328735 -0.026370788 -0.05992114 -0.040462792
-0.01772074 -0.05659348 0.049906004 0.0724856 0.08790033 0.020476302 0.1245217 -0.10016568
-0.006162872 -0.044246048 0.028092356 0.08448906 -0.012095077 0.027053643 0.013033547 0.07434717
0.10167074 -0.04968881 0.03243733 0.05939901 0.07361875 0.018089535 0.0046366965 0.08051083
0.12085663 0.049164664 0.07667148 0.0055437884 0.032516096 0.014703827 0.0009872202 0.0052098394
-0.00901768 -0.03281099 0.047739673 0.030439323 0.026170785 0.010648428 0.10735718 0.05047617
0.034833934 -0.011333072 0.009128768 0.06078617 0.0029562183 -0.0010990491 0.059982006 0.0968188
0.0048852926 -0.034827046 -0.019272994 -0.003990883 0.04784507 -0.062036596 0.03868876 -0.020683404
-0.037557952 0.06326573 0.034573544 -0.0046353997 -0.014550633 0.0060706637 0.08114722 0.011374196
-0.034751724 0.023390196 -0.05349568 0.091497555 -0.011273379 0.0013893056 -0.018776044 -0.07683096
-0.08680651 0.07793542 0.019636769 -0.018320734 -0.022513753 0.061780535 -0.030078689 0.004624139
0.067423604 0.076352514 -0.03268307 0.043011837 -0.0907888 0.053721096 -0.06397847 0.044908207
-0.021828784 0.05223914 0.018904256 0.032668132 -0.016581997 0.025814854 0.034948226 -0.015673017
-0.022392822 0.034517486 0.07915326 0.013024919 -0.04306808 -0.040856134 0.09167846 0.044576485
-0.026181655 -0.10523238 -0.031680033 0.043363832 0.07486486 0.017719049 -0.03784104 -0.020249557
-0.010197499 0.06643294 -0.046595465 0.08901866 -0.024123263 -0.011030808 -0.0035922918 0.055444058
0.029289143 -0.06281541 -0.027182685 0.018103614 -0.1290416 0.030387051 0.09441928 0.015401801
0.047622655 0.03168586 -0.0057202387 0.031169297 0.07935333 -0.0031897184 0.029478721 -0.030687854
-0.014988696 0.033626262 0.09079429 -0.056126554 -0.039207976 0.021016361 -0.03143925 0.06626101
0.055351228 0.01471346 0.030704742 -0.071097836 -0.0058970484 0.046380773 -0.034805544 -0.028418092
-0.022929506 -0.05204585 0.004431609 -0.035631187 0.03380573 0.025650682 0.047418267 0.036046833
-0.023989882 -0.07012406 0.11740417 0.015002808 0.078571856 -0.031358186 -0.034369532 -0.06167475
0.06992321 0.0711451 0.056482863 0.036878783 0.06476794 -0.0068243695 0.06162411 -0.038358644
-0.007202857 0.030741947 -0.0071875565 0.015961766 0.011605192 0.09848577 0.017515369 0.039430443
-0.006606746 -0.0057825297 0.047308177 0.014950001 -0.042140942 0.002587537 0.06264932 0.05355338
-0.017858133 0.07085342 -0.0693906 -0.01639176 -0.07156223 0.12996149 0.10776401 0.027058199
0.01394291 0.032319933 -0.00211799 0.0013609343 0.041653875 0.05920691 -0.034724686 0.022044856
0.030693278 0.09519192 0.03648276 0.032290533 0.036827162 -0.005862771 -0.053318486 0.070558816
-0.009406815 -0.028003003 0.046372134 0.04859885 0.031272337 -0.014544207 0.04254708 -0.040654466
-0.005932857 0.075388655 -0.015079611 0.07150903 -0.012240576 -0.06778188 0.029036779 -0.042807456
-0.041465472 0.062415224 0.18072927 0.0072020674 0.056948967 -0.023673119 0.04209301 0.124660894
0.033137754 -0.00046578786 0.016010167 0.03966098 -0.06880192 -0.0679313 0.060599707 0.030850321
00000000: 7b98 72bd 80ec fdbb 323e 913d a565 d83c
00000010: 5af4 453d 8d07 d8bc df6f 75bd 50bc 25bd
00000020: 162b 91bc 91ce 67bd 3d6a 4c3d 5573 943d
00000030: 1705 b43d ebbd a73c 3c05 ff3d aa23 cdbd
00000040: ebf1 c9bb 583b 35bd f121 e63c 9a08 ad3d
00000050: 6e2a 46bc 9a9f dd3c a98a 553c 5443 983d
00000060: c038 d03d 7e86 4bbd 01dd 043d 604c 733d
00000070: 6dc5 963d 8130 943c 6eef 973b dde2 a43d
00000080: ae83 f73d e360 493d f005 9d3d aba8 b53b
00000090: 992f 053d 52e8 703c 9d65 813a 4db7 aa3b
000000a0: e4be 13bc d164 06bd ad8a 433d e35b f93c
000000b0: 1d64 d63c bf76 2e3c 15de db3d 1ac0 4e3d
000000c0: 07ae 0e3d 59ae 39bc d490 153c ebfa 783d
000000d0: 1dbd 413b f80d 90ba b1af 753d ef48 c63d
000000e0: ce14 a03b cea6 0ebd 66e2 9dbc f4c5 82bb
000000f0: 31f9 433d 161a 7ebd 1b78 1e3d 3e70 a9bc
00000100: 5ed6 19bd 7791 813d fd9c 0d3d 8de4 97bb
00000110: c765 6ebc 6bec c63b 8430 a63d d65a 3a3c
00000120: d357 0ebd cc9c bf3c 491e 5bbd 1263 bb3d
00000130: fbb3 38bc 5c19 b63a 38d0 99bc 8d59 9dbd
00000140: 9dc7 b1bd 9b9c 9f3d 4add a03c 5d15 96bc
00000150: c36e b8bc 960d 7d3d 9567 f6bc 1786 973b
00000160: 6315 8a3d b55e 9c3d afde 05bd 2e2d 303d
00000170: 7aef b9bd a70a 5c3d 2507 83bd abf1 373d
00000180: 47d2 b2bc b5f8 553d 19dd 9a3c 05cf 053d
00000190: f8d6 87bc ac79 d33c df25 0f3d b364 80bc
000001a0: 2771 b7bc 3562 0d3d 1b1b a23d 7866 553c
000001b0: 2868 30bd c358 27bd ebc1 bb3d d595 363d
000001c0: e97a d6bc 1384 d7bd ecc2 01bd 469e 313d
000001d0: bf52 993d 8a27 913c 35ff 1abd 66e2 a5bc
000001e0: 6913 27bc fe0d 883d e3da 3ebd 6a4f b63d
000001f0: 269e c5bc 90ba 34bc a86c 6bbb 4f19 633d
00000200: c9ef ef3c 5ea5 80bd 39ae debc 084e 943c
00000210: 7b23 04be 44ee f83c e55e c13d d657 7c3c
00000220: f90f 433d 08c9 013d d770 bbbb c156 ff3c
00000230: 0084 a23d 980a 51bb 5c7d f13c 1865 fbbc
00000240: 2693 75bc b1bb 093d 5bf2 b93d f5e4 65bd
00000250: 8b98 20bd 812a ac3c 71c6 00bd dab3 873d
00000260: f8b7 623d b910 713c 8388 fb3c be9b 91bd
00000270: 073c c1bb c4f9 3d3d 4290 0ebd 0fcd e8bc
00000280: a9d6 bbbc 072e 55bd 0837 913b 02f2 11bd
00000290: e177 0a3d 6121 d23c a839 423d d8a5 133d
000002a0: 6e86 c4bc 349d 8fbd 9971 f03d 56ce 753c
000002b0: 48ea a03d 7171 00bd 11c7 0cbd aa9e 7cbd
000002c0: e633 8f3d 86b4 913d 935a 673d 350e 173d
000002d0: 0ea5 843d f69e dfbb 9069 7c3d f41d 1dbd
000002e0: f205 ecbb 89d6 fb3c 9885 ebbb 40c2 823c
000002f0: b423 3e3c e8b2 c93d 647c 8f3c d181 213d
00000300: 677d d8bb 607b bdbb 38c6 413d d9f0 743c
00000310: fb9b 2cbd ab93 293b 494e 803d ca5a 5b3d
00000320: 384b 92bc 991b 913d a91c 8ebd 0348 86bc
00000330: 388f 92bd a014 053e 61b3 dc3d 28a9 dd3c
00000340: ce70 643c e861 043d facd 0abb 6161 b23a
00000350: 419d 2a3d f282 723d 793b 0ebd 6a97 b43c
00000360: 7870 fb3c fbf3 c23d f26e 153d 1443 043d
00000370: 14d8 163d 7d1c c0bb 7c64 5abd 2481 903d
00000380: 0b1f 1abc 8e66 e5bc b5f0 3d3d 960f 473d
00000390: 6c17 003d d34a 6ebc d945 2e3d 4c85 26bd
000003a0: 6968 c2bb 5e65 9a3d 7910 77bc 5473 923d
000003b0: b28c 48bc 3ad1 8abd 8ade ed3c df56 2fbd
000003c0: b3d7 29bd 1ba7 7f3d 1811 393e 52ff eb3b
000003d0: 5243 693d 21ee c1bc b869 2c3d 364e ff3d
000003e0: 74bb 073d fd34 f4b9 c127 833c 8d73 223d
000003f0: 05e8 8cbd 911f 8bbd 6637 783d d0b9 fc3c

fc3.weight f4 [2, 256]
0.4535647 0.063234024 0.14244439 -0.29563648 0.20146286 0.056260787 0.166331 0.30744708
0.26990962 0.0080844965 -0.38755178 0.04682732 0.3304879 0.091798685 0.3551943 0.34042707
-0.1863159 -0.072374955 -0.1670433 0.22913648 0.30156487 -0.09883476 0.17002548 0.23225683
0.048002895 -0.15370336 -0.060092453 -0.00055235956 0.16720852 -0.3228758 -0.07808488 -0.07556936
0.30574173 -0.41761416 0.2960401 0.39530146 0.036549527 -0.0624215 -0.015139864 0.33627206
0.19165556 -0.011993538 -0.1737904 -0.009642062 0.092496656 -0.21641211 0.12921834 -0.16262814
-0.20481858 -0.18937832 -0.038130596 0.12421939 0.12327897 -0.17912619 -0.2782058 0.091389395
0.2348275 0.08952167 0.013652076 0.19124198 -0.031512957 0.2934936 0.024683526 0.15721405
0.044006858 0.42093834 -0.17595382 -0.25664112 0.16499102 0.40632626 -0.2047686 -0.23237732
0.24600396 -0.16720007 0.14731863 0.15894116 0.23921895 -0.272908 -0.20884962 -0.3144907
0.21483931 -0.21110061 -0.27686933 0.14393662 0.15551728 -0.1351499 0.04074253 0.1402228
0.10155915 0.29588035 -0.036052242 0.21318005 0.06903994 0.16911668 0.22439955 0.09581933
-0.17817035 -0.29100564 -0.17165466 0.24943447 0.07868685 -0.14936441 -0.41746357 0.054200947
0.27574998 0.28014317 0.1355918 0.21391858 0.028255599 -0.1257365 0.17683217 -0.1759463
-0.088857114 0.042853966 0.23665325 -0.06679707 -0.13947734 0.15858866 -0.105968684 -0.15873598
0.13539246 0.31928587 0.1562551 -0.052573245 0.02872465 0.101533175 -0.10561476 0.24906382
-0.4220136 0.06524077 0.052854467 0.024464479 0.31004682 0.12625307 0.247269 -0.08484092
0.3033992 0.09274787 0.2800603 -0.085145906 0.1952178 -0.05169422 -0.16488051 -0.09736838
-0.16789047 0.09823384 -0.030169278 0.053694878 0.21870603 -0.08598578 -0.060259294 0.09571695
0.16419052 -0.0771075 -0.0102077285 -0.16464227 0.06110237 0.19507873 -0.047113862 0.12139236
0.088310786 0.035535015 0.052642487 -0.11931736 0.25254717 0.21429442 0.01921291 -0.08443024
-0.18836352 -0.14639214 0.20397204 0.030248757 0.020409439 -0.21951552 -0.20738687 -0.2419612
0.56048816 0.14677998 -0.30321857 -0.24591076 0.1305466 0.20622022 -0.21211085 0.3222173
-0.03429626 -0.41884622 0.16192684 0.13267751 -0.32605898 -0.23859772 -0.31401137 -0.2600192
0.15657152 -0.19182494 -0.30879977 -0.15458028 -0.37051278 -0.1923301 0.10104898 0.30214942
-0.07291146 0.2581888 0.018316003 -0.15021683 0.0733647 -0.024106001 -0.015545736 0.081060976
-0.2887427 0.029346595 -0.29981455 0.15000662 0.4448389 -0.061654594 -0.09399321 -0.14646089
-0.11001948 -0.35161772 -0.01162209 -0.11603979 -0.23788393 -0.19961555 0.056042146 -0.104610115
0.029232264 0.1700805 -0.036949646 -0.074550636 -0.3265142 -0.32120103 0.054922085 0.09630666
-0.015068218 0.31124806 0.07226749 -0.30348086 0.18151012 -0.023517564 -0.36383483 0.18169558
-0.15972261 -0.05422034 0.32693142 -0.033879843 -0.3745307 0.021510357 -0.15865165 -0.17538616
-0.014384407 -0.4394258 -0.03127892 -0.11075057 -0.12024255 -0.21977577 0.09798047 0.12618719
00000000: a239 e83e d780 813d f1dc 113e aa5d 97be
00000010: 484c 4e3e b671 663d ac52 2a3e b469 9d3e
00000020: 9831 8a3e d674 043c 306d c6be 01ce 3f3d
00000030: b635 a93e f300 bc3d 07dc b53e 754c ae3e
00000040: 98c9 3ebe 5239 94bd 660d 2bbe c1a2 6a3e
00000050: b666 9a3e e169 cabd 291b 2e3e bcd4 6d3e
00000060: af9e 443d 6a64 1dbe 8123 76bd 39cc 10ba
00000070: b638 2b3e fa4f a5be f7ea 9fbd 1cc4 9abd
00000080: 2e8a 9c3e 86d1 d5be 9192 973e f464 ca3e
00000090: f5b4 153d b0ad 7fbd 310d 78bc da2b ac3e
000000a0: 5b41 443e 8b80 44bc 1cf6 31be bdf9 1dbc
000000b0: e36e bd3d 239b 5dbe d051 043e fe87 26be
000000c0: f6bb 51be 64ec 41be d42e 1cbd bc66 fe3d
000000d0: af79 fc3d db6c 37be fe70 8ebe 5d2a bb3d
000000e0: 9f76 703e 2357 b73d f5ac 5f3c f0d4 433e
000000f0: bb13 01bd cb44 963e 1b35 ca3c b8fc 203e
00000100: 8940 343d 3b85 d73e 3d2d 34be 7766 83be
00000110: 68f3 283e ff09 d03e dcae 51be 52f4 6dbe
00000120: 76e8 7b3e 7f36 2bbe b2da 163e 79c1 223e
00000130: d0f5 743e 99ba 8bbe addc 55be ed04 a1be
00000140: d6fe 5b3e c22a 58be d1c1 8dbe 1f64 133e
00000150: ec3f 1f3e bc64 0abe a4e1 263d 9196 0f3e
00000160: 3efe cf3d a17d 973e 84ab 13bd df4b 5a3e
00000170: d064 8d3d ec2c 2d3e ffc8 653e ed3c c43d
00000180: 4a72 36be b1fe 94be 3dc6 2fbe c06b 7f3e
00000190: 9226 a13d fcf2 18be c9bd d5be d001 5e3d
000001a0: 1a2f 8d3e ed6e 8f3e 94d8 0a3e 790d 5b3e
000001b0: 4978 e73c 12c1 00be 7e13 353e 442b 34be
000001c0: b8fa b5bd a487 2f3d 3b55 723e e7cc 88bd
000001d0: 26d3 0ebe 1165 223e 1c06 d9bd af8b 22be
000001e0: 52a4 0a3e 7079 a33e 5601 203e 0b57 57bd
000001f0: f54f eb3c a0f0 cf3d 8d4c d8bd 960a 7f3e
00000200: 2b12 d8be f49c 853d ed7d 583d bb69 c83c
00000210: 75be 9e3e 7c48 013e 1634 7d3e 14c1 adbd
00000220: 2457 9b3e 98f2 bd3d 1064 8f3e fa60 aebd
00000230: 2de7 473e 52bd 53bd 70d6 28be 1369 c7bd
00000240: 7beb 2bbe d32e c93d 9025 f7bc 29ef 5b3d
00000250: 79f4 5f3e 5019 b0bd 73d2 76bd 4007 c43d
00000260: 8f21 283e 89ea 9dbd 513e 27bc fc97 28be
00000270: 7b46 7a3d b8c2 473e 77fa 40bd 8f9c f83d
00000280: 49dc b43d 2a8d 113d a69f 573d a95c f4bd
00000290: dd4d 813e ff6f 5b3e 6564 9d3c c3e9 acbd
000002a0: 5ee2 40be d2e7 15be 0cde 503e 3ecc f73c
000002b0: b231 a73c adc8 60be 395d 54be adc4 77be
000002c0: 277c 0f3f 7e4d 163e 773f 9bbe 08d0 7bbe
000002d0: 02ae 053e 652b 533e 9633 59be aaf9 a43e
000002e0: 3c7a 0cbd 0373 d6be 26d0 253e 9ddc 073e
000002f0: 34f1 a6be f652 74be 19c6 a0be 3d21 85be
00000300: 4954 203e c26d 44be 011b 9ebe 4b4a 1ebe
00000310: dab3 bdbe 2ff2 44be c5f2 ce3d 54b3 9a3e
00000320: 9b52 95bd 5331 843e 710b 963c 71d2 19be
00000330: 3b40 963d f379 c5bc 8bb3 7ebc 4c03 a63d
00000340: 15d6 93be 4568 f03c 4b81 99be 569b 193e
00000350: edc1 e33e 8789 7cbd 837f c0bd d8f9 15be
00000360: e551 e1bd 3d07 b4be 946a 3ebc 45a6 edbd
00000370: d897 73be 0568 4cbe 738c 653d d43d d6bd
00000380: 8078 ef3c 9529 2e3e 8358 17bd 01ae 98bd
00000390: df2c a7be 7674 a4be fbf5 603d 6d3c c53d
000003a0: b0e0 76bc e85b 9f3e fa00 943d d861 9bbe
000003b0: cadd 393e e8a7 c0bc 8f48 babe 680e 3a3e
000003c0: 538e 23be 2616 5ebd 8e63 a73e 97c5 0abd
000003d0: 7dc2 bfbe 7d36 b03c 9475 22be 6e98 33be
000003e0: 93ac 6bbc 6bfc e0be 531e 00bd 32d1 e2bd
000003f0: ba41 f6bd e60c 61be fca9 c83d 3737 013e

fc3.bias f4 [2]
-0.05250584 -0.080746755
00000000: 5d10 57bd 8e5e a5bd

bn1.weight f4 [512]
0.66451067 0.79235756 0.22176938 0.36817858 0.70182467 0.75356305 0.5502374 0.23604435
0.3949666 0.9278944 0.27982768 0.17792937 0.48002374 0.44862443 1.1222053 0.42717102
0.299558 0.43301138 0.37636086 0.6036842 0.21252704 0.4322263 0.17656387 0.89687276
0.29194677 0.8144151 0.93943965 0.50247884 0.7146022 0.3064446 0.6811931 0.3922781
0.53454375 0.75714177 0.50578576 1.0132688 0.31425485 0.416375 0.8810307 0.85114527
0.875717 0.5997987 0.6892039 0.78973734 0.8411233 0.2598711 0.68309104 1.0303975
0.61387444 1.0054988 0.6383811 0.55436903 0.68632656 0.9994467 0.8042223 0.35007372
0.9315931 0.3690871 0.48007223 0.22911508 0.32156876 0.37373805 0.26878917 0.72925305
0.58067966 0.19916537 0.8340621 0.7037278 0.60509324 0.23749313 1.169133 0.4854101
0.7093566 0.898718 0.27508426 0.6941307 0.48018095 0.99186385 0.3078225 0.46950653
0.3502918 0.94854087 0.86433154 0.74628264 0.9871684 0.53741235 0.96467394 0.6653977
0.40966082 0.29025668 0.21253721 0.33787698 1.0251883 0.6279552 0.8251711 0.90181845
0.5009052 0.21212809 0.55400246 0.666227 0.84721214 0.5145576 0.9331215 0.4010041
0.634672 0.80415314 0.60936356 0.9148179 0.19143699 0.46133006 0.9185132 0.474796
0.49465305 0.56052905 0.60686946 0.5557422 0.9828641 0.5458978 0.924876 0.27147943
0.27706444 0.29305953 0.49409893 0.45090002 0.8167289 0.88249177 0.33425024 1.0609124
0.3905006 0.47192624 0.5140537 0.5941377 1.078887 0.86516976 0.3974141 1.2680538
0.90810055 0.76205486 0.25448114 0.25761336 0.70648634 0.36075068 0.48432317 0.2315189
0.7399592 0.485073 1.0679406 0.29013845 0.49279433 1.076391 0.4627102 0.56571895
0.34233162 0.37259924 0.23054977 0.029168665 0.32112494 0.8577013 0.47345558 0.70843816
0.525914 0.8156254 0.9037949 0.5097643 0.35941944 0.2617731 0.48048282 0.117344424
0.8768974 0.29908952 0.57058495 0.507287 0.46026748 0.5632423 0.2692173 0.55269927
0.95567405 0.3735245 0.83098304 0.40725002 0.22355756 0.2815917 0.9202181 0.62834
0.45409068 0.3905809 0.9031561 0.75523037 0.97497356 0.9113354 0.95973736 0.577961
0.6948702 0.74226373 0.9257987 0.728205 0.6845368 0.6323391 0.87358916 0.89537495
0.89290285 0.6224438 0.6366279 0.87365437 0.3222764 0.17864709 0.38166833 0.60986346
1.0317438 0.51653063 0.3325856 0.88958997 0.78609765 1.0111954 0.5048084 0.91246516
0.88752043 0.7189376 0.45275047 0.47978023 0.55044365 0.8756979 1.0115765 0.5144616
0.7584731 0.7299873 1.0125674 0.2621577 0.49680147 1.0181059 0.7338825 0.58905
0.9894624 0.66946197 0.6077726 0.7860917 0.97087646 0.5734811 0.8548552 0.8502517
0.4543716 0.83756775 0.62047577 0.72355455 0.8957136 0.39819604 0.8715179 1.112215
0.68095773 0.57007843 0.91463786 1.0599252 1.0035768 0.99602014 0.439157 0.31830353
00000000: 5f1d 2a3f f2d7 4a3f 8317 633e e781 bc3e
00000010: c8aa 333f 82e9 403f 5cdc 0c3f 9cb5 713e
00000020: 1039 ca3e 7d8a 6d3f 9345 8f3e 1e33 363e
00000030: acc5 f53e 1ab2 e53e 6ca4 8f3f 29b6 da3e
00000040: ab5f 993e abb3 dd3e 5fb2 c03e 0c8b 1a3f
00000050: b0a0 593e c44c dd3e 29cd 343e 7499 653f
00000060: 0c7a 953e 827d 503f 1e7f 703f 74a2 003f
00000070: 2bf0 363f 4ee6 9c3e ac62 2e3f add8 c83e
00000080: dcd7 083f 0bd4 413f 2d7b 013f cbb2 813f
00000090: 03e6 a03e 1b2f d53e 3a8b 613f a8e4 593f
000000a0: fd2e 603f 688c 193f ab6f 303f 3a2c 4a3f
000000b0: db53 573f d30d 853e 0edf 2e3f 11e4 833f
000000c0: e026 1d3f 2fb4 803f f26c 233f 21eb 0d3f
000000d0: 19b3 2f3f bddb 7f3f 83e1 4d3f dd3c b33e
000000e0: e37c 6e3f fcf8 bc3e 07cc f53e 259d 6a3e
000000f0: a9a4 a43e 985a bf3e bc9e 893e 54b0 3a3f
00000100: 6ca7 143f 02f2 4b3e 1885 553f 8127 343f
00000110: 64e7 1a3f 6631 733e 26a6 953f ac87 f83e
00000120: 6598 353f 6212 663f d8d7 8c3e 8db2 313f
00000130: 47da f53e caea 7d3f e99a 9d3e 2963 f03e
00000140: 7259 b33e 93d3 723f d544 5d3f 610c 3f3f
00000150: 11b7 7c3f db93 093f dff4 763f 8157 2a3f
00000160: 10bf d13e 869c 943e 5ba3 593e 36fe ac3e
00000170: 5f39 833f acc1 203f 6a3e 533f 93dd 663f
00000180: 533b 003f 1b38 593e 1bd3 0d3f da8d 2a3f
00000190: e5e2 583f 0cba 033f 0de1 6e3f 6950 cd3e
000001a0: dd79 223f fbdc 4d3f 40ff 1b3f 8231 6a3f
000001b0: 0f08 443e 7433 ec3e ae23 6b3f 7618 f33e
000001c0: 2a43 fd3e d57e 0f3f cc5b 1b3f 1f45 0e3f
000001d0: fb9c 7b3f f5bf 0b3f acc4 6c3f 5aff 8a3e
000001e0: 64db 8d3e e60b 963e 89fa fc3e 5edc e63e
000001f0: 2515 513f fbea 613f d922 ab3e facb 873f
00000200: b2ef c73e 51a0 f13e 0699 033f 6919 183f
00000210: f818 8a3f c47b 5d3f dc79 cb3e 964f a23f
00000220: 4779 683f 0716 433f 5a4b 823e e6e5 833e
00000230: 4adc 343f 50b4 b83e 35f9 f73e 4a13 6d3e
00000240: f76d 3d3f 7d5b f83e 47b2 883f 078d 943e
00000250: 8a4f fc3e 2ec7 893f 5ae8 ec3e f5d2 103f
00000260: 1746 af3e 54c5 be3e 3d15 6c3e 20f3 ee3c
00000270: 7d6a a43e 5092 5b3f c568 f23e 345c 353f
00000280: 4da2 063f d4cc 503f 1a5f 673f ea7f 023f
00000290: d305 b83e 2007 863e d801 f63e 4652 f03d
000002a0: 597c 603f 4322 993e db11 123f 90dd 013f
000002b0: 2ea8 eb3e a630 103f dad6 893e b37d 0d3f
000002c0: 0ea7 743f 9a3e bf3e 4ebb 543f 1383 d03e
000002d0: 46ec 643e ca2c 903e 6a93 6b3f e4da 203f
000002e0: 937e e83e 38fa c73e 3d35 673f c756 413f
000002f0: de97 793f 474d 693f 59b1 753f 41f5 133f
00000300: 03e3 313f ff04 3e3f 2501 6d3f a56b 3a3f
00000310: ce3d 2f3f fae0 213f 8aa3 5f3f 4b37 653f
00000320: 4895 643f 7a58 1f3f 0cfa 223f d0a7 5f3f
00000330: 6a01 a53e 43ef 363e 086a c33e 0320 1c3f
00000340: 2e10 843f 5a3b 043f a948 aa3e 2bbc 633f
00000350: b23d 493f da6e 813f 203b 013f 5197 693f
00000360: 8a34 633f 4b0c 383f e9ce e73e c1a5 f53e
00000370: e0e9 0c3f bd2d 603f 577b 813f c1b3 033f
00000380: 4b2b 423f 73e0 3a3f cf9b 813f 8939 863e
00000390: c35c fe3e 4b51 823f b9df 3b3f fbcb 163f
000003a0: 684d 7d3f dc61 2b3f fc96 1b3f 4e3d 493f
000003b0: 5c8b 783f a8cf 123f cad7 5a3f 18aa 593f
000003c0: 65a3 e83e d76a 563f 80d7 1e3f df3a 393f
000003d0: 7d4d 653f 5ae0 cb3e cc1b 5f3f 105d 8e3f
000003e0: 3f53 2e3f a9f0 113f b525 6a3f a1ab 873f
000003f0: 3475 803f 2dfb 7e3f 30d9 e03e aef8 a23e

bn1.bias f4 [512]
0.029191792 0.0055619143 0.0997274 0.03846963 0.013095655 0.07763127 -0.026217027 0.020628802
0.02536 -0.010308568 0.030809183 0.14637236 0.028553516 0.026780512 0.0759073 -0.007983397
-0.06800618 -0.05398418 0.047373462 0.011846491 0.049209815 0.01930597 0.014611313 -0.007604805
0.032734577 -0.0058914726 -0.017532593 0.04367262 0.041178964 -0.060967658 -0.08081862 0.045660876
0.02023545 -0.16554934 0.026909132 0.0024055343 -0.008001557 0.06712147 0.050154276 0.061743144
0.019199463 0.018384162 0.02321989 -0.01074785 -0.0046327594 0.0859152 -0.2005193 0.039498642
0.0018723117 0.09260276 0.040676557 -0.041859854 0.008921108 0.022392007 0.04728357 0.013869338
-0.0047190264 -0.051757358 0.042946562 0.058323696 -0.020104606 -0.2809253 0.038529374 0.011016028
-0.011454105 -0.03715121 0.0055746525 -0.10248943 0.02503296 -0.12347888 0.0036059811 -0.014329489
-0.020220963 0.060476515 0.034890164 0.014489283 0.070558935 -0.022663653 -0.039243206 0.028873023
0.03098794 0.017330784 -0.013969204 0.07973729 0.06891782 0.038803183 0.043762907 -0.0021679197
-0.00048169002 0.004374386 -0.076545626 0.035866067 -0.01811419 -0.074658416 0.050585777 -0.0006649968
0.023431033 0.059881765 0.027095266 -0.16689874 0.023502875 -0.0071397647 -0.030742243 0.015344682
0.017342392 0.00061728404 0.04071877 0.029079963 0.021421518 0.03658076 -0.00039820006 -0.13116665
0.016842537 -0.016485946 -0.01230244 0.019822175 -0.029695334 0.020664845 0.032252274 -0.0035737595
-0.037613306 -0.0333848 0.0063988464 -0.03739399 0.029678788 0.01924955 0.0025650493 0.0076995473
-0.14070468 -0.0018025481 -0.036270395 0.052326586 -0.012516689 0.085444264 0.026581906 0.11350392
-0.22275916 -0.01441582 -0.044318203 -0.022972122 -0.0010103781 0.055508703 0.0007031763 -0.06270858
0.024757473 0.020858165 0.03544143 0.13843942 -0.0053575383 0.014664275 0.105134554 -0.0036073774
-0.0010858349 -0.0525096 -0.10909123 -0.02053288 -0.0049431687 0.0023152358 0.027758883 0.033223517
0.01434485 0.0026903911 0.014962342 -0.039136823 -0.0058999406 -0.017377704 -0.03988984 -0.003677156
0.01861592 -0.022053156 0.0064840945 0.049605176 0.046277996 -0.01638793 0.0035432267 0.11597303
0.051726256 0.023263289 -0.0024515246 0.09999228 -0.06934433 0.025547164 0.080513336 0.0018887845
-0.0029819622 0.03586741 0.051000603 -0.018031782 -0.016811643 -0.003399126 0.024473531 -0.02598619
0.0713217 -0.003877497 -0.020254008 -0.025665289 -0.06583388 -0.016710706 0.006118248 0.033752184
-0.0070993034 0.0009396769 0.10141643 -0.030543866 -0.016552437 -0.0009530775 0.0301104 -0.026046708
0.0747334 0.00096735096 0.000946491 -0.0048514768 -0.046427324 -0.009975746 -0.020970015 0.09495586
0.033108417 0.052690838 0.032049756 0.042763416 -0.008902277 -0.014348083 0.032460213 -0.04441533
0.037028853 0.049375463 -0.024451643 0.060813513 -0.2839521 0.06028965 0.04701631 0.025756113
0.034057558 0.028904686 0.033374593 0.005572906 -0.0022164728 0.011682022 0.042831782 -0.009379291
0.07164686 -0.016700452 0.039516244 0.010062961 0.04620932 0.028193913 -0.2469386 -0.12195732
0.028447142 -0.006630391 -0.17835844 0.06251256 0.04793916 0.049217246 0.059887037 0.050064437
00000000: a023 ef3c b840 b63b e13d cc3d 5592 1d3d
00000010: 288f 563c 25fd 9e3d 17c5 d6bc bcfd a83c
00000020: c6bf cf3c 45e5 28bc 8a63 fc3c a3e2 153e
00000030: 10e9 e93c ce62 db3c 4975 9b3d cbcc 02bc
00000040: d346 8bbd 841e 5dbd ad0a 423d c917 423c
00000050: 3b90 493d 8e27 9e3c 4a64 6f3c ba31 f9bb
00000060: b114 063d 410d c1bb 83a0 8fbc 10e2 323d
00000070: 46ab 283d 39b9 79bd 3c84 a5bd e606 3b3d
00000080: d0c4 a53c c485 29be 8a70 dc3c 2ba6 1d3b
00000090: f618 03bc fb76 893d 926e 4d3d 61e6 7c3d
000000a0: 3148 9d3c 629a 963c a437 be3c c017 30bc
000000b0: 67ce 97bb 4ff4 af3d ee54 4dbe 54c9 213d
000000c0: 5b68 f53a 84a6 bd3d 769c 263d 3d75 2bbd
000000d0: d729 123c 716f b73c 6bac 413d 383c 633c
000000e0: 10a2 9abb 86ff 53bd bce8 2f3d d4e4 6e3d
000000f0: 6ab2 a4bc 71d5 8fbe fad0 1d3d 927c 343c
00000100: 00aa 3bbc de2b 18bd 93ab b63b fae5 d1bd
00000110: ec11 cd3c 7fe2 fcbd 5352 6c3b 3cc6 6abc
00000120: 6fa6 a5bc 39b6 773d fde8 0e3d 7564 6d3c
00000130: 3481 903d 20a9 b9bc 7cbd 20bd 1e87 ec3c
00000140: 6cda fd3c 4af9 8d3c 17df 64bc 4e4d a33d
00000150: c924 8d3d 16f0 1e3d bc40 333d a813 0ebb
00000160: 578b fcb9 0257 8f3b f4c3 9cbd 4ce8 123d
00000170: 3664 94bc 83e6 98bd 0833 4f3d 2e53 2eba
00000180: 70f2 bf3c 9546 753d e4f6 dd3c 81e7 2abe
00000190: 1a89 c03c b0f4 e9bb 28d7 fbbc 4368 7b3c
000001a0: a211 8e3c 3bd1 213a bac8 263d 1a39 ee3c
000001b0: 2e7c af3c b5d5 153d 82c5 d0b9 8d50 06be
000001c0: 5cf9 893c 890d 87bc 2c90 49bc 1d62 a23c
000001d0: a143 f3bc 5249 a93c f61a 043d bc35 6abb
000001e0: 6910 1abd 80be 08bd 6aad d13b 712a 19bd
000001f0: ee20 f33c 3bb1 9d3c 631a 283b 7c4c fc3b
00000200: e314 10be 7a43 ecba 4490 14bd 6754 563d
00000210: cc12 4dbc 67fd ae3d 4cc2 d93c be74 e83d
00000220: fa1a 64be 5530 6cbc 0187 35bd 0830 bcbc
00000230: aa6e 84ba 185d 633d 5d55 383a 5b6d 80bd
00000240: 2fd0 ca3c bede aa3c 082b 113d 10c3 0d3e
00000250: 4a8e afbb 6d42 703c c950 d73d c069 6cbb
00000260: 9352 8eba 4e14 57bd 396b dfbd 9234 a8bc
00000270: 4efa a1bb 36bb 173b 9966 e33c 6215 083d
00000280: a906 6b3c 4651 303b 9c24 753c ef4d 20bd
00000290: 4a54 c1bb b05b 8ebc 8763 23bd 71fc 70bb
000002a0: 6a80 983c d2a8 b4bc 8778 d43b cc2e 4b3d
000002b0: ff8d 3d3d fb3f 86bc 7b35 683b 4583 ed3d
000002c0: e9de 533d a792 be3c c2a9 20bb c1c8 cc3d
000002d0: 6604 8ebd 4948 d13c 2de4 a43d 1791 f73a
000002e0: 066d 43bb b5e9 123d 02e6 503d 63b7 93bc
000002f0: 92b8 89bc dfc3 5ebb b77c c83c fee0 d4bc
00000300: 1d11 923d 9b1d 7ebb bceb a5bc 0340 d2bc
00000310: ead3 86bd e4e4 88bc 967b c83b bb3f 0a3d
00000320: 46a1 e8bb a654 763a 6bb3 cf3d 2137 fabc
00000330: fa98 87bc f3d7 79ba 16aa f63c e85f d5bc
00000340: d30d 993d d395 7d3a f01d 783a 23f9 9ebb
00000350: 942a 3ebd 5071 23bc 4fc9 abbc 3878 c23d
00000360: b19c 073d 59d2 573d 9b46 033d b128 2f3d
00000370: dbda 11bc 3914 6bbc 00f5 043d d9ec 35bd
00000380: 91ab 173d ed3d 4a3d d04e c8bc 9717 793d
00000390: 2b62 91be 48f2 763d 2d94 403d 7cfe d23c
000003a0: f07f 0b3d 85c9 ec3c ccb3 083d ed9c b63b
000003b0: 3e42 11bb f465 3f3c 6170 2f3d 99ab 19bc
000003c0: 97bb 923d 63cf 88bc c9db 213d 1edf 243c
000003d0: fc45 3d3d ecf6 e63c 79dd 7cbe c2c4 f9bd
000003e0: fb09 e93c c043 d9bb 98a3 36be 9606 803d
000003f0: da5b 443d 0698 493d 1c4c 753d 5e10 4d3d

bn1.running_mean f4 [512]
1.0596385 0.45607257 6e-45 0.18331642 0.42564622 0.07585836 1.0743924 0.65618265
0.20563585 1.0591329 0.05034906 0.19067572 1.551083 0.26797217 0.042555455 0.42297786
0.31094798 1.1545777 0.8020091 1.3065909 0.33970627 0.072034284 0.5464638 0.03460899
0.5690824 0.8228221 0.89488083 0.2772737 1.4586821 0.14200205 2.1760564 6e-45
0.2515785 2.1444607 0.7984682 0.52066845 0.5323081 1.6357232 0.051534716 0.07945298
0.24182132 0.82969517 0.38173154 2.1290712 1.2281735 0.64632773 1.0544986 1.1898692
0.6697574 0.22445911 1.0057021 0.86214507 1.8109826e-09 1.3863014 1.2664249 1.1560977
0.3829739 2.8928742 1.0210485 1.3598238 0.27893773 3.3129008 0.19405562 0.07013506
2.2206092 1.0594804 1.4960008 1.0860198 0.43716252 2.4665196 0.093526125 0.050861675
0.35360682 0.23933077 1.7942116 0.030845098 0.51939684 6e-45 0.25042576 1.1734474
1.4926322 1.5699533 0.33253115 0.25711003 1.3357991 1.0915622 0.031917863 0.8904296
0.09257663 1.8125877 2.5198846 1.0596982 0.43280104 0.38807762 0.96175194 0.6878287
0.9338835 0.1274116 6e-45 0.97226727 0.3661826 1.5398934 0.011262798 0.797872
1.7425293 0.31468692 1.8856447 0.22202654 0.4063621 0.78055453 0.15990855 3.017213
0.13739324 0.670523 1.8023022 0.5775136 0.89462256 0.006904654 0.42700335 1.4089413
0.21227866 1.2969241 1.5195916 6e-45 0.16708294 0.6069168 0.35411802 1.3221425
3.7354279 1.4939662 0.4574761 1.4206648 0.43742734 0.6259945 0.7315675 0.07892205
3.7463677 0.7773372 0.15129635 0.13785645 0.12390956 0.121064596 0.1973584 1.9970183
0.4789904 0.53852636 0.5866741 1.6685696 0.58635515 0.5247908 0.07061121 0.117666304
0.07927344 0.2553301 2.9907842 2.262426 0.4035452 0.2799035 0.25309938 0.337921
0.15694024 0.16482723 2.2097168 2.6517737 1.4933635 0.5086218 1.2463546 6e-45
0.7785497 0.6613392 0.07378984 0.23938966 0.43987674 1.417271 1.4849563 0.83868665
0.4459813 0.95287263 0.41810173 0.31181967 4.0527552e-23 1.2458557 3.434439e-15 0.06303056
0.27521878 0.09467336 0.2692371 1.3247278 1.6130338 0.7234103 0.7627601 1.2217836
0.26409036 0.008675366 1.4171139 1.6096133 2.7668436 0.029860001 0.37580395 0.5768733
0.17634177 0.10668631 0.024329733 0.95764136 0.31520528 0.62811863 6e-45 1.9570445
0.067262195 0.09248584 0.12357051 0.51814294 1.7069417 0.07954669 0.111263454 0.74507177
0.03416391 0.14319953 0.45145446 0.061428726 0.61358756 0.37421554 0.5289391 1.5618708
0.9406991 0.25159645 0.45911822 1.32451 3.5770574 0.28659132 0.30227712 0.26814854
1.4532244 0.079680815 0.43002325 0.9493495 0.45880413 0.16058894 1.5210931 0.90072423
0.27226418 2.7653947 1.62997 0.36136758 0.19713064 0.71215236 2.3450963 0.69296354
0.12294948 0.6386639 2.0807886 0.06423936 0.23842089 0.1125054 1.3410125 1.9196216
00000000: 3ca2 873f 5882 e93e 0400 0000 4db7 3b3e
00000010: 4dee d93e a15b 9b3d b185 893f 96fb 273f
00000020: 3492 523e ab91 873f d13a 4e3d 7f40 433e
00000030: e389 c63f a633 893e a14e 2e3d 8e90 d83e
00000040: 9334 9f3e 34c9 933f 7850 4d3f 5f3e a73f
00000050: fbed ad3e b686 933d 0de5 0b3f 28c2 0d3d
00000060: 62af 113f 78a4 523f e916 653f d2f6 8d3e
00000070: 18b6 ba3f fc68 113e 8244 0b40 0400 0000
00000080: e6ce 803e d83e 0940 6968 4c3f 874a 053f
00000090: 5845 083f 615f d13f 1116 533d 3eb8 a23d
000000a0: 02a0 773e e766 543f 5172 c33e b442 0840
000000b0: ca34 9d3f bc75 253f cff9 863f a24d 983f
000000c0: 3975 2b3f 9cd8 653e d9ba 803f 8ab5 5c3f
000000d0: 49e6 f830 5372 b13f 361a a23f 02fb 933f
000000e0: 2815 c43e da24 3940 b8b1 823f b50e ae3f
000000f0: edd0 8e3e 9106 5440 84b6 463e f8a2 8f3d
00000100: 761e 0e40 0e9d 873f f47c bf3f b202 8b3f
00000110: c4d3 df3e 75db 1d40 a08a bf3d 5554 503d
00000120: f40b b53e 2013 753e baa8 e53f dcae fc3c
00000130: 31f7 043f 0400 0000 ce37 803e 8633 963f
00000140: 920e bf3f 3bf4 c83f 8641 aa3e eda3 833e
00000150: 77fb aa3f 4fb8 8b3f 4ebc 023d 32f3 633f
00000160: d198 bd3d e002 e83f ca45 2140 31a4 873f
00000170: 1998 dd3e 1cb2 c63e 6035 763f 8b15 303f
00000180: fd12 6f3f 3078 023e 0400 0000 82e6 783f
00000190: 497c bb3e 3a1b c53f 9987 383c 5741 4c3f
000001a0: 330b df3f a51e a13e ce5c f13f ed5a 633e
000001b0: b10e d03e 6cd2 473f 11bf 233e 051a 4140
000001c0: d0b0 0c3e 65a7 2b3f d7b1 e63f eed7 133f
000001d0: fc05 653f 7040 e23b 2fa0 da3e 3058 b43f
000001e0: 945f 593e 9c01 a63f fa81 c23f 0400 0000
000001f0: ca17 2b3e e65e 1b3f f54e b53e f73b a93f
00000200: 4011 6f40 493a bf3f 4f3a ea3e 58d8 b53f
00000210: 7af6 df3e 2d41 203f 0248 3b3f e2a1 a13d
00000220: 7dc4 6f40 92ff 463f 6eed 1a3e 3e2a 0d3e
00000230: 4cc4 fd3d b7f0 f73d 5218 4a3e 4c9e ff3f
00000240: 3b3e f53e dddc 093f 4630 163f b093 d53f
00000250: 5f1b 163f b158 063f 9c9c 903d 08fb f03d
00000260: 1d5a a23d a0ba 823e 0269 3f40 96cb 1040
00000270: 7a9d ce3e 834f 8f3e 3e96 813e fb03 ad3e
00000280: f1b4 203e 78c8 283e 006c 0d40 a9b6 2940
00000290: 8926 bf3f 0a35 023f 8c88 9f3f 0400 0000
000002a0: 084f 473f 874d 293f 211f 973d 9022 753e
000002b0: 8637 e13e 2369 b53f 0c13 be3f 2bb4 563f
000002c0: a957 e43e 76ef 733f 6e11 d63e d4a6 9f3e
000002d0: aefa 431a 3378 9f3f 387a 7727 2b16 813d
000002e0: 7ae9 8c3e 1be4 c13d 72d9 893e ae90 a93f
000002f0: e477 ce3f 6b31 393f 3f44 433f 6863 9c3f
00000300: da36 873e 1f23 0e3c fd63 b53f cf07 ce3f
00000310: f713 3140 f69c f43c 6069 c03e f8ad 133f
00000320: f092 343e 5a7e da3d 264f c73c fc27 753f
00000330: 9662 a13e 62cc 203f 0400 0000 6f80 fa3f
00000340: c3c0 893d 3769 bd3d 8912 fd3d 04a5 043f
00000350: 117d da3f 60e9 a23d 18de e33d 06bd 3e3f
00000360: 75ef 0b3d e6a2 123e 0a25 e73e b09c 7b3d
00000370: 1314 1d3f 2e99 bf3e 8e68 073f 62eb c73f
00000380: a8d1 703f 40d1 803e 8b11 eb3e 8b89 a93f
00000390: 82ee 6440 19bc 923e 11c4 9a3e c44a 893e
000003a0: 4203 ba3f b22f a33d 022c dc3e 9208 733f
000003b0: 60e8 ea3e 6d71 243e 2eb3 c23f dd95 663f
000003c0: 3666 8b3e 3afc 3040 dba2 d03f 2c05 b93e
000003d0: 9ddc 493e 9e4f 363f 0f16 1640 0f66 313f
000003e0: f0cc fb3d 7a7f 233f a42b 0540 ed8f 833d
000003f0: 9b24 743e 3b69 e63d 4ca6 ab3f 29b6 f53f
