3 - Collab -MADDPG/trained_agents/maddpg_tennis_checkpoint_actor_target_1.pth (torch_old, 588220 bytes, 10 tensors)

fc1.weight f4 [512, 24]
000000 46 70 0a 3d 24 d8 ac 3c a3 b9 40 bc ce 5a 8e bb
       0.03379848 0.021099158 -0.011763009 -0.004344321
000010 3a 81 5a 3d 31 1e 55 3e 25 50 f8 39 3c 4a 97 3d
       0.053345896 0.20812298 0.00047361958 0.07387206
000020 4a bc d6 3d 69 d5 fc b8 b1 64 42 3c e9 ce 0f 3c
       0.10485132 -0.00012056047 0.011864827 0.008777359
000030 b0 33 b0 bc fd 6a 0f 3e bc 48 4b bc 0a 9a f4 3c
       -0.021509022 0.14005657 -0.012407478 0.029858608
000040 1f 89 b5 3d 75 45 fc 3b bd 7a 98 3c 02 c9 54 3d
       0.088640444 0.0076987096 0.018613214 0.05194951
000050 c3 e5 c8 bd a0 18 0e 3d 58 fd 18 bc 22 75 03 3c
       -0.098094486 0.034691453 -0.009337746 0.008023532
000060 f3 05 83 3d 73 0f 89 ba 15 85 18 bd 9e 08 c5 3b
       0.06397619 -0.0010456875 -0.037236292 0.00601299
000070 b7 b3 96 3d 42 06 15 3d 53 20 64 bd 56 7b a1 bc
       0.07358497 0.03638292 -0.05569489 -0.019712131
000080 b1 25 79 3d 01 ab 1f 3d 05 63 2e bd 05 73 9a 3d
       0.06082696 0.03898144 -0.0425749 0.075414695
000090 2f 2d 75 3d e2 50 fa bc 6a 50 78 bd b3 87 38 3d
       0.059857544 -0.030556146 -0.060623564 0.045051288
0000a0 8b f0 0f 3d 8a be 98 3c 9f ff a6 3c ff c4 f1 3b
       0.03514151 0.018645544 0.020385562 0.00737822
0000b0 46 24 83 3d 18 58 53 3d 17 0f 33 bd e2 8c 44 bc
       0.06403403 0.051597685 -0.043715563 -0.01199648
0000c0 7c 9f 9f 3d 9e d1 d0 bd 07 af 03 3d 08 2f 5e 3d
       0.07794091 -0.10196231 0.03214934 0.05424407
0000d0 dd e8 97 bc b5 09 12 bd 43 87 0f 3d 31 2b 83 3d
       -0.018543655 -0.03565379 0.035041105 0.064047225
0000e0 ce f8 73 3d 8e da 6e bd 73 b0 53 bc 4e 4f 15 3d
       0.05956345 -0.0583139 -0.012920487 0.036452584
0000f0 a6 a3 1e 3d 17 ee 08 bd dc a6 19 3b b5 a8 b1 3c
       0.038730286 -0.033430185 0.0023445403 0.021686891
000100 44 54 af 3d 24 5c a4 3c 0d b4 94 bd 19 4b 2e 3d
       0.08560994 0.020063467 -0.072609045 0.042552087
000110 47 db be 3c 7a ff 12 be 6d 7a 18 bd cd b6 b7 3d
       0.023297919 -0.14355269 -0.03722613 0.08970413
000120 8d eb a2 bb 18 5d d9 bd ec e2 0c 3d 31 69 a0 bc
       -0.0049719275 -0.10613459 0.034396097 -0.01958141
000130 c7 01 fd 3c 94 8c 8b bd 53 74 cd bc 71 7a 56 bd
       0.030884637 -0.068139225 -0.025079882 -0.052362863
000140 db f7 35 bc 4d 66 96 bd ec d2 c0 ba b7 38 33 3c
       -0.011106457 -0.07343731 -0.0014711297 0.010938815
000150 84 1f cc 3d 2d b7 3a 3e fa 4d 13 bc 77 3a b0 bc
       0.09966949 0.18233939 -0.008990759 -0.021512253
000160 5f ca 67 bc 7b b4 9e bd 13 c3 f4 bc c4 84 ea 3c
       -0.01414737 -0.07749268 -0.029878175 0.02862776
000170 ac d3 3d 3d 19 f9 a7 3e e2 fa e6 3c 0b 4c 88 3d
       0.046344444 0.32807234 0.028195802 0.06655129
000180 19 12 d3 bc 31 cd 86 bc cc 07 d9 3b e4 57 66 bd
       -0.025765466 -0.016455265 0.006623244 -0.056236163
000190 a3 33 d4 3d c8 e8 c3 3d ce df 0c bd 90 96 85 3c
       0.103614114 0.09565884 -0.034393124 0.016307145
0001a0 2e fa a8 bd c0 d7 49 bb 27 56 6b bc f6 d8 e7 3c
       -0.08250843 -0.0030798763 -0.014363802 0.028301697
0001b0 ea 72 8e 3d 8a 8a 1a 3e bb 4f 1b 3c a9 01 3b bd
       0.06955512 0.15091911 0.009479458 -0.04565588
0001c0 83 43 62 bd c3 9a a0 bc 39 b4 12 3c 80 fc 02 3d
       -0.055240165 -0.019605046 0.008954101 0.031979084
0001d0 b2 df d9 3d 61 b7 4f 3e a8 43 77 bc 74 57 21 3c
       0.106383696 0.20284797 -0.015091814 0.009847511
0001e0 c2 4d d3 bb 92 62 ac 3d 78 77 d2 bd 64 10 d2 3c
       -0.0064484784 0.08417238 -0.10276693 0.025642581
0001f0 53 56 84 3b 1a 4e 06 3d 69 fc ae bc f9 85 42 3d
       0.004038611 0.032789327 -0.021360593 0.047491048
000200 53 7f 73 3d 27 59 58 3d d5 ba 3c 3d 19 1c 1f 3a
       0.059447598 0.052819397 0.046076614 0.00060695555
000210 fa e8 64 3c 08 00 b0 3d 70 e3 5b 3b e2 e4 ae b9
       0.013971562 0.08593756 0.0033552311 -0.00033358397
000220 da 78 d9 3d 98 2e c8 3d e1 15 cb bc 0c ee 80 bd
       0.10618754 0.09774512 -0.024790706 -0.06295404
000230 a3 05 68 3d 50 de d4 3d a2 35 94 bb 50 99 8a bd
       0.056646 0.10393965 -0.004522995 -0.06767523
000240 c8 11 98 3d 2e 05 b4 bd 81 2e d4 bc f1 ed c5 3d
       0.074252665 -0.087900504 -0.025901081 0.09664524
000250 01 79 74 bd 3a f6 8b 3d 40 cf 83 3c 15 23 a1 3d
       -0.05968571 0.06834073 0.016090035 0.078680195
000260 2b 34 a6 3d ae 61 70 bc 0d 94 3a bd 04 0a 8e 3d
       0.08115419 -0.014671726 -0.04555135 0.06935504
000270 6e 4e 85 3d fc 85 d8 3c 7f 16 9c 3c bf 78 8b 3d
       0.065091 0.026431076 0.019053696 0.0681014
000280 5e 04 b6 3d 11 22 0f ba b3 b3 e3 3b 65 88 4c 3d
       0.08887552 -0.00054600934 0.006948912 0.049934763
000290 6d e1 26 3e 50 ab 34 3d 06 e1 8e bc 9c 0a 29 3d
       0.1629693 0.04410869 -0.017441284 0.041269884
0002a0 40 e1 d2 3b f9 16 c3 3d ed 49 b1 bc da b3 28 be
       0.0064355433 0.09525866 -0.021641696 -0.16474858
0002b0 99 eb 06 3d 15 b6 87 3c be 6a 70 bd 8e a6 c5 bd
       0.032939527 0.016566316 -0.058695547 -0.096509084
0002c0 37 53 a5 3d 61 2f 1a 3d 31 b3 d4 bc 1a ee c8 bd
       0.080725126 0.03764284 -0.025964351 -0.09811039
0002d0 60 7e 8d 3d 6b 0c 88 3d e6 5a dc 3c 0d 72 b4 bd
       0.0690887 0.066429935 0.026898813 -0.08810816
0002e0 7f b0 8b 3d 24 31 a0 3d 6e c4 45 bc da 16 ac bd
       0.06820773 0.07821873 -0.012070758 -0.08402796
0002f0 53 76 6f 3d 77 6c 2e bd 12 03 8a bd ed 6f da bd
       0.058462452 -0.04258391 -0.06738867 -0.106658794
000300 cf 92 d3 3d 25 cb c7 3b d0 da 1c bb 6c 5e b4 3c
       0.10330736 0.0060972148 -0.0023934133 0.02201768
000310 7a 52 8b bd b6 da 2b bd d3 ef 03 bc a4 b9 aa 3c
       -0.068028405 -0.041956626 -0.008052784 0.020840473
000320 9a b1 01 3e 7b 51 04 3d 0a 0e a8 bc c1 af 72 bb
       0.12665406 0.03230427 -0.020514507 -0.0037031027
000330 47 23 b8 3c 38 bc 09 bd 77 44 71 3c 70 ea 9c 3b
       0.022477759 -0.033626765 0.014725796 0.0047886893
000340 f4 c0 03 3e 7e 3b 5d 3d dd 91 21 bc 1c c2 17 3c
       0.12866575 0.054011814 -0.009861437 0.009262588
000350 c3 1e 20 3d 3d 4f 3f bd ad 12 f8 3a c1 5f 55 bc
       0.039091837 -0.046706427 0.0018926464 -0.013023318
000360 76 7d 1e bd 62 6a 68 bd 67 1c ca bb 06 fc 20 3d
       -0.038693868 -0.05674208 -0.0061679366 0.03930285
000370 4c 3b 10 3d 0a 74 4d be e4 6d 02 3c df ca e5 bc
       0.0352128 -0.20063797 0.00796077 -0.028050838
000380 37 68 1f bc 32 cf 0c 3d 04 db 01 bd db 32 c3 bc
       -0.009729437 0.034377284 -0.03170301 -0.02382796
000390 5f 2c 5a 3c af d8 a4 bd 1d 05 d8 3c 33 d9 d7 3c
       0.013316243 -0.080491416 0.026369626 0.026348686
0003a0 b0 d5 7e 3c 2e 9c 00 3b d0 d1 9b 39 39 c9 cb 3c
       0.015553877 0.001962434 0.00029720226 0.024876224
0003b0 ec 73 3d bd 7b 82 c8 3e 7f b9 9e ba 04 7f f7 bc
       -0.04625313 0.3916205 -0.0012109726 -0.030211933
0003c0 6a 29 36 bc 6f 1b e5 3d e6 33 db bd 9b 81 84 3c
       -0.011118272 0.11186873 -0.10703258 0.016175082
0003d0 4b 96 9f 3d 9d 54 2f 3c ce 96 90 bd 08 02 e0 3c
       0.07792338 0.010701326 -0.07060014 0.027344719
0003e0 d4 28 03 3d 7c 2c c0 3d 9b 65 28 bb 11 d9 64 3d
       0.03202136 0.09383485 -0.0025695327 0.055871073
0003f0 a8 08 8b 3d 94 24 1a bd 77 c0 60 3d 8d ed 73 3d
       0.067887604 -0.03763254 0.05487105 0.059552718

fc1.bias f4 [512]
000000 82 01 7a be 1d d1 04 be c1 05 74 be 1f d4 ad 3d
       -0.24414638 -0.12970395 -0.2383032 0.084877245
000010 c3 a7 03 bd eb e8 0b be 68 be 76 be 24 e8 aa 3d
       -0.032142412 -0.1366307 -0.24096072 0.083450586
000020 5d 20 3f 3d 8c 20 18 bc 09 80 ee 3b e7 ed 6d be
       0.046661723 -0.0092851035 0.0072784466 -0.23235284
000030 01 82 60 3d b5 68 c2 bd 9a 2a 89 3c e2 20 11 bd
       0.05481148 -0.094926275 0.016743947 -0.03543175
000040 05 05 b3 bd 41 f3 2b bb 56 f1 56 be 09 91 83 bc
       -0.08741192 -0.002623752 -0.209905 -0.01606037
000050 91 9c e5 bd 22 bd 85 3c 04 25 d3 3d cb 37 45 bd
       -0.11211503 0.016325537 0.103097945 -0.04814891
000060 21 79 89 bc 21 3b 87 be 43 97 ac be 83 e5 0a be
       -0.016781392 -0.264123 -0.33709154 -0.13564114
000070 d4 ba fd bd a2 7d ba bc 77 fa fa bd 41 8e 82 be
       -0.1238915 -0.022764985 -0.12254804 -0.25499156
000080 36 f4 62 bd ba 5f a5 bc 25 72 56 bc cb 1e ab 3c
       -0.05540868 -0.020187248 -0.013088738 0.020888707
000090 60 71 c3 bd 55 32 6e be ff b2 99 be eb e4 48 3d
       -0.09543109 -0.23261388 -0.30019376 0.04904644
0000a0 90 58 f9 3d 2b 72 31 3d 16 26 49 3e 81 66 34 3e
       0.12175095 0.04332177 0.19643435 0.17617227
0000b0 e4 b8 3f be a6 8f 7e be a2 d5 d0 bc cf 8e 5f bc
       -0.18722874 -0.24859485 -0.025492493 -0.013644888
0000c0 c2 d3 0d be f9 c8 4c 3c f4 a2 16 3e fe db 07 be
       -0.1385031 0.0124990875 0.14710599 -0.13267514
0000d0 7f 86 91 be 37 02 97 3d 7e 70 88 bd 31 21 8a be
       -0.28422925 0.07373469 -0.06662081 -0.26978448
0000e0 2b b9 70 3d c1 d5 b1 3c 93 41 27 be 8e 1e 2a 3a
       0.05877034 0.021708371 -0.16333608 0.00064895384
0000f0 a2 5d 93 bc eb 0d ba bd 7a 32 8f be 39 45 b3 3d
       -0.017988984 -0.09084686 -0.27968198 0.087534375
000100 3c e0 d8 bd 97 1b e2 3c 59 98 7c be a9 86 9b bd
       -0.10589644 0.027601046 -0.24667491 -0.07594044
000110 c3 9f 91 be 20 9d 5b be 89 ed 9c bb 71 36 96 bd
       -0.284422 -0.21446657 -0.0047890586 -0.073346026
000120 9c 1a 3c be b8 02 e4 3d e4 3b 38 bd 4d b2 1b bd
       -0.18369526 0.11133331 -0.04497899 -0.038011838
000130 37 7d 9d 3d 02 72 14 3d b0 96 f8 bd 0a 9d 4a be
       0.076898985 0.03624154 -0.12138116 -0.19786468
000140 4d 01 d9 bd fd 8b 9c be da 42 8b be b4 e9 7f be
       -0.10595951 -0.30575553 -0.2719944 -0.24991494
000150 29 8e 1d 3c 3c 62 15 be 3c 2f 20 be d8 c7 9f 3d
       0.009616413 -0.14588255 -0.15643018 0.07801789
000160 51 bd 86 be 10 c2 4b be 71 78 0f be ba c3 af be
       -0.26316312 -0.19898248 -0.14010789 -0.34329015
000170 82 9e de bb ee a2 9b 3d 25 a8 b2 3d e2 0f a4 3d
       -0.006793798 0.07599436 0.08723477 0.08010842
000180 35 fd 50 be ab cb f6 bd e5 82 ae be c6 c5 e8 bc
       -0.20409091 -0.12050565 -0.3408424 -0.028414618
000190 80 ed e1 3c 37 e2 66 be 12 d5 14 be bf 5b 08 be
       0.02757907 -0.22547232 -0.14534405 -0.13316248
0001a0 c6 e4 f0 3c 78 47 65 be f1 c3 b1 be 35 c7 21 3d
       0.029405963 -0.22390544 -0.34719804 0.03949662
0001b0 40 9b 9d 3c 5c e9 7b bd ac 1c 08 bd b2 6f 4f 3c
       0.019239068 -0.061501846 -0.03323047 0.012660908
0001c0 52 44 4c be 06 12 cd bc fe 9f 17 3d c6 89 a3 be
       -0.19947937 -0.025033008 0.037017815 -0.3194105
0001d0 ec 37 3f be 8e b2 ca bb dd 48 81 be 18 76 81 bd
       -0.18673676 -0.006185836 -0.25250903 -0.06321353
0001e0 d2 9c 90 bd 8f dc 61 be e0 40 57 bd bc fe 68 3d
       -0.07061161 -0.22056793 -0.052552104 0.05688356
0001f0 64 ef 83 bd cc 99 29 3e e9 94 9b be 8b 47 e3 bd
       -0.064421445 0.16562575 -0.30387047 -0.1109763
000200 6b 43 3a 3d 67 e9 40 be c2 05 ae be 4b 4b dc bc
       0.04547445 -0.18839036 -0.33988768 -0.026891371
000210 b7 0e 95 be 60 34 69 bd 4d bc b2 be 73 fd a2 3b
       -0.2911279 -0.056934714 -0.34909287 0.004974061
000220 59 27 c4 bd ca d5 93 bd 5c 68 10 bd 1c e6 42 be
       -0.095778175 -0.072185114 -0.035255775 -0.19033092
000230 a9 19 ed 3d c9 77 a7 bb 84 78 8d 3c e6 d1 be bc
       0.1157716 -0.005110715 0.01726938 -0.023293447
000240 0a 8c 7b bd ee 99 a7 3d ef cf 89 bc 7e 3d 8e be
       -0.06141285 0.08183657 -0.016822783 -0.2778129
000250 4d c0 0e 3c f1 a3 83 3d 8e 27 27 3e af 8b c3 bd
       0.00871284 0.06427754 0.16323683 -0.09548127
000260 8d 71 d9 bd 2e d0 51 be 12 b1 d8 3d 61 8d f2 3d
       -0.10617361 -0.2048957 0.105806485 0.11843372
000270 f1 0c cc 3d 6c 2e 07 be 6e 65 20 be bb 07 b7 be
       0.09963406 -0.13201302 -0.15663692 -0.35748085
000280 46 ad cb 3d ee 2f 23 be fe e6 ad bb f8 83 eb bc
       0.09945159 -0.15936252 -0.0053070774 -0.028749451
000290 6e 1b 80 3d a4 64 8c bd bf 9e d9 3d f8 74 42 3e
       0.06255232 -0.06855133 0.106259815 0.18989933
0002a0 47 f0 ca 3d 52 55 7d be 89 d6 19 be 51 9c 75 be
       0.099091105 -0.24739578 -0.15023245 -0.23985411
0002b0 fb 88 52 be 60 4b 3b be 76 39 88 be 87 48 aa bd
       -0.20560066 -0.18290472 -0.2660634 -0.08314615
0002c0 3b da a8 3d 82 d2 44 be 0c fa 23 be 99 3d 76 3d
       0.08244749 -0.19220927 -0.16013354 0.060117338
0002d0 a9 ae 94 be ee 61 7c be 08 df b0 3d 5c 5c 4b bd
       -0.29039505 -0.24646732 0.0863629 -0.049648628
0002e0 50 23 05 3e d4 e0 9e be b3 fa 00 3e 4c a6 b3 bd
       0.13001752 -0.31030905 0.12595634 -0.08771953
0002f0 3a 50 a5 3d 0b 24 01 be 58 b1 43 be 43 cb 3c 3d
       0.080719426 -0.12611406 -0.1911062 0.046092283
000300 21 d5 1c bd 44 6b ba bb e0 13 95 be fe 15 37 be
       -0.038289193 -0.0056890566 -0.29116726 -0.17879483
000310 a7 da bf 3d ea 5c c4 bd 3b 74 a7 3d fa a3 b2 be
       0.093678765 -0.095880345 0.08176466 -0.3489073
000320 3d e9 34 be ee a2 6b bd 99 28 c2 be 67 33 29 be
       -0.17667098 -0.05752843 -0.379216 -0.16523515
000330 68 07 8c be 28 b0 08 be 97 46 4a be 7b d7 02 be
       -0.273494 -0.13348448 -0.1975349 -0.12777512
000340 32 dd 51 bc c5 81 42 bd cf f4 88 3d 80 08 fb bd
       -0.012809085 -0.04748704 0.066873185 -0.122574806
000350 eb 1b 93 bd f1 e0 70 be a8 a4 90 be 1f d9 53 be
       -0.07183059 -0.23523308 -0.28250623 -0.20688294
000360 1d b1 21 3e 59 2d c4 3d 38 e3 a6 3d c7 bb 25 3e
       0.1579022 0.09578962 0.08148807 0.16184913
000370 80 75 73 bc 3e 50 27 bd ae 84 df 3c ac e3 a7 bd
       -0.014859557 -0.04084801 0.027284946 -0.08197722
000380 aa f9 6e be 21 64 51 be 2b cd 80 be 52 1f b0 bc
       -0.23337427 -0.20448352 -0.2515653 -0.02149931
000390 fe 85 25 3e c5 07 ab bd ec ac ad bd f6 7d eb bd
       0.16164395 -0.08351091 -0.08480248 -0.114986345
0003a0 34 08 d8 bd b8 b8 a7 bd bd cd 4e 3d d1 fa 2a be
       -0.105484396 -0.08189529 0.050489176 -0.16697241
0003b0 72 37 12 be 85 27 2c 3e 30 b4 b7 bd 6f bc 54 be
       -0.14278963 0.1681195 -0.08969915 -0.20775007
0003c0 d5 01 ae bd 88 61 47 be d7 5c 87 bc b9 9c fd 3d
       -0.08496443 -0.19470799 -0.016523762 0.12383408
0003d0 68 f0 fc 3d f6 a4 2e be 2c ea 5e 3d e0 74 83 be
       0.12350541 -0.17055115 0.054422542 -0.25675106
0003e0 c4 c8 03 be 4a b5 85 3d aa 73 b0 bb 67 72 d2 bd
       -0.12869555 0.06528719 -0.005384882 -0.10275727
0003f0 a6 60 f3 bd 0d 1d cc bd 6c 59 74 bc 02 7d 17 bc
       -0.118836686 -0.099664785 -0.014913898 -0.009246113

fc2.weight f4 [256, 512]
000000 c6 c9 f0 3a c0 fe 46 3c ff f6 64 bc bb d8 00 3c
       0.001837068 0.012145698 -0.013974904 0.007864173
000010 30 85 f2 3c 31 17 64 bd 22 72 5c bd 41 49 df 3c
       0.029604524 -0.05568618 -0.053819783 0.02725661
000020 fb 19 dc 3c 5b 5c 53 3c ac 62 ca 3d 18 2e f3 bb
       0.026867857 0.012900437 0.098821014 -0.0074212663
000030 48 95 ac bc 7f d1 33 3d a3 80 12 3e 74 c2 81 3c
       -0.021067277 0.043900963 0.14306884 0.015839793
000040 0a 60 1a 3e 66 ca f0 bd cf d4 ee 3c 42 26 bb 3c
       0.15075698 -0.117573544 0.02915421 0.022845391
000050 e4 27 95 bd 91 74 2e 3c 2c 51 9b 3d 39 85 a7 bd
       -0.07282999 0.010647909 0.07583842 -0.08179707
000060 ba 0a 03 3c 26 4a 85 bc 75 a3 8b bd cb b8 ba 3d
       0.007998163 -0.016270708 -0.06818286 0.09117278
000070 c0 c5 c5 bd 51 f2 05 be d4 a6 35 3d 4c 80 74 3d
       -0.096568584 -0.13080718 0.044348553 0.059692666
000080 e6 cf a2 3c 13 6e 92 3c 27 e7 a4 3d ba ed 47 bd
       0.019874524 0.017874753 0.08051901 -0.048810698
000090 28 7a 07 be fa 9c 79 bc c4 05 92 bc 25 db d0 bb
       -0.13230193 -0.01523518 -0.017825015 -0.0063737803
0000a0 bc 6a ac bb 49 af 85 3d 3a b9 8c 3d b8 c4 eb bd
       -0.005261747 0.065275736 0.06871267 -0.115121305
0000b0 a8 2d 6e 3c 37 59 67 bb 65 fd a9 3d 14 07 34 bd
       0.0145372525 -0.003530098 0.08300284 -0.043952063
0000c0 3f 72 f6 3b 93 ef a5 3c 04 08 c9 bc 87 43 71 3c
       0.0075209434 0.02025584 -0.024539955 0.014725572
0000d0 aa 93 77 bd 11 86 ee 3c 24 98 f4 bd 15 7b 86 bd
       -0.060443558 0.029116662 -0.11943081 -0.06566445
0000e0 b4 30 00 be 2a fa ed 3c 54 a5 07 bd 4b a5 9f bd
       -0.12518579 0.029049952 -0.033116654 -0.07795199
0000f0 aa df 61 3d 6e 62 86 3c 7f aa 09 bd df 8b 09 be
       0.055144943 0.016404357 -0.033609863 -0.13432263
000100 2f fe 04 bd 5f 16 ce 3c 5d 5d ad 3c 29 b2 6c bd
       -0.03246897 0.025157152 0.021162683 -0.057787094
000110 e6 14 ce 3c c9 e2 cd bd 77 20 98 3d 23 55 2e bd
       0.02515645 -0.100530215 0.07428067 -0.04256166
000120 c7 17 18 3c 62 00 34 bd f8 3c 10 bd 8f 10 e5 3b
       0.009283013 -0.043945678 -0.035214394 0.0069904993
000130 c0 4e cb bd c4 eb c7 3c 4d f9 ad 3d e9 af db 3d
       -0.0992713 0.024404414 0.08494816 0.107269116
000140 cf e8 ed bd a4 20 ac bb 60 36 d3 3d 06 c7 91 bd
       -0.1161667 -0.0052529145 0.103131056 -0.07118039
000150 7b 83 01 be f5 7d f3 bd c0 0e a9 3c 26 7e 4f 3c
       -0.12647812 -0.11889259 0.020636916 0.0126643535
000160 79 fc 43 bd fa b3 fc bc b7 ae f6 3d 7b 52 82 bc
       -0.0478482 -0.030847538 0.12045043 -0.01590847
000170 cb f5 3e be 08 32 5c bd 10 3d 93 bd 67 4c b6 3c
       -0.1864845 -0.05375865 -0.07189381 0.022253228
000180 4b d8 33 3d b7 8b 5e bc 4a e1 6d bd d2 4d 15 bd
       0.043907445 -0.013583115 -0.05807618 -0.03645117
000190 1e 48 3d bd 00 07 eb 3c 55 93 71 bc 5f c6 19 bd
       -0.046211354 0.028689861 -0.014744599 -0.037542697
0001a0 c8 f2 79 bd b9 aa 30 bd ad 13 8b bd a2 3d 97 3c
       -0.06102255 -0.043131564 -0.06790862 0.018462006
0001b0 08 8a 0c be a2 e7 67 bd be bc 24 3e 3c 11 27 bd
       -0.1372453 -0.056617387 0.16087624 -0.04078792
0001c0 3e 9c 04 bd 2e b0 63 3d 49 ee 38 3d 05 a8 c3 bd
       -0.032375567 0.05558794 0.04514912 -0.095535316
0001d0 6a 7f 87 3a fc 0a 72 bd 53 01 87 bc 74 9a 89 3d
       0.0010337655 -0.059092507 -0.016480124 0.06718913
0001e0 89 fd 8e bc 1f 35 f3 bc 43 53 ac 3d 8e 78 fe bc
       -0.01745488 -0.029688416 0.084143184 -0.031063344
0001f0 73 18 5b bd 2e 93 3e 3c e9 87 04 3d 4d eb b6 bb
       -0.053490113 0.01163177 0.032356177 -0.0055822493
000200 e2 96 fd 3c 78 75 b8 bd 2b ca a3 3d 8c 43 96 bc
       0.030955736 -0.090067804 0.07997545 -0.018342756
000210 18 17 18 3e 42 09 b1 bd 99 9e e7 bc a9 4a 8a bd
       0.1485256 -0.08644344 -0.028273867 -0.067525215
000220 b9 cc 54 bd 56 89 05 3e 86 31 fe bc 7a ff 24 3e
       -0.05195305 0.13040671 -0.031029474 0.16113082
000230 11 df 83 bc 01 c8 d2 bd e9 19 aa bc 25 36 25 bd
       -0.016097577 -0.10292054 -0.020764308 -0.04033484
000240 8e 8d 21 bd 8f 81 71 3d 36 c6 2f be 73 0e bc bc
       -0.039441638 0.058961447 -0.17165455 -0.022956109
000250 db a7 94 bd 3c 31 08 3d 18 d0 f1 bd f0 01 a0 3c
       -0.072585784 0.03325008 -0.11807269 0.019532174
000260 ca d4 62 bd 64 b2 13 bd f5 5f 08 3d 3f f0 1d 3d
       -0.055378713 -0.0360588 0.033294637 0.038559195
000270 18 c8 9c bd b4 b9 5e bd c8 12 9c bd 8d 5b d5 bc
       -0.07655352 -0.05437632 -0.0762077 -0.026044631
000280 7c ea 99 3d c6 96 ac bd d7 9f 92 3d da 41 34 bc
       0.075154275 -0.08427195 0.07159393 -0.011002028
000290 c0 3e 85 3b b2 83 d1 3c 17 c1 f9 bd 5d f0 03 3d
       0.0040663183 0.025575493 -0.12195032 0.03221165
0002a0 68 7f 04 3d 4b 0d 92 3c ae 24 87 3d 2c f9 21 3d
       0.032348067 0.017828604 0.06598793 0.03954427
0002b0 82 a3 2e bd 1c 08 e9 bc 32 bd 06 be e0 28 1d 3d
       -0.042636402 -0.02844625 -0.1315811 0.03836906
0002c0 0b fa 19 bd 0d 5d d4 bd da 6b e5 3d 80 43 a2 3c
       -0.037591975 -0.103693105 0.11202212 0.019807577
0002d0 10 0a 58 3d 17 14 c1 bd 0d 8f 4f bd d6 82 33 bd
       0.05274397 -0.0942766 -0.050673533 -0.043825947
0002e0 22 0a 4d 3c 65 1c 1b 3d 2b 79 d1 bc 8a e7 48 3d
       0.012514623 0.037868876 -0.025570473 0.049048938
0002f0 d4 56 8c bb b5 4e ad 3d 8e 1e a3 3d 9b 00 0c be
       -0.0042828117 0.08462278 0.07964812 -0.13672106
000300 e1 f6 3c bd 6d 54 cc bd ec 1b 8b 3d db 5d 05 bd
       -0.04613388 -0.099770404 0.06792435 -0.03256021
000310 12 a1 7f bc 37 8b 94 bd 85 6c 8a bd 6f ed 1e 3d
       -0.015602367 -0.072531156 -0.0675898 0.038800653
000320 c2 66 7f 3c f2 d6 db 3d ce 25 04 bd 9f 8b ea bc
       0.015588464 0.10734357 -0.032262616 -0.02863103
000330 45 e9 f4 bd c1 0c 4b bc 70 45 74 3d b7 2a d7 3c
       -0.11958555 -0.0123931775 0.059636533 0.026265485
000340 40 43 86 bc fa bc 65 bd 33 6d 21 bd 50 c2 72 bc
       -0.01638949 -0.056088425 -0.03941078 -0.0148168355
000350 26 cc bc bd f2 30 58 3d 4f bc a8 3d ab 3a 58 bc
       -0.09218626 0.052781053 0.08239042 -0.013197581
000360 f8 e2 41 bd d3 e3 2f bd a4 11 10 bc 85 16 46 3c
       -0.047335595 -0.04294188 -0.008793268 0.01209033
000370 84 d3 17 bd ad c5 1b 3d 31 30 e6 3d dd 3c c5 3d
       -0.03706695 0.038030315 0.112396605 0.096307494
000380 ab ed c2 bd c7 5d 21 be 1c 79 73 3d e1 35 42 bd
       -0.09517988 -0.1575843 0.05944167 -0.047414664
000390 52 32 26 be 19 30 3e bd ca f3 7f bd 55 70 90 3d
       -0.16230133 -0.04643259 -0.062488355 0.07052676
0003a0 84 b6 12 3d 4e 9e dd bd bd 59 33 3d c4 4f 0b bc
       0.03581859 -0.1082121 0.043786753 -0.008502904
0003b0 80 a6 1f bc 5b 24 8d 3d 05 f0 65 bc ef 90 df bc
       -0.009744287 0.068917 -0.014034276 -0.02729079
0003c0 8e ef 36 be 35 fa ac 3c 90 c4 4e bd 48 00 6e bd
       -0.1786482 0.021115402 -0.050480425 -0.058105737
0003d0 2d 12 04 3d 5a 8d 6a bc 4a 64 71 3d db 20 c5 bd
       0.032243896 -0.014315927 0.058933534 -0.09625407
0003e0 38 b1 82 bd 85 68 98 3b 52 1a 0e bd 97 8b 8f 3c
       -0.06381458 0.0046511316 -0.03469307 0.017522616
0003f0 b8 73 98 bd 58 3c 7d bd b5 22 68 3d 5c 16 98 3c
       -0.074439466 -0.061825126 0.056673724 0.01856535

fc2.bias f4 [256]
000000 96 76 6d 3d 79 b6 72 bc 01 67 83 3d dc fc 73 3c
       0.05797442 -0.014814013 0.06416131 0.014891829
000010 40 e6 9b 3c 64 7f ad 3d e1 ff c2 3d 2b 2a 9c bd
       0.01903069 0.084715635 0.09521461 -0.076252304
000020 99 81 84 3c a0 c3 96 bd aa 63 36 3d fd 7b 4a 3d
       0.016175078 -0.07361531 0.04452864 0.04943465
000030 1e 96 a5 bc 54 03 ac 3c 22 76 3e bd 7d c5 7f 3c
       -0.020213183 0.02099768 -0.04649938 0.01561105
000040 7a 33 c8 3c 1c f2 67 3d 0a ce ce 3d 63 4d 84 bc
       0.024438608 0.056627378 0.100978926 -0.016150182
000050 0c fa b2 bd 1a d6 1c 3d 92 b7 cd 3c c5 1b 88 3d
       -0.08739099 0.03829012 0.025111947 0.066459216
000060 b6 75 cb 3c 83 b6 3a 3d 91 a1 98 3c bc f0 9a 3c
       0.024836402 0.045584213 0.018631728 0.01891362
000070 5c 7b 19 3c a0 3b 87 3d 43 43 54 bc e0 63 0e 3c
       0.00936779 0.066031694 -0.01295549 0.008690804
000080 03 12 ae bc 68 05 f6 bc 9a 55 4e 3c f8 14 d7 3c
       -0.021248823 -0.030031875 0.012593651 0.026255116
000090 37 48 6f 3c d7 b9 c2 3d 5c 7d ca 3d 8c 46 d7 3d
       0.01460462 0.095081024 0.09887192 0.105115026
0000a0 73 ec 33 bd 95 73 d0 3d c6 b0 96 3d 47 fa 4a 3c
       -0.043926667 0.101782955 0.073579356 0.012388772
0000b0 fd 1c 36 3d fa 5d 01 3d ce 9e 7a bd f8 e3 8c 3d
       0.04446124 0.031583764 -0.061186604 0.06879419
0000c0 14 f8 98 bd d0 5b 0f b9 78 33 1d 3c 5f b0 c4 3d
       -0.07469192 -0.00013671746 0.009594791 0.096039526
0000d0 af 33 38 3d c9 50 14 39 79 e2 21 bd 11 d5 52 bc
       0.044971164 0.00014144475 -0.03952262 -0.012868182
0000e0 f7 75 21 3c 4d 3f 8d 3c 31 b8 e3 3c e0 84 cd 3d
       0.009854785 0.017242098 0.02779779 0.100351095
0000f0 b2 e9 84 bb b1 ef 1b 3d 91 6a 7b 3d d2 44 18 3d
       -0.004056179 0.038070384 0.061380927 0.037175007
000100 71 aa f7 3d 20 1e 95 3d a9 af 5f 3d 4a a8 2c 3d
       0.12093056 0.072811365 0.054610882 0.04215268
000110 36 71 e8 ba fb d2 b2 3d ed 9f 9b 3d 3d 6c 77 3c
       -0.0017733935 0.087316476 0.07598863 0.01510149
000120 e6 87 2b bd 23 ed e8 3d 14 1e 36 3d 7e 68 8b 3d
       -0.04187765 0.11373355 0.04446228 0.0680704
000130 71 db 0c 3e aa 9f 09 3e 11 cc 18 3c 3c 9b ff 3c
       0.13755585 0.13439813 0.009325997 0.031201951
000140 3d 6a 96 3d 34 60 52 3d d6 c6 e0 3d 4d b7 fd 3d
       0.07344482 0.051361278 0.10975425 0.123884775
000150 3f df a8 3d b1 19 a6 bc 7f 49 9a 3d 41 7e 10 3e
       0.08245706 -0.020275922 0.075335495 0.14110662
000160 b3 a4 0b bd 32 07 50 3d 6c 7d fb bd 69 49 1c 3d
       -0.034092616 0.050788112 -0.12279782 0.038155947
000170 2e 19 64 3d ac aa b9 bc 85 e4 07 3d cd 5e d1 3b
       0.055688076 -0.02266439 0.033176918 0.006389475
000180 c3 be 11 3d f9 26 07 3d a5 f6 00 3c 07 e2 b4 3b
       0.035582315 0.03299615 0.007871305 0.0055201086
000190 bc 95 e6 3c 95 40 81 3d ce 35 32 3d 03 73 c1 bc
       0.02814757 0.06311146 0.043508343 -0.023614412
0001a0 4e 7e 00 bc 8a 43 51 3d 26 b4 99 3c 2c cb 0c 3d
       -0.007842613 0.0510898 0.01876266 0.034373447
0001b0 69 85 d1 3c a1 01 38 bd 36 c0 62 3d 91 dc ac 3c
       0.02557631 -0.04492343 0.055359088 0.021101268
0001c0 78 2c b5 3d aa 69 92 3d 91 a8 99 3b c1 6f 9a bb
       0.08846372 0.0714906 0.004689284 -0.004713029
0001d0 08 90 c1 3d ce d0 f9 3c bb 3e 07 3d 14 c7 ca 3d
       0.094513 0.030495074 0.03301881 0.099012524
0001e0 4e 44 1b 3d e9 e8 2a 3d 50 09 41 bd 4f d1 70 3c
       0.037906937 0.041726027 -0.04712802 0.014698341
0001f0 61 c1 0a 3b 98 f6 b4 3d ff 9f 3f 3d 34 14 7c 3d
       0.0021172392 0.088360965 0.046783444 0.061542705
000200 cd 09 84 3d 46 57 15 3d a2 4b 86 3d aa ce 88 3d
       0.06447182 0.036460184 0.065573946 0.06680043
000210 ce fd b9 3c c6 61 90 bd c0 e6 16 3d a5 d9 04 3d
       0.022704031 -0.07049899 0.036841154 0.032434124
000220 0e 4f 0c 3e 75 77 8b 3c 52 98 2d be a0 27 8c 3d
       0.13702032 0.017024735 -0.16952637 0.06843495
000230 58 d3 a7 3d 55 e8 e4 bc 72 d2 56 3d 62 b0 c0 3c
       0.081946075 -0.027942816 0.05244679 0.023521606
000240 eb 65 80 3c 7a 23 ad 3d 2a 2f 72 3c 8a b8 3f 3d
       0.015673598 0.08454032 0.014781753 0.04680685
000250 2b d7 6a 3d 1f 65 73 3d fc 53 41 3c fe b1 e5 bc
       0.057334106 0.05942261 0.011799809 -0.028038975
000260 be 6e 9c 3c 5d 5f 02 3e b2 aa 9c 3d b7 17 c1 3c
       0.019095775 0.1273169 0.07649745 0.023570878
000270 45 e0 94 3b 6e e1 eb 3d ef 08 02 3e 56 91 db 3d
       0.0045433366 0.11517607 0.1269872 0.1072108
000280 97 94 4a bc 34 5a e5 3d 99 97 ae 3d c5 ca 86 3d
       -0.012364528 0.111988455 0.08525009 0.06581644
000290 d7 51 ac 3d 7a a4 3d 3d f7 7c 6d 3c f3 85 62 3d
       0.08414047 0.046299435 0.014495126 0.055303525
0002a0 f5 23 1a bd af 6e 20 3c 52 e2 00 3e d0 d4 8d 3d
       -0.037631948 0.009792014 0.12586334 0.069253564
0002b0 b6 bf 8a 3d 96 9e 86 3d cc 54 fa 3c 9e 39 b7 bc
       0.06774847 0.065732166 0.030558012 -0.022366341
0002c0 27 01 32 bd db 02 7d bb 66 8e 3b 3d 62 16 d6 3d
       -0.04345813 -0.0038606438 0.0457901 0.10453488
0002d0 fe 14 fc 3d 1e 48 1f 3d 63 f5 0a 3d 0c c1 0c bd
       0.123086914 0.038887136 0.033925425 -0.03436379
0002e0 21 46 46 bd 0f 7b 01 3d ca 1a 95 bd ea 90 00 3d
       -0.048406724 0.0316115 -0.072805 0.0313882
0002f0 18 71 c5 ba c6 f7 c0 bb 7c 7d e7 3d 30 01 6c bd
       -0.0015063612 -0.005888912 0.11303231 -0.05761832
000300 9d 63 11 3d c0 c7 e2 3b 82 f1 b8 bd 88 09 17 3d
       0.03549539 0.0069207847 -0.09030439 0.036874324
000310 0c 9c e5 bc 06 41 07 3a 0e e0 d4 3d 78 4c 73 3d
       -0.02802851 0.00051595306 0.103942975 0.0593991
000320 11 6d 25 bd b5 ab 5a 3d 37 93 4d 3d 5b 45 56 3c
       -0.040387217 0.05338641 0.050189223 0.013078059
000330 c3 51 96 3d 32 14 90 3d bf 3f 57 bd eb fd b9 3d
       0.073398136 0.07035102 -0.052551027 0.09081634
000340 0a 65 6a 3c 01 ef 9a bd ce bc 18 3e 25 48 4c ba
       0.014306316 -0.075651176 0.14915773 -0.0007792733
000350 a7 8f 81 3d eb 98 aa 3c 5c 67 12 bd 11 53 dd 3c
       0.06326228 0.02082487 -0.035743102 0.027017148
000360 1b 6d 0c bd ea 37 0f 3e 67 0f 4d 3c d9 8b 1b 3d
       -0.03428374 0.13986173 0.012515879 0.037975166
000370 d0 9e 21 3e c8 1b 94 3d 18 88 06 3d 3f e0 db 3d
       0.15783238 0.07231861 0.032844633 0.10736131
000380 d3 d5 b6 bc 26 fc 27 3d 3b c8 0c 3d 1b 80 57 3c
       -0.022318756 0.041011952 0.034370642 0.013153101
000390 29 f4 b8 3d 5a dc 69 3d 90 cb 9f 3a 68 58 2d bd
       0.09030945 0.05709491 0.0012191404 -0.04232064
0003a0 49 e6 9f 3d 83 9c b9 3d f5 95 0e 3d b6 8a be 3d
       0.07807595 0.09063055 0.03481098 0.09303801
0003b0 3a e0 06 be aa 47 35 3d 18 5c e1 3c ba ed 3a 3c
       -0.13171473 0.044257797 0.027509734 0.0114092175
0003c0 3d 52 be 3d a1 7c 0c 3c f4 32 f6 3d 93 d6 68 bb
       0.092930295 0.008574636 0.12021437 -0.0035528287
0003d0 72 6d 83 3c 5f cb ad 3c cc 71 b5 3d ac c5 c2 3b
       0.016043399 0.021215139 0.08859596 0.0059439745
0003e0 f9 57 a1 3c 3a 99 d9 3d c7 45 50 3d cd ef a2 3d
       0.019695269 0.10624929 0.050847795 0.079558946
0003f0 30 04 26 3d d1 3c 24 bd c3 ad ef 3d e2 99 21 bb
       0.040531337 -0.04009706 0.11703064 -0.0024658372

fc3.weight f4 [2, 256]
000000 dc c6 9b bd d2 24 41 be 0c f9 6e bd 78 d1 5a 3d
       -0.07606289 -0.18861702 -0.05834298 0.05342242
000010 79 9d 53 3e a1 45 06 be 1b 11 2d bc fe f8 6d be
       0.2066554 -0.13112499 -0.01056316 -0.23239514
000020 1a d4 f4 3d dc de 58 3e d8 69 6f 3e b9 ae bb 3d
       0.11954518 0.21178764 0.2338022 0.09164185
000030 5e 5d ea bd 86 27 ab 3e ea cd 43 3d f5 38 ff bd
       -0.1144359 0.3342859 0.047803797 -0.124620356
000040 ed 9a bc 3d 7e d2 af 3e 31 0c d2 bd 9b 2a fd 3d
       0.09209237 0.3434028 -0.102562316 0.12361642
000050 b0 e5 9e 3d 25 a8 83 3c ef ad 1e 3e 0a a2 ad be
       0.07758653 0.016071388 0.15496038 -0.33912688
000060 f7 37 d5 3d e0 b4 2c 3f 4b 84 77 be 64 70 83 3e
       0.10411065 0.67463493 -0.2417156 0.25671685
000070 f6 c6 c0 3e 54 b3 8a be 03 9d ed 3c d6 0f 72 3e
       0.37651795 -0.27089942 0.029005533 0.23638853
000080 eb ea ae 3d 77 92 db 3c d6 f1 0d 3e 03 2e ed 3d
       0.08540901 0.026803238 0.13861784 0.11581042
000090 58 b1 ac bd b7 3f 34 3e c4 f8 23 3e 99 08 fe bd
       -0.08432263 0.1760243 0.16012865 -0.124039836
0000a0 31 ab db 3e 0e f7 d2 bd 2b 98 2c be 6d 4d 6f 3e
       0.42904046 -0.10301028 -0.16854922 0.2336938
0000b0 c6 86 22 be a0 20 09 3e 08 78 84 bd 47 14 06 3f
       -0.15871724 0.13391352 -0.06468207 0.5237469
0000c0 9e a7 2d bd fc 69 a4 3d d1 92 30 3e 25 f0 13 3e
       -0.04239618 0.080280274 0.17243506 0.14447077
0000d0 25 ec 43 3c 6c ff 08 3e 2b cf e9 bd 08 2e dd 3d
       0.011958157 0.13378686 -0.11416467 0.107997954
0000e0 21 19 0b bc c0 25 05 be 2b 41 8e 3e 82 93 bc bd
       -0.008489878 -0.13002682 0.27784094 -0.092078224
0000f0 e2 09 11 3d 10 23 5e 3c dd f8 9a bd 8d 17 0c 39
       0.035409816 0.013558164 -0.07566998 0.00013360214
000100 7d 3d 8a be a9 97 76 bd 13 6a 77 3d 01 df cf bd
       -0.27000037 -0.06020323 0.060403895 -0.101499565
000110 00 56 94 be ad 65 6c be 2c 61 96 be 2c 09 85 3e
       -0.28971863 -0.23085661 -0.2937101 0.2598356
000120 9e d5 b6 3d 26 28 a0 bd a7 a8 0a 3e 01 d5 60 3e
       0.08927463 -0.07820158 0.13540898 0.21956255
000130 9e f8 96 3e 73 aa f6 3e 41 84 8d bd b1 c6 9e be
       0.29486555 0.48176917 -0.06909991 -0.31010965
000140 52 6e 16 3d 64 8f 2d be 1f 92 11 be aa ca 11 be
       0.036726303 -0.1694923 -0.14215897 -0.14237466
000150 47 da 1c 3f 1f 81 6a 3e 5b 54 56 be ba 69 f9 3d
       0.61270565 0.22900818 -0.20930617 0.12178369
000160 6a 9d 47 3d f7 b0 98 bd 5c 16 3f 3e 5f d6 cb be
       0.048734106 -0.07455628 0.18660873 -0.3981199
000170 01 b7 5f bd ed d7 80 be a3 1f 53 3d 2c 85 a4 3e
       -0.054617886 -0.25164738 0.051543843 0.32132852
000180 39 93 70 3e 3a 93 95 be 1e 42 7e 3d c1 99 00 be
       0.23493661 -0.29213887 0.062074773 -0.12558652
000190 36 01 dc 3c 9f 7c bc be ee 28 d3 3d dc 54 3d 3d
       0.026856046 -0.36813828 0.10310541 0.046223506
0001a0 9a 86 29 3e 60 c6 01 bd 2a ff 0d be fb bc 01 be
       0.16555253 -0.031683326 -0.13866869 -0.12669747
0001b0 2e d9 ef bd b2 c2 17 3e 38 89 00 be ac dd dc 3d
       -0.117113456 0.14820364 -0.12552345 0.10784468
0001c0 e4 cd 37 be fe 91 9e 3d 88 86 31 3d e3 d8 59 3e
       -0.17949635 0.077426895 0.04334119 0.21274142
0001d0 71 0e b4 be 9f fa 74 3e 2d 8a cf 3d cf 33 50 3d
       -0.35167268 0.2392373 0.10133777 0.05083066
0001e0 5c c7 33 bc ea 12 1e bd db 2a 8c 3e f4 a7 da bd
       -0.010972824 -0.038592257 0.27376446 -0.10676566
0001f0 59 f4 99 3d 05 2a ea bb 01 3b 89 3d c8 b5 a8 bd
       0.07517309 -0.0071461224 0.06700707 -0.08237797
000200 66 e0 5c 3e 16 67 ab 3e b3 89 94 be d7 65 87 3e
       0.21569976 0.33477086 -0.29011306 0.26444885
000210 d9 80 77 3d ea b9 8a be 02 64 94 be a8 2e 1a 3c
       0.060425613 -0.27094966 -0.2898255 0.009410538
000220 6c 88 c6 3d 56 3c 0b 3e 4f ec ac 3e 53 ab 22 3e
       0.09693989 0.13597235 0.3377404 0.15885668
000230 9e 61 53 3d 18 2c c0 be fe 0a c7 3e 57 55 9f be
       0.051606767 -0.3753364 0.38875574 -0.31119797
000240 70 07 c0 bd 24 22 27 be 5c f3 9a be cc 3a f8 bd
       -0.093764186 -0.16321617 -0.30263793 -0.121205896
000250 7d f9 75 be 12 a1 53 be 76 b5 d5 bd 42 27 88 3d
       -0.24020953 -0.20666912 -0.104350016 0.06648113
000260 cd 34 11 3e 2f 5c bf 3d 5e 34 64 3e 5b ff 01 be
       0.14180298 0.093437545 0.22285601 -0.12695067
000270 19 04 25 3e 94 cf 9b 3e 3e f2 c5 3e 2a 97 06 be
       0.16114844 0.30431807 0.3866138 -0.13143602
000280 e8 5a 81 be 79 29 8c be 19 89 96 be 00 2e 38 bd
       -0.25264668 -0.2737539 -0.29401472 -0.044965744
000290 e3 aa 19 3d ae 4e cb 3e 53 a3 fb bd 34 ee 18 3f
       0.037516486 0.39708465 -0.12287011 0.5973847
0002a0 84 35 34 be de 35 94 3d 4e da 9e be 93 8c bf bd
       -0.1759854 0.07236837 -0.31025928 -0.09352984
0002b0 d1 27 2e 3e d7 73 0b be d9 9a 75 3e c3 6a 62 be
       0.17007376 -0.13618408 0.23984851 -0.22111039
0002c0 03 b4 3e 3d 54 7d b2 bb f9 7f 8f 3e d9 1b 8f be
       0.04655839 -0.005447069 0.28027323 -0.27950934
0002d0 bf 7c d6 3e 32 a9 9f be fc cb f9 3c 80 62 ab b9
       0.4189205 -0.31183773 0.030492775 -0.0003268905
0002e0 e4 2b a7 be 78 d5 9b 3e 2b d3 d5 be 91 c4 34 3e
       -0.32650673 0.304363 -0.4176267 0.17653109
0002f0 cf ba c5 3d b8 54 88 3d 8a 36 07 3f 73 31 1c 3e
       0.096547715 0.06656784 0.52817595 0.15253238
000300 18 56 86 3d 95 93 5e 3e 2d 45 54 3e 6c 24 92 be
       0.0655939 0.21735986 0.20729513 -0.28543413
000310 74 28 47 3d d6 6b 38 be fc b8 ae be 15 23 76 be
       0.048622563 -0.18009886 -0.34125507 -0.2403682
000320 1a 2f 5a 3e 27 e1 f3 bd a5 bd 5e be 34 b8 f8 3d
       0.2130703 -0.11908179 -0.21752031 0.12144509
000330 ab 28 83 bb fb 12 3c 3d 11 0f 1b 3e 68 3d 5d bd
       -0.0040026507 0.04591654 0.15142466 -0.05401364
000340 99 77 de 3d 82 62 43 3e 10 a9 22 be 24 81 b7 3d
       0.10862655 0.19080546 -0.15884805 0.089601785
000350 f7 24 0d be 3d 46 e0 bb a7 41 c0 3d 80 82 ac be
       -0.13783632 -0.0068443106 0.09387522 -0.33693314
000360 fa 45 51 3e 18 47 f0 bd 19 d5 19 3e 2a ce e3 bc
       0.2043685 -0.1173231 0.15022697 -0.027808268
000370 b9 01 77 be 0b cf 57 be 28 b4 1f bc 00 db 70 bd
       -0.24121751 -0.21075074 -0.009747542 -0.058802605
000380 0c aa 0c 3d 2d 66 45 be 7a f4 d1 3d b4 1e c6 bc
       0.034341857 -0.19277258 0.10251708 -0.024184562
000390 eb 75 d2 bd 1d 09 92 bd 18 41 28 3e a9 6e 97 3e
       -0.10276397 -0.071306445 0.16431081 0.29576614
0003a0 c7 81 9d be ea 93 4b bd 38 db a3 bd 61 4e d9 bd
       -0.30763075 -0.04970161 -0.08000797 -0.10610653
0003b0 7b 8d fa be b8 36 02 3e 4e c2 58 3e 7e 83 b5 3e
       -0.48936066 0.12716186 0.21167871 0.35451883
0003c0 61 12 b7 3e 37 2f c2 bd cb f1 16 3e 35 b1 0c 3d
       0.3575621 -0.09481662 0.14740674 0.034348685
0003d0 b8 c3 76 3d 14 1a b3 3d 40 71 1d bd f1 20 e3 bd
       0.060245246 0.087452084 -0.03843808 -0.110902674
0003e0 bc 58 57 3d 9c 98 68 be 50 c5 af 3e f1 ce 3b be
       0.052574858 -0.22714466 0.34330225 -0.1834066
0003f0 94 0c 8c be 78 a9 df 3e 6a e4 9a be 67 30 26 be
       -0.27353346 0.43683982 -0.3025239 -0.16229402

fc3.bias f4 [2]
000000 a0 6f 2f bd a4 5a 5a 3d
       -0.042831063 0.053309098

bn1.weight f4 [512]
000000 34 b5 1e 3f 90 4a 7b 3f 08 2f 82 3f 2d 64 27 3f
       0.61995244 0.9816065 1.0170603 0.6538723
000010 43 2a 4c 3f d6 a3 29 3f c5 19 02 3f b7 a6 59 3f
       0.79751986 0.6626562 0.5082057 0.8502001
000020 3f 8e 66 3e 3c 8b 35 3f cd fb 26 3f 8c 25 29 3f
       0.225152 0.7091558 0.6522797 0.66072917
000030 6f fe 59 3f 12 8f ec 3e fc b4 e1 3e 22 d8 e3 3e
       0.8515386 0.46202904 0.44083393 0.44500834
000040 c5 7a 29 3f 51 4b 8a 3f 67 01 48 3f 2e 77 4c 3f
       0.66202956 1.0804235 0.7812714 0.79869354
000050 f9 71 44 3f 0d 96 b3 3f 10 e5 25 3f bd 6b aa 3d
       0.7673641 1.4030167 0.64802647 0.08321331
000060 2f 45 da 3e 22 cd 56 3f b5 bf e7 3e 89 dc 57 3f
       0.42630908 0.8390676 0.45263448 0.84320885
000070 0d a9 84 3f b7 f6 98 3e 92 72 7c 3f f1 e0 87 3f
       1.036409 0.29875728 0.9861232 1.0615522
000080 a4 d7 18 3f 7c 5d 21 3e 66 6e 3d 3f f4 3c 30 3f
       0.5970404 0.15758318 0.7399658 0.6884301
000090 66 55 7f 3f 78 ba 5a 3f a0 92 31 3f 8a 7a 3d 3f
       0.9973968 0.8544078 0.69364357 0.74015105
0000a0 2c f4 4a 3f e3 b4 e2 3e f0 01 d4 3e 85 02 26 3f
       0.79278827 0.4427863 0.41407728 0.64847594
0000b0 92 fe c6 3e ae 0c 85 3f 8e 87 c4 3e 89 28 84 3e
       0.38866097 1.0394495 0.3838467 0.25812176
0000c0 2d 9d 51 3f 8a 98 a7 3e 50 ce e6 3e 73 1e 08 3f
       0.81880456 0.32733566 0.4507928 0.5317146
0000d0 67 ae 21 3f ea 83 8d 3e 03 36 b6 3e 47 71 b5 3e
       0.6315674 0.27639705 0.35588083 0.35437986
0000e0 b3 ed ad 3e 54 b7 05 3f 49 32 5f 3f 3e d0 5c 3f
       0.33970413 0.5223286 0.87186104 0.8625525
0000f0 86 40 06 3f 3d 72 79 3f 2b ce 89 3f e9 b5 88 3f
       0.52442205 0.9743994 1.0766042 1.0680515
000100 94 69 d1 3e 73 23 d0 3e 2e ad 84 3e 79 13 81 3f
       0.40900862 0.40652046 0.25913376 1.0084068
000110 2f ab 9f 3f 0c 41 d8 3e 9c 31 0a 3f 15 55 52 3f
       1.2474116 0.42237127 0.5398195 0.82161075
000120 7f d9 1b 3f 3b 7c 0d 3f 69 58 04 3f 85 bc 5e 3f
       0.6087875 0.55267686 0.51697403 0.8700641
000130 26 df b7 3e 37 e0 ed 3e 67 e7 89 3f b7 eb 62 3f
       0.35912436 0.46460125 1.0773743 0.8864092
000140 c2 92 ba 3e 34 fd d7 3e 60 c5 3d 3f f2 5b b0 3e
       0.36440092 0.42185366 0.74129295 0.3444515
000150 51 c7 69 3f 9b 2e e6 3e 63 c6 b6 3e 0c 17 61 3f
       0.9131976 0.44957432 0.35698232 0.8792579
000160 18 2c 3f 3f e4 29 0a 3f 74 f2 20 3f ee 07 8f 3f
       0.74676657 0.5397017 0.62869954 1.1174295
000170 1a a9 06 3f 59 68 d5 3d be 50 ea 3e 7d cc 73 3f
       0.5260178 0.10420293 0.45764726 0.952339
000180 06 75 06 3f e9 5d 42 3f f2 7f b9 3e 3a 75 51 3f
       0.52522314 0.75924546 0.36230427 0.818195
000190 33 ee 04 3e e7 a3 da 3e f9 4c 40 3f ce 7e 3c 3f
       0.12981491 0.42703173 0.7511745 0.7363099
0001a0 33 d0 71 3f 31 e4 86 3f eb 26 7d 3f 42 94 de 3e
       0.9445831 1.0538388 0.9888751 0.43472487
0001b0 ab 4e c5 3e c7 5d ba 3e f3 df b5 3e 03 ad 6b 3f
       0.3853658 0.3639967 0.35522422 0.9206087
0001c0 7c 40 9d 3f ac 12 61 3f 89 5e 6c 3f e8 d6 1c 3f
       1.2285304 0.87919116 0.9233175 0.6126542
0001d0 84 0b e3 3e 90 51 9a 3e 76 c1 40 3f fa 2d 7f 3f
       0.44344723 0.30140352 0.752952 0.9967953
0001e0 db dd 4b 3f 32 c5 c6 3e 87 74 44 3f 26 69 99 3e
       0.796354 0.38822323 0.76740307 0.29963034
0001f0 7a f0 9c 3e 74 54 03 3e d0 8b a2 3e 6e 9f 1f 3f
       0.3065222 0.12825185 0.31747293 0.62352645
000200 28 0d 4c 3f 3f af cb 3e f9 e8 5d 3e cd f1 3f 3f
       0.79707575 0.3978214 0.21670903 0.74978334
000210 ba 5b 56 3f 43 64 83 3f 29 57 ae 3f 29 d1 b0 3e
       0.83733714 1.0264972 1.3620349 0.34534577
000220 d8 4d 5f 3f ff 53 0b bf 86 cd 10 3f d0 e8 d6 3e
       0.87228155 -0.5442504 0.56563604 0.41974497
000230 d8 f7 b7 3e 21 c1 5e 3f ea 57 66 3f 6c ce 9f 3e
       0.35931277 0.8701344 0.89977896 0.31212175
000240 b2 be 3c 3f f1 17 34 3f 1c bf 5c 3f 88 42 8a 3e
       0.7372848 0.7034903 0.8622911 0.27003884
000250 e1 c9 5f 3f 41 a2 ea 3e 82 ca 24 3f 3d 5b 82 3f
       0.8741742 0.45826915 0.643715 1.0184094
000260 50 cd a5 3e 14 8b 7a 3f f3 ab 39 3f 4a 97 48 3f
       0.32383204 0.97868466 0.72528 0.7835585
000270 ae b4 67 3f 7a 90 29 3f f8 06 9d 3e 26 b0 94 3f
       0.9051007 0.6623608 0.3066938 1.1616256
000280 07 9c c0 3e aa cd 8a 3e 67 40 44 3f b6 1e 2d 3f
       0.3761904 0.27110034 0.7666077 0.67624986
000290 81 44 82 3f af 12 76 3f f3 25 59 3f 0f 4a a8 3e
       1.0177156 0.9612226 0.8482353 0.32869002
0002a0 42 f5 62 3e 87 5b d7 3e c8 6b 3a 3f 7b 57 a3 3e
       0.22163871 0.42062017 0.7282071 0.3190268
0002b0 ad 32 80 3f 25 e2 30 3f aa d4 0d 3f 21 06 1b 3f
       1.0015465 0.6909507 0.55402625 0.60556227
0002c0 97 75 18 3f cf 2f 0d 3f 47 23 d1 3e a9 81 ab 3d
       0.5955443 0.55151075 0.40847227 0.0837434
0002d0 38 96 18 3f 03 7f f5 3e 99 0e 2a bf 87 30 31 3f
       0.59604216 0.47948465 -0.66428524 0.6921467
0002e0 f2 36 82 3f f4 c2 33 3f 83 68 67 3f 05 86 92 3e
       1.0173018 0.7021935 0.9039385 0.28617874
0002f0 08 3f 40 3f b9 36 39 3f d4 40 80 3f 9c ed 8c 3f
       0.7509618 0.72349125 1.0019784 1.1010013
000300 6d 86 8a 3f c5 2d 47 3f 5a 38 df 3e da 2f b2 3e
       1.0822273 0.77804214 0.4359768 0.34802133
000310 9b 72 52 3f d7 f7 67 3f 33 6a b0 3e f5 1b 9b 3f
       0.82206124 0.9061255 0.34456024 1.2117907
000320 81 db 31 3f 11 ec e5 3e 82 09 a4 be cf 87 31 3f
       0.6947556 0.44906667 -0.32038504 0.6934785
000330 d4 0e 09 3f 43 12 f7 3e 59 b9 c5 3e 6f 36 f7 3e
       0.5353825 0.4825612 0.38617972 0.48283717
000340 ea 1f ba 3e ca 2d 31 3f 71 c5 20 3f 84 00 6e 3f
       0.36352473 0.69210494 0.6280127 0.92969537
000350 e5 3b 65 3f e9 89 44 3f 57 88 97 3e 5f c9 1b 3f
       0.89544517 0.76772934 0.29596207 0.6085414
000360 83 10 64 3f 9a 28 83 3f 89 83 4a 3f 73 9b 33 3f
       0.89087695 1.0246766 0.79106957 0.7015907
000370 7f 4d 81 3e 99 42 48 3f 54 04 a0 3e fa cf 9c 3f
       0.25254437 0.7822662 0.31253302 1.225097
000380 d2 ff 46 3f 47 30 f8 3e e1 af 61 3f ae 33 63 3e
       0.777341 0.48474333 0.88158995 0.22187683
000390 5b 73 0a 3f 5f 3b 25 3f 1a 46 65 3f d6 ab 83 3f
       0.5408227 0.6454372 0.8956009 1.0286815
0003a0 4f ab 5f 3f a3 b2 c8 3e 62 32 8c 3f 97 56 a3 3f
       0.8737077 0.3919879 1.0952876 1.27608
0003b0 5d 14 28 3f b5 6e 05 3f 9b 85 1a 3f 0c 22 7b 3e
       0.6565607 0.5212205 0.60360116 0.24524707
0003c0 b7 99 8c 3f 58 23 1e 3f f4 c0 49 3f ac 97 00 3d
       1.098441 0.6177268 0.7881005 0.031394646
0003d0 39 dc 2a 3f 89 15 a2 3e 42 4f 63 3e c6 26 19 3f
       0.66742283 0.31657055 0.22198203 0.5982479
0003e0 38 1f f2 3c e7 1a 36 3f 6f 9f 6e 3f 02 d3 6a 3f
       0.029555902 0.711348 0.93212026 0.9172822
0003f0 1a 57 2c 3f d5 56 24 3f 25 03 50 3f af 36 78 3f
       0.67320406 0.64194995 0.812548 0.9695844

bn1.bias f4 [512]
000000 ef 61 c1 3c 0b 92 c4 3c f3 27 85 3c fd 97 ad 3d
       0.023606269 0.02399542 0.0162544 0.08476255
000010 ae 40 0a bc f5 4f 9f bd e6 d2 83 3a a9 15 9a bb
       -0.008438272 -0.077789225 0.001005736 -0.004702289
000020 7b 4a fe bc 91 7d 71 3d 44 7f ec 3b 16 11 bf 3d
       -0.031041374 0.05895764 0.0072173197 0.09329431
000030 c4 21 61 3d 44 37 3d 3d cf 0e 0b be f9 75 78 bc
       0.054963842 0.046195284 -0.13579868 -0.015164846
000040 22 0e 1a 3d 8b 32 3c bd d5 49 26 3b 6c b2 25 3d
       0.037611134 -0.04594664 0.0025373597 0.04045336
000050 17 c8 14 3d c4 57 b8 3c e3 bf db bc f3 f4 2c bd
       0.036323633 0.022502787 -0.026824897 -0.04222579
000060 bd 9b 93 3b 51 96 4b bc 08 5f e6 3d 81 96 c9 3c
       0.0045046494 -0.012425975 0.112485945 0.024607899
000070 1f c7 4e 3c d0 28 1a bd e5 f1 8b 3d cf 81 ce 3a
       0.012620716 -0.037636578 0.06833247 0.0015755239
000080 89 32 22 3b ce ad 82 3d 61 5b 50 bc 86 0d 32 3c
       0.002474936 0.06380807 -0.012717099 0.010867482
000090 8c 47 46 3d 9d 43 7b 3d 86 c5 40 3d fc 49 0d bb
       0.048408076 0.061343778 0.047063373 -0.002155899
0000a0 c8 89 c9 3b e4 eb cf 3c b8 8d 42 bd 11 e1 84 bc
       0.006150458 0.025381036 -0.047498435 -0.016220601
0000b0 a2 8d 8d bc 00 b5 9c bc 2f b4 95 bc ba ba 03 bd
       -0.01727945 -0.019129276 -0.018274395 -0.0321605
0000c0 02 d1 0c 3c 79 b1 8f 3d f5 a5 bf 3c 19 8f 8d bb
       0.008594753 0.07016272 0.023394564 -0.004320037
0000d0 03 4e 4d 3d 94 36 82 bc 38 b9 64 3d dc 3c c4 3b
       0.050123226 -0.015895166 0.0558407 0.0059887003
0000e0 16 ec ed 3c d6 d4 69 bd 43 44 16 bc 77 f1 80 3c
       0.029043239 -0.05708774 -0.009171548 0.01574014
0000f0 e2 a7 42 3d 2b 14 b8 3d a2 d9 65 bd e3 46 a1 bd
       0.047523387 0.08988222 -0.056115754 -0.07874849
000100 41 44 e8 3c b1 94 9c bc 3e 27 4c bd 84 7b 92 bc
       0.028352858 -0.01911387 -0.04984211 -0.017881162
000110 f8 82 0b 3b 67 ee 67 3d 03 69 ff 3b c3 15 a4 3d
       0.002128778 0.056623843 0.007794501 0.08011963
000120 bb de 9d 3d 0e d7 d3 3c 70 95 38 3d a6 d5 6f 3d
       0.07708498 0.025859382 0.04506439 0.05855336
000130 cb c1 bd 3c 55 90 46 bd 95 a7 67 3d 83 a1 cb 3b
       0.023163697 -0.04847749 0.056556303 0.006214322
000140 b7 1e 6e 3c 8c 5f fa 3b 57 44 18 3d 26 e7 95 bd
       0.01453369 0.0076407846 0.03717455 -0.07319479
000150 b0 b2 ce bb 11 ff e0 3c 2c ff 15 bc 94 22 73 3d
       -0.0063079223 0.027465375 -0.009155076 0.05935915
000160 28 3d 38 bc 8b 89 c2 3c 74 a2 06 bd 6e 7e a7 3d
       -0.01124505 0.023747226 -0.03286977 0.081784114
000170 54 48 e1 bc b1 97 92 3c ae 74 17 3d 89 b7 55 bd
       -0.027500309 0.017894598 0.03697651 -0.052176986
000180 8b b7 5f bd 86 f7 5a 3d cd b9 b0 bd 07 77 07 3d
       -0.0546184 0.053458713 -0.08629189 0.033072498
000190 c5 12 67 3c d0 e6 df bb 4a 58 2e 3d e3 66 d4 3c
       0.014103596 -0.006832935 0.042564668 0.025927966
0001a0 8e f9 ed 3c 7a 20 a6 bc f3 82 20 bb fd 65 4f 3c
       0.029049661 -0.020279158 -0.0024492114 0.012658593
0001b0 f2 ab a2 bc de 68 82 3c e0 7a 0c 3d a0 70 05 bd
       -0.01985738 0.015919145 0.03429687 -0.03257811
0001c0 46 aa 1c bd 91 c3 e9 bb 9e 71 8a 3d 61 fb a8 3d
       -0.038248323 -0.007133909 0.06759952 0.08251072
0001d0 44 9e 9e ba bc 33 9e 3b 90 a1 a0 bc 2a bd a8 bd
       -0.001210161 0.0048279446 -0.019608289 -0.08239205
0001e0 97 20 0d bd 8a cf 25 bc 43 60 c4 3c 6a 36 9f 3b
       -0.03445491 -0.010120282 0.023971682 0.0048587816
0001f0 29 c5 8e bc 21 26 38 3d 93 c9 93 3d d5 06 4c 3d
       -0.017427998 0.044958238 0.072161816 0.049811203
000200 96 bf 08 3d 09 40 2e bd e0 55 af 3c b2 0d 10 3d
       0.033385836 -0.042541537 0.021403253 0.03516931
000210 ee fb fe bb e6 50 91 3b 3c f1 42 3c 8f c1 63 bc
       -0.007781497 0.0044346927 0.011898335 -0.013901128
000220 ab d5 df 3c 0b df b6 3d 84 fc 05 3c 79 55 2e 3d
       0.027323565 0.08929261 0.00817788 0.04256198
000230 27 01 e5 3b 28 4a 5d bd ef 0e 80 bc 98 a6 1c bc
       0.0069886628 -0.0540258 -0.01563212 -0.009561203
000240 f9 32 95 bd c6 ef 26 bc d3 40 55 bd 9c 8c 27 bd
       -0.07285113 -0.010189002 -0.052063774 -0.04090558
000250 c6 b5 62 bd 24 6c 86 bd 39 4f 1e bd 97 3a 13 3d
       -0.055349134 -0.06563595 -0.03864977 0.035944548
000260 3f dd ba bd 6d 56 be bb 4a da 39 3b 76 75 92 bc
       -0.091242306 -0.0058086426 0.002835887 -0.017878275
000270 ac 23 57 bc 2d 87 3a bc 46 02 b5 bc 01 a7 06 bd
       -0.013131063 -0.0113847675 -0.02209581 -0.03287411
000280 26 c7 24 3d 55 f1 ce 3d 2e e9 37 3d 16 19 aa bc
       0.040228985 0.10104624 0.04490011 -0.020763915
000290 53 f0 cb 3c 05 40 b8 bc fd 78 4c bd fd 29 79 bb
       0.024894869 -0.022491464 -0.04992007 -0.0038019412
0002a0 8a f9 8b bc 90 e8 8c 3c f4 b5 5b bb 2c 12 7f 3c
       -0.017086763 0.017200738 -0.00335252 0.015568297
0002b0 51 9b a5 3c cd b2 2b 3c 71 5e 78 bc e1 a8 85 3c
       0.020215662 0.010479641 -0.015159235 0.01631588
0002c0 a8 18 95 bc 5b 07 be bc 00 74 d4 3c ee 26 45 bc
       -0.018200234 -0.023196867 0.02593422 -0.012033207
0002d0 63 eb ee 3d a1 1c cc bc 76 6b 9a bd 6b 86 06 3d
       0.1166599 -0.024915995 -0.07540028 0.032843035
0002e0 5e cd f3 3b 8b ff 2d 3c 8a ed 52 3c 5c a6 c7 ba
       0.007440253 0.010620008 0.012874017 -0.0015232074
0002f0 fc 70 72 3d b8 44 13 bd 87 be 31 bb de 94 27 bd
       0.05918978 -0.035954207 -0.002712162 -0.040913455
000300 5a 6c 65 3c 75 c3 c8 bb e5 6b c9 3d 4b d5 88 3c
       0.014002884 -0.006126816 0.098350324 0.016703269
000310 07 a6 a6 3d 2e e3 21 bd 3a 40 6d bc 79 5e 5d 3d
       0.08137136 -0.039523296 -0.014480645 0.054045174
000320 68 5a 98 3c aa 10 c4 bc e8 91 a6 bd 34 56 d0 3b
       0.018597797 -0.023933727 -0.08133298 0.0063579325
000330 b4 44 7f bc 7b 13 06 3d 88 16 af 3c c6 6a b8 bc
       -0.015580345 0.03273342 0.021373048 -0.022511851
000340 c3 3b 21 bc d4 13 f2 bc 28 58 49 3c bc dd 64 bd
       -0.009840908 -0.02955047 0.0122890845 -0.055875525
000350 4a 73 74 3d 83 6b c2 3a 3f af d2 3b e3 2b e6 3d
       0.05968026 0.0014833066 0.0064295824 0.112388395
000360 91 0f c8 3a 3a 19 25 bd 4d 19 c2 bc e8 ee 79 bc
       0.0015263428 -0.04030726 -0.023693705 -0.015254714
000370 0c 81 2b bc e1 d0 7b bb 45 02 8a 3c a6 7f b8 3c
       -0.010467779 -0.0038424062 0.016846785 0.022521805
000380 cf ae fa 3c 5f 88 34 3c dd c2 f0 3c 5e d3 53 3c
       0.030600933 0.0110188415 0.029389793 0.012928812
000390 c6 3e 92 bd ef 91 ab bd ea a1 fa 3c 40 1c 33 bc
       -0.07140879 -0.08377444 0.030594785 -0.010932028
0003a0 ef 9f 22 3c a8 67 0d bd 44 d7 99 3c 43 79 4e 3c
       0.009925826 -0.034522682 0.018779404 0.012602153
0003b0 f1 67 51 bd 6d da c4 3c 2d 2e c9 bc ee 62 54 3d
       -0.051124517 0.024029935 -0.024558151 0.05185216
0003c0 0e 4e 22 bc 63 6e f4 bc 9c 5c 9c 3c 72 64 e5 bd
       -0.009906305 -0.029837793 0.019087128 -0.11200799
0003d0 c3 ba 91 3b 10 d4 28 bd b7 fc 8c 3d 83 76 f2 bb
       0.0044473126 -0.041217864 0.06884139 -0.0073993816
0003e0 13 12 b2 bd 18 a9 1d 3d 66 d2 04 bc 1c 6f ca 3b
       -0.08694854 0.03849134 -0.0081068035 0.006177796
0003f0 38 56 1f bd bb e3 3c bd 77 a9 a6 3c 6d bb 1f bc
       -0.038900584 -0.04611562 0.020344479 -0.009749276
