3 - Collab -MADDPG/trained_agents/maddpg_tennis_checkpoint_critic_target_1.pth (torch_old, 644536 bytes, 9 tensors)

fc1.weight f4 [512, 52]
00000000: e84c 563e 92c3 21be a85d aabb 3549 593e
00000010: fd55 17be 8d36 2ebf 4c9e f53c a599 573e
00000020: ea07 8f3c 6123 0abe e599 1cbd 359f 113f
00000030: 3e23 943c bfb6 09bf 2063 cdbd b0ba 133f
00000040: 6ecb 80be 871a d4bd ccba e03d fe6d 14be
00000050: 1094 f73d 6cf2 003f 7874 f33d 5261 43be
00000060: 2109 9dbd 044c 05bf e7aa 7cbc 28d9 563e
00000070: 49f8 1d3e 0cc2 2dbf dde7 a9bc 5b26 213e
00000080: e080 2dbe d12d b9be 7604 7cbd 49b9 1ebc
00000090: 02ae 25bd 9b8c 02bf e80b 30bd e629 753d
000000a0: e9f7 55be 407d e1be 4562 dcbb 4cc8 6dbe
000000b0: 2abc debd e47a f03e 1335 ac3c ae39 46be
000000c0: 8a9e a2be da7e 2dbe 26a7 bd3f f3c5 8dbd
000000d0: 7afc adbe f72c 083e 13a6 95bc da2f a93d
000000e0: dd2b afbc 5193 94be 57d0 813c 2fcf 9f3d
000000f0: 51f1 5ebe 977f 863e e3c9 2a3e b95d e3bd
00000100: 9d4b 22be c323 0cbf d94c 3d3e a8fe 00be
00000110: 5e30 a1bd 5bfe 983e 6e4f d03c e352 cd3a
00000120: 34c0 28be 5ecd 56bf e675 363d 67d5 5d3d
00000130: d178 0bbe d8e3 40be be21 a6bd 5988 563e
00000140: cb21 b93c 75eb 9ebe f618 b4bd c8a8 3a3e
00000150: 8676 4d3d dced 3cbe a0ad 85bd 0533 8a3c
00000160: fe20 353e 1496 03bf 9219 86bd dc81 08bd
00000170: 2cac 7c3e 2f3d 4abd bfe4 0f3d 8688 ca3e
00000180: 3456 2e3e 6152 6dbf 96bf 023c 7237 e33e
00000190: 13d3 623e c8d0 fcbe 9559 cd3f 4ce6 c0be
000001a0: 7da6 bc3e 5913 4fbe 397f 1d3a b2c7 d13c
000001b0: aebb 973d ac24 04bd 1b4d 0fbd 0cb1 833d
000001c0: 7bf2 a93f 6df4 9fbe e99f 23ba f96b 8abc
000001d0: 8a23 5e3e 6225 863e c7be 7abd b011 bebd
000001e0: eb31 ac3f 1b0b 32be d8b2 53bc ce75 153d
000001f0: 5a65 183f 05e0 9b3d 9b3b 26bd d02f 7a3c
00000200: 5107 af3e 43bf e53e 52df c23c 259f dd3d
00000210: beda ebbd 33d3 2cbd b03e fdb8 502c 353e
00000220: 9db7 863e ce59 4c3e b0fb 21bc 9ec5 cabd
00000230: 58f2 88be 08e0 8f3e bf8e 053d ff4c 93bd
00000240: ce14 9c3e 17e1 603e 8439 0b3c a89c e2bd
00000250: 80c1 22bf 2783 1d3d 7d68 efbc d96f c3bd
00000260: 3c6f bfbc 84c3 853e 28e8 513f 408d 59bd
00000270: be5c c93d 7b8f d8be 4a1a d3bb be2e d9bd
00000280: f9fa 95bd 6fbe 3b3e 2b79 a93c 3f47 5bbd
00000290: b26b 793e 9d84 bbbe 41c0 d6bc 56ac 483e
000002a0: be37 4bbe db7a 123f 9a33 0dbc b11e 143e
000002b0: 3818 c23e d922 b6be 4b58 18be 39d5 953e
000002c0: d7b9 24be a5e8 3b3f b9af a3bd ad79 873e
000002d0: c49f 1a3e 0127 de3e 9de9 9cbd a902 a4bd
000002e0: 35e1 ef3d 7a1d 863e 9f8f b6bd a59b 0dbe
000002f0: c2c1 8a3e ef51 d13e 4178 8cbd cc41 cf3d
00000300: 3b12 5c3e 5fa0 1c3f d548 e7bd e3d7 a13d
00000310: cf31 9d3e 5494 003f d85c 1ebd 0d3a a23e
00000320: 10b7 d63d 1d74 2d3f a951 fdbc 952d 9a3e
00000330: 9f0b 65be c263 723f bbad a73e 3151 4b3f
00000340: f226 a83d 6f49 823f 0f9d f63a 85fe 68be
00000350: cd69 ae3d fb97 c8be 8e5e c83c 6a6c 2ebe
00000360: 2516 4ebe 7221 533f 94e7 9e3c a151 c0be
00000370: e56b dd3d a68a 21bc 9569 99bb 04cc c6be
00000380: 5b22 29be 345a 273f 4ac4 543c 1e8d 23bf
00000390: cc01 4bbd 4090 203f 90ba b23c a140 25bf
000003a0: a2f7 a63e a909 e53e c0cb 28bd 47b1 1ebc
000003b0: 67c3 04be ef1a d8be 4ce6 8dbc 1956 41bd
000003c0: b311 953e 0390 113f b014 32bc 7476 0a3f
000003d0: a45b cebd 525b c13c ae51 8f3c 2e3f 113f
000003e0: c1f9 733e 7f41 0d3f e563 8e3c 7536 30bd
000003f0: 5f0e b63d 4ad0 333f b10e d33c 3ed8 a5bd
0.20927775 -0.1579726 -0.005199153 0.21219333 -0.14778896 -0.6805199 0.029982708 0.21054704
0.017459828 -0.13490058 -0.038232703 0.56883556 0.018083211 -0.53794473 -0.10028672 0.5770674
-0.25155205 -0.10356622 0.10973129 -0.14495084 0.120887876 0.50369906 0.11887449 -0.19080094
-0.07667757 -0.52069116 -0.015421606 0.20981276 0.15426745 -0.6787422 -0.020740444 0.15737288
-0.16943693 -0.36167768 -0.06152769 -0.00968773 -0.04044915 -0.50995797 -0.042980105 0.05985441
-0.20895351 -0.4404087 -0.006725582 -0.23220938 -0.10875733 0.46968758 0.021021402 -0.1935794
-0.3176158 -0.16942921 1.4816635 -0.069225214 -0.33981687 0.13298403 -0.018267667 0.0826108
-0.02138322 -0.29018643 0.015846414 0.07803189 -0.21771742 0.26269218 0.16678576 -0.111018606
-0.15849157 -0.5474207 0.18486346 -0.12597144 -0.078705534 0.29881558 0.0254285 0.0015664961
-0.1647957 -0.83907115 0.04454603 0.054158594 -0.13620307 -0.18836915 -0.081119046 0.2095045
0.022599122 -0.31039014 -0.087938234 0.18228447 0.05016186 -0.18450111 -0.06527257 0.016870031
0.17688367 -0.51400876 -0.06547846 -0.03332697 0.24675053 -0.049374755 0.03513026 0.39557284
0.17025071 -0.92703825 0.007980248 0.4437824 0.22150831 -0.49378037 1.6042963 -0.37675703
0.3684577 -0.20222224 0.00060080324 0.025607917 0.07408844 -0.032261536 -0.034985643 0.064302534
1.3277124 -0.3124117 -0.0006241785 -0.016897188 0.21693245 0.26200396 -0.061217096 -0.092807174
1.3452734 -0.17387049 -0.012921058 0.0364893 0.5952965 0.07611088 -0.040584188 0.015270188
0.3418527 0.44872484 0.023788128 0.1082137 -0.11516331 -0.042193603 -0.000120756566 0.17692685
0.2631196 0.19956133 -0.009886667 -0.09900974 -0.26747394 0.2810061 0.032606836 -0.0719242
0.30484623 0.21960865 0.0084975995 -0.11065036 -0.6357651 0.038455155 -0.029224629 -0.095428176
-0.02336847 0.2612573 0.8199487 -0.053113222 0.09832142 -0.42296967 -0.006442343 -0.106046185
-0.0732326 0.18334363 0.02068766 -0.053534742 0.24357489 -0.36624613 -0.02621472 0.19596991
-0.19845483 0.5721871 -0.00861826 0.14464833 0.37909102 -0.35573462 -0.14877431 0.29264238
-0.16086517 0.7340186 -0.07992501 0.2646002 0.15100008 0.43389133 -0.07661746 -0.0800832
0.11712877 0.26194364 -0.08914112 -0.13828905 0.2710095 0.40882823 -0.06858874 0.10119972
0.2149133 0.61182207 -0.112931885 0.07902505 0.30702063 0.5022633 -0.03866276 0.31684914
0.10484135 0.677553 -0.030922728 0.301129 -0.22367714 0.9468347 0.32749733 0.79420763
0.08210553 1.017866 0.0018815118 -0.22753341 0.08516274 -0.39178452 0.02445915 -0.17033544
-0.20125635 0.8247291 0.019397534 -0.37562278 0.10811595 -0.0098597165 -0.004681776 -0.38827527
-0.16517012 0.65372014 0.012986252 -0.638872 -0.04956226 0.6272011 0.021817476 -0.6455174
0.32610804 0.44733933 -0.041209936 -0.009685821 -0.12965165 -0.4220805 -0.017321728 -0.04720125
0.29115066 0.5686037 -0.01086919 0.54086995 -0.10076073 0.023603115 0.017495003 0.5673703
0.23825742 0.55178064 0.017381618 -0.043020684 0.0888946 0.702397 0.025763841 -0.080978855

fc1.bias f4 [512]
00000000: 9631 5ebe 09d0 e4be 4624 63bf bbc2 36bf
00000010: 535e dbbe 2b81 223e dcc2 6bbe 26ee babe
00000020: 7837 c0bd a0d8 9ebd 1978 06bf 30d4 24bd
00000030: ef1b 47bf dd0b c2be 235b afbe cedc 063e
00000040: 3b9e a53d cbbf 99be 5d59 01bf f821 b0bb
00000050: 8882 e9be 0be6 d6be 1385 d3be 7b62 5bbe
00000060: 5058 3f3d d3ca 3dbe a39f 7b3e cc20 90be
00000070: d483 87be 75fe 36bf 3ff8 17be 1d0e 11bf
00000080: 6f9b 77be c5fd 4dbf 1234 ddbd 3027 c6bd
00000090: 2930 c7be aa55 a93e 3d47 c8be 89ff e2bd
000000a0: 162c 8e3d b806 16be fe02 40bf 743e 27be
000000b0: 1ce3 57be 33ed c8bd f9b7 11bf 68ea 2dbf
000000c0: f25c 46bf f8bc 75be af82 eabe 6312 adbe
000000d0: d8bb 6bbd d8b3 c2be 518d 3fbe ceed 22bf
000000e0: e406 ebbe 195b 2bbe 051e b0be 6be4 e33e
000000f0: be59 313d 66bb ddbd 48bf 403d 4734 33be
00000100: ac04 e13c c1d7 d8be 0cdf 8dbe bf70 77be
00000110: e069 93be b50d 89be 24fd dfbe e14d 48bf
00000120: b359 373e ca54 e4be cf24 32bf 31d8 54bd
00000130: 19c6 51be cdb1 18bd 4aaa 09bf 1a2b e6bd
00000140: 741f 3bbe 537d 053e 2d78 2d3c e9dc a0be
00000150: 0d15 1cbe 02ed cf3d 24fd 82bf 1b50 41be
00000160: 1f25 1ebf 3b8b d93e 0ac9 e6be 7ad4 45bf
00000170: b57c 053e 6a09 51be 295d eabd 64f9 1bbe
00000180: 00ff 62bf a4fb 5bbe 87bb b1be 7ac9 fabe
00000190: 5c1c 98bf ebbc 7dbf ac02 693b 874e b1bd
000001a0: db0f 3c3d 6a4e fcbe 39cb dabe d36c 6bbe
000001b0: f9d5 12bf c3ab 12bc 2c34 10bf 9516 3fbe
000001c0: bacf 43be 1989 38bf 9ee5 98be 444b 9f3b
000001d0: cb3f d3be f6e4 a9be 49c4 40bd f4e7 b23d
000001e0: fdce 623e c68b 82be 22fc a2be 100d 113e
000001f0: 37d0 86be 8ac2 0bbe a347 6abd b707 0e3d
00000200: cf20 d0be 6922 edbd cbe5 25be 9a93 a5be
00000210: c363 553e 5aa6 cebd ddef 46be 551b 40bf
00000220: 3638 09bf fefb 2dbf f16a e3be 1cdd 00be
00000230: 6ea6 9bbe 8a89 c9be f5ef e3be 6884 87be
00000240: 2ca2 c73c 810e 1abe d34e 1bbf 8840 b7be
00000250: 3dee 83bd 9a23 0cbe bbe6 c63e 2c12 9bbe
00000260: c874 e7be c419 5ebe e6da d0bd a53e 70be
00000270: 9ac7 6ebe 765d 393e ebc3 0cbf f28c 0abf
00000280: f2d3 0ebf ce0d 61be 16cb 3abf d222 2abf
00000290: c04b fabd 3e4e a5be 02f5 34be 0832 d0be
000002a0: be17 47be 43f6 78bd 2aee fabd 9ff9 c2be
000002b0: 4d37 8ebe c7d2 85bf df58 8dbd 38d0 5e3d
000002c0: f201 03bf 8091 e8be ccc4 02bf f33a 0ebf
000002d0: 3bb2 56be 792a 743d 1b08 9ebe d5b8 d6be
000002e0: ba4a 01bd 6733 09bf ad2a 1dbe f755 94bd
000002f0: 1d76 79be ff85 b8be 6ab1 68bf 05aa a03d
00000300: a2d0 ddbd 9b3e 1ebe 8467 4b3e 771d fbbe
00000310: f597 41bf f729 343e a801 80bf 0a91 38bf
00000320: cfb7 64be 538a cebe 0d42 26bf 27bb a43d
00000330: b0d7 7dbd 7ef0 cf3d a9bc 6abd 71a1 9a3d
00000340: a4c2 d0bc 725f 8abe a400 23bf 7a63 64be
00000350: 7979 d3be 66c1 21be 7c50 50be 48e4 a5be
00000360: 0f4f 1c3e c140 273d 69e3 a3be 9fd3 2fbf
00000370: 0c6e 25be 2f97 b3be e402 27bd 81dc e63c
00000380: 9390 5d3e a75c 9cbe 80c9 1abf e19b 78be
00000390: 118f dfbe d175 52bf 8a86 a2be 96df 6abe
000003a0: d7dc adbd a416 0ebd 0d1d bdbd 133e 81be
000003b0: 5933 a0be 03fb 96be ad7e fd3d bdc5 97be
000003c0: 597a 46be 2d98 6e3d ee59 46bf bf42 d3be
000003d0: 0310 34bf 1639 c23d b1d6 0b3e f397 cfbe
000003e0: 6885 23bd da1a 9ebc ea32 04bf 35d6 e1bd
000003f0: 45da 7dbe c579 10be f354 6ebd c6c4 cabd
-0.21698603 -0.44689968 -0.88727224 -0.71390885 -0.428454 0.15869586 -0.23023552 -0.36509818
-0.0938558 -0.07756162 -0.52527004 -0.04024142 -0.77777 -0.37899676 -0.3424922 0.13170168
0.08086821 -0.3002914 -0.5052698 -0.005375143 -0.456074 -0.41972384 -0.41312465 -0.21424286
0.04671508 -0.18534403 0.24572615 -0.28150022 -0.26467764 -0.7148202 -0.14840792 -0.5666216
-0.24180387 -0.80465347 -0.10800947 -0.09675443 -0.3890393 0.3307317 -0.3911685 -0.11083896
0.069420025 -0.14651 -0.75004566 -0.16332418 -0.21082729 -0.09810867 -0.56921345 -0.679358
-0.77485573 -0.23997867 -0.4580283 -0.3380309 -0.05755219 -0.38027835 -0.18706252 -0.6364411
-0.45903695 -0.1673397 -0.34397903 0.44510207 0.043298475 -0.10826759 0.04705742 -0.17500411
0.027468048 -0.42352107 -0.27709234 -0.24164103 -0.28791714 -0.2676827 -0.43747818 -0.78243834
0.17905311 -0.4459594 -0.69587415 -0.05196399 -0.20485725 -0.03727894 -0.53775465 -0.1123869
-0.18273717 0.13036089 0.010587734 -0.3141854 -0.15242405 0.101526275 -1.0233502 -0.18878214
-0.6177539 0.42489037 -0.45075256 -0.7727734 0.13035853 -0.20413747 -0.1144355 -0.15231854
-0.8867035 -0.21482712 -0.34713385 -0.4898184 -1.1883655 -0.9911639 0.003555457 -0.08657556
0.04591356 -0.49278575 -0.42733172 -0.22990732 -0.57357746 -0.008952084 -0.5632961 -0.18660958
-0.1912221 -0.72084194 -0.29862684 0.0048612673 -0.41259608 -0.33182496 -0.047062192 0.08735648
0.22149272 -0.25497264 -0.31832987 0.14165139 -0.2633073 -0.1364843 -0.057197224 0.034675326
-0.4065003 -0.11578829 -0.1620094 -0.32339174 0.20838837 -0.10090323 -0.19427438 -0.75041705
-0.53601396 -0.67962635 -0.44417527 -0.12584347 -0.30400413 -0.39362746 -0.4451901 -0.26468205
0.024369322 -0.15044595 -0.6066715 -0.3579142 -0.06441925 -0.13685456 0.38847908 -0.30287302
-0.45206285 -0.21689516 -0.101980016 -0.23461397 -0.2331833 0.18102059 -0.5498645 -0.54121315
-0.5579215 -0.21977922 -0.72966135 -0.6645938 -0.122214794 -0.32286257 -0.17671588 -0.4066317
-0.1944265 -0.06078173 -0.122524574 -0.3808107 -0.27776566 -1.0454949 -0.069017164 0.05439779
-0.51174843 -0.45423508 -0.5108154 -0.555587 -0.20966427 0.059610818 -0.3086556 -0.4193789
-0.031565405 -0.5359406 -0.15348311 -0.07242959 -0.24361463 -0.3603973 -0.9089571 0.07844929
-0.10830809 -0.1545357 0.19863707 -0.49045917 -0.75622493 0.17594133 -1.0000505 -0.7209631
-0.22335742 -0.40339908 -0.64944535 0.08043509 -0.061973274 0.10153292 -0.057308827 0.07550324
-0.025483437 -0.27025944 -0.6367285 -0.22303572 -0.41303614 -0.15796432 -0.20343202 -0.32400727
0.15264533 0.04083324 -0.32009438 -0.68682283 -0.16155261 -0.3507628 -0.04077424 0.028181316
0.21637182 -0.30539438 -0.60463715 -0.24278213 -0.43663839 -0.82211024 -0.3174327 -0.22936854
-0.084893875 -0.03468956 -0.092340566 -0.2524267 -0.31289175 -0.29488382 0.12377677 -0.2964305
-0.1938261 0.058250595 -0.7748097 -0.4126186 -0.7033693 0.094835445 0.13656117 -0.40545616
-0.039922148 -0.019299913 -0.5164019 -0.11027185 -0.24790294 -0.14108951 -0.058186483 -0.09900813

fc2.weight f4 [256, 512]
00000000: 0422 b33c a856 89bd 01b7 af3c 7fa0 9abd
00000010: ea81 4ebd 49b6 263b 7b57 03bd faeb 9fbc
00000020: bfbf 1a3d 02ab b13c f42c 8ebb 767d d23c
00000030: 1a35 28bd a7b4 793c 4a8e 3b3c 5ab0 433d
00000040: 2f3e 2d3d 5395 16bd 3912 263c 1199 893c
00000050: c2a1 1fbd 3c99 16bd 1fbb 913b b6fd 65bb
00000060: 1d73 48bd fa5d a9bc 65cc 85bb 3088 cbbc
00000070: eeac 233d 7cbd 8e3c dc0e 22bc 5292 73bc
00000080: 1067 2e3c 455e 6ebd 52a3 e9bb e775 89bc
00000090: 6dec 2abe 9094 383c 0f00 9cbd 4468 17bb
000000a0: 6e1f 54bc 0217 3c3c 04bb a0bd caa3 82bd
000000b0: 96ba 5cbd 0c29 8ebb 1c90 bcbc e41d 513d
000000c0: d13b b03d f7c6 493d bef4 513c 311b babc
000000d0: 36f7 bfbc 1792 ca3b 21cb 00bd 92a9 1f3d
000000e0: 838d 96bd a3d7 ecbc b08c 9c3c 0ad0 4e3b
000000f0: 06d6 86bd df25 5e3d 4ae4 573d 6113 3abd
00000100: fe90 52bd 7b86 3bbc 19cb 723d 65bb 8f3c
00000110: 09a4 72bd 0e89 9a3c 12e3 a7bc d8c2 67bd
00000120: a4e2 e33c c501 acbc a132 3abd fbc4 bb3d
00000130: f904 eabc e222 82bc c151 82bd 6174 cdbc
00000140: d7d1 08bd 33d1 62bd f788 f0bc a099 ccbc
00000150: 2af0 9d3d 4d92 2cbd 2be0 f5bb acc0 05bc
00000160: 15b5 3d3d 8df5 843c 1b2f a9bc 8853 aebd
00000170: ca8d 94bc b5a8 d0bd 5d87 51bd 8d07 c93c
00000180: 67de c9bd 9881 fbbc fddf a1bc 59d2 2fbd
00000190: dd69 b6bc d390 c5bd 140f 84bd 0273 573c
000001a0: 6062 89bb f421 17bd dc4e 503d 30d1 1b3d
000001b0: b67a 66bc 40dc ae3c fa97 583c bc65 8dbc
000001c0: 77d8 663d 8705 66bd b8de 1cba 6da1 85bc
000001d0: 4ac1 1dbd 2f00 d4bb 18b3 2f3d 6860 c23c
000001e0: c832 00bb 0925 9dbc 05ef d0bd f267 443c
000001f0: 7c9c a9bd 07c6 5ebd 3e2d 53bd 601f 38bc
00000200: de42 d2bd 23a3 15bd 0f83 9b39 1d7e 3fbd
00000210: 67ba 883c 8bdf 16bd f106 31bd 1814 c3bc
00000220: 0660 d33c 986e b039 f493 203d ac32 0f3d
00000230: 96ba dc3c 56ef a3bc 97ba 5cba a497 3ebb
00000240: 69a8 8bbd 36f7 bfbd ec5d 8dbc 7b2a a03b
00000250: d3a6 b3bc b076 aebc 5414 ec3b 1c84 beb9
00000260: 0781 38bc 2c63 f53c f75f 373d 63b3 743d
00000270: ceff 643d bad8 9dbd e964 13bb 98a3 673d
00000280: 42b9 3b3b e9d6 1cbd 3e0f 11bb 7483 513c
00000290: dc32 633c daa9 9dbc 5f8c 493c c895 68bc
000002a0: 6196 39bc edc5 edbc 411b d63c 8489 ec3c
000002b0: 5683 19be adf4 353c f3ef 3bbd 8b84 02bd
000002c0: 4ad9 603c 65a1 77bd e980 00bd deb4 dbbb
000002d0: 2d68 ed3b 95a2 193d 3b18 6cbd 4208 8b3b
000002e0: c8de 38bd 8b75 e1bc b215 62bc 8261 3a3c
000002f0: 962c e63c bb70 04ba de69 363d 2d05 05bd
00000300: cbc1 443d 5014 253c a2d0 1fbb 2968 a63d
00000310: d272 03bd bfa3 adbc 58b1 cabc 9cd3 343c
00000320: 7e9b 22bd ec86 46bd 5c42 2b3d fce5 a03c
00000330: f133 94bd ae0a a4bc a9fc 423d 3a33 0bbd
00000340: 156a 18bd 7a36 9e3d 59dd a6bc dd48 513b
00000350: 6931 8a3d 7e79 b6bc 12fb 6abd f528 e4bb
00000360: 3eb0 523d 28fe f03b 73b1 3bbd 7a36 1e3d
00000370: a503 c9ba 37bd 10bd f3a6 ebbc 7c51 04be
00000380: f71c e6bc 2f5a 9a3c 8976 e8bc 621e 313d
00000390: 64fb bd3c 2e9a 48bd b680 653b 0cb1 853c
000003a0: a55f e43c ee74 c9bc 2c0b 84bd de0f 70bd
000003b0: 0371 82bd 342a 22bd c523 183c 8dc8 213c
000003c0: 9e6c 22bd 6cd6 bcbd 434e ff3c 94dd cfbd
000003d0: c2fd 3abc 858e 64bc df23 893d a26a 943c
000003e0: e94d 9ebd fa13 8bbc 7024 cc3c 8a5d 1e3d
000003f0: f0a2 fa3c fa9d d73b be33 79ba 88e1 24bd
0.021866806 -0.067059815 0.021449568 -0.075501435 -0.050416864 0.002543824 -0.03206585 -0.019521702
0.03778052 0.021687988 -0.004338855 0.02569459 -0.041066267 0.015240825 0.011447499 0.047775604
0.04229563 -0.0367635 0.010136181 0.01679662 -0.038972624 -0.03676723 0.0044473554 -0.003509385
-0.048937906 -0.020674694 -0.0040832036 -0.024845213 0.03995984 0.017424338 -0.009891238 -0.014866428
0.010644689 -0.05819537 -0.007130065 -0.016779853 -0.16691752 0.011265889 -0.07617199 -0.0023102919
-0.012946947 0.011480095 -0.078481704 -0.063788965 -0.05388888 -0.0043383893 -0.023017935 0.051053897
0.08605159 0.049262013 0.012814699 -0.022718044 -0.023433309 0.006181966 -0.03144372 0.038980074
-0.0735121 -0.028911417 0.019110054 0.0031557106 -0.065837905 0.054235335 0.052707948 -0.045428637
-0.051407807 -0.011445637 0.05927572 0.017545411 -0.059238467 0.01886418 -0.020494018 -0.0565823
0.027818032 -0.020996938 -0.04545844 0.091684304 -0.028566824 -0.015885774 -0.063632496 -0.025079908
-0.033403244 -0.05537529 -0.029362185 -0.024975598 0.07711823 -0.04213171 -0.0075035295 -0.008163612
0.04631527 0.016230369 -0.020652344 -0.08512026 -0.018134017 -0.10188428 -0.051154483 0.024539733
-0.09856873 -0.030701444 -0.019760126 -0.042925213 -0.022267276 -0.09646764 -0.064481884 0.013149979
-0.0041926354 -0.036897615 0.050856456 0.038041294 -0.0140673425 0.021345258 0.013219828 -0.017260425
0.05635878 -0.056157615 -0.00059841154 -0.016312325 -0.038514413 -0.0064697484 0.042895406 0.02372761
-0.0019561518 -0.019182699 -0.10201839 0.011987673 -0.082818 -0.054388072 -0.05155682 -0.011237949
-0.1026666 -0.036532532 0.0002966155 -0.04675113 0.016690446 -0.03683428 -0.04321951 -0.023813292
0.025802623 0.00033651735 0.0392036 0.034960434 0.02694444 -0.020011585 -0.0008420138 -0.0029082084
-0.06819231 -0.093733236 -0.0172567 0.0048878766 -0.021930134 -0.021296829 0.0072045717 -0.00036338053
-0.011261231 0.029954515 0.044769254 0.05974139 0.055908017 -0.07707353 -0.0022490567 0.0565525
0.0028644358 -0.03829089 -0.002213433 0.0127876885 0.013867106 -0.01924603 0.0123015335 -0.014195867
-0.011327357 -0.029025042 0.026136043 0.028874166 -0.14991507 0.0111056985 -0.04588313 -0.031864684
0.013723681 -0.060456652 -0.03137294 -0.0067049107 0.0072450847 0.037508566 -0.057640295 0.004242928
-0.045134336 -0.02752187 -0.013799118 0.011375787 0.028097432 -0.00050521985 0.044534557 -0.03247564
0.048036378 0.010075644 -0.002438583 0.08125336 -0.032091923 -0.021196244 -0.024742767 0.01103678
-0.03969907 -0.048468515 0.041811332 0.019640915 -0.072364695 -0.020024624 0.047604237 -0.0339844
-0.037210543 0.07725234 -0.020369219 0.00319343 0.067477055 -0.022274729 -0.057368346 -0.0069628903
0.05143761 0.0073545165 -0.045823526 0.03862617 -0.0015336169 -0.0353367 -0.028766131 -0.12921709
-0.028089983 0.018841831 -0.028376834 0.043241866 0.023191161 -0.048975162 0.0035019345 0.016319774
0.027877638 -0.02459189 -0.06447443 -0.058608882 -0.063692115 -0.03959103 0.009285872 0.009874475
-0.039654367 -0.09220585 0.031165248 -0.101496845 -0.01141304 -0.013949995 0.06696295 0.018117253
-0.07729704 -0.016977299 0.024919719 0.038663425 0.030595273 0.0065801116 -0.00095063064 -0.040254146

fc2.bias f4 [256]
00000000: ee31 f8bd bf61 9ebd 0887 78be e2f2 1dbe
00000010: 78d7 03be ff45 c9bd d6b0 ab3a 62ee 08be
00000020: 752a 37be 5915 01be 2eff 05be 1874 08be
00000030: ed34 38be 5e18 d93d 3fa4 f1bd a25b f3bd
00000040: ecaf ffbd 7aa8 27be 0599 b4bd 4b8e bbbd
00000050: f302 30bc 5cc7 ffbd f211 28be 6c37 50bd
00000060: 35ad a1bd 7876 44be b402 97bd 26fd c1bd
00000070: c27a bbbd 49d7 28be 7949 f2bd 6067 ebbd
00000080: 61de 91bd 6c98 29be 085a 54be c6b6 86bd
00000090: cb07 71be 12dc 88be 2034 e8bd 34d4 85bd
000000a0: c2f7 15be a8f7 cabd 825b 65be ed46 ecbd
000000b0: 5185 5dbe f387 a5bd c6ae 95be 2de2 0abe
000000c0: 6544 f3bd e5ff 0ebe 034f 16be 4ac1 9dbd
000000d0: 7261 9ebd 2cb3 7fbe 857e 13be c905 1dbe
000000e0: 255e 1bbe 9b2e fbbd c0e1 54be 0145 a6bd
000000f0: 9ef2 3cbe 3635 19be f82c bfbd 6742 51be
00000100: 0dfc 2abe 6e1e 06be 1f78 c0bd 8e41 f8bd
00000110: a5f1 04be 5adb 2ebe 8bbd e4bd 08c3 3fbe
00000120: 91d7 89bd d120 24be 88e1 a4bd 61f7 ccbd
00000130: 361b 32be 31ff ccbd a415 46be f4a9 65be
00000140: 80e0 2abe fb63 28be f493 20be 7bdc 30be
00000150: dbca 02be ed86 5abe 8cf8 52be 6fff 2fbe
00000160: 158d 59be 5f86 cabd fdf7 04be 6d3c 48be
00000170: aff8 92bd 7272 94bd baa0 c3bd a597 bebd
00000180: 538c 74bd 2d57 f7bd 5a3e babd 991e 13be
00000190: 8ab3 babd c219 f8be c9d2 d1bc 8b7e 03be
000001a0: b684 0fbe 59f8 80be cce5 24be 3632 8bbe
000001b0: 51a9 40be da87 31be bed2 65bd 61f5 f0bd
000001c0: c562 e2bd 93bd 17be 1b04 dbbd 7d3a 0fbe
000001d0: b3ec a8bd 5844 69be 3452 8dbd d617 36be
000001e0: e6e8 99bd 81bb 00be 213f dfbd dc07 94bd
000001f0: 822c 3ebe b75c a4bd 367c 7bbe ebe2 c8bd
00000200: 0273 d7bd 2e7c 06be 01fa 00be 05f3 c5bd
00000210: 2237 0bbe 7046 b8bd 93d2 d8bd 257d 2ebd
00000220: 1bb7 eabd df17 25be a907 babd 8195 31be
00000230: 9acb 61be 8377 28be bf4d 91bd e414 36be
00000240: 4fe1 0abe 5549 62bd 40fa f0bd c6e0 0abe
00000250: d294 f4bd d0d8 68be 1666 eebd 4bde d8bd
00000260: d356 96bd 3354 e2bd f072 6abe fdce abbd
00000270: b006 e9bd 655d 2fbe e754 24be db57 31be
00000280: 8ae2 4bbe bdb0 62be 99aa 00be d98a 46be
00000290: fff9 28be b3d7 15be a06b 9bbd 0268 e0bd
000002a0: d58f bebd 368a b4bd dd7a 02be d245 f2bd
000002b0: f291 e03d 462f 40be 818e 1dbe 5e69 0fbe
000002c0: 7e48 afbd 40a4 d4bd f6f9 abbd 1394 d8bd
000002d0: bfe5 87be 5cf9 1ebe 76ed 86bd 8a64 47be
000002e0: fe1e c9bd 40a0 97bd 91c5 18be f1dd edbd
000002f0: f797 11be 8944 50be ec3d f6bd 7b0c fdbd
00000300: c219 a8bd 6126 b0bd 8e77 883d bafd d2bd
00000310: 59fb e8bd b2f2 a7bd 1e7b 47be a35e 96bd
00000320: 9ef4 99bd 906a 69bd 7721 b7bd 7bf4 09be
00000330: befe a7be 7108 dfbd 879e 53be 6317 95be
00000340: 6f97 74be 2053 3fbe 7ea3 06be 49b9 c9bd
00000350: 6b30 03be 55f3 37be 17ad 1ebe baaa 05be
00000360: b519 adbd 4524 90be 2114 7d3d 01ef 09be
00000370: 6874 41be 26fa e1bd 68a1 c93d 8cc7 24bd
00000380: 2714 13be 7312 4fbe 2fb9 21be 9222 0ebe
00000390: e361 35be 75f9 84bd 389c 4cbe 21b8 f2bd
000003a0: ff50 24be b0af 61be fec0 93be 1116 eebc
000003b0: 16a3 33be 7da3 f6bd 0d07 a2bd 7c9c 76be
000003c0: 8e3f a3bd 347b c6bd 5c58 efbd de69 b6bd
000003d0: c168 6cbe 80bd 89be 7d67 61be 27e3 22be
000003e0: e731 6dbe be5a 62be fc46 10bd e24e 0bbe
000003f0: 58f4 9bbd e859 1cbe 0560 23be 6e63 acbd
-0.12118898 -0.07733487 -0.2427026 -0.15424684 -0.12875164 -0.09827804 0.0013098966 -0.13372186
-0.1788729 -0.126058 -0.13085625 -0.13325536 -0.1798894 0.10600351 -0.117989056 -0.11882712
-0.12484726 -0.16372862 -0.08818249 -0.091579996 -0.010742891 -0.12489197 -0.16413096 -0.050834104
-0.07894365 -0.19185817 -0.073735625 -0.09472112 -0.091542736 -0.16488375 -0.1183042 -0.114943266
-0.071224935 -0.1656205 -0.20737469 -0.0657783 -0.23538129 -0.267304 -0.11338067 -0.06534615
-0.14645293 -0.09910518 -0.22398189 -0.115369655 -0.21632887 -0.08082571 -0.29234904 -0.13562842
-0.118782796 -0.13964804 -0.14678578 -0.077028826 -0.0773343 -0.24970692 -0.14403732 -0.15334238
-0.15172632 -0.12264749 -0.20789242 -0.0811863 -0.18451926 -0.14961705 -0.09334749 -0.20435487
-0.16697712 -0.13097546 -0.09397911 -0.121218786 -0.12982805 -0.17075863 -0.11168965 -0.18726742
-0.06730569 -0.16028143 -0.08050829 -0.10008121 -0.17393193 -0.100096114 -0.19344193 -0.22428113
-0.16687202 -0.1644439 -0.1568144 -0.17271607 -0.12772696 -0.21340533 -0.20602626 -0.17187284
-0.21245225 -0.098889105 -0.12985225 -0.195543 -0.07176339 -0.07248391 -0.095521405 -0.09306268
-0.059704136 -0.12077174 -0.09093924 -0.14367141 -0.091162756 -0.48457152 -0.025613206 -0.12841241
-0.14015469 -0.25189474 -0.16103286 -0.27186745 -0.18814589 -0.1733698 -0.056109183 -0.11765552
-0.11053995 -0.1481841 -0.106941424 -0.13987155 -0.08248272 -0.22779977 -0.069004446 -0.1778253
-0.07515125 -0.12571527 -0.10900713 -0.072280616 -0.18571666 -0.080254965 -0.24559101 -0.09808906
-0.10519983 -0.13133308 -0.12595369 -0.09665493 -0.1359525 -0.0899781 -0.10587039 -0.042599816
-0.11460706 -0.16122387 -0.09083492 -0.17342187 -0.22050324 -0.1645184 -0.07094907 -0.17781407
-0.13562511 -0.055245716 -0.117664814 -0.13562307 -0.11942448 -0.22738957 -0.11640565 -0.10589274
-0.07340779 -0.11051216 -0.22895408 -0.08389089 -0.11378229 -0.17125471 -0.16048013 -0.1731867
-0.19910637 -0.22137733 -0.12565078 -0.19388904 -0.16501616 -0.14633064 -0.07588887 -0.10957338
-0.093047775 -0.08815424 -0.12742181 -0.118297234 0.10965337 -0.18768033 -0.15386392 -0.14005038
-0.08558749 -0.10382891 -0.08397286 -0.10575118 -0.2654247 -0.1552481 -0.06588261 -0.19471946
-0.098203644 -0.07403612 -0.14919116 -0.116145976 -0.14218126 -0.20338644 -0.120235294 -0.12355896
-0.08208038 -0.0860107 0.06663428 -0.10302301 -0.11376066 -0.08200587 -0.19480559 -0.07342269
-0.0751736 -0.05698639 -0.0894193 -0.13472168 -0.3281154 -0.10890282 -0.20665942 -0.29119405
-0.23885892 -0.18684053 -0.13148305 -0.098497935 -0.12811439 -0.17963918 -0.15495716 -0.13053408
-0.08452169 -0.2815267 0.061786775 -0.13470079 -0.18892062 -0.1103404 0.09845239 -0.040229365
-0.14363156 -0.20221882 -0.15793298 -0.13880375 -0.17713122 -0.06492893 -0.19981468 -0.11851526
-0.16046523 -0.22039676 -0.2885818 -0.029063256 -0.17542681 -0.12042902 -0.07911501 -0.24083132
-0.079711065 -0.09691468 -0.11686775 -0.08906911 -0.23086835 -0.2690239 -0.22012134 -0.15906964
-0.23163567 -0.22104928 -0.035223946 -0.1360431 -0.07614964 -0.15268672 -0.15954597 -0.08417402

fc3.weight f4 [1, 256]
00000000: bdd1 973c 1c01 00bd 9dab 083d bee9 14bd
00000010: 5679 21bd 3c09 02bd 121c 593c 223e 0abd
00000020: 6276 9bbc 4c05 3d3c 0b40 83ba a17b 0abc
00000030: a3dc 003d a984 443c 9b3b fcbc cd91 853b
00000040: 54ab 043b 0b47 503b c436 e33b 0a48 573c
00000050: b7f4 7c3c 779e b73b 76c2 78bb 7382 033b
00000060: f886 1bbc 1e1e 0abd c6c3 523c 94db cfbc
00000070: b541 be3b 45bc af3c 7922 f03c cd83 c33c
00000080: 5eeb 923c f897 f93c 16ff 5bbb e982 55ba
00000090: c309 1cbd db43 bfbc 4f54 53bc bed2 653c
000000a0: af0c d63c 3a1e 6bbb db54 ab3c f5ba dbbc
000000b0: 19b0 88bd e0fb f63c c695 09bd 5990 283d
000000c0: 3023 c03c 77bc f93b ac23 ee3b f2aa 15bb
000000d0: 0d12 19bc 8eb5 21bd 0e17 32bd 4f32 e7ba
000000e0: 3b48 fbbc e4e6 13bd 5f1c 1a3d 3f3d 423a
000000f0: 47d3 babc de26 e5bb 79dd 483c 1b14 413d
00000100: de98 6e3c cd8b 863b a96e 4cbb d4f1 58bc
00000110: dbaa eb3b 1766 5d3d 24e2 aabc 9f04 f9bd
00000120: cd2c c8ba 474c fdbc 167a 07bc 2383 7e3b
00000130: e7e1 e1bc 2126 95bc d329 b3ba 4a72 f53c
00000140: 2a11 153d 2f6c 5e3a 7145 31b9 2fc0 043d
00000150: 618b 42bc 7494 acbc de0e a83c 7620 80bd
00000160: 2cfa 8abd df7f 24bc cc7b f0b9 4479 0dbc
00000170: 4123 03bd cd91 05bb 530d 1f3c 7b6a cebb
00000180: 78a9 aeb9 826c b1bb e86c e7ba fcf0 97bb
00000190: a226 3cbb 2e49 c43c 5a7e 7c3c ff18 ca3b
000001a0: bcdc 0e3c 8938 c0bc 9d27 d53c 8c68 d83c
000001b0: 81d1 f03c 02cd 1dbc 552a 5a3b ffac c5bc
000001c0: 2dde d03c d807 98bb 9298 96bb ada0 eeba
000001d0: 477f 533b 8616 3abd f316 a03b e3eb f5ba
000001e0: cb3e 453c 1c41 6d3c 940a b3bb 7170 163d
000001f0: d0fe b53c 02ac 823c afcd e03c eff1 cf3c
00000200: d4e9 04bb 7d90 2b3b c1c5 603b 9f83 20bd
00000210: 09b3 133b 738f 4f3a 3e3e c9bb 5586 043d
00000220: bd36 d03c 7b79 0cbd dd80 2bbc 3a1f e2bc
00000230: f32b 17bd 4557 213c 6d8c 653b a0cd a93c
00000240: 3e7b b73c 0223 01bd 46ef 873a 6dcf 653d
00000250: 66f2 f43b 57cb ee3c 89e6 9cbc d063 9bbb
00000260: fcf6 96bb f119 fc3a cdce 193d 1874 083c
00000270: 1910 ff3c 3d16 823c 2cd3 293c 3b36 eb3c
00000280: 320e e3bc da0b 5b3c bf89 b83b 8123 463d
00000290: 83cb 6abd 9e4e 21bd de08 a33b bd6a 853c
000002a0: 08cf 80ba 108c fc3c a8de a03c 9ec7 d7bc
000002b0: a9a9 afbc d299 903d 8791 87bb f5cc 48bc
000002c0: 8194 07bd 52d5 44bb f343 033a 4430 bdba
000002d0: 8ce5 e83c 7f73 ab3b 4718 41bc 3113 9ebb
000002e0: e3b7 453c 16de 02bd f1a4 d5bc ea66 70bc
000002f0: f4b1 81bb e08a 0ebd eb68 04bc 645a 8ebc
00000300: 8fb2 7aba 0417 d5bc bae3 af3c 1685 d33c
00000310: 649a aabb 6ca9 59bb b054 27bd b5e1 f83b
00000320: 6190 ba3b e6a6 8d3c 6d9b 86bb 234f bfbc
00000330: a099 cdbc e56d 6ebb 681b 1c3c 56ae c9bc
00000340: 3354 443d e05c 25bd fd16 55bc 2137 dc3b
00000350: 3238 f53b 4252 cd3c 92a4 0dbd 4e1d 013d
00000360: 1fa4 2abd 1ae3 b9bd fe53 703c 4f7b b7bb
00000370: 5d7d c1bc 232f efbc 52fd 9abc 2866 08bd
00000380: 31bc a53c 9d72 21bb 0580 103d a9b6 833c
00000390: aa57 c73c 826c 313c 2ab7 dc3c 70b2 b93c
000003a0: 40ff 683b 6136 c33c eb9e 123d 8dc3 c23c
000003b0: 66ae 1c3d baf4 8a39 82a4 0bbb 0cf2 a9bc
000003c0: fa2b ceb9 26a1 87b9 22e8 a03c 834f bdbb
000003d0: 7871 013d 9303 f5bc 4383 54bd fb19 0ebd
000003e0: 6d53 30bd 4130 163d 7c9a 923c fe21 493d
000003f0: b6b2 c03b d9ba 933b 3082 2fbd 2548 c8bb
0.018532628 -0.031251058 0.03336679 -0.036355726 -0.039422356 -0.031747088 0.013251321 -0.03375066
-0.018977348 0.011536907 -0.0010013593 -0.008452327 0.031460416 0.011994519 -0.03079014 0.0040762187
0.002024372 0.0031780626 0.006934019 0.013139734 0.015439204 0.0056036073 -0.0037957705 0.0020066767
-0.009492628 -0.03372013 0.012864059 -0.025373258 0.0058061727 0.021452079 0.029313313 0.023866558
0.017934497 0.030467972 -0.003356879 -0.00081448123 -0.038095247 -0.023347786 -0.012898519 0.014027296
0.026129095 -0.003587617 0.020914486 -0.026822546 -0.06674213 0.0301494 -0.0335901 0.041153286
0.023454279 0.0076213437 0.007267436 -0.0022837487 -0.009342683 -0.039479785 -0.043479018 -0.0017638894
-0.03067409 -0.036108866 0.037624713 0.0007409639 -0.022805823 -0.0069931587 0.012259834 0.047138315
0.014562814 0.004106021 -0.0031193888 -0.01324125 0.0071919984 0.05405244 -0.020859785 -0.121590845
-0.0015272141 -0.030920161 -0.008268854 0.0038835488 -0.027573539 -0.018206658 -0.0013669081 0.029961724
0.036393322 0.00084847485 -0.00016905904 0.032409843 -0.011874051 -0.021066882 0.020514902 -0.062561914
-0.06785998 -0.0100402525 -0.00045868603 -0.008634869 -0.032016043 -0.0020381093 0.009707767 -0.0062993146
-0.0003331413 -0.0054145465 -0.0017656358 -0.004636882 -0.002870955 0.023960676 0.015410984 0.0061675305
0.008719619 -0.023464458 0.026019866 0.02641704 0.029396774 -0.009631397 0.0033289392 -0.024130343
0.025496567 -0.004639607 -0.0045958245 -0.0018205844 0.0032271908 -0.045431636 0.0048855483 -0.0018762316
0.012038897 0.014480855 -0.0054639075 0.036728326 0.02221623 0.01595116 0.027441828 0.025383918
-0.0020280974 0.002617865 0.0034297558 -0.039188024 0.0022537133 0.0007917799 -0.006141453 0.03235467
0.025416726 -0.03429554 -0.010467735 -0.02760278 -0.036907148 0.009847467 0.0035026327 0.020727932
0.022397634 -0.031527527 0.0010370992 0.05610602 0.007475185 0.029149694 -0.019152896 -0.004742123
-0.0046070796 0.0019233805 0.037550736 0.00832846 0.031135606 0.015879745 0.010365289 0.028712383
-0.02771673 0.013369525 0.005631655 0.048373703 -0.05732299 -0.039381616 0.0049754223 0.016286248
-0.0009827325 0.030828506 0.01963742 -0.026340302 -0.021443205 0.07060589 -0.0041372213 -0.012255897
-0.03310061 -0.0030034375 0.00050073786 -0.001443394 0.028429769 0.005232274 -0.011785573 -0.004824065
0.012067768 -0.03195008 -0.026079627 -0.014672974 -0.0039579812 -0.03480041 -0.008081655 -0.017377086
-0.00095633505 -0.026011951 0.021470893 0.025820296 -0.005206393 -0.0033212556 -0.04085225 0.0075952657
0.005693481 0.017291497 -0.0041078837 -0.023353165 -0.025097668 -0.003638142 0.0095280185 -0.024619263
0.04793186 -0.040371776 -0.013005969 0.006720439 0.0074835056 0.025063638 -0.034580775 0.031522088
-0.041660424 -0.09076519 0.014668463 -0.0055994163 -0.023619348 -0.029197281 -0.01891962 -0.03330055
0.020231338 -0.0024634965 0.03527834 0.01607831 0.024333794 0.010829093 0.026942808 0.022668093
0.0035552531 0.02382964 0.035796087 0.023774887 0.038252257 0.00026503747 -0.002130777 -0.0207453
-0.00039324147 -0.00025869271 0.01964194 -0.005777301 0.031602353 -0.02990893 -0.051882993 -0.034692746
-0.04304831 0.036667112 0.01789593 0.049104683 0.005880679 0.004508358 -0.042848766 -0.006112116

bn1.weight f4 [512]
00000000: d354 073e 63cb 6b3e 98a3 933e ceaf 4c3e
00000010: ced9 a03e b6c0 173e 7e94 d53d 2025 dd3d
00000020: cbf7 093e 3df3 5c3e 6eed 503e ada9 283e
00000030: 8062 163e 5c9d 183f 2c1a 103e 0d88 073e
00000040: e778 9fb9 3d4a 2f3e f88c 2e3e 0b8d d93d
00000050: 09e4 0d3e 6fda 8c3e 3f85 593e b8b4 0a3e
00000060: 519b fd3d c023 e83d 246f ff3e 9ed4 2c3e
00000070: da87 813e eec3 933e e3cd 563f 8cc8 843e
00000080: e8d8 e83d e056 093f 52bf a33e 7227 343f
00000090: da4a 0d3e a543 b33d b334 0c3e f5b3 f83d
000000a0: cb60 fc3d 9ec1 653e bd08 843e 4c02 263e
000000b0: 4570 da3d 12ad 113e 9458 813e 5e90 6f3e
000000c0: e29e 713f 9d0f d63d a937 8c3e 4276 233e
000000d0: 2718 a8ba 8d7e 853e 4bed fc3d 7c36 573e
000000e0: 4ec5 123e 728b 3a3e 9ee0 513e 727a 333e
000000f0: 000a 743e b9e8 893e 507b b43e 2f2c 173e
00000100: 19a8 81b9 b2ad f43d 148b ee3d 93b3 a73d
00000110: 2f0f 513f 260c 5b3e f43d 263e d458 063e
00000120: 42d9 203e 566c 543e 25ff 103f c94e bd3d
00000130: b5f0 453f a448 893e 0215 1f3e e28a 3d3e
00000140: 632f ed3d 2b2e 503e b5de 053f 15f9 f33d
00000150: 412b de3d 3f89 6d3e 9029 563f 4d87 4a3e
00000160: ab77 ab3d 466c 443e a917 843e 9f82 7d3e
00000170: 90d3 453e df68 373e 0067 243e 841d 273e
00000180: 5f4a 2f3e c526 163e 76fb 633e 7888 363e
00000190: 10e5 8d3e 1c04 183e 140a 4e3e dd62 333e
000001a0: 17e2 963e f7a7 7f3a 6d21 153e 846c 243e
000001b0: 6172 9b3e b01c 083e 94b7 4c3e 3239 513e
000001c0: c16b 533e 1352 273e a133 003f f003 eb3b
000001d0: e083 733e 38c1 e23d 33c1 643e cd74 353a
000001e0: 339a a73e cf33 f33d 75b7 eb3d 69ed 233e
000001f0: 3028 323e 67e1 ef3e 80fa d339 21d8 623e
00000200: ec0f 953e e45d 203e 27c6 293e 2eff 9c3d
00000210: 0e07 3d3e 69d2 553e 2dfd 2e3e 02f8 1d3e
00000220: e696 2c3e e3b2 203e cb88 bc3e 404e e53d
00000230: 2582 083e 108f 913e 8df2 c63d 4964 283e
00000240: 954e d63d 9a15 f63c 94a5 863d b5a8 a63e
00000250: ad78 053e 9e94 2e3e 94bc 183e 100c 323e
00000260: e636 803e 1944 473e b962 d83d c3ee f13d
00000270: f7d6 5a3e 5ccf 963e a29c 6f3e a02d 483e
00000280: 680e 7d3e fd12 293e 7d3d e03d 582e ee3d
00000290: 48f5 543e e349 7f3e c4e8 de3d 596c 2e3e
000002a0: fd7b ae3d 9b56 6e3e 496d 453e bef8 263d
000002b0: 9944 c33d 9a44 dc3e 0db6 093e 3d30 f93d
000002c0: 2b82 b03e a854 9b3d 0877 313e a203 e03d
000002d0: d8f7 4d3e c836 853e ede1 233e 3d55 aa3e
000002e0: afd6 cb3d fe3d cb3d 4048 f83d d199 8a3e
000002f0: 651f 893e bd57 163e 4530 933e 3c47 303e
00000300: b212 053e 42bb be3d 3a27 6d3e 205d 0d3e
00000310: 42e1 b23e 2f34 9a3e 6312 263f 6944 863e
00000320: 78dc 633e ee61 1f3e d4c4 343e 0ea7 163f
00000330: b71f 203f b640 933e 6d0e 453e 7eae 92b9
00000340: 7f05 013e 1b4d 3bbe 6a9c 203e 8f63 0c3e
00000350: 1a01 4f3e c0b5 603e 58d7 dc3d 304a a33d
00000360: 4a2f bc3e 420d 403e ea34 953e 8025 8a3e
00000370: 798f 4c3e ee79 403e 93e3 123e 3249 9e3e
00000380: 50b3 903e d648 183e c7ff 8a3e 38c5 213e
00000390: a865 413e 9b6e 363e eab1 cb3d 6840 3d3e
000003a0: 428c 113e 8ead 0e3e 7eae 513e 94be a43e
000003b0: 5753 5d3e 6c51 283e 2f62 5e3e 831d 2d3e
000003c0: 5bc3 2b3e 5850 ee39 9baf bb3e c9c3 1d3e
000003d0: 734f 913e 6c06 593e cbd9 d83d fd76 fd3e
000003e0: b0c0 eb3d 6e76 b73e 040e 1a3e bd2c 473e
000003f0: af59 3b3e 62c9 4f3e bdec 233e ed53 383e
0.13215952 0.23026805 0.2883575 0.19988939 0.31416172 0.14819607 0.10428713 0.10798097
0.13473432 0.21577163 0.20403072 0.16470976 0.14686012 0.5961511 0.14072484 0.13235493
-0.00030416923 0.17118163 0.17045963 0.10622605 0.1385652 0.27510402 0.21242236 0.13545501
0.1238314 0.11334944 0.4988948 0.16877982 0.2529896 0.2886042 0.8390791 0.25934255
0.113694966 0.53648186 0.31981903 0.7037269 0.13798085 0.087531365 0.13691978 0.12143699
0.12323149 0.2243714 0.25787917 0.16211814 0.10665945 0.14226177 0.25262892 0.23394915
0.9438306 0.10452197 0.27386215 0.1596308 -0.0012824581 0.26073113 0.123499475 0.21016878
0.14333078 0.18217257 0.20495841 0.17527178 0.2383194 0.26935366 0.3525033 0.14762948
-0.0002473004 0.11947192 0.11647621 0.08188548 0.81663793 0.21391353 0.1623457 0.13119823
0.15707877 0.20744452 0.5663932 0.09243543 0.77320415 0.26813233 0.15535358 0.18510011
0.11581304 0.20330112 0.5229295 0.11912743 0.10848094 0.23196886 0.8365717 0.19778176
0.08372434 0.19181928 0.257993 0.24756859 0.19318986 0.17911099 0.16054916 0.16319853
0.17118214 0.14663227 0.22263893 0.17825496 0.27713823 0.14845318 0.20121032 0.17518182
0.29469368 0.0009752507 0.14563532 0.1605702 0.30360702 0.13292193 0.19991904 0.20431975
0.20646574 0.16339903 0.5007878 0.0071721002 0.23780775 0.1107201 0.22339325 0.0006922007
0.32734832 0.11875116 0.11509601 0.16008534 0.17398143 0.46851656 0.00040431693 0.22152759
0.2911371 0.15660816 0.16579495 0.07665859 0.18459722 0.20881046 0.17088766 0.15426639
0.16854438 0.1569324 0.36823115 0.11196566 0.13330896 0.2842946 0.09714232 0.16444506
0.10464207 0.030039597 0.0657455 0.32550588 0.13034315 0.1704888 0.14915687 0.17387414
0.25041884 0.19459571 0.10565705 0.11813118 0.21371065 0.29455078 0.23399594 0.19548655
0.24712527 0.1651115 0.10949228 0.11629933 0.20796692 0.2493053 0.1088424 0.17033519
0.08519743 0.23275225 0.1927997 0.040764563 0.09534568 0.4302109 0.13448353 0.12167404
0.3447431 0.07584506 0.17330563 0.10938193 0.20114076 0.26018357 0.16004153 0.33268157
0.09953057 0.099239334 0.121231556 0.27070478 0.26781765 0.14681907 0.28747764 0.17214674
0.12995413 0.0931306 0.23159495 0.13805056 0.34937483 0.30117938 0.64871806 0.26224068
0.22252071 0.15564701 0.17653209 0.58848655 0.62548393 0.28760308 0.19243784 -0.00027977297
0.12599753 -0.18291132 0.15684667 0.13709854 0.20215264 0.21944332 0.10783261 0.079731345
0.3675483 0.18755057 0.29141933 0.26981735 0.19976605 0.18796512 0.14344625 0.3091522
0.28261805 0.14871535 0.27148268 0.15797889 0.18886435 0.1781563 0.09946044 0.184816
0.1421366 0.13933393 0.2047672 0.3217665 0.21613823 0.1643731 0.21717142 0.16905789
0.16773741 0.00045454758 0.36657414 0.15406717 0.28380927 0.21193856 0.10588416 0.49504843
0.115113616 0.35832542 0.15044409 0.1945066 0.1829593 0.20291665 0.16008277 0.18000765

bn1.bias f4 [512]
00000000: 9b20 3cbb 9ab0 803d 38bf 923d 94ff d63d
00000010: 0097 063e 2bf6 693d 271f d33c 471b 343c
00000020: 11cf 4b3d 5539 8d3d 79a8 6f3d dd52 443c
00000030: 3671 813d 0e3e 133e 3209 b73d 7fda f43c
00000040: f511 d0b8 bc52 903d 7be9 213d cf9c 7e3c
00000050: e24b 473d f5c9 ad3d b0f2 793d 40c2 71bb
00000060: 8b32 1a3d e5d9 533c dd62 ec3d 41db 693d
00000070: e1ca 6c3d 4b19 003e 21f2 86bd d55e d23d
00000080: 788b 8c3c 9e89 693e cba3 273e 592f f53d
00000090: cde4 9b3d b23d 383c 4826 813d fef1 e63c
000000a0: 5d71 483d 1821 d73d 8970 e53d f7d4 593d
000000b0: 9a11 f93c 902b 563d a487 173e 4d43 d93d
000000c0: c960 bf3e 1229 5fbd fbe3 c23d 5ddf 1c3d
000000d0: 4f01 36b9 0895 973d 8afe 1e3d 4f17 853d
000000e0: da44 5f3d 0ae9 703d a7dd 7a3d b7a0 913d
000000f0: a2f5 e03d a627 b43d 028d 653d 66d2 ff3c
00000100: 9301 35b8 e916 b13c e498 d63b 8960 8c3d
00000110: f2fc 143e e5d5 7b3d e661 bd3d 9f73 493d
00000120: 392b 353d 0037 9c3d ab19 1c3e 78b9 913b
00000130: 849c 723e 4a75 423d b47b 513d 3e57 193d
00000140: 8e64 113d 09bd 703d 9b75 363e 88e3 253d
00000150: 02ac a53c 1a41 913d 6a33 2a3b 30fb 943d
00000160: 683a c13c c592 833d d36f b23d 35d9 d83d
00000170: 56af a33d 3c58 a83d 2cd5 7d3d 8167 c73c
00000180: 064c 0b3e bc86 373d 62de 913d 28fb 9c3d
00000190: 3748 183e 5896 103d 324e cb3d 9ed1 163d
000001a0: 7466 b83d 8f36 353a b4e3 153d 5031 443d
000001b0: 99d4 e23d 6be7 723c f20e b53d 68cc 7e3d
000001c0: 5de6 803d f8f0 883d e753 dc3d e677 593a
000001d0: e1d3 a93d 0f03 e33c cf75 8e3d 2d78 f9b5
000001e0: 7d90 003e 0fcc f43c a4c1 3a3d 3dd7 f6bc
000001f0: 646b 403d fa84 223e 9408 1138 f04d 923d
00000200: 7b02 d83d 0829 0c3d 95a9 0e3d dfaf fa3a
00000210: 8f66 8f3d 2cfb a13d ae08 153d da1c 4f3d
00000220: 623d 503d 5421 5c3d 9311 123e 4426 f53c
00000230: 4423 033d aaaf 963d 85e0 1f3d d64e 7e3d
00000240: 9d22 ad3c b26b 953e fbe9 013d c55b 9d3d
00000250: 7230 543d 6ef8 823d 9936 ca3c f33c 6f3d
00000260: e097 aa3d 837f 873d 947d 4e3c 658b 053d
00000270: a4da 923d 7a70 803d 7581 5d3d 8a40 6ebb
00000280: edbc ee3d 1c9f 843d c798 6d3c 80b8 d43c
00000290: a64b 573d 04bb b53d 9ed6 e8bc 99a2 3d3d
000002a0: ccac cf3c bf56 cf3d 0644 d83d f624 b4bd
000002b0: 0918 883e 203d fd3d 4ddd fe3c f12a d23c
000002c0: af4a e03d 20a2 f93c 079e 833d e8ae 053d
000002d0: 8946 8e3d 1095 bc3d db29 7d3d 1869 fa3d
000002e0: 9f7c 943c 64cd 553c 164a 393d 8ad3 a63d
000002f0: 9475 af3d e9cf cd3c 3ffe 1b3e 1322 0c3d
00000300: 6274 e83c d1ab fe3c ed39 933d b2b4 373d
00000310: 83c5 113e f2c4 a73d 2140 7a3d fc10 2c3e
00000320: 8cc4 d03d 00e5 423d 7cb2 0ebd f284 bc3d
00000330: d345 0a3e d29e 943d cabd d93c 0555 4437
00000340: 1f6e f73c 31bd 12bd 5e1a 0a3e ecc7 db3c
00000350: 0f5b b13d fd84 6d3d a98a 183d 541e 853c
00000360: 733b df3d 998b 273d c3af 043e 4dad 163e
00000370: b46c 3b3d 39b6 4d3d e525 2e3d 5d4d a93d
00000380: 4103 8a3d b173 133d c985 5d3d a8d4 56bb
00000390: a9f4 823d 3cb7 7a3d a4ce 553c 09a6 da3d
000003a0: 1187 1abc ea0f 5b3d a389 6f3d 7381 c03d
000003b0: c652 8d3d f774 553d 43bb 8b3d 7934 433d
000003c0: e2a0 183d c6cb 2b3a 5870 2e3e fd20 273d
000003d0: 9583 ba3d 3ec8 943d 1f01 9ebd b5e1 503e
000003e0: af53 1c3d cf19 aa3d c8c3 be3c 0587 2c3d
000003f0: 41db 203d abe9 6c3d b921 343d 2d7e 7d3d
-0.0028705958 0.06283684 0.07165378 0.104979664 0.1314354 0.05711953 0.02577169 0.010992832
0.04975802 0.06895701 0.058510277 0.011982647 0.063204214 0.1437914 0.08937301 0.029889343
-9.921558e-05 0.0704703 0.039529305 0.015540316 0.048656352 0.08485786 0.06102246 -0.0036889464
0.037645858 0.012930368 0.11542294 0.057093862 0.057810668 0.12509649 -0.06589151 0.10271994
0.017156348 0.22806403 0.16371076 0.119719215 0.07612 0.011245178 0.0630613 0.028191563
0.048936237 0.10504359 0.11203105 0.053181615 0.0304039 0.05228764 0.14797837 0.1060854
0.3737853 -0.054482527 0.0951614 0.038298953 -0.0001735736 0.07401472 0.038816966 0.064985864
0.05450902 0.058815993 0.06124654 0.07110732 0.10984351 0.08796625 0.05604268 0.031228255
-4.315523e-05 0.02161737 0.0065489877 0.0685435 0.14549616 0.061483283 0.09247188 0.04918253
0.044230673 0.07627678 0.15244167 0.0044471584 0.23692518 0.047475137 0.051143363 0.037436716
0.035496287 0.058774028 0.178183 0.040500194 0.020223621 0.07092495 0.0025970587 0.07274473
0.02358742 0.064244784 0.08712735 0.10588304 0.07992427 0.08219954 0.061970875 0.024341347
0.1360322 0.044806227 0.07122494 0.07665092 0.14871298 0.03529963 0.09927024 0.036821
0.090039164 0.0006912732 0.036594108 0.04789859 0.11075706 0.014825682 0.08840741 0.062206656
0.06293938 0.06686586 0.107581906 0.00082957593 0.08292366 0.02771142 0.06956064 -1.8586921e-06
0.12555118 0.029882459 0.045594826 -0.03013193 0.046977416 0.15871039 3.4578683e-05 0.07143772
0.10547348 0.034218818 0.034829695 0.00191259 0.070019834 0.07909235 0.03638523 0.050564624
0.05083979 0.05374272 0.14264517 0.029925473 0.032016054 0.07357724 0.039032478 0.062086903
0.021134669 0.29183728 0.03171728 0.07683519 0.051804014 0.063950405 0.024684237 0.058407735
0.08329749 0.06616118 0.012603182 0.03260364 0.07170609 0.06271453 0.054078538 -0.0036354386
0.116571285 0.0647566 0.014501757 0.025966883 0.05256238 0.08873561 -0.02842265 0.046297643
0.02535095 0.101239674 0.105598494 -0.08796112 0.26580837 0.12365174 0.031111384 0.025655242
0.10951745 0.030472815 0.06426626 0.032637507 0.06947047 0.09208119 0.061807495 0.12227076
0.01812583 0.013049457 0.04523667 0.081458166 0.08567348 0.025123553 0.15233706 0.034212183
0.028375808 0.031087788 0.07188783 0.04485006 0.14235501 0.08191861 0.061096314 0.16803354
0.10193738 0.047581673 -0.034838185 0.09205045 0.13503198 0.07256855 0.026579756 1.17023055e-05
0.030203877 -0.03582496 0.13486621 0.026828729 0.08659946 0.057988156 0.03724161 0.016249813
0.10900011 0.040904615 0.12957673 0.14714547 0.045757964 0.05022261 0.042516608 0.08266709
0.06738902 0.035999004 0.054082666 -0.0032780562 0.063943215 0.061209902 0.013049755 0.106762
-0.009431616 0.053481974 0.05848087 0.093996905 0.069005534 0.0521135 0.06822827 0.047657464
0.037262805 0.0006553497 0.17035043 0.040802944 0.091071285 0.07264756 -0.077150576 0.203986
0.038165744 0.08305704 0.023286715 0.042120952 0.039271597 0.05784003 0.043977473 0.06188791

bn1.running_mean f4 [512]
00000000: d864 2c40 40e5 a43f 6842 d83e 8030 6040
00000010: 67d7 3540 8e11 8c3f 64ec 1140 7c56 833e
00000020: cb36 3240 d983 963f ca56 393f 1020 f840
00000030: f154 803f 4e5a 4d41 426c 0340 d5ba d240
00000040: 3a55 4641 dee2 3b40 9d59 5b3f 7600 0a40
00000050: df7c a13f 5b88 283f ff6b be3f fc74 9a3f
00000060: 160b 123f 1b92 103e d6ad f73d d48f 0240
00000070: dfaf 123f 59ba 6c3f 9e38 da41 2420 923f
00000080: 6eab 1440 6d83 763f 2ff8 fc3f 976f 2c3e
00000090: 05cf 9d3f 91ac b13f 3824 ad40 b347 c63e
000000a0: 5d66 3040 fa0d dc3f b59c c33f 76d1 2340
000000b0: 8f33 f53f 9ec5 1a3f e7d6 8440 6881 1840
000000c0: 3195 5d3f 099a a63f 0f2f 0640 6d84 8a3f
000000d0: 3019 1540 091f 953f 5649 0940 f22b 613f
000000e0: cea2 3440 3702 9a3f 7e40 4f40 d8af e13f
000000f0: 6918 2240 af70 db3f aa74 323e 0599 ff3e
00000100: aa81 2e3f 4ef3 2440 1def 673e 60ac 9341
00000110: a33f 3640 be64 ee3e 8f25 a840 76fc e440
00000120: 8868 bc3e bb83 e93f 02fa 2a40 a188 0c3f
00000130: 10e7 1f3f bd15 373e 6eca 0440 4402 2f3f
00000140: 59f9 df3f fb1c d83f 0eeb 493f 693a 7c40
00000150: c28c c23f 7876 c93f 2f3a ff40 e612 1f40
00000160: 7c54 8240 7b0e 8d3f a0c9 1140 0426 2040
00000170: 5d0b 773f 3701 2b40 be89 b23f cddd 7f3e
00000180: abdb 2940 9fcb 453f ce66 123f fcb8 1141
00000190: a2b1 1140 4234 9240 20ef b93f 6dcc 1c40
000001a0: 1b12 133e df01 9141 10fd 163f 573a c13f
000001b0: c13e 0340 0f24 b340 32e8 0a40 f81b bd3f
000001c0: e5e7 5b3f 6ebb ac40 ee98 563e 2446 a43d
000001d0: 83a7 933f f22f 6240 0f8f 953f 039d 1140
000001e0: d478 0d40 38f9 1d3f d7b7 0141 3692 823f
000001f0: 16a0 483f c0d2 293f 3db7 2541 af17 b33f
00000200: 7c4c 303f d079 913f 89f9 1f40 2082 c13f
00000210: a955 723f 6472 1840 b4bb 243f 4e1d b13f
00000220: 4ff9 5740 e0e9 673f c92e 8b3f 599f e23e
00000230: 1392 2740 9386 973f ee80 c73f 5f6f 2d40
00000240: 869f 213f ddd3 3d41 f448 1940 2592 153f
00000250: 3a6f 923f 3227 d73f 13ce 743f 0cba 9e3f
00000260: 9b96 6f3f 66bd 4b40 552f 8240 a15c d340
00000270: 6756 0240 7b57 763e 9569 bb3d 66e6 4d40
00000280: 4bcd 7e3f cf1d 4c3f d740 6b3f 0e4f 9e3f
00000290: 58d2 193f f5bb b03f 7188 1b40 1710 903f
000002a0: b1b3 9b40 d04e 5940 c114 4040 4b7c 573f
000002b0: 7fa8 8341 9425 0340 5fb9 c83f d6f6 de3e
000002c0: 9ae0 7b3f 8d5a 1040 ed21 b43f a532 2740
000002d0: d441 603f 3715 3f3f 232d a63f baa6 b23f
000002e0: 3b2f 903e 4c62 2240 2ebf 4940 023d a93f
000002f0: 7c9f 1b3f 6ced 513d c343 c73f 3176 803e
00000300: f4be 5d40 99ba 3040 8c84 7d3f 882f 3740
00000310: bb28 703f 8241 7c3e 6c25 bc3f 44d0 3540
00000320: 714f 1940 70b9 a040 ec93 c241 20ed 083f
00000330: 8ad4 eb41 7c15 f03e 03a3 533f b856 0041
00000340: 4286 ec3f 4050 e13e 9977 8f40 8a5f 7040
00000350: be7b a63f 429b cf3e 9fae d740 e9ce 3140
00000360: e1c2 293f a043 523f 5970 ef3f 9354 e53f
00000370: 6b37 9d3f 00f2 3940 7659 133f 2013 f73e
00000380: 2318 4b3e f7cb 6b3f a28f 9f3e 558c 0d40
00000390: 916e 0340 7e50 4540 3eb1 6f3e b2fe 2540
000003a0: 0ab2 b740 85db 7c3f 91f0 443f 59aa a93f
000003b0: 2cd2 953f 3369 f43f efd9 753f dcdf 0b3f
000003c0: 5c54 7b3f 11b3 4a41 e3b4 8840 943f 0341
000003d0: 1abf 6e3f 69fa 523f a4e1 3840 7688 c33f
000003e0: 72e8 4f40 9c0a 813e e86c f640 f749 1f3f
000003f0: 4623 c23f 46ff f73f aa7a c73f c878 3b40
2.693655 1.2882462 0.42238164 3.5029602 2.841272 1.0942857 2.2800531 0.2565192
2.7845943 1.1758987 0.72398055 7.753914 1.0025922 12.834547 2.0534825 6.5853066
12.395807 2.9357219 0.85683614 2.1562781 1.2616233 0.6583306 1.4876708 1.2066951
0.57048166 0.14118235 0.120937034 2.0400286 0.5729961 0.92471844 27.277645 1.1416059
2.3229632 0.9629429 1.976324 0.16839443 1.2328802 1.3880788 5.410671 0.38726577
2.7562478 1.7191765 1.5282198 2.5596595 1.915636 0.6045779 4.151233 2.3828983
0.86555773 1.3015758 2.0966222 1.0821663 2.3296623 1.1650096 2.145101 0.8795768
2.8224368 1.2031926 3.2383113 1.7631788 2.5327399 1.7143763 0.17427316 0.49921432
0.681666 2.5773501 0.22649808 18.459167 2.847634 0.46561235 5.254585 7.155818
0.367985 1.8243326 2.6715093 0.5489598 0.6246195 0.17879386 2.0748553 0.6836283
1.749797 1.6883844 0.7887429 3.941065 1.5199206 1.5739279 7.9758525 2.4855285
4.072813 1.1020044 2.2779312 2.5023203 0.96501714 2.6719491 1.3948286 0.24986954
2.6540325 0.77263826 0.5718812 9.107662 2.2764668 4.568879 1.45261 2.4499772
0.14362375 18.125914 0.5897989 1.5095929 2.0507052 5.5981517 2.170422 1.477416
0.8590072 5.3978796 0.20956776 0.08021191 1.1535496 3.5341763 1.1684283 2.2752082
2.2104998 0.617084 8.107383 1.020087 0.7836927 0.66337204 10.357236 1.3991603
0.68866706 1.1365299 2.4996054 1.5117836 0.9466196 2.3819818 0.6434891 1.3837068
3.3745916 0.9059124 1.0873653 0.44262198 2.6182907 1.1837944 1.5586221 2.7099226
0.6313404 11.864224 2.3950777 0.58426124 1.1440194 1.6808836 0.95626944 1.2400527
0.9358918 3.183435 4.068278 6.6050572 2.0365236 0.24056809 0.091509975 3.2171874
0.99532 0.79732984 0.9189581 1.2367876 0.60086584 1.380736 2.4302027 1.125491
4.865685 3.3954353 3.0012667 0.8417403 16.457273 2.0491686 1.5681571 0.43547696
0.9838959 2.2555268 1.4072853 2.612466 0.87600446 0.74641746 1.2982525 1.3957131
0.28161034 2.5372496 3.1522937 1.3221743 0.6079023 0.051251814 1.5567554 0.25090173
3.4647799 2.761389 0.99030375 2.862276 0.9381215 0.24634364 1.469892 2.8408365
2.3954737 5.0226364 24.322227 0.53486824 29.478779 0.4689139 0.8267061 8.021172
1.8478472 0.44006538 4.4833493 3.7558312 1.3006513 0.4054814 6.740066 2.7782538
0.66312987 0.8213444 1.8706161 1.7916435 1.2282537 2.9053955 0.5755838 0.4825678
0.19833426 0.921081 0.3116427 2.2116902 2.0536234 3.0830379 0.23407456 2.5936704
5.7404833 0.9877246 0.76929575 1.3255111 1.1704764 1.9094604 0.96035665 0.5463846
0.981756 12.668717 4.272081 8.203022 0.9326035 0.82413346 2.888772 1.527602
3.2485623 0.25203407 7.700794 0.62222236 1.5167015 1.9374778 1.5584309 2.929247
