3 - Collab -MADDPG/trained_agents/maddpg_tennis_checkpoint_critic_local_1.pth (torch_old, 644556 bytes, 9 tensors)

fc1.weight f4 [512, 52]
0	0x3bb2dcec	0.005458465
1	0x3d33b7d2	0.043876477
2	0xbcb5e1d2	-0.022202406
3	0xbc8786c7	-0.016543759
4	0xbd581a66	-0.05275955
5	0xbc837214	-0.016045608
6	0x3d195873	0.037437867
7	0x3cad7c57	0.021177454
8	0x3c951f9d	0.018203551
9	0x3da8f7ed	0.08250413
10	0xbc4094d5	-0.011754234
11	0xbcf0c633	-0.029391384
12	0xbcd47508	-0.025934711
13	0x3ca40feb	0.020027122
14	0xbcca5bda	-0.024702001
15	0xbd2f20ea	-0.042756
16	0xbd69360e	-0.056936316
17	0x3d6e3b4f	0.05816203
18	0x3d1ad713	0.037802767
19	0x3cc376af	0.023860304
20	0x3d5e731a	0.05430899
21	0x3b399df9	0.0028322919
22	0x3ad8ce43	0.0016540963
23	0x3cdefed3	0.027221119
24	0x3d75dd0f	0.06002527
25	0x3e571cbf	0.2100706
26	0x3d34d36e	0.044146948
27	0x3d865897	0.06559866
28	0xbc5a4d88	-0.013324149
29	0x3d32b69f	0.043631192
30	0xbc8499f6	-0.016186696
31	0x3d8af97d	0.06785867
32	0x3cba9aaa	0.022778828
33	0x3e595c50	0.2122662
34	0xbc9aafa0	-0.018882573
35	0xbd820f36	-0.063505575
36	0xbc051c10	-0.008124366
37	0xbcde85a3	-0.027163332
38	0x3d300b97	0.042979803
39	0xbd1471f4	-0.036241487
40	0x3d2312f5	0.039813
41	0x3e26c977	0.1628779
42	0xbd0167ec	-0.03159325
43	0x3ca11ae9	0.019666152
44	0xbb922e9a	-0.0044611217
45	0xbd9199e1	-0.07109428
46	0xbd153785	-0.0364299
47	0x3c56808b	0.0130921705
48	0x3d4a71d5	0.049424965
49	0x3d6d58c7	0.057945993
50	0x3ca34d68	0.019934371
51	0xbd84d7d2	-0.06486477
52	0x3c8b851b	0.017031243
53	0x3c607d0d	0.013701689
54	0xbc8afe26	-0.01696689
55	0x3d8178a2	0.06321837
56	0x3cb79793	0.022411143
57	0x3d1d0c4b	0.0383418
58	0x3c398304	0.01132274
59	0x3d2fa1a8	0.042878777
60	0x3b7596c9	0.0037473908
61	0xbc97de50	-0.018538624
62	0xbc025f03	-0.007957223
63	0x3d0f4c55	0.034984905
64	0x3cc7813b	0.024353614
65	0x3c9858e8	0.018597081
66	0x3c09fced	0.008422119
67	0x3d5de947	0.05417755
68	0xbd2f9200	-0.042863846
69	0xbc9621a2	-0.018326584
70	0x3bb28206	0.005447629
71	0x3d5aa20a	0.05337719
72	0x3cf820fe	0.03028917
73	0xbc648bb8	-0.013949327
74	0x3b87e56c	0.0041472223
75	0x3ccb8da4	0.024847813
76	0x3d57f9a4	0.05272831
77	0xbc67f924	-0.014158521
78	0xbc18b469	-0.009320357
79	0x3da90f73	0.082549
80	0x3cfacd99	0.030615615
81	0xbbc861fa	-0.0061151953
82	0xbc7563ae	-0.014977379
83	0x3d91fa5d	0.07127831
84	0x3c1b5054	0.009479601
85	0x3cb1ee4e	0.021720078
86	0xbdb4c8c9	-0.08827359
87	0x3d3bbacd	0.045832444
88	0x3cfe6801	0.031055452
89	0xbd81b8f6	-0.063341066
90	0xbd4a3696	-0.049368463
91	0x3da2efac	0.0795587
92	0xbd4f21cb	-0.050569337
93	0x3ab9037c	0.0014115418
94	0xbd699800	-0.057029724
95	0x3e076666	0.13222656
96	0x3cd82406	0.026384365
97	0xbd12971c	-0.03578864
98	0x3c460efb	0.012088533
99	0x3dd250dd	0.1026933
100	0x3e5bb9bf	0.21457575
101	0x3d39805f	0.04528844
102	0xbdd1b1dc	-0.10239002
103	0xbc214b79	-0.009844654
104	0xbcc7cf53	-0.024390852
105	0xbd91fb27	-0.07127982
106	0xbd0f5e1f	-0.03500187
107	0xbda51462	-0.08060528
108	0xbc70f075	-0.014705767
109	0xbc8d0972	-0.017216418
110	0xbc0509c7	-0.008120007
111	0xbdad5121	-0.0846274
112	0xbb9b4f38	-0.004739668
113	0xbd99c2ec	-0.075078815
114	0xbd134c0a	-0.03596119
115	0xbd98d24a	-0.074619845
116	0x3b6d2155	0.0036183198
117	0xbcc818d4	-0.024425901
118	0x3cc1eddc	0.02367299
119	0xbdb7ad5e	-0.08968614
120	0xbcc10154	-0.023560204
121	0xbd8fd052	-0.07022156
122	0xbc5ff4c9	-0.013669201
123	0xbd990828	-0.07472259
124	0x3cdf5288	0.027261034
125	0xbc9b440f	-0.018953351
126	0x3be175a9	0.0068804813
127	0xbe083227	-0.13300382
128	0x3d04aea7	0.032393124
129	0x3d34b2f0	0.04411596
130	0x3b46c75a	0.0030331225
131	0x3c425012	0.011859911
132	0x3cccbf59	0.024993585
133	0xbd913f63	-0.07092168
134	0xbd3b79d8	-0.045770496
135	0xbcf9d9d7	-0.030499382
136	0x3cc5f5c1	0.024165036
137	0x3cad8212	0.021180186
138	0x3cb0264e	0.02150264
139	0xbc665189	-0.014057525
140	0xbd05fc16	-0.03271111
141	0xbcb79206	-0.022408497
142	0xbc9d9cec	-0.019239865
143	0xbd6d6d1f	-0.057965394
144	0x3c6344ee	0.013871415
145	0xbc4e4642	-0.012589993
146	0xbc910a0b	-0.017704984
147	0xbd5d696a	-0.05405561
148	0x3c0c2244	0.008553091
149	0xbd3d54a4	-0.046223298
150	0x3c9216c8	0.017833129
151	0xbd9ceab6	-0.07661955
152	0x3e18096e	0.14847347
153	0xbc948f5b	-0.018134763
154	0xbe149a39	-0.14511956
155	0xbd38a696	-0.045080744
156	0x3be107ab	0.006867369
157	0xbca871e4	-0.02056212
158	0xbcda5178	-0.026650175
159	0x3d966403	0.073432945
160	0x3d43ee96	0.047834955
161	0xbd4f0fba	-0.050552107
162	0x3d2cdc59	0.042202327
163	0x3d70448f	0.058659133
164	0x3c358b98	0.011080645
165	0x3b971e9e	0.004611804
166	0x3c58d35a	0.013233984
167	0x3cae3ac8	0.021268263
168	0x3da8dfb7	0.08245795
169	0xbccf29d5	-0.025288502
170	0xbc960604	-0.018313415
171	0x3c8edef4	0.017440297
172	0x3cbf869d	0.023379618
173	0xba0fc82a	-0.0005484844
174	0x3988803a	0.00026035478
175	0x3cc69130	0.024239153
176	0x3c9c01ff	0.01904392
177	0xbcefcd56	-0.029272716
178	0x3cee438d	0.029084945
179	0x3d699e26	0.057035588
180	0xbbb12778	-0.0054063164
181	0xbda905a0	-0.08253026
182	0xbc7f1d08	-0.015570886
183	0xbd4a5671	-0.049398843
184	0xbd9601a9	-0.073245354
185	0xbd39be54	-0.045347527
186	0xbb6c977d	-0.0036101036
187	0xbd96a23c	-0.073551625
188	0xbcb0d5e9	-0.021586375
189	0xbda4c63f	-0.08045625
190	0xbd15abc9	-0.03654078
191	0x3c712be6	0.014719939
192	0xbdbdd81d	-0.09269736
193	0xbd2c8497	-0.042118635
194	0xbbd4e888	-0.0064974464
195	0xbd7427b7	-0.059608188
196	0x3cc59ec7	0.024123562
197	0xbd2730e6	-0.040818118
198	0xbcdf92c2	-0.02729166
199	0xbda4a546	-0.08039336
200	0xbc7d5055	-0.015461047
201	0xbbfa6b54	-0.007642189
202	0xbc3f3df8	-0.011672489
203	0xbcb286f5	-0.021792868
204	0x3dc0af66	0.094084546
205	0xbcb3392d	-0.02187785
206	0xbd30b58d	-0.04314189
207	0x3da1f9c1	0.07908965
208	0x3cf2412c	0.029572092
209	0x3e59ce9e	0.21270224
210	0x3cc6d53f	0.024271606
211	0xbcd4e19d	-0.025986487
212	0xbc8cff4f	-0.017211584
213	0xbb8f4826	-0.0043726144
214	0xb8ce2d2c	-9.8312594e-05
215	0x3c42663d	0.011865196
216	0xbc3137a8	-0.010816492
217	0x3e1cf91a	0.153294
218	0x3c5dabe8	0.013529755
219	0xbda87d66	-0.08227043
220	0xbd0fa95c	-0.035073623
221	0xbd40ca73	-0.04706807
222	0xbc6be976	-0.014398923
223	0xbdb3d164	-0.087801725
224	0x3c707086	0.014675265
225	0x3e088020	0.13330126
226	0xbd541b9a	-0.051784135
227	0xbd8c3c6d	-0.06847463
228	0xbc01290d	-0.007883322
229	0xbd9cb022	-0.07650782
230	0xbc899e95	-0.01679925
231	0xbdc6155b	-0.09672042
232	0xbc0e2e79	-0.008678072
233	0x3d904dbe	0.07046078
234	0xbc96c025	-0.018402169
235	0xbd4c196a	-0.049828924
236	0x3c8a20ae	0.016861286
237	0xbb5af984	-0.0033412883
238	0xbbb0f849	-0.0054006916
239	0xbd751a24	-0.059839383
240	0x3d088bbf	0.033336397
241	0x3d9a49b0	0.07533586
242	0x3cd48550	0.025942475
243	0xbced035f	-0.028932272
244	0xbb4b0ed9	-0.0030984192
245	0xbb66aa45	-0.0035196703
246	0x3ca8b4ae	0.020593967
247	0xbcb071bb	-0.021538606
248	0x3b587a94	0.0033032047
249	0x3d465bc9	0.048427377
250	0x3cb5d114	0.022194423
251	0x3c0e8c32	0.008700417
252	0x3c578e29	0.013156452
253	0xbd445100	-0.04792881
254	0x3bdfeb54	0.006833473
255	0xbcc104de	-0.023561891

fc1.bias f4 [512]
0	0xbd608056	-0.05480989
1	0x3dca393c	0.09874198
2	0xbd1fa902	-0.038979538
3	0xbe053a76	-0.13010582
4	0xbdd1eb86	-0.10250001
5	0xbdbe232c	-0.09284052
6	0x3dc9840d	0.0983964
7	0x3d02148d	0.03175788
8	0x3dfe56f4	0.12418929
9	0xbb43ca90	-0.0029875375
10	0xbe1f0e08	-0.15532696
11	0x3dd19cb6	0.10234968
12	0x3dab9c72	0.08379449
13	0x3c2dc569	0.010606148
14	0xbe49355e	-0.19649264
15	0xbd8863c5	-0.066596545
16	0xbc7eb885	-0.015546923
17	0xbdcdb147	-0.100435786
18	0xbda46265	-0.0802658
19	0xbdca0e05	-0.09865955
20	0xbddb64bc	-0.10712573
21	0xbc061b4a	-0.008185217
22	0x3d5b88c6	0.053597234
23	0xbe14ed39	-0.14543618
24	0x3d9dae8c	0.07699308
25	0x3d2bff9a	0.041991808
26	0xbdab5309	-0.08365447
27	0xbda38b51	-0.07985557
28	0xbd65fb09	-0.05614761
29	0x3cd8ae61	0.026450338
30	0xbe125d10	-0.14293313
31	0xbe057c2c	-0.13035649
32	0xbd1f49db	-0.038888793
33	0xbd59a105	-0.053132076
34	0xbdd68f8b	-0.104765974
35	0xbe3398b4	-0.1753872
36	0xbd6dbb19	-0.05803976
37	0xbe3b95b2	-0.18318823
38	0x3c7dafd8	0.015483819
39	0x3d9f2ab3	0.07771816
40	0xbdbf48ab	-0.09340032
41	0xbc74f5fc	-0.014951225
42	0x3c85e217	0.01634316
43	0xbc9af0d5	-0.018913666
44	0xbde95669	-0.113934346
45	0x3dbf87d5	0.0935208
46	0x3da6a592	0.08137049
47	0x3e0818d4	0.13290721
48	0xbdececb2	-0.115685835
49	0xbdad3625	-0.08457593
50	0xbe133dbe	-0.14379022
51	0x3d2e1abd	0.04250597
52	0x3cdf40ab	0.027252516
53	0x3da4e9fd	0.08052442
54	0x3cea3cc7	0.028593434
55	0x3d19d042	0.037552126
56	0xbd81c4b1	-0.06336344
57	0x3d8fb1bf	0.07016324
58	0xbd2e0c48	-0.04249218
59	0x3dac56d2	0.08414997
60	0x3da4c275	0.08044902
61	0xbd2e5bf7	-0.042568173
62	0xbe2377f6	-0.1596373
63	0x3b20a1b1	0.0024510438
64	0x3d71529a	0.058916666
65	0xbdfd8f3e	-0.12380837
66	0xbd86b940	-0.065783024
67	0xbd006344	-0.031344667
68	0xbc07a2b8	-0.008278541
69	0x3d366c28	0.04453674
70	0x3d818755	0.06324641
71	0xbe05b2e1	-0.13056518
72	0xbdb9fdd8	-0.0908162
73	0xbd5165bf	-0.051122423
74	0xbbf26261	-0.0073969816
75	0x3c869ad2	0.016431246
76	0xbd93ad3d	-0.07210777
77	0x3c38d6e7	0.011281705
78	0xbd47a240	-0.048738718
79	0x3cb6ff92	0.022338662
80	0xbdc4cf7b	-0.09609886
81	0xbe33ef7a	-0.17571822
82	0xbd0ab8b9	-0.03386757
83	0x3e06aed6	0.13152632
84	0x3c9c037c	0.01904463
85	0x3ca2f313	0.019891297
86	0x3d0dedcd	0.034650613
87	0xbdf3ad9d	-0.118983485
88	0xbd5c319d	-0.053758252
89	0x3d813bc5	0.06310228
90	0x3de288e7	0.11061268
91	0xbd4c4c43	-0.049877416
92	0xbe0ba60d	-0.13637562
93	0xbdea3360	-0.1143558
94	0x3dad72a0	0.084691286
95	0x3dc1ca02	0.09462358
96	0xbd5b21ab	-0.053498905
97	0xbd4b7ec1	-0.04968143
98	0xbe5e2da0	-0.21697092
99	0x3dd4b001	0.103851326
100	0x3ba2a81f	0.0049638893
101	0xbdd3635b	-0.10321685
102	0xbb1b5336	-0.002370072
103	0x3d518c96	0.051159464
104	0x3d656a5e	0.056009643
105	0xbd52ee1e	-0.051496617
106	0xbdfb480b	-0.122696005
107	0xbe2764fb	-0.16347115
108	0xbc42aa20	-0.011881381
109	0x3d3e0c01	0.046398167
110	0xbc300ac8	-0.010744758
111	0xbdbf1f58	-0.0933215
112	0xbd8f1c23	-0.069877885
113	0xbdab7532	-0.083719626
114	0x3cf34e16	0.02970032
115	0x3cd72fcf	0.026267914
116	0xbe2b00ef	-0.16699575
117	0xbde267ce	-0.110549554
118	0xbd818a8d	-0.063252546
119	0x3d4e291a	0.050332166
120	0xbd00f720	-0.031485677
121	0x3d9bb59e	0.07603
122	0xbe1a707f	-0.15081976
123	0xbe167de6	-0.14696464
124	0x3d5c5719	0.053794
125	0x3da87c20	0.082268
126	0xbe152192	-0.14563587
127	0xbd467e93	-0.048460554
128	0x3cfd4fcb	0.030921837
129	0x3bb982ee	0.00566136
130	0xba9fd484	-0.0012194072
131	0x3ce64871	0.028110715
132	0xbd8659c8	-0.06560093
133	0xbc997e04	-0.018736847
134	0xbd306737	-0.043067183
135	0xbe0c7393	-0.13715963
136	0x3d969b77	0.07353871
137	0xbd80b7cb	-0.06285056
138	0xbe03b347	-0.12861358
139	0xbe156e01	-0.14592744
140	0xbe317b47	-0.17332183
141	0x3c0cb6a4	0.008588467
142	0xbcd99632	-0.026560877
143	0x3d6c8b1b	0.05774985
144	0xbcd70bf0	-0.02625081
145	0xbddb0913	-0.1069509
146	0x3d11040b	0.035404246
147	0xbc1d6267	-0.0096059805
148	0xbe1f69cf	-0.15567707
149	0xbe0a4aa9	-0.13505043
150	0xbd8b7be5	-0.068107404
151	0xbd2b09ce	-0.041757397
152	0x3d1154a7	0.03548112
153	0xbde01f10	-0.10943425
154	0x3c3b72fc	0.011440989
155	0xbba6f125	-0.0050946646
156	0xbe317a62	-0.17331842
157	0xbe2796c8	-0.16366112
158	0x3d9df65e	0.077130064
159	0x3cd73040	0.026268125
160	0xbddcb666	-0.10776977
161	0x3b66d5ed	0.0035222725
162	0x3e08af71	0.13348176
163	0xbe0ff4b4	-0.1405819
164	0x3dd4dff0	0.10394275
165	0xbd96a83a	-0.073563054
166	0x3dc40d2a	0.09572823
167	0xbdaa6da4	-0.083216935
168	0x3e0c7fce	0.13720629
169	0xbd4729c7	-0.048623826
170	0x3e16a63c	0.14711851
171	0x3c9ad989	0.018902557
172	0x3db7678d	0.089552976
173	0xbd3ec7be	-0.046577208
174	0xbe07b45a	-0.13252392
175	0xbdb41b6a	-0.08794291
176	0xba27f271	-0.0006406671
177	0x3db1c69d	0.086804606
178	0xbd2e6cb2	-0.04258413
179	0x3d4837ef	0.048881467
180	0xbda8b432	-0.082374945
181	0xbd97da13	-0.07414641
182	0xbd0f3076	-0.034958325
183	0xbc99fa9a	-0.018796254
184	0xbe0aa863	-0.13540797
185	0xbd036101	-0.032074932
186	0x3d3b3f8d	0.045714904
187	0xbe118572	-0.14211062
188	0xbdd0b1c9	-0.1019016
189	0x3d6bf261	0.057604197
190	0x3dcea238	0.100895345
191	0xbdd9ac88	-0.10628611
192	0xbc7c034b	-0.0153816445
193	0x3c58063e	0.013185082
194	0xbd8b8f8f	-0.06814491
195	0xbe2a7130	-0.1664474
196	0x3dc8ba28	0.098011315
197	0x3d843650	0.06455672
198	0xbd14c382	-0.036319263
199	0x3da6135d	0.08109162
200	0xbd466cbd	-0.048443545
201	0xbcb12700	-0.021625042
202	0xbd9aefea	-0.07565291
203	0x3d8c4312	0.0684873
204	0x3dce54fe	0.10074805
205	0xbdf24182	-0.11828901
206	0x3d178ad7	0.036997642
207	0x3d1dc60e	0.038518958
208	0x3ddd4e53	0.10805955
209	0x3d8e21fd	0.069400765
210	0x3d440f1e	0.04786598
211	0x3c140c39	0.009036117
212	0x3d67aaf0	0.056559503
213	0x3a9cc538	0.0011960631
214	0x3c83fb59	0.016111063
215	0xbd825a1c	-0.06364843
216	0xbbfbd969	-0.0076858294
217	0x3d32cae6	0.04365053
218	0x3cb9556a	0.022623736
219	0xbd82d989	-0.06389148
220	0x3df38bcd	0.11891899
221	0xbda332fd	-0.079687096
222	0xbde91157	-0.113802604
223	0xbceebf02	-0.029143814
224	0x3dbb70af	0.09152352
225	0x3d20a821	0.03922284
226	0x3d75b342	0.059985407
227	0x3a413a25	0.000737103
228	0x3d86cc31	0.06581915
229	0xbdc00c18	-0.09377307
230	0x3c7a2a7f	0.015268921
231	0x3ded04fb	0.115732156
232	0x3db078e9	0.08616812
233	0x3e032241	0.12806036
234	0x3de9e243	0.11420109
235	0xbdc5fded	-0.09667573
236	0xbbf647b1	-0.0075158705
237	0xbd70821d	-0.058717836
238	0x3d6adef4	0.05734153
239	0xbd2628e6	-0.040566348
240	0xbe29a7ad	-0.1656787
241	0xbd90faa5	-0.07079057
242	0x3ce7fbfd	0.0283184
243	0xbd8046b4	-0.062634856
244	0x3cd31a19	0.02576928
245	0x3dfb363b	0.12266203
246	0x3c82c429	0.015962677
247	0xbdf2cd89	-0.11855609
248	0x3db93e29	0.09045059
249	0x3d897d31	0.067133315
250	0x3d5afa4a	0.05346135
251	0x3d4ca860	0.049965262
252	0x3cda1697	0.0266221
253	0x3c770d40	0.015078843
254	0x3dab1d94	0.08355251
255	0x3db0cef5	0.08633224

fc2.weight f4 [256, 512]
0	0xbc8fcbff	-0.017553328
1	0xbd8b3a50	-0.067982316
2	0xbacf7c17	-0.0015829828
3	0xbd413cd2	-0.047177143
4	0xbd64e26e	-0.055880003
5	0xbdf6a578	-0.120432794
6	0x3cb93da2	0.022612397
7	0x3c4ba0a2	0.012428435
8	0x3d188817	0.03723916
9	0x3c95f3ac	0.018304668
10	0x3d4ae1ca	0.049531735
11	0x3bcf5cb1	0.0063281883
12	0x3d858e59	0.06521291
13	0xbcbb9bf5	-0.022901515
14	0xbc3953d6	-0.011311492
15	0xbc0ed169	-0.008716919
16	0xbcbe5507	-0.023233904
17	0x3c2e5ee0	0.010642737
18	0x3c81fa37	0.015866382
19	0xbd671ff1	-0.056426946
20	0x3d925b39	0.071463056
21	0xbcb587d2	-0.02215949
22	0x3d62dc41	0.05538583
23	0xbcc9e74d	-0.024646426
24	0xbc77e3e5	-0.015130018
25	0xbcdc58f1	-0.02689788
26	0x3d2e36a1	0.042532567
27	0xbd002646	-0.0312865
28	0xbd654cba	-0.055981375
29	0xbc23cc2e	-0.009997411
30	0xbbd276a0	-0.0064228326
31	0x3d709d15	0.058743555
32	0x3d56de9a	0.052458383
33	0xbc8c7f66	-0.017150592
34	0xbd99ff2f	-0.075193755
35	0x3afe4a7c	0.001940086
36	0xbd5af3cd	-0.053455163
37	0x3bbf4102	0.005836607
38	0xbcf23f7a	-0.029571284
39	0x3ca471bc	0.020073764
40	0x3ca8ead8	0.020619795
41	0xbe0e73d0	-0.13911366
42	0xbdc5cc99	-0.096581645
43	0x3c9a57c9	0.018840687
44	0xbd991583	-0.07474806
45	0xbd74c001	-0.05975342
46	0xbb8595d6	-0.0040766997
47	0xbd568447	-0.052372243
48	0xbb3ceb50	-0.002882678
49	0x3c15f74a	0.009153197
50	0xbc4e6dad	-0.012599391
51	0xbb677351	-0.0035316537
52	0xbd957070	-0.072968364
53	0xbb579124	-0.0032892907
54	0xbd6c6352	-0.057711907
55	0xbccf0972	-0.025273059
56	0x3d0e2e33	0.034712028
57	0xbd3b4a7c	-0.04572533
58	0x3c64ef18	0.01397302
59	0x3cd66065	0.026169011
60	0xbdded905	-0.10881237
61	0xbda93d48	-0.082636416
62	0xbc8bc114	-0.01705984
63	0xbda8e9e8	-0.08247739
64	0x3aee3823	0.0018174689
65	0xbca9c34c	-0.020723008
66	0x3bc93a4b	0.0061409823
67	0xbd78ec16	-0.060772024
68	0xbd07adfe	-0.033124916
69	0x3ca74d2f	0.020422546
70	0xbbfe451c	-0.0077597033
71	0xbd119972	-0.035546727
72	0xbd8852f7	-0.06656449
73	0xbcff6d66	-0.031180095
74	0x3d47cac8	0.04877737
75	0xbcf153db	-0.02945893
76	0x3d1b6b73	0.03794427
77	0x3d3e5ed0	0.04647714
78	0xbcf31974	-0.029675223
79	0xbd102ee7	-0.03520098
80	0xbd827975	-0.06370822
81	0xbd829068	-0.063751996
82	0xbbfc3d0a	-0.007697706
83	0x3d3ff950	0.046868622
84	0xbc60a5f5	-0.013711442
85	0x3d82707a	0.063691095
86	0x3cad312f	0.021141617
87	0xbd10a649	-0.035314832
88	0x3d426743	0.04746176
89	0xbc43d7b9	-0.011953288
90	0x3d4145bc	0.047185645
91	0xbd8e5649	-0.06950051
92	0xbc2eaa61	-0.010660739
93	0xbd1842b0	-0.037172973
94	0xbc6461be	-0.013939319
95	0x3c03c90a	0.008043537
96	0x3d752e41	0.059858564
97	0x3d60418c	0.05475001
98	0xbd9ac24c	-0.075565904
99	0x3b76a9a8	0.0037637744
100	0xba142d34	-0.0005652488
101	0xbd1cb439	-0.03825781
102	0xbbf96e56	-0.00761203
103	0x3d11bb06	0.03557875
104	0xbd6c0023	-0.057617318
105	0xbd202037	-0.039093222
106	0x3c1582d3	0.009125429
107	0xbd7ebacc	-0.062189862
108	0x3c381a1e	0.011236696
109	0xbc15257e	-0.009103177
110	0xbd2fff85	-0.04296829
111	0xbde1820b	-0.11011132
112	0x3cdc0138	0.02685605
113	0xbd3ab586	-0.04558327
114	0x3c911784	0.017711408
115	0xbd0790ac	-0.033096954
116	0xba6edbe8	-0.0009111748
117	0x3c37c409	0.011216172
118	0x3bf1157c	0.0073572975
119	0xbce6fb26	-0.028195929
120	0xbd71b9c0	-0.059015036
121	0x3cbe2fcd	0.023216153
122	0xbc778524	-0.015107427
123	0xbc1ae86e	-0.00945483
124	0x3d529c52	0.05141861
125	0xbcce0098	-0.025146767
126	0xbd4d35a9	-0.050100002
127	0xbd79ba07	-0.060968425
128	0xb9ee00a1	-0.00045395366
129	0xbdc650ee	-0.09683405
130	0x3d400ab2	0.0468852
131	0x3c33122b	0.010929625
132	0xbe181ea2	-0.14855435
133	0x3ceeeb16	0.029164832
134	0x3b10dcba	0.002210422
135	0xbd02b1c6	-0.03190782
136	0xbd64cee7	-0.05586138
137	0x3d644b60	0.055735946
138	0x38bbb88e	8.951231e-05
139	0x3c4b17b2	0.012395786
140	0xbd533ac7	-0.051569726
141	0x3d1d6a8c	0.03843169
142	0x3cf59ac6	0.029981028
143	0xbca3bf26	-0.019988608
144	0x3d2e448a	0.042545833
145	0xbbb117e7	-0.0054044607
146	0x3b862ff9	0.0040950743
147	0x3d1b046a	0.037846006
148	0xbc8ac323	-0.016938752
149	0x3a9f08ee	0.0012133399
150	0xbd1f5024	-0.038894787
151	0xbd4aa309	-0.04947189
152	0xbdb3d50f	-0.08780872
153	0xbc88b46f	-0.0166876
154	0x3d3c5361	0.045977954
155	0x3d900f63	0.07034185
156	0xbb1030c8	-0.0022001732
157	0xbdb310d3	-0.08743443
158	0xbca3ae34	-0.019980527
159	0xbce48f8c	-0.02790048
160	0xbcf65775	-0.030071
161	0xbcf7c81c	-0.030246787
162	0xbc3fbc33	-0.011702585
163	0x3d7e7a49	0.06212834
164	0xbdb24802	-0.08705141
165	0x3c401e59	0.011725985
166	0x3d32a491	0.043613974
167	0xbc69133f	-0.01422578
168	0x3cee6632	0.029101465
169	0x3c81a87d	0.015827412
170	0x3d6ffa33	0.058588218
171	0xbc74eba5	-0.01494876
172	0xbdedbc70	-0.11608207
173	0xbcc728f3	-0.024311518
174	0x3cc43775	0.023952225
175	0x3c83752a	0.01604708
176	0xbc8cb34a	-0.017175335
177	0xbb62b96a	-0.0034595379
178	0x3cd24e2e	0.025672045
179	0xbd1c38b4	-0.038140014
180	0x3dd8f512	0.105936185
181	0xbd0857ca	-0.033286847
182	0xbd661141	-0.0561688
183	0x3cd06e19	0.025443124
184	0xbd90d8b9	-0.070725866
185	0xbd833403	-0.06406405
186	0xbd0b8c2e	-0.034069233
187	0xbd680937	-0.056649413
188	0xbd6c1e8b	-0.057646316
189	0xbd219046	-0.03944423
190	0xbdc31b14	-0.09526649
191	0xbc676028	-0.0141220465
192	0x3c3d9980	0.011572242
193	0x3ca78227	0.020447804
194	0xbce54517	-0.027987046
195	0xbca63dff	-0.020293234
196	0xbd03d72d	-0.03218763
197	0xbda6c1a3	-0.08142402
198	0x3cf97d38	0.030455217
199	0xbc64d358	-0.013966404
200	0xbc177755	-0.00924476
201	0xbd62a405	-0.055332202
202	0xbd3e4eac	-0.046461746
203	0x3cfb5f3e	0.030685063
204	0x3bd686c8	0.006546829
205	0xbd6b6c45	-0.0574763
206	0x3cf31214	0.029671706
207	0xbcf3924a	-0.029732842
208	0xbdb9d917	-0.0907461
209	0xbc7590e8	-0.014988162
210	0xb9dfaee7	-0.00042664187
211	0x3d8816a6	0.06644945
212	0x3d409615	0.04701813
213	0x3d5d3065	0.05400123
214	0x3c86c639	0.016451942
215	0x3d31c779	0.043403123
216	0x3d3c8830	0.046028316
217	0x3c0fee48	0.008784838
218	0xbc948e05	-0.018134126
219	0xbd8e92a6	-0.06961565
220	0x3d182fa1	0.037154797
221	0xbd8e727c	-0.0695543
222	0xbd564ea6	-0.0523211
223	0xbd42a54c	-0.04752092
224	0x3d39c157	0.0453504
225	0x3ce30d21	0.027716221
226	0x3ca1ee29	0.019766884
227	0xbc5d9816	-0.01352503
228	0xbc99771c	-0.018733554
229	0x3cff8b73	0.031194424
230	0x3dbd3603	0.092388175
231	0x3da843f8	0.08216089
232	0x3cfdbd45	0.03097404
233	0xbd28d029	-0.041214142
234	0xbd603661	-0.05473936
235	0xbd7817c8	-0.060569555
236	0xbc64bf28	-0.013961591
237	0x3ce24100	0.027618885
238	0x3d062cc7	0.032757547
239	0xbc27548a	-0.010213027
240	0x3cb8df44	0.022567399
241	0xbd9a7796	-0.075423405
242	0xbcfdda83	-0.030987984
243	0xbd8fbb36	-0.070181295
244	0xbd7a363f	-0.06108689
245	0x3c028796	0.0079668965
246	0x3d678781	0.05652571
247	0xbda6ac56	-0.08138339
248	0x3d139bca	0.036037244
249	0x3d42cccb	0.047558587
250	0xbd02e63a	-0.031957842
251	0x3cb1a057	0.021682901
252	0x3dae07de	0.08497594
253	0x3cb4bb3e	0.02206194
254	0xbd904742	-0.07044841
255	0x3cb869ab	0.022511324

fc2.bias f4 [256]
0	0xbd9bd401	-0.07608796
1	0xbcfa5795	-0.03055934
2	0xbd6679cf	-0.05626851
3	0xbd569f67	-0.05239811
4	0xbcb33767	-0.021877004
5	0xbdf64119	-0.12024135
6	0xbd35fec5	-0.04443242
7	0x3bef6672	0.0073059136
8	0xbda06079	-0.07830901
9	0xbd7952d8	-0.06087002
10	0xbcab87f1	-0.020938845
11	0xbc70d396	-0.0146988835
12	0xbd27f31a	-0.041003324
13	0xbd32c1d1	-0.04364187
14	0xbd52cb1d	-0.051463235
15	0xbd16d751	-0.036826435
16	0xbb34ceca	-0.0027589076
17	0xbcebab20	-0.028768122
18	0xbd8e9f58	-0.06963986
19	0xbd36fc40	-0.044674158
20	0xbd494469	-0.049137507
21	0xbd283989	-0.041070495
22	0xbd21dacf	-0.039515313
23	0xbbbbeb7f	-0.0057348604
24	0xbca6361d	-0.020289475
25	0xbdc5e465	-0.096627034
26	0xbda469cc	-0.08027992
27	0xbd30591c	-0.04305373
28	0xbcf55c89	-0.02995135
29	0xbc0118f9	-0.007879489
30	0xbcff6103	-0.031174188
31	0xbc82c890	-0.015964776
32	0xbd746786	-0.05966904
33	0xbd15b025	-0.036544938
34	0xbb0cb418	-0.002146965
35	0xbd5c4562	-0.053777106
36	0xbc9063de	-0.017625745
37	0xbd573f51	-0.052550618
38	0xbd871c4a	-0.065971926
39	0xbd2382c5	-0.039919633
40	0xbba90006	-0.0051574735
41	0xbd0f016a	-0.034913458
42	0xbc18113d	-0.009281454
43	0xbc6f00d7	-0.014587603
44	0xbd868b55	-0.06569544
45	0xbcdf1d22	-0.027235571
46	0xbda93834	-0.08262673
47	0xbca2d313	-0.019876039
48	0xbd2e2e9b	-0.042524915
49	0xbda0d21c	-0.07852575
50	0xbd39f48f	-0.045399245
51	0xbda45d4e	-0.08025609
52	0xbcc033a3	-0.023462122
53	0xbd77886d	-0.06043284
54	0xbd3f0f55	-0.04664548
55	0xbdc28380	-0.09497738
56	0xbcdb39d6	-0.026760977
57	0xbcb0da53	-0.02158848
58	0xbdd1babd	-0.102406956
59	0xbd0c2ee6	-0.034224413
60	0xbd6eb116	-0.05827435
61	0xbd8cd773	-0.06877031
62	0xbd1d1aa5	-0.03835549
63	0xbc8e8a2e	-0.017399874
64	0xbd9c2cec	-0.07625756
65	0xbcecc60e	-0.028903034
66	0xbd885311	-0.06656469
67	0xbd6638ff	-0.0562067
68	0xbd3dadfc	-0.046308503
69	0xbdb29097	-0.087189846
70	0xbd8dee4a	-0.06930216
71	0xbac44da1	-0.0014976748
72	0xbdaf7aed	-0.08568368
73	0xbd08d36c	-0.033404753
74	0xbd427b11	-0.047480647
75	0xbd82fbfc	-0.063957185
76	0xbd8f7995	-0.07005612
77	0xbcd2e883	-0.025745636
78	0xbd9a9cd5	-0.075494446
79	0xbcf2af9f	-0.029624758
80	0xbdcf265f	-0.101147406
81	0xbcc727a6	-0.024310898
82	0xbc50e1b5	-0.012749125
83	0xbd33ee09	-0.04392818
84	0xbd8ab65b	-0.06773063
85	0xbcedff0a	-0.029052276
86	0xbdbf35e8	-0.09336454
87	0xbd9e60f2	-0.077333346
88	0xbd851d75	-0.06499759
89	0xbdb879fb	-0.09007641
90	0xbc79cac8	-0.015246101
91	0xbd5ac262	-0.053408034
92	0x3b5aa9a9	0.0033365285
93	0xbc8ffb91	-0.01757601
94	0xbd684989	-0.056710754
95	0xbc80e369	-0.015733438
96	0xbdbb2c98	-0.09139365
97	0xbd4d6d43	-0.05015303
98	0xbda1547c	-0.07877442
99	0xbc8bc10d	-0.017059827
100	0xbd22ced6	-0.039748035
101	0xbd80de77	-0.06292432
102	0xbd586f69	-0.052840624
103	0xbd91127e	-0.07083605
104	0xbda0aee3	-0.07845857
105	0xbd16dec8	-0.036833555
106	0xbcde93e5	-0.027170131
107	0xbdc8ab3e	-0.09798287
108	0xbcb490d3	-0.022041714
109	0xbcbfbf2b	-0.023406586
110	0xbd775cb1	-0.06039113
111	0xbd9c2f90	-0.07626259
112	0xbd33b3c5	-0.043872613
113	0xbdf04366	-0.11731605
114	0xbdbcb2c6	-0.09213786
115	0xbcbcbca4	-0.02303917
116	0xbd721bae	-0.05910843
117	0x3cd46904	0.025928982
118	0xbd5d0396	-0.053958498
119	0xbd3ad471	-0.045612756
120	0xbd04e48b	-0.032444518
121	0xbba2a12f	-0.0049630622
122	0xbd35b238	-0.044359416
123	0xbd45c054	-0.04827912
124	0xbd917bdd	-0.07103703
125	0xbdc8dbd1	-0.09807552
126	0xbc6d4114	-0.014480848
127	0xbda324ff	-0.07966041
128	0x3c23a111	0.009987132
129	0xbd982ac3	-0.07430031
130	0xbd107d1b	-0.03527556
131	0xbd56455d	-0.052312244
132	0xbd850ae7	-0.0649622
133	0xbd821b16	-0.063528225
134	0xbbdb6cda	-0.0066963257
135	0xbd4bed9c	-0.04978715
136	0xbd70aa6f	-0.05875629
137	0xbd9cd1d0	-0.07657206
138	0xbc07dfb3	-0.00829308
139	0xbd4231ff	-0.04741096
140	0xbd0dc448	-0.034611017
141	0xbda76148	-0.08172852
142	0x3b834c0e	0.004006869
143	0xbd585ff1	-0.05282587
144	0xbd77fdb6	-0.060544692
145	0xbd391609	-0.04518703
146	0xbdc0df7a	-0.09417625
147	0xbd8ecd66	-0.069727704
148	0x3c618dbc	0.013766702
149	0xbbde2aba	-0.0067799957
150	0xbc2befbb	-0.010494168
151	0xbd50d761	-0.05098665
152	0xbc0dace1	-0.008647175
153	0x3cb13609	0.021632211
154	0xbcecb38c	-0.028894208
155	0xbca7aeed	-0.020469153
156	0xbd48d9b4	-0.049035743
157	0xbdb8a145	-0.09015135
158	0xbd53d86b	-0.051720064
159	0xbd91b71a	-0.07115002
160	0xbdec0c67	-0.11525803
161	0xbbf3fce7	-0.00744592
162	0xbd82309a	-0.06356926
163	0xbd71b2e7	-0.059008505
164	0xbcf9757b	-0.030451527
165	0xbd117bcd	-0.035518456
166	0xbd95aa22	-0.07307841
167	0xbc2f6403	-0.010704997
168	0xbd13d3ea	-0.03609077
169	0xbc6de3c4	-0.014519636
170	0xbd9d9b99	-0.076956935
171	0xbd9023fc	-0.070381135
172	0xbd593a67	-0.053034212
173	0xbccd0dab	-0.025030931
174	0xbcc75bd6	-0.024335783
175	0xbd65e95a	-0.056130745
176	0xbc95cd52	-0.01828638
177	0xbd854024	-0.065063745
178	0x3b265f95	0.0025386561
179	0xbd2804a7	-0.04102006
180	0xbde539b5	-0.11192647
181	0xbd7a966b	-0.061178606
182	0xbd421f0a	-0.047392882
183	0xbd16dce5	-0.036831755
184	0xbdcd8034	-0.100342184
185	0xbca95c5a	-0.02067392
186	0xbd4fa487	-0.050694015
187	0xbd8376c8	-0.0641914
188	0xbda6122e	-0.08108936
189	0xbda85942	-0.082201496
190	0xbc43aa05	-0.011942391
191	0xbdc202a8	-0.09473163
192	0xbd4a2dba	-0.049360014
193	0xbdd6149c	-0.1045315
194	0xbbc90c67	-0.0061355117
195	0xbd3eb425	-0.046558518
196	0xbd9eaaf7	-0.07747453
197	0xbd8d9204	-0.06912616
198	0xbcf8245f	-0.03029078
199	0xbda0810f	-0.07837116
200	0xbc7bfc75	-0.015380015
201	0xbc903291	-0.017602237
202	0xbd95bba9	-0.07311184
203	0xbd969125	-0.07351903
204	0xbd1f09a0	-0.03882754
205	0xbdd0f08e	-0.10202132
206	0xbcd1ec3b	-0.025625339
207	0xbcd50d2c	-0.026007257
208	0xbd4d1344	-0.0500672
209	0xbd88e13f	-0.06683587
210	0xbd18fc3c	-0.037349924
211	0xbcfba8c2	-0.030720118
212	0xbd2eb968	-0.042657286
213	0xbc98c2f6	-0.018647652
214	0xbd28916b	-0.041154306
215	0xbbbd67b0	-0.005780183
216	0xbd677848	-0.056511194
217	0xbd3809f8	-0.044931382
218	0xbdb4e0c8	-0.08831936
219	0xbd068862	-0.03284491
220	0xbd7b1b9e	-0.061305635
221	0xbd56f8b7	-0.052483287
222	0xbd49f6a0	-0.049307466
223	0xbd34965d	-0.04408871
224	0xbca8f8bb	-0.020626416
225	0xbda86af7	-0.08223527
226	0xbcc89352	-0.02448431
227	0xbd818c43	-0.06325581
228	0xbd2de7ae	-0.042457275
229	0xbd50c09a	-0.05096493
230	0xbd07f8d8	-0.0331963
231	0xbc2ba28e	-0.010475768
232	0xbe090897	-0.13382183
233	0xbd5b966f	-0.05361026
234	0xbd16296b	-0.036660593
235	0xbdafc47a	-0.08582397
236	0xbd5c31d0	-0.053758442
237	0xbd825c19	-0.063652225
238	0xbd88ce83	-0.06680014
239	0xbd67e771	-0.056617204
240	0xbd5d953b	-0.054097395
241	0xbd915a2c	-0.07097277
242	0x3c137d85	0.009002094
243	0xbd4b4ea2	-0.049635537
244	0xbc8c9dcd	-0.017165089
245	0xbd767577	-0.060170617
246	0xbd344ec2	-0.04402042
247	0xbc7c848c	-0.015412461
248	0xbd605a08	-0.05477336
249	0xbd01b61a	-0.031667806
250	0xbd9736f6	-0.0738353
251	0xbcfb4d2b	-0.030676445
252	0xbddb0f50	-0.1069628
253	0xbd9c4e9b	-0.0763218
254	0xbd9d1c47	-0.07671409
255	0xbcd03508	-0.025415912

fc3.weight f4 [1, 256]
0	0xbcb9a267	-0.022660447
1	0x3c50aa09	0.012735852
2	0x3bef4577	0.007301982
3	0xbc882184	-0.016617544
4	0x3bd41ec0	0.0064733922
5	0x3d4e5ff7	0.050384488
6	0x3c356845	0.011072223
7	0x3c06a4fd	0.008218047
8	0xbc78b3b6	-0.015179565
9	0x3c0b9138	0.00851851
10	0x3ce55880	0.027996302
11	0x3c858a31	0.016301246
12	0xbcf1c664	-0.029513545
13	0xbc70c865	-0.014696215
14	0x3c40ee4a	0.011775563
15	0x3cc3aa88	0.023885027
16	0x3be8d8a5	0.007105904
17	0x3ca8b37e	0.020593401
18	0x3ba9f6a1	0.005186871
19	0xbc194699	-0.009355211
20	0x3d391948	0.045190126
21	0xbc315362	-0.010823103
22	0xbd1ecf70	-0.038772047
23	0x3be3ec1f	0.006955638
24	0x3c181517	0.009282372
25	0xbc138392	-0.009003537
26	0xbc8d9a85	-0.017285595
27	0x3c4fbb60	0.012678951
28	0x3cb164ce	0.021654513
29	0x3c1991d5	0.009373148
30	0x3caf737f	0.021417378
31	0x3c67238c	0.014107596
32	0x3c9772f8	0.018487439
33	0x3c376054	0.0111924
34	0x3b33d6d5	0.0027441282
35	0x3c03cf1c	0.008044984
36	0xbd1c1a7c	-0.038111195
37	0x3bfe66fb	0.007763741
38	0xbc8a4c3a	-0.01688205
39	0xbd28902f	-0.04115313
40	0x3c1439d0	0.009046987
41	0x3c12e395	0.008965393
42	0x3b983be7	0.004645813
43	0x3c389db7	0.011268071
44	0x3c10ad56	0.008830389
45	0x3c2ef58d	0.010678661
46	0xbcae8067	-0.021301461
47	0x3c5f0e79	0.01361429
48	0x3d66efb2	0.056380935
49	0x3d2c2ee7	0.042036917
50	0x3bdd24f8	0.006748792
51	0x3c95821c	0.018250518
52	0xbc20a72e	-0.009805484
53	0x3db39415	0.08768479
54	0x3d080616	0.03320893
55	0xbc0490f3	-0.008091199
56	0x3bc575a4	0.0060259867
57	0x3c652fea	0.013988474
58	0x3d7823a0	0.06058085
59	0x3c470d53	0.012149173
60	0xbc9459d1	-0.018109234
61	0x3c180c6d	0.009280306
62	0x3c7ac1cf	0.015304997
63	0xbcc0dc91	-0.023542674
64	0x3ce499fe	0.02790546
65	0x3ba85852	0.0051374817
66	0x3cd75d03	0.026289469
67	0xbd3f09df	-0.046640273
68	0xbc97e531	-0.018541904
69	0xbc624568	-0.013810493
70	0xbc9e3cd7	-0.01931612
71	0x3c0743ee	0.008255942
72	0xbcd700b8	-0.02624546
73	0x3b89eee0	0.0042093843
74	0x3c0b62d9	0.008507454
75	0x3d3fd609	0.04683498
76	0x3c13aa47	0.009012765
77	0xbc008286	-0.007843619
78	0x3c024d58	0.0079530105
79	0xbc3b8583	-0.011445406
80	0xbc376bb7	-0.011195115
81	0xbc28a007	-0.01029206
82	0x3c235122	0.009968074
83	0xbc892d4e	-0.016745236
84	0xbd14ea20	-0.03635609
85	0xbc48f039	-0.012264305
86	0x3d9db117	0.07699793
87	0xbc4d7f6d	-0.012542588
88	0xbc7293fa	-0.014805788
89	0x3cb3a6fb	0.021930208
90	0x3cc7abb3	0.024373865
91	0xbc4f28a8	-0.012643971
92	0x3c3afba3	0.011412534
93	0x3c26b854	0.010175783
94	0xbc41faa4	-0.011839543
95	0x3b9e31dd	0.0048277215
96	0x3c8fcaaa	0.017552692
97	0x3d00d76f	0.031455453
98	0xbcb3b974	-0.021939017
99	0x3c3ebc34	0.011641551
100	0xbc598e50	-0.013278559
101	0xbcdcab78	-0.026937231
102	0xbca06e43	-0.019583827
103	0xbc44708d	-0.011989725
104	0xbd23bc3d	-0.03997444
105	0x3bd6dff0	0.006557457
106	0xbc78fd9a	-0.015197182
107	0xbc915dd6	-0.01774494
108	0x3c7b2e50	0.015330866
109	0xbcc8616b	-0.024460515
110	0xbc4c702a	-0.012477914
111	0xbc8966f2	-0.016772721
112	0xbca70edc	-0.020392828
113	0xbd1f9344	-0.038958803
114	0x3c399dca	0.011329124
115	0x3c6d1d9a	0.01447239
116	0x3c235139	0.009968095
117	0x3bad119f	0.0052816416
118	0xbc04b24a	-0.008099148
119	0x3c30bf75	0.010787834
120	0x3c2152cf	0.009846403
121	0xbc2d1c11	-0.010565774
122	0xbc34a323	-0.011025223
123	0x3c3c094d	0.011476827
124	0xbc81553a	-0.01578771
125	0xbca21c17	-0.019788785
126	0xbc9cc2f1	-0.019135924
127	0xbc84c50c	-0.01620724
128	0x3bf250c4	0.007394882
129	0x3c06fce0	0.008239001
130	0xbc15aa08	-0.009134777
131	0xbc532e43	-0.012889448
132	0x3c976ab2	0.018483493
133	0xbc2f3807	-0.01069451
134	0xbb95e3c2	-0.00457427
135	0x3c85176d	0.016246522
136	0xbc35ba82	-0.01109183
137	0xbc0b19cb	-0.008490036
138	0x3c0bef74	0.008540977
139	0x3c138a2d	0.009005112
140	0x3c05ee17	0.008174441
141	0xbc73fe3d	-0.014892158
142	0x3bb62940	0.0055591166
143	0x3c36c990	0.011156455
144	0x3cce9282	0.025216345
145	0xbc87ae61	-0.016562643
146	0x3cb7ba95	0.022427836
147	0xbc4b221c	-0.012398269
148	0x3bb16852	0.0054140473
149	0x3bfc9e7a	0.0077093216
150	0xbbb01129	-0.0053731394
151	0x3c052dae	0.008128567
152	0x3c3a5736	0.011373332
153	0x3c2d97a7	0.010595239
154	0x3baf593d	0.005351214
155	0x3bfefce2	0.007781611
156	0xbc4e6195	-0.012596508
157	0x3ba5da4b	0.005061423
158	0xbc18bf5a	-0.0093229655
159	0x3d04138d	0.032245208
160	0x3cbe5f06	0.02323867
161	0x3c1b805c	0.0094910525
162	0xbcd85cb6	-0.026411396
163	0xbc56744e	-0.013089253
164	0xbc6de9eb	-0.014521102
165	0xbcbe9aa1	-0.023267092
166	0x3cb78bf1	0.022405596
167	0x3ca7a796	0.020465653
168	0x3d0bf832	0.034172244
169	0x3bde1192	0.006776997
170	0xbc1eb91e	-0.00968769
171	0xbc081c16	-0.008307477
172	0x3cc37f0f	0.023864297
173	0x3be7d480	0.0070748925
174	0x3c30f292	0.010800021
175	0x3c773556	0.0150884
176	0x3bface35	0.0076539763
177	0xbc35f8da	-0.011106694
178	0x3bfd1bb9	0.007724252
179	0x3cbfaa58	0.023396656
180	0xbcae68a3	-0.021290129
181	0x3d837a23	0.0641978
182	0x3c0b552f	0.008504196
183	0xbcc44a94	-0.023961343
184	0xbd1541e4	-0.03643979
185	0x3c9ed2ba	0.019387592
186	0x3c4e8eb8	0.012607269
187	0x3c93f939	0.018063175
188	0xbc798555	-0.015229543
189	0x3c9cdcc0	0.01914823
190	0x3c9d8535	0.019228557
191	0x3cf52abf	0.02992761
192	0x3bfc9902	0.0077086696
193	0x3d32137c	0.043475613
194	0x3bc49a45	0.0059998357
195	0xbc34da7e	-0.011038421
196	0xbc46fcd2	-0.012145238
197	0x3be9550e	0.007120735
198	0x3be836b4	0.0070865992
199	0xbc1a6008	-0.00942231
200	0xbce5e94d	-0.028065348
201	0xbc09fc29	-0.008421936
202	0x3d027a6f	0.031855043
203	0x3d8c293b	0.068438016
204	0xbc09bf55	-0.0084074335
205	0xbd07004d	-0.03295927
206	0xbc64b3cb	-0.013958882
207	0x3c26b5b2	0.0101751555
208	0x3c39671e	0.011316089
209	0x3c946c0d	0.018117929
210	0x3c0f78d1	0.008756832
211	0x3c0781ca	0.00827069
212	0xbc1ab917	-0.009443543
213	0x3c359dac	0.011084955
214	0xbc185d72	-0.009299623
215	0x3c2d0a4d	0.010561538
216	0xbcdb920b	-0.026803037
217	0x3bd49f24	0.0064886976
218	0xbd02b852	-0.031914063
219	0x3cb58a44	0.022160657
220	0xbcc33920	-0.02383095
221	0xbc4c7275	-0.012478461
222	0xbc640b1c	-0.013918664
223	0x3c58396e	0.013197286
224	0xbc4de5fe	-0.012567041
225	0x3d6433af	0.05571335
226	0x3c56ac34	0.01310258
227	0x3cb1af23	0.021689957
228	0x3d8868eb	0.066606365
229	0x3d9daeb7	0.0769934
230	0x3c1f1d82	0.009711625
231	0x3bfd7d56	0.0077358885
232	0xbcd95c7d	-0.02653336
233	0xbc41731d	-0.01180723
234	0xbc80c6f2	-0.015719865
235	0x3d37d065	0.044876475
236	0xbc0cc5bb	-0.0085920645
237	0xbd610839	-0.054939482
238	0x3c05e11c	0.008171346
239	0xbc732f27	-0.014842785
240	0x3d531eff	0.051543232
241	0x3c33abb2	0.010966228
242	0x3c2c2303	0.010506394
243	0xbc7d7505	-0.015469794
244	0x3c02b67c	0.007978078
245	0x3c1f6374	0.009728301
246	0xbbac549c	-0.0052591097
247	0xbc06818b	-0.008209596
248	0x3c1fc167	0.009750701
249	0x3cb72222	0.022355143
250	0x3c5c16e9	0.013433197
251	0xbc4217fa	-0.011846537
252	0xbd54c2b5	-0.0519435
253	0xbc81621d	-0.015793854
254	0xbcc1bda7	-0.023650004
255	0xbc5ec663	-0.013597104

bn1.weight f4 [512]
0	0x3e8b4d9b	0.27207646
1	0x3f24f619	0.64438015
2	0x3e61cddf	0.2205119
3	0x3e27dbc9	0.16392435
4	0x3f40155e	0.75032604
5	0x3e6c7889	0.23092856
6	0x3f10ec58	0.5661063
7	0x3e0f2faf	0.13983034
8	0x3effa5cb	0.49931177
9	0x3f056158	0.5210166
10	0x3f4fcb2c	0.8116939
11	0x3e7f1eaa	0.24914041
12	0x3f4fa1ff	0.8110656
13	0x3e9f6ca4	0.31137574
14	0x3ef0d8db	0.47040448
15	0x3eb599e6	0.35468978
16	0x3d4d8ef3	0.050185155
17	0x3f1b3b85	0.60637695
18	0x3ecf8312	0.40529686
19	0x3f4fd770	0.81188107
20	0x3f56ec09	0.8395391
21	0x3e447e01	0.19188692
22	0x3e5a22f0	0.2130239
23	0x3ebcde6e	0.3688845
24	0x3dd3f4b0	0.10349405
25	0x3e67639c	0.22596592
26	0x3f005805	0.5013431
27	0x3f0936fd	0.5359953
28	0x3f320390	0.69536686
29	0x3f1bdcb3	0.60883635
30	0x3f4f13de	0.8088969
31	0x3f5c0489	0.8594442
32	0x3e30f28b	0.17280023
33	0x3e4ea969	0.20181812
34	0x3f382841	0.7193642
35	0x3ef7c0ca	0.48389274
36	0x3f0e95a8	0.5569711
37	0x3e7ae841	0.2450266
38	0x3f4372c4	0.76346993
39	0x3f57975c	0.8421533
40	0x3f2b5255	0.66922504
41	0x3e5d7bfd	0.21629329
42	0x3e26e389	0.16297735
43	0x3f4beed1	0.7966128
44	0x3e532e17	0.2062305
45	0x3f5b7ad3	0.8573429
46	0x3f02d875	0.5111154
47	0x3e691dd0	0.22765279
48	0x3eddaa7a	0.43294126
49	0x3ec9e727	0.39434168
50	0x3e8aeb8a	0.27132827
51	0x3ee5d3c8	0.4488814
52	0x3e28fdd6	0.1650308
53	0x3e74afb3	0.23895149
54	0x3e2cb301	0.1686516
55	0x3ee60333	0.44924316
56	0x3f29f47b	0.6638867
57	0x3f7c22e7	0.98490757
58	0x3f0fd3ab	0.56182355
59	0x3d2058b9	0.039147113
60	0x3dcbf1de	0.09958242
61	0x3f4e8430	0.8067045
62	0x3ef62428	0.4807446
63	0x3f43e85b	0.7652642
64	0x3f563c2b	0.8368556
65	0x3e5e53a2	0.21711591
66	0x3f2ee987	0.68325084
67	0x3e0ee1a4	0.13953263
68	0x3f457667	0.7713379
69	0x3e8ca2cf	0.27467963
70	0x3f571b74	0.84026265
71	0x3dcf0769	0.10108835
72	0x3e3b5147	0.18292724
73	0x3e83b49f	0.2572374
74	0x3f5867e2	0.8453351
75	0x3f55027a	0.83206904
76	0x3f358ec1	0.7092095
77	0x3f54cb05	0.83122283
78	0x3f5143f1	0.81744295
79	0x3e93aee6	0.28844374
80	0x3f32fd9c	0.6991823
81	0x3ea038fe	0.31293482
82	0x3f325528	0.6966119
83	0x3f4fcd9d	0.81173116
84	0x3f4e95f4	0.8069756
85	0x3dbd432b	0.09241327
86	0x3f0439a6	0.51650465
87	0x3eca12ec	0.3946756
88	0x3ebe11ed	0.3712305
89	0x3ef59dcf	0.4797196
90	0x3ea26e5e	0.31724828
91	0x3f07ded6	0.53074396
92	0x3f1051e1	0.5637494
93	0x3f52c9aa	0.82338965
94	0x3f3622e5	0.71146995
95	0xbc2ce609	-0.0105528915
96	0x3ea72fa8	0.32653546
97	0x3e5c50a2	0.21515134
98	0x3f12559d	0.57161885
99	0x3f0a1332	0.5393554
100	0x3e6c428a	0.23072258
101	0x3e76e696	0.24111399
102	0x3eae0c3f	0.33993718
103	0x3f67bca7	0.90522236
104	0x3f65140c	0.89483714
105	0x3f0e0bbe	0.5548667
106	0x3f3f006a	0.74610007
107	0x3f5caf48	0.8620496
108	0x3f3bd158	0.7336631
109	0x3f0b07a2	0.5430852
110	0x3d9664df	0.073434584
111	0x3f402239	0.7505222
112	0x3f5135d4	0.8172276
113	0x3f459373	0.77178115
114	0x3f49bca5	0.78803474
115	0x3e94a45b	0.29031643
116	0x3eb0221a	0.34401017
117	0x3e83c41f	0.25735566
118	0x3f2eadfe	0.6823424
119	0x3f2600b8	0.64844847
120	0x3eb41e09	0.35179165
121	0x3f43ddcd	0.76510316
122	0x3eb8654e	0.3601479
123	0x3df97949	0.121813364
124	0x3eaee2c6	0.3415739
125	0x3f36d92a	0.71425116
126	0x3ea85613	0.3287817
127	0x3ebb0571	0.3652759
128	0x3f24aeaf	0.64329046
129	0x3eec132b	0.46108374
130	0x3f328100	0.6972809
131	0x3f191cac	0.59809375
132	0x3e153a72	0.14573076
133	0x3eda96f1	0.42693284
134	0x3d8ae4c0	0.06781912
135	0x3f50e1be	0.81594455
136	0x3f5eac2b	0.8698146
137	0x3f58eb48	0.8473401
138	0x3f1a2117	0.6020674
139	0x3e0d7f28	0.13818038
140	0x3f41671e	0.7554797
141	0x3f1ad459	0.60480267
142	0x3ecec037	0.40381023
143	0x3ea13ad8	0.31490207
144	0x3f16bff7	0.58886665
145	0x3f1ea0b6	0.61963975
146	0x3e92cc6b	0.28671584
147	0x3f68bfa8	0.90917444
148	0x3ec4667c	0.3835944
149	0x3ec73ac1	0.38912013
150	0x3ee156b7	0.4401147
151	0x3eeb2f2d	0.4593443
152	0x3e9cb9ee	0.30610603
153	0x3f590a8e	0.8478173
154	0x3f1153bb	0.5676839
155	0x3ecbc52b	0.39798865
156	0x3f15d267	0.58524173
157	0x3e86cabe	0.26326555
158	0x3e7bcd6a	0.24590078
159	0x3f60b75d	0.8777979
160	0x3e3c10b1	0.18365742
161	0x3e37125d	0.17878099
162	0x3eae558a	0.34049636
163	0x3eab5096	0.3345992
164	0x3e928844	0.28619587
165	0x3efc3d55	0.49265543
166	0x3ea60f5e	0.324336
167	0x3f0f3cf4	0.5595238
168	0x3f30ac18	0.69012594
169	0x3f28225c	0.6567743
170	0x3f356627	0.70859
171	0x3e256bb4	0.16154367
172	0x3e4bf855	0.1991895
173	0x3e886240	0.2663746
174	0x3f28de2c	0.6596401
175	0x3e411d1f	0.18858765
176	0x3f063e4f	0.52438825
177	0x3eacd3ef	0.33755443
178	0x3effb9e0	0.499465
179	0x3f11814d	0.5683792
180	0x3f4a6496	0.7905973
181	0x3f4425b5	0.76620036
182	0x3f456f4f	0.7712297
183	0x3f2b4034	0.6689484
184	0x3e125632	0.14290693
185	0x3e24a0c3	0.1607695
186	0x3e8a2e89	0.26988629
187	0x3f4b2b23	0.79362696
188	0x3f043dee	0.51657
189	0x3e8a4337	0.27004406
190	0x3e2cc404	0.16871649
191	0x3f6d4b1b	0.92692727
192	0x3f46efb0	0.77709484
193	0x3f197af4	0.59953237
194	0x3e924848	0.2857077
195	0x3f299841	0.66247946
196	0x3e1727c4	0.14761263
197	0x3e31001b	0.17285196
198	0x3ea9da53	0.3317438
199	0x3e7108e5	0.23538549
200	0x3f3461b7	0.704616
201	0x3ea33a8f	0.31880614
202	0x3f57125f	0.8401241
203	0x3e7851f8	0.24250019
204	0x3ed9c1dd	0.42530718
205	0x3e84cd31	0.259378
206	0x3e129bc4	0.14317232
207	0x3f270949	0.65248543
208	0x3e49cb4f	0.19706462
209	0x3f4f6efa	0.8102871
210	0x3eb3a176	0.35084122
211	0x3f1e42de	0.6182078
212	0x3f346c83	0.70478076
213	0x3e0ba423	0.13636832
214	0x3f0c82c8	0.54887056
215	0x3eea7521	0.45792487
216	0x3f3dc9f2	0.7413627
217	0x3e3b244a	0.18275562
218	0x3f576b4f	0.84148115
219	0x3e145de0	0.14488935
220	0x3eda5fc6	0.42651194
221	0x3f27b62b	0.6551234
222	0x3e368d2c	0.1782729
223	0x3e95da5f	0.29268166
224	0x3f49b700	0.7879486
225	0x3e9e2465	0.30887142
226	0x3f372e5a	0.715551
227	0x3eed775f	0.46380135
228	0x3f2c061a	0.6719681
229	0x3e67175e	0.22567508
230	0x3ea0b8c0	0.31390953
231	0x3ea072fb	0.31337723
232	0x3f22ac85	0.63544494
233	0x3f5462b4	0.8296311
234	0x3e43442d	0.19068976
235	0x3e3ddc49	0.18541063
236	0x3f2c53a9	0.67315155
237	0x3f10bc02	0.5653688
238	0x3f3af6cf	0.7303285
239	0x3f0f89ed	0.56069833
240	0x3e1f6fae	0.15569946
241	0x3e49e322	0.1971555
242	0x3e55f513	0.2089427
243	0x3ee9ff48	0.45702577
244	0x3f2bcdb1	0.67110735
245	0x3e78b674	0.2428835
246	0x3f38b36a	0.72148764
247	0x3f08e07d	0.5346754
248	0x3ecc8689	0.39946392
249	0x3ed2b0f8	0.4115064
250	0x3f466cbf	0.77509683
251	0x3efde5ae	0.49589294
252	0x3eec286f	0.46124598
253	0x3e882a14	0.26594603
254	0x3e81bec1	0.25340846
255	0x3f2bb0d1	0.67066675

bn1.bias f4 [512]
0	0xbcae05a1	-0.021242918
1	0x3df5b35d	0.119971015
2	0x3de6de1b	0.11272832
3	0xbd3337a6	-0.043754242
4	0x3d6c75a9	0.057729397
5	0x3d49f373	0.049304437
6	0x3d341fba	0.04397557
7	0xbcf52e0c	-0.029929183
8	0x3dd55563	0.10416677
9	0xbd918374	-0.07105151
10	0x3d3677e0	0.044547915
11	0x3d875ee8	0.06609899
12	0x3db1cb83	0.08681395
13	0x3e176d3f	0.14787768
14	0x3d08a2f6	0.033358537
15	0x3d50a165	0.050935168
16	0x3e035b0c	0.128277
17	0x3bb52b9d	0.0055288807
18	0x3d952a1e	0.07283424
19	0x3b4179e9	0.0029522127
20	0x3d76e335	0.060275275
21	0x3c35d185	0.011097317
22	0x3b552c9b	0.0032527808
23	0xbc4d0bd9	-0.012515032
24	0xbdde75de	-0.10862325
25	0x3e668d2b	0.22514789
26	0x3dc18c31	0.094505675
27	0xbbdd84a3	-0.0067601963
28	0xbd029051	-0.031875912
29	0x3dd8f1d0	0.10592997
30	0x3de2d2d9	0.11075372
31	0x3d28ae4c	0.041181847
32	0xbd6a7956	-0.05724462
33	0xbd11f944	-0.03563811
34	0x3daffd1d	0.085931994
35	0x3da19e58	0.0789153
36	0x3dfc4357	0.123175316
37	0x3d25af7f	0.04045057
38	0x3db40369	0.08789713
39	0x3d208cdf	0.039196845
40	0x3db5b820	0.0887301
41	0x3dd9ab64	0.10628393
42	0x3d02a24a	0.031893052
43	0x3dc93e0f	0.0982629
44	0x3e2de53d	0.16981979
45	0xbc3bda3a	-0.0114656035
46	0x3b616041	0.0034389647
47	0x3cf99acf	0.030469326
48	0x3dc33ce8	0.09533101
49	0xbc705832	-0.014669465
50	0x3c9e1d05	0.019300947
51	0x3d8bce54	0.06826463
52	0x3e56605c	0.20935196
53	0x3e721115	0.23639329
54	0x3d82e3cd	0.06391106
55	0x3e094bca	0.13407817
56	0x3debfb09	0.115224905
57	0x3d219d83	0.039456856
58	0x3e0f12d9	0.13972034
59	0xbe63c2c4	-0.22242266
60	0x3e2fb2c9	0.17158045
61	0x3d9903bd	0.07471416
62	0x3dd6c23f	0.10486268
63	0x3d4f271a	0.0505744
64	0x3d6d6b90	0.057963908
65	0x3d8a130c	0.06741914
66	0x3d4de2b0	0.050265014
67	0x3dc9a568	0.09846002
68	0x3e327dfd	0.17430873
69	0x3badb8cc	0.0053015705
70	0x3d82d51e	0.06388305
71	0x3de3928f	0.11111938
72	0x3ba72ba1	0.0051016365
73	0x3dc80d61	0.09768177
74	0xbc6ce373	-0.014458525
75	0x3dbe2410	0.09284222
76	0x3d0fa7de	0.0350722
77	0x3e1a92c7	0.15095054
78	0x3dc38289	0.09546382
79	0x3dc09f43	0.09405377
80	0x3d320ef9	0.04347131
81	0x3cbbd7f1	0.022930117
82	0x3d13d9e5	0.036096472
83	0x3dc28cb2	0.09499492
84	0x3dc98774	0.09840289
85	0x3d544b25	0.051829476
86	0x3d694f7a	0.05696056
87	0xbd83485f	-0.06410288
88	0x3dcff426	0.101539895
89	0xba893e4b	-0.0010470835
90	0x3d8f1081	0.0698557
91	0x3d413e6a	0.047178663
92	0xbdd6ad4c	-0.104822725
93	0x3dc36530	0.09540784
94	0xbcda0108	-0.02661182
95	0xbe9487a1	-0.29009727
96	0xbd251554	-0.040303543
97	0x3d235db7	0.039884295
98	0x3dfb6108	0.122743666
99	0xbdc75e87	-0.097348265
100	0xbd0703d5	-0.03296264
101	0x3da65bd1	0.08122981
102	0xbb5439bb	-0.0032383043
103	0x3d4c6caa	0.049908318
104	0x3ce9a229	0.028519707
105	0xbbabd037	-0.005243327
106	0x3d827627	0.06370192
107	0x3d807681	0.06272603
108	0x3dc1fb99	0.094718166
109	0x3d9158fd	0.07097051
110	0x3d958dd3	0.073024414
111	0x3d8a8186	0.06762986
112	0xbe121bcc	-0.14268416
113	0x3de330b4	0.11093274
114	0x3d12ec63	0.035869967
115	0x3d4fbf1e	0.050719373
116	0x3e33c9ac	0.175574
117	0xbd763e60	-0.06011808
118	0x3dd11e0a	0.102108076
119	0x3e54cab0	0.20780444
120	0x3ca21fe8	0.019790605
121	0x3d8afdce	0.06786691
122	0x3cd13c9b	0.025541594
123	0xbca3732b	-0.019952377
124	0x3ce42a55	0.027852217
125	0x3de5996d	0.11210904
126	0x3dabee19	0.08395023
127	0x3e0e8720	0.13918734
128	0xbd67a33c	-0.056552157
129	0x3ddec1a5	0.108767785
130	0xbd48c9f2	-0.049020715
131	0x3e166295	0.14686044
132	0x3d55db27	0.052210953
133	0x3d569175	0.052384812
134	0x3e16447a	0.14674559
135	0x3e068894	0.13138038
136	0x3dcd5714	0.100263745
137	0x3be6f940	0.007048756
138	0x3da0ecb3	0.07857647
139	0xbcff32b8	-0.031152114
140	0x3e076581	0.13222314
141	0x3d902776	0.070387766
142	0x3d0786a0	0.033087373
143	0xbc5e2e55	-0.013560851
144	0xbd60f80a	-0.05492405
145	0x3d5b0375	0.053470094
146	0xbc9fd7cd	-0.019512082
147	0x3e25c1f5	0.1618727
148	0x3d7293f4	0.05922313
149	0x3dfdc58a	0.12391193
150	0x3d93a1d9	0.07208604
151	0x3bae039e	0.00531049
152	0x3d26cfce	0.04072552
153	0x3da4e414	0.08051315
154	0x3dbf2058	0.09332341
155	0x3c73a3cf	0.014870598
156	0x3d820001	0.06347657
157	0x3b988eb0	0.0046556816
158	0x3d13badf	0.036066886
159	0x3d9e3793	0.07725444
160	0x3c06e92c	0.008234303
161	0xbd287b13	-0.041132998
162	0x3e5ea043	0.21740822
163	0x3cb8b82f	0.022548763
164	0x3cb9d462	0.02268428
165	0xbe2c0c8f	-0.16801666
166	0x3d463f06	0.048399948
167	0x3d2e8007	0.042602565
168	0x3d1bb9c5	0.03801896
169	0x3da65a61	0.08122707
170	0xbc0ff296	-0.008785864
171	0x3c6235ca	0.01380677
172	0x3d47701c	0.0486909
173	0x3d093ec6	0.03350713
174	0x3d89e55c	0.067332
175	0x3dbc705e	0.0920112
176	0x3d9f5909	0.07780654
177	0x3d6d0f27	0.05787578
178	0x3b92b23a	0.0044768127
179	0x3d021403	0.031757366
180	0x3e0b99ab	0.13632838
181	0x3e121f7c	0.14269823
182	0xbd59526b	-0.053057116
183	0xbcac9ff8	-0.021072373
184	0x3e062d58	0.13103235
185	0x3e66f6d7	0.225551
186	0x3b4a9edc	0.0030917441
187	0x3e2da96a	0.16959158
188	0x3d24c773	0.040229272
189	0x3d36776f	0.044547495
190	0x3d2a1223	0.041521203
191	0x3e2a9e61	0.1666198
192	0xbcb2ba31	-0.021817299
193	0x3db3d73e	0.087812886
194	0x3d8dc0a9	0.06921513
195	0x3da306ed	0.07960305
196	0x3cfcb8cd	0.030849839
197	0x3cc2c89d	0.0237773
198	0x3b987b07	0.004653338
199	0x3d66be15	0.05633362
200	0x3c8bb604	0.017054565
201	0x3d8be48c	0.06830701
202	0x3cb9ecb8	0.022695884
203	0xbd9c7420	-0.076393366
204	0x3d5049ec	0.050851747
205	0x3d11a56c	0.03555815
206	0xbe510b11	-0.20414378
207	0xbdc1bf0a	-0.09460266
208	0x3e5a06e0	0.21291685
209	0x3ca2d554	0.019877113
210	0xba84a71c	-0.0010120603
211	0xbdb8e590	-0.090281606
212	0x3c8d4ffb	0.017250052
213	0xbd001ae1	-0.031275634
214	0x3d6c18c5	0.05764081
215	0xbc88ae8d	-0.016684795
216	0x3ddbb16e	0.107272014
217	0xbde143c0	-0.109992504
218	0x3d414bb6	0.047191344
219	0xbd58357e	-0.05278539
220	0xbd0e6a49	-0.03476933
221	0x3dc75744	0.097334415
222	0x3d4400f6	0.04785248
223	0x3d5e49e4	0.054269686
224	0x3d8df254	0.06930986
225	0x3c4be5f9	0.0124449665
226	0x3d34eaca	0.044169225
227	0xbe0affef	-0.13574193
228	0xbc87386c	-0.016506396
229	0xbdfd435a	-0.12366362
230	0x3d71314a	0.058884896
231	0xbe575450	-0.21028256
232	0x3d90e08f	0.07074081
233	0xbd839652	-0.06425156
234	0x3d8e0479	0.06934447
235	0xbd04ea94	-0.032450274
236	0x3ce34cf4	0.027746655
237	0x3d65e3f3	0.056125592
238	0xbc42b78f	-0.011884584
239	0x3cc77a26	0.024350237
240	0xbd837c77	-0.06420224
241	0x3cdcdcf0	0.02696082
242	0x3c376a2c	0.011194747
243	0x3d83fd61	0.064448126
244	0x3d264d73	0.040601205
245	0x3e0e4f87	0.13897525
246	0x3d33d3ca	0.04390315
247	0x3d63c300	0.05560589
248	0x3c9be309	0.019029157
249	0xbd8a82a8	-0.06763202
250	0x3e4f6203	0.20252232
251	0x3ca2035a	0.019776989
252	0x3dac9457	0.08426731
253	0x3cc9ed19	0.02464919
254	0x3e4df127	0.20111524
255	0xbd123da2	-0.03570331
