3 - Collab -MADDPG/trained_agents/maddpg_tennis_checkpoint_actor_local_1.pth (torch_old, 588240 bytes, 10 tensors)

fc1.weight f4 [512, 24]
0	0xbc25816c	-0.010101657
1	0xbcc6246c	-0.02418729
2	0xbced59fe	-0.028973576
3	0xbbf92c75	-0.0076041766
4	0xbcbcb9d4	-0.023037829
5	0x3cf4af37	0.029868705
6	0x3cb1ffa6	0.021728348
7	0xbb5c2182	-0.0033589308
8	0xbd05da4b	-0.032678884
9	0x3c0a4dda	0.008441413
10	0xbce9e214	-0.028550185
11	0x3d2558a7	0.04036775
12	0xbd6f292c	-0.058388874
13	0xbcdd8847	-0.027042521
14	0xbd290262	-0.041262038
15	0x3cef3798	0.029201314
16	0xbcaf2bce	-0.021383192
17	0x3a90b362	0.0011039788
18	0xbcf65ec2	-0.03007448
19	0xbaee106f	-0.0018162857
20	0xbc52048a	-0.012818465
21	0x3ce40e62	0.02783889
22	0x3cffa3b4	0.03120599
23	0x3ce8ce90	0.02841881
24	0xbc98280a	-0.01857378
25	0x3d30738d	0.043078948
26	0x3cc82fdc	0.024436884
27	0xbd651244	-0.055925623
28	0xbd60d9a9	-0.054895077
29	0xbd495769	-0.049155626
30	0xbd050d3b	-0.03248332
31	0xbcda9c17	-0.026685758
32	0xbb9fb5cb	-0.0048739663
33	0x3d6daef8	0.05802819
34	0x3d06a7e7	0.032874968
35	0xbcb8396f	-0.022488324
36	0x3c034a8b	0.008013378
37	0xbd31f002	-0.04344178
38	0xbc1eeb4c	-0.009699654
39	0xbd7408cb	-0.059578698
40	0x3c56e7da	0.013116801
41	0x3d315f6f	0.043303903
42	0x3c04d403	0.008107188
43	0x3cd4e469	0.02598782
44	0xbce8b615	-0.028407136
45	0xbd7dd6e5	-0.061972518
46	0x3cecfde6	0.028929662
47	0xbd088fc0	-0.033340216
48	0xbd26e8d4	-0.040749386
49	0xbc0a0b64	-0.008425567
50	0x3b457001	0.0030126574
51	0x3d490956	0.04908117
52	0xbd6f0575	-0.058354814
53	0xbd658d23	-0.0560428
54	0xbb5c9a85	-0.0033661437
55	0x3d47aa02	0.048746116
56	0x3d441ea5	0.047880787
57	0xbd5ab26a	-0.053392805
58	0x3c90f970	0.017697066
59	0x3d11dfbc	0.03561376
60	0xbd119e51	-0.035551373
61	0xbd6f31db	-0.058397155
62	0xbc9d71c8	-0.019219294
63	0x3ca64b94	0.02029971
64	0x3cde16bf	0.027110456
65	0xbd2bf054	-0.04197724
66	0xbc1b4cac	-0.009478729
67	0x3cd6b337	0.026208503
68	0x3be51aaa	0.006991704
69	0x3d136e3a	0.035993792
70	0x3c76ea88	0.015070565
71	0x3d7acb8c	0.061229274
72	0x3cf3f56a	0.029780108
73	0xbd0cd47e	-0.034382336
74	0x3bb213f0	0.0054345056
75	0x3bb3cf5d	0.005487366
76	0x3c3342ea	0.0109412465
77	0xba62b949	-0.00086488255
78	0x3d094df7	0.03352162
79	0xbc4fe8f2	-0.012689816
80	0x3d0b6818	0.03403482
81	0xbb095533	-0.0020955324
82	0xbc84bf49	-0.016204493
83	0xbca9bb14	-0.020719089
84	0x3ba07e56	0.004897873
85	0x3ac5f0b8	0.0015101647
86	0xbc412823	-0.0117893545
87	0x3d02940c	0.03187947
88	0x3d8e5bb8	0.06951088
89	0xbd8af3f6	-0.06784813
90	0xbc9888ed	-0.018619979
91	0x3d2a1a1e	0.041528814
92	0x3d7b9628	0.061422497
93	0x3cd3daeb	0.025861224
94	0x3c8c1279	0.017098652
95	0xb99179b9	-0.00027747246
96	0x3a9c48cd	0.0011923552
97	0x3d10bb58	0.035334915
98	0x3d2dfdfc	0.042478547
99	0xbcc94166	-0.024567317
100	0x3d8a367c	0.06748673
101	0x3d77ce0e	0.060499243
102	0xbc874045	-0.016510138
103	0x3d79b673	0.060965013
104	0xbce6bece	-0.028167155
105	0xbc8fdb3e	-0.017560598
106	0x3c30c474	0.010789026
107	0xbd2c8c98	-0.04212627
108	0xbb8221b1	-0.0039713015
109	0x3cab1dfb	0.02088832
110	0x3c649d60	0.013953537
111	0xbc64121e	-0.013920335
112	0xbd93e6fc	-0.07221791
113	0x3b0cb1bf	0.002146825
114	0xbc87a115	-0.016556302
115	0x3ba8e3df	0.0051541175
116	0x3c620149	0.013794252
117	0x3d617840	0.05504632
118	0xbce53f61	-0.027984323
119	0x3ba2cb9f	0.004968121
120	0x3d1cfa08	0.038324386
121	0x3b85f460	0.0040879697
122	0x3b070c69	0.0020606762
123	0x3cc4626a	0.023972709
124	0xbd838391	-0.06421579
125	0x3ab93557	0.0014130276
126	0x3bceb806	0.0063085584
127	0x3c8a47da	0.016879965
128	0x3d4b7b19	0.049677942
129	0xbd1fa118	-0.03897199
130	0xbc8282a5	-0.015931437
131	0x3d8f1037	0.069855146
132	0x3c328906	0.010896927
133	0xbd45730e	-0.048205428
134	0x3bd2a5ba	0.0064284476
135	0x3cdc90d6	0.026924532
136	0x3dc9210f	0.098207586
137	0x3d5d7e91	0.05407578
138	0xbb80dfe7	-0.0039329412
139	0x3d0757c8	0.0330427
140	0xbc87ce0d	-0.016577745
141	0xbc28b288	-0.010296471
142	0x3d0db115	0.034592707
143	0x3b9ab6bf	0.004721492
144	0xbd6a6a46	-0.057230256
145	0xbca8c16c	-0.020600043
146	0x3af443c5	0.001863592
147	0xbd43dba2	-0.04781688
148	0xbc463764	-0.012098167
149	0x3d428274	0.04748769
150	0xbd3764ab	-0.04477374
151	0xbd74539a	-0.05965004
152	0xbc5b2c60	-0.013377279
153	0xbc8638d5	-0.016384521
154	0x3b219a4b	0.0024658616
155	0xbcb9da1f	-0.022687016
156	0x3c459662	0.01205978
157	0xbc85e58b	-0.016344806
158	0xbca5d53b	-0.020243278
159	0xbc0a01bf	-0.008423268
160	0x3b8e6367	0.004345346
161	0xbc666aab	-0.014063518
162	0xbd2a5db3	-0.041593265
163	0xbce0ea02	-0.027455334
164	0xbcc6744d	-0.024225378
165	0x3ce6261a	0.02809434
166	0x3c5bec62	0.013423057
167	0x3d03be87	0.032164123
168	0x3d9c500f	0.076324575
169	0xbbee579b	-0.007273627
170	0xbc1a80f8	-0.009430163
171	0xbb8df72f	-0.004332445
172	0x3d05d935	0.032677848
173	0x3c9d49ac	0.019200169
174	0x3cec828e	0.028870847
175	0xbc832877	-0.016010506
176	0x3c3be260	0.011467546
177	0xbd20e4a4	-0.03928055
178	0xbd424eb2	-0.04743833
179	0xbb8f6823	-0.0043764277
180	0x3cbf4570	0.02334854
181	0x3cf943f6	0.030427914
182	0xbcc27f5c	-0.02374237
183	0x3ccb4529	0.024813252
184	0x3d5fa31f	0.054598924
185	0x3b72d2c2	0.003705189
186	0xbc0aef8a	-0.008479962
187	0x3cebfa76	0.028805953
188	0x3c84d26d	0.01621362
189	0x3c81dde8	0.015852883
190	0x3c57da6e	0.013174636
191	0x3d24c2a7	0.040224697
192	0xbcb062fe	-0.021531578
193	0x3bcf5225	0.006326931
194	0x3bddd350	0.006769575
195	0x3d3fc755	0.046820957
196	0xbd473235	-0.048631866
197	0xbc20ce87	-0.009814865
198	0xbcbdc7af	-0.023166506
199	0xbc05866c	-0.008149724
200	0xbba651e6	-0.005075681
201	0x3ccc1e28	0.024916723
202	0xb96538ce	-0.00021860303
203	0x3d6ec541	0.058293585
204	0xbd82ed46	-0.063929126
205	0xbd01c565	-0.03168239
206	0xbc861617	-0.016367955
207	0xbc66937c	-0.014073249
208	0x3c8169e4	0.015797563
209	0x3d247746	0.04015281
210	0xbb454730	-0.0030102246
211	0xbd2e3024	-0.04252638
212	0xbd483c40	-0.048885584
213	0xbc7df587	-0.015500433
214	0x3d09eca7	0.033672955
215	0xbb14cf3c	-0.002270653
216	0x3d016152	0.031586953
217	0xbd16ec90	-0.036846697
218	0x3a885d4b	0.001040378
219	0xbc9598b5	-0.018261293
220	0xbd98d10b	-0.07461747
221	0xbd64fa0e	-0.055902533
222	0xbbfb42c2	-0.0076678703
223	0x3cf2b4e7	0.029627277
224	0x3b76465a	0.0037578554
225	0xbd00de8c	-0.031462237
226	0x3b03aeca	0.0020093196
227	0xbb385597	-0.0028127187
228	0x3ce1af34	0.027549364
229	0x3b707cae	0.0036695409
230	0x3b5985b4	0.0033191266
231	0x3d52553a	0.05135081
232	0x3ce511db	0.027962616
233	0xba3df6fd	-0.0007246582
234	0xbc8d0728	-0.017215326
235	0xbcb210f6	-0.021736603
236	0xbd0b0888	-0.033943683
237	0xbd134b71	-0.03596062
238	0x3d129002	0.035781868
239	0x3d33424e	0.043764405
240	0xbc913346	-0.017724644
241	0xbcdc3fe7	-0.02688594
242	0xbce82775	-0.028339127
243	0x3cfca488	0.030840173
244	0x3ca25094	0.019813813
245	0xbda471de	-0.08029531
246	0x3ce9296a	0.02846213
247	0xbbd62da1	-0.006536201
248	0xbcd496bc	-0.025950782
249	0xbd47b2a7	-0.04875436
250	0xbb689850	-0.0035491176
251	0x3ce84c3f	0.02835667
252	0x3c95ed2c	0.018301569
253	0xbd80d72e	-0.06291042
254	0xbb62fee4	-0.003463679
255	0xbd382638	-0.044958323

fc1.bias f4 [512]
0	0xbd1a2f43	-0.03764273
1	0x3e2de6b6	0.1698254
2	0xbe6e90dc	-0.23297447
3	0x3e38a507	0.18031703
4	0xbd54bd24	-0.05193819
5	0x3da84b80	0.082175255
6	0xbdd5272e	-0.104078636
7	0xbd6fea84	-0.05857326
8	0xbdea6cd8	-0.114465415
9	0x3e0f1d2c	0.13975972
10	0x3da689f2	0.0813178
11	0xbde9aa76	-0.11409466
12	0xbda1934c	-0.07889423
13	0xbe21c178	-0.15796459
14	0xbe5010a6	-0.20318851
15	0x3e1ee49d	0.15516897
16	0x3dbbe7e3	0.09175088
17	0xbced5c75	-0.028974751
18	0xbe30192c	-0.17197102
19	0x3da8f0c2	0.08249046
20	0xbdca5d45	-0.09881071
21	0xbe422aea	-0.18961683
22	0xbe70e2fc	-0.23524088
23	0xbe15c89e	-0.1462731
24	0x3e22b105	0.1588784
25	0xbe35bc80	-0.17747688
26	0xbe291db9	-0.16515245
27	0xbdfe097b	-0.12404152
28	0x3ca2c8e7	0.019871188
29	0xbd6a99c2	-0.05727554
30	0x3d6a5407	0.05720904
31	0xbd6f1a0f	-0.05837446
32	0xbe03bad2	-0.12864235
33	0xbe1f61c6	-0.15564641
34	0x3e0e276c	0.13882226
35	0x3cdad6ac	0.026713692
36	0x3df894b4	0.12137738
37	0xbdfa581c	-0.12223837
38	0xbe240aa1	-0.1601968
39	0xbe1388e5	-0.1440769
40	0xbc9962bb	-0.018723836
41	0x3d11c858	0.035591453
42	0x3e28ff5a	0.16503659
43	0xbe20e7b7	-0.15713392
44	0x3c8c4005	0.01712037
45	0x3cc28e9d	0.023749644
46	0x3d8d957c	0.069132775
47	0xbd96975e	-0.0735309
48	0x3e0f56df	0.13997982
49	0x3e081ca4	0.13292176
50	0x3e277251	0.16352202
51	0x3cfee481	0.031114819
52	0xbda9536d	-0.08267865
53	0x3e3358c9	0.17514338
54	0xbe19c93b	-0.1501817
55	0xbe14f13a	-0.14545146
56	0xbd217cf7	-0.039425816
57	0xbc473642	-0.012158932
58	0xbe775420	-0.24153185
59	0x3d6a3767	0.057181742
60	0xbd7a6d1b	-0.061139207
61	0xbe61121e	-0.21979567
62	0x3e432705	0.19057854
63	0x3d7cf2df	0.061755057
64	0x3dc095ce	0.09403573
65	0xbd496f8d	-0.04917865
66	0xbc9abe1c	-0.01888948
67	0xbe7658a3	-0.2405725
68	0x3d8e96e8	0.06962377
69	0x3e0bfda2	0.13670972
70	0x3d8d5108	0.06900221
71	0xbd009391	-0.03139073
72	0xbddcbf9b	-0.10778733
73	0xbe66b516	-0.22530016
74	0x3e2058e4	0.15658909
75	0x3d3d8925	0.04627337
76	0xbe2febc2	-0.17179778
77	0x3dc25ad7	0.094899826
78	0xbe2829fd	-0.16422267
79	0xbe83c27c	-0.25734317
80	0x3e15460e	0.14577505
81	0xbe15f5db	-0.14644568
82	0x3d24a703	0.040198337
83	0xbc71e850	-0.01476486
84	0xbcd517ed	-0.026012385
85	0x3cabe4ef	0.020983187
86	0x3e248458	0.1606611
87	0x3e0f27b4	0.1397999
88	0xbe427ddb	-0.18993323
89	0x3db6c836	0.08924906
90	0x3de68c40	0.11257219
91	0x3dd75d8a	0.10515888
92	0xbdbf9180	-0.09353924
93	0x3daec85a	0.08534308
94	0xbe15d7e0	-0.14633131
95	0xbe2407b6	-0.16018566
96	0xbd8c0446	-0.068367526
97	0x3cb78e7c	0.022406809
98	0x3d207129	0.039170418
99	0xbe6ba9b6	-0.23013958
100	0x3d6bf9c9	0.05761126
101	0x3d59374a	0.053031243
102	0xbe43e5f6	-0.19130692
103	0xbcb8b476	-0.022546988
104	0x3e3a8ff3	0.18218975
105	0xbe0b6ff7	-0.1361693
106	0xbe6458b0	-0.22299457
107	0x3c01ea54	0.007929403
108	0x3d7c26f4	0.061560586
109	0xbc25f666	-0.010129547
110	0x3d4893a5	0.04896893
111	0xbccea4b7	-0.025225027
112	0xbdb55d3a	-0.08855672
113	0x3e293837	0.1652535
114	0x3e267865	0.16256864
115	0xbde1a685	-0.11018089
116	0x3da837a3	0.08213737
117	0xbe6e519d	-0.2327332
118	0x3d9dd847	0.07707267
119	0xbe17ef69	-0.14837421
120	0x3d72e3a1	0.059299115
121	0xbdfdd5c3	-0.123942874
122	0x3e1edbcf	0.15513538
123	0x3cef831f	0.029237328
124	0xbe924407	-0.28567526
125	0x3da8e8c0	0.082475185
126	0xbdd7d325	-0.105383195
127	0xbd4e5e05	-0.050382633
128	0xbd916696	-0.07099645
129	0xbe19435d	-0.14967103
130	0xbce021b1	-0.027359815
131	0xbd03a827	-0.032142784
132	0xbe7a43c6	-0.24439916
133	0x3c7fb79a	0.015607739
134	0x3c40ce25	0.011767899
135	0x3e26cdd6	0.16289458
136	0xbe5e1d5b	-0.21690886
137	0x3e0bff91	0.1367171
138	0x3d841d1a	0.06450863
139	0x3df25e8b	0.11834439
140	0x3d135eb1	0.035978977
141	0x3d99629d	0.07489512
142	0x3d593616	0.053030096
143	0x3cf76dad	0.030203665
144	0xbd7974d7	-0.060902443
145	0xbde62d2a	-0.11239083
146	0xbda837f0	-0.08213794
147	0x3e08a5e0	0.13344526
148	0xbe699ab6	-0.22812924
149	0xbd811bf7	-0.06304162
150	0x3da7ab45	0.08186964
151	0xbe0990b8	-0.13434112
152	0xbdaeacf2	-0.085290805
153	0xbe4b5c26	-0.1985937
154	0x3c7ab50d	0.015301955
155	0xbe1712b4	-0.14753228
156	0xbe3d43ab	-0.18482845
157	0x3e2b7909	0.1674539
158	0xbe357088	-0.17718709
159	0x3e1ef170	0.15521789
160	0xbcdf7f39	-0.027282344
161	0x3e36bb06	0.17844781
162	0xb9f74e96	-0.00047170062
163	0xbe79af78	-0.24383342
164	0xbe029deb	-0.12755553
165	0xbe03bde3	-0.12865405
166	0xbe365b57	-0.17808281
167	0xbdc3bf8a	-0.095580176
168	0x3dfb5978	0.12272924
169	0xbc8605dc	-0.016360216
170	0xbd371430	-0.044696987
171	0xbcb01123	-0.021492546
172	0xbdc1ec37	-0.094688825
173	0x3d751d4e	0.0598424
174	0xbd73da3a	-0.05953429
175	0x3cfc1e87	0.030776275
176	0x3d8807ab	0.066420875
177	0xbe0f467d	-0.13991733
178	0xbe19f9da	-0.15036717
179	0xbda90e72	-0.08254708
180	0xbd8df5b5	-0.069316305
181	0xbe805e3b	-0.25071892
182	0xbe334f26	-0.17510661
183	0xbe11da68	-0.14243472
184	0xbddba85e	-0.10725473
185	0x3e3327c9	0.17495646
186	0xbe011bb9	-0.12608232
187	0x3d891bc4	0.06694749
188	0x3e09471a	0.1340603
189	0xbe030363	-0.1279426
190	0x3c5fbe5c	0.013656225
191	0x3e07ce12	0.13262203
192	0xbdb88109	-0.090089865
193	0x3d1b83f2	0.03796763
194	0x3db3aa35	0.08772699
195	0x3e1474b6	0.14497647
196	0xbe4bce0b	-0.19902818
197	0xbcd159a7	-0.025555445
198	0xbcf31268	-0.029671863
199	0x3d4bb996	0.049737535
200	0xbe586ecb	-0.21136014
201	0xbd7edcbd	-0.06222223
202	0x3d77a5d5	0.060460884
203	0xbe4b88e4	-0.19876438
204	0xbd046833	-0.032325935
205	0xbd9b1369	-0.075720616
206	0x3e32efbd	0.17474265
207	0x3e0dc5bf	0.13844965
208	0x3c37e2e0	0.011223525
209	0x3dcfb7aa	0.10142453
210	0xbe1bd5b3	-0.15218239
211	0x3e503c62	0.20335534
212	0xbe6ac27f	-0.22925757
213	0x3cba4afb	0.022740832
214	0x3dbafc9e	0.09130214
215	0x3df5874b	0.11988696
216	0xbe2a8f13	-0.16656141
217	0xbd9257d1	-0.07145656
218	0x3e214ca8	0.15751898
219	0x3d8caf31	0.068693526
220	0x3dbf6fe0	0.0934751
221	0xbd94d482	-0.07267095
222	0xbd5ae363	-0.05343951
223	0x3e1871ac	0.14887112
224	0xbe2ee1b2	-0.17078283
225	0x3e1edf42	0.15514854
226	0x3d9a7d8b	0.07543477
227	0xbdc58960	-0.09645343
228	0xbd970867	-0.073746495
229	0xbe09ef17	-0.13470112
230	0x3cd4c278	0.025971636
231	0x3d1a7faf	0.037719425
232	0x3b745291	0.0037280659
233	0xbd2255f5	-0.039632756
234	0xbe05f76b	-0.13082664
235	0xbda1597c	-0.07878396
236	0xbdf105ac	-0.1176866
237	0x3dd489df	0.10377859
238	0xbe1b62fc	-0.15174478
239	0xbe88628b	-0.26637682
240	0xbd2fca48	-0.04291752
241	0xba827b02	-0.0009954872
242	0xbe1d71a0	-0.15375376
243	0xbe6086ba	-0.21926394
244	0xbdd40572	-0.10352601
245	0xbe61662d	-0.22011633
246	0xbd6ad44e	-0.057331376
247	0xbe6e1690	-0.23250794
248	0xbe28ac24	-0.16471916
249	0xbe49b4da	-0.19697896
250	0x3e02414e	0.12720224
251	0x3cfa87d1	0.03058234
252	0xbe66642f	-0.22499155
253	0xbdfab1e0	-0.12240958
254	0xbd5bcca9	-0.053661976
255	0x3c02b012	0.007976549

fc2.weight f4 [256, 512]
0	0x3db7f5e9	0.089824505
1	0xbc7005f1	-0.014649854
2	0xbd618cc8	-0.0550659
3	0x3d1fdcb8	0.039028853
4	0xbd0f151d	-0.034932245
5	0xbd8c2ad9	-0.0684411
6	0xbc71ff90	-0.0147704035
7	0x3ce3375f	0.027736364
8	0x3d29e259	0.041475628
9	0x3d4f63dc	0.050632343
10	0xbd7acc41	-0.061229948
11	0xbdf2ff8a	-0.118651465
12	0x3ce03ce4	0.027372785
13	0x3ca74499	0.020418452
14	0x3d4b8fd0	0.049697697
15	0xbcb01b3c	-0.021497361
16	0xbc7bc1f5	-0.015366067
17	0x3aa00040	0.0012207106
18	0x3c99f55e	0.018793758
19	0x3c68bf3e	0.014205752
20	0xbd737fcc	-0.05944805
21	0x3d14d74c	0.036338136
22	0x3cf26376	0.029588442
23	0x3cc3ab5f	0.023885427
24	0x3e083802	0.13302615
25	0xbc8ea095	-0.017410556
26	0xbc382d3c	-0.011241253
27	0xbdaa1a2c	-0.08305773
28	0x3b9a3b86	0.004706803
29	0xbc785892	-0.015157836
30	0xbd26c053	-0.04071076
31	0xbdb48509	-0.08814437
32	0x3d505b19	0.050868127
33	0xbe0f9ca3	-0.14024596
34	0xbd9aa96d	-0.07551847
35	0xbd034978	-0.032052487
36	0x3d5f4d97	0.054517355
37	0x3dc7d440	0.0975728
38	0xbd6e2591	-0.058141295
39	0x3da5b4d3	0.0809113
40	0xbce2f858	-0.02770631
41	0xbbfaeecd	-0.007657862
42	0xbd980e80	-0.07424641
43	0xbdb21232	-0.08694877
44	0x3b9dcdd4	0.0048157964
45	0xbd22157f	-0.03957128
46	0xbd4b1c5f	-0.049587604
47	0x3c99eb59	0.01878898
48	0xbc8a9327	-0.01691587
49	0x3d0f7a61	0.03502882
50	0x3c804b1c	0.015660815
51	0x3d77ea36	0.060526095
52	0xbe34dc00	-0.17662048
53	0xbbe81e82	-0.007083715
54	0x3dae5b72	0.085135356
55	0xbda92275	-0.08258525
56	0xbdc220a0	-0.09478879
57	0xbc956800	-0.018238068
58	0xbd3f5d4e	-0.04671984
59	0x3d45dd2d	0.048306633
60	0xbcd79d64	-0.026320167
61	0xbdb84f47	-0.08999496
62	0xbde05d85	-0.109553374
63	0xbbd879be	-0.0066063097
64	0xbd2b54d0	-0.04182893
65	0xbdbf5dbd	-0.09344051
66	0xbd1b80dc	-0.037964687
67	0xbda22d23	-0.079187654
68	0xbd1e54b6	-0.038655005
69	0x3cb1d07b	0.021705857
70	0x3d80bf65	0.062865056
71	0x3d4ea211	0.050447527
72	0xbc0b4577	-0.008500448
73	0x3d565af8	0.05233285
74	0x3d36dbc9	0.044643197
75	0xbd637f54	-0.05554135
76	0xbc2d1c3b	-0.010565813
77	0xbc3d09fb	-0.011538024
78	0xbdaa514c	-0.083162874
79	0xbc505755	-0.012716134
80	0xbc2e0671	-0.010621653
81	0xbd876bd8	-0.066123664
82	0xbcb3d389	-0.021951454
83	0x3d09647b	0.03354309
84	0x3d454ec4	0.04817082
85	0x3cf7ff50	0.03027311
86	0xbce58292	-0.028016362
87	0xbcf2c261	-0.029633703
88	0x3d585567	0.05281582
89	0xbdcd2d38	-0.100183904
90	0x3d65bcf7	0.056088414
91	0x3d66c8e3	0.056343924
92	0x3bf38363	0.007431434
93	0x3ced0daf	0.028937189
94	0x3c7de74b	0.015497039
95	0xbdef5602	-0.116863266
96	0x3d36152e	0.044453792
97	0x3d889139	0.06668324
98	0xbc3c0d8f	-0.011477842
99	0x3cb94799	0.022617148
100	0xbcd96551	-0.02653757
101	0xbba030a7	-0.0048886123
102	0xbc31a0d5	-0.010841568
103	0xbb610060	-0.00343325
104	0x3cc8aa77	0.024495346
105	0x3d210c1c	0.03931819
106	0xbd9ed400	-0.077552795
107	0x3d6fdaa1	0.05855811
108	0x3cf7ce2c	0.030249678
109	0xbb9e0d2b	-0.004823347
110	0x3c92697f	0.01787257
111	0xbcb3b3e6	-0.021936368
112	0xbd0da0ff	-0.034577366
113	0xbd906170	-0.07049835
114	0x3d3388d0	0.043831646
115	0x3b91751f	0.0044390108
116	0xbcb0d04f	-0.021583704
117	0xbd734168	-0.059388548
118	0x3d644212	0.055727072
119	0xbd4a2469	-0.04935113
120	0xbb88b9fe	-0.0041725626
121	0xbdabd7f4	-0.08390799
122	0x3c7d2f10	0.015453115
123	0xbdb2208c	-0.08697614
124	0xbd79667d	-0.060888756
125	0x3d4b6b7c	0.049663052
126	0xbd8130bb	-0.06308123
127	0x3b99e8fd	0.004696964
128	0xbda32787	-0.079665236
129	0xbd6256df	-0.055258628
130	0xbd0ddd2b	-0.03463475
131	0x3d0cc9ab	0.034372013
132	0x3d2aa55a	0.041661598
133	0x3cf8575c	0.030315094
134	0x3c8f749d	0.01751166
135	0x3d2ee300	0.042696953
136	0x3d09b761	0.03362215
137	0x3cdddbeb	0.027082404
138	0x3c5462ad	0.012962979
139	0xbdaced8f	-0.08443748
140	0x3d6dbbe7	0.058040526
141	0xbd265df0	-0.04061693
142	0x3de85660	0.113446
143	0x3d4cfcbc	0.050045714
144	0xba4341a2	-0.000744844
145	0xbd099b73	-0.033595514
146	0xbcadda4c	-0.021222256
147	0xbd8b52c6	-0.06802897
148	0x3db3bca8	0.08776218
149	0xbda258f4	-0.07927123
150	0xbdd1abb7	-0.1023783
151	0xbc462ca1	-0.012095601
152	0x3d45ec95	0.048321325
153	0xba6bf647	-0.0009001237
154	0x3d8fc8bf	0.07020711
155	0xbd3f355f	-0.046681758
156	0xbd2f0df0	-0.0427379
157	0x3cbc8282	0.02301145
158	0x3d2f55fd	0.042806614
159	0x3d10ab59	0.03531966
160	0x3d476a0f	0.04868513
161	0xbde03404	-0.10947421
162	0xbaa74a9b	-0.0012763323
163	0x3980734f	0.00024499974
164	0x3d67654e	0.056493096
165	0xbc53d161	-0.012928338
166	0x3d347997	0.04406127
167	0xbd8945cf	-0.06702768
168	0xbd3661cd	-0.044526864
169	0x3b06c8c7	0.002056645
170	0xbcfde976	-0.030995112
171	0xbca127ca	-0.019672293
172	0x3d812986	0.06306748
173	0x3d067a37	0.032831397
174	0xbd3ce5cf	-0.0461176
175	0xbc1897f8	-0.009313576
176	0x3d0d2f60	0.03446901
177	0xbd878f40	-0.0661912
178	0xbd8b5c0e	-0.068046674
179	0x3dcd03a3	0.10010459
180	0xbd328c25	-0.043590683
181	0x3c22b749	0.009931394
182	0xbd25b878	-0.040459126
183	0x3c312464	0.010811899
184	0x3cf04eee	0.029334512
185	0x3d60baa9	0.054865513
186	0x3b978352	0.004623809
187	0xbb5cbd9f	-0.003368236
188	0xbd821c01	-0.063529976
189	0x3c2ff911	0.010740534
190	0x3c241a6a	0.010016063
191	0xbd1e720a	-0.038682975
192	0x3c870a1e	0.016484316
193	0xb7f87307	-2.9617468e-05
194	0x3cb8dc8b	0.0225661
195	0xbdc24191	-0.09485162
196	0xbd340653	-0.043951344
197	0x3d1d16f8	0.038351983
198	0xbcf9b941	-0.030483844
199	0x3bcc91c3	0.006242962
200	0xbd48eea5	-0.049055714
201	0xbd0ca0c1	-0.034332994
202	0x3c7c07cb	0.015382717
203	0xbd0cdc08	-0.034389526
204	0xbcb4ad15	-0.022055188
205	0xbda3f5ee	-0.08005892
206	0xbc1668f5	-0.009180297
207	0xbd2a891d	-0.041634668
208	0x3db583eb	0.08863052
209	0x3da1cb66	0.07900123
210	0xbd30c8a5	-0.0431601
211	0xbc215b36	-0.009848407
212	0x3d90058e	0.070323095
213	0x3d0be51a	0.034154035
214	0xbd7238df	-0.059136268
215	0x3d99ebea	0.075157
216	0xbd8bca5b	-0.068257056
217	0x3c8e0f08	0.017341152
218	0xbd731b8f	-0.059352454
219	0xbd0c9566	-0.034322165
220	0xbc04b933	-0.008100796
221	0x3d85c000	0.06530762
222	0xbd7633d6	-0.06010803
223	0xbccf91c5	-0.025338063
224	0x3c002b92	0.007822888
225	0x3d31d7e1	0.04341877
226	0xbd30065a	-0.042974807
227	0x3c84f16a	0.016228396
228	0x3d808d5b	0.062769614
229	0xbdb64559	-0.08899946
230	0x3b4de1ff	0.0031415222
231	0xbd8dbcd4	-0.06920782
232	0xbd89e6ec	-0.06733498
233	0xbcf8cbe6	-0.030370664
234	0xbc15e94a	-0.009149859
235	0x3c9ce15e	0.019150432
236	0xbca0e03f	-0.019638179
237	0xbda2d9b9	-0.079516836
238	0xbcff810a	-0.03118946
239	0xbd52f9ac	-0.051507637
240	0xbd1f3a9b	-0.03887425
241	0xbd8fcee7	-0.07021885
242	0x3d1d9835	0.038475234
243	0x3d503af6	0.05083748
244	0xbd8b2bb2	-0.067954436
245	0x3b6da65f	0.0036262495
246	0xb99104f7	-0.00027660254
247	0x3dc7f23d	0.09763
248	0x3d95b693	0.07310214
249	0xbdc936eb	-0.09824928
250	0x3c975096	0.018471044
251	0xbdd56483	-0.10419562
252	0xbd7028a6	-0.058632515
253	0xbcad58d9	-0.02116053
254	0xbd53ea45	-0.05173709
255	0x3ba021c4	0.0048868377

fc2.bias f4 [256]
0	0x3d16a8de	0.036782138
1	0x3b136819	0.0022492467
2	0x3d80e87c	0.06294343
3	0x3c8b4d6d	0.017004693
4	0x3e03f652	0.12886932
5	0x3da138d6	0.07872169
6	0x3db2c6a3	0.08729293
7	0x3cb64b4a	0.022252697
8	0x3cb23eed	0.021758521
9	0x3d87792e	0.0661491
10	0x3ca5880d	0.020206476
11	0x3d85ddfa	0.06536479
12	0x3d7f228e	0.062288813
13	0x3d8b2375	0.06793872
14	0x3d96d76d	0.07365308
15	0x3bbde13e	0.005794673
16	0x3d8fb256	0.07016437
17	0x3d2c80d5	0.04211505
18	0x3d64400f	0.055725154
19	0x3d705789	0.05867723
20	0x3d5a4ed6	0.05329784
21	0x3decc07f	0.11560153
22	0x3c0d4792	0.008623021
23	0x3d59a21b	0.05313311
24	0x3cd505b8	0.026003703
25	0x3df9bdba	0.121943906
26	0x3d09c56a	0.033635534
27	0x3d73b2aa	0.05949656
28	0xbc29ff3a	-0.010375792
29	0x3e0221ba	0.12708178
30	0xbc327cca	-0.01089401
31	0x3e0fe21f	0.14051102
32	0x3d885c80	0.06658268
33	0x3d9aace6	0.07552509
34	0x3d7fc126	0.06244006
35	0x3d2f4de6	0.0427989
36	0x3cc80cf4	0.024420239
37	0x3da7e28c	0.08197507
38	0xbb3df6fe	-0.002898633
39	0x3d347300	0.044054985
40	0xbbc5fc52	-0.006042042
41	0x3dd294ba	0.102822736
42	0x3e09c592	0.13454273
43	0x3c1dc696	0.009629866
44	0x3d492932	0.049111553
45	0x3d9873f8	0.07443994
46	0x3cbfbad5	0.023404518
47	0x3d2201fc	0.039552674
48	0x3d33e6f3	0.043921422
49	0x3e1d8134	0.15381318
50	0x3cefaaa3	0.02925617
51	0x3d3a8e9e	0.045546167
52	0x3d1c7b52	0.038203545
53	0x3d53ca8b	0.051706832
54	0x3d59462c	0.053045437
55	0x3d5eb2d9	0.05436978
56	0x3d86b03b	0.06576582
57	0x3dcd59b2	0.10026874
58	0x3d9297c0	0.0715785
59	0x3d84d3ba	0.06485696
60	0xbb8af09d	-0.004240109
61	0xbc66aa7f	-0.014078735
62	0x3ca45a93	0.02006272
63	0x3c790d0c	0.0152008645
64	0x3de149ac	0.1100038
65	0x3d820eef	0.063505046
66	0x3d998901	0.074968345
67	0x3e0dd5c8	0.13851082
68	0x3cb185f3	0.021670317
69	0x3d9ba164	0.07599142
70	0x3b90da16	0.004420529
71	0x3cf8d7f4	0.030376412
72	0x3d8701ac	0.06592116
73	0x3d7977de	0.06090533
74	0x3d3d444c	0.04620771
75	0x3dabf0a1	0.08395506
76	0x3da61efc	0.081113786
77	0x3d3a3df2	0.045469232
78	0x3da29f3b	0.07940527
79	0x3e01d5c4	0.12679201
80	0x3d456a6a	0.048197187
81	0x3dec983f	0.11552476
82	0x3dc35811	0.09538282
83	0x3ca61b15	0.020276586
84	0x3b2d0b90	0.0026404597
85	0x3d454d37	0.04816934
86	0x3dd2634f	0.10272848
87	0x3da0738a	0.07834537
88	0x3dbaed44	0.09127286
89	0x3d734552	0.05939228
90	0x3d3f8bb6	0.046764098
91	0x3d2ac7dd	0.04169451
92	0x3ceda334	0.029008485
93	0x3c372cc7	0.011180109
94	0xbbe43d81	-0.0069653396
95	0x3d705726	0.05867686
96	0x3afc7be2	0.0019262994
97	0x3d04d891	0.032433096
98	0x3d1bf110	0.038071692
99	0x3d8d3093	0.068940304
100	0x3d899e82	0.06719686
101	0x3d966d3f	0.07345056
102	0x3db91e98	0.090390384
103	0x3bdd796e	0.0067588603
104	0x3db182d8	0.086675346
105	0x3c9fefb6	0.019523483
106	0x3d981ec0	0.0742774
107	0x3e0e08d1	0.1387055
108	0x3d6e76f8	0.058218926
109	0x3d4a3121	0.04936326
110	0x3daa8f39	0.08328099
111	0x3d1b2e0f	0.03788572
112	0x3db081f1	0.08618534
113	0x3bd04e8d	0.00635702
114	0x3d327e30	0.043577373
115	0x3d437343	0.047717344
116	0x3d5ba635	0.053625304
117	0xbc9c457e	-0.019076105
118	0x3cee7911	0.029110463
119	0x3bc959a1	0.006144718
120	0x3c30d53c	0.010793027
121	0x3d9d6889	0.07685954
122	0x3cce72aa	0.02520116
123	0x3d9946cb	0.07484206
124	0x3cdc259d	0.026873404
125	0x3dce8588	0.10084063
126	0x3d718ea7	0.058973935
127	0x3d818511	0.063242085
128	0x3c8367fc	0.016040795
129	0x3da5b121	0.08090425
130	0x3d5f2ede	0.054488055
131	0x3dae6841	0.085159786
132	0x3d936b52	0.07198204
133	0x3ca23bbf	0.01980388
134	0x3d35a12d	0.044343162
135	0x3d425c96	0.047451578
136	0x3d177867	0.03698006
137	0x3dc00226	0.0937541
138	0x3da9fb83	0.08299925
139	0x3cc94fc5	0.02457417
140	0x3d753da9	0.059873257
141	0x3dc110ba	0.094270185
142	0x3d524459	0.051334713
143	0x3cc19d41	0.023634555
144	0x3c82448b	0.015901824
145	0x3db8fc60	0.09032512
146	0x3d816f6d	0.06320081
147	0x3d40ae52	0.047041245
148	0x3d7cb677	0.06169745
149	0x3c1c92ee	0.009556515
150	0x3da3a235	0.07989923
151	0x3d709574	0.05873628
152	0x3d59e981	0.053201202
153	0x3def3bfd	0.11681364
154	0x3d6526a5	0.055945057
155	0x3cf34ae3	0.029698795
156	0x3dbfebcf	0.09371149
157	0x3daf7741	0.08567668
158	0x3d4299ed	0.047510076
159	0x3cb87fef	0.022521941
160	0x3cf19d13	0.029493844
161	0x3d5716fd	0.052512158
162	0x3ca14b8b	0.019689342
163	0x3dd63dbd	0.104609944
164	0x3cf3a503	0.02974177
165	0x3d9445ce	0.07239877
166	0x3d3be9d0	0.045877278
167	0x3d74fc9a	0.059811212
168	0x3c51325c	0.012768354
169	0x3c33f684	0.010984067
170	0x3dc74eb1	0.09731806
171	0x3cbb774e	0.022884037
172	0x3d9dc2c6	0.07703166
173	0x3db8770b	0.09007081
174	0x3d85d32c	0.065344185
175	0x3ccfa77c	0.025348417
176	0x3d856c66	0.06514816
177	0x3c6bf72b	0.014402191
178	0x3d546e5f	0.05186307
179	0x3d945637	0.07243007
180	0x3de20ef4	0.11038008
181	0x3d17e4ec	0.03708355
182	0x3c884836	0.016635995
183	0x3b5b86fb	0.0033497203
184	0x3db634c0	0.0889678
185	0x3d828cd9	0.06374521
186	0x3d37cdb9	0.044873927
187	0x3c4d364c	0.012525152
188	0x3e1db092	0.15399387
189	0x3e0a4967	0.13504563
190	0x3dadcbfe	0.08486174
191	0x3d9f4626	0.07777052
192	0x3d6d6f47	0.05796745
193	0x3d8acad3	0.06776967
194	0x3d11e224	0.035616055
195	0x3bb16509	0.0054136557
196	0x3e1d5103	0.15362935
197	0x3d770cf4	0.060315087
198	0x3db6c396	0.08924024
199	0x3d85dcf6	0.065362856
200	0x3d83212b	0.06402811
201	0x3bafdd88	0.0053669848
202	0x3d9721c6	0.07379489
203	0x3d6049de	0.054757945
204	0x3cfd28d0	0.03090325
205	0xbb5621c2	-0.003267393
206	0x3d6a2107	0.057160404
207	0x3d206c5d	0.039165843
208	0x3d89b2d3	0.06723561
209	0x3d1f8892	0.038948603
210	0x3d33c7cc	0.043891713
211	0x3d5966e1	0.05307663
212	0x3c2ea265	0.010658835
213	0x3db668f1	0.08906735
214	0x3d0d3811	0.034477297
215	0x3cadb517	0.021204514
216	0x3d94725d	0.072483756
217	0x3d4e4324	0.050357
218	0x3d8df6de	0.06931852
219	0x3d16926e	0.03676074
220	0x3ce710f0	0.028206319
221	0x3d51646c	0.05112116
222	0x3dbe0fc2	0.09280349
223	0x3d9eeee1	0.07760406
224	0x3ce71677	0.028208954
225	0x3daa99f0	0.083301425
226	0xbc360330	-0.011109158
227	0x3cf8e1cc	0.030381106
228	0x3daf96c9	0.08573682
229	0x3d88ab72	0.066733256
230	0x3c0305bf	0.007996975
231	0x3d901e6d	0.07037053
232	0x3cf1fe5e	0.029540237
233	0x3d9e9d3d	0.077448346
234	0x3d3e00c1	0.046387438
235	0x3d98801b	0.07446309
236	0x3d24df82	0.040252216
237	0x3c9133d5	0.01772491
238	0x3d8ed5e5	0.06974391
239	0x3d32a25d	0.043611873
240	0x3d56fd6d	0.05248778
241	0x3d8ec879	0.06971831
242	0x3ccbbebd	0.024871225
243	0x3ca8713c	0.020561807
244	0x3d5cab78	0.053874463
245	0x3d887b93	0.06664195
246	0x3da59f4e	0.080870256
247	0x3d5d1576	0.053975545
248	0x3df38dc3	0.11892273
249	0x3d7c913f	0.061661955
250	0xbbb2abdf	-0.0054526175
251	0x3d5e09ef	0.054208692
252	0x3d52cf1c	0.051467046
253	0x3dac3233	0.08408012
254	0x3cb109ca	0.021611113
255	0x3d532cae	0.05155628

fc3.weight f4 [2, 256]
0	0xbdf0d45e	-0.11759256
1	0xbdf83084	-0.121186286
2	0x3d41f202	0.047349937
3	0xbdb724c2	-0.08942558
4	0xbd94edca	-0.07271917
5	0x3d58c454	0.052921608
6	0xbde7f28b	-0.11325558
7	0x3de63e5e	0.11242364
8	0xbe0535c2	-0.13008788
9	0xbdad261b	-0.08454534
10	0x3d656025	0.055999894
11	0x3dad9fd2	0.08477749
12	0x3dac519d	0.08414004
13	0x3d9deda1	0.0771134
14	0x3d3b631b	0.04574881
15	0x3e2e1ef4	0.17003995
16	0x3d94504e	0.072418794
17	0x3d925df1	0.07146824
18	0xbe03a4fa	-0.12855902
19	0xbe319bcd	-0.1734459
20	0xbe03ca31	-0.12870099
21	0xbe1a5af5	-0.1507376
22	0x3e304554	0.17213947
23	0x3d78fd68	0.060788542
24	0xbdf64760	-0.120253325
25	0xbe1904ba	-0.1494321
26	0x3d6c9752	0.057761498
27	0x3dbd8bd0	0.09255183
28	0x3dd16a82	0.10225393
29	0xbe09013b	-0.13379376
30	0x3e0b5e8e	0.13610289
31	0xbdac984a	-0.08427484
32	0xbdea3478	-0.11435789
33	0xbe0d1c25	-0.13780268
34	0x3da0b78b	0.07847508
35	0xbdb591f2	-0.088657275
36	0x3dbf71cd	0.09347878
37	0xbdd26920	-0.10273957
38	0x3e0a035b	0.13477843
39	0x3e238a45	0.15970714
40	0x3e107ceb	0.14110152
41	0x3d83ee24	0.06441906
42	0xbd731361	-0.059344653
43	0xbe2044af	-0.156512
44	0x3dfec959	0.12440748
45	0x3d47091c	0.04859267
46	0xbe02d5e3	-0.12776904
47	0x3db4f7cb	0.08836325
48	0xbe105c2f	-0.14097665
49	0xbbb32e61	-0.0054681753
50	0x3dcbcee6	0.09951572
51	0x3e45c06e	0.19311687
52	0xbe18e79d	-0.14932103
53	0x3d7ff765	0.062491793
54	0x3dbe1f6f	0.09283339
55	0x3d9f4e65	0.077786244
56	0x3cb4985e	0.02204531
57	0xbd9780ce	-0.073976144
58	0xbe30fe2d	-0.1728446
59	0xbe0376d4	-0.12838298
60	0x3d9378ca	0.07200773
61	0x3e0f28e5	0.13980444
62	0x3ded36bd	0.11582706
63	0x3e2fad1b	0.17155878
64	0xbde8a009	-0.11358649
65	0xbdf8a9bd	-0.1214175
66	0x3da9f9f0	0.08299625
67	0xbe0bb955	-0.13644917
68	0xbe08e8d0	-0.13370061
69	0x3da70c65	0.08156661
70	0x3e1df36a	0.15424886
71	0x3da140be	0.07873677
72	0xbe121ff6	-0.14270005
73	0x3e1de8a9	0.15420784
74	0x3ddae0b4	0.1068739
75	0x3e1e884d	0.15481682
76	0x3d7d7502	0.061879165
77	0x3daa5f86	0.08319001
78	0xbe11869a	-0.14211503
79	0xbe1e41eb	-0.15454833
80	0x3dae11a6	0.0849946
81	0xbc9b6a69	-0.018971639
82	0xbda061c4	-0.07831147
83	0xbe0ecdde	-0.1394572
84	0xbdfe91cf	-0.124301545
85	0xbdb75efd	-0.089536645
86	0x3cf47e58	0.029845402
87	0xbdecd6c9	-0.115644045
88	0x3def0484	0.11670783
89	0x3dcf5f29	0.10125572
90	0x3e0439a1	0.12912609
91	0x3d0b0f4d	0.03395014
92	0xbdaa7563	-0.08323171
93	0x3deb493b	0.11488577
94	0x3e0bbea6	0.13646945
95	0xbe19e4e2	-0.15028718
96	0xbddd9757	-0.108198814
97	0x3d85bb68	0.065298855
98	0xbe184648	-0.1487056
99	0x3db46341	0.08807994
100	0xbe1815c5	-0.14852054
101	0x3e01bd38	0.12669837
102	0x3da90009	0.0825196
103	0x3e1b0ae3	0.15140872
104	0xbdb05b33	-0.08611145
105	0x3dd25f39	0.102720685
106	0xbdcca54c	-0.099924654
107	0xbe2d4b48	-0.16923249
108	0x3d49a8c8	0.049233228
109	0xbdfe6f26	-0.12423544
110	0x3dbd3a2c	0.09239611
111	0xbde9df1d	-0.114195086
112	0xbe0baefd	-0.13640971
113	0x3d67761e	0.05650913
114	0xbdac109d	-0.08401606
115	0x3e685f79	0.2269267
116	0xbdf2809e	-0.11840938
117	0xbdc23b8c	-0.09484014
118	0x3dda7d75	0.1066846
119	0xbe4f009a	-0.20215073
120	0xbd732a25	-0.059366364
121	0x3e2677b7	0.16256605
122	0xbdcd8a8b	-0.100361906
123	0xbd9563be	-0.07294415
124	0xbe026b45	-0.12736233
125	0x3db4f532	0.0883583
126	0x3da3231b	0.0796568
127	0xbdd41e54	-0.10357347
128	0x3d7b5dd5	0.061368782
129	0x3e1bcabc	0.15214056
130	0x3e292805	0.16519172
131	0xbdefa10a	-0.11700638
132	0x3dbb67f1	0.091506846
133	0xbdcd3a9b	-0.10020944
134	0x3da37e8c	0.07983121
135	0xbe04e9b0	-0.1297977
136	0x3e0ad47a	0.13557616
137	0xbd8fa70f	-0.07014286
138	0x3dd1377c	0.10215661
139	0x3e3c432a	0.18384996
140	0xbd999443	-0.07498982
141	0xbe0ff71a	-0.14059106
142	0x3e351755	0.17684682
143	0x3de1de8d	0.11028776
144	0x3df7bfd8	0.12097138
145	0xbe0119fe	-0.12607571
146	0xbe13fb75	-0.14451392
147	0x3d98cd7f	0.0746107
148	0xbe03c149	-0.12866701
149	0x3d8a2640	0.06745577
150	0x3e2a72fd	0.16645427
151	0x3d17fadc	0.037104473
152	0x3d855e90	0.06512177
153	0xbe30eaa7	-0.17277013
154	0x3de1b390	0.11020577
155	0x3dbf8c69	0.09352953
156	0xbe2ce9b0	-0.1688602
157	0xbddbe4aa	-0.107369736
158	0xbe21ea9a	-0.1581215
159	0x3de687b3	0.11256351
160	0x3d95a135	0.073061384
161	0xbe116178	-0.14197338
162	0x3e5866b9	0.21132936
163	0x3d628b6b	0.05530874
164	0x3e18b10d	0.1491129
165	0xbddd6587	-0.108103804
166	0xbd9cc690	-0.0765506
167	0x3d408738	0.047003955
168	0x3db75313	0.08951392
169	0x3df5fc7c	0.12011048
170	0xbddf7811	-0.10911573
171	0x3e09cbac	0.13456601
172	0x3d90ef55	0.07076899
173	0x3d55cc52	0.05219681
174	0xbdacc73a	-0.08436437
175	0x3e122a95	0.14274056
176	0xbe47c845	-0.1950999
177	0x3e208219	0.15674628
178	0x3d9a5551	0.07535804
179	0xbe0cdeea	-0.1375691
180	0xbe01ba62	-0.12668756
181	0x3dadf4e7	0.08493977
182	0x3d9a0ef6	0.07522385
183	0xbe03d493	-0.1287406
184	0x3da39c7f	0.07988834
185	0xbdc022b6	-0.093816206
186	0x3e114f76	0.14190468
187	0x3d6ec227	0.058290627
188	0xbda471d0	-0.080295205
189	0xbdd62d88	-0.10457903
190	0x3d9e7885	0.07737831
191	0x3de1aee8	0.11019689
192	0x3e063429	0.13105835
193	0xbdbe992e	-0.093065605
194	0xbdd8864f	-0.10572492
195	0x3e2142d3	0.15748148
196	0x3caf99bb	0.02143561
197	0x3d22a7dd	0.03971087
198	0xbdb7b87a	-0.08970733
199	0xbdbdd1d6	-0.09268539
200	0x3d957741	0.072981365
201	0xbdd67d67	-0.10473137
202	0xbd898687	-0.06715112
203	0xbdf52193	-0.119692944
204	0x3d8c504a	0.068512514
205	0x3d4c75e4	0.049917117
206	0xbd948324	-0.072515756
207	0x3df1c602	0.11805345
208	0xbda46cd0	-0.08028567
209	0xbe23f35b	-0.16010801
210	0x3e2c0fc6	0.16802892
211	0x3e325783	0.17416196
212	0x3d6ec48b	0.058292907
213	0xbdbadc93	-0.091241024
214	0x3d6583fa	0.056034066
215	0xbd721363	-0.05910052
216	0x3dd11968	0.10209924
217	0xbe032678	-0.12807643
218	0x3e142de3	0.1447063
219	0xbe082a49	-0.1329738
220	0x3de15023	0.11001613
221	0xbe138c49	-0.14408983
222	0xbe0ad10f	-0.13556312
223	0x3e00ccb3	0.12578087
224	0x3d55dfec	0.0522155
225	0xbe49fe2f	-0.1972587
226	0x3e04caac	0.12967938
227	0x3d6bc10b	0.057557147
228	0x3d63c6fa	0.05560968
229	0xbe261109	-0.16217436
230	0x3dadf141	0.08493281
231	0xbe1ce6c1	-0.153224
232	0x3e11daac	0.14243573
233	0xbe3bb3e0	-0.18330336
234	0x3e2c590d	0.16830845
235	0x3dec2244	0.11529973
236	0xbe02c7d4	-0.12771541
237	0x3de37a70	0.111073375
238	0xbce60eea	-0.028083283
239	0x3d385817	0.045005884
240	0xbdd54fe2	-0.10415627
241	0xbdf0184a	-0.11723383
242	0xbe3f62e9	-0.18690075
243	0x3d9f1d6f	0.07769286
244	0x3de27e64	0.11059263
245	0x3df9a8bc	0.12190387
246	0x3da92e39	0.082607694
247	0x3d5eda0d	0.05440717
248	0xbe0de445	-0.13856609
249	0x3dac1dc3	0.08404114
250	0x3e1e774b	0.15475194
251	0x3d9aae6e	0.07552801
252	0x3e366e15	0.1781543
253	0xbe0baf95	-0.13641198
254	0x3d9f7009	0.07785041
255	0x3da3a059	0.07989568

fc3.bias f4 [2]
0	0xbdaaf0ab	-0.08346685
1	0x3d31b334	0.043383792

bn1.weight f4 [512]
0	0x3ef252db	0.4732884
1	0x3f26ab1f	0.6510486
2	0x3f79bfdf	0.975584
3	0x3f4c440b	0.79791325
4	0x3f605fb3	0.87646025
5	0x3f63a60b	0.88925236
6	0x3eb9ef17	0.36315224
7	0x3f52abe4	0.82293534
8	0x3f210ca9	0.6290994
9	0x3f3670a3	0.7126562
10	0x3e93a427	0.28836176
11	0x3ef37780	0.4755211
12	0x3ddb3726	0.10703878
13	0x3ddb758d	0.107157804
14	0x3f1a1e1d	0.602022
15	0x3e07d602	0.13265231
16	0x3e44289d	0.19156118
17	0x3ec87168	0.39149022
18	0x3e9302c8	0.2871306
19	0x3e86bbe2	0.26315218
20	0x3efdc8b5	0.4956719
21	0x3f6bb13c	0.92067313
22	0x3ecd8cca	0.40146476
23	0x3f0dcc20	0.55389595
24	0x3e9142d2	0.28371292
25	0x3f5a213d	0.8520697
26	0x3e05bffc	0.13061517
27	0xbd18316b	-0.037156504
28	0x3ed1f0eb	0.41004118
29	0x3f16c1a0	0.588892
30	0x3efd6be5	0.4949638
31	0x3f074cb6	0.52851427
32	0x3eb2e0b3	0.34937057
33	0x3e7ea88d	0.24868985
34	0x3f380b78	0.718925
35	0x3eaa2922	0.33234507
36	0x3ee7df2c	0.45287454
37	0x3ee67bb1	0.45016244
38	0x3f0912bf	0.5354423
39	0x3ecfacb9	0.40561464
40	0x3f7d17c4	0.9886439
41	0x3ee6bdbc	0.4506663
42	0x3e05a73c	0.13052076
43	0x3e24e6b1	0.16103627
44	0x3f2037a3	0.62584895
45	0x3f1b788b	0.6073081
46	0x3f4eaeb0	0.807353
47	0x3e59b851	0.21261717
48	0x3f6fa670	0.9361334
49	0x3f56f0d6	0.83961236
50	0x3ebb157d	0.36539832
51	0x3ea39ed6	0.3195712
52	0x3f527ae0	0.8221874
53	0x3f30f8f7	0.6912989
54	0x3ed2e742	0.4119206
55	0x3f1d2d92	0.6139766
56	0x3f246666	0.6421875
57	0x3f179b1c	0.59221053
58	0x3e56a206	0.20960245
59	0x3f2df25a	0.67947924
60	0x3f172175	0.59035426
61	0x3f8683e0	1.0508995
62	0x3f88c3b2	1.0684721
63	0x3f213498	0.62970877
64	0x3f6c60cc	0.923352
65	0x3f32b73e	0.69810855
66	0x3f2b513c	0.6692083
67	0x3e3fd53a	0.18733683
68	0x3f5b9f17	0.85789627
69	0x3f16b4e2	0.58869755
70	0x3f807206	1.0034797
71	0x3ea14ff5	0.31506315
72	0x3ec8aaa2	0.39192683
73	0x3eaf6565	0.34257045
74	0x3f5b614d	0.85695344
75	0x3f152c4b	0.5827071
76	0x3ea88591	0.32914403
77	0x3f382a5e	0.7193965
78	0x3ef8f81f	0.486268
79	0x3eaf507e	0.34241098
80	0x3f218487	0.63092846
81	0x3f2bc261	0.67093474
82	0x3f541ff2	0.82861245
83	0x3e0be71a	0.13662377
84	0x3e4d2772	0.20034578
85	0x3f1f3119	0.6218429
86	0x3eeb5819	0.4596565
87	0x3f1c0ac7	0.60953945
88	0x3ea062b9	0.3132532
89	0x3f45a0ad	0.77198297
90	0x3e8ad31a	0.27114183
91	0x3f07c00d	0.5302742
92	0x3f1a42c4	0.60258126
93	0x3e3d5d83	0.18492703
94	0x3e9e8f0a	0.30968505
95	0x3ee1293e	0.43976778
96	0x3f27abba	0.6549641
97	0x3e46a754	0.19399768
98	0x3e4be26e	0.19910595
99	0x3f5c1287	0.8596577
100	0x3f72a194	0.947778
101	0x3f476af9	0.778976
102	0x3f445182	0.7668687
103	0x3e84c6a2	0.25932795
104	0x3db87ad4	0.090078026
105	0x3f0901fc	0.5351865
106	0x3f897417	1.0738553
107	0x3f0a2050	0.53955555
108	0x3dfdff5d	0.12402222
109	0x3f29a6a4	0.662699
110	0x3f353b0f	0.7079324
111	0x3ebaa95b	0.36457333
112	0x3ee06ac9	0.4383147
113	0x3f1c2c14	0.6100476
114	0x3ef71e50	0.48265314
115	0x3f5463ff	0.8296508
116	0x3f7c3ec9	0.985333
117	0x3e22d5d3	0.1590188
118	0x3ef4ea09	0.47834805
119	0x3eb73088	0.35779214
120	0x3f7f360a	0.9969183
121	0x3f143562	0.57893956
122	0x3f729fa4	0.9477484
123	0x3e9e2327	0.30886194
124	0x3efa3c7f	0.4887428
125	0x3f421bc0	0.75823593
126	0x3f2e6fc5	0.68139297
127	0x3e0cd4a6	0.13752994
128	0x3f2edb9d	0.68303853
129	0x3e91f1f5	0.2850491
130	0x3f8261ac	1.0186057
131	0x3f6b8d5f	0.9201259
132	0x3f0f89e8	0.56069803
133	0x3f3d90d9	0.74049145
134	0x3f2637f8	0.6492915
135	0x3f42af89	0.76049095
136	0x3f0d0f2d	0.5510128
137	0x3df4f500	0.119607925
138	0x3ebc25c2	0.36747557
139	0x3f253bb7	0.6454424
140	0x3f01fcec	0.50776553
141	0x3f6c05bc	0.9219625
142	0x3f10e5f5	0.56600887
143	0x3eb3c125	0.35108295
144	0x3ea1ba95	0.31587663
145	0x3e3f58cb	0.18686216
146	0x3f131178	0.5744853
147	0x3f013b8c	0.50481486
148	0x3f4345e8	0.76278543
149	0x3f209aff	0.62736505
150	0x3f6ea7b0	0.9322462
151	0x3e6b3b05	0.22971733
152	0x3f623847	0.8836712
153	0x3f0f2edc	0.55930877
154	0x3eda8190	0.42676973
155	0x3f3e9065	0.7443908
156	0x3edd0d30	0.43174124
157	0x3e071f1f	0.13195466
158	0x3f28485c	0.6573541
159	0x3f2a37ef	0.664916
160	0x3e985111	0.2974935
161	0x3eea4032	0.45752102
162	0x3e5fc5cb	0.21852796
163	0x3ee6f697	0.45110008
164	0x3f6ea944	0.9322703
165	0x3f3bdddc	0.73385406
166	0x3f7358f4	0.95057607
167	0x3efdff75	0.4960896
168	0x3f800ad7	1.0003308
169	0x3f239c69	0.6391054
170	0x3f70f0b3	0.9411728
171	0x3eee2227	0.4651043
172	0x3e64d0c9	0.2234527
173	0x3ee303a8	0.44338727
174	0x3f1fb64e	0.6238755
175	0x3ede481e	0.43414396
176	0x3e0e5805	0.13900764
177	0x3f272de6	0.6530441
178	0x3f443832	0.7664825
179	0x3f3ed606	0.74545324
180	0x3f87a3c1	1.0596849
181	0x3f61e12f	0.8823423
182	0x3f09574e	0.5364884
183	0x3e409b38	0.18809211
184	0x3edff504	0.4374162
185	0x3e99656f	0.299602
186	0x3f19fed2	0.6015445
187	0x3f347953	0.70497626
188	0x3f6cd83d	0.92517453
189	0x3f888635	1.0665957
190	0x3e877e51	0.2646356
191	0x3e93e52b	0.2888578
192	0x3f54396d	0.82900125
193	0x3dd82c83	0.10555365
194	0x3f13ef30	0.57786846
195	0x3f5ee8c4	0.8707392
196	0x3f06d609	0.5267034
197	0x3f1e0cf9	0.61738545
198	0x3f4cdc64	0.8002379
199	0x3f4f62f0	0.8101034
200	0x3e3c1ecc	0.18371123
201	0x3f50a657	0.81503814
202	0x3eb15ccc	0.3464111
203	0x3f11278b	0.5670096
204	0x3e5ee5b7	0.21767317
205	0x3ef2b93b	0.47406945
206	0x3f4f1547	0.8089184
207	0x3f271b6e	0.6527623
208	0x3f4009ea	0.7501513
209	0x3f2d8de3	0.67794627
210	0x3f743a07	0.9540104
211	0x3f3d811a	0.7402512
212	0x3f1643d0	0.58697224
213	0x3f441008	0.7658696
214	0x3ea82b92	0.32845742
215	0x3f02ea0c	0.5113838
216	0x3e761b87	0.24033938
217	0x3f45e81f	0.77307314
218	0x3f800555	1.0001627
219	0x3f630adf	0.8868846
220	0x3f7cb0fd	0.9870756
221	0x3eb34809	0.35015896
222	0x3f5b17ac	0.85582995
223	0x3e9744c8	0.29544663
224	0x3efdbc57	0.49557754
225	0x3f2168b9	0.6305042
226	0x3f292bfd	0.66082746
227	0x3f3a24fc	0.72712684
228	0x3ef67cd4	0.4814211
229	0x3f02fef0	0.51170254
230	0x3f3c0cee	0.7345723
231	0x3f387c10	0.72064304
232	0x3f27a01e	0.65478694
233	0x3f79b7ad	0.9754589
234	0x3eecfd36	0.46286935
235	0x3f7969b8	0.9742694
236	0x3f1fd698	0.6243682
237	0x3f078243	0.5293314
238	0x3f52f88d	0.8241051
239	0x3eca1207	0.3946688
240	0x3f873c18	1.0565214
241	0x3e8c40ff	0.27393338
242	0x3f5ef7df	0.8709697
243	0x3e303728	0.1720854
244	0x3f1cfffe	0.61328113
245	0x3f045b0b	0.5170142
246	0x3f7c514e	0.9856156
247	0x3e440da0	0.19145823
248	0x3f4be179	0.7964092
249	0x3f09b4c3	0.53791445
250	0x3e4b24c7	0.19838248
251	0x3f148e7d	0.5802992
252	0x3f71aeac	0.94407153
253	0x3f866b61	1.050152
254	0x3f630325	0.88676673
255	0x3f6ab1a8	0.9167733

bn1.bias f4 [512]
0	0x3af27900	0.0018499196
1	0xbd1413fc	-0.03615187
2	0xbd732be3	-0.059368026
3	0x3c01c7aa	0.007921139
4	0x3cbf94e3	0.023386424
5	0xbcea9b77	-0.028638585
6	0x3ca7ede1	0.020499172
7	0x3dd6a4ae	0.10480629
8	0xbc72b5b8	-0.014813833
9	0xbd5cbc8e	-0.053890757
10	0x3d81e857	0.063431434
11	0x3c7fb926	0.015608108
12	0x3d6183e3	0.055057418
13	0x3e11ebf1	0.14250161
14	0x3d50ba08	0.050958663
15	0x3dafbc08	0.08580786
16	0x3ca55f89	0.020187156
17	0xbb4fcfb2	-0.003170949
18	0x3c97ba3c	0.01852142
19	0x3dd8c9e8	0.105853856
20	0x3d9e1dc1	0.07720519
21	0xbca6eb7d	-0.020375961
22	0x3cbc04ba	0.022951473
23	0xbd6bd3e1	-0.05757511
24	0x3d417247	0.047228124
25	0xbcc1372f	-0.023585884
26	0x398c8419	0.000268013
27	0xbe51f104	-0.20502096
28	0xbcae56be	-0.021281596
29	0xbcc3ae6c	-0.023886882
30	0xbd2a580a	-0.041587867
31	0xbcf6118f	-0.03003767
32	0x3db097bf	0.08622693
33	0xbdbedb6d	-0.09319196
34	0x392abc5e	0.00016282636
35	0xbc342fe2	-0.010997744
36	0xbcf67aa2	-0.030087773
37	0xbd380ca7	-0.04493394
38	0x3c47ff9f	0.012206941
39	0x3be1725d	0.0068800882
40	0x3d747bb1	0.059688274
41	0x3d412ace	0.047159962
42	0xbe6685d0	-0.22511983
43	0x3a51d80e	0.0008004912
44	0xbd350a17	-0.044199076
45	0xbce8ec83	-0.02843309
46	0xbaac193d	-0.001313008
47	0x3d924cf5	0.07143585
48	0xbd2e49b5	-0.04255076
49	0xbd200d1d	-0.039075006
50	0xbcc290ce	-0.023750689
51	0xbd4c3d00	-0.04986286
52	0x3b45bc6c	0.0030172123
53	0xbd2c0c6e	-0.04200404
54	0x3c590f3e	0.013248263
55	0xbd9f2892	-0.0777141
56	0xbd04c55c	-0.03241478
57	0x3ab95f9e	0.0014142876
58	0xbd86bf6e	-0.06579481
59	0xbcde8c21	-0.027166428
60	0xbbd5b4d9	-0.006521803
61	0xbdc5b585	-0.09653763
62	0xbd621b85	-0.055202026
63	0xbd34a283	-0.044100296
64	0xbd38da69	-0.045130167
65	0xba2b4d20	-0.0006534625
66	0xbdb3df70	-0.08782852
67	0xbda6bfd1	-0.08142055
68	0xbd2a762e	-0.04161661
69	0xbc61a7a4	-0.013772879
70	0x3c06ff42	0.008239569
71	0xbd21cbc0	-0.03950095
72	0x3d35cfb4	0.044387534
73	0xbce0f21d	-0.027459199
74	0xbb85c88f	-0.0040827463
75	0x3d894b67	0.06703835
76	0xbc698122	-0.014251979
77	0xbcdb8cf7	-0.026800616
78	0xbcc5105a	-0.024055649
79	0xbd1a10df	-0.037613746
80	0xbd49f886	-0.049309276
81	0xbd553e5e	-0.05206143
82	0x3d101551	0.03517658
83	0x3e224f94	0.15850669
84	0x3d2d1b35	0.042262275
85	0xbb19343f	-0.0023377088
86	0xbd8309cd	-0.06398354
87	0xbc8159e3	-0.015789932
88	0xbbe727f3	-0.007054323
89	0xbc86adf8	-0.016440377
90	0x3d7dde81	0.061979774
91	0x3c35fad8	0.011107169
92	0xbd6908fe	-0.05689334
93	0x3da598d8	0.08085793
94	0x3d393f2d	0.045226265
95	0x3d86b568	0.06577569
96	0xbd1727f9	-0.036903355
97	0xbbe3104f	-0.0069294344
98	0xbc93274d	-0.017963076
99	0xbce08253	-0.027405893
100	0xbc66bf8f	-0.014083757
101	0xbc1843e6	-0.009293532
102	0xbd09342e	-0.033497028
103	0x3cb2719d	0.02178269
104	0xbe20546f	-0.15657209
105	0xbd54daf0	-0.051966608
106	0xbc8dc156	-0.017304104
107	0xbd1305fb	-0.035894375
108	0xbdcb0d35	-0.099146284
109	0xbd08fa8f	-0.033442076
110	0xbd062aef	-0.03275579
111	0xbcedc1e8	-0.029023126
112	0xbdbf5dfe	-0.093440995
113	0xbd261f3c	-0.04055713
114	0xbd137510	-0.03600031
115	0xbd0d4142	-0.034486063
116	0x3da0e019	0.07855243
117	0xbe2f1710	-0.17098641
118	0xbd7a1612	-0.061056204
119	0xbcdb2a85	-0.026753673
120	0xbd0554b4	-0.032551482
121	0xbcd70635	-0.026248077
122	0xbdb71b57	-0.089407615
123	0x3d25149c	0.040302858
124	0xbd129b04	-0.035792366
125	0xbd58130d	-0.052752543
126	0xbd412675	-0.047155816
127	0x3d7d4ee2	0.061842807
128	0xbb8f741f	-0.0043778564
129	0xbe14d672	-0.1453493
130	0xbd09e0c9	-0.033661637
131	0xbd4f34bf	-0.050587412
132	0xbd04d04c	-0.03242521
133	0x3d3037cb	0.04302196
134	0xbcec5bb3	-0.02885232
135	0xbdac04cb	-0.08399352
136	0xbd90a205	-0.07062153
137	0x3d201694	0.039084032
138	0x3d048995	0.03235777
139	0xbc02e6fb	-0.00798964
140	0xbc07ce12	-0.008288877
141	0xbc6e0d85	-0.0145295905
142	0xbcb148b6	-0.021641117
143	0xbdc34258	-0.095341384
144	0xbdb14ba8	-0.086570084
145	0xbdb0cf83	-0.0863333
146	0xbca67da0	-0.020323575
147	0x3c5a800b	0.013336192
148	0xbc74fe8f	-0.01495327
149	0xbdd9be76	-0.10632031
150	0xbd6cb008	-0.057785064
151	0xbde4b29a	-0.11166878
152	0x3c99422a	0.018708307
153	0x3d094e1d	0.03352176
154	0xbb94bb75	-0.004538948
155	0xbd0882e5	-0.033327956
156	0xbcf49701	-0.02985716
157	0x3deb4827	0.11488371
158	0xbd5561e7	-0.05209532
159	0x3d32f257	0.043688145
160	0xbd599978	-0.053124875
161	0x3d43aa55	0.047769863
162	0xbc9f8a13	-0.019475019
163	0x3d591144	0.05299498
164	0xbd24e485	-0.040256996
165	0xbdd6443c	-0.104622334
166	0x3cc3947a	0.02387451
167	0xbbaa44a0	-0.005196169
168	0xba52b2b7	-0.0008037495
169	0xbd0f6b7b	-0.03501461
170	0xbcd10b19	-0.025517987
171	0x39bec3db	0.00036385548
172	0x39a97e27	0.00032328183
173	0xbd020c5b	-0.031750064
174	0xbd846fe4	-0.06466654
175	0xbc3f555c	-0.011678066
176	0x3c338df8	0.010959141
177	0x3d18329d	0.037157644
178	0xbd9f87a0	-0.0778954
179	0xbc053edb	-0.008132662
180	0xbd9c61d5	-0.076358475
181	0x3cd90bbd	0.026494855
182	0x3d254be6	0.040355586
183	0xbdc89d42	-0.097956195
184	0xbd5d3032	-0.05400104
185	0xbde42f08	-0.11141783
186	0x3ccd6988	0.025074735
187	0xbd09538e	-0.03352695
188	0xbc806f3e	-0.015678044
189	0x3ce3f0fa	0.027824868
190	0xbda9400e	-0.082641706
191	0xbcc1c266	-0.023652267
192	0xbcefab24	-0.02925641
193	0xbc52771e	-0.012845783
194	0xbd219974	-0.039452985
195	0xbd81a04c	-0.06329402
196	0xbba93985	-0.0051643276
197	0xbc6a90ae	-0.014316721
198	0xbd9bc41b	-0.076057635
199	0xbc4dd70c	-0.012563478
200	0xbd7d010c	-0.061768577
201	0xbd319e9e	-0.04336416
202	0xbdd238df	-0.102647536
203	0xbd4e6c3c	-0.05039619
204	0xbda09086	-0.07840066
205	0xbd29ed6e	-0.041486196
206	0x3d636672	0.05551762
207	0xbb623080	-0.0034513772
208	0x3c2a6d31	0.01040201
209	0x3d3d29c8	0.046182424
210	0xbd807fd8	-0.06274384
211	0x3c83a040	0.016067624
212	0x3b8d223c	0.0043070596
213	0xbc1e1115	-0.009647627
214	0xbcf072e2	-0.029351655
215	0x3cab2abb	0.020894399
216	0xbe3d0068	-0.18457186
217	0x3ccf7ead	0.025328958
218	0xbce7c6cf	-0.028293042
219	0xbaf8a9b5	-0.0018971475
220	0xbcd57356	-0.026055973
221	0xbd64fe82	-0.05590678
222	0x3c3df2cb	0.011593531
223	0xbc990057	-0.01867692
224	0xbd653ab3	-0.055964183
225	0x3cb94edd	0.022620613
226	0x3c0d942a	0.008641282
227	0x3cd02e8c	0.02541282
228	0x3c78f00e	0.015193952
229	0xbd8f710b	-0.07003983
230	0x3dbe23fe	0.09284209
231	0xbceafad6	-0.028684061
232	0xbd97c4bc	-0.07410571
233	0x3b9d1e5e	0.00479488
234	0x3d6b0a34	0.057382777
235	0xbc07acf0	-0.008280978
236	0xbd7815bd	-0.060567606
237	0x3d74d941	0.059777502
238	0xbcf7f620	-0.030268729
239	0xbd6a191a	-0.057152845
240	0xbd51c3f7	-0.051212277
241	0x3d3ac72a	0.045600094
242	0xbd8a52ec	-0.06754097
243	0xbdb0ffaa	-0.08642514
244	0xbd1b1ceb	-0.037869375
245	0xbc587dc7	-0.013213581
246	0xbc1d8f01	-0.009616614
247	0x3d278b8d	0.04090457
248	0xbd25b13f	-0.04045224
249	0x3c1f7a48	0.009733744
250	0xbd814185	-0.06311325
251	0xbd56b050	-0.05241424
252	0xbd00512b	-0.031327408
253	0xbc1292aa	-0.0089461
254	0xbc24908b	-0.010044227
255	0x3d1ff26b	0.039049547
