3 - Collab -MADDPG/trained_agents/maddpg_tennis_checkpoint_actor_local_1.pth (torch_old, 588220 bytes, 10 tensors)

fc1.weight f4 [512, 24]
0	0x3d0832a6	0.033251427
1	0x3cb5c976	0.02219079
2	0xbc36b634	-0.011151839
3	0xbb7faf6d	-0.0039014474
4	0x3d55c25e	0.052187316
5	0x3e573c2e	0.2101905
6	0x3a8e29da	0.0010846213
7	0x3d9831e2	0.074313894
8	0x3dd3e4f4	0.10346404
9	0x3a1e2d2f	0.00060339546
10	0x3c3af12f	0.011410042
11	0x3c06083e	0.008180676
12	0xbcbf884d	-0.023380423
13	0x3e11dda3	0.14244704
14	0xbc52bae1	-0.012861938
15	0x3cefb62a	0.029261667
16	0x3db0984c	0.08622798
17	0x3c0985cf	0.008393719
18	0x3c9ca85f	0.019123254
19	0x3d4eec53	0.050518345
20	0xbdcd6d94	-0.10030666
21	0x3d15829d	0.036501516
22	0xbc10a0a8	-0.008827366
23	0x3bd809de	0.006592973
24	0x3d81a09c	0.06329462
25	0x3a8412ba	0.0010076382
26	0xbd215b73	-0.039393853
27	0x3c172a04	0.009226326
28	0x3d939bd4	0.07207456
29	0x3d19e21b	0.037569147
30	0xbd6cf675	-0.057852227
31	0xbc8727cb	-0.016498467
32	0x3d74d714	0.059775427
33	0x3d293a16	0.04131516
34	0xbd2e5b17	-0.04256734
35	0x3d9ae28f	0.07562744
36	0x3d6da45d	0.058018077
37	0xbcf6bd0b	-0.03011944
38	0xbd784833	-0.06061573
39	0x3d396721	0.045264367
40	0x3d09cffb	0.03364561
41	0x3cab0736	0.020877462
42	0x3ca4eac1	0.02013147
43	0x3bc49f0b	0.0060004047
44	0x3d7c87ce	0.06165295
45	0x3d53ec05	0.051738758
46	0xbd34189c	-0.04396878
47	0xbc5b1ec0	-0.013374031
48	0x3d9d014b	0.07666262
49	0xbdd3aa5e	-0.10335229
50	0x3d0b42a6	0.033999108
51	0x3d60e811	0.054908816
52	0xbcb58c64	-0.02216167
53	0xbd0b7403	-0.034046184
54	0x3d171aea	0.0368909
55	0x3d84878d	0.06471167
56	0x3d6fbcb7	0.058529582
57	0xbd76efda	-0.060287334
58	0xbc403286	-0.011730796
59	0x3d11dfb4	0.03561373
60	0x3d11f8be	0.03563761
61	0xbd01f683	-0.031729233
62	0x3b679b35	0.0035340313
63	0x3caac9df	0.020848213
64	0x3dad2e40	0.08456087
65	0x3c98a898	0.01863508
66	0xbd961174	-0.07327548
67	0x3d3287b4	0.043586448
68	0x3caa5f5f	0.02079743
69	0xbe119d84	-0.14220244
70	0xbd1b35d0	-0.037893116
71	0x3db9d4cb	0.0907379
72	0xbb96cd09	-0.004602079
73	0xbddcd77d	-0.10783289
74	0x3d0ca2ee	0.03433507
75	0xbca013ea	-0.019540746
76	0x3cfd2f80	0.030906439
77	0xbd89ac22	-0.06722285
78	0xbccdf2cb	-0.025140187
79	0xbd564f7e	-0.052321903
80	0xbc2e7d11	-0.010649935
81	0xbd98998b	-0.07451161
82	0xba835866	-0.0010020852
83	0x3c3be840	0.011468947
84	0x3dcd7aa4	0.100331575
85	0x3e3ae220	0.18250322
86	0xbc0b9e58	-0.008521639
87	0xbcabe1db	-0.02098172
88	0xbc5908fb	-0.01324677
89	0xbda19ec0	-0.07891607
90	0xbcf40496	-0.029787343
91	0x3ce5e019	0.02806096
92	0x3d41b61b	0.04729281
93	0x3ea8a255	0.3293635
94	0x3ce7b7bc	0.028285854
95	0x3d87229b	0.06598397
96	0xbcd014e2	-0.025400583
97	0xbc92d33b	-0.017922988
98	0x3be96670	0.007122807
99	0xbd6e37ac	-0.05815856
100	0x3dd388e4	0.10328844
101	0x3dc575ef	0.09641635
102	0xbd0ad36f	-0.033893045
103	0x3c6ba9fb	0.014383788
104	0xbda9db89	-0.08293826
105	0xbb92e313	-0.0044826358
106	0xbc6541f2	-0.013992773
107	0x3cf56fd6	0.029960554
108	0x3d8e1da9	0.06939251
109	0x3e1bcd7f	0.1521511
110	0x3c2162ae	0.009850187
111	0xbd343531	-0.04399604
112	0xbd658945	-0.056039114
113	0xbca97de7	-0.020689918
114	0x3c26cb3f	0.010180294
115	0x3d062504	0.032750145
116	0x3ddb0059	0.10693426
117	0x3e5055dc	0.20345253
118	0xbc632b1c	-0.013865259
119	0x3c2dfaa6	0.010618841
120	0xbb8840ad	-0.0041581006
121	0x3dace17d	0.08441446
122	0xbdd50942	-0.104021564
123	0x3ccbe800	0.0248909
124	0x3b8412d6	0.0040305657
125	0x3d0165e1	0.0315913
126	0xbcb9456c	-0.02261611
127	0x3d3f715d	0.04673897
128	0x3d7bd328	0.06148067
129	0x3d57f6fc	0.052725777
130	0x3d3860e2	0.04501427
131	0xb9b19426	-0.0003387045
132	0x3c639370	0.013890132
133	0x3dae2d29	0.08504707
134	0x3b164cb3	0.00229339
135	0xbaa7abfc	-0.0012792344
136	0x3dddaf8c	0.108244985
137	0x3dc98a0d	0.09840784
138	0xbcc4d6ea	-0.02402826
139	0xbd7ac207	-0.061220195
140	0x3d6881c2	0.05676437
141	0x3dd2e329	0.102972336
142	0xbb767840	-0.0037608296
143	0xbd870c2f	-0.06594121
144	0x3d93dd18	0.07219905
145	0xbdb11c0d	-0.086479284
146	0xbcd42779	-0.025897728
147	0x3dccaa82	0.09993459
148	0xbd725b28	-0.059168965
149	0x3d8f92d1	0.07010425
150	0x3c83d51b	0.016092828
151	0x3da7dfc2	0.08196975
152	0x3da375f8	0.07981485
153	0xbc54b617	-0.012982867
154	0xbd3990ad	-0.04530399
155	0x3d8dbd75	0.06920902
156	0x3d879313	0.06619849
157	0x3ce34313	0.027741944
158	0x3c9e1b89	0.01930024
159	0x3d8b2c27	0.06795531
160	0x3db33e56	0.08752124
161	0x3a93caaf	0.0011275614
162	0x3ba8074b	0.0051278225
163	0x3d452547	0.048131254
164	0x3e2868e2	0.1644626
165	0x3d3994ea	0.04530803
166	0xbc9dcb80	-0.019262075
167	0x3d21a799	0.039466474
168	0x3c151fef	0.009101852
169	0x3dc83551	0.09775794
170	0xbcbdf887	-0.023189796
171	0xbe2745e4	-0.16335255
172	0x3d015d8c	0.031583354
173	0x3c4a188c	0.012334954
174	0xbd76c192	-0.060243197
175	0xbdc2caf3	-0.09511366
176	0x3da9fb89	0.0829993
177	0x3d25092a	0.040291943
178	0xbce1cfce	-0.02756491
179	0xbdc62b16	-0.09676187
180	0x3d8b9c84	0.06816962
181	0x3d7ad0d3	0.061234307
182	0x3ccf3ce0	0.025297582
183	0xbdb1af18	-0.086759746
184	0x3d90aeb0	0.07064569
185	0x3da5db69	0.0809849
186	0xbc3eabbc	-0.011637624
187	0xbdaa7faa	-0.08325131
188	0x3d6e2599	0.058141325
189	0xbd49b330	-0.049243152
190	0xbd891f9f	-0.06695484
191	0xbdd8d8aa	-0.105882004
192	0x3dd39445	0.103310145
193	0x3bc7cdf3	0.006097549
194	0xbb1cda35	-0.0023933772
195	0x3cb45cf0	0.022016972
196	0xbd8b5277	-0.06802838
197	0xbd2bda62	-0.041956313
198	0xbc03ee64	-0.008052442
199	0x3caab7fa	0.02083968
200	0x3e01b453	0.12666444
201	0x3d044e95	0.032301504
202	0xbca80faf	-0.020515291
203	0xbb72b04e	-0.0037031355
204	0x3cb8209d	0.022476489
205	0xbd09ba15	-0.033624727
206	0x3c71413b	0.014725025
207	0x3b9ce876	0.0047884537
208	0x3e03c2c8	0.12867272
209	0x3d5d3815	0.054008562
210	0xbc2191b3	-0.009861398
211	0x3c17beb0	0.009261772
212	0x3d201b41	0.03908849
213	0xbd3f4bb6	-0.046703063
214	0x3af81185	0.001892612
215	0xbc5562ec	-0.013024073
216	0xbd2127e7	-0.039344694
217	0xbd6cc2c5	-0.057802934
218	0xbbccf869	-0.0062551987
219	0x3d225dc7	0.039640214
220	0x3d0f1b58	0.034938186
221	0xbe4e5ad3	-0.20151834
222	0x3c00ff2c	0.007873338
223	0xbce30564	-0.027712531
224	0xbc247459	-0.010037505
225	0x3d0b24c3	0.033970606
226	0xbd01e6de	-0.031714313
227	0xbcba49e2	-0.022740308
228	0x3c57b4a0	0.013165623
229	0xbda70ce3	-0.08156755
230	0x3cd7ebeb	0.026357612
231	0x3ce0c0ca	0.027435679
232	0x3c809c81	0.015699627
233	0x3af4ce1d	0.0018677149
234	0x39aa1def	0.0003244723
235	0x3ccd8e37	0.025092227
236	0xbd3ec542	-0.04657484
237	0x3ec8b51b	0.39200673
238	0xba9b25bd	-0.0011836808
239	0xbcf5b892	-0.029995237
240	0xbc3a625f	-0.011375993
241	0x3de0afb9	0.109710164
242	0xbddabc5b	-0.10680457
243	0x3c8b1e2c	0.01698216
244	0x3d9caa01	0.07649613
245	0x3c2a1199	0.010380172
246	0xbd901f85	-0.07037262
247	0x3ce69e3a	0.02815162
248	0x3d017003	0.031600963
249	0x3dbc431a	0.09192486
250	0xbb4a5b2d	-0.00308771
251	0x3d6d3ffa	0.05792234
252	0x3d88f181	0.06686688
253	0xbd1b43aa	-0.037906326
254	0x3d5ea051	0.05435211
255	0x3d7c546e	0.061603956

fc1.bias f4 [512]
0	0xbe78a25a	-0.24280682
1	0xbe03027f	-0.12793921
2	0xbe736533	-0.23769073
3	0x3daadb78	0.083426416
4	0xbd0a5c67	-0.033779528
5	0xbe0dc758	-0.13845575
6	0xbe75cc29	-0.24003662
7	0x3da047fd	0.07826231
8	0x3d3f1cd9	0.04665837
9	0xbc14bafc	-0.009077784
10	0x3c041c95	0.008063455
11	0xbe705335	-0.23469241
12	0x3d6748dd	0.056465972
13	0xbdc7a4ab	-0.09748205
14	0x3c9110ff	0.0177083
15	0xbd112ae8	-0.03544131
16	0xbdb5221f	-0.08844399
17	0x39a40006	0.00031280535
18	0xbe57ba5a	-0.21067181
19	0xbc910ba3	-0.017705744
20	0xbde544de	-0.11194776
21	0x3c897032	0.016777132
22	0x3dd6d25c	0.104893416
23	0xbd4ce584	-0.05002357
24	0xbc8c0c68	-0.01709576
25	0xbe872508	-0.2639544
26	0xbeabba8c	-0.3354076
27	0xbe0c69fa	-0.13712302
28	0xbdfd9afe	-0.12383078
29	0xbcb398d7	-0.021923466
30	0xbdf9bb73	-0.12193956
31	0xbe828a3c	-0.2549609
32	0xbd72a928	-0.05924335
33	0xbc9438f3	-0.018093562
34	0xbc6007a7	-0.013673699
35	0x3c9dba19	0.019253777
36	0xbdc58d02	-0.09646036
37	0xbe6fdd64	-0.23424298
38	0xbe998700	-0.2998581
39	0x3d51294c	0.051064774
40	0x3dfd54ec	0.12369713
41	0x3d388d54	0.045056656
42	0x3e4a0d51	0.19731642
43	0x3e352b0a	0.176922
44	0xbe3febc4	-0.18742281
45	0xbe7ca9c8	-0.24674141
46	0xbcd1409f	-0.025543509
47	0xbc8486fd	-0.016177649
48	0xbe0ce241	-0.13758184
49	0x3c500241	0.01269585
50	0x3e13e0c8	0.14441216
51	0xbe097f80	-0.13427544
52	0xbe922a08	-0.28547692
53	0x3d96bc1a	0.07360096
54	0xbd88b68a	-0.066754416
55	0xbe8a8ece	-0.27062076
56	0x3d72a506	0.05923941
57	0x3cb27b23	0.021787232
58	0xbe26942f	-0.16267465
59	0x3a3add04	0.0007128271
60	0xbca89f98	-0.020583913
61	0xbdb282e0	-0.08716369
62	0xbe8edd42	-0.2790318
63	0x3db1efaa	0.086882904
64	0xbdd7ca22	-0.10536601
65	0x3ce91083	0.028450256
66	0xbe809a64	-0.2511779
67	0xbd9bbff5	-0.07604972
68	0xbe9207a1	-0.28521445
69	0xbe5a6c42	-0.2133036
70	0xbb977d51	-0.004623093
71	0xbd9104f5	-0.070810236
72	0xbe3bb82e	-0.18331978
73	0x3de8c8cb	0.11366423
74	0xbd37010f	-0.044678744
75	0xbd1de3f4	-0.03854747
76	0x3d98e076	0.074646875
77	0x3d15ddf7	0.036588635
78	0xbdf2a6d3	-0.118482254
79	0xbe4ba30b	-0.19886415
80	0xbdd7d344	-0.105383426
81	0xbe9c20d8	-0.30493808
82	0xbe8b4606	-0.2720186
83	0xbe7cc1e2	-0.24683335
84	0x3bf4de77	0.007472809
85	0xbe140a5d	-0.14457078
86	0xbe1f7367	-0.15571366
87	0x3d9d1254	0.076695114
88	0xbe85656d	-0.26053944
89	0xbe4c4c44	-0.19950968
90	0xbe120206	-0.14258584
91	0xbeb0db37	-0.34542248
92	0xbc03ea6f	-0.008051499
93	0x3d9b74b0	0.07590616
94	0x3db7c96c	0.08973965
95	0x3da270d2	0.07931675
96	0xbe521747	-0.20516692
97	0xbdf57096	-0.11984365
98	0xbeae8037	-0.34082195
99	0xbcee93ca	-0.029123206
100	0x3cec042a	0.02881058
101	0xbe663595	-0.22481377
102	0xbe1411aa	-0.14459863
103	0xbe0854a1	-0.13313533
104	0x3d011d32	0.031521983
105	0xbe63d3e3	-0.22248797
106	0xbeb1b133	-0.34705505
107	0x3d1c414c	0.03814821
108	0x3c8f49c2	0.017491225
109	0xbd7c88db	-0.061653953
110	0xbd1205a6	-0.035649918
111	0x3c4acdce	0.012378169
112	0xbe4cd311	-0.2000239
113	0xbccf26ad	-0.025286997
114	0x3d1aa91d	0.037758935
115	0xbea38cb3	-0.31943282
116	0xbe3df2c8	-0.18549645
117	0xbb7d50fd	-0.003865301
118	0xbe808779	-0.25103357
119	0xbd77de76	-0.06051489
120	0xbd8a3bd1	-0.0674969
121	0xbe65f31a	-0.22456017
122	0xbd56c316	-0.052432142
123	0x3d55b3e8	0.052173525
124	0xbd83ab53	-0.06429162
125	0x3e2a92a3	0.166575
126	0xbe9a1e0f	-0.30101058
127	0xbde265f5	-0.11054603
128	0x3d3c3e80	0.045958042
129	0xbe40ea74	-0.18839437
130	0xbead42a9	-0.3383992
131	0xbce67b2e	-0.028134909
132	0xbe941461	-0.28921798
133	0xbd67c0b2	-0.056580253
134	0xbeb1cad2	-0.34725052
135	0x3b9ffc36	0.004882361
136	0xbdc2baee	-0.0950831
137	0xbd96053b	-0.073252164
138	0xbd120e0d	-0.03565793
139	0xbe4449e7	-0.19168817
140	0x3dea9236	0.11453669
141	0xbb73d98e	-0.003720853
142	0x3ca58fbd	0.020210141
143	0xbcbd0516	-0.023073714
144	0xbd82e8d2	-0.06392063
145	0x3da68193	0.08130183
146	0xbc8f8625	-0.01752002
147	0xbe8fe94c	-0.2810768
148	0x3c1d7af7	0.009611837
149	0x3d8030cd	0.06259308
150	0x3e2668aa	0.16250864
151	0xbdbef110	-0.09323323
152	0xbdd9fb30	-0.10643613
153	0xbe53b495	-0.20674355
154	0x3dd40f2b	0.103544556
155	0x3df22154	0.11822763
156	0x3dc7243e	0.097237095
157	0xbe06eab3	-0.13175468
158	0xbe1f4c3d	-0.15556426
159	0xbeb5df07	-0.3552172
160	0x3dc847fa	0.097793534
161	0xbe233331	-0.15937497
162	0xbbf1cafc	-0.007378934
163	0xbce60f36	-0.028083425
164	0x3d7a85e4	0.061162844
165	0xbd8dde62	-0.06927182
166	0x3ddac334	0.10681763
167	0x3e439db4	0.19103128
168	0x3dccef3c	0.10006568
169	0xbe7d4ec3	-0.24737076
170	0xbe1ce7eb	-0.15322845
171	0xbe78cc83	-0.24296765
172	0xbe56ef6f	-0.20989774
173	0xbe3aea04	-0.18253332
174	0xbe88308f	-0.26599547
175	0xbdacf536	-0.08445208
176	0x3da3668a	0.07978542
177	0xbe4426c1	-0.19155408
178	0xbe234e73	-0.15947895
179	0x3d7b0796	0.06128653
180	0xbe955222	-0.29164225
181	0xbe7e25e3	-0.2481914
182	0x3db7df58	0.08978146
183	0xbd49d2ee	-0.049273424
184	0x3e07479c	0.1321091
185	0xbe9fb242	-0.31190687
186	0x3e0011dc	0.12506813
187	0xbdb549fb	-0.08852001
188	0x3da63a7b	0.08116623
189	0xbe027539	-0.1274003
190	0xbe462171	-0.19348694
191	0x3d3c24ba	0.045933463
192	0xbd1beca9	-0.038067494
193	0xbb95a95b	-0.004567308
194	0xbe957be2	-0.29196078
195	0xbe367a02	-0.1781998
196	0x3dc2af95	0.09506146
197	0xbdc6e35f	-0.09711336
198	0x3dab46ea	0.08363135
199	0xbeb2e1d0	-0.34937906
200	0xbe323dd6	-0.17406401
201	0xbd7455b6	-0.059652053
202	0xbec27cd9	-0.37985876
203	0xbe27611f	-0.16345643
204	0xbe8bfc5a	-0.27340966
205	0xbe0b7484	-0.13618666
206	0xbe4b87dd	-0.19876046
207	0xbe006772	-0.12539461
208	0xbc66ca34	-0.014086295
209	0xbd34c004	-0.044128433
210	0x3d8b3f8a	0.067992285
211	0xbdfb09a3	-0.122576974
212	0xbd948602	-0.072521225
213	0xbe71c703	-0.23611073
214	0xbe8ec618	-0.2788551
215	0xbe53d883	-0.20688061
216	0x3e21b3a5	0.15791185
217	0x3dc42bbc	0.09578654
218	0x3d98f257	0.07468098
219	0x3e272014	0.1632083
220	0xbc984be3	-0.018590873
221	0xbd240672	-0.04004521
222	0x3ce247aa	0.027622063
223	0xbda7d125	-0.08194188
224	0xbe702829	-0.2345282
225	0xbe505984	-0.20346648
226	0xbe812dfe	-0.25230402
227	0xbcbdd60d	-0.023173356
228	0x3e273418	0.16328466
229	0xbdab09f4	-0.08351508
230	0xbdab36be	-0.083600506
231	0xbde5d2b2	-0.112218276
232	0xbddaa151	-0.106753
233	0xbda3a74c	-0.07990894
234	0x3d59685a	0.053078033
235	0xbe2abca3	-0.16673522
236	0xbe11fc06	-0.14256296
237	0x3e2e1ece	0.17003939
238	0xbdb53058	-0.088471115
239	0xbe542f58	-0.20721185
240	0xbdacdda8	-0.08440715
241	0xbe463fb2	-0.19360235
242	0xbc66657c	-0.014062282
243	0x3dfd9b30	0.12383115
244	0x3df78893	0.12086596
245	0xbe2e4d7a	-0.17021742
246	0x3d61c1bf	0.05511641
247	0xbe83f5b7	-0.25773403
248	0xbe03cadc	-0.12870353
249	0x3d812975	0.063067354
250	0xbb99f329	-0.0046981764
251	0xbdd5fbdf	-0.10448431
252	0xbdf33feb	-0.11877426
253	0xbdccdc7b	-0.10002991
254	0xbc8947f7	-0.016757948
255	0xbc2c9b5e	-0.010535089

fc2.weight f4 [256, 512]
0	0xba2f6404	-0.00066906237
1	0x3c32b56b	0.010907511
2	0xbc76526e	-0.015034301
3	0x3c00d483	0.007863167
4	0x3cf2d276	0.029641371
5	0xbd6c0664	-0.057623282
6	0xbd654429	-0.055973206
7	0x3ce22b4f	0.027608542
8	0x3cdbc5da	0.026827741
9	0x3c67a7c8	0.014139123
10	0x3dc89c79	0.0979547
11	0xbc03184c	-0.008001398
12	0xbcaea537	-0.021319015
13	0x3d32bd6b	0.043637674
14	0x3e12db0f	0.14341377
15	0x3c8a37fb	0.016872397
16	0x3e1ba7eb	0.15200774
17	0xbdef2827	-0.1167758
18	0x3cf040a6	0.029327702
19	0x3cb6a727	0.022296501
20	0xbd955a74	-0.07292643
21	0x3c4c93ee	0.012486441
22	0x3d9dc059	0.07702703
23	0xbda988a0	-0.08278012
24	0x3c107efd	0.008819339
25	0xbc767018	-0.015041374
26	0xbd8c3922	-0.06846835
27	0x3db99a78	0.09062666
28	0xbdc7ac4f	-0.09749662
29	0xbe04a6ed	-0.12954302
30	0x3d3575a6	0.04430165
31	0x3d789b5b	0.060695034
32	0x3ca49387	0.020089878
33	0x3c964239	0.018342124
34	0x3da754c1	0.081704624
35	0xbd458524	-0.048222676
36	0xbe042b3c	-0.12907118
37	0xbc83121a	-0.015999842
38	0xbc9991b9	-0.018746244
39	0xbbcbaa58	-0.006215375
40	0xbbcfc76f	-0.006340913
41	0x3d81f3ba	0.06345315
42	0x3d8d5362	0.0690067
43	0xbde8ff16	-0.11376779
44	0x3c6bcb8e	0.014391793
45	0xbb5af09f	-0.0033407582
46	0x3daa5fcd	0.08319054
47	0xbd39babb	-0.045344096
48	0x3bf4c8d6	0.0074702306
49	0x3caf1711	0.021373304
50	0xbcc37b2f	-0.02386245
51	0x3c64bc46	0.0139609035
52	0xbd777dac	-0.060422584
53	0x3ce65fef	0.028121917
54	0xbdf6170b	-0.12016114
55	0xbd845dd2	-0.06463207
56	0xbe0264c0	-0.12733746
57	0x3ced651b	0.028978875
58	0xbd07cec8	-0.033156186
59	0xbda183f2	-0.07886495
60	0x3d5d96a4	0.05409874
61	0x3c841542	0.016123418
62	0xbd0649ed	-0.032785345
63	0xbe092eb5	-0.13396724
64	0xbd02b690	-0.031912386
65	0x3cdbf9c3	0.026852494
66	0x3cb3a3cd	0.021928692
67	0xbd712e91	-0.0588823
68	0x3cd557e4	0.026042886
69	0xbdce72ef	-0.100805156
70	0x3d99fcc6	0.07518916
71	0xbd342189	-0.043977294
72	0x3c0f9b86	0.008765107
73	0xbd319385	-0.043353576
74	0xbd151c8b	-0.036404174
75	0x3bb8ef6e	0.0056437766
76	0xbdcc796b	-0.09984096
77	0x3ccc93c5	0.024972806
78	0x3dac49c4	0.08412507
79	0x3dda1399	0.10648269
80	0xbded7747	-0.11595016
81	0xbb951b72	-0.004550391
82	0x3dd371f1	0.10324467
83	0xbd9113d3	-0.07083859
84	0xbe01f2e4	-0.12690312
85	0xbdf4ea4b	-0.1195875
86	0x3cb01c14	0.021497764
87	0x3c688ede	0.014194218
88	0xbd3d5156	-0.046220146
89	0xbcfb53bd	-0.030679578
90	0x3df710f4	0.120637804
91	0xbc840bca	-0.016118903
92	0xbe3f21ad	-0.1866519
93	0xbd5e9ba0	-0.054347634
94	0xbd93054b	-0.07178744
95	0x3cb73293	0.022362983
96	0x3d312ed3	0.043257546
97	0xbc820843	-0.01587308
98	0xbd669e51	-0.056303326
99	0xbd153a41	-0.03643251
100	0xbd3c2485	-0.045933265
101	0x3ce5b7cf	0.028041748
102	0xbc764513	-0.015031117
103	0xbd1a469c	-0.037664995
104	0xbd7699b5	-0.06020518
105	0xbd2f1e48	-0.042753488
106	0xbd8dd7ee	-0.06925951
107	0x3c8613df	0.016366897
108	0xbe0dd066	-0.13849029
109	0xbd58bdab	-0.052915256
110	0x3e24d5a8	0.16097128
111	0xbd28773c	-0.041129336
112	0xbd01d88a	-0.03170065
113	0x3d61d4a2	0.055134423
114	0x3d37b130	0.044846714
115	0xbdc36d2a	-0.09542306
116	0xba59f407	-0.0008314256
117	0xbd71de1e	-0.059049718
118	0xbc741ab2	-0.014898943
119	0x3d8c3f2c	0.068479866
120	0xbc99f8e6	-0.018795442
121	0xbcee8c16	-0.029119533
122	0x3da9cd66	0.0829113
123	0xbd06327a	-0.032762982
124	0xbd5c5d9a	-0.053800203
125	0x3c4ae847	0.012384481
126	0x3d057d9e	0.0325905
127	0xbbb2dd07	-0.0054584774
128	0x3d039d06	0.03213217
129	0xbdb89ee2	-0.090146795
130	0x3da5ee29	0.08102066
131	0xbca31919	-0.019909428
132	0x3e184b9b	0.14872591
133	0xbdaf587f	-0.08561801
134	0xbcf58ac5	-0.029973397
135	0xbd89a1fd	-0.0672035
136	0xbd5455b5	-0.05183955
137	0x3e065bc9	0.13120951
138	0xbcfecc32	-0.031103227
139	0x3e26b9c3	0.162818
140	0xbc863dd2	-0.0163869
141	0xbdcf2357	-0.101141624
142	0xbcafc3e9	-0.021455722
143	0xbd26c841	-0.04071832
144	0xbd218c72	-0.03944058
145	0x3d73c412	0.05951316
146	0xbe2f7dbb	-0.17137806
147	0xbcbdf138	-0.023186311
148	0xbd95758a	-0.072978094
149	0x3d158556	0.036504112
150	0xbdf2ccaf	-0.118554465
151	0x3c949abf	0.018140195
152	0xbd63636c	-0.055514738
153	0xbd1651d1	-0.03669912
154	0x3d025d84	0.031827465
155	0x3d18b3fd	0.037281025
156	0xbd9dc161	-0.077029
157	0xbd5f90fc	-0.054581627
158	0xbd995184	-0.07486251
159	0xbcdc8fc6	-0.026924025
160	0x3d99c7cf	0.075088136
161	0xbdac5022	-0.084137216
162	0x3d932143	0.071840785
163	0xbc24e777	-0.010064951
164	0x3b787eb4	0.0037917318
165	0x3cdb8ea3	0.026801413
166	0xbdf6e77b	-0.1205587
167	0x3d050088	0.03247121
168	0x3d077bdf	0.033077117
169	0x3c98d514	0.018656291
170	0x3d86fbd3	0.065910004
171	0x3d220b92	0.039561816
172	0xbd345297	-0.044024076
173	0xbcea463c	-0.028597943
174	0xbe081cc2	-0.1329222
175	0x3d1bc183	0.038026344
176	0xbd1d5028	-0.03840652
177	0xbdd23533	-0.10264053
178	0x3de230f2	0.11044492
179	0x3ca184af	0.019716589
180	0x3d5689d2	0.05237753
181	0xbdc3058c	-0.09522542
182	0xbd50cc7a	-0.050976254
183	0xbd3643f1	-0.044498388
184	0x3c4ff008	0.012691505
185	0x3d241041	0.040054563
186	0xbcd33ae4	-0.025784917
187	0x3d46dc3f	0.048549887
188	0xbbb8e95e	-0.005643054
189	0x3dad89d3	0.084735535
190	0x3da518fc	0.08061406
191	0xbe07cc44	-0.13261515
192	0xbd3a9e49	-0.04556111
193	0xbdcfd2e6	-0.101476476
194	0x3d8904e3	0.06690385
195	0xbd0bb303	-0.034106266
196	0xbc823a37	-0.0158969
197	0xbd94e758	-0.07270688
198	0xbd86796f	-0.0656613
199	0x3d1953d2	0.037433453
200	0x3c87b540	0.016565919
201	0x3ddee5b5	0.10883657
202	0xbd03b631	-0.032156173
203	0xbceee193	-0.029160297
204	0xbdf5fabe	-0.12010716
205	0xbc65dc30	-0.014029548
206	0x3d78f823	0.060783517
207	0x3ce7348c	0.028223298
208	0xbc7e5904	-0.015524153
209	0xbd6565c3	-0.05600525
210	0xbd1c1515	-0.038106043
211	0xbc7469ac	-0.014917772
212	0xbdc18b96	-0.09450452
213	0x3d545725	0.05184092
214	0x3daad506	0.08341412
215	0xbc560ff0	-0.013065323
216	0xbd3dca1e	-0.046335332
217	0xbd30863e	-0.043096773
218	0xbc1a3f1e	-0.009414462
219	0x3c399fb0	0.011329576
220	0xbd19870c	-0.037482306
221	0x3d1c54f0	0.03816694
222	0x3de314cf	0.11087953
223	0x3dbebc86	0.09313302
224	0xbdc39c17	-0.09551256
225	0xbe226bbf	-0.15861414
226	0x3d76306e	0.06010478
227	0xbd46b370	-0.04851097
228	0xbe25c028	-0.16186583
229	0xbd3ebd21	-0.046567086
230	0xbd820fce	-0.06350671
231	0x3d8ace5f	0.067776434
232	0x3d0c1d93	0.03420789
233	0xbde21f09	-0.11041076
234	0x3d2dea0f	0.042459544
235	0xbbe08186	-0.006851378
236	0xbc166e2d	-0.009181541
237	0x3d8da8a9	0.06916935
238	0xbc6132ec	-0.013745051
239	0xbcc78955	-0.024357477
240	0xbe377c62	-0.17918542
241	0x3cade7bd	0.021228665
242	0xbd553625	-0.05205359
243	0xbd6e931a	-0.058245756
244	0x3d01bd99	0.031674955
245	0xbc678653	-0.0141311465
246	0x3d739d7e	0.059476368
247	0xbdc526b5	-0.096265234
248	0xbd82f973	-0.06395235
249	0x3ba639d2	0.0050728107
250	0xbd1583af	-0.036502536
251	0x3c8cf1b4	0.017205097
252	0xbd96dac5	-0.07365946
253	0xbd7abbfe	-0.06121444
254	0x3d69908a	0.05702261
255	0x3c8a4857	0.016880197

fc2.bias f4 [256]
0	0x3d6e11f8	0.058122605
1	0xbc93d50a	-0.01804592
2	0x3d83bfa9	0.06433041
3	0x3c6c5cb4	0.014426399
4	0x3c9aa5c5	0.018877873
5	0x3dae3797	0.08506697
6	0x3dc1f473	0.09470453
7	0xbd9baeac	-0.076016754
8	0x3c9c5d79	0.01908754
9	0xbd91644a	-0.07099207
10	0x3d3cabd8	0.04606232
11	0x3d4f241e	0.050571553
12	0xbc9c54b5	-0.01908336
13	0x3ca99bdc	0.020704202
14	0xbd497807	-0.049186733
15	0x3c6efdbe	0.014586864
16	0x3cc1fafd	0.02367925
17	0x3d6a0064	0.05712928
18	0x3dcc0a3d	0.0996289
19	0xbc89d045	-0.016822943
20	0xbdb4706b	-0.088105045
21	0x3d21500d	0.039382983
22	0x3cd58bf7	0.026067717
23	0x3d85b0d9	0.06527872
24	0x3cd81233	0.026375866
25	0x3d3ed3db	0.04658876
26	0x3c96501e	0.01834875
27	0x3ca52b2c	0.020162188
28	0x3bf3f690	0.007445164
29	0x3d8743d8	0.06604737
30	0xbc61d08f	-0.013782634
31	0x3bff084f	0.007782973
32	0xbca8404f	-0.020538477
33	0xbced1c7f	-0.028944252
34	0x3c5ebc26	0.013594663
35	0x3cd24ed3	0.025672352
36	0x3c483855	0.012220462
37	0x3dc24dad	0.09487472
38	0x3dca7257	0.0988509
39	0x3dd7a08b	0.10528668
40	0xbd356898	-0.0442892
41	0x3dd22a87	0.10262018
42	0x3d959f15	0.07305733
43	0x3c3c1030	0.011478469
44	0x3d30360e	0.0430203
45	0x3d035b85	0.0320697
46	0xbd803083	-0.06259253
47	0x3d8f0820	0.069839716
48	0xbd9810c9	-0.074250765
49	0x3ae2543c	0.0017267535
50	0x3c1152d4	0.008869845
51	0x3dc62942	0.09675838
52	0x3d39a3ee	0.04532235
53	0xb9f7af5a	-0.00047242158
54	0xbd2740a8	-0.040833145
55	0xbc498c53	-0.012301522
56	0x3c0f3be3	0.008742305
57	0x3c85f00a	0.016349811
58	0x3ce9af94	0.028526105
59	0x3dcf7101	0.10128976
60	0xbb829fc3	-0.0039863302
61	0x3d1a4826	0.037666462
62	0x3d75b111	0.059983317
63	0x3d1b0efe	0.037856095
64	0x3df53b09	0.11974151
65	0x3d96fd9f	0.07372593
66	0x3d647700	0.05577755
67	0x3d277d27	0.04089084
68	0xbb20d8f6	-0.0024543381
69	0x3db3494d	0.087542154
70	0x3d9a77d0	0.07542384
71	0x3c634f42	0.013873877
72	0xbd2dbc38	-0.042415828
73	0x3de988e8	0.11403066
74	0x3d32dda5	0.043668408
75	0x3d9046f2	0.07044782
76	0x3e0db511	0.13838603
77	0x3e0b91f7	0.136299
78	0x3c137367	0.008999682
79	0x3cf83d01	0.030302526
80	0x3d990faf	0.074736945
81	0x3d543d34	0.05181618
82	0x3ddf653a	0.10907979
83	0x3dfaeaf6	0.122518465
84	0x3da9d155	0.0829188
85	0xbcb03026	-0.021507334
86	0x3d9c8a14	0.07643524
87	0x3e11ead0	0.1424973
88	0xbd0cdb65	-0.03438892
89	0x3d4dc26a	0.050234236
90	0xbdfca0cb	-0.12335356
91	0x3d18d04e	0.03730803
92	0x3d602de2	0.054731257
93	0xbcb6ee55	-0.022330442
94	0x3d07edf0	0.0331859
95	0x3c10c313	0.008835572
96	0x3d09954b	0.033589642
97	0x3d06f0eb	0.0329446
98	0x3bdaa269	0.006672193
99	0x3bbfa37b	0.005848346
100	0x3cf47c30	0.029844373
101	0x3d82e64e	0.063915834
102	0x3d344aa5	0.0440165
103	0xbcbcf913	-0.023067987
104	0xbc0cc24e	-0.008591248
105	0x3d4e4629	0.05035988
106	0x3c9ea044	0.01936353
107	0x3d118964	0.035531417
108	0x3cdf7e35	0.02728186
109	0xbd35ad9f	-0.04435503
110	0x3d605b38	0.054774493
111	0x3cac7c26	0.021055292
112	0x3db5fe3c	0.08886382
113	0x3d92d3b0	0.071692824
114	0x3bceca0d	0.0063107074
115	0xbbaf4711	-0.005349048
116	0x3dc3bbf4	0.095573336
117	0x3d002a50	0.031290352
118	0x3d0616ed	0.032736707
119	0x3dca7726	0.09886007
120	0x3d1947d5	0.03742202
121	0x3d2b1f1c	0.041777715
122	0xbd3f7fd4	-0.046752766
123	0x3c8734a4	0.016504593
124	0x3b1ec9d4	0.0024229186
125	0x3db4957a	0.08817573
126	0x3d3df71d	0.046378244
127	0x3d74e581	0.059789184
128	0x3d86dcc0	0.065850735
129	0x3d14d687	0.0363374
130	0x3d814614	0.063121945
131	0x3d8a06ac	0.06739554
132	0x3cbec878	0.02328895
133	0xbd8e645d	-0.069527365
134	0x3d12f7a8	0.035880715
135	0x3d0752f9	0.033038113
136	0x3e0ce2b0	0.1375835
137	0x3c7c63c7	0.015404648
138	0xbe2ca7bb	-0.16860859
139	0x3d8e6cf8	0.06954378
140	0x3da56294	0.08075443
141	0xbcf0a123	-0.029373711
142	0x3d50613b	0.050873976
143	0x3cc8c11c	0.024506144
144	0x3c82b9f5	0.015957812
145	0x3dad95b6	0.08475821
146	0x3c8a939c	0.016916089
147	0x3d3d9a46	0.046289705
148	0x3d6a6171	0.057221834
149	0x3d759246	0.05995395
150	0x3c32c2a7	0.010910667
151	0xbcdfc18b	-0.027313968
152	0x3c9ac86f	0.018894402
153	0x3e011991	0.12607409
154	0x3d9d884c	0.07692012
155	0x3cc2472b	0.023715576
156	0x3bb3fbc2	0.0054926584
157	0x3deb54e2	0.114907995
158	0x3e042755	0.12905629
159	0x3ddaa465	0.10675887
160	0xbc3e4e5b	-0.011615361
161	0x3de3faae	0.11131798
162	0x3daf3ba9	0.08556301
163	0x3d8710d8	0.065950096
164	0x3daf0588	0.08545977
165	0x3d3e8c7c	0.046520695
166	0x3c5c78e8	0.013456561
167	0x3d63e4c5	0.055638094
168	0xbd2063fd	-0.039157856
169	0x3c2b4e7f	0.010455727
170	0x3e019d09	0.1265756
171	0x3d8de8ed	0.06929193
172	0x3d8c798a	0.06859119
173	0x3d83b1dd	0.06430409
174	0x3d0a9e7c	0.03384255
175	0xbcb6f398	-0.022332951
176	0xbd33a7d3	-0.04386122
177	0xbb946665	-0.004528808
178	0x3d4818f0	0.048851907
179	0x3dd5477a	0.10414024
180	0x3dfb584c	0.12272701
181	0x3d1f510f	0.038895663
182	0x3d13c868	0.036079794
183	0xbd044a4e	-0.032297425
184	0xbd44d64b	-0.04805593
185	0x3d003429	0.031299744
186	0xbd976ace	-0.07393418
187	0x3d0993cd	0.03358822
188	0xbaff76e5	-0.0019490389
189	0xbbab6ed3	-0.005231717
190	0x3debfed1	0.11523212
191	0xbd6cc724	-0.057807103
192	0x3d08680c	0.03330235
193	0x3bd3110c	0.006441241
194	0xbdbb61ac	-0.09149489
195	0x3d168548	0.0367482
196	0xbcdd6e46	-0.027030122
197	0x3a9fe81a	0.0012199909
198	0x3dd280e8	0.10278493
199	0x3d79060f	0.060796794
200	0xbd259f4c	-0.04043512
201	0x3d567270	0.05235523
202	0x3d4c0480	0.04980898
203	0x3c619bd6	0.013770064
204	0x3d99061c	0.074718684
205	0x3d903e71	0.0704316
206	0xbd5a50df	-0.05329978
207	0x3dba4a9d	0.090962626
208	0x3c490c85	0.012271051
209	0xbd9c6032	-0.07635535
210	0x3e192bbc	0.1495809
211	0xba40e329	-0.0007358068
212	0x3d80a975	0.06282321
213	0x3cad8504	0.02118159
214	0xbd185865	-0.037193675
215	0x3cde3b1f	0.0271278
216	0xbd035909	-0.032067332
217	0x3e0e2c64	0.13884121
218	0x3c453afd	0.01203799
219	0x3d14e0ab	0.036347073
220	0x3e20eab2	0.15714529
221	0x3d918ed5	0.07107321
222	0x3cfe6c86	0.031057607
223	0x3ddd1746	0.10795455
224	0xbcab4cb3	-0.020910596
225	0x3d25dc5e	0.04049336
226	0x3d0f4e14	0.03498657
227	0x3c559026	0.013034856
228	0x3db6c345	0.089239635
229	0x3d6e7330	0.05821532
230	0x3ac55c1d	0.0015057359
231	0xbd2fc216	-0.042909704
232	0x3d9cb357	0.07651394
233	0x3db81ef1	0.089902766
234	0x3d0dcf72	0.034621663
235	0x3dba91fc	0.091098756
236	0xbe066d41	-0.13127615
237	0x3d3b9566	0.045796774
238	0x3ce9736c	0.02849742
239	0x3c36c096	0.0111543145
240	0x3dc1edc0	0.09469175
241	0x3beb4031	0.007179283
242	0x3df7b2d7	0.12094658
243	0xbb766877	-0.0037598887
244	0x3c82e0dc	0.015976362
245	0x3c9d2a13	0.019185102
246	0x3db67758	0.08909482
247	0x3b93cc31	0.0045104255
248	0x3caefcaa	0.021360714
249	0x3ddbd49c	0.107339114
250	0x3d5abb5a	0.05340133
251	0x3da11c4f	0.078667276
252	0x3d23c9bf	0.039987322
253	0xbd21836a	-0.039431967
254	0x3df0f709	0.11765868
255	0xbb0b0ed4	-0.0021218555

fc3.weight f4 [2, 256]
0	0xbd9ab7a7	-0.0755456
1	0xbe3fca2e	-0.18729469
2	0xbd705604	-0.05867578
3	0x3d5a28a8	0.05326143
4	0x3e552dec	0.20818299
5	0xbe05d811	-0.13070704
6	0xbc2ab740	-0.010419667
7	0xbe6f76c6	-0.23385152
8	0x3df851ba	0.12124963
9	0x3e59b364	0.21259838
10	0x3e6ff83d	0.23434539
11	0x3dbbf1ca	0.09176977
12	0xbdea3945	-0.114367045
13	0x3eab98b5	0.33514944
14	0x3d4778c3	0.04869915
15	0xbe0019ee	-0.12509891
16	0x3dbe6925	0.092973985
17	0x3eb035dd	0.34416094
18	0xbdcfd387	-0.101477675
19	0x3dfc9689	0.123334
20	0x3d9d3857	0.076767616
21	0x3c824c10	0.01590541
22	0x3e1e011f	0.15430115
23	0xbeadd197	-0.33948967
24	0x3dd8a9ed	0.10579286
25	0x3f2cf74b	0.6756484
26	0xbe79019a	-0.24317017
27	0x3e846988	0.25861764
28	0x3ec0f8d6	0.37689847
29	0xbe8a9fc1	-0.27075008
30	0x3cee73df	0.029107986
31	0x3e72fb6e	0.23728725
32	0x3daf6e74	0.08565989
33	0x3cd320c7	0.025772465
34	0x3e0fc379	0.1403941
35	0x3decc72e	0.11561428
36	0xbdadf951	-0.08494819
37	0x3e335aa2	0.17515042
38	0x3e24fb9a	0.16111603
39	0xbdfd9621	-0.123821504
40	0x3edc9296	0.43080586
41	0xbdd37a9c	-0.1032612
42	0xbe2c691d	-0.16836973
43	0x3e70a707	0.23501216
44	0xbe22b9df	-0.15891217
45	0x3e0a31a6	0.13495502
46	0xbd8743c7	-0.066047244
47	0x3f064164	0.5244353
48	0xbd2b6a06	-0.04184916
49	0x3da93edf	0.08263945
50	0x3e31b75b	0.17355101
51	0x3e153a4d	0.14573021
52	0x3c4dbf28	0.012557782
53	0x3e08f282	0.1337376
54	0xbde9e0c0	-0.11419821
55	0x3ddc11ac	0.10745558
56	0xbc160c2e	-0.009158177
57	0xbe0456fd	-0.12923808
58	0x3e8e79a3	0.27827176
59	0xbdbe0dfa	-0.092800096
60	0x3d118451	0.035526577
61	0x3c60052c	0.013673108
62	0xbd9b9280	-0.07596302
63	0x3988f83a	0.00026124885
64	0xbe89da12	-0.26924187
65	0xbd736135	-0.059418876
66	0x3d7c74e0	0.0616349
67	0xbdd1929d	-0.102330424
68	0xbe93bf76	-0.2885701
69	0xbe6bae33	-0.2301567
70	0xbe95f928	-0.29291654
71	0x3e85bba1	0.26119712
72	0x3db70845	0.08937124
73	0xbda0a3b4	-0.07843724
74	0x3e0aeef2	0.13567713
75	0x3e62e3cc	0.2215721
76	0x3e9707a4	0.29498017
77	0x3ef73933	0.48285827
78	0xbd8e5335	-0.06949464
79	0xbe9ea2e0	-0.3098364
80	0x3d1acf10	0.037795126
81	0xbe2dd550	-0.16975904
82	0xbe13d35e	-0.14436099
83	0xbe123771	-0.14278962
84	0x3f1d18bf	0.61365885
85	0x3e6c39cb	0.23068921
86	0xbe55b30b	-0.2086908
87	0x3dfa9b7a	0.12236686
88	0x3d4cf7af	0.050040897
89	0xbd985ce0	-0.074395895
90	0x3e410c07	0.18852244
91	0xbecc8335	-0.39943853
92	0xbd5d76c8	-0.054068357
93	0xbe80bdb8	-0.25144744
94	0x3d563d86	0.052304767
95	0x3ea55226	0.32289237
96	0x3e705628	0.23470366
97	0xbe95f491	-0.29288152
98	0x3d807c7b	0.06273743
99	0xbe013336	-0.12617192
100	0x3cdcd1e0	0.026955545
101	0xbebd06a1	-0.3691912
102	0x3dd433b9	0.10361428
103	0x3d3fc2a2	0.046816476
104	0x3e2bcd8b	0.16777627
105	0xbd00206d	-0.031280924
106	0xbe0f9e64	-0.14025265
107	0xbe016726	-0.12637004
108	0xbdf32067	-0.11871415
109	0x3e19f395	0.15034325
110	0xbe0006e4	-0.12502629
111	0x3ddea347	0.108709864
112	0xbe392b47	-0.18082915
113	0x3da0c24c	0.07849559
114	0x3d32808f	0.043579634
115	0x3e5b2471	0.2140062
116	0xbeb477ee	-0.3524775
117	0x3e77103b	0.24127285
118	0x3dd0a131	0.10186995
119	0x3d5889a0	0.052865624
120	0xbc3a10f3	-0.01135658
121	0xbd1dddaa	-0.038541473
122	0x3e8c4d9e	0.27402967
123	0xbddb9fdb	-0.107238494
124	0x3d99fc67	0.07518845
125	0xbbf0821e	-0.00733973
126	0x3d898643	0.067150615
127	0xbda74235	-0.08166925
128	0x3e5d3573	0.2160242
129	0x3eabab37	0.33529064
130	0xbe94e325	-0.29079548
131	0x3e879d66	0.26487273
132	0x3d7bce8c	0.061476275
133	0xbe8b66fb	-0.27227005
134	0xbe944215	-0.28956667
135	0x3c06ae5e	0.008220283
136	0x3dc758ec	0.097337574
137	0x3e09e628	0.13466704
138	0x3ead0344	0.33791554
139	0x3e238d57	0.15971886
140	0x3d53caff	0.051707264
141	0xbec29079	-0.3800085
142	0x3ec7e159	0.39039114
143	0xbe9f2b5d	-0.3108777
144	0xbdc13c36	-0.094353124
145	0xbe28843e	-0.16456696
146	0xbe9b4ee4	-0.30333626
147	0xbdf72bda	-0.12068911
148	0xbe760d68	-0.24028552
149	0xbe53cd25	-0.20683725
150	0xbdd78b12	-0.105245724
151	0x3d8aa690	0.067700505
152	0x3e10c7f4	0.14138776
153	0x3dbf662d	0.0934566
154	0x3e64ed13	0.22356062
155	0xbe026b31	-0.12736203
156	0x3e265742	0.16244224
157	0x3e9baf73	0.30407295
158	0x3ec60e7b	0.38682923
159	0xbe06ab09	-0.13151182
160	0xbe814390	-0.2524686
161	0xbe8d3eb1	-0.27586892
162	0xbe96e7c6	-0.29473704
163	0xbd357b0d	-0.044306803
164	0x3d19bb19	0.037531946
165	0x3ecb008a	0.3964885
166	0xbdfb0b23	-0.122579835
167	0x3f198356	0.5996603
168	0xbe34ed6f	-0.17668699
169	0x3d96142e	0.07328068
170	0xbe9eb793	-0.3099943
171	0xbdbf5e1c	-0.09344122
172	0x3e2e1310	0.1699946
173	0xbe0cd05e	-0.13751361
174	0x3e76969b	0.24080889
175	0xbe61dd57	-0.2205709
176	0x3d3d9609	0.046285663
177	0xbbab8818	-0.0052347295
178	0x3e9058d4	0.2819277
179	0xbe8e9cb5	-0.27853933
180	0x3ed67852	0.41888672
181	0xbe9f98eb	-0.31171355
182	0x3cfff58e	0.03124502
183	0xb9b60e78	-0.00034724525
184	0xbea77fc1	-0.32714656
185	0x3e9d704f	0.30749747
186	0xbed60899	-0.41803434
187	0x3e3739da	0.17893162
188	0x3dc61397	0.09671705
189	0x3d892fc4	0.06698564
190	0x3f075550	0.5286455
191	0x3e1ee05d	0.15515275
192	0x3d85aff5	0.06527702
193	0x3e5fdfa6	0.21862659
194	0x3e540370	0.20704436
195	0xbe924e72	-0.28575474
196	0x3d4d1f2e	0.050078563
197	0xbe383f1f	-0.17992829
198	0xbeaef364	-0.34170067
199	0xbe76ea50	-0.2411282
200	0x3e59804a	0.21240345
201	0xbdf3ffe3	-0.11914041
202	0xbe5ea948	-0.21744263
203	0x3dfa44c3	0.122201465
204	0xbb759439	-0.003747238
205	0x3d3c3ff6	0.045959435
206	0x3e1cf1e6	0.15326652
207	0xbd5d3c40	-0.054012537
208	0x3ddfa7e1	0.10920692
209	0x3e43961a	0.19100228
210	0xbe2343f8	-0.15943897
211	0x3db9a29b	0.09064218
212	0xbe0d0a54	-0.13773471
213	0xbbdb7bbd	-0.0066981004
214	0x3dc08631	0.09400595
215	0xbeac46bf	-0.33647725
216	0x3e542552	0.20717362
217	0xbdf081bc	-0.11743495
218	0x3e1b35b0	0.15157199
219	0xbce14216	-0.027497333
220	0xbe772d28	-0.2413832
221	0xbe57e062	-0.21081689
222	0xbc31b8e8	-0.010847308
223	0xbd74ba68	-0.059748083
224	0x3d09c11d	0.033631433
225	0xbe451c0c	-0.1924898
226	0x3dd2da50	0.10295546
227	0xbcd103d3	-0.025514519
228	0xbdd332a0	-0.1031239
229	0xbd907264	-0.07053068
230	0x3e296b31	0.16544797
231	0x3e9784a7	0.29593393
232	0xbe9d909a	-0.30774385
233	0xbd4c2d9f	-0.049848195
234	0xbda4437b	-0.080206834
235	0xbdd7bd4e	-0.10534154
236	0xbefb898c	-0.49128377
237	0x3e03184a	0.12802234
238	0x3e5b32a7	0.21406041
239	0x3eb61865	0.35565487
240	0x3eb77fc6	0.3583967
241	0xbdc18882	-0.09449865
242	0x3e1947d7	0.14968811
243	0x3d0f4848	0.034981042
244	0x3d7a6bfe	0.061138146
245	0x3db2fbeb	0.08739456
246	0xbd21e6a2	-0.03952659
247	0xbde41a61	-0.11137844
248	0x3d544461	0.051823024
249	0xbe69c80e	-0.22830221
250	0x3eb02ee0	0.34410763
251	0xbe3b29ab	-0.18277614
252	0xbe8c397d	-0.2738761
253	0x3edfcf68	0.43712926
254	0xbe9a86a9	-0.30180863
255	0xbe27c580	-0.16383934

fc3.bias f4 [2]
0	0xbd2cf94a	-0.042229928
1	0x3d5d3329	0.05400387

bn1.weight f4 [512]
0	0x3f1ec2c2	0.62015927
1	0x3f7b2d00	0.9811554
2	0x3f823ec6	1.0175407
3	0x3f27885f	0.6544246
4	0x3f4c8212	0.7988597
5	0x3f29ba6f	0.663001
6	0x3f0281f2	0.5097953
7	0x3f599448	0.84991884
8	0x3e668f1c	0.2251553
9	0x3f361577	0.711265
10	0x3f26bc45	0.65131027
11	0x3f29370e	0.6609963
12	0x3f5a41b3	0.852565
13	0x3eecfa72	0.46284825
14	0x3ee297a7	0.44256327
15	0x3ee44d40	0.44590187
16	0x3f29a1fa	0.6626278
17	0x3f8a29ca	1.0794003
18	0x3f48fdbc	0.7851217
19	0x3f4c608f	0.79834837
20	0x3f44456e	0.7666844
21	0x3fb40420	1.4063759
22	0x3f264025	0.64941627
23	0x3dae93fa	0.08524318
24	0x3eda4959	0.42634085
25	0x3f56db1e	0.83928096
26	0x3ee7dc95	0.45285478
27	0x3f578618	0.84188986
28	0x3f84c36a	1.0372136
29	0x3e9855ba	0.29752904
30	0x3f7c7937	0.9862246
31	0x3f880eb9	1.0629493
32	0x3f18fe35	0.5976289
33	0x3e206af3	0.15665798
34	0x3f3d748f	0.7400598
35	0x3f30cbc0	0.690609
36	0x3f7f0dcc	0.9963043
37	0x3f5bf744	0.8592417
38	0x3f31f001	0.6950684
39	0x3f3d1012	0.73852646
40	0x3f4ab16a	0.7917696
41	0x3ee232d7	0.44179413
42	0x3ed2f4ed	0.4120249
43	0x3f25f3fd	0.6482542
44	0x3ec61188	0.3868525
45	0x3f8515cc	1.0397277
46	0x3ec4c665	0.38432613
47	0x3e8481da	0.2588032
48	0x3f518df9	0.8185726
49	0x3ea7df30	0.32787466
50	0x3ee6b4db	0.45059857
51	0x3f07ffab	0.53124493
52	0x3f2192ce	0.6311463
53	0x3e8db42f	0.27676532
54	0x3eb6e751	0.35723355
55	0x3eb42b05	0.3518907
56	0x3eae162f	0.340013
57	0x3f05d3b4	0.5227616
58	0x3f5fe6ad	0.8746136
59	0x3f5cba40	0.86221695
60	0x3f067e13	0.52536124
61	0x3f79d0cf	0.9758424
62	0x3f89ffb0	1.0781155
63	0x3f88cb4b	1.068704
64	0x3ed09d8e	0.40745205
65	0x3ed08143	0.4072362
66	0x3e85d1d2	0.26136643
67	0x3f817a4a	1.0115445
68	0x3f9f6d3a	1.2455208
69	0x3ed869ba	0.42268163
70	0x3f0a69f3	0.54067916
71	0x3f5215a9	0.820643
72	0x3f1c23a8	0.6099191
73	0x3f0d9d5e	0.5531825
74	0x3f045e74	0.51706624
75	0x3f5ec05b	0.8701226
76	0x3eb7dabd	0.35909072
77	0x3eee248a	0.46512252
78	0x3f89d583	1.0768284
79	0x3f62cf7b	0.8859784
80	0x3ebac3c6	0.36477488
81	0x3ed9419c	0.42432868
82	0x3f3dc564	0.7412932
83	0x3eb08e64	0.34483635
84	0x3f69fcc2	0.914013
85	0x3ee6491b	0.4497765
86	0x3eb6cf78	0.3570516
87	0x3f610e51	0.8791247
88	0x3f3e8b57	0.74431366
89	0x3f0a30df	0.5398082
90	0x3f20f50f	0.6287393
91	0x3f8f1b48	1.11802
92	0x3f072a28	0.527987
93	0x3dd55c5d	0.104180075
94	0x3eea7a03	0.45796213
95	0x3f73dbc5	0.95257217
96	0x3f067b53	0.5253193
97	0x3f43a98a	0.7643057
98	0x3eb96f3e	0.36217684
99	0x3f5159bb	0.8177754
100	0x3e037dd1	0.12840964
101	0x3eda2e7c	0.4261359
102	0x3f403ada	0.750898
103	0x3f3c8362	0.73637974
104	0x3f71a7ad	0.9439648
105	0x3f86df48	1.053689
106	0x3f7d4e21	0.9894734
107	0x3ede963a	0.4347399
108	0x3ec68224	0.38771164
109	0x3ebb3cff	0.36569974
110	0x3eb51c50	0.35373163
111	0x3f6be0fd	0.9214018
112	0x3f9d0dfd	1.2269894
113	0x3f61461b	0.879976
114	0x3f6c3e6c	0.9228275
115	0x3f1cd3e9	0.6126085
116	0x3ee2f67b	0.44328675
117	0x3e99da39	0.30049303
118	0x3f416321	0.75541884
119	0x3f7f49ed	0.99722177
120	0x3f4c239e	0.7974185
121	0x3ec5e6d3	0.38652667
122	0x3f44431f	0.7666492
123	0x3e9a1519	0.3009422
124	0x3e9d0671	0.30668977
125	0x3e02ba37	0.12766348
126	0x3ea328ca	0.31867057
127	0x3f1f623f	0.62259287
128	0x3f4c78ac	0.7987163
129	0x3ecbac49	0.3977988
130	0x3e5e1491	0.21687533
131	0x3f3fecc7	0.7497067
132	0x3f565382	0.8372117
133	0x3f8353d5	1.0259959
134	0x3fae501c	1.3618197
135	0x3eb0418a	0.34425002
136	0x3f5f8a0a	0.87320006
137	0xbf0b0877	-0.5430979
138	0x3f11173a	0.56676066
139	0x3ed76376	0.4206807
140	0x3eb82a71	0.3596988
141	0x3f5e9131	0.86940295
142	0x3f665726	0.8997673
143	0x3e9ffb9f	0.3124666
144	0x3f3d0ec7	0.73850673
145	0x3f33fd6f	0.70308584
146	0x3f5ca376	0.8618692
147	0x3e89ea4c	0.26936567
148	0x3f5fc5d4	0.87411237
149	0x3eea35fe	0.45744318
150	0x3f251a9d	0.64493734
151	0x3f82372b	1.0173086
152	0x3ea66e1c	0.32505882
153	0x3f7aa1b7	0.9790301
154	0x3f39ae30	0.72531414
155	0x3f492d48	0.7858472
156	0x3f67931f	0.90458864
157	0x3f29e944	0.6637156
158	0x3e9d3b07	0.30709097
159	0x3f94c8bd	1.162376
160	0x3ec0cbd3	0.37655506
161	0x3e8acfdb	0.27111706
162	0x3f4464dd	0.76716405
163	0x3f2d0152	0.6758014
164	0x3f8243c3	1.0176929
165	0x3f7640a8	0.9619241
166	0x3f598436	0.8496736
167	0x3ea7ab4e	0.32747883
168	0x3e651aa4	0.22373444
169	0x3ed637ed	0.41839543
170	0x3f3a6c7a	0.7282177
171	0x3ea3662b	0.31913885
172	0x3f805d00	1.0028381
173	0x3f3127da	0.69201434
174	0x3f0de2af	0.55424017
175	0x3f1afcc1	0.6054192
176	0x3f18a598	0.59627676
177	0x3f0d5b11	0.5521708
178	0x3ed0fcd5	0.40817896
179	0x3dab4bfd	0.08364103
180	0x3f1955e7	0.598967
181	0x3ef504eb	0.47855315
182	0xbf2a209f	-0.66456026
183	0x3f3167a0	0.69298744
184	0x3f8221a6	1.0166519
185	0x3f3408fd	0.70326215
186	0x3f67a5da	0.90487444
187	0x3e92c931	0.28669122
188	0x3f4046dd	0.7510813
189	0x3f39b711	0.7254496
190	0x3f802ad6	1.0013072
191	0x3f8ccb52	1.0999548
192	0x3f8a8580	1.0821991
193	0x3f477a71	0.77921206
194	0x3edebbf5	0.43502775
195	0x3eb2e3f9	0.34939554
196	0x3f5278d3	0.82215613
197	0x3f680bba	0.90642893
198	0x3eb08dd5	0.3448321
199	0x3f9b46b2	1.213095
200	0x3f31c0aa	0.6943461
201	0x3ee68e43	0.45030412
202	0xbea44ae3	-0.32088384
203	0x3f314fba	0.6926228
204	0x3f0930a9	0.53589875
205	0x3ef6a14a	0.4816993
206	0x3ec659b6	0.3874032
207	0x3ef78f86	0.48351687
208	0x3eb9ef15	0.36315218
209	0x3f30db5b	0.6908471
210	0x3f20a45b	0.62750787
211	0x3f6dfec6	0.9296688
212	0x3f65667d	0.8960951
213	0x3f447bc2	0.7675134
214	0x3e96ba95	0.29439226
215	0x3f1bc539	0.6084781
216	0x3f64e2a3	0.8940832
217	0x3f83279f	1.0246466
218	0x3f4b8ce5	0.79511863
219	0x3f339da2	0.70162404
220	0x3e80d8a3	0.2516528
221	0x3f4837e5	0.7821029
222	0x3e9ff169	0.3123887
223	0x3f9d2567	1.2277039
224	0x3f471440	0.77765274
225	0x3ef933b9	0.48672274
226	0x3f61d897	0.88221115
227	0x3e63bcf5	0.2224005
228	0x3f0a3e9e	0.54001796
229	0x3f253706	0.64537084
230	0x3f65967a	0.89682734
231	0x3f83ff76	1.0312335
232	0x3f5fe21a	0.8745438
233	0x3ec8ab55	0.39193216
234	0x3f8c2ff7	1.0952138
235	0x3fa3c24c	1.279367
236	0x3f282d4b	0.6569411
237	0x3f056848	0.52112246
238	0x3f1acb88	0.60466814
239	0x3e7bc773	0.24587803
240	0x3f8c61fb	1.0967401
241	0x3f1e3b03	0.61808795
242	0x3f4ae0f5	0.7924951
243	0x3d04d167	0.032426264
244	0x3f2ad29e	0.66727626
245	0x3ea2a11c	0.31763542
246	0x3e633e10	0.22191644
247	0x3f1a54fa	0.60285914
248	0x3cf21cb2	0.029554699
249	0x3f3612a4	0.71122193
250	0x3f6eeb79	0.9332805
251	0x3f6ab882	0.91687787
252	0x3f2c7e68	0.6738038
253	0x3f23ec01	0.6403199
254	0x3f505f83	0.8139574
255	0x3f77bf0a	0.9677588

bn1.bias f4 [512]
0	0x3cc52ebd	0.024070138
1	0x3cc97e49	0.02459635
2	0x3c826366	0.015916537
3	0x3db01c12	0.08599104
4	0xbbcaa437	-0.0061841267
5	0xbda0aa77	-0.078450136
6	0x3acc6433	0.0015593827
7	0xbbab0bc4	-0.0052199084
8	0xbd008a24	-0.03138174
9	0x3d7bd981	0.061486725
10	0x3c04f4f8	0.008115046
11	0x3dc1114e	0.09427129
12	0x3d6b5462	0.05745352
13	0x3d3fb751	0.046805684
14	0xbe0aebf8	-0.13566577
15	0xbc5e4820	-0.013567001
16	0x3d1950fd	0.037430752
17	0xbd39192b	-0.045190018
18	0x3b594eb4	0.0033158483
19	0x3d27c6ea	0.040961184
20	0x3d17eda8	0.03709188
21	0x3ccee804	0.025257118
22	0xbcdbd35a	-0.026834179
23	0xbd2b6c7a	-0.0418515
24	0x3b6f0e3a	0.0036476986
25	0xbc54af5d	-0.012981263
26	0x3dea70f1	0.11447323
27	0x3cca7161	0.024712266
28	0x3c5cfaee	0.013487561
29	0xbd1a06a4	-0.03760399
30	0x3d8dad25	0.0691779
31	0x3ab76cfb	0.0013994271
32	0x3ae5bbca	0.0017527279
33	0x3d8284b4	0.06372967
34	0xbc5af1f7	-0.013363353
35	0x3c330653	0.010926801
36	0x3d4407a0	0.047858834
37	0x3d81baa0	0.06334424
38	0x3d457a8f	0.048212584
39	0xbb4fb7b8	-0.0031695198
40	0x3bc5c50f	0.006035454
41	0x3ccdcde9	0.0251226
42	0xbd42b7f4	-0.047538713
43	0xbc873f4c	-0.016509674
44	0xbc8fb3a0	-0.017541707
45	0xbc956d04	-0.01824046
46	0xbc9ccc4a	-0.019140381
47	0xbd02bc67	-0.031917956
48	0x3c15a5fd	0.009133813
49	0x3d90a167	0.07062035
50	0x3cbb6ef1	0.02288005
51	0xbb896503	-0.0041929497
52	0x3d4a8264	0.049440756
53	0xbc8830d8	-0.016624853
54	0x3d648a57	0.055795994
55	0x3bd4d93b	0.0064956225
56	0x3ce8d69e	0.02842265
57	0xbd6b1916	-0.05739697
58	0xbbf70fee	-0.0075397408
59	0x3c708472	0.014680015
60	0x3d46afc1	0.048507456
61	0x3db98fa2	0.09060599
62	0xbd65c53a	-0.056096293
63	0xbda02990	-0.078204274
64	0x3ce81f6b	0.028335294
65	0xbc97f21c	-0.018548064
66	0xbd49afa6	-0.049239777
67	0xbc8423e3	-0.016130393
68	0x3b0d705e	0.0021581869
69	0x3d69a2d1	0.05704004
70	0x3bf56e18	0.007489931
71	0x3da525c9	0.080638476
72	0x3da0ff57	0.07861202
73	0x3cd0fdb2	0.025511596
74	0x3d378401	0.044803623
75	0x3d6db457	0.058033314
76	0x3cc3b8b9	0.023891794
77	0xbd49ced6	-0.04926952
78	0x3d6b522a	0.057451405
79	0x3bd409e0	0.0064709038
80	0x3c7275d5	0.014798601
81	0x3bf26311	0.0073970635
82	0x3d15da61	0.036585215
83	0xbd95e702	-0.07319452
84	0xbbd2b33f	-0.006430059
85	0x3cddcf1e	0.0270763
86	0xbc1b0e9d	-0.009463933
87	0x3d74737e	0.059680454
88	0xbc2e3d22	-0.010634692
89	0x3cc7e354	0.02440039
90	0xbd037f3a	-0.032103755
91	0x3da95687	0.08268457
92	0xbceadfa9	-0.028671103
93	0x3c9a2acf	0.01881924
94	0x3d14fae5	0.036372084
95	0xbd58d459	-0.052936886
96	0xbd5d585e	-0.05403935
97	0x3d5ca988	0.053872615
98	0xbdae8bb4	-0.0852274
99	0x3d099ca5	0.033596653
100	0x3c827806	0.015926372
101	0xbbf0e5f0	-0.0073516294
102	0x3d30826b	0.043093126
103	0x3cd2c904	0.025730617
104	0x3cef2513	0.029192483
105	0xbca6aefb	-0.020347109
106	0xba127cb2	-0.0005588039
107	0x3c43bac4	0.011946384
108	0xbca29692	-0.019847188
109	0x3c802e2d	0.015647018
110	0x3d0b78f9	0.034050915
111	0xbd085a5a	-0.03328929
112	0xbd1ae049	-0.03781155
113	0xbbf26adf	-0.007397994
114	0x3d8c8b2c	0.068624824
115	0x3dab37d7	0.0836026
116	0xba9292b8	-0.0011182642
117	0x3ba29f34	0.004962826
118	0xbc9fd939	-0.01951276
119	0xbdab75f3	-0.083721064
120	0xbd0a3ea3	-0.03375114
121	0xbc2397f6	-0.009984961
122	0x3cbf88ed	0.023380721
123	0x3bd22245	0.0064127767
124	0xbc8cadcc	-0.017172717
125	0x3d394d24	0.045239583
126	0x3d957e6c	0.07299504
127	0x3d4e9052	0.050430603
128	0x3d13f274	0.036119893
129	0xbd31227f	-0.04324579
130	0x3cb09e7a	0.021559943
131	0x3d133511	0.03593928
132	0xbbf6f6f8	-0.007536765
133	0x3b7cc218	0.0038567837
134	0x3c7546e1	0.014970512
135	0xbc6b2f5b	-0.014354552
136	0x3ce8dced	0.028425658
137	0x3db72b84	0.08943847
138	0x3bfa9528	0.0076471753
139	0x3d37715f	0.044785853
140	0x3bd9253f	0.0066267545
141	0xbd5cb8da	-0.053887226
142	0xbc8a7e85	-0.016906032
143	0xbc10efab	-0.008846204
144	0xbd96b8cb	-0.07359465
145	0xbc1b9411	-0.009495751
146	0xbd530fe7	-0.051528838
147	0xbd299400	-0.04140091
148	0xbd5f25b1	-0.054479305
149	0xbd86610c	-0.06561479
150	0xbd1c4ba8	-0.03815809
151	0x3d121c8c	0.035671756
152	0xbdba39f8	-0.09093088
153	0xbbd87b8f	-0.006606526
154	0x3b36b526	0.002787897
155	0xbc8dc078	-0.01730369
156	0xbc588e67	-0.013217545
157	0xbc1815fb	-0.009282584
158	0xbcaf0645	-0.021365294
159	0xbcf3ae85	-0.029746303
160	0x3d2288c6	0.03968122
161	0x3dcf4ae9	0.1012171
162	0x3d36f70e	0.044669203
163	0xbca796c3	-0.020457631
164	0x3cc9fcd4	0.02465669
165	0xbcb5102c	-0.022102438
166	0xbd4a89bc	-0.04944776
167	0xbb84dbe6	-0.0040545342
168	0xbc8bbe15	-0.017058412
169	0x3c8ad2b0	0.016946167
170	0xbb60ca42	-0.0034300243
171	0x3c79ca79	0.015246027
172	0x3ca47ed9	0.020080017
173	0x3c36671a	0.01113298
174	0xbc6e78d8	-0.014555179
175	0x3c97eb11	0.018544706
176	0xbc914db5	-0.017737249
177	0xbcb8590f	-0.022503404
178	0x3cd07d21	0.025450291
179	0xbc3f4183	-0.011673334
180	0x3df0e8b4	0.117631346
181	0xbcc75a62	-0.02433509
182	0xbd9fd27a	-0.07803817
183	0x3d07159f	0.032979604
184	0x3bebcffa	0.0071964236
185	0x3c30f563	0.010800692
186	0x3c4e2248	0.0125814155
187	0xba34dd9d	-0.0006899478
188	0x3d775952	0.060387917
189	0xbd0a638e	-0.03378635
190	0xbb45f077	-0.0030203143
191	0xbd26b4fa	-0.040699936
192	0x3c6cdf81	0.014457584
193	0xbbbc86a1	-0.0057533537
194	0x3dcb3974	0.09923068
195	0x3c91a2df	0.017777858
196	0x3da66333	0.081243895
197	0xbd1fdbc7	-0.039027955
198	0xbc751875	-0.014959444
199	0x3d61ed76	0.0551581
200	0x3c94d8c0	0.01816976
201	0xbcc90a62	-0.024541084
202	0xbda609b7	-0.08107322
203	0x3be29112	0.0069142664
204	0xbc75bc46	-0.014998501
205	0x3d065c79	0.032803033
206	0x3cba993c	0.022778146
207	0xbcb2b479	-0.021814572
208	0xbc1544a5	-0.009110604
209	0xbceaa71b	-0.028644135
210	0x3c4ccfdd	0.01250073
211	0xbd69cf57	-0.0570825
212	0x3d795075	0.060867745
213	0x3a56f48d	0.0008199893
214	0x3bca8b1d	0.0061811344
215	0x3de8ab4f	0.113607995
216	0x3aba5d3a	0.0014218458
217	0xbd261ffe	-0.040557854
218	0xbcbb88e6	-0.022892427
219	0xbc829c29	-0.015943604
220	0xbc387715	-0.01125886
221	0xbb83d5ee	-0.004023305
222	0x3c85a82a	0.016315538
223	0x3cc3d5d2	0.023905668
224	0x3cfe6789	0.031055229
225	0x3c209dd0	0.00980325
226	0x3d036e05	0.032087345
227	0x3c602e82	0.013682963
228	0xbd9167b8	-0.07099861
229	0xbdae4815	-0.08509842
230	0x3cfda776	0.03096364
231	0xbc267b68	-0.010161258
232	0x3c36bbe8	0.011153199
233	0xbd0c821e	-0.034303777
234	0x3c99db87	0.018781437
235	0x3c70259a	0.014657402
236	0xbd4fd86f	-0.050743517
237	0x3cc47a11	0.023983987
238	0xbcc85307	-0.024453653
239	0x3d560ac8	0.052256376
240	0xbc2b15e2	-0.010442229
241	0xbcf0e787	-0.029407276
242	0x3c9f8072	0.019470427
243	0xbde6fa87	-0.11278253
244	0x3b5fd8d9	0.003415635
245	0xbd285f52	-0.04110653
246	0x3d8eb775	0.069685854
247	0xbbf45a38	-0.007457044
248	0xbdb16f40	-0.086637974
249	0x3d1ab3eb	0.03776924
250	0xbbf54109	-0.0074845594
251	0x3bd539dc	0.0065071415
252	0xbd22436f	-0.03961509
253	0xbd3d5d5e	-0.04623162
254	0x3cadcd08	0.02121593
255	0xbc1f01a4	-0.009704981
