3 - Collab -MADDPG/trained_agents/maddpg_tennis_checkpoint_actor_target_0.pth (torch_old, 588240 bytes, 10 tensors)

fc1.weight f4 [512, 24]
00000000: 32c0 bebc 4ab7 49bd 0302 26bc 574f 303d
00000010: 98b9 3cbb a8d9 59bb a4b7 16b9 8914 89bc
00000020: 5e6c 793d 6e2a 0a3d 7958 9c3c 563f 0ebd
00000030: 9770 fe3c 32f7 bb3c adbd b0bc 9b7f b93c
00000040: 3272 9b3d fc67 5d3d 0442 f2bc 7373 3fbd
00000050: 5ef2 103d 5c18 143d ef2e 1b3d 7ff5 4cbc
00000060: 874b dc3c 30e7 e7bc 621c a93c 44d6 2d3d
00000070: d264 093d e39d 5abd b843 ecbc af15 f63c
00000080: 4f48 2dbd 3b03 bebc 0e44 9e3c 3a0c 1b3d
00000090: 0861 4e3d d5bb 8bbd 388e 22bd 2154 3d3d
000000a0: 6d94 b73a ed83 55bb 4a68 bdbb 4be5 15bd
000000b0: 52ba a2bc d914 79bd 9522 f83c d645 93bc
000000c0: f4b1 253d 0ea5 4abc e232 c33c 3b5f 5dbd
000000d0: af33 0d3c 4538 61bc 7dc3 fe3c 6947 00bc
000000e0: 6dd4 773d 6d9b 4ebc 5d01 8ebc 573c 54bd
000000f0: 58a5 35bc 8ae5 63bd d94d 003d f33c 86bd
00000100: 095d b4bc cf18 17bd 8fe4 85bb fa9b de3c
00000110: 5d96 e03b 2b7c 98bc 1179 36bd f513 28bd
00000120: d07d 49bb 5cdc c1bc dae5 593d 4d4f f1bc
00000130: fe8b edbb b55c b0bc d0c0 b83c fd32 46bd
00000140: 7ffb 13bd cd82 82bd 13fe 1bbc 3842 adbc
00000150: ca05 553c bd39 df3a 3762 7bbc e217 1ebc
00000160: fb3b 91bc 9311 bcbd 303e febc f199 9c3c
00000170: 1ddf 11bd e538 4b3d 66e4 95bc b99d 843c
00000180: 69ea 8f3d dd5f 8cbc cef1 0fbb 849f 12bd
00000190: 0d50 903d cef4 bfbb e369 f1bb 5f3e 4bb9
000001a0: 1446 b73c 0d0c 7abd 5123 9bb9 2e81 17bd
000001b0: 3b44 5f3d b713 5b3b 43be aabb 83ff 1fbb
000001c0: d638 8e3c de06 e839 462f e13c 5558 91bc
000001d0: 9284 d2bc 6f0b a33c 1b05 c2bc 4b30 f2ba
000001e0: 2426 babc 4356 2cbc 5e61 15bc 228c 733d
000001f0: f2f6 a7bc 2628 f4bc cbb7 f8bc 3ae8 023c
00000200: 4c4a 8dbc fc3a 02b9 f6e4 593c 3b0d 2ebd
00000210: c229 21bd 3e3a 8fbd 85f3 ca3c 82b1 583c
00000220: 4b52 c4bb fb10 613c 94bd d2bb d0d5 833d
00000230: 7063 bbbc 582b 0fbd ffc9 58ba c8d1 02bb
00000240: 322b 8ebc efb3 813d b394 f6bc f41c 0fbd
00000250: 57bd 4dbd db07 8ebc 7121 383d b179 763c
00000260: e42a afbc 5c43 323c 1c69 93bc 86d3 babb
00000270: ee1a 75bc da6c 46bd 67ae 413a 02e7 56bd
00000280: 488a 723d ff2d 973d ecb3 4dbc d10d 69bd
00000290: e7d1 e33b 5b46 0bbd 9cba 153c 87d6 0bbd
000002a0: c43a 323d 5e05 bb3c 8fae 8fbc 0591 37bd
000002b0: d9ae 04bc 1582 053a 7f5b f5bc 508f c63c
000002c0: 534d 0cbd eb10 58bd fb79 bebc d24a 86bd
000002d0: ad40 20bd da09 9ebc 3e99 88bc 1b6e 76bd
000002e0: b4f7 e1bc b133 98bc 4933 2dbd 0adb c7bc
000002f0: aa0f 42bd 5be7 a4bb 1125 a73c 7446 3abd
00000300: fb70 bc3c 0783 4bbd 4a2e 31bc de2f 0dbd
00000310: 42ac fbbb 8487 ca3c 9e77 15bd 2735 113d
00000320: 627e 0f3d 3722 a6bc b7c8 073c 4624 15bc
00000330: 7796 e33b 9bf8 143d 955c 8a3c 9ff4 083b
00000340: 3912 213d 4ebd 89bd a054 a53c b492 193d
00000350: 8254 99bb 0f9b 093c ea1f 1d3d 1710 b03d
00000360: 4180 053d 11a7 1f3d b4d3 013d 0472 553c
00000370: a59b fa3c c281 a9bc 9159 2fbd 4dc7 5a3c
00000380: 628a 05bb 4074 703d f637 4bbc b19b 5abb
00000390: 7196 703c 4b9e 9dbd 786c a33c 670d 65bc
000003a0: 174e 92bc 19cc edb9 3fea 933c fafc 03bd
000003b0: dd96 c93d e6c3 81bc 25a0 7ebb 2c2f d6bc
000003c0: 355b 14bc cfe7 23bd b1ed a43c d72f 213d
000003d0: e20f 16bd 18bc 983d 6d3c 533c bbbc 2c3d
000003e0: 243d 103b 9f8e 7fbd 239a 203d d974 e6bc
000003f0: 77fa 23bc 22dc 533d 7d9b 9bbc 57dd dcbc
-0.023285005 -0.049247064 -0.010132316 0.043044414 -0.0028797146 -0.0033241306 -0.00014373526 -0.016733425
0.060894363 0.03373187 0.019085156 -0.03472837 0.031059546 0.02294502 -0.02157482 0.022643855
0.075901404 0.054054245 -0.029572494 -0.04674096 0.03538739 0.036156043 0.037886556 -0.012509703
0.026891483 -0.028308481 0.020643417 0.042440668 0.033543415 -0.05337323 -0.028840885 0.030039636
-0.042305287 -0.0231949 0.01931956 0.037853457 0.050385505 -0.068229355 -0.03968641 0.04622281
0.0014006026 -0.0032579855 -0.0057802545 -0.036595624 -0.019864235 -0.060810897 0.030289927 -0.017977636
0.040452912 -0.012368454 0.023827974 -0.054045897 0.008618279 -0.013746326 0.031099075 -0.0078295255
0.06050532 -0.012610299 -0.017334634 -0.051815357 -0.011086784 -0.055638827 0.03132424 -0.06554594
-0.022017019 -0.036888894 -0.004086084 0.027173985 0.006853862 -0.018613895 -0.04454905 -0.041034658
-0.0030745156 -0.023664646 0.05319772 -0.029456759 -0.0072493544 -0.021528581 0.022552878 -0.04838847
-0.036128517 -0.063726045 -0.009521025 -0.02114974 0.0130018685 0.0017030757 -0.01534324 -0.009649249
-0.017728796 -0.091830395 -0.031035513 0.019116374 -0.035613168 0.049614806 -0.018297385 0.01618849
0.07027132 -0.017135555 -0.0021964195 -0.035796657 0.070465185 -0.0058580404 -0.007367359 -0.00019382824
0.022372283 -0.06104665 -0.00029590217 -0.03698843 0.05450843 0.00334285 -0.0052106692 -0.0024413771
0.017361086 0.00044255605 0.027488362 -0.017742315 -0.02569798 0.019902913 -0.023684075 -0.0018477527
-0.022723265 -0.010518613 -0.009117452 0.059459813 -0.020503495 -0.0298043 -0.030361077 0.007989937
-0.017247342 -0.0001241974 0.013299217 -0.042493086 -0.039346464 -0.06993531 0.024774322 0.013225915
-0.0059912554 0.013736959 -0.006431291 0.06437266 -0.022874564 -0.034953445 -0.0008269846 -0.0019961465
-0.017354582 0.06333148 -0.030100202 -0.03493972 -0.050229397 -0.01733773 0.044953767 0.015043662
-0.021382757 0.010880318 -0.017994456 -0.005701485 -0.014960034 -0.048443653 0.00073883537 -0.0524664
0.059213907 0.0738182 -0.012555104 -0.056897942 0.0069525125 -0.034002643 0.009138729 -0.034140136
0.043513075 0.022829708 -0.01753929 -0.044816036 -0.008098328 0.0005092931 -0.029950855 0.024238259
-0.03425343 -0.05275051 -0.023251524 -0.065572396 -0.03912418 -0.019291807 -0.016674634 -0.0601636
-0.027583934 -0.018579336 -0.042285237 -0.024396438 -0.04737822 -0.0050324625 0.020403417 -0.045477346
0.023003092 -0.049685504 -0.010814259 -0.034469478 -0.007680447 0.024722822 -0.03649103 0.03545108
0.035032637 -0.020279987 0.0082876 -0.009102887 0.006945427 0.0363699 0.01688985 0.0020897759
0.03932402 -0.0672556 0.020181954 0.037493423 -0.0046792636 0.008398785 0.038360514 0.08596819
0.032593016 0.038977686 0.031696036 0.013027672 0.030591795 -0.020691756 -0.042810027 0.013353181
-0.0020376672 0.058704615 -0.012403479 -0.003335696 0.0146843055 -0.076962076 0.019949183 -0.013980246
-0.017859502 -0.00045356227 0.018056033 -0.03222368 0.09843228 -0.015840482 -0.0038852778 -0.02614554
-0.009054949 -0.04001599 0.020132871 0.039352264 -0.03663624 0.07457751 0.012892825 0.042172175
0.00220091 -0.062391873 0.039209496 -0.02813189 -0.010008446 0.051723607 -0.018995041 -0.026961012

fc1.bias f4 [512]
00000000: 8d65 103d 1995 f3bc dab3 05be b893 88bd
00000010: c965 863d 4f97 d03d fbe1 423d 7bf5 a9bd
00000020: 05c2 2bbe 01a8 9dbd c538 fd3d 0fe9 74be
00000030: ff1e f23b 3905 30be 93ee d9bd 0d1b 173e
00000040: d32f 2cbe 71ed eebd fcbf 25be 4ec2 8e3d
00000050: 6d9b eb3d 611d 73bd 67b6 b43d 7f0f 63be
00000060: d752 9ebd 9407 5cbe edb9 aebd b84e 31be
00000070: 0454 5fbd b831 c63d 587c d53d 4d21 24bd
00000080: 15d3 e33d e63c 5abe dfcc 683d 0ee0 a53d
00000090: 3517 433e 3669 03be dba2 603d 2b67 ea3d
000000a0: 68a5 4bbe e58e 403e 5450 07be af63 23be
000000b0: 6861 8bbe 47f0 1abe 9493 4abe 9da2 24be
000000c0: 81cb d6bd f62e 1a3e eca2 c2bc 0e68 35be
000000d0: d8fe 4ebe b320 dc3d 92fe f4bc 7437 32be
000000e0: 16fe cfbc 8c1e f8bc 4ac4 163e d4b6 5dbc
000000f0: cfbf 263b 3f56 bfbd cb77 2a3d 5e22 e6bd
00000100: c8fc fabc f45f 593d 7d16 ed3c eb2d ad3b
00000110: 9004 4cbe c5d9 00bd d1a6 b73d 2a8b e0bd
00000120: df66 2b3e f0ba 24bd fbcb df3d 30d1 f13d
00000130: 4a27 16be 4517 873e 3f51 3a3d 0bd3 14be
00000140: e3fd c1bd 876e cdbd 5068 943d d446 613b
00000150: f1e7 f7bd a5d3 9ebd e799 fe3d 5d27 1dbe
00000160: 2de5 a03d a45e bdbd baf4 cbbd 08b5 57be
00000170: dae6 bf3d 3291 5c3d f4dd 243c 0796 eb3d
00000180: c30c 70bd 109f 88be 23ed 0bbe 73df 033e
00000190: 2406 c9bc b0b2 69be cd39 073e 1ea1 b2bd
000001a0: 354c 0ebe 140f 8b3c 4ca4 dd3d 3176 eabd
000001b0: bb78 58be 2968 19be 410b d43d db2a a53d
000001c0: a99a ecbc dcb1 e73d 9894 67be 2236 013d
000001d0: 86be 93bd 0e4b 20be 9efd 26be b708 ddbd
000001e0: c9bc 013d 6866 41be a1ec 13be 5e35 80be
000001f0: 7a0d c9bd 2713 e3bb 4e7d fdbd c3b6 5fbe
00000200: 1cdd fcbc 4028 abbd 2136 553d dc23 1f3e
00000210: adad f63c a213 383e a780 0abe 4329 58bd
00000220: d79f 2dbe 0ded 063d 2c3e e23d 2173 ecbc
00000230: e64c fabd c73e da3d af14 2d3e 3044 273e
00000240: 2f09 a03d f8ca 0f3e aaba 8b3d 5e32 01be
00000250: 9074 bbbd 457b aabd 131a 0f3e 252c 823d
00000260: 5ece cb3d 8d04 9fbd b34c 53be e604 1ebe
00000270: cde0 1abe ad53 0cbe aec6 1e3e e931 b73d
00000280: 7fe8 2ebd 31f9 fabd 95aa d9bd 7d6d 1dbe
00000290: 0834 dc3d 7e34 163e 3a84 a63d 3409 bdbd
000002a0: 80e5 67be 358b d5bd dcb5 62be 6faf 4bbe
000002b0: fbde 62bd 394f 3d3d 21f8 58be 85cd cb3d
000002c0: 7349 933c d506 1fbe a95c 69be bf24 6abe
000002d0: d01b b2bd b2ff 73be fac7 1ebd 64fe 133e
000002e0: 5fbb c0bd b077 cebd 5faf 483d 2ef8 f1bd
000002f0: 0005 6cbe 563f e7bd db58 f5bc 90bf 11be
00000300: 928c 30bd 8dbc 5cbe 40f1 943d 7464 26be
00000310: 838a e1bc d574 cdbd 4555 293d 59bb 9c3c
00000320: 40e3 d7bc e9b5 07be 0dc1 77be 5a16 2fbd
00000330: 51df 55be d848 003e 4f85 0cbe a6da 813d
00000340: 8842 923c 1399 e23c 7161 dc3c 7bde a73d
00000350: 0477 3b3e d2e1 f73d 7d32 aa3c fb4e 173e
00000360: 60a8 ef3d 9192 90bd 6c8d d4bd 84e1 2b3e
00000370: 1ec6 06be 9310 8b3d b656 2d3d 0d1b 003e
00000380: ef65 e1bd 5cc7 223e 2af1 4dbe 3d8b 4abe
00000390: bd5f 2b3e d515 c33c 0621 25bd 6907 3e3d
000003a0: 0125 cdbd 6c41 d0bd da77 07be 7012 f6bd
000003b0: 56f0 213d 5214 333c 61c3 d7bd 4e8a cd3d
000003c0: b0e4 fbbb 4610 22be bed3 363e 7c2a ee3d
000003d0: 2a85 613d fd73 78bd 4d81 6fbe d308 d03d
000003e0: a219 353d af7a a3bd 9741 07be d647 ad3d
000003f0: 077a 44be ec8f ecbd 9eda 5cbe 7d1c 973d
0.035253096 -0.029734181 -0.13056889 -0.066688 0.06562383 0.1018511 0.047578793 -0.08298775
-0.16773231 -0.0769806 0.123643436 -0.2391703 0.007388949 -0.17189492 -0.106412075 0.14756413
-0.16815118 -0.11666382 -0.16186517 0.069706544 0.115042545 -0.05935419 0.08823853 -0.2217388
-0.07730644 -0.21487266 -0.08531556 -0.17315185 -0.054523483 0.09677452 0.10424107 -0.04007082
0.11124245 -0.21312293 0.056836005 0.08099376 0.19051822 -0.12833104 0.05484281 0.11445459
-0.19887316 0.1880451 -0.13214236 -0.15955995 -0.27222753 -0.15130721 -0.19782859 -0.16077657
-0.10488034 0.15056977 -0.023759328 -0.17715475 -0.20214403 0.107484244 -0.029906545 -0.17403966
-0.025389712 -0.030288003 0.14723316 -0.013532359 0.0025443917 -0.09342622 0.04161815 -0.11237024
-0.030638114 0.053070024 0.028941387 0.005285015 -0.19923615 -0.03145768 0.089673646 -0.109640434
0.16738461 -0.04021734 0.10927578 0.118074775 -0.14663425 0.2638494 0.04548764 -0.14533632
-0.09472253 -0.10030847 0.072464585 0.0034374492 -0.12104786 -0.07755212 0.12431698 -0.15347047
0.07856212 -0.09246567 -0.09958787 -0.21065152 0.09370203 0.053849407 0.010062683 0.11503225
-0.05860592 -0.26683855 -0.13664679 0.12878208 -0.02453906 -0.2282207 0.13205643 -0.08722137
-0.13896258 0.016974963 0.10822353 -0.114483245 -0.21139805 -0.1498114 0.10353709 0.08064815
-0.028882341 0.11313221 -0.22615278 0.031545766 -0.07214074 -0.15653631 -0.16307685 -0.10792678
0.03167418 -0.18886721 -0.14445736 -0.25040716 -0.098170236 -0.0069297734 -0.123774156 -0.21847062
-0.030867152 -0.083572865 0.052053574 0.15541023 0.030112112 0.1797624 -0.1352564 -0.052773725
-0.16955505 0.032940913 0.110470146 -0.028863491 -0.122216985 0.10656505 0.16902421 0.16334605
0.07814252 0.1404227 0.06822713 -0.1261687 -0.09153092 -0.08324293 0.1397479 0.06356076
0.09951471 -0.0776454 -0.20634727 -0.15431556 -0.15124817 -0.13703795 0.15505478 0.089450665
-0.042702194 -0.12254561 -0.10628239 -0.15373798 0.10752112 0.14668462 0.08130689 -0.09230271
-0.22646141 -0.10426942 -0.22139686 -0.19891141 -0.055388432 0.04621813 -0.21188404 0.09951309
0.01797936 -0.1552995 -0.22789253 -0.2286558 -0.08696711 -0.23828009 -0.03876493 0.14452511
-0.09410738 -0.10081422 0.048995372 -0.11814915 -0.23048782 -0.11291377 -0.029949596 -0.14233232
-0.04310281 -0.21556301 0.07272577 -0.16249257 -0.027531868 -0.100320496 0.041341085 0.019132303
-0.026353478 -0.13252987 -0.24194737 -0.042745925 -0.2088597 0.12527788 -0.13722728 0.06340532
0.01785399 0.027660882 0.026901932 0.08196732 0.1830712 0.12103619 0.020776028 0.14776222
0.11702037 -0.07059205 -0.103785366 0.16785246 -0.13161513 0.06790271 0.042319022 0.12510319
-0.110057704 0.15896362 -0.20111528 -0.19779678 0.1673574 0.023814121 -0.040314697 0.046393786
-0.100168236 -0.10168728 -0.13229313 -0.120152354 0.039535843 0.010930138 -0.105353124 0.10036145
-0.007687174 -0.1582652 0.1785421 0.11629197 0.055058636 -0.06065749 -0.23389168 0.10157933
0.0442139 -0.079823844 -0.13208614 0.08460967 -0.19187175 -0.115508884 -0.21567771 0.073784806

fc2.weight f4 [256, 512]
00000000: cd3e 80bd 3791 f9bc f410 51bd 5d92 dabb
00000010: e902 6c3d 1104 983c a958 6c3d d262 d73b
00000020: e703 1bbd c31e adbd ae17 9e3d 1d88 893c
00000030: 2498 abbd 9df2 01bd 25d6 883d a135 06be
00000040: 5237 92bd f3cb 46bd b0a9 8dbc bdc5 84bd
00000050: 15ee 463c dec1 7d3d 622a e8bc 799c 9f3d
00000060: 21bc 343d d4e7 4dbd dce2 55bc eeb7 07bd
00000070: 62b6 ff3c e703 5d3d 9e0a 303c a965 81bd
00000080: e3b4 083d 0e8c d63d b56b 9b3d 7b95 72bd
00000090: 0a8e b73d 3da0 54bc e6b8 573d 1d8c 893c
000000a0: d03f 97bd 9b4f 923d 4612 34bc a027 223c
000000b0: be4a d23c 9c73 fbbc a4c1 ac3c 7568 053b
000000c0: d2bd c93c 11f1 31bd 755d b8bc 16ca 12bd
000000d0: f828 d43a d74c 03b9 f6d1 123c 5e81 473d
000000e0: 2762 1e3e d65d bebd 9d3b 193d 3bcf 19bd
000000f0: a5ed db3d f12f 71bd f3d6 5dbd d96e 4c3d
00000100: bada 99bd 8883 3f3d bbc4 db3d 7f0e 653c
00000110: 5ed3 3bbd 29f5 06bd c770 c6bc c7d7 0abc
00000120: 91d7 25be 5f02 4e3c 2b15 69bc 190f 523d
00000130: 741e 1c3d 4ccc 803d a950 17bc e61d 383c
00000140: 76ab 3ebb 9c7f 9ebc 2163 b23d c641 9d3d
00000150: d6cf 7cbc 6dd4 dfbd 7526 ad3c c997 7ebd
00000160: a456 11bd def4 cbbc 3509 eabd c677 1f3c
00000170: 2a5b 0b3d e7c5 34bd 6cc1 933c 47ef 8abd
00000180: 0a34 803d 54a7 cabd 73b1 0fbd a091 433d
00000190: 0ded 3ebd 1d61 9bbd 91bb df3c ddae 8e3d
000001a0: a1d2 3f3b 201d d83c 179f c33d 3c8a 583d
000001b0: 1260 463d 650b bf3c 5764 87bd b15b 99bc
000001c0: a91f 0cbd 0926 a83d 031f 763d 503c 86bc
000001d0: 4a25 9e3d a420 aebc 4faa 45bd 267b 55bd
000001e0: 6b99 243d b3a0 623d 8943 01bc bdcc cbbc
000001f0: f09f 40be 2a7f 53bd fcc7 55bd c09c d4bd
00000200: 9919 d13c 2c8c b73d adb5 94bc 2d2c 1abd
00000210: 4f04 753a 8be7 96bc c071 9dbd 8dc6 82bc
00000220: e9e6 12be f2c9 243d 1120 2f3e 73b2 94bd
00000230: edc9 343d 46ce ccbd 55cb 14bd 3fc8 393d
00000240: 2d8b acbd bc5f 31bd 1cdb db3b b83b bfbc
00000250: 45cf d73c 529d dd3d 99dc 003c ea1f 5f3d
00000260: ac2e 20bd b470 84bd a6dd 39bd 0176 40bd
00000270: 3d13 25bd 29b7 3c3b 2baa b7bc 74f4 42bd
00000280: b880 e63c 2d59 073d 8bf2 953c 7e16 4d3b
00000290: 9878 913b ef15 4e3d 7ad9 c23d 1e56 ce3d
000002a0: cca7 35bd 5cb3 96bc 165a 293c 9e94 02be
000002b0: e1ec fc3c 073b c33c 2df7 c03c 35fa 543d
000002c0: 92fd 8fbd 9789 b23c 7af9 a7bc e678 bcbd
000002d0: 3065 d83d 435b 97bd af34 48bd 6c7a 963d
000002e0: 1641 57bd e76c fc3c 8470 16be 7bfa 2a3c
000002f0: d797 5f3d eb4d 733d 2d5d 12bd e678 9c3d
00000300: 47be 54bb 7fb5 4abd d3ed 6dbd a44c eb3c
00000310: 6db5 af3c 6cbf 9abb d509 963c c1c5 86bc
00000320: 2088 d5bd 7a9d 8ebc 8e4f 643d 1927 a13d
00000330: b2c3 0dbc d8c8 5ebd 1c70 1bbc 0bcb 2bbd
00000340: 1db2 4ebd 3c3e 0d3d c758 88bd 904a debb
00000350: a0be a5bc 838a 1c3c 9dda 8d3d e084 ed3c
00000360: 8c98 bfbb 5751 13bd e281 9dbd cc7a a83d
00000370: cf00 c63c 9b90 d93c 85a6 ed3c 1189 4a3d
00000380: acd3 b6bd 190c a13d 4c99 11bd b1d8 c5bd
00000390: 6795 e4bc 266f 3a3d 20c0 e4bc 362b 1abe
000003a0: d249 17be 1a99 ca3c cf66 923b ba58 5ebd
000003b0: e946 853c d6ca bb3d 9f80 2c3d c11f 5d3d
000003c0: ec30 913d 09e6 983d 874c e13b a41f 69bc
000003d0: 35d7 d6bd 0c69 84bc ed84 b63b 9eea 7f3d
000003e0: a061 e4bc d82b fcbb 3287 c13d 18b8 bfbc
000003f0: a271 da3d 6155 05be ec79 de3d dd6b 033d
-0.06261978 -0.030464752 -0.05104156 -0.00667028 0.057619963 0.018556627 0.05770174 0.0065730596
-0.03784552 -0.08453133 0.0771936 0.016788537 -0.08378628 -0.031725515 0.0668147 -0.13106395
-0.07139458 -0.048534345 -0.017292827 -0.06483028 0.012141724 0.061952464 -0.028340522 0.07793517
0.044124726 -0.050269917 -0.013054576 -0.033134393 0.031214897 0.0539588 0.010744719 -0.06318218
0.033375632 0.10475932 0.07588903 -0.059224587 0.08962639 -0.012977657 0.052666567 0.016790444
-0.07385218 0.0714409 -0.010990685 0.009897143 0.025670405 -0.030694775 0.021088429 0.002035645
0.024626646 -0.04344279 -0.022505501 -0.035837255 0.0016186526 -0.00012521759 0.008961191 0.04870736
0.1546713 -0.092952415 0.037410367 -0.037551146 0.107386865 -0.05888361 -0.05416007 0.0499104
-0.07512422 0.046756297 0.10730883 0.013980507 -0.045855872 -0.032948647 -0.024223698 -0.008474297
-0.16195513 0.0125738075 -0.014226238 0.05128393 0.03811498 0.062889665 -0.0092355395 0.011237597
-0.0029093898 -0.019347958 0.087103136 0.07678561 -0.015430411 -0.10929189 0.021136502 -0.062156472
-0.035483018 -0.024897035 -0.11427537 0.009733146 0.034022488 -0.044134047 0.018036567 -0.0678392
0.06259926 -0.098951966 -0.03508134 0.0477463 -0.046612788 -0.07586882 0.027311118 0.06966946
0.0029269832 0.026381075 0.09551828 0.052866206 0.048431464 0.023320863 -0.06610935 -0.01872048
-0.03420988 0.0821038 0.06008817 -0.016386181 0.07721956 -0.021255799 -0.048258122 -0.052119397
0.040185373 0.055329036 -0.007889637 -0.0248779 -0.18811011 -0.051634945 -0.052192673 -0.1038146
0.025524901 0.089622825 -0.018153036 -0.037639786 0.00093466503 -0.018420955 -0.07687712 -0.015963817
-0.14345898 0.040231653 0.17102076 -0.07260599 0.044137884 -0.10000281 -0.036326725 0.045356985
-0.08424983 -0.04330419 0.0067094695 -0.023343906 0.026343951 0.10821022 0.007865095 0.054473795
-0.03910701 -0.06466809 -0.045377396 -0.046987537 -0.04030155 0.0028795695 -0.02242001 -0.04759641
0.02813755 0.03304403 0.01830413 0.0031293924 0.0044394247 0.050313886 0.095141366 0.10075019
-0.044349477 -0.018396072 0.01033642 -0.12752005 0.030874671 0.023831857 0.023555363 0.05199643
-0.070307866 0.021794124 -0.020504702 -0.09202747 0.10566175 -0.07390454 -0.048878368 0.07347569
-0.052552305 0.030813647 -0.14691359 0.010435696 0.054588165 0.05940048 -0.03573339 0.07640247
-0.0032462047 -0.049489494 -0.058088135 0.028723069 0.021448815 -0.0047225263 0.018315235 -0.016451718
-0.104263544 -0.017409075 0.05573993 0.078687854 -0.008652614 -0.05439076 -0.009487178 -0.041941684
-0.05046283 0.03448318 -0.06657558 -0.006783791 -0.020232499 0.009554508 0.06926463 0.028994024
-0.0058470424 -0.035966244 -0.07690789 0.08226547 0.024170307 0.026558211 0.029010067 0.049447123
-0.08927092 0.078636356 -0.035546586 -0.09660471 -0.027903272 0.045516156 -0.027923644 -0.15055546
-0.14774254 0.024731208 0.004467822 -0.054283835 0.016269164 0.09169547 0.04211485 0.05398536
0.07089409 0.07465751 0.006875578 -0.014228735 -0.10490266 -0.016163372 0.005570045 0.062479608
-0.027878582 -0.0076956563 0.094496146 -0.023403212 0.10666205 -0.1302085 0.108630985 0.03208529

fc2.bias f4 [256]
00000000: 32cc 713d b371 913d d43b 333d 05c7 8b3d
00000010: bfc5 c93d d765 c53c 92d4 c23d 8d28 53bc
00000020: 9a2a 053e 1cc8 403d c625 9c3d a206 ac3d
00000030: 3b01 413d acb5 803d a40c 9d3b 56ae bd3d
00000040: b190 6b3d 821d f33d 3da9 ae3d af75 4f3d
00000050: d49a cb3d 41c4 a63d 9654 803d 803d a93d
00000060: b2d1 ad3d adff 313d fd37 b33d 0e70 053d
00000070: 453d a43d 6da3 2b3d 4c11 e73c 3216 863d
00000080: 7b41 7d3d d315 453c c89f 963d 3fae 903d
00000090: 7638 353d e524 8c3c f819 b13c 635e 913d
000000a0: c05f 6b3d 389e a93d c75f a03d 6b97 f43c
000000b0: d4d7 903d 8e9d ca3d 9e8a 743d 7fd4 503d
000000c0: e89b c33d 7af9 2a3d 4a9a 623d 1117 5c3d
000000d0: 63a3 fd3d 8c22 c7ba 1250 053d 8a10 433d
000000e0: e435 483d aabb 913d cc26 043d eadc 123d
000000f0: f7cc cb3c a8ab 1d3d 854a 763d 9dd1 093d
00000100: 5147 903d 6130 cf3c 0a6d 873d 37a3 953d
00000110: 8c13 533d c195 a83d 2303 333d 2cab 333d
00000120: 4966 2a3d 9f6d c13d 95b4 703b 4c30 c63d
00000130: cc0d 5a3d f9a3 cd3d aa53 773d f24f 433d
00000140: 5eb4 8f3d 7a43 9d3c c57a c23d f79d 893d
00000150: 8673 ce3d 4313 273d bb9d 9d3c 2efa e33c
00000160: 5225 3f3d 2d1c 893d 75ef 333d 383b b23c
00000170: c3ed 9f3a 4c1f e93d e1ec 983d ff6c 393d
00000180: 2700 5c3d 9017 ce3d ac9e 0c3d 5f34 8a3d
00000190: cf21 a63d 106c b33d ca5c 803d a7d2 573d
000001a0: e819 a73d 9223 ab3d 059b 583d cb4b b23d
000001b0: d14f a63d f842 bb3d e38c 4f3d d8be 713d
000001c0: c690 d43d 8aca 243d dc6f d63d f4ac 913d
000001d0: 865c 753d 8878 8e3d 5bd9 c83d db35 213d
000001e0: 09d7 753d 6f84 b63d c1c0 5f3c 96e3 5c3c
000001f0: 3357 a03d 4784 e23c a898 8b3d 2c7d cf3d
00000200: 111c 153d 2817 523d 0cc8 453d b2e7 083d
00000210: 27ea 763d a87f 833d 1b29 233d 6191 cb3d
00000220: 74b0 413d bb25 4b3d 937c cb3d da88 223d
00000230: 9768 453c 478c cf3c a67c 733d 80a5 a93d
00000240: 25f0 f13d 3f35 163d 1f41 733d dc0f ad3d
00000250: f67e bf3d c8c9 7bbb 9d8c 983d f55c c83c
00000260: b970 853d a54f af3d f616 c63c 3656 bc3c
00000270: b073 e63c a55b da3d 4b8a 113d cec1 043d
00000280: de44 aa3d c607 243d eb78 113d b253 543d
00000290: 6fe3 ab3d a951 bf3d affd aa3d 2cb3 833b
000002a0: baab 3a3d 7c3f a23d 70a8 713d 7e9b 3e3d
000002b0: 1511 403d d9c5 ac3d f102 a93d 72da a43d
000002c0: 403f b53d 85a6 c63c 2397 9f3d b633 d83c
000002d0: cdf0 483d aa28 923d 72e5 b63c ed11 e23d
000002e0: 690a 123c a2bd b63c 1e59 5c3d 12f1 843c
000002f0: 7e06 e13d b528 9b3d 24d5 a83d 5528 ca3d
00000300: b4ac c23d c406 cf3c ae77 ae3d 5c1e ee3d
00000310: ae2c 603d 8ea1 c43d 04cb e23c bf3b bb3d
00000320: c5ca 903d 9b11 a13d 7b05 b23d 24b3 423d
00000330: 1ef3 363d c5a1 0a3d 9832 9f3d 0a81 d63d
00000340: e22b 533d 5719 dc3d b542 8a3d a0d6 ed3c
00000350: f8ff 5b3d b6f6 0b3d adc0 163d 4cb8 d23d
00000360: 3edf 983d 6f3c af3d f841 693d 3ea8 9a3d
00000370: 4085 3c3d 78b3 803d a22a 9a3d c886 1d3d
00000380: 9a8d 843d 4bfb c43d 23df 453d 59b5 053d
00000390: 42bd 4a3d ad89 4a3d facd 053d 50b0 643d
000003a0: e2e0 ed3d 1355 ed3d c6b9 1e3d 4ad6 fd3d
000003b0: 426b 093d 6eff 063d 2083 4c3d ba1c 843c
000003c0: 9cf2 d33d 1054 153d aee2 033d 71da 1a3c
000003d0: e29f 193d 97ba 723d d6c2 4b3d 6f7b 833c
000003e0: b51d bf3d 79b6 f03d 9e3f 983d 3e66 263d
000003f0: 4f52 9c3d 2ac0 7c3d 06c3 833d c0d5 c03d
0.059032626 0.071017645 0.04375823 0.06825069 0.0985217 0.024096413 0.09513201 -0.012888086
0.13004532 0.04706584 0.07624392 0.083997026 0.047120314 0.06284651 0.0047927666 0.092617676
0.057511035 0.118708625 0.085283734 0.05064934 0.099416405 0.08142901 0.062661335 0.08263683
0.08487262 0.043456722 0.08750913 0.032577567 0.08019499 0.0419039 0.02820649 0.06547202
0.061830025 0.012029129 0.073546946 0.07064485 0.0442433 0.017107436 0.021618828 0.07098081
0.05746436 0.08282131 0.07830768 0.029857358 0.07072416 0.098933324 0.05970251 0.050983902
0.09551221 0.041741826 0.055322923 0.053732935 0.12384679 -0.0015192791 0.032547064 0.047623195
0.04887952 0.07115872 0.032263562 0.03585521 0.024878008 0.038493782 0.06012966 0.03364717
0.070448525 0.025291624 0.066125944 0.073065214 0.051532313 0.08231688 0.043704163 0.043864414
0.041601453 0.09444737 0.003672873 0.09677181 0.053235814 0.10041041 0.060382523 0.047683664
0.07016824 0.019197214 0.09496073 0.067195825 0.10080628 0.040789854 0.01924025 0.027829256
0.04666645 0.06694827 0.043929536 0.021756753 0.0012201596 0.113829225 0.07467056 0.045269962
0.053711083 0.10063088 0.03433101 0.0674827 0.08111917 0.08760846 0.06267698 0.052691128
0.08159238 0.08356394 0.052882213 0.087058626 0.081206925 0.09143633 0.05067147 0.059019893
0.10379176 0.04023222 0.10470554 0.07113066 0.05990269 0.06956583 0.09807082 0.039358
0.060019527 0.089119785 0.013656796 0.013481995 0.07829132 0.027650965 0.06816226 0.101312965
0.03640372 0.051291615 0.048286483 0.033424087 0.0602819 0.06420833 0.039834123 0.09939838
0.04728742 0.04959653 0.0993587 0.039681293 0.012048862 0.025335444 0.059445046 0.0828352
0.11813382 0.036671873 0.059388276 0.084502906 0.09350388 -0.0038419832 0.07448695 0.024458388
0.06515641 0.08560113 0.02418087 0.022990327 0.028131336 0.10662011 0.035532277 0.03241139
0.083139166 0.040046476 0.035515707 0.05183763 0.08392989 0.09341747 0.083491676 0.0040191617
0.045573927 0.07922265 0.058998525 0.046535008 0.04689129 0.08436174 0.08252514 0.08049478
0.088499546 0.024249325 0.07792499 0.026391845 0.04905777 0.07136662 0.022326205 0.11038575
0.008913615 0.02230722 0.053795926 0.016228233 0.109875664 0.075761236 0.08243778 0.09870974
0.09505597 0.02527178 0.08518921 0.11626884 0.05473011 0.096011266 0.027684696 0.09142255
0.07069925 0.07864686 0.086924516 0.047534123 0.04466545 0.03384568 0.07773322 0.10473831
0.05155552 0.10747021 0.067510046 0.029033005 0.053710908 0.03417083 0.036804844 0.10289058
0.07464455 0.08556449 0.05694768 0.07551621 0.046025515 0.06284231 0.07527663 0.038458616
0.06472321 0.09618243 0.048308503 0.03264365 0.049496897 0.049447704 0.032667138 0.055832207
0.116151586 0.11588492 0.038751386 0.12394388 0.033549555 0.03295844 0.049929738 0.01612698
0.103490084 0.03645712 0.0321986 0.009451495 0.03750599 0.059259977 0.049746357 0.016050069
0.09331838 0.11753554 0.07434009 0.04062485 0.076328866 0.0617067 0.06433682 0.094157696

fc3.weight f4 [2, 256]
00000000: 72b9 ffbc bd31 cbbd a129 fbbd 0921 db3d
00000010: 0aee babd b5ab 26bd d6ba febd e148 27be
00000020: 4e70 093e 924e c13d 2c14 083e 4fef a43d
00000030: 7efa c73d 6f97 0c3e 6a6a 68be aaa0 e1bd
00000040: a372 41bd 8361 14bd af5c 2cbd 1f6c 31bd
00000050: 20c3 043e 28af 583d 35f1 e0bd aed0 ddbd
00000060: ff8c 8ebd 4568 0d3e 0830 0f3e 4118 073e
00000070: c221 55bd 9e65 dd3d ac06 6ebe 48a2 70bd
00000080: 6764 063e 107e a3bd dc4c efbd d536 bf3d
00000090: 012c 90bd 3818 09be 5bb0 a73d e334 933d
000000a0: 37a3 623e 1fa2 d4bd 471d a33d c070 f0bd
000000b0: d129 1a3e 01a5 0dbe acab babd 370d 93bd
000000c0: 20fc bf3d 5140 16be 0d1c dfbd a09b 45bd
000000d0: 9ec0 f83d b5eb 0ebe 1e41 e7bd 01f9 c23d
000000e0: f1c9 7ebd dade a3bd 682d de3d a650 e83d
000000f0: b6b0 1bbe 4973 b63d 3998 923d cc5e 04be
00000100: d194 cb3d f028 b4bd 634c 6e3d d021 f3bd
00000110: 93f6 e5bd bf2c 743d 029f dfbd 0fc0 c63d
00000120: b5a3 1fbe 34d4 fc3d 4262 a0bd f197 dd3d
00000130: 776c efbd 6457 f53d 3964 a03d 5fd5 28bd
00000140: 3c61 083d 32a6 23be fc91 59bd 0ae8 a0bd
00000150: 449e 2b3e 93f1 2dbd 1d11 f4bd 5ece 0ebe
00000160: 5eaa 0f3d c9e0 78be ba2a c5bb 0869 1fbe
00000170: b3a1 18bd 7533 113e 27cd dfbd d820 e8bd
00000180: 21be 12bd 8d53 5fbd 089f c43d dbd4 c8bd
00000190: 4bfc 023e d7eb 983d a7fa a0bd 575b 26be
000001a0: b751 f13d 8c4c c3bd c894 af3d 946d 283e
000001b0: b151 d4bc f804 b83d ee5b fabd 4c5a 13be
000001c0: bfed 80bb f1e2 19bd a471 0a3e cb56 21bd
000001d0: e840 1ebd ae13 adbd 2612 143e 553e 38bd
000001e0: c7f6 21be 3967 ca3d 8b33 69be 860d 52be
000001f0: 3f20 cdbd 3395 94bd e877 abbd f535 05be
00000200: 01f9 93bd 2944 793d d54b b13d ddf0 d2bd
00000210: 9e54 073e c66c 2b3e d3c5 b9bc 0737 89bd
00000220: 91e2 58bd 6ab1 10be 2db4 5d3e f3c0 963d
00000230: 53e6 dfbd b7af 11bb 7f11 d73d 26d3 4c3d
00000240: e82e c73d 52f3 b6bd 598f 3fbe 5303 ad3d
00000250: 6b11 bfbd d9d5 b6bd 53f6 e93d 8c99 c7bd
00000260: 782d be3d 1d69 dfbc ede3 f6bc ec0c be3d
00000270: d9a4 d6bd 90ce fb3d 6999 22bd 3e6d 9b3d
00000280: f06e 013e c7db 15be 9979 903d cd80 bfbd
00000290: 23d5 d83d 054e 9fbd 0ab6 eb3d 8b40 a9bd
000002a0: 6df7 a93d 6505 7b3d cafe 73bd 7c8c 44bd
000002b0: dd8b 853d fc40 87bd 3e25 3bbe 5923 d63d
000002c0: 0032 62bd 202e 003e 8b77 d43d 4e08 ce3d
000002d0: ac1e 72bd ebd6 0dbd 0641 b0bd 04fe 283e
000002e0: 8af2 f6bc f1e9 22bd 1dd8 92bc 4dc0 073e
000002f0: a4ad cd3d 759d 983d 5e5a d9bd 1d4c fb3d
00000300: c351 adbd 7dbc 1bbe f4f5 873d ebbc 69bd
00000310: e414 fa3d 7588 cbbc 0db0 43bd 55d5 e5bd
00000320: f5f3 f33d 89d9 42bd 5a1c 5a3d 45a6 f0bd
00000330: b534 c93d 5692 23be 7cda ecbd 5b7f de3d
00000340: 468b b7bd 6ff9 64bd c14d fa3d 7b52 ad3c
00000350: 3d18 da3d f944 b9bd 8c00 b53d 3828 d6bd
00000360: 99c5 bd3d 2d5d e13d cefb 9d3b 59f5 8bbd
00000370: 1024 a83d 25d6 d33d 16ec fdbd 7dd7 063e
00000380: e15f 24bc 040c c6bd 1340 b0bd 2cc0 fabd
00000390: 1466 12be dbf1 cbbd ed26 bfbd 661c c83d
000003a0: 7ecb 313e 91ed 6bbc cbfe 4a3e 418b cc3d
000003b0: c7c9 01be 7f69 bb3d a1c9 9abd daf2 e2bd
000003c0: 6c25 943d 2e7a f6bc 648b a3bd 8190 3cbd
000003d0: 7fad afbd 3c34 b4bd b0be c23d 2090 0cbe
000003e0: 635e 69bc 4392 c43d 19cc ca3d de11 d8bd
000003f0: a338 fe3d a1d4 1e3d 88ca de3d 8770 c5bd
-0.031216357 -0.09921596 -0.122637995 0.1069966 -0.091274336 -0.040691096 -0.1243798 -0.16336395
0.13421747 0.09438814 0.13288945 0.08053457 0.097645745 0.13729642 -0.22696844 -0.11016972
-0.047228467 -0.036225807 -0.042080577 -0.043316003 0.1296506 0.052901417 -0.109835066 -0.10830818
-0.069604866 0.13809307 0.13983166 0.13192846 -0.052034147 0.108103976 -0.23244733 -0.058748513
0.13124238 -0.07983029 -0.11684582 0.0933663 -0.07039643 -0.13388145 0.08187934 0.07187822
0.22132574 -0.10382485 0.079645686 -0.11740255 0.15055014 -0.13832475 -0.09114775 -0.07180255
0.09374261 -0.14672972 -0.10894022 -0.04824412 0.12146114 -0.13957103 -0.11291717 0.0952015
-0.062204305 -0.0800149 0.10848504 0.113435075 -0.15204129 0.08908708 0.071579404 -0.12926787
0.09940494 -0.08796871 0.058178317 -0.118716836 -0.11228671 0.059612986 -0.10919 0.09704601
-0.15589793 0.12345162 -0.07831241 0.10819996 -0.1169061 0.11979559 0.07831616 -0.04121911
0.033295855 -0.15981367 -0.053117737 -0.07856758 0.16759592 -0.04246671 -0.119173266 -0.1394591
0.035074584 -0.24304499 -0.0060170563 -0.1556741 -0.037263583 0.14179786 -0.109278016 -0.113343894
-0.035825852 -0.05452304 0.09600645 -0.09806224 0.12791555 0.07466858 -0.07860308 -0.16245781
0.11783164 -0.095360845 0.085733 0.1644805 -0.02591786 0.08985323 -0.122245654 -0.14389914
-0.0039345915 -0.037569944 0.13519913 -0.039389413 -0.03863612 -0.08451019 0.14460048 -0.04498132
-0.15816794 0.098829694 -0.22773568 -0.20512971 -0.10015916 -0.0725502 -0.0837248 -0.13008864
-0.07225228 0.06085602 0.08657042 -0.10299847 0.13215873 0.16740713 -0.022677338 -0.06699949
-0.052950446 -0.14130178 0.21650763 0.07361021 -0.10932603 -0.0022229978 0.10501384 0.050006054
0.097257435 -0.089331284 -0.18707027 0.084479 -0.09329494 -0.08927507 0.11423936 -0.097460836
0.09286016 -0.027271802 -0.03013798 0.092798084 -0.10480661 0.12295258 -0.039697085 0.07589196
0.12639976 -0.1463462 0.07054443 -0.09350739 0.105875276 -0.07778553 0.115093306 -0.08264264
0.08299146 0.06128444 -0.059569158 -0.04798554 0.065208174 -0.06604192 -0.18275926 0.10455961
-0.055223465 0.12517595 0.103743635 0.10060178 -0.059111282 -0.03462879 -0.08606152 0.1650315
-0.030144949 -0.039773885 -0.017925316 0.1325695 0.10042885 0.074519075 -0.10612939 0.12270377
-0.084628604 -0.15208621 0.06638709 -0.05706493 0.12211016 -0.024845341 -0.047775317 -0.112223305
0.119117655 -0.04757074 0.053249694 -0.117504634 0.09824506 -0.15973791 -0.1156511 0.10864135
-0.08962111 -0.05590194 0.12221862 0.021157494 0.10649154 -0.090463586 0.08837995 -0.1045689
0.092662044 0.110041 0.004821277 -0.06833906 0.082100034 0.10343579 -0.123985454 0.1316814
-0.010032625 -0.096702605 -0.08605971 -0.12243685 -0.14296752 -0.0995824 -0.093335964 0.097710416
0.17362782 -0.014399902 0.19823758 0.09987498 -0.12674628 0.09150981 -0.07557989 -0.110814765
0.072337 -0.030087557 -0.07985571 -0.046036247 -0.08578014 -0.087990254 0.09509027 -0.13726854
-0.014243695 0.0959821 0.0990221 -0.10550283 0.12413146 0.038776997 0.108784735 -0.096406035

fc3.bias f4 [2]
00000000: 868c 37bd 5041 22bc
-0.044811748 -0.009903267

bn1.weight f4 [512]
00000000: 8b01 5b3f 562d 003f 27ab 573f c625 6a3e
00000010: 4c04 6e3f 109d 563f 5502 ee3e 0eaa 853f
00000020: 22fc dc3e 46aa 433e a690 753f 7124 023f
00000030: 2fd2 233f 8ecb 213f a1fd a03e 02a6 c83e
00000040: 2570 5a3e 4370 193f c5bd cc3e 02fa 663f
00000050: 7d90 813f 95a1 6a3f 7276 483f c803 363f
00000060: ab48 e03e 60f9 233f 708b 723e 4b65 993e
00000070: ba0e df3e 7b1b 553f 131a 973e d134 023f
00000080: 28d4 5e3f 8b0d 523f 758b 973e fe6b c83e
00000090: ac99 6c3e 09d0 213f 6300 043f 9c82 813f
000000a0: 8863 a53e bf43 083f d0e9 d43e 06ea 833f
000000b0: 4bcc 493f f4b8 d13e 72c0 723e c27e 483e
000000c0: 3d24 513f 5999 643e 8f5f bf3e a7bf 703e
000000d0: 6bf2 7f3f 6657 fd3d 4cd4 0e3f 1c0f 653f
000000e0: 78c6 903f 8c92 c93e 67f1 eb3e e2fa 813f
000000f0: c544 a03e 52a4 223e e7e0 7e3f 4f98 683f
00000100: 052e 783f ac9c 6c3f 1f8d 403f 5cdf b43e
00000110: 8c9e f13e 4c9d b83e fd11 873f d6d9 5c3e
00000120: a6f9 393f 906e 083f 4802 383f a53b 5d3f
00000130: 2f0e 813f 4bbf e83e 8e79 b43e a971 6e3f
00000140: 4085 6b3f 5c11 8a3f d4ed 7f3f 6f07 283f
00000150: 2bf3 253f f825 033f 4b58 1c3f 828d 033e
00000160: 7074 7a3e c8bc 543f 6a91 2e3f 1e49 813f
00000170: cc00 493f 3ba5 773e 7798 693f d887 1d3f
00000180: b4cc e63e 501b 723f 1c7b 4d3f 6a45 6c3f
00000190: 7ed0 003f be8e 273f b376 753f 2ab0 bf3e
000001a0: 7570 063f 7e2c 833f aa63 373f 6cf1 193f
000001b0: f384 7f3f 9d08 4b3f 870c fd3e ec8e f33e
000001c0: 3647 633f c3ff bf3e ff55 3b3f ddb4 7c3e
000001d0: 730d 883f 0c58 3b3f 1264 613f a99c 7d3f
000001e0: 6f63 3b3e 5e36 2d3f 4839 573f 7efe 7a3f
000001f0: a0e4 cc3e 14b7 f93e 1e90 463f 4656 4c3f
00000200: d90d d73e 7238 ae3e 60aa e83e 41b2 c33e
00000210: 3c64 733f 47b1 3d3f 6347 743f e2a4 a33e
00000220: dabb e13e 73fb 4b3e aca8 b13e bb17 ce3e
00000230: 3724 b03e 7158 f23e 3f3d 683f bb8c 143f
00000240: e5ec 4b3f cfc2 263f 6b15 5f3e 1cf8 693f
00000250: 31d1 4b3f 6b35 ab3e 3388 9a3e 4ac4 363f
00000260: 617e 413f 0cc5 073f f5b5 463f 94fc ac3e
00000270: 35e9 6f3e b641 133f 0787 dd3e 192b 5b3f
00000280: 9a23 4e3e 6e11 773f f695 123f 07f2 5c3f
00000290: 237a 663e 3dcc 233f a230 723f 4a3a 743f
000002a0: 90cb 6d3f a781 a83e a82b 7b3e a686 923e
000002b0: 8615 833f 4561 223f a3b8 153f 27e0 b63e
000002c0: 8265 d83e 7457 503f c5af 0d3d c093 703e
000002d0: 2733 2d3f 3bfc fe3e eb6a 7e3f 1334 7c3f
000002e0: eb97 803e 7246 253f b040 ea3e 418e 7d3f
000002f0: 6408 8a3e 836d 573f 66fa 9f3e 0fe7 683f
00000300: 9bd9 123e 72d1 7d3f 873e 693f b05c 223f
00000310: 5333 9f3e bd01 bf3e c3ae 7e3f e643 dd3e
00000320: 37a1 b53e 9f6f cb3e 4032 233f 93eb d23e
00000330: bd84 4a3e aa1c 273f 7fdc 673f b94c 473e
00000340: a3f0 c13d 244c 393f 1b37 913e edae 0e3f
00000350: f9f8 3d3e cc40 313f c160 833f 1a09 633d
00000360: 953c 433f 1b31 e03e 0c6a 6b3f 1bb9 9e3e
00000370: 4115 063f 1269 2a3f 4ce1 b33e 053c a23e
00000380: 87c5 d53e 53e2 ec3e fb2f 933e 7519 553f
00000390: 8120 a43e de77 033e afa1 873f 47b2 013f
000003a0: 49b7 003f daa0 ea3e 9f83 863e 7864 823f
000003b0: 1eed ba3e 69e8 b73e a205 8a3f 672e 153f
000003c0: 704d 0d3f 87fa 443f 4ed1 343f 1af3 aa3e
000003d0: 91cd e03e 860d 6b3f 0b43 113e 0a46 713f
000003e0: ad5b 653f a200 1a3f 2e48 713e 67cf 653f
000003f0: dd19 5c3f 50de 863e 0d5a a53e 03cd 573f
0.8554923 0.5006918 0.8424553 0.22865972 0.92975307 0.8383341 0.46486154 1.0442522
0.43161112 0.19107923 0.9592384 0.50836855 0.6399259 0.63201225 0.31443503 0.39189154
0.21331842 0.5993692 0.39988533 0.9022523 1.0122219 0.91652805 0.78305733 0.7109952
0.4380544 0.6405239 0.23686004 0.29960093 0.43565923 0.83245057 0.2951208 0.5086184
0.87042475 0.82051915 0.29598585 0.39144892 0.23105496 0.6320806 0.5156309 1.0117984
0.323025 0.5322837 0.41584635 1.0305793 0.7882735 0.4096142 0.23706225 0.19579604
0.8169592 0.22324122 0.37377593 0.2351061 0.99979275 0.123701856 0.5579269 0.8947618
1.1310568 0.3936962 0.46082613 1.0154688 0.31302467 0.15882996 0.99561924 0.90857404
0.9694522 0.9242656 0.75215334 0.3532666 0.47191274 0.36057508 1.0552365 0.21567473
0.7264656 0.53293705 0.7187848 0.86419135 1.0082453 0.45458445 0.3524899 0.9314218
0.920002 1.0786548 0.9997227 0.6563634 0.6482417 0.5122981 0.61072224 0.1284695
0.2445848 0.8310056 0.68190634 1.0100439 0.7851684 0.24184124 0.9124827 0.61535406
0.4507805 0.94572926 0.80265975 0.9229342 0.50318134 0.6545218 0.95884246 0.3743909
0.52515346 1.0247953 0.7163645 0.60134006 0.9981224 0.7931002 0.4942362 0.47569978
0.88780534 0.37499818 0.73178095 0.24678369 1.0629104 0.73181224 0.8804332 0.9906717
0.1829965 0.6766108 0.8407178 0.98044574 0.40018177 0.4877249 0.77563655 0.7981914
0.42002752 0.3402744 0.45442486 0.38221934 0.9507482 0.7409863 0.9542143 0.31961733
0.44088632 0.19920139 0.34699 0.4025248 0.3440263 0.473331 0.90718454 0.5802724
0.7965835 0.65141004 0.21785514 0.9139421 0.79616076 0.33439192 0.30182037 0.71393263
0.75583464 0.53035045 0.77621394 0.33786452 0.23428805 0.5752214 0.4326708 0.85612637
0.20130768 0.9651097 0.5726007 0.86306804 0.22507529 0.6398352 0.9460546 0.9540144
0.92888737 0.32911417 0.24528372 0.28618354 1.0240943 0.6342967 0.5848486 0.3571789
0.42264944 0.8138344 0.034591455 0.23493862 0.6765618 0.49801812 0.99381894 0.9851696
0.25115904 0.64560616 0.45752478 0.9904519 0.26959527 0.84151477 0.31245726 0.9097757
0.14340822 0.99147713 0.91111034 0.6342268 0.31093845 0.37306014 0.99485415 0.43215865
0.3547456 0.39733598 0.6374855 0.41195354 0.19777198 0.6527811 0.90570825 0.19462861
0.09469726 0.72381806 0.28362355 0.55735666 0.18552007 0.692395 1.0263902 0.0554286
0.76264316 0.43787464 0.9195869 0.310006 0.5237618 0.66566575 0.35132825 0.31686416
0.41752264 0.46266422 0.28747544 0.8324197 0.3205605 0.12838694 1.0596217 0.50662655
0.5027967 0.45825845 0.26272294 1.0186911 0.3650903 0.35919502 1.0782969 0.5827393
0.55196285 0.76944774 0.70631874 0.33388597 0.43906835 0.9181751 0.14185731 0.94247496
0.8959301 0.60157216 0.2356269 0.89769596 0.85976964 0.26341486 0.32295266 0.842972

bn1.bias f4 [512]
00000000: 2a0c 6dbb 1623 bebc 9c22 55bd 20e2 30bd
00000010: a706 dcbd 3508 1ebd 464a 6f3b f506 d1bc
00000020: 2d51 903c 444b 5fbd f172 8c3c 0e60 30bd
00000030: d7d4 a43b fcb3 01bd 1d41 263d fc60 37bd
00000040: df47 0bbc e100 63bc 0719 4fbc 8ae2 8cbc
00000050: 85e0 dcbb 6a7a b7bd de00 773d 75d1 27bd
00000060: 3b7b fcbc 5344 283c f930 813c 9a2f 57bd
00000070: b7a9 cc3c b10f 1bbd a79b 873c f6fc aabc
00000080: b236 b5bc 76e3 d3bd 6d8a 70bc d8b7 e7bb
00000090: 8b7d 6a3d 3ab2 acbc 3dad 7fbd c5b9 033d
000000a0: 5a17 833d 5ef4 b9bc 644f 033d 5a88 9e3c
000000b0: b0dd 8ebb 1a35 54bd e197 0bbe 0055 243e
000000c0: e3b6 73bc 6ee9 af3d e244 92bc f7d6 ed3c
000000d0: e6af 26bd 6184 323d 20c0 78bc 7626 04bd
000000e0: 22d3 5fbd 92f5 74bd 3f44 863c 869e 063c
000000f0: cc5c de3d 2ee2 dfbd a436 1cbd 707a 53bd
00000100: e5a6 16bd f071 813d d0f9 b6bd 3c54 04be
00000110: 867c 42bd 2888 e3bc 1a36 8ebc bf52 bc3d
00000120: 377f 0abd 0195 05bd 6f5b 463d 3846 4c3d
00000130: e9a8 76bd 90d9 7fbd ffdc 16bc 9a41 dabb
00000140: b1a1 3ebd 1dff a8bd 7cfc 803d 186c 113c
00000150: c7dc 8fbc 74c0 8dbc 0f5b 2abd e86c ef3d
00000160: 15b4 9c3c 4201 24bd 37c8 33bd 9f9c 77bd
00000170: 3d75 e0bc bb31 9ebc 975e 693c 50bd 263d
00000180: e6b2 50bd 50c2 26bd 3461 25bd 73d8 0fbd
00000190: 7577 1abd aa3b 35bd 3b0f 71bd 8f60 d73b
000001a0: 7048 653c 0a30 be3d 0f1e a8bb 85dd 15bd
000001b0: dbeb 94bd 8aca f33c 5557 8fbd 3cbd ee3c
000001c0: 0495 193d 00d5 b83a 49e5 e5bc 5328 073d
000001d0: 9a35 693c f247 16bd 1135 acbd 33e5 623b
000001e0: 699e 173d 9a08 9dbd f1e9 e2bc a71e 58bd
000001f0: 9339 ec3c ae7f 73bd 0485 2dbd f504 60bd
00000200: 409d cfbc f2b6 a93d 5412 3e3c 20ba 6f3d
00000210: 4e6c d73c a22e 1dbd 9287 87bb 2d46 73bc
00000220: 65d2 27bd b7c4 223e 6f9a 303d 3729 aebd
00000230: 4bb8 833c bb12 5dbd 37b6 edbc 76d6 ab3c
00000240: d992 6bbc e455 a4bc d01f 44bd ba3e 97bc
00000250: 4f99 68bc d65f 943d 5a36 8e3c 939d 4539
00000260: dc1d 183d 662c e93c 373e c4bc 0d67 33be
00000270: 7b2b c6bd 78ab 873c 69cb a5bd e556 a9bd
00000280: 498c 88bd d473 97bc 3746 80bd 7c43 b33c
00000290: 15bd 173e 9fe1 0e3d 13f6 eebc d8ab 673b
000002a0: 637a 0dbd ca82 97bd 5621 dabd 655f 81bd
000002b0: b155 31bb 8033 fe3c 985a 453b f110 2e3d
000002c0: 8691 71bd bd99 28bd d048 33be 6398 4cbe
000002d0: 0877 413d 2d07 32bd bccf 4e3d 4435 01bd
000002e0: 5882 7dbd 3429 9d3c 42b3 c3bb 0332 94bd
000002f0: d11b 3ebd e40a 9dbc 3c17 d5bc 2d05 223b
00000300: be0c 46be 4c02 933c 182f 42bd 0f6c 5dbd
00000310: cbd5 003d 3ef1 b9bd b91e 6c3c 3808 58bd
00000320: 6146 11bd 333b 043d 886a 1fbd 7eda c8bd
00000330: 5259 4dbb fb03 2a3b 1a60 babc a7f9 43be
00000340: a221 f43d 0ac9 80bc b07a 60bd 2def 08bd
00000350: cb0b 8dbc ec5b c4bc 7d01 de3c f4c4 4b3e
00000360: de5c 57bd 282b 90bd 0024 603c 809f 0bbb
00000370: e59f ea3c 4b92 c73d 0d48 873b 395f 8bbd
00000380: f779 49bd 800e 0f3d 885e c6bd bac1 2abd
00000390: 97b2 1fbd 0cc9 11be 25a9 48bd d077 823d
000003a0: 93d3 e9bd f130 91bd 0746 2bbe 7e98 cbbc
000003b0: 41fb f93c cf36 b2bb 51d3 293d 4be0 883a
000003c0: e6a8 1ebd 0bb8 0fbd 9b62 2cbd e727 77bd
000003d0: 87d9 a23c 8c25 a1bc e474 d8bd a3d4 28bd
000003e0: 794d f9bc 44d3 6cbd 8c26 8bbd c571 92bc
000003f0: bf82 943c 620d 35bd b6e9 7c3c 1a16 69bd
-0.003617058 -0.02321009 -0.05203496 -0.0431844 -0.10743456 -0.038582046 0.0036512776 -0.025516013
0.017616833 -0.05451514 0.017144652 -0.043060355 0.0050302553 -0.031665787 0.04058944 -0.044770226
-0.008501022 -0.01385519 -0.012640244 -0.017197866 -0.006740632 -0.089588955 0.06030356 -0.04097124
-0.03082048 0.010270196 0.015770422 -0.05253563 0.02498327 -0.03785676 0.016553713 -0.020872574
-0.022120807 -0.10346119 -0.014681441 -0.0070714764 0.057248633 -0.021081079 -0.062421072 0.032159586
0.06400938 -0.022699531 0.032058135 0.019352127 -0.0043599233 -0.051808454 -0.13632156 0.1604805
-0.014875147 0.08589445 -0.017855112 0.029033167 -0.040695094 0.043583278 -0.015182525 -0.03226324
-0.05464471 -0.059804507 0.016389964 0.008216506 0.10857543 -0.10931812 -0.038138047 -0.051630437
-0.036780257 0.0632056 -0.08934367 -0.12922758 -0.047482036 -0.027774885 -0.017359782 0.0919547
-0.033812728 -0.032612804 0.04842704 0.049871653 -0.06021968 -0.062463343 -0.009207963 -0.0066606523
-0.04654092 -0.08251784 0.062981576 0.008875869 -0.01756133 -0.017303683 -0.041590746 0.11690694
0.019128839 -0.040040262 -0.04389211 -0.0604521 -0.027399654 -0.019310823 0.014243743 0.040707886
-0.05095186 -0.040712655 -0.040375903 -0.03511853 -0.03771158 -0.044246353 -0.058852416 0.00657279
0.013994321 0.092865065 -0.0051305364 -0.03658821 -0.07271548 0.029759664 -0.06999079 0.029142968
0.037495628 0.0014101565 -0.028063433 0.03299744 0.014233971 -0.036689706 -0.08408559 0.0034621477
0.037016306 -0.07667656 -0.027699443 -0.052763607 0.028836047 -0.059447937 -0.04236318 -0.054692227
-0.025343537 0.08286847 0.011601049 0.058527112 0.02629676 -0.03837455 -0.0041360343 -0.014848274
-0.040972132 0.15895353 0.04311603 -0.08503955 0.016079089 -0.05397294 -0.02901755 0.020976286
-0.014378273 -0.020060487 -0.0478819 -0.018462528 -0.014196708 0.07244842 0.017359901 0.00018846085
0.03713785 0.028463554 -0.023955448 -0.1751978 -0.09676262 0.016561255 -0.08095438 -0.08268527
-0.06667382 -0.018487848 -0.062633924 0.021882765 0.14818223 0.034883138 -0.029170072 0.003535023
-0.034540545 -0.07397993 -0.106508896 -0.06317023 -0.0027059133 0.031030416 0.0030113813 0.042496625
-0.058976673 -0.04116224 -0.17508245 -0.19980006 0.047232658 -0.043463875 0.05049108 -0.03154494
-0.061891884 0.019184686 -0.005972297 -0.072361015 -0.046413247 -0.019170232 -0.026012056 0.0024722323
-0.19340798 0.017945431 -0.047408193 -0.05405813 0.03145389 -0.090792164 0.014411622 -0.052742213
-0.03546751 0.03228302 -0.038919955 -0.09807299 -0.0031333757 0.0025942314 -0.022750903 -0.19138204
0.119204774 -0.015720863 -0.054804504 -0.03343122 -0.017217537 -0.023969613 0.027100319 0.1989935
-0.0525788 -0.070394814 0.013680458 -0.0021304786 0.028640697 0.097447 0.004128462 -0.06805272
-0.04918858 0.034925938 -0.09685999 -0.04168866 -0.038988676 -0.1423685 -0.048989434 0.06370509
-0.11417308 -0.07089413 -0.16725932 -0.024852987 0.030515315 -0.0054386626 0.041461293 0.0010442821
-0.038735293 -0.035087626 -0.042086225 -0.06034079 0.019879116 -0.019671224 -0.1056917 -0.04121841
-0.03043245 -0.057818666 -0.067944616 -0.017876515 0.01812875 -0.044202216 0.01543658 -0.056905843

bn1.running_mean f4 [512]
00000000: 39da 563d 83b4 033e 33d6 953e 3f30 513f
00000010: 653c 633d 64e1 bf3e dd32 f03d 0962 db3e
00000020: 0e94 003f a3e6 633e 438c 843f bd9d 063d
00000030: 9411 e43e 9221 013a 7984 4c3f b0b3 3a3e
00000040: 450a 853d ac4b 443e bf42 2f3f 0915 243f
00000050: 66ed 343e 642a f13d 75a0 b83e ee30 7f3d
00000060: f4ee 8b3f 7196 b439 9884 cf3d 4dfd 1c3f
00000070: f377 733b 4fbc 233f e026 d13e 06bd 273f
00000080: 5ddd 903e 4aab 943c daa3 203f 0686 153d
00000090: 7f35 453e 7fcc 323f 111a 413e b20f 893e
000000a0: b7d2 273e f7af f43e 1163 923e b864 353e
000000b0: de60 003d 270d 733f d370 a83d 2a39 f13d
000000c0: 5549 8a3f efc9 673f ee04 893f 9c7d ef36
000000d0: 4cb4 0c3e 7ea2 3f3f 07a4 983e dc9c d43d
000000e0: 77a8 b33d de7a 943c e790 893f 2d2f 5d3f
000000f0: 4a4e 913e 33da b13e 33fb 653e 66e6 873e
00000100: 1a3c 4e38 7c49 663f 3337 a43e 4627 a23f
00000110: d0c8 0b3d 5968 9a3f 44ac 9a3e 0400 0000
00000120: 5b91 5b3d 8021 a13e b60b 683e c812 aa3e
00000130: 8d92 cd3e 7a56 ab3f cf0b 4d3e 2d77 3e3f
00000140: 2d8a 9e3d c068 f93d 4e56 703e 9115 e13f
00000150: 1db1 953e 7dbd 433d 3823 fa3e 1798 443e
00000160: da92 fd3c d950 0d3e 963d 9b3d c055 163e
00000170: 8553 7f3f 0462 da3e 79c8 7e3f 2785 b43f
00000180: 9240 903e 0400 0000 afa6 943c 9b43 fb3e
00000190: 4424 b43e 8ab0 4d3d 3d1d c73e e2ee f33d
000001a0: aa36 c237 cb93 783e a0bf 7c3d d3bc 123e
000001b0: ff9b 9936 26dc e43e b888 953e 4e6c e63e
000001c0: c4eb 373e 740e 8c3e 6503 213e 74b1 453f
000001d0: f744 e43e c013 0b3f a2f3 923c 0400 0000
000001e0: 9289 b03e 0400 0000 9492 b73e ad08 ad3d
000001f0: 38e5 2f3d 636a de3e cfa4 c73e daaa 883e
00000200: 5821 063e 024a ff3e 5284 903e 2bc3 c43d
00000210: 37ce 883f 5a45 053f 9337 9f3d a0fa fe38
00000220: 0400 0000 564a 4f3f 5abb 773e 5a77 933b
00000230: 9730 283f 864c 2e3f 86c5 0c3f 62c7 1b3f
00000240: 4c3c b838 2f15 6e3f b459 923e 7d41 fd3e
00000250: b121 1d3e 3115 ed3d 4728 cc3e d67c ba3e
00000260: f8aa e93e e4b2 503d 875d a538 decc 393a
00000270: 74e3 e33d 489b 633d cf39 563f bd7d 863e
00000280: 8703 033f 7e9a b43e b5db 823d 9078 663e
00000290: c8f0 b83e d828 393f 5472 403e 2c1c 2e36
000002a0: 0403 323e 1da5 a43e 781b 1d14 8fbc 983c
000002b0: f0a7 6a3d 20b3 f93e f893 6e3e 1fe6 ec3e
000002c0: 2b1d 793e a91f 6f3d 4c32 103f fe20 b83d
000002d0: 3545 633d 0400 0000 8cc5 213e 7ebe 893d
000002e0: d5de 4e3e 6a29 863e 520a 653d 4881 b73d
000002f0: f7dc b83e 7a9f ae3e 8f39 283f e442 aa3e
00000300: c647 853d a8a2 be3d c3be 883f 2c98 9f3e
00000310: 412a a93f 9cb9 033e 9b79 b73e 31f8 c63e
00000320: 573e 463e a667 7f3c 6aa6 023e 0f11 5b3c
00000330: d4da 4e3f 6746 183f ae6a 253f 5827 873d
00000340: b873 7f3f aa18 773f e8f0 8f3d a5e7 113f
00000350: 10d0 163f 2d95 383f 6205 843e ba28 d83e
00000360: e339 9f3e 5443 413e 1885 513f 6670 6e3f
00000370: 9fe3 dc3e 1259 383f 4c79 ed3d da3a 423f
00000380: d125 8f3d c4d5 1a3f 95b7 833e 0892 323e
00000390: 17b3 fb3e 4ee6 f93d ec81 723e 64a2 cb3d
000003a0: ad7d ae3c 35b8 3e3c e183 ac3a 200a 823e
000003b0: 2000 ad3f 3a99 3e3e 2ea7 e83d 98c5 633f
000003c0: 558b 423d 9033 4a3f 3401 973e 15d3 eb3d
000003d0: 0400 0000 2cf7 983e ec43 8c3e 553c 273f
000003e0: aa44 e73e bff6 b93e dadc 6a3a 11a0 343e
000003f0: 48d4 373f 2ed3 af3c 9e3d d03d f73d 663e
0.052454207 0.12861829 0.29264984 0.8171424 0.05547752 0.37476647 0.117284514 0.42848232
0.50225914 0.2225595 1.0355304 0.032865275 0.4454466 0.0004925962 0.7988964 0.18232608
0.064960994 0.19169492 0.6846122 0.640946 0.17668685 0.117756635 0.3605992 0.062302522
1.0932298 0.00034444363 0.10132712 0.61324006 0.0037150353 0.6395921 0.40849972 0.655228
0.28293887 0.018148083 0.6275002 0.036504768 0.19258688 0.69843286 0.188576 0.26769787
0.16388975 0.477905 0.28591207 0.17714202 0.03134238 0.94941944 0.082246445 0.11778481
1.0803629 0.905425 1.070463 7.137378e-06 0.13740653 0.7485732 0.29812643 0.10381481
0.087723665 0.018124994 1.0747346 0.8640011 0.28380042 0.34736785 0.22459106 0.26542968
4.91702e-05 0.8995588 0.32073364 1.2668235 0.034127057 1.2063094 0.30209553 6e-45
0.05360542 0.3147087 0.22660717 0.33217454 0.40150872 1.3385766 0.20024036 0.744006
0.07741199 0.121781826 0.23470423 1.7584707 0.2923669 0.047788132 0.48854995 0.19198643
0.030953813 0.13800372 0.07580106 0.14681149 0.99736816 0.42652905 0.99524647 1.4103135
0.28174263 6e-45 0.018145887 0.49075016 0.35183918 0.05021719 0.38889495 0.11910798
2.3152057e-05 0.24275129 0.061706185 0.14329843 4.5779157e-06 0.4469921 0.2920587 0.45004505
0.17961031 0.27354777 0.15723951 0.77223897 0.44583866 0.5432701 0.017938439 6e-45
0.34479958 6e-45 0.35854018 0.084489204 0.04294321 0.43440542 0.38992926 0.2669285
0.13098657 0.4986115 0.28225952 0.09607538 1.0687932 0.5205895 0.07774272 0.00012158346
6e-45 0.809728 0.24192563 0.004500312 0.6569914 0.68085515 0.54988897 0.6085111
8.785035e-05 0.93001074 0.28584063 0.49464026 0.15344884 0.115763076 0.3987448 0.36423367
0.4563825 0.050951853 7.885234e-05 0.00070877175 0.111273676 0.05556801 0.8368196 0.26267806
0.5117726 0.35274118 0.06389562 0.22506928 0.36121202 0.7232795 0.18793613 2.5944419e-06
0.17383963 0.3215722 7.931892e-27 0.0186446 0.057289064 0.48769474 0.23298633 0.46269318
0.24327533 0.058379803 0.56326747 0.08990668 0.055485923 6e-45 0.15798014 0.067257866
0.20202191 0.2620347 0.055918045 0.08960205 0.36106083 0.34106046 0.6571283 0.33254158
0.0650783 0.09308368 1.0683216 0.31170785 1.321602 0.12863773 0.35834965 0.3886123
0.19359718 0.015588677 0.12758794 0.013370766 0.80802655 0.59482425 0.64615905 0.06599301
0.9978595 0.9652201 0.07028371 0.56994087 0.5891123 0.72102624 0.25785357 0.42218572
0.31098852 0.1887334 0.8184371 0.93140256 0.4314241 0.7201091 0.11595401 0.7587105
0.06989635 0.6048243 0.25726 0.17438519 0.49160072 0.1220213 0.23682374 0.09943083
0.021300161 0.011640598 0.0013161862 0.2539835 1.3515663 0.18613139 0.11360012 0.8897338
0.04749616 0.7898493 0.29493105 0.1151487 6e-45 0.29876077 0.2739557 0.65326434
0.45169574 0.36321065 0.0008959301 0.17639185 0.7180829 0.021463003 0.101680025 0.22484575
