3 - Collab -MADDPG/trained_agents/maddpg_tennis_checkpoint_critic_local_0.pth (torch_old, 644556 bytes, 9 tensors)

fc1.weight f4 [512, 52]
000000 c6 a4 8b bd 02 9e 17 bd cf 94 39 bd fe 4d 26 bc
       -0.068185374 -0.037015922 -0.04530793 -0.010150431
000010 b7 90 e9 3c 64 9c 68 3d e5 51 4c bd 6c 5b 37 3c
       0.028511388 0.05678977 -0.04988279 0.01119123
000020 84 c5 d4 ba 50 58 80 3c d5 6d a1 3c ee 5e fd bc
       -0.0016233181 0.01566711 0.019705692 -0.030929055
000030 fe f0 74 3c 83 64 85 3d 63 60 8e 3c 13 77 25 bd
       0.014950035 0.06513312 0.017379945 -0.04039676
000040 2e 06 a6 bd 24 3e 59 bd 9b aa 48 3d 0b 1e b3 bc
       -0.081066474 -0.053037778 0.048990827 -0.021864912
000050 df 46 1a bd 57 3f 16 ba f5 80 27 3d d3 fb 3a bc
       -0.037665244 -0.0005731484 0.040894467 -0.011412579
000060 28 0c 8f bd 12 32 01 bd 9b f9 63 3c 5e 8b e7 3b
       -0.069847405 -0.03154189 0.013914491 0.0070661744
000070 05 90 18 bd 5e 67 b2 3d 9f 02 d7 bb b1 3a 22 bd
       -0.037246723 0.08711122 -0.0065615918 -0.039606754
000080 16 23 b0 bc da a5 93 bd 53 c1 95 3b 9b 76 23 bd
       -0.021501105 -0.07209368 0.004570165 -0.039908033
000090 cb 84 49 bc df 10 f6 3c 09 28 9d 3b 86 8a b4 bb
       -0.012299727 0.030037342 0.0047960323 -0.0055096773
0000a0 1f a4 86 bd 93 83 a7 bc e8 4c b7 3c 6f 54 f4 bc
       -0.06574272 -0.020448482 0.022375539 -0.029825417
0000b0 07 ff 08 3c 3f 78 9f bc 43 68 8a bc 97 31 a3 bc
       0.0083615845 -0.019466517 -0.016895419 -0.019921107
0000c0 92 7e 67 bd ee e0 23 3d b4 9b b6 3d e9 1e 06 3e
       -0.05651719 0.04000943 0.08916417 0.13097729
0000d0 c6 ef 2e bd 6b 1a cc bc 3e 44 81 bc 44 6b 34 3d
       -0.042709135 -0.02491494 -0.01577961 0.04404761
0000e0 f6 c7 02 3d f9 4b 6a 3b db 50 e6 bc c9 f2 d4 3b
       0.03192898 0.003575085 -0.028114727 0.006498669
0000f0 a3 04 9d bd f9 a0 ad bd 8a 52 6c 3c 81 62 ee bd
       -0.076669 -0.08477969 0.014423976 -0.11639882
000100 4c f2 9c 3c 23 1b 4c bd 2c 7f 10 3d 41 9b da bd
       0.019158505 -0.049830567 0.03527753 -0.106741436
000110 ae 92 9e bd 21 24 07 bd cd 22 b0 bc bb 30 80 3b
       -0.07742821 -0.03299344 -0.02150097 0.003912059
000120 1d c4 36 3b 86 88 89 bd 25 4c c1 3c 6c 24 49 bc
       0.0027887889 -0.06715493 0.023595879 -0.01227675
000130 8a a1 ba 3a 54 b7 21 bd 7f 58 9c bc af f3 96 bc
       0.0014238816 -0.039481476 -0.019085167 -0.018426744
000140 89 4e 66 bd 85 c5 a5 3b 67 9c 0e 3d 8f b7 8b 3c
       -0.05622724 0.0050589466 0.034817126 0.017055301
000150 f1 b8 83 3c 7a a1 09 bd c8 0a 47 bb 22 12 03 bd
       0.016079398 -0.03360126 -0.0030371416 -0.031999715
000160 9a c2 ff bc a9 74 38 bd ad 19 22 3c 8a c6 d9 bc
       -0.031220723 -0.04503313 0.009893817 -0.026583929
000170 b0 d6 0a bd ec e0 cc bd ea 79 b4 bc e0 06 80 3d
       -0.03389615 -0.10003838 -0.02203079 0.06251311
000180 59 0a 93 3c 5e a4 57 bd b8 31 26 bc 20 b6 a0 bc
       0.01794927 -0.052646987 -0.01014369 -0.019618094
000190 4e 1d 07 be cb c2 9a 3d 31 f0 84 be 46 be f5 bd
       -0.13194773 0.07556685 -0.25964502 -0.119991824
0001a0 90 fe 24 3d a2 74 87 3d e5 61 9a bc e1 e6 6a 3c
       0.040281832 0.06614043 -0.018845508 0.014337272
0001b0 7f ff 90 3b 3c a8 c9 ba ab 3f 26 3b 21 a1 2b bd
       0.0044249888 -0.0015385221 0.002536754 -0.04190171
0001c0 11 38 c9 3d 58 34 57 3d bb 67 ac bc 1f 57 0b bc
       0.09825147 0.052540153 -0.021045556 -0.008504658
0001d0 56 8e 8f 39 66 0c 50 3d 1f 40 35 3b 32 76 45 bd
       0.00027381134 0.050793074 0.0027656627 -0.048208423
0001e0 75 d7 3b 3d 6c 02 e5 3b 7d b4 54 bc 53 3c 29 3d
       0.045859773 0.006988814 -0.012982485 0.041317295
0001f0 dc cd 47 bd a8 af 7a 3d 28 01 b1 bc 1d d5 1d 3d
       -0.048780307 0.061202675 -0.021606997 0.03853332
000200 16 4e 93 3d 80 89 3f bd 2a 7a 12 bc 01 06 68 bd
       0.07192628 -0.04676199 -0.008940259 -0.05664635
000210 00 33 d4 39 07 c5 6b 3d a0 da 41 bc f7 9b de bc
       0.0004047379 0.057560947 -0.011831909 -0.02717398
000220 11 0e 39 3d be 5b 76 bd a5 37 63 bc 92 18 56 bc
       0.04517943 -0.060146086 -0.013868247 -0.013067381
000230 a5 32 26 bd 0b 22 47 bc 1c fa 2f bd e9 fc c0 bd
       -0.040575642 -0.012154113 -0.042963132 -0.09423239
000240 99 3f bd 3c 98 3b 6c bd 13 a0 00 3d a4 7f ca bc
       0.023101615 -0.05767402 0.03140266 -0.024719067
000250 1a a5 0a 3d b8 ba 2a bc 91 9d d7 bc 82 1f 4b bd
       0.03384886 -0.010420494 -0.02632025 -0.049590595
000260 7c af 27 bd e7 56 86 be 3a e0 4f 3d a2 d1 d0 bd
       -0.04093884 -0.26238176 0.05075095 -0.10196234
000270 b1 a6 d3 bc 10 c8 4e bd bd 0f a9 3c df 44 ce 3c
       -0.02583632 -0.050483763 0.020637387 0.025179325
000280 ec 77 f3 bc 7e 59 93 bd 23 f7 00 3d c0 fe 43 3d
       -0.02972027 -0.07194804 0.031485688 0.04785037
000290 5f ea 67 bd 45 ef 53 bd 35 45 ba bb 3b 45 8a bd
       -0.056619998 -0.051741857 -0.0056845197 -0.06751486
0002a0 f8 44 f2 3b 4b ad 9f bd 76 53 70 bc a3 24 94 bd
       0.0073934756 -0.07796725 -0.014668336 -0.072335504
0002b0 90 cb a9 bd 57 eb 8c bd c3 91 00 bd 63 03 92 3b
       -0.082907796 -0.06880825 -0.03138901 0.00445597
0002c0 e0 e7 c8 bc c0 78 99 bd 99 ad d5 3c 38 ab 43 bd
       -0.02452463 -0.07493734 0.026083754 -0.04777071
0002d0 98 99 e0 bc df 21 d7 bd 75 4a 9a bc 69 c7 5c 3d
       -0.02741699 -0.10504507 -0.018834332 0.05390111
0002e0 0f 04 2d bd e8 71 43 bd d5 1d af bc 6c d6 01 3d
       -0.0422402 -0.04771605 -0.02137653 0.03169863
0002f0 92 09 8a 3c 26 1d dc bd 38 31 c1 3c 86 51 db bc
       0.016850267 -0.10747747 0.02358304 -0.026772272
000300 33 95 46 3c f7 6d d6 bd a2 18 74 bb 3a a7 19 bd
       0.012120533 -0.10470193 -0.0037246128 -0.037512995
000310 4b 76 c0 3c 5f f2 8c bd 35 0b bb bc 70 1e 59 3d
       0.023493906 -0.06882166 -0.022832492 0.053007543
000320 fc 87 19 bd 47 27 36 bd b0 f7 0c 3c cc 86 7f 3d
       -0.0374832 -0.04447105 0.008603975 0.06238441
000330 0f 04 2e 3d e8 2d e7 3c 66 7e 08 be a9 8d b4 bc
       0.04248434 0.028220132 -0.13329467 -0.022040205
000340 d4 d5 1a 3d ad be 88 bc 20 3b 9a bc fc 1d b5 bc
       0.03780158 -0.016692484 -0.018827021 -0.022109024
000350 dd 2f 7e 3d 19 cf f6 bc 7e 0b 04 3d b5 43 ae bd
       0.062057365 -0.030128049 0.032237522 -0.08509008
000360 92 06 91 3c 65 41 cb 3b 50 c8 ba bc 67 cf 90 bd
       0.017703328 0.006202864 -0.022800595 -0.07070809
000370 eb b6 5d 3d 31 cd 83 3c a4 ca ab bc 4b 1e 74 bd
       0.054129522 0.016089054 -0.02097065 -0.059599202
000380 0c bd 2a 3b b7 6d ee 3c 25 5b 93 3d d5 be bc 3c
       0.0026052622 0.02910505 0.07195119 0.023040215
000390 af 7e 20 3d 51 95 01 3c 1e 15 5a 3d 91 a8 8d 3c
       0.039183315 0.007909135 0.053242795 0.017292293
0003a0 43 18 c3 bc 78 b2 4e bd 1b 72 44 3d 19 77 0f 3c
       -0.02381528 -0.05046317 0.047960382 0.008756422
0003b0 f7 f7 a9 bc e8 e0 46 bc c7 da f4 bc d4 ee 33 bd
       -0.020748122 -0.012138583 -0.029889477 -0.043928936
0003c0 19 f5 f1 bc 53 5a 0d 3c b2 21 24 bd fc 0a 81 bc
       -0.029535817 0.008627492 -0.040071197 -0.015752308
0003d0 1d e5 96 bc d4 fd 95 3c e9 7b dd 3b 5f c1 e3 3c
       -0.018419797 0.018309511 0.006759156 0.027802167
0003e0 70 15 e2 bc b1 f0 10 bd d3 7c 8d 3b 78 04 f9 3b
       -0.027598113 -0.03538579 0.0043178587 0.0075994097
0003f0 65 9d ae bc 09 b7 47 3c 66 1f 32 bd 1f 07 7c 3c
       -0.021315286 0.012189635 -0.043486975 0.015382557

fc1.bias f4 [512]
000000 bf af 36 bc a2 3d 1d 3b 79 73 9e 3d b3 1a 85 3c
       -0.0111503 0.0023993035 0.077368684 0.016248083
000010 db f3 82 bc 78 98 ab bd dd 36 0b 3e fa 3c 32 3d
       -0.01598542 -0.083786905 0.13595147 0.043515183
000020 48 6c ad 3c 98 bc 22 be 3a 4e ec 3d d3 60 d8 3d
       0.021169797 -0.15892255 0.11538358 0.10565343
000030 27 f4 f6 3d e5 40 74 3d 30 35 b9 bd 40 64 d4 bd
       0.12058287 0.0596322 -0.09043348 -0.10370684
000040 ee 54 11 3e a8 83 b8 3d a6 4c 8c bd f8 81 06 be
       0.14192554 0.090094864 -0.06850557 -0.13135517
000050 13 3f fb 3c 6d c0 52 bd b2 9d 55 bd 3b 65 48 3d
       0.030669725 -0.051453043 -0.052152343 0.048924666
000060 b9 f9 18 be f3 a3 72 bc 7c 78 b9 bd d3 6a 52 bd
       -0.14939012 -0.014809596 -0.09056184 -0.051371407
000070 c3 6f 38 bc b3 cb 6f bd c9 a3 c4 bd 65 50 d1 bd
       -0.011257115 -0.058543872 -0.09601552 -0.10220412
000080 de 09 ba 3d 17 e1 49 bd 2d ef 17 bc 63 fa 3c be
       0.09083913 -0.049286928 -0.009273333 -0.1845489
000090 cd 04 d3 3c db 83 7b bd b7 4f ac bc 6f 18 eb bd
       0.025759125 -0.061405044 -0.021034105 -0.1147927
0000a0 9b 9b 10 3e 2f dd 19 3e d9 73 e2 bd 30 54 8a bd
       0.14121859 0.15025781 -0.110572524 -0.06754339
0000b0 af 79 b3 bc 15 cd 78 bd 0a 40 43 3d 4b 5f a0 bc
       -0.02190861 -0.060742456 0.047668494 -0.01957669
0000c0 22 86 c2 3d 2b a3 ad bc 9e 90 d0 3d 37 a3 f7 3d
       0.0949824 -0.021195969 0.101838335 0.12091678
0000d0 77 ae 40 be 15 62 0b be 83 18 1a bd 81 98 94 bd
       -0.18816553 -0.13611634 -0.037621032 -0.0725565
0000e0 77 cc 8e 3c 6f b3 38 bc 4c 31 d7 bd 44 d7 bf 3c
       0.01743148 -0.011273249 -0.105074495 0.023418076
0000f0 07 31 a6 bd ae 41 0c be 6a c1 ca bc 39 3e 06 3e
       -0.0811482 -0.1369693 -0.02475043 0.13109674
000100 78 6b 03 3e cb ff 07 be 46 29 ab bd 65 72 f3 3d
       0.12833965 -0.13281171 -0.08357482 0.118870534
000110 8e 24 49 be 56 16 ee 3d 07 e1 26 3d 5d 25 5e 3d
       -0.19642851 0.11625354 0.040741947 0.05423485
000120 63 4c 33 bd c5 58 85 3c 0a 43 13 3e d5 ee cf bd
       -0.04377402 0.01627768 0.14381042 -0.101529755
000130 31 0f af bd 59 5c d8 bd 46 6e 83 3d 14 b6 55 bc
       -0.085478194 -0.10564489 0.06417517 -0.013043899
000140 51 c7 ac bb 75 a2 b3 3d de 31 2e 3c 42 0e 81 bd
       -0.005272784 0.087712206 0.010632006 -0.063015476
000150 40 fb e1 bd 86 60 88 3c 93 f6 8e 3d 7a 88 5d bd
       -0.1103425 0.016647588 0.06980624 -0.054085232
000160 ee 9f 39 3c ea d7 d8 bd 75 f0 95 bd 42 db 72 bb
       0.011329634 -0.10588057 -0.07321254 -0.0037056957
000170 b2 ec 07 3d fb 45 1d be 3f 16 ef 39 15 d0 6e bc
       0.033184715 -0.15358727 0.00045602207 -0.014575978
000180 fd ca af bd f2 1d 03 be 77 49 07 bd aa b5 96 bd
       -0.08583639 -0.12804392 -0.033029046 -0.073588684
000190 9c e6 dd bd 2d 88 59 bc 44 09 42 3c ee 6c 8d 3d
       -0.10835001 -0.013277096 0.011843029 0.06905542
0001a0 11 87 e6 3d 2d fe fb bd b3 0e 5e bd 52 74 30 bd
       0.112562306 -0.123043396 -0.054213237 -0.04307968
0001b0 b0 95 d3 bd 7b c4 11 bc 26 dc c3 3c 4c b0 5d 3d
       -0.10331285 -0.008896942 0.023908686 0.054123208
0001c0 b7 2e 8b 3c 95 ac fd 3c 5f 6c 59 bd be b9 65 bd
       0.016990049 0.030966083 -0.053081866 -0.05608534
0001d0 39 96 d2 bc 03 aa 8b 3d fb 9b ad bd f0 c6 c1 3b
       -0.025706397 0.068195365 -0.084770165 0.005913608
0001e0 aa f7 4c 3d de 4a 99 3d 4c de 9f bd 5d d6 ab bc
       0.05004088 0.07484983 -0.07806072 -0.02097624
0001f0 5a 6d a8 3d a1 5e cb bd ed 4b be bd c6 19 99 bd
       0.08223982 -0.099301584 -0.092918254 -0.07475619
000200 9a 11 21 be c1 fa 43 be ca fe b2 bc 2b 35 d3 3d
       -0.1572937 -0.19138624 -0.021850009 0.10312875
000210 af 56 dc bc af 4a 8d bd b2 ef 9b bd 49 9a b1 bd
       -0.026896803 -0.068990104 -0.07614078 -0.08672006
000220 43 a8 b4 3d ed d5 cf bd a5 44 36 be 3b c7 00 be
       0.08821156 -0.10148225 -0.17799623 -0.12576
000230 17 05 d4 3d c9 00 31 be c5 83 77 bc de 1c 46 bd
       0.10352533 -0.17285456 -0.0151071 -0.048367374
000240 0b f8 af bd 84 8f 5f bb d9 08 47 be c6 04 06 3d
       -0.08592232 -0.0034112642 -0.19436969 0.032719396
000250 f1 aa d0 bd 3e 90 59 bc 1d 80 b4 3d 1d ee d3 bd
       -0.101888545 -0.013279019 0.08813498 -0.10348151
000260 b1 4b 89 bc 88 8b 66 3d 4e b5 f7 3a 5a cd 4e bd
       -0.016759725 0.05628541 0.0018898637 -0.050488807
000270 2b a2 43 bc fd a4 f7 bc 59 8b d4 3a 80 d1 1c be
       -0.011940519 -0.03023004 0.0016215845 -0.15314293
000280 50 6d 3a bc 20 5f 24 3b b3 0e 49 3b 8f fc df bd
       -0.011378601 0.0025081113 0.0030678927 -0.109368436
000290 a8 92 be 3d 3a f3 61 bd 45 96 02 be 95 8e 08 bd
       0.09305316 -0.0551636 -0.12752636 -0.0333391
0002a0 2c bb 50 be dc 47 49 3c 7f c7 11 bd 81 a2 12 be
       -0.203839 0.012285199 -0.035590645 -0.14319803
0002b0 f5 67 b6 bb 8d 9f f1 3d f7 da 4e bd 4b e6 8f bd
       -0.005566592 0.1179801 -0.05050179 -0.07026347
0002c0 bf d2 01 3e b9 5e c1 3c d8 25 b8 3c 63 13 08 be
       0.1267805 0.023604738 0.022478983 -0.13288645
0002d0 25 c3 9c 3d 14 e3 69 3a 23 35 e3 3d 10 ce df 3d
       0.07654408 0.0008922082 0.110941194 0.10927975
0002e0 bc 81 95 3d 24 1c aa 3d c7 4c 68 bd 50 bc 19 be
       0.073001355 0.08306149 -0.056713846 -0.15013242
0002f0 2a cb c9 3d c7 bf a8 3d 9a 03 50 3b e4 7a 65 3d
       0.098532036 0.082397036 0.0031740428 0.0560254
000300 38 76 76 3d a5 9a 1a be 7a 17 f5 bd ed 53 1e 3e
       0.060171336 -0.15098055 -0.119673684 0.15461703
000310 db 5d 63 3d 8d 91 51 be 58 6c 78 bb 0f 78 b6 3d
       0.05550943 -0.2046568 -0.0037906375 0.08909618
000320 cf 02 1c bd ee 22 f1 bd 06 6a d9 bd e1 a5 0e 3d
       -0.038088616 -0.117742404 -0.106159255 0.034826163
000330 48 6e 1a bd 5e 09 12 3d c4 47 25 bd a3 e9 b4 3d
       -0.03770283 0.035653464 -0.040351644 0.08833625
000340 46 75 f1 bd 68 b2 55 3d 88 1d 1a be bc dd 58 bd
       -0.11789946 0.052172095 -0.15050328 -0.052945837
000350 39 b2 e4 bc 72 27 66 3d ca 42 6b 3d 48 b3 5e 3d
       -0.027917014 0.05618996 0.057436742 0.054370195
000360 2d b2 a6 bd 72 cf 30 3d ac 09 dd 3d 33 8f b2 bd
       -0.08139453 0.043166585 0.107928604 -0.08718719
000370 00 8d 1d be fb 74 3e bd 78 58 87 bc b5 3b 81 bc
       -0.15385818 -0.04649828 -0.016521677 -0.01577554
000380 f4 1d 2f be 8f 97 0f 3c bf 42 60 3d 18 d2 37 3d
       -0.1710127 0.008764162 0.054751154 0.044878095
000390 a5 07 ee 3d 12 d2 5c 3d 0d e5 bf 3b 66 36 00 bd
       0.11622552 0.053911276 0.0058561624 -0.03130188
0003a0 c1 14 38 3d 4b e9 2c be f9 e0 8c bd f7 78 61 bc
       0.044941667 -0.16885869 -0.06878848 -0.01376175
0003b0 1c 91 13 be 84 57 03 be 96 c1 c9 3c a0 2a 0d be
       -0.14410824 -0.12826353 0.024628442 -0.13785791
0003c0 03 34 e7 bd e0 0b e7 3d d3 54 e1 bd c1 78 d2 3d
       -0.11289217 0.11281562 -0.11002507 0.10276938
0003d0 93 9f 15 3d 9a e6 99 3d bc 3d 6a 3d 6e 8d 91 3d
       0.036529135 0.07514687 0.05718778 0.07107054
0003e0 c8 04 86 bd 76 55 bb 3d 1a 11 2f bc ff 29 ea bd
       -0.06543881 0.0914716 -0.01068523 -0.11433791
0003f0 1a 28 f9 3d cb 60 a0 3d a8 88 e1 3c f2 14 04 be
       0.12165852 0.07830962 0.027530983 -0.12898615

fc2.weight f4 [256, 512]
000000 04 02 4a 3d 78 27 de 3c 13 80 0e bd c0 f0 50 bd
       0.04931833 0.02711843 -0.03479011 -0.051010847
000010 5a 00 3d bd b2 c1 e1 bc ab bb bc 3c 17 fd 07 3d
       -0.046142913 -0.027558181 0.023038706 0.03320035
000020 38 de 11 3d b2 3c f8 bd d7 69 3b 3c 19 0d 1b 3d
       0.035612315 -0.12120952 0.011438808 0.037854288
000030 5a 7d ba 3b 2e 0a f3 bc 6d 57 87 3d 60 57 27 bd
       0.0056912126 -0.02966794 0.06608472 -0.04085481
000040 c0 71 7b 3d 22 d1 17 3c a4 0d a8 bd 18 6d 0b bd
       0.061387777 0.00926617 -0.08205727 -0.034039587
000050 82 eb 5a 3d 91 c2 1f bd 76 43 13 3d 70 a1 01 bd
       0.053447254 -0.039003912 0.035953008 -0.0316481
000060 c1 ff fc bb f8 2f a5 bc 9f 13 d0 bc 39 ad 50 3d
       -0.007720918 -0.020164475 -0.025399981 0.050946448
000070 8e 5e 19 3d 88 09 44 3d 5b 23 64 3d 20 f7 69 3c
       0.03744369 0.047860652 0.05569778 0.014280111
000080 3f 4c 8b bd 36 63 55 bd 2d fa d0 3c 71 ef 74 bc
       -0.06801652 -0.052096568 0.025509918 -0.014949665
000090 b1 47 1f 3d 39 1f 83 bd 9a f3 ee bd de ba 65 3c
       0.03888673 -0.064024396 -0.11667557 0.014021603
0000a0 32 33 29 3d 65 13 35 bc 69 e2 be bd 78 93 57 be
       0.04130859 -0.011051987 -0.09320528 -0.21052349
0000b0 79 23 8e bc 0f e0 f8 3c e9 2b fe 3c 21 aa 7a 3b
       -0.017350899 0.030380277 0.031026797 0.0038248377
0000c0 a7 8a 89 3a 22 7d d7 bc 25 ae 7b bc d4 62 02 bd
       0.0010493592 -0.026304785 -0.0153613435 -0.03183253
0000d0 cd a2 66 bd 8f f7 ae bd 0f 4a 0c 3d aa ed eb bc
       -0.056307603 -0.08543312 0.034250315 -0.02879985
0000e0 6b 19 db bc cb 5e 08 be 20 ad 81 bd 4f 60 31 bd
       -0.026745519 -0.1331741 -0.06331849 -0.043304738
0000f0 73 a6 3b 3d 9b ab c5 3c 7d 2c 1b 3d 23 fa 55 3d
       0.045813035 0.02412968 0.037884224 0.052240502
000100 07 aa 13 3d 58 90 b8 bc c2 33 10 3d 6f e7 ee bb
       0.036050823 -0.022529766 0.03520561 -0.0072907726
000110 06 84 43 3d 14 92 78 3d 46 8e 91 bb 34 ca c7 bc
       0.04773333 0.060686186 -0.004442009 -0.02438841
000120 b4 99 02 3d 6f 57 03 bd 90 99 b9 3c 96 f5 86 bd
       0.031884864 -0.032065805 0.022656232 -0.065898106
000130 88 40 de ba 07 05 ad bd 48 d1 9b bb b3 07 92 3c
       -0.0016956488 -0.084482245 -0.004755173 0.017825937
000140 9b 4b a6 bc d7 e6 dc 3c 9f 4e ed bc c1 85 67 bd
       -0.020299723 0.026965542 -0.028968154 -0.056524042
000150 a7 b8 c1 bc 74 e5 01 bd cb d1 bb bb 94 06 71 bd
       -0.02364762 -0.031712964 -0.0057317964 -0.058844164
000160 8d 30 88 bc fe 0c 40 3d 59 89 bf bb fa ef a4 3d
       -0.016624713 0.04688739 -0.0058452305 0.080535844
000170 49 3c f3 3c e6 1e 83 3d 8a b3 91 3d b3 d2 3b bb
       0.029691832 0.06402378 0.071143225 -0.0028659522
000180 56 a2 0c 3d 2a e8 c2 bc d5 2a 59 3d 0c dc 30 3c
       0.034334503 -0.023792345 0.053019363 0.010794651
000190 d6 b3 00 bd e0 5c 22 3d 79 08 58 bb e8 e1 16 bd
       -0.031421505 0.039639354 -0.0032964034 -0.036836535
0001a0 ff c5 6c 3d b6 68 95 3c 9b ea ed 3b a3 05 f8 39
       0.05780601 0.018238407 0.007260633 0.00047306446
0001b0 91 12 de bc 4e 4c 26 bd f5 cf 3b 3c 8d b7 3a 3b
       -0.027108463 -0.040600114 0.011463155 0.0028490752
0001c0 74 23 cd bc 6a c9 f8 3b 4c 8c dc bb 96 f7 33 3d
       -0.02504132 0.00759237 -0.006730592 0.04393729
0001d0 57 01 11 bd e5 4b 0c bd d4 83 e1 3c 3c 83 62 bc
       -0.03540167 -0.034252066 0.02752868 -0.013825234
0001e0 4d 75 6c 3d e1 ca a6 3c a2 77 a2 3d 75 16 d9 bc
       0.057729054 0.020360412 0.079329744 -0.026499966
0001f0 53 0e 17 bc 7e 60 ca bd e1 e9 ae bb 25 46 fd bc
       -0.009219724 -0.09881686 -0.005337939 -0.030917237
000200 ce 69 6f b9 e3 dd 7e bc 29 60 85 bd 2d ed 4f 3d
       -0.00022832231 -0.015555832 -0.06512482 0.050763298
000210 e9 12 11 3c e4 c1 b1 bc e0 da c6 bc 77 47 9b 3c
       0.008854606 -0.0216989 -0.02427429 0.018954976
000220 86 72 94 bd 97 f7 38 3c b0 c4 88 bd a6 b9 28 bd
       -0.07248406 0.011289499 -0.0667814 -0.041192673
000230 fc d0 03 bd e7 2f 3a 3d ec a3 16 3d d9 e7 19 3d
       -0.032181725 0.04545584 0.03677742 0.037574623
000240 75 77 4d 3c 5a 67 ac 3c 72 b8 bb bd 13 53 a8 bc
       0.012540688 0.021045376 -0.091660395 -0.020547425
000250 8a ef 0b bb 36 1d 2b 3d 6d 32 c7 bd 65 a1 1c 3d
       -0.0021352493 0.041775905 -0.09726415 0.038239855
000260 58 1c 1e bd a6 cb 4e bd 37 37 12 3c 16 47 57 bc
       -0.03860125 -0.050487183 0.008924297 -0.013139507
000270 5d 8f 08 bc 97 dc fe 3c 40 10 86 bc 14 1f f6 bc
       -0.008334962 0.031111045 -0.01636517 -0.030044116
000280 0d 5d 38 3d 56 a0 00 3d 83 c8 22 3d 2a a8 4a bc
       0.045010615 0.03140291 0.039742004 -0.012369195
000290 49 12 92 bd 2f 44 4d 3d 3a f5 66 bd 89 1e ae bc
       -0.07132394 0.050113853 -0.05638621 -0.021254795
0002a0 36 06 33 3d 32 b7 27 3d a7 1e 4d bd 7c d2 4c bd
       0.043707095 0.040946193 -0.05007806 -0.05000542
0002b0 00 6b 18 3d 27 4e 44 3c af d6 80 bc 1a 22 3b 3a
       0.03721142 0.011981524 -0.01572737 0.00071385654
0002c0 0f 4f 0c be 5e 95 f4 bc 57 38 bf 3c 29 49 ef 3c
       -0.13702033 -0.02985638 0.023342295 0.02920969
0002d0 4e ac 9d bc 97 11 ef bc 86 19 3b bd da e6 c4 3c
       -0.0192472 -0.029183192 -0.045678638 0.02403586
0002e0 30 14 87 3d ab 55 30 bb e4 dc e0 3d 60 92 c9 ba
       0.06595647 -0.002690653 0.109796315 -0.0015378706
0002f0 fe 5e 34 bd cc 7a 8e 3c 13 f6 df 3c 2e 4f 8c 3a
       -0.044035904 0.017392538 0.027339017 0.001070475
000300 9c 97 8e 3d e4 59 82 bc 93 11 33 3d 76 eb c0 bc
       0.06962511 -0.015912004 0.043717932 -0.023549777
000310 07 85 e2 bc 95 46 d4 3d a3 ac 89 3c e1 86 71 3c
       -0.027651323 0.10365025 0.016805952 0.01474163
000320 b2 25 a5 bc 33 f7 d2 3b 17 e7 93 bd 69 3c 8c bd
       -0.020159576 0.00643816 -0.07221811 -0.0684746
000330 98 a0 66 3d ab 7e 67 bd 42 ce 77 3d 5e 9b 8e bd
       0.056305498 -0.056517284 0.060499437 -0.06963228
000340 6a ac 37 3d c3 7d 38 bb a6 50 cf bd 12 d0 2a 3d
       0.04484216 -0.0028151132 -0.10122804 0.041702338
000350 9d 6b 5c 3d 95 44 1e 3c 95 ae 71 bc 84 f6 16 be
       0.053813566 0.009659906 -0.014751096 -0.14742476
000360 bd cc 7b 3d d6 e7 0f 3d 79 6c 86 bd 68 a6 73 bc
       0.06147455 0.035133205 -0.06563658 -0.014871217
000370 ff ff 3a bd 56 ff b4 bc 31 85 33 bd a8 90 73 3c
       -0.045654293 -0.02209441 -0.043828193 0.014866032
000380 10 44 54 bd 86 64 86 bc aa ba 28 bd 11 a6 c6 3a
       -0.051822722 -0.016405355 -0.04119364 0.0015155693
000390 7e 75 4e bc 11 29 e5 3c b2 69 44 bd 0e 5f dc 3b
       -0.0126012545 0.027973684 -0.04795236 0.0067251986
0003a0 0d e3 2e 3c 5f 7e 4e 3c 78 79 19 bc e5 10 69 bd
       0.01067425 0.012603371 -0.009367339 -0.056900878
0003b0 1c 2f c0 3c b8 39 81 3c 9e 65 68 bc 00 fd 82 3c
       0.023459964 0.015774593 -0.014184384 0.01598978
0003c0 09 d3 58 bd a8 2b 7b 3d f1 80 d3 3c 22 a7 69 bd
       -0.052935634 0.06132093 0.02581832 -0.057044156
0003d0 04 2a 05 ba a6 de 10 3d 7a 0a 42 3b 44 38 0a bc
       -0.0005079808 0.035368584 0.0029608295 -0.008436266
0003e0 c6 d8 10 3d 6a 0f ee 3c d3 fe 57 3d 67 bc 98 3c
       0.03536298 0.029060084 0.052733254 0.018644525
0003f0 c5 3c 52 3d c1 7d 9e 3d 2d 6b 57 bd c2 e1 5b 3b
       0.051327486 0.077388294 -0.052592445 0.003355131

fc2.bias f4 [256]
000000 59 f4 db bb 22 c7 58 bd 5b 16 a0 bd c5 83 13 bd
       -0.006712478 -0.052924283 -0.07816764 -0.036014337
000010 0a b8 81 bc f3 ab a7 bd ae 20 43 bd 7a c9 d1 bd
       -0.015834827 -0.081870936 -0.047638588 -0.10243507
000020 5f c6 cb bd 9c 45 c3 bc d0 81 ce bc 25 7b c8 bb
       -0.09949946 -0.023836903 -0.025208384 -0.0061181956
000030 c4 25 63 bd d5 62 a3 bc 0c 4a 71 bd 08 b7 c9 b8
       -0.055455938 -0.019944588 -0.058908507 -9.618519e-05
000040 a5 c5 18 3c 12 6b 92 bd 74 a4 4f bc ad 08 81 bd
       0.009324466 -0.07149328 -0.012673486 -0.06300483
000050 f1 fc 7c bd 81 c3 c5 bd b3 80 96 bd 25 a3 92 bd
       -0.06176466 -0.0965643 -0.07348766 -0.071600236
000060 7a af c1 bd 58 4d 4f 3c fc 15 2e bd 2c 04 4f bd
       -0.094572976 0.0126527175 -0.042501435 -0.050541088
000070 25 ed 04 bd 00 03 b0 bd 32 3e bd bc 31 e2 03 bd
       -0.03245272 -0.08594322 -0.023100946 -0.032198135
000080 1f 56 22 bd 91 a6 37 bd bc 9a 8f bd 93 f5 92 bd
       -0.039632913 -0.044836584 -0.07011935 -0.07175746
000090 65 66 a3 bd 7d 58 af bd ec 79 5a bd ca 62 bc bd
       -0.079785146 -0.085618 -0.05333893 -0.0919853
0000a0 3b e5 47 bd fc fa 52 bc e9 aa 96 bd 33 4d 0a bd
       -0.048802596 -0.012877222 -0.07356817 -0.03376503
0000b0 90 35 2a bd 1a c5 83 bd 4a 80 7b bd 72 0d d6 3b
       -0.041554987 -0.064340785 -0.061401643 0.0065323645
0000c0 b9 d2 43 bd 0f cb 35 bd 84 59 36 bd 23 3e 22 bd
       -0.047808383 -0.044383105 -0.044518963 -0.03961004
0000d0 65 3a cb bc 7e 1f 3a bd 52 68 35 bd f5 58 9e bd
       -0.024808118 -0.04544019 -0.04428894 -0.07731811
0000e0 d7 59 fd bc 1e 71 44 bd 4a 97 3c bc 6b 38 8b bd
       -0.030926628 -0.04795944 -0.0115106795 -0.0679787
0000f0 8f ee 17 bd ad f4 89 bd eb 93 13 bd 59 dc 9e bd
       -0.03709274 -0.06736121 -0.036029737 -0.07756872
000100 38 b2 9d bc 61 59 d5 bc 66 c5 6a bd d6 31 55 bd
       -0.01925002 -0.026043596 -0.05731716 -0.05204948
000110 a6 59 5d bd 74 a6 68 bd 00 b3 7c bd 7e 36 9e bd
       -0.054040574 -0.056799367 -0.061694145 -0.07725237
000120 ee 67 8c bd e5 8c a4 bc 1f b0 c8 bb 1f 15 a5 bd
       -0.068557605 -0.020086715 -0.006124511 -0.08060669
000130 1e 3d b4 bd 82 6a 1c bd 0d 86 00 3c 29 cb a8 bd
       -0.0880072 -0.03818751 0.00784446 -0.08241875
000140 94 1d 1c bd a1 97 35 bd 9a d9 40 bd f9 86 fd bc
       -0.038114145 -0.044334058 -0.04708252 -0.030948149
000150 2f 52 0f be fe 1d 9e bd e3 9d 7f bd 9a 24 11 bd
       -0.13996194 -0.07720564 -0.062406432 -0.035435297
000160 97 d7 47 bd 4c 46 5c bd 1e 4c 20 bd 13 86 6e bd
       -0.048789587 -0.053777978 -0.03913509 -0.058233332
000170 d9 bb 8c bd 6e 16 0a bd c9 5b 08 bd e2 6a 75 bc
       -0.068717666 -0.033712797 -0.03329066 -0.014979096
000180 e3 9b 80 bd c9 e8 70 bd 18 d1 9c bd 2d bc a2 bd
       -0.06279733 -0.05881575 -0.07657069 -0.07946048
000190 f5 19 19 bd 6d 44 86 bd 3c b2 97 bc 0b ea 00 3c
       -0.03737827 -0.0655602 -0.018517606 0.0078683
0001a0 84 07 06 bd c0 78 96 bd b4 ba 51 bd f7 eb ba bc
       -0.03272201 -0.0734725 -0.051203445 -0.022817595
0001b0 4d 7d b3 bd 95 24 26 bd f0 7a 99 bd 86 3e b2 bd
       -0.087641336 -0.04056223 -0.074941516 -0.08703332
0001c0 39 85 d1 bc 1d 29 8b bc 05 57 b6 bc 38 e4 df bc
       -0.02557622 -0.016987378 -0.022258291 -0.027330503
0001d0 68 a7 3b bd e9 7b b2 bb dd 35 59 bc ab 53 65 bc
       -0.045813948 -0.0054469 -0.013257471 -0.013996999
0001e0 df 02 88 bd f0 32 83 bd 66 b5 d8 bd a4 59 15 bd
       -0.066411726 -0.064062 -0.10581474 -0.03646244
0001f0 ac f3 4b bd 2d 9d 64 bd ee c6 8a bd 08 52 92 bc
       -0.04979293 -0.055813957 -0.06776224 -0.017861381
000200 c1 86 a7 bd b7 57 18 bd 75 1d 36 bd c8 e6 aa bd
       -0.08179999 -0.037193026 -0.044461686 -0.08344799
000210 29 35 59 bd ef f5 5d bd c4 ce 02 bd d9 7e 79 bd
       -0.053029213 -0.05418962 -0.03193547 -0.060911987
000220 e6 74 ad bc 7a 42 2c bc d5 cf 8c bd 53 b9 9d bd
       -0.021173906 -0.010513896 -0.06875578 -0.077013634
000230 b1 c0 12 bc 55 a6 b2 bd 08 b2 6a bd 6b 41 46 bd
       -0.008957074 -0.087231316 -0.05729869 -0.04840223
000240 53 95 f5 bb a1 bc 28 bd e1 16 dd bc a3 5d 83 bd
       -0.0074946075 -0.041195516 -0.026988449 -0.06414344
000250 56 6a 4a bc f0 c8 96 bb 75 bb f7 bc 50 8c a5 bb
       -0.012354454 -0.0046015903 -0.030240754 -0.005052127
000260 29 a3 84 bd 85 8d ef bc 30 22 44 bd f9 ba f5 bc
       -0.06476433 -0.029242286 -0.047884166 -0.029996382
000270 7b b3 89 bd 0c cc 64 bc 2c 9c 54 bd 7e 71 30 bd
       -0.06723686 -0.013964664 -0.05190675 -0.043076985
000280 f1 d7 a6 bc d0 72 83 bd a8 13 cc bd 5b 40 82 bd
       -0.02036664 -0.06418383 -0.09964687 -0.06359931
000290 28 b9 84 bd 8e 5b a6 bd ca 83 ac bd b6 3d bb bd
       -0.06480628 -0.081229314 -0.08423574 -0.0914263
0002a0 ef 22 00 bd 96 27 ab bd 93 e8 ff bc 9e 96 81 bd
       -0.031283315 -0.0835716 -0.03123883 -0.06327556
0002b0 15 56 87 bd c1 dc 82 bd f6 61 73 bd d9 9e 87 bd
       -0.06608216 -0.06389762 -0.059419595 -0.06622095
0002c0 97 27 9b bc e1 af 2e bd 39 8d 97 bd 25 4d 55 bd
       -0.018939776 -0.0426482 -0.07399983 -0.052075524
0002d0 a1 5e 9a bd 54 ca 2e bc 3f 58 51 bd a4 e2 19 bd
       -0.0753758 -0.010668356 -0.05110955 -0.037569657
0002e0 4e 33 ae bd db 1d 7d bd 5c 3e 37 bd 36 e7 e0 bd
       -0.08505879 -0.06179605 -0.044737205 -0.109816
0002f0 d1 4b 37 bd 8f dc 81 bd 1a e7 96 bd 9d 18 53 bc
       -0.04475004 -0.06340896 -0.07368298 -0.012884286
000300 b4 32 72 bd f4 77 31 bd 26 7e cb bc cd cb 45 bd
       -0.059130386 -0.043327287 -0.024840426 -0.048290063
000310 e7 5c 7f bd 82 5d a4 bd 6d 57 02 bc 34 c3 19 bc
       -0.062344458 -0.08025648 -0.007955414 -0.009384919
000320 d4 65 9d bd 68 06 ac bd c2 4c 48 bd 61 2a 90 bd
       -0.07685438 -0.083996594 -0.048901327 -0.07039333
000330 69 ab 6a bb 0c f6 b1 bd 20 8a 2d bd 52 7b 09 bd
       -0.0035807735 -0.08689508 -0.042368054 -0.033564873
000340 b6 6a 31 bd b0 a9 63 bd 4a e0 b9 bc 4f 64 56 bd
       -0.043314658 -0.05558175 -0.022689957 -0.052341755
000350 b3 02 de bb a6 18 6f bc 2e 3f 2c bc 02 ff af bb
       -0.006775224 -0.014593279 -0.01051311 -0.0053709755
000360 57 8c a1 bb db ce 32 bd 38 fe 87 bd 4b ab 5e bd
       -0.00493006 -0.043654304 -0.06640285 -0.054362576
000370 2f 91 9f bc b1 5e f0 bb d8 d2 92 bc a8 92 11 bd
       -0.019478409 -0.007335507 -0.017922804 -0.035540253
000380 61 b1 90 bd 15 68 b1 bd f3 b9 a7 bd 46 07 c5 bc
       -0.07065082 -0.0866243 -0.08189764 -0.02405132
000390 7c 92 4d bd 39 96 83 bd 2c 5b 5c bd b5 99 fc bc
       -0.050188527 -0.06425137 -0.053797886 -0.030835012
0003a0 71 fa 2d bc df a3 91 bc 93 26 9a bd b2 42 99 bd
       -0.010618792 -0.017778335 -0.07526889 -0.07483424
0003b0 91 cf b4 bc 91 76 30 bd 6d 6a 83 bd d6 04 60 bd
       -0.022071632 -0.043081824 -0.064167835 -0.054692112
0003c0 c2 41 95 bb 48 8b 58 bc 04 5a 72 bd ba 1b ab bd
       -0.004554958 -0.013216801 -0.059167877 -0.08354898
0003d0 c5 1c a4 bc 48 5a fb bc 40 3b 36 bd 61 49 c3 bd
       -0.02003325 -0.030682698 -0.0444901 -0.0953548
0003e0 8e a0 07 bd 83 2f 85 bd 65 39 bb bd 59 20 bd bc
       -0.0331121 -0.06503203 -0.091418065 -0.023086714
0003f0 3c 99 78 bc da fe 3e bc f8 84 9d bd a5 e4 31 bd
       -0.015173253 -0.011657441 -0.076913774 -0.043430943

fc3.weight f4 [1, 256]
000000 11 cb 88 3c ee 88 c1 bc 1e a8 92 bc e2 7d b5 bb
       0.016698392 -0.023624863 -0.01790243 -0.005538688
000010 1a 3c 46 bc 1e 62 83 3c 6e af 31 bc 6d ec 64 bc
       -0.01209929 0.016037997 -0.010845048 -0.013972384
000020 81 a0 6f 3d 50 b8 23 3c 5a d1 5a bc cd 69 20 bc
       0.058502678 0.009992674 -0.013355577 -0.00979085
000030 6d 1f d1 3b 6e 3e ae 3b 4d 27 04 bc be a1 61 3c
       0.00638192 0.005317501 -0.008066011 0.0137714725
000040 5d 04 37 3c 66 2c 82 3c 04 05 68 bc 17 5f 39 bc
       0.011170474 0.015890311 -0.014161352 -0.011314175
000050 d5 d7 c0 bc 49 35 c3 3c 7c c3 6d bc be 5f 45 bc
       -0.023540417 0.02382912 -0.014511939 -0.0120467525
000060 12 f8 84 bc 14 7d a6 bb 32 df 97 bc c6 9e 91 bc
       -0.01623157 -0.0050808284 -0.018539045 -0.017775904
000070 a7 3b 3e bc 2b 5f 4f 3c 84 33 46 3c 4c 43 fe bb
       -0.011610902 0.012656967 0.012097243 -0.0077594873
000080 7c 6c 13 3c 91 4d 93 bc b8 66 07 bd 50 c2 03 3c
       0.008998033 -0.017981322 -0.033056945 0.008041933
000090 7e ab 36 3c 0b c4 8c bc 94 83 0f 3d d5 ac ed bc
       0.011149285 -0.017183324 0.035037592 -0.029013077
0000a0 a4 32 35 3c 06 97 dc 3b 87 b3 d3 bc 62 95 0b 3c
       0.011059437 0.0067318706 -0.025842441 0.008519502
0000b0 75 9f ac 3b 8f 1e 13 3c 36 e9 26 bc dc 27 0e 3c
       0.005268032 0.008979454 -0.010187438 0.008676495
0000c0 5f 5f 2e 3c 8f a8 f0 3b 0f 84 0e bc 9d 48 93 bc
       0.010642855 0.0073443125 -0.008698477 -0.01797896
0000d0 f7 44 3e bc 00 e2 3b 3c ce fd 36 3c e6 86 ef bc
       -0.011613122 0.011467457 0.01116891 -0.02923913
0000e0 f8 fe e0 3c f6 fd 66 bc e4 fc fd 3b e9 d7 7a bc
       0.027465329 -0.014098635 0.007751094 -0.015310266
0000f0 26 63 28 3c b2 a5 94 3c 43 5d d5 3b d0 df 22 3c
       0.010277545 0.018145416 0.006511362 0.009941056
000100 fb 77 eb 3b 0d b4 3f 3c 54 6d 83 bc ea 1e 2b bc
       0.0071859336 0.011700642 -0.016043343 -0.010444382
000110 e0 5a f2 bb 2f 11 06 3c 04 32 25 bc e1 a6 36 bc
       -0.007396087 0.008182808 -0.010082725 -0.0111481855
000120 90 c8 df 3c 77 fb 7b 3c af 90 6d bc e6 d2 0f 3d
       0.027317315 0.015379778 -0.014499827 0.035113238
000130 a6 4a a2 bc 38 23 b1 3c 0f ea 1c bc 8a a5 31 bc
       -0.019810986 0.021623239 -0.009577288 -0.01084269
000140 cc 43 df bb 96 80 f2 bc 4f 84 83 3c 57 47 f6 bb
       -0.006813502 -0.02960233 0.0160543 -0.0075158286
000150 26 12 71 3d 90 22 ab 3c ae 43 47 bc 35 17 91 bc
       0.0588552 0.020890504 -0.012162132 -0.017711261
000160 e5 28 d2 bc bc 5a 71 bc 61 fb c1 3b b9 8e 13 bd
       -0.025654266 -0.014731105 0.0059198593 -0.036024783
000170 40 39 f4 bb a6 24 d5 3b f3 b2 29 bc bf 30 48 bc
       -0.007453114 0.006504613 -0.010357606 -0.012218653
000180 7e c0 8d 3c 3e dc db bb 10 1a 19 3d 6d 75 5b bc
       0.017303701 -0.0067096045 0.03737837 -0.013394696
000190 0d 86 4b bc 47 bd 59 bc a9 15 95 bc f3 1d cc 3b
       -0.012422097 -0.013289756 -0.018198805 0.006229156
0001a0 f7 2b 6b bc 4c 28 93 bc a8 ec 84 3c 95 e7 c5 bc
       -0.014353744 -0.017963551 0.016226128 -0.024158278
0001b0 b4 f8 7e bb a4 8f 2d 3c 93 7e 20 3c 50 e8 2c bc
       -0.0038905563 0.010593329 0.009795803 -0.0105534345
0001c0 6d bf 57 bc 87 88 11 bc fe 22 44 3c e9 65 7f bc
       -0.013168198 -0.008882648 0.011971233 -0.015588262
0001d0 95 5e 0a 3c 83 0b 40 bc 65 1d d0 3b cb 95 16 bc
       0.008445402 -0.011721495 0.0063511604 -0.009190987
0001e0 a0 f9 60 bc 50 0c fd 3b a0 36 cc bc f0 99 17 bc
       -0.01373139 0.007722415 -0.024928391 -0.00925301
0001f0 6b d5 85 3c ff 47 7e bc 42 ef cc 3c 80 16 b5 bc
       0.016337117 -0.015520095 0.02501643 -0.022105455
000200 89 0b 00 3d 81 cc 00 bc ea 66 2d 3c d6 08 48 3c
       0.031261 -0.0078612575 0.010583619 0.012209138
000210 82 10 a0 3c 13 fe 51 3c 84 66 ae 3c 52 ee 2f 3c
       0.019539122 0.012816924 0.021289118 0.010737972
000220 c2 5b 0f 3c 0d 31 13 3c 56 c0 39 3c 9c 43 ba bb
       0.008749904 0.008983863 0.01133736 -0.005684329
000230 28 99 54 3c e6 b5 01 3d 29 c0 3f 3d 28 d1 97 3d
       0.012975968 0.031667612 0.046814118 0.0741294
000240 86 19 04 3c 37 36 f4 bb ef d9 83 bc 15 c6 03 3d
       0.008062726 -0.007452752 -0.01609513 0.032171328
000250 39 a0 fb 3b df 41 18 bc 59 94 3b 3c c2 27 2b bc
       0.007679012 -0.009293049 0.011448943 -0.010446491
000260 d5 fa 6a 3c 31 af 27 bc da ec 0b 3d 7d 0e 71 3c
       0.01434203 -0.01023464 0.034161426 0.014712927
000270 30 86 36 bc 4f 90 ec 3b d4 35 cf 3b 1a 6a 89 3c
       -0.011140391 0.0072193514 0.0063235555 0.016774226
000280 a2 34 19 bc 71 8a b4 3c 75 ed c4 3c 81 7e 2b 3c
       -0.009350928 0.02203867 0.02403901 0.010467173
000290 49 dc 49 bc f8 21 80 bc 5f bd ba bc 4b 1e b1 bc
       -0.0123205865 -0.015641198 -0.022795377 -0.02162089
0002a0 2d 72 4e 3c eb b0 48 3c 90 5f 5a 3c e1 ae 48 3c
       0.012600464 0.012249212 0.013328448 0.012248726
0002b0 27 a0 99 bc a2 d8 71 3c 8d 6e 5e bc 43 53 e6 3c
       -0.018753124 0.014761122 -0.013576162 0.028115874
0002c0 ec f8 e6 3b a4 af 5f bc 7b 3b 51 3c 54 e8 00 bc
       0.007048717 -0.013652716 0.012770529 -0.007867891
0002d0 75 a3 86 bc 84 20 01 3c ab 30 2e 3c 78 76 8d 3c
       -0.016435364 0.0078812875 0.010631721 0.017268404
0002e0 60 9b 65 3c 31 e1 f3 3b b6 ad fa bb 8e 96 0b 3d
       0.014014095 0.0074426164 -0.0076501025 0.034079127
0002f0 5f de 15 bc 6d ae 36 bc b1 ae 8b bc 9b 9d 15 bc
       -0.009147256 -0.011149985 -0.017051073 -0.009131814
000300 be de 02 bc c8 a2 02 bc 84 7b 18 bc 85 6b 16 3c
       -0.007987676 -0.00797338 -0.009306792 0.009180908
000310 f5 8a 99 3c 11 ea 84 bc 17 9a d0 3b 69 65 86 3c
       0.018743018 -0.016224893 0.006366025 0.016405778
000320 1d a3 09 bc eb af 86 bc a4 55 71 bc d0 b2 03 bd
       -0.008400706 -0.016441306 -0.014729891 -0.03215295
000330 8c 70 3b bc af a1 f7 bc 65 9f 33 3d 86 1b 7f bc
       -0.0114404075 -0.030228464 0.043853182 -0.015570527
000340 5c 42 e8 bb 80 db a3 bc e6 4d 5f 3c 66 5e a6 3b
       -0.007087989 -0.020002127 0.013629412 0.005077171
000350 69 63 07 3c a9 e5 09 bc ea 2f 00 3c 2a ff b8 3b
       0.008263447 -0.008416572 0.007823924 0.0056456523
000360 c0 cb cb bb 7f 9d 81 bc 69 20 06 3c 54 d5 cd 3c
       -0.0062193573 -0.01582217 0.008186438 0.025126137
000370 2e 7f a5 3c 22 5d 10 3c 1c f5 4e bc 3a cb 61 3c
       0.020202246 0.008811267 -0.012631681 0.013781363
000380 ed c5 bc bb 63 2a 87 3c 17 92 4e bc fb 0e b4 bb
       -0.0057608993 0.016499704 -0.012608073 -0.00549495
000390 cc 93 ba 3c a1 d9 cf bb 05 02 b0 3c eb 5c 75 bc
       0.022775553 -0.006343082 0.021485338 -0.014975767
0003a0 67 1c 4b 3c 91 9e 40 bc f9 03 dd 3c d1 15 62 3c
       0.012396908 -0.011756555 0.026979433 0.013799147
0003b0 46 99 31 3c 5f 1d 09 3c e5 8d 3d bc 96 18 7e 3c
       0.010839766 0.008368819 -0.011569475 0.015508791
0003c0 70 e7 44 bc 73 fc e1 3b 64 8c 61 3c 70 8f 8a 3c
       -0.01201807 0.0068965494 0.013766382 0.0169141
0003d0 a8 11 d1 3c b6 ec 23 bc e9 ad 78 bc 3d cf 94 bc
       0.025521114 -0.010005167 -0.015178182 -0.018165225
0003e0 e5 39 2e bc ca a2 83 bc 0a 83 a7 bc 98 c8 1e bc
       -0.01063392 -0.016068835 -0.020448226 -0.00969138
0003f0 c5 ec ac 3b 5a 7a 34 3c e7 5e ea 3b 88 f1 77 bc
       0.0052772486 0.011015499 0.0071524265 -0.015133269

bn1.weight f4 [512]
000000 9a 77 51 3e dd 96 33 3e 2f 3a 73 3e c2 e5 e9 3e
       0.2045578 0.17538019 0.23752664 0.45683104
000010 8d 68 08 3d ee fb 1d 3f 09 a6 1e 3f 89 fc fc 3e
       0.033302832 0.6171254 0.619721 0.4941142
000020 11 cc 13 3f ec 28 1b 3e 10 34 e6 3e f9 94 3b 3f
       0.57733256 0.15152329 0.44961596 0.7327419
000030 ae 26 95 3d 00 9e 07 3f 27 83 05 3f 62 e3 22 3f
       0.07282768 0.52975464 0.5215325 0.6362821
000040 42 27 4d 3d ba d8 8e 3e 75 e8 52 3f ed 84 06 3f
       0.050086267 0.27899724 0.8238595 0.5254658
000050 4a 7c 52 3f f2 3a bb 3e 24 f4 b9 3e 2c b0 3d 3f
       0.822209 0.3656841 0.36319077 0.7409694
000060 91 c7 26 3f 27 9d 28 3f d3 25 83 3e 8b f4 08 3f
       0.65148264 0.65864795 0.25614795 0.5349814
000070 e4 d2 f2 3d d1 8a b5 3d 9e 38 79 3e 60 46 18 3f
       0.118566304 0.08864368 0.24338004 0.59482384
000080 79 6a 41 3e 4b 62 3c 3f f1 9a 9c 3e bf 7b 17 3f
       0.18888272 0.73587483 0.3058696 0.59173197
000090 26 ae 25 3f 70 02 3f 3f ef c5 9c 3e b5 d6 04 3f
       0.64718854 0.74613094 0.3061976 0.51890117
0000a0 3e 1f 38 3f 16 cf 06 3f 2f bb c3 3d ff 56 1c 3e
       0.7192267 0.5265974 0.09557187 0.15267561
0000b0 67 3e 20 3f 68 cc 43 3f 8b c5 2b 3f 66 da 59 3f
       0.6259522 0.76483774 0.670983 0.85098875
0000c0 d2 53 43 3f 4b f8 01 3e 61 ed 8b 3e 29 a2 83 3e
       0.76299775 0.12692373 0.27329543 0.25709656
0000d0 47 68 f0 3e bd 44 05 3f b4 bc 7d 3d ab cd 9b 3e
       0.46954557 0.5205801 0.06194754 0.3043035
0000e0 ff 27 27 3f ba 93 1e 3f 73 da 11 3f 24 22 1a 3f
       0.65295404 0.6194416 0.5697395 0.60208344
0000f0 c4 26 be 3e 9f 0b 15 3f 43 f6 60 3f 6a 55 56 3f
       0.3713895 0.5822086 0.87875766 0.8372408
000100 4c 79 01 3f 71 03 4f 3f e6 3c 2c 3f 18 c5 1c 3f
       0.5057571 0.80864626 0.67280424 0.6123824
000110 d1 23 11 3f 91 8f 06 3e 79 2f 83 3e e1 b1 56 3f
       0.56695276 0.13140704 0.25622156 0.8386517
000120 60 1d 53 3f 6d 58 2f 3f e5 37 02 3f e7 e4 5e 3f
       0.824667 0.684943 0.5086654 0.8706803
000130 e5 7f 1a 3f 62 d2 b2 3e f4 6f 3d 3f ac 36 04 3f
       0.603514 0.34926134 0.7399895 0.5164592
000140 90 fe e7 3e 4a 70 82 3e 74 a9 a4 3e f0 4e 94 3e
       0.45311403 0.25476295 0.32160532 0.28966475
000150 a2 d6 43 3f d7 d7 29 3f 4d ab be 3e 06 32 41 3f
       0.7649938 0.6634497 0.37240067 0.75466955
000160 4f 91 b7 3e a6 37 2e 3e 7d e3 40 3f db 61 46 3f
       0.3585305 0.17013416 0.7534712 0.77493066
000170 6e 80 3b 3f 21 47 d0 3e 3f 4b fe 3d 50 09 22 3f
       0.73242843 0.40679267 0.12416696 0.6329546
000180 5d 8c 2b 3f 8a ce 25 3f 79 0b fc 3e 67 be 6e 3e
       0.6701105 0.6476828 0.49227503 0.2331482
000190 f4 fe 55 3f e9 06 38 3f 4b d7 49 3f 32 24 58 3e
       0.8359215 0.71885544 0.78844136 0.21107557
0001a0 65 36 3d 3e 5a 70 9c 3e 00 59 34 3f 51 98 d6 3d
       0.18477781 0.30554467 0.70448303 0.10478271
0001b0 39 74 2c 3f 6f 52 3e 3f 79 9f 38 3f 32 92 7e 3e
       0.6736484 0.74344534 0.72118336 0.24860457
0001c0 d1 f6 59 3f b8 ce 04 3f db d7 44 3f 06 7e 3c 3f
       0.85142237 0.5187793 0.7689187 0.73629797
0001d0 37 93 49 3f 03 6a 2b 3f 1b b2 4b 3f e1 a7 df 3e
       0.7874026 0.66958636 0.7956864 0.4368277
0001e0 3b 83 2c 3f a5 5d 18 3f c2 02 ea 3d 5d 26 2d 3f
       0.6738774 0.5951789 0.11426307 0.6763666
0001f0 0c 6e 09 3f 3c 96 c4 3e 46 f2 44 3f 8b a1 d0 3d
       0.53683543 0.3839587 0.7693218 0.10187062
000200 b0 70 13 3f 3b 62 3e 3f ff 8b cc 3e ac 6b 97 3e
       0.5759382 0.7436864 0.3995056 0.29574335
000210 a9 1c db 3d fb ee c7 3e a4 65 3b 3f a4 ca 3c 3f
       0.10698826 0.39049515 0.73201966 0.73746705
000220 75 df ab 3e 4d d0 6d 3e 78 35 21 3f e2 34 0b 3f
       0.33568922 0.23223992 0.6297221 0.5437757
000230 5c d3 39 3f 79 77 03 3e 57 97 59 3f 6c d9 56 3f
       0.72588134 0.12838544 0.8499655 0.8392551
000240 9a 0d b0 3e 36 89 1f 3f 52 de e7 3e 14 bd f6 3e
       0.34385377 0.6231874 0.45286804 0.4819113
000250 9c 7d 5e 3f c5 c3 1e 3f bc e3 0b 3f b5 7b 4f 3d
       0.86910415 0.6201747 0.5464437 0.050655086
000260 c3 23 61 3f 2e 02 7d 3e c4 d3 11 3e 47 37 ae 3e
       0.87945193 0.24707863 0.14240938 0.34026548
000270 c0 55 40 3f 70 9d d5 3e 77 69 36 3d 26 90 d0 3e
       0.75130844 0.41721678 0.044534173 0.40734977
000280 34 17 0d 3e e2 c4 3e 3f a4 10 57 3f 19 0a df 3e
       0.13778383 0.7451917 0.84009767 0.4356239
000290 d3 1e 48 3f be a6 92 3e 40 03 12 3f 7f f4 e1 3e
       0.78172034 0.2864284 0.5703621 0.44131848
0002a0 77 4f e1 3e c1 11 27 3f e4 56 cb 3d 65 50 d2 3e
       0.4400594 0.65261465 0.099286824 0.4107696
0002b0 2c 11 e4 3e 4e 8d 0f 3f ab c7 52 3f b5 22 4a 3f
       0.4454435 0.5607499 0.8233592 0.7895921
0002c0 35 3f e4 3e 97 06 1b 3f 12 c3 5f 3f 9a 97 8e 3e
       0.44579473 0.6055693 0.8740703 0.27850038
0002d0 5a d7 b1 3e d5 a1 a5 3e 28 16 cb 3e e8 7e 15 3f
       0.34734613 0.3235003 0.3966534 0.5839677
0002e0 f1 42 9e 3d 88 60 6c 3f 09 cd b0 3e 46 d7 f1 3d
       0.07727612 0.92334795 0.3453143 0.11808638
0002f0 27 f8 55 3f bd 10 06 3f eb a0 a9 3e 79 7c 30 3f
       0.83581775 0.5236929 0.33130583 0.6893993
000300 ef 0f 7b 3e 0a 07 ca 3e 99 ef 22 3f 24 86 fc 3d
       0.24517797 0.39458495 0.63646847 0.12330273
000310 89 2f f7 3e c6 9d 2f 3f 1a d6 46 3f 44 63 22 3f
       0.48278454 0.6860012 0.77670443 0.6343272
000320 8f 1b 32 3f e4 d3 a4 3e e7 0a f2 3e a3 38 3b 3f
       0.695733 0.3219291 0.47273943 0.73133296
000330 06 70 1a 3f 2b af e4 3d bc a3 0b 3d 9e 3e a3 3e
       0.60327184 0.11166223 0.034091696 0.3188371
000340 83 da 40 3e dc 47 eb 3d a4 2d e2 3d bd 1c 03 3f
       0.18833356 0.114883155 0.110438615 0.51215726
000350 31 89 26 3f 41 a9 9c 3e 3c 5d 5a 3f 44 56 8e 3e
       0.6505309 0.3059788 0.85298514 0.2780019
000360 79 da 19 3e e7 5c 04 3f f2 9f 08 3f 7d 8d 9e 3d
       0.15024747 0.5170426 0.5336906 0.077418305
000370 a1 0e b5 3e 7a f2 03 3f bd 73 07 3f e5 d4 db 3d
       0.35362723 0.51541865 0.5291098 0.10733966
000380 9b f7 38 3f 2f e8 0b 3f 7e c6 f1 3d 70 78 89 3d
       0.72252816 0.5465116 0.118054375 0.06712425
000390 95 ed 5f 3f 4e 2d 3d 3f d1 87 b2 3e 1e 73 46 3e
       0.87471896 0.73897254 0.34869245 0.19379851
0003a0 7f ef 33 3e c8 1e 3f 3f 24 a9 c7 3e 27 78 08 3f
       0.1757183 0.74656343 0.38996232 0.5330834
0003b0 35 4c 3d 3f 7a 7f 04 3f 4f ae 01 3f 72 40 46 3e
       0.7394441 0.51757014 0.506566 0.19360521
0003c0 8e 21 3a 3f 69 8e bc 3c b2 68 e6 3d 81 b5 7d 3f
       0.7270745 0.023017125 0.11250438 0.9910508
0003d0 ce 2c 0f 3e e9 fc 87 3e 29 99 48 3f c8 8d ff 3e
       0.13981935 0.26560143 0.78358704 0.49912858
0003e0 a8 f4 01 3f 26 85 92 3e af fb 37 3f 41 d9 f2 3e
       0.5076394 0.2861721 0.71868414 0.47431377
0003f0 da 1b 8d 3e ec 87 42 3f 3b fe 5d 3f 70 2f 3e 3f
       0.27560312 0.7598865 0.8671605 0.74291134

bn1.bias f4 [512]
000000 08 d5 98 bd 24 21 16 3e ee df f3 ba d3 2a c5 3d
       -0.074625075 0.1466108 -0.0018606165 0.09627309
000010 27 ad 63 3d 07 58 d5 bd e0 17 6a 3e 42 0b 14 3d
       0.055585053 -0.104171805 0.2286067 0.03614355
000020 85 83 09 3c 6f 80 29 3d b0 ad 91 3d 19 1a b0 3d
       0.008393173 0.04138225 0.071132064 0.08598728
000030 2e ce 94 bc 5b 41 88 bd 68 97 ca bc 9e 91 06 bd
       -0.01816472 -0.066530906 -0.0247304 -0.032853715
000040 1e 25 4b be 86 76 25 bd d1 c7 da bd 4d 9c bd 3d
       -0.19838378 -0.040396236 -0.10682643 0.09258328
000050 ea 10 88 bd bd 21 6d 3d 3f f9 9f 3d d0 31 a9 3d
       -0.06643851 0.057893503 0.07811212 0.08261454
000060 ea 3b 7b 3d b6 14 95 3d a3 39 7a 3d 16 02 93 3d
       0.061336435 0.07279341 0.061090123 0.07178132
000070 3c 12 95 39 aa b8 10 be 77 03 1e bc 9d 4c b3 3d
       0.0002843308 -0.14132944 -0.009644381 0.08754847
000080 fd 3f 14 3d b3 30 13 3e 2a 60 f5 3d a9 0b dd 3d
       0.036193836 0.14374046 0.119812325 0.107932396
000090 84 fb f4 3c 69 52 ba 3d 96 8b 96 3d 25 fa fd bc
       0.029905088 0.0909775 0.07350843 -0.031003067
0000a0 e9 01 07 bd 05 4c ee 3b fe 64 8c 3d 65 8e 13 3d
       -0.032960806 0.007272246 0.068552 0.03602447
0000b0 26 ab 00 3c 26 90 8f bb a9 50 49 bd d9 9f d6 3d
       0.007853305 -0.0043811975 -0.04914919 0.10479707
0000c0 57 33 86 bc cd ca b5 bd e9 41 19 3e 1d 9d 1e 3e
       -0.016381903 -0.08876572 0.14966549 0.15489621
0000d0 51 94 14 3e 83 cc ec 3d f9 fc 5d bd 15 2c 21 3d
       0.14509703 0.11562445 -0.05419633 0.03934868
0000e0 44 0c 74 3d 35 22 b2 3d 1f 34 da 3d 4f 86 b2 3d
       0.05958201 0.08697931 0.106544726 0.087170236
0000f0 f2 eb cd 3d 24 30 a0 bc 73 4e 31 3d c4 4f 93 3c
       0.100547686 -0.019554205 0.043287706 0.017982371
000100 b0 24 84 3d 7a 9c c1 3c 5a bb 06 3e 3a 7f b3 3d
       0.0645231 0.023634184 0.13157406 0.08764501
000110 0b ad 07 3e 81 4a 44 bd 92 e5 bd bc 75 57 2e bd
       0.13249604 -0.047922615 -0.023180757 -0.042563874
000120 f3 88 25 3d 13 ca 38 3d 02 97 a4 3c d9 29 b2 3d
       0.040413808 0.045114588 0.020091537 0.08699388
000130 d1 02 a6 3d c9 cd 43 3d 23 43 92 3d db 37 7c 3d
       0.08106006 0.047803674 0.071417116 0.061576705
000140 25 ec ad 3d ec e6 e6 bd 8b 35 c9 bb 82 4b 6e 3d
       0.084923066 -0.112745136 -0.006140416 0.05817748
000150 a7 6a 86 bd 20 15 89 3c c8 8e 22 bd ad 26 4c 3a
       -0.06563311 0.016733706 -0.039686948 0.00077877456
000160 ce 45 fa 3d 9d ec a6 bd 39 a0 98 3d 77 1f 65 bd
       0.122203454 -0.08150599 0.07452435 -0.05593821
000170 ea be 98 3d 89 91 25 3d 0c ba 75 bd 1b 29 1e 3b
       0.07458289 0.040421996 -0.05999188 0.0024133387
000180 ad 24 bd 3d ff f9 e0 3d d0 62 25 3a d0 ac a3 3b
       0.09235511 0.10985183 0.00063089747 0.004994966
000190 e8 d0 4b bd 78 9d ff 3d ea 03 f8 3c 91 cd 5a bc
       -0.049759775 0.12481207 0.030275304 -0.013354675
0001a0 bf 9d a5 3d af c1 ed 3c cd 15 99 3d 23 fb 1d be
       0.08086728 0.02902302 0.07474861 -0.15427832
0001b0 95 ad c5 3c 02 bc 9a 3d f0 71 38 bb 00 25 7c 3b
       0.024130622 0.07555391 -0.0028144084 0.0038474202
0001c0 ca 90 05 bd 62 94 f4 bc 1e 64 cd 3d 77 fd 1e 3d
       -0.032608785 -0.02985591 0.100288615 0.03881594
0001d0 57 d8 fd 3c e3 da 33 3d 64 88 f1 3c 35 67 3c bd
       0.030986948 0.04390992 0.029483981 -0.045996863
0001e0 1f 7e eb 3c 64 a8 88 3d dd ea 24 be 21 a5 fe bc
       0.028746663 0.06672743 -0.16105218 -0.031084599
0001f0 15 6c d6 bd 59 52 49 3d 3d a7 d5 3d 5e 2a 06 3e
       -0.10469834 0.0491508 0.10432289 0.131021
000200 6e cb ed 3d eb 2f 06 3e 71 06 8d 3d 07 03 95 bd
       0.11611067 0.13104217 0.06885994 -0.07275968
000210 48 5d f1 bc 18 81 69 3d 0f d9 d9 3d a7 37 a7 3d
       -0.029463425 0.05700788 0.10637104 0.08164912
000220 8d 80 db bc 0a 4f ce bb 34 36 24 3e 56 6e 95 3d
       -0.026794696 -0.0062960433 0.16036302 0.072964355
000230 de 5c 7c 3d 78 8a 87 bd 88 d8 5f 3e 0e 7a 8b 3d
       0.061612003 -0.06618208 0.21859944 0.068103895
000240 5e ca 05 bc 4d 9f 3e 3d a5 29 cc 3d dc 4d df 3c
       -0.008165924 0.04653864 0.099688806 0.027258806
000250 20 9a fb 3d 74 03 80 3d ae b1 eb 3d 9e f6 60 bc
       0.122852564 0.06250659 0.11508499 -0.013730673
000260 97 76 42 bd c7 b6 79 3d 08 3a c9 bd 2a ec be 3d
       -0.047476377 0.060965326 -0.09825522 0.093223885
000270 50 73 fb 3d de f2 c5 3d 47 a0 1d be 57 9e 6b bd
       0.122778535 0.09665464 -0.15393172 -0.05752405
000280 9d 91 fb 3c 67 7c 22 3d 08 9c 1a 3d 86 7b 71 3d
       0.030709082 0.03966942 0.03774646 0.05895569
000290 38 e1 cc 3d 55 27 f4 bc 95 9e a6 3d 04 45 a3 3d
       0.100038946 -0.029803911 0.08135716 0.07972148
0002a0 cb 98 9d 3d 81 4b 77 3d c5 4f cd ba 6c 78 76 3d
       0.076951586 0.06037474 -0.0015664032 0.060173437
0002b0 ea eb 44 3d f9 57 aa 3d 11 0c de bd 61 b9 1c 3d
       0.048076548 0.08317561 -0.10842145 0.03826273
0002c0 ba 35 a6 3d b0 5e c9 3b 92 4f d4 3d 01 96 ba bc
       0.08115716 0.006145321 0.10366739 -0.022776606
0002d0 aa 1b 5c 3d 4a 65 f4 bc fc 97 ec bc 37 c5 8a bc
       0.05373732 -0.029833455 -0.028881066 -0.016939742
0002e0 1c 64 20 be b1 4b 92 3d 3d a9 a7 3d f9 1c ed bd
       -0.15663189 0.07143343 0.081865765 -0.11577792
0002f0 a9 25 a6 3d 25 ae 62 3d f3 43 87 3d 9d 07 9b 3c
       0.08112652 0.05534186 0.06604757 0.018924529
000300 0a 53 3d 3d d6 37 20 bb 4a 6a cc bc 75 05 35 bd
       0.04622177 -0.0024447343 -0.024953026 -0.044194657
000310 0e 4f d0 3d 25 0a 7f bc 70 8d 5f 3e 55 e4 96 bc
       0.101713285 -0.0155663835 0.21831298 -0.018419424
000320 d5 a4 69 3a 91 2b 51 bd e0 fb b0 3d 36 10 b4 bc
       0.00089128065 -0.05106694 0.08641791 -0.021980386
000330 59 8a 1f 3d 30 53 69 3e a6 c0 86 bd 79 48 02 3e
       0.038950298 0.2278564 -0.065797135 0.12722959
000340 ac 7b b2 bc 33 ca d1 3d 9d 65 9b 3e ec 0c 61 bd
       -0.021787487 0.102436446 0.30350962 -0.054943964
000350 9e c7 3b bd 72 12 d0 3d 5a 86 82 3d f3 f6 00 3e
       -0.045844667 0.10159768 0.06373282 0.12594204
000360 05 af 14 3e 83 27 52 3d ca 49 15 3e 6e 07 1e 3d
       0.1451989 0.051307213 0.1457893 0.038581304
000370 a4 aa a0 3d 72 08 cd 3c e4 bf f0 3d 4f d4 9c 3d
       0.07845047 0.025028441 0.1175535 0.07657682
000380 1e 21 d4 3d 84 6c 91 3d 86 02 2f bd 61 98 06 be
       0.10357879 0.07100776 -0.042727016 -0.13144065
000390 ef 76 dd 3d ae a8 ca bc ab 0c 47 3d 5f ce d9 3d
       0.108137004 -0.024738636 0.048596065 0.10635065
0003a0 16 ac 35 bd be 12 b5 3c 22 24 bc 3d 57 20 0c 3c
       -0.044353567 0.022103664 0.09186579 0.008552632
0003b0 7f 2a 10 bd d3 73 f6 3c 16 63 a5 bc 05 02 1d 3d
       -0.035196777 0.030084526 -0.02018885 0.038332004
0003c0 1b a2 4d bd 40 09 0e bd a7 0b db b9 e5 7b 8c 3d
       -0.050203424 -0.03467679 -0.00041779617 0.068595685
0003d0 ae bf f5 3d 5d 9f a0 3c bc af f2 3d 04 67 08 3e
       0.119994506 0.01960724 0.11849925 0.13320547
0003e0 5f 2b 22 3d 49 a6 2d 3d 52 82 af 3d e5 b5 d0 3d
       0.039592143 0.04239491 0.085697785 0.10190944
0003f0 ba 48 40 3d eb 89 4b 3e 1e 8a f3 3d 63 2b 07 3e
       0.046944357 0.1987683 0.11891578 0.13200144
