3 - Collab -MADDPG/trained_agents/maddpg_tennis_checkpoint_critic_target_0.pth (torch_old, 644556 bytes, 9 tensors)

fc1.weight f4 [512, 52]
-0.069092646 -0.03641288 -0.04436945 -0.010272821 0.028589131 0.059086673 -0.04894439 0.011069115
-0.003413307 0.016140884 0.019410785 -0.030735133 0.015084762 0.0671641 0.01708498 -0.040202934
-0.08301217 -0.052769896 0.048883244 -0.019507468 -0.037522092 0.00078535767 0.040786847 -0.009054991
-0.068042725 -0.030165799 0.013682121 0.0076958276 -0.03732456 0.08940856 -0.006794233 -0.038977783
-0.021119682 -0.070879795 0.004597107 -0.039122377 -0.012434411 0.03206779 0.004822988 -0.0047235843
-0.065262645 -0.019171141 0.023355084 -0.028224543 0.008218129 -0.018108215 -0.015916359 -0.018320054
-0.057578176 0.04125764 0.09087435 0.12867422 -0.042007085 -0.02260616 -0.015454487 0.04281099
0.03153288 0.0026038652 -0.027789764 0.0052614952 -0.07616134 -0.0828448 0.014362929 -0.11546037
0.019302178 -0.049886256 0.035216793 -0.10580296 -0.076541625 -0.030854005 -0.020864487 0.0048487354
0.00316905 -0.06689083 0.024232917 -0.011340283 0.0027645677 -0.038301528 -0.020100825 -0.01972438
-0.055831403 0.004087742 0.033802185 0.015758105 0.017352896 -0.033196274 -0.00368993 -0.03338704
-0.031364568 -0.04508876 0.009241178 -0.027971271 -0.033239715 -0.10026781 -0.023802118 0.061449397
0.01756927 -0.052382782 -0.011914848 -0.020682827 -0.13463351 0.07891965 -0.25754586 -0.11779457
0.04110986 0.06891906 -0.018263398 0.016102815 0.003344426 -0.0036171593 0.0031191285 -0.040136866
0.099381365 0.055097032 -0.021353351 -0.008543724 0.00029782308 0.04938481 0.0024581612 -0.048248004
0.04681467 0.008571489 -0.013283911 0.040719938 -0.0483984 0.061029345 -0.02190856 0.03793591
0.07118087 -0.04471547 -0.009324485 -0.056676965 0.00148537 0.05548305 -0.012216181 -0.02720427
0.044624668 -0.05845195 -0.013587844 -0.013103407 -0.040600166 -0.013563142 -0.04268305 -0.0942694
0.021624379 -0.056442272 0.029568039 -0.024536295 0.03346678 -0.010594782 -0.028155657 -0.04940814
-0.03805967 -0.2586587 0.049303796 -0.09822696 -0.02643838 -0.051587667 0.019814732 0.024006756
-0.030013341 -0.07093211 0.030663196 0.046678033 -0.057121202 -0.05307899 -0.0064626327 -0.0687717
0.0070447936 -0.076469705 -0.015446569 -0.07359238 -0.08339446 -0.069698155 -0.031199234 0.0039694924
-0.02470082 -0.07459937 0.02627426 -0.048257865 -0.027403016 -0.10269381 -0.019464945 0.052884705
-0.041948047 -0.046699997 -0.02200721 0.030681854 0.01670953 -0.10588472 0.023587119 -0.029265353
0.012469476 -0.103204675 -0.003720887 -0.040006265 0.023624336 -0.06699064 -0.02292281 0.051025275
-0.03730785 -0.044132687 0.008514099 0.060402207 0.041267417 0.02831416 -0.12960215 -0.020249536
0.037855055 -0.016817356 -0.020024234 -0.022093486 0.06292277 -0.029520553 0.031040922 -0.08507542
0.017343748 0.0059885397 -0.023111776 -0.07096696 0.054750036 0.016410122 -0.021281863 -0.059857942
0.0017713271 0.028631799 0.07013803 0.023233926 0.03986289 0.007616792 0.051429417 0.017485917
-0.024469687 -0.050522096 0.04827597 0.010100071 -0.021612981 -0.011530832 -0.029574867 -0.042585973
-0.030498205 0.008549842 -0.040044237 -0.013538246 -0.019039854 0.018630633 0.006786808 0.030016808
-0.028543942 -0.03507268 0.0042575668 0.007976494 -0.021994669 0.011897333 -0.043547906 0.015759755
00000000: 7280 8dbd ac25 15bd bebc 35bd 564f 28bc
00000010: c133 ea3c de04 723d ea79 48bd 3c5b 353c
00000020: cab1 5fbb e339 843c 5e03 9f3c 3fc8 fbbc
00000030: 1426 773c 558d 893d cdf5 8b3c d5ab 24bd
00000040: 4902 aabd 3f25 58bd cc39 483d 20ce 9fbc
00000050: c4b0 19bd 76e0 4d3a 1c10 273d 635b 14bc
00000060: fc59 8bbd 441e f7bc fa2a 603c 482d fc3b
00000070: a3e1 18bd d61b b73d 28a2 debb 2ba7 1fbd
00000080: 2f03 adbc 6d29 91bd 54a3 963b c93e 20bd
00000090: b3b9 4bbc 8459 033d 280a 9e3b 4cc8 9abb
000000a0: 6ca8 85bd cc0c 9dbc 2953 bf3c 2837 e7bc
000000b0: 55a5 063c ae57 94bc 0663 82bc f013 96bc
000000c0: 18d7 6bbd c5fd 283d 551c ba3d 2dc3 033e
000000d0: 9f0f 2cbd 8e30 b9bc d134 7dbc 945a 2f3d
000000e0: 9f28 013d 9ca5 2a3b 5ca7 e3bc 9f68 ac3b
000000f0: 7afa 9bbd 89aa a9bd 7e52 6b3c 7d76 ecbd
00000100: 9a1f 9e3c 8855 4cbd 7c3f 103d 39af d8bd
00000110: dbc1 9cbd 8ac1 fcbc 00ec aabc 24e2 9e3b
00000120: d6af 4f3b 0ffe 88bd 1c84 c63c 98cc 39bc
00000130: c02d 353b 10e2 1cbd 7caa a4bc 0695 a1bc
00000140: 78af 64bd 77f2 853b 2974 0a3d 2417 813c
00000150: a927 8e3c d1f8 07bd c1d2 71bb d9c0 08bd
00000160: 2278 00bd feae 38bd 4f68 173c 0224 e5bc
00000170: 5e26 08bd 3659 cdbd a9fc c2bc 5db2 7b3d
00000180: 6eed 8f3c 548f 56bd 7f36 43bc 086f a9bc
00000190: 5edd 09be a0a0 a13d 0ddd 83be 483e f1bd
000001a0: d062 283d 7025 8d3d 1f9d 95bc 0dea 833c
000001b0: 282e 5b3b dd0d 6dbb 4b6a 4c3b 8e66 24bd
000001c0: 7588 cb3d 6dad 613d 39ed aebc fafa 0bbc
000001d0: 2325 9c39 ba47 4a3d 1a19 213b b39f 45bd
000001e0: bdc0 3f3d 6e6f 0c3c c3a4 59bc f3c9 263d
000001f0: 673d 46bd e8f9 793d 9579 b3bc af62 1b3d
00000200: 47c7 913d 9227 37bd bac5 18bc 1b26 68bd
00000210: bfb0 c23a 3242 633d 6026 48bc 7ddb debc
00000220: 5bc8 363d 506b 6fbd 8c9f 5ebc acaf 56bc
00000230: 5c4c 26bd f137 5ebc 6cd4 2ebd 5110 c1bd
00000240: 9c25 b13c 0330 67bd ac38 f23c 5700 c9bc
00000250: 7614 093d bd95 2dbc b1a6 e6bc 3160 4abd
00000260: 75e4 1bbd ea6e 84be c7f2 493d 372b c9bd
00000270: 4d95 d8bc 974d 53bd 8152 a23c d1a9 c43c
00000280: 8ade f5bc db44 91bd 6231 fb3c 7731 3f3d
00000290: ecf7 69bd 5b69 59bd 7ec4 d3bb 2dd8 8cbd
000002a0: 03d8 e63b 269c 9cbd 9b13 7dbc 9ab7 96bd
000002b0: b7ca aabd e8bd 8ebd 8995 ffbc 8412 823b
000002c0: 6059 cabc 8ec7 98bd 1e3d d73c 0aaa 45bd
000002d0: 4a7c e0bc 2251 d2bd f374 9fbc a29d 583d
000002e0: b7d1 2bbd 7f48 3fbd 7748 b4bc 8358 fb3c
000002f0: 6de2 883c 17da d8bd c639 c13c e5bd efbc
00000300: c64c 4c3c f95c d3bd 20da 73bb 9cdd 23bd
00000310: d387 c13c 6332 89bd 9ec8 bbbc e1ff 503d
00000320: 1ed0 18bd 7ac4 34bd b87e 0b3c 4e68 773d
00000330: 0608 293d 19f3 e73c 6db6 04be 5be2 a5bc
00000340: e70d 1b3d 8dc4 89bc dd09 a4bc 66fd b4bc
00000350: a7dd 803d 16d5 f1bc 8849 fe3c 063c aebd
00000360: 7a14 8e3c 833b c43b e854 bdbc 2057 91bd
00000370: 9341 603d 856e 863c 4d57 aebc 9a2d 75bd
00000380: e02b e83a 3c8d ea3c 87a4 8f3d 1355 be3c
00000390: 4547 233d 4896 f93b a7a7 523d a03e 8f3c
000003a0: a774 c8bc 42f0 4ebd 06bd 453d c57a 253c
000003b0: b50d b1bc d1eb 3cbc fe46 f2bc a16e 2ebd
000003c0: 5fd7 f9bc a314 0c3c 6d05 24bd 85cf 5dbc
000003d0: 78f9 9bbc 459f 983c df63 de3b cfe5 f53c
000003e0: fcd4 e9bc 5fa8 0fbd 0f83 8b3b d7af 023c
000003f0: 2a2e b4bc 08ed 423c 4a5f 32bd 9a1a 813c

fc1.bias f4 [512]
-0.009411312 0.0011042559 0.07792538 0.017763918 -0.0155740315 -0.08503965 0.13511057 0.04324322
0.021314573 -0.15768893 0.11642827 0.10771546 0.11946193 0.058946338 -0.09127501 -0.103594
0.14226012 0.08774139 -0.06879146 -0.13131584 0.031501736 -0.049627233 -0.050773557 0.048154645
-0.1484691 -0.014603701 -0.091011316 -0.051311273 -0.009421298 -0.056839813 -0.09537521 -0.09862614
0.09147699 -0.04996895 -0.009990046 -0.1834347 0.025521904 -0.061204754 -0.021677582 -0.11531092
0.14052291 0.15043119 -0.10902602 -0.067409575 -0.022755919 -0.060760025 0.043893017 -0.01938287
0.09570832 -0.023486853 0.10271129 0.12093339 -0.18721423 -0.13539477 -0.03796645 -0.07118115
0.017391799 -0.011148073 -0.101919405 0.024586951 -0.082702085 -0.13970031 -0.025371838 0.13229825
0.13049878 -0.1316046 -0.08454222 0.118786715 -0.1962522 0.11626345 0.042095266 0.051889487
-0.043688856 0.014657574 0.14354818 -0.09946144 -0.08515747 -0.10489237 0.061891887 -0.011214453
-0.0031945105 0.08543581 0.012246452 -0.063521 -0.11027232 0.016478794 0.07028221 -0.053541813
0.012164232 -0.10543826 -0.07326956 -0.0012061619 0.033579286 -0.15208958 0.00024145811 -0.012449125
-0.08617943 -0.12779342 -0.03215287 -0.07180072 -0.10835144 -0.013157446 0.012725249 0.070180625
0.114297196 -0.12254534 -0.053838093 -0.04268777 -0.10298957 -0.0079293605 0.022594793 0.053987376
0.01753176 0.0302646 -0.052866038 -0.055554487 -0.023970056 0.06804446 -0.085802086 0.005263783
0.051083505 0.07538727 -0.07630251 -0.02299575 0.08225625 -0.09931364 -0.09350003 -0.07429869
-0.1558815 -0.1897898 -0.022218723 0.1036491 -0.026786938 -0.068992205 -0.07484225 -0.08629966
0.0883725 -0.10237257 -0.17646128 -0.124946624 0.10463572 -0.17100677 -0.012399363 -0.04884057
-0.08619196 -0.0034704362 -0.19388166 0.032676794 -0.1022507 -0.011652834 0.08879292 -0.102514416
-0.01782224 0.055480324 0.0029559992 -0.051102605 -0.014012349 -0.029814376 0.0020825372 -0.15375765
-0.012066187 0.0006861576 0.0014733153 -0.10836818 0.09421341 -0.055601045 -0.12685691 -0.03518623
-0.20292258 0.013064573 -0.035099283 -0.14389357 -0.0048321025 0.11691777 -0.051836867 -0.07091375
0.12688687 0.023156969 0.022586314 -0.1330182 0.07789005 0.0021935906 0.1093185 0.109286994
0.07383204 0.0823234 -0.05499767 -0.15041038 0.09837908 0.08235511 0.004325369 0.056662045
0.06116036 -0.14964208 -0.11775178 0.15450326 0.056992177 -0.20407563 -0.003781721 0.091366194
-0.03869694 -0.11851452 -0.10666132 0.03392913 -0.03550988 0.036016125 -0.041131828 0.090203404
-0.11617151 0.053750947 -0.1501772 -0.05359819 -0.028424311 0.057545006 0.057523597 0.05568622
-0.08091356 0.04287011 0.10854335 -0.0860092 -0.15526368 -0.045101218 -0.016909033 -0.015387175
-0.17098173 0.009209359 0.055121038 0.046115916 0.11722728 0.055728298 0.005826644 -0.03035954
0.04428314 -0.17010386 -0.0670256 -0.01200546 -0.14462806 -0.12799093 0.02587562 -0.13653414
-0.114572704 0.11213264 -0.11012516 0.10275567 0.03844657 0.07779667 0.058875572 0.070287146
-0.06510074 0.09139916 -0.011263135 -0.11235279 0.12217657 0.07823823 0.0295013 -0.12704232
00000000: e731 1abc aebc 903a 5797 9f3d a385 913c
00000010: 392a 7fbc 4529 aebd 6d5a 0a3e cd1f 313d
00000020: e69b ae3c 3579 21be f271 ee3d ec99 dc3d
00000030: 75a8 f43d b771 713d 64ee babd 1729 d4bd
00000040: a3ac 113e c2b1 b33d 89e2 8cbd a977 06be
00000050: f707 013d ed45 4bbd eff7 4fbd ce3d 453d
00000060: 4908 18be 5d44 6fbc 2464 babd c52b 52bd
00000070: ca5b 1abc ddd0 68bd 1454 c3bd 80fc c9bd
00000080: 4a58 bb3d 3eac 4cbd 4aad 23bc 4ed6 3bbe
00000090: 5013 d13c d6b1 7abd 2f95 b1bc 2228 ecbd
000000a0: 3de5 0f3e a20a 1a3e 0949 dfbd 080e 8abd
000000b0: 9f6a babc 81df 78bd 2ac9 333d d3c8 9ebc
000000c0: b902 c43d 8067 c0bc 4c5a d23d edab f73d
000000d0: 16b5 3fbe eda4 0abe b582 1bbd 6cc7 91bd
000000e0: 3f79 8e3c 68a6 36bc 1fbb d0bd 936a c93c
000000f0: b65f a9bd 990d 0fbe 9ad8 cfbc 3179 073e
00000100: 79a1 053e 5bc3 06be 7924 adbd 7346 f33d
00000110: 56f6 48be 881b ee3d 166c 2c3d 128a 543d
00000120: 16f3 32bd 5226 703c 4bfe 123e 71b2 cbbd
00000130: 0a67 aebd d0d1 d6bd 5982 7d3d d3bc 37bc
00000140: fe5a 51bb f8f8 ae3d 58a5 483c 4c17 82bd
00000150: 74d6 e1bd 89fe 863c 1ff0 8f3d a94e 5bbd
00000160: 7d4c 473c 04f0 d7bd 5a0e 96bd 1418 9eba
00000170: 6f8a 093d 5fbd 1bbe eb2f 7d39 6af7 4bbc
00000180: d77e b0bd 47dc 02be bab2 03bd 420c 93bd
00000190: 5ce7 ddbd 5492 57bc 907d 503c dcba 8f3d
000001a0: a614 ea3d 0df9 fabd 5585 5cbd 5fd9 2ebd
000001b0: 32ec d2bd 26ea 01bc b718 b93c de21 5d3d
000001c0: c49e 8f3c 77ed f73c 0f8a 58bd 1a8d 63bd
000001d0: da5c c4bc e55a 8b3d 01b9 afbd d07b ac3b
000001e0: f03c 513d a464 9a3d 7e44 9cbd 9561 bcbc
000001f0: f775 a83d f364 cbbd f27c bfbd e929 98bd
00000200: 669f 1fbe 4258 42be 0a04 b6bc fb45 d43d
00000210: 4870 dbbc c94b 8dbd e546 99bd e0bd b0bd
00000220: a4fc b43d b6a8 d1bd 44b2 34be 04e4 ffbd
00000230: 414b d63d 661c 2fbe b326 4bbc 0d0d 48bd
00000240: 6985 b0bd 4270 63bb ea88 46be 1ad8 053d
00000250: d168 d1bd 87eb 3ebc 10d9 b53d 14f3 d1bd
00000260: f2ff 91bc 563f 633d 70b9 413b f750 51bd
00000270: 0d94 65bc 473d f4bc 2d7b 083b a572 1dbe
00000280: 42b1 45bc 42df 333a 421c c13a 23f0 ddbd
00000290: f6f2 c03d ecbd 63bd c7e6 01be 701f 10bd
000002a0: f0ca 4fbe ca0c 563c 44c4 0fbd d658 13be
000002b0: 9d56 9ebb 9572 ef3d e552 54bd 3a3b 91bd
000002c0: a2ee 013e afb3 bd3c ef06 b93c ec35 08be
000002d0: d284 9f3d 58c2 0f3b 61e2 df3d dcd1 df3d
000002e0: 4135 973d 2c99 a83d 3d45 61bd 2e05 1abe
000002f0: f97a c93d cca9 a83d d3bb 8d3b 7616 683d
00000300: 4983 7a3d c63b 19be d827 f1bd 1a36 1e3e
00000310: a170 693d 34f9 50be c0d6 77bb 331e bb3d
00000320: af80 1ebd beb7 f2bd 4071 dabd 45f9 0a3d
00000330: cf72 11bd a585 133d d979 28bd 90bc b83d
00000340: 54eb edbd f429 5c3d 0dc8 19be c789 5bbd
00000350: 1ada e8bc 50b4 6b3d dd9d 6b3d 3c17 643d
00000360: 02b6 a5bd 9298 2f3d fa4b de3d 9725 b0bd
00000370: 71fd 1ebe 0ebc 38bd d084 8abc 7d1a 7cbc
00000380: d615 2fbe dae2 163c 99c6 613d 0be4 3c3d
00000390: db14 f03d 5b43 643d 6fed be3b 92b4 f8bc
000003a0: 3d62 353d b52f 2ebe b844 89bd 8db2 44bc
000003b0: 6119 14be 0e10 03be 1cf9 d33c 9bcf 0bbe
000003c0: 18a5 eabd cca5 e53d 4d89 e1bd 9171 d23d
000003d0: 277a 1d3d dc53 9f3d 8327 713d b5f2 8f3d
000003e0: 8953 85bd 7c2f bb3d 0389 38bc 3819 e6bd
000003f0: b637 fa3d 5d3b a03d b6ac f13c 6217 02be

fc2.weight f4 [256, 512]
0.04930975 0.028069941 -0.032618012 -0.049508438 -0.04532559 -0.028844282 0.023682589 0.03424097
0.035712942 -0.11933798 0.011345412 0.038113143 0.0035659557 -0.029383317 0.06618018 -0.042443756
0.060969677 0.009504493 -0.08129546 -0.03277029 0.052066743 -0.037283853 0.03472202 -0.031872317
-0.0058810087 -0.020980133 -0.025183765 0.050431423 0.036966465 0.047224376 0.05538289 0.014488002
-0.0707437 -0.051747546 0.025615498 -0.015741022 0.037595857 -0.06514427 -0.11081735 0.013932601
0.041506737 -0.011654432 -0.09313129 -0.21347617 -0.018259479 0.029562876 0.030178022 0.0055955746
0.0013119429 -0.026558436 -0.016465327 -0.03103992 -0.055177078 -0.08428301 0.034529496 -0.030100452
-0.027270272 -0.131727 -0.06420804 -0.04371312 0.04498259 0.023617253 0.03913477 0.054597165
0.03489563 -0.021482218 0.037099414 -0.007437835 0.0473754 0.060431343 -0.005691381 -0.025176547
0.032221247 -0.033061273 0.022049285 -0.06406175 -0.0028850266 -0.084119305 -0.0037067556 0.01831331
-0.01972739 0.026161507 -0.028695595 -0.052289862 -0.024045598 -0.03352397 -0.004121154 -0.05784213
-0.01955794 0.04648788 -0.0051781707 0.07991433 0.02933441 0.06372172 0.071587875 -0.0021198646
0.034927517 -0.023213055 0.052080695 0.010617975 -0.030189518 0.039726954 -0.0025218162 -0.034131274
0.05801734 0.020049235 0.009292537 -0.00017396975 -0.026744707 -0.041544363 0.010370085 0.003040375
-0.024225013 0.007493558 -0.006849064 0.042406008 -0.033072203 -0.035369653 0.025917916 -0.012709431
0.05968878 0.020413328 0.078024894 -0.02804148 -0.009469355 -0.10001358 -0.00757178 -0.031292453
0.0015894844 -0.015200204 -0.06445068 0.052006554 0.0068733674 -0.020342436 -0.02352254 0.018212758
-0.06955211 0.011540959 -0.0675184 -0.041159313 -0.029545119 0.04815906 0.03698999 0.037444197
0.012341632 0.02059089 -0.09169361 -0.019767934 -0.0010983279 0.040654648 -0.097174935 0.03851838
-0.03810999 -0.050964173 0.008141558 -0.013103657 -0.01037936 0.030436452 -0.016606724 -0.030571572
0.043742407 0.032049254 0.04115484 -0.01142221 -0.068501614 0.05152059 -0.056946967 -0.021843731
0.042652313 0.040956814 -0.050904453 -0.04630739 0.037387144 0.0131866485 -0.016192306 0.0008197412
-0.13576126 -0.029715177 0.022925697 0.030357914 -0.019885905 -0.02958153 -0.045634266 0.02276673
0.06566877 -0.0036993513 0.110114105 -0.0024580588 -0.043151747 0.015998432 0.025815679 0.0012595434
0.069857076 -0.014679342 0.045822173 -0.024533808 -0.026567612 0.10319114 0.016812498 0.013981361
-0.017991507 0.0056087477 -0.07329577 -0.06767478 0.056135744 -0.056002706 0.06012766 -0.0685842
0.044562988 -0.0019532852 -0.100872345 0.04020853 0.05523496 0.0117337005 -0.012924074 -0.14637421
0.059884768 0.034064878 -0.06413427 -0.01403044 -0.044704944 -0.022128671 -0.04316559 0.015450517
-0.052590884 -0.017343516 -0.040896576 0.0010506151 -0.012297299 0.028044427 -0.049074333 0.009290283
0.011304686 0.012977495 -0.008329202 -0.056478653 0.023059106 0.01439612 -0.014535804 0.014220056
-0.05337616 0.06147697 0.027283547 -0.05685121 -0.0008820862 0.034765363 0.0035999254 -0.009961229
0.03619896 0.028517956 0.051576834 0.020525595 0.0504548 0.08007235 -0.05234379 0.0031743443
00000000: 05f9 493d eff2 e53c 779a 05bd 5cc9 4abd
00000010: 53a7 39bd d84a ecbc fd01 c23c 4240 0c3d
00000020: bc47 123d 7967 f4bd 1be2 393c 871c 1c3d
00000030: cfb2 693b 48b5 f0bc 7989 873d 81d9 2dbd
00000040: 57bb 793d bcb8 1b3c 3c7e a6bd 243a 06bd
00000050: f043 553d f4b6 18bd ad38 0e3d 8c8c 02bd
00000060: 7ab5 c0bb 87de abbc 2f4e cebc 2e91 4e3d
00000070: 266a 173d 596e 413d 2bd9 623d 165f 6d3c
00000080: 13e2 90bd 3cf5 53bd 98d7 d13c 51f3 80bc
00000090: 1dfe 193d 5c6a 85bd 35f4 e2bd 9045 643c
000000a0: f802 2a3d 3bf2 3ebc 9ebb bebd 7f99 5abe
000000b0: e794 95bc d82d f23c e637 f73c 155b b73b
000000c0: 80f5 ab3a 1491 d9bc 4be2 86bc 6e47 febc
000000d0: 5c01 62bd 929c acbd cd6e 0d3d 3995 f6bc
000000e0: e865 dfbc 71e3 06be 817f 83bd 870c 33bd
000000f0: aa3f 383d f878 c13c c84b 203d 47a1 5f3d
00000100: b8ee 0e3d 7afb afbc 8ef5 173d 15b9 f3bb
00000110: b50c 423d db86 773d c47e babb 0c3f cebc
00000120: 6dfa 033d 426b 07bd b4a0 b43c cf32 83bd
00000130: b712 3dbb be46 acbd 0aed 72bb cb05 963c
00000140: 569b a1bc a850 d63c 0613 ebbc e52d 56bd
00000150: 46fb c4bc 6e50 09bd bf0a 87bb dfeb 6cbd
00000160: f937 a0bc 136a 3e3d a5ad a9bb 20aa a33d
00000170: b74e f03c 8880 823d aa9c 923d 6ded 0abb
00000180: 2810 0f3d 4e29 bebc 9152 553d 04f7 2d3c
00000190: 0250 f7bc bbb8 223d 0e45 25bb 3ccd 0bbd
000001a0: 97a3 6d3d 4b3e a43c ba3f 183c a66b 36b9
000001b0: b717 dbbc 6c2a 2abd 4ae7 293c 0741 473b
000001c0: 8973 c6bc 858c f53b 1d6e e0bb ecb1 2d3d
000001d0: b876 07bd c5df 10bd cf51 d43c 383b 50bc
000001e0: 397c 743d da39 a73c 84cb 9f3d 3fb7 e5bc
000001f0: 5b25 1bbc ebd3 ccbd b21c f8bb 842c 00bd
00000200: 3f56 d03a 470a 79bc b8fe 83bd d304 553d
00000210: fc39 e13b 2ea5 a6bc 58b2 c0bc ec32 953c
00000220: 5671 8ebd 4a16 3d3c 1647 8abd ab96 28bd
00000230: 9b08 f2bc 6f42 453d d182 173d 165f 193d
00000240: 8e34 4a3c 3aae a83c dcc9 bbbd 5df0 a1bc
00000250: c5f5 8fba 7d85 263d a703 c7bd 73c5 1d3d
00000260: 3919 1cbd cfbf 50bd 2b64 053c b9b0 56bc
00000270: 310e 2abc de55 f93c d30a 88bc 3c71 fabc
00000280: 3d2b 333d 1446 033d fa91 283d 3924 3bbc
00000290: 934a 8cbd 4107 533d 3941 69bd a0f1 b2bc
000002a0: 31b4 2e3d 55c2 273d 3081 50bd d1ac 3dbd
000002b0: 4323 193d d00c 583c baa5 84bc e7e3 563a
000002c0: 0005 0bbe 3e6d f3bc acce bb3c 29b1 f83c
000002d0: c4e7 a2bc f754 f2bc ffea 3abd 4b81 ba3c
000002e0: 597d 863d d170 72bb 8183 e13d 6217 21bb
000002f0: e3bf 30bd 250f 833c 677b d33c 4317 a53a
00000300: 3a11 8f3d 9f81 70bc 08b0 3b3d 20fb c8bc
00000310: 52a4 d9bc e055 d33d 5dba 893c 1412 653c
00000320: ed62 93bc 96c9 b73b 181c 96bd 1399 8abd
00000330: 98ee 653d 1863 65bd 6c48 763d e075 8cbd
00000340: ae87 363d b002 00bb 2996 cebd b3b1 243d
00000350: 0e3e 623d b53e 403c 7fbf 53bc 1fe3 15be
00000360: bb49 753d 9d87 0b3d d458 83bd eedf 65bc
00000370: 881c 37bd 3047 b5bc 67ce 30bd 2a24 7d3c
00000380: 8a69 57bd fd13 8ebc 2b83 27bd cbb4 893a
00000390: 9c7a 49bc 6dbd e53c 2b02 49bd 4536 183c
000003a0: 4a37 393c 8f9f 543c 3577 08bc 2956 67bd
000003b0: 73e6 bc3c b4dd 6b3c 9527 6ebc 3dfb 683c
000003c0: f6a0 5abd 46cf 7b3d bf81 df3c d0dc 68bd
000003d0: ce3b 67ba 2066 0e3d baec 6b3b 6c34 23bc
000003e0: 5c45 143d 7d9e e93c 3b42 533d 4b25 a83c
000003f0: b1a9 4e3d f9fc a33d 7166 56bd a908 503b

fc2.bias f4 [256]
-0.006475588 -0.052366767 -0.07785619 -0.03604981 -0.016235482 -0.0818698 -0.047420952 -0.10224716
-0.100012824 -0.024144279 -0.024972266 -0.0056815497 -0.05516952 -0.019857636 -0.058896165 0.00055668986
0.009558329 -0.07116581 -0.011966162 -0.063631505 -0.06131564 -0.09654633 -0.073383264 -0.07084334
-0.09418559 0.012728727 -0.042431146 -0.050892394 -0.03209423 -0.08601376 -0.022880087 -0.03166091
-0.039744996 -0.044815417 -0.07056367 -0.07225823 -0.07978956 -0.08494101 -0.053095125 -0.09118365
-0.048549708 -0.01255107 -0.072980136 -0.033192534 -0.040248133 -0.06472867 -0.06100144 0.006516793
-0.04865703 -0.04379127 -0.04484598 -0.038501073 -0.024761692 -0.045993555 -0.044501588 -0.07719184
-0.029960142 -0.04814374 -0.01078055 -0.06758515 -0.037024457 -0.067022525 -0.035857998 -0.07837376
-0.019618595 -0.026276747 -0.057035595 -0.05259474 -0.053564217 -0.056912582 -0.061753385 -0.0774551
-0.0687957 -0.020188104 -0.0062693045 -0.080795355 -0.08740333 -0.03811368 0.00751259 -0.08209863
-0.038249563 -0.043512955 -0.04703005 -0.03124932 -0.14050822 -0.07693701 -0.06210686 -0.034417756
-0.048868883 -0.053526692 -0.039378665 -0.057663508 -0.06869278 -0.033990864 -0.033178095 -0.0151930405
-0.06308094 -0.057820804 -0.07631077 -0.078587435 -0.03683303 -0.0655668 -0.018700007 0.0072687143
-0.032471307 -0.07329348 -0.051774547 -0.022834681 -0.08735622 -0.041514196 -0.0749407 -0.08658605
-0.024910696 -0.016609358 -0.022437386 -0.027293254 -0.044917766 -0.006399293 -0.012480292 -0.014044933
-0.06676105 -0.06332252 -0.10473423 -0.035534974 -0.049749393 -0.055863332 -0.06826807 -0.018210627
-0.08144567 -0.03691153 -0.045026436 -0.0837311 -0.052821334 -0.05451624 -0.032012265 -0.060662482
-0.021037964 -0.010275002 -0.0688336 -0.077027805 -0.008520869 -0.0861246 -0.057159573 -0.04773728
-0.006931905 -0.04064509 -0.026526622 -0.06358918 -0.012454159 -0.0038980383 -0.03047759 -0.004670954
-0.06505804 -0.028917523 -0.047004554 -0.029931702 -0.067434944 -0.013032774 -0.051670626 -0.042651292
-0.020190101 -0.064433396 -0.09914764 -0.063815035 -0.064279474 -0.079995364 -0.08468727 -0.09137253
-0.031091202 -0.08343912 -0.030833209 -0.06292228 -0.06572093 -0.06428892 -0.0589472 -0.06699738
-0.018847259 -0.04192463 -0.075196214 -0.052179173 -0.074804746 -0.011057448 -0.05140116 -0.037611365
-0.08454473 -0.06230253 -0.04420815 -0.10948212 -0.04555528 -0.06336544 -0.07408482 -0.013446671
-0.059279643 -0.04328964 -0.025180444 -0.048197683 -0.06192369 -0.08038755 -0.0070527145 -0.008937488
-0.07678699 -0.08298848 -0.048662055 -0.07045108 -0.0030195038 -0.08638577 -0.04189314 -0.03303647
-0.043289468 -0.05575844 -0.022913372 -0.051976144 -0.0065074926 -0.0138966 -0.011175465 -0.005244025
-0.0054125595 -0.04330499 -0.066143535 -0.054057304 -0.01961746 -0.0071691 -0.017837027 -0.035580095
-0.07049446 -0.086391285 -0.08172508 -0.024408571 -0.050575964 -0.06437984 -0.054434452 -0.030768124
-0.010565894 -0.017891204 -0.07495054 -0.0746216 -0.022321055 -0.0433548 -0.06422796 -0.05454899
-0.0037664773 -0.0138299 -0.059313808 -0.083977774 -0.019951377 -0.031343628 -0.04400395 -0.09544929
-0.033034284 -0.06523586 -0.09172445 -0.022623235 -0.014855563 -0.011904037 -0.076548636 -0.04254061
00000000: 2b31 d4bb 897e 56bd 1173 9fbd f7a8 13bd
00000010: 4600 85bc 5bab a7bd 793c 42bd f666 d1bd
00000020: 86d3 ccbd 39ca c5bc a392 ccbc 4b2c babb
00000030: 6ff9 61bd 7bac a2bc 1b3d 71bd d3ee 113a
00000040: 8a9a 1c3c 61bf 91bd b90d 44bc 3c51 82bd
00000050: 1c26 7bbd 15ba c5bd f749 96bd 5016 91bd
00000060: 60e4 c0bd 278c 503c 48cc 2dbd 8b74 50bd
00000070: 3d75 03bd fb27 b0bd 056f bbbc dfae 01bd
00000080: a6cb 22bd 5f90 37bd af83 90bd 1ffc 93bd
00000090: b568 a3bd 8df5 adbd 467a 59bd 7ebe babd
000000a0: 0fdc 46bd 01a3 4dbc 9c76 95bd e5f4 07bd
000000b0: 3adb 24bd 7790 84bd a5dc 79bd d28a d53b
000000c0: 984c 47bd 7a5e 33bd 6bb0 37bd 4db3 1dbd
000000d0: 08d9 cabc bd63 3cbd 4c47 36bd c116 9ebd
000000e0: f96e f5bc 5f32 45bd e7a0 30bc 156a 8abd
000000f0: f5a6 17bd 1b43 89bd d6df 12bd 6c82 a0bd
00000100: 2db7 a0bc 5542 d7bc 289e 69bd 956d 57bd
00000110: 2766 5bbd 2b1d 69bd 1ef1 7cbd c8a0 9ebd
00000120: c3e4 8cbd 8661 a5bc bd6e cdbb 0978 a5bd
00000130: 8400 b3bd 171d 1cbd 2c2c f63b 5423 a8bd
00000140: 93ab 1cbd a43a 32bd 95a2 40bd 93fe ffbc
00000150: 63e1 0fbe 2791 9dbd c363 7ebd a2f9 0cbd
00000160: bd2a 48bd ce3e 5bbd 864b 21bd 9230 6cbd
00000170: cdae 8cbd 013a 0bbd c1e5 07bd 3bec 78bc
00000180: 9430 81bd 82d5 6cbd d248 9cbd 73f2 a0bd
00000190: 3bde 16bd e347 86bd c230 99bc 652e ee3b
000001a0: a200 05bd e41a 96bd 8c11 54bd cc0f bbbc
000001b0: d1e7 b2bd ca0a 2abd 827a 99bd 0754 b1bd
000001c0: 8411 ccbc 5910 88bc 9cce b7bc 1a96 dfbc
000001d0: b1fb 37bd 29b1 d1bb 237a 4cbc b81c 66bc
000001e0: 04ba 88bd 3daf 81bd e67e d6bd 1f8d 11bd
000001f0: 05c6 4bbd f3d0 64bd 21d0 8bbd 742e 95bc
00000200: fdcc a6bd 8b30 17bd a46d 38bd 367b abbd
00000210: 2f5b 58bd 6c4c 5fbd 4b1f 03bd 3979 78bd
00000220: cf57 acbc 7b58 28bc a1f8 8cbd c1c0 9dbd
00000230: 1d9b 0bbc 1862 b0bd 2820 6abd 2b88 43bd
00000240: 0925 e3bb 777b 26bd 5c4e d9bc 0b3b 82bd
00000250: 870c 4cbc 3b76 7fbb 24ac f9bc cd0e 99bb
00000260: 263d 85bd 71e4 ecbc d987 40bd 5433 f5bc
00000270: 551b 8abd 6b87 55bc 94a4 53bd 1fb3 2ebd
00000280: b665 a5bc a8f5 83bd eb0d cbbd 75b1 82bd
00000290: f5a4 83bd 9cd4 a3bd 8570 adbd 8521 bbbd
000002a0: fab2 febc 21e2 aabd ed95 fcbc 65dd 80bd
000002b0: b298 86bd e9a9 83bd 9f72 71bd ec35 89bd
000002c0: 9165 9abc 29b9 2bbd 7900 9abd d4b9 55bd
000002d0: 3b33 99bd 4c2a 35bc 068a 52bd 600e 1abd
000002e0: ca25 adbd f030 7fbd 9b13 35bd 2938 e0bd
000002f0: 2c98 3abd bdc5 81bd c8b9 97bd 6d4f 5cbc
00000300: 36cf 72bd 7a50 31bd 3847 cebc ef6a 45bd
00000310: b2a3 7dbd 3aa2 a4bd 751a e7bb 8b6e 12bc
00000320: 7f42 9dbd ddf5 a9bd dd51 47bd a848 90bd
00000330: dee2 45bb 06eb b0bd 2498 2bbd 4051 07bd
00000340: 4c50 31bd f662 64bd d3b4 bbbc f0e4 54bd
00000350: ce3c d5bb 91ae 63bc 4c19 37bc 12d6 abbb
00000360: d75b b1bb 9360 31bd 4376 87bd 316b 5dbd
00000370: ccb4 a0bc c5ea eabb f51e 92bc 6fbc 11bd
00000380: 665f 90bd eaed b0bd 7b5f a7bd 7cf4 c7bc
00000390: be28 4fbd 94d9 83bd a9f6 5ebd 6f0d fcbc
000003a0: 921c 2dbc 9390 92bc ab7f 99bd 36d3 98bd
000003b0: a5da b6bc ce94 31bd f389 83bd c36e 5fbd
000003c0: 01d7 76bb ce96 62bc 09f3 72bd 8afc abbd
000003d0: 1271 a3bc 2d62 00bd 7c3d 34bd eb7a c3bd
000003e0: f54e 07bd 619a 85bd 07da bbbd 5d54 b9bc
000003f0: bf64 73bc 2609 43bc 88c5 9cbd 103f 2ebd

fc3.weight f4 [1, 256]
0.016654816 -0.02263874 -0.0186337 -0.006326711 -0.01189567 0.016249044 -0.010799587 -0.014399272
0.060218684 0.0101614185 -0.013535699 -0.009723262 0.006671468 0.0051632584 -0.008258848 0.014033086
0.011208405 0.01629368 -0.014567882 -0.011838974 -0.023391958 0.024187507 -0.015240951 -0.012258746
-0.01598839 -0.0045537665 -0.018707711 -0.017928798 -0.0113628 0.012580729 0.012395813 -0.0077668075
0.008828662 -0.018304592 -0.033126548 0.008445048 0.011521452 -0.016750786 0.033852976 -0.028919633
0.0108576305 0.0068881637 -0.025130827 0.008806165 0.005239025 0.008886544 -0.010514338 0.0085759275
0.011600716 0.006900437 -0.009125968 -0.018198097 -0.013282874 0.011624225 0.011206715 -0.028276369
0.027700959 -0.013585051 0.007982658 -0.015872711 0.010016495 0.017748825 0.0066826115 0.010530683
0.0069383294 0.012068572 -0.015490814 -0.010491247 -0.0073332153 0.008330518 -0.009893612 -0.011244632
0.027545469 0.015379442 -0.013612006 0.033135653 -0.020354837 0.021951715 -0.00970381 -0.01145355
-0.0071490626 -0.029586338 0.016103044 -0.007668256 0.058840487 0.02108805 -0.012213525 -0.017521534
-0.02696 -0.014431532 0.006080677 -0.036622252 -0.007372036 0.0064658388 -0.01131165 -0.012110248
0.017581467 -0.0066722436 0.03710135 -0.014753062 -0.011804563 -0.013196132 -0.01802355 0.006105582
-0.014655975 -0.018080942 0.01612081 -0.024776613 -0.0040071863 0.010631849 0.009958252 -0.010999754
-0.012872026 -0.008235542 0.011761575 -0.015788132 0.008823901 -0.011348442 0.0058211437 -0.009778295
-0.014428741 0.007629712 -0.02484887 -0.009585076 0.016938757 -0.01550173 0.025628045 -0.021393863
0.03178425 -0.007965802 0.010452303 0.012541377 0.01938839 0.012805106 0.021826923 0.010606783
0.008734157 0.009396836 0.010965211 -0.00566396 0.01295968 0.032486234 0.047321975 0.07470242
0.008325275 -0.0077579627 -0.015563676 0.032664172 0.008003872 -0.009534207 0.011550995 -0.010356561
0.014735972 -0.010929179 0.034145877 0.014194198 -0.01073755 0.0072401636 0.0063777613 0.017408377
-0.00957394 0.0225029 0.024816558 0.010875466 -0.011629923 -0.015970029 -0.022726864 -0.022074983
0.012650449 0.012165644 0.014089017 0.012465476 -0.019428138 0.015344313 -0.013685378 0.028006596
0.007802192 -0.01387784 0.012149765 -0.007767382 -0.016609173 0.0077822884 0.010669349 0.017825952
0.014211248 0.0073410897 -0.008312155 0.03374815 -0.008888631 -0.010906384 -0.017322052 -0.009183195
-0.0083181765 -0.008471375 -0.009701936 0.008778339 0.018773347 -0.016504869 0.006786999 0.0161839
-0.0077920253 -0.016116923 -0.015730448 -0.031906176 -0.011032911 -0.030816311 0.043276176 -0.015662637
-0.0064295316 -0.020469949 0.013173148 0.0053329617 0.008004401 -0.008159591 0.008369148 0.005674182
-0.006032543 -0.016083969 0.008850235 0.025400344 0.020481128 0.008870302 -0.012579687 0.013847976
-0.0054923063 0.016388342 -0.013424864 -0.0053061717 0.023394214 -0.0063538463 0.022040984 -0.013751149
0.013198617 -0.011867976 0.02758287 0.01361505 0.0107263755 0.008663997 -0.011416745 0.015560185
-0.012024594 0.007526972 0.013643952 0.017398722 0.024442714 -0.009967816 -0.014910108 -0.018289976
-0.010487569 -0.015702883 -0.020926123 -0.010122169 0.005733921 0.011215455 0.0071803858 -0.015320827
00000000: ae6f 883c e174 b9bc b4a5 98bc 4c50 cfbb
00000010: 0ee6 42bc b71c 853c c0f0 30bc edea 6bbc
00000020: dea7 763d 147c 263c d6c4 5dbc 514e 1fbc
00000030: 549c da3b 8d30 a93b 1f50 07bc 07eb 653c
00000040: 75a3 373c 537a 853c 20ae 6ebc 42f8 41bc
00000050: 7ea0 bfbc e124 c63c 2fb5 79bc e8d8 48bc
00000060: 16fa 82bc c337 95bb ea40 99bc 6adf 92bc
00000070: 0a2b 3abc 671f 4e3c cf17 4b3c b480 febb
00000080: 18a6 103c 83f3 95bc b4af 07bd 195d 0a3c
00000090: 79c4 3c3c f238 89bc 6ba9 0a3d dee8 ecbc
000000a0: 34e4 313c 1bb6 e13b 2adf cdbc bc47 103c
000000b0: 21ac ab3b de98 113c 5444 2cbc 0c82 0c3c
000000c0: ee10 3e3c 101d e23b 1685 15bc 2d14 95bc
000000d0: 69a0 59bc 8973 3e3c 5f9c 373c d8a3 e7bc
000000e0: 1fed e23c d593 5ebc b2c9 023c 7d07 82bc
000000f0: 3a1c 243c fc65 913c cff9 da3b e388 2c3c
00000100: ed5a e33b 43bb 453c 2fcd 7dbc 7be3 2bbc
00000110: 784b f0bb ba7c 083c d118 22bc 683b 38bc
00000120: 09a7 e13c 0efa 7b3c e404 5fbc 40b9 073d
00000130: 30bf a6bc 15d4 b33c bbfc 1ebc aca7 3bbc
00000140: af42 eabb 0c5f f2bc 88ea 833c fe45 fbbb
00000150: b902 713d d9c0 ac3c 3d1b 48bc 5289 8fbc
00000160: 38db dcbc 3b72 6cbc 6a40 c73b 3701 16bd
00000170: 1f91 f1bb 63df d33b 8054 39bc 106a 46bc
00000180: 0207 903c d6a2 dabb 96f7 173d d4b6 71bc
00000190: ed67 41bc 9734 58bc 20a6 93bc 5611 c83b
000001a0: 9d1f 70bc 7c1e 94bc ca0f 843c 53f8 cabc
000001b0: b74e 83bb 3531 2e3c f027 233c 5038 34bc
000001c0: 31e5 52bc 5eee 06bc 9fb3 403c 1d56 81bc
000001d0: 2092 103c d1ee 39bc 4bbf be3b 2435 20bc
000001e0: 8766 6cbc aa02 fa3b db8f cbbc b90a 1dbc
000001f0: 26c3 8a3c f8fa 7dbc e8f1 d13c 2f42 afbc
00000200: 3430 023d ff82 02bc 2340 2b3c 597a 4d3c
00000210: 67d4 9e3c 82cc 513c 60ce b23c 13c8 2d3c
00000220: b619 0f3c 30f5 193c 6ea7 333c bd98 b9bb
00000230: d654 543c 4910 053d b0d4 413d 95fd 983d
00000240: bc66 083c 8236 febb cafe 7ebc deca 053d
00000250: ac22 033c 5d35 1cbc 6240 3d3c 91ae 29bc
00000260: 256f 713c 4d10 33bc 8cdc 0b3d c88e 683c
00000270: 8dec 2fbc e53e ed3b 8afc d03b 039c 8e3c
00000280: 04dc 1cbc 0058 b83c 184c cb3c 032f 323c
00000290: 6f8b 3ebc 94d3 82bc b02d babc 98d6 b4bc
000002a0: d443 4f3c 6952 473c 9fd5 663c ff3b 4c3c
000002b0: c227 9fbc b766 7b3c a338 60bc 176e e53c
000002c0: 88a9 ff3b e15f 63bc cf0f 473c 8685 febb
000002d0: f60f 88bc 9102 ff3b 7ece 2e3c bb07 923c
000002e0: 4bd6 683c 868d f03b b42f 08bc 803b 0a3d
000002f0: 9fa1 11bc b1b0 32bc fae6 8dbc 1d75 16bc
00000300: f648 08bc 86cb 0abc def4 1ebc 06d3 0f3c
00000310: 90ca 993c 3835 87bc 7965 de3b 1994 843c
00000320: 3f54 ffbb a307 84bc 24dd 80bc 0db0 02bd
00000330: 62c3 34bc 7d72 fcbc 5c42 313d ee4e 80bc
00000340: d2ae d2bb 98b0 a7bc 30d4 573c 20c0 ae3b
00000350: e424 033c ceaf 05bc c01e 093c 7dee b93b
00000360: a3ac c5bb 87c2 83bc 9300 113c 6214 d03c
00000370: 0ac8 a73c be54 113c 081b 4ebc 9fe2 623c
00000380: cef8 b3bb d840 863c f6f3 5bbc 65df adbb
00000390: 39a5 bf3c ed33 d0bb 4b8f b43c 804c 61bc
000003a0: 033f 583c e671 42bc 79f5 e13c a911 5f3c
000003b0: aebd 2f3c 70f3 0d3c 4d0d 3bbc 25f0 7e3c
000003c0: cd02 45bc d1a4 f63b e28a 5f3c c487 8e3c
000003d0: 163c c83c 0d50 23bc 8749 74bc dcd4 95bc
000003e0: 0dd4 2bbc 55a3 80bc 436d abbc 74d7 25bc
000003f0: 9ee3 bb3b 07c1 373c 7149 eb3b 3504 7bbc

bn1.weight f4 [512]
0.2059684 0.17519015 0.23570682 0.45701945 0.03413159 0.61748356 0.6186582 0.4952442
0.5781834 0.15079488 0.45057008 0.7348125 0.07260918 0.53327423 0.52240914 0.63842374
0.05028114 0.28014195 0.82371205 0.527767 0.8238291 0.36569917 0.36083606 0.74055654
0.65108263 0.65759766 0.25548542 0.53408015 0.118444264 0.08749273 0.24202928 0.5940091
0.18946524 0.7365432 0.30521718 0.59139 0.6463953 0.74783206 0.3037659 0.5209921
0.7192199 0.5279905 0.09420939 0.15099986 0.6294512 0.7666461 0.6742027 0.84980303
0.7650503 0.12653737 0.27400556 0.25950447 0.47122195 0.52247506 0.062765926 0.30538177
0.65381354 0.61964655 0.56935006 0.6009991 0.37144843 0.5852556 0.88147795 0.8396603
0.5052878 0.8100924 0.6743429 0.6133018 0.5673638 0.1323124 0.25589716 0.84191954
0.82728785 0.68838197 0.5090454 0.86987 0.6045865 0.3478227 0.74208903 0.5181915
0.45379925 0.25474492 0.31756845 0.2890002 0.76707715 0.6624729 0.3733485 0.7553465
0.3603339 0.17091757 0.754044 0.7754541 0.73261905 0.40733615 0.12340347 0.63291645
0.6733222 0.64846253 0.4913108 0.23285295 0.8374953 0.7163336 0.79174197 0.20895354
0.18391234 0.30393055 0.7046247 0.10317611 0.67591494 0.74503326 0.72069025 0.2481795
0.8537317 0.51863086 0.7713259 0.73682535 0.789368 0.6683153 0.7967881 0.436749
0.6726447 0.597392 0.1127203 0.6795006 0.53764594 0.38244015 0.768285 0.1013533
0.57404923 0.7459373 0.40072933 0.29527593 0.10691584 0.3904699 0.7331659 0.740065
0.33657992 0.23302184 0.62957585 0.5422743 0.7277422 0.12764288 0.8523995 0.84259593
0.34126163 0.62332207 0.451307 0.4822553 0.8709181 0.6187987 0.54713356 0.05094244
0.8807198 0.24761954 0.14142886 0.33963454 0.75300467 0.41746768 0.044920016 0.40791827
0.13859653 0.7465049 0.8418665 0.43611857 0.78122157 0.28382978 0.57245255 0.44366017
0.438441 0.65632004 0.099825166 0.41045046 0.44617707 0.56300503 0.8260192 0.79249513
0.44720417 0.607027 0.87532234 0.27800426 0.34628785 0.32412735 0.39755458 0.5845551
0.07531276 0.92460287 0.34422964 0.11739724 0.8372641 0.523491 0.32977992 0.6899364
0.24522609 0.3933174 0.63835984 0.12392165 0.48349246 0.6846577 0.777311 0.6351877
0.69643456 0.32167983 0.47296757 0.7316466 0.6050328 0.10847799 0.03348152 0.31901243
0.18897864 0.116928026 0.10887955 0.5141958 0.6534966 0.30397078 0.856235 0.27605575
0.15225182 0.5154312 0.53302145 0.0792044 0.35518953 0.5153628 0.531282 0.106651664
0.7254954 0.54795873 0.11960409 0.067720234 0.8763404 0.74094903 0.34887356 0.19052656
0.17667331 0.7487987 0.38686758 0.5350762 0.7403369 0.517116 0.50703496 0.19145042
0.7293557 0.02300574 0.11187065 0.99149156 0.14004052 0.26594093 0.78395 0.49789673
0.5077599 0.2880456 0.7191915 0.47282326 0.27355197 0.7609284 0.8669895 0.7466159
00000000: 61e9 523e 0c65 333e 215d 713e 74fe e93e
00000010: 91cd 0b3d 6713 1e3f 6260 1e3f a690 fd3e
00000020: d403 143f f969 1a3e 1fb1 e63e ac1c 3c3f
00000030: 1fb4 943d a984 083f 9bbc 053f bd6f 233f
00000040: 99f3 4d3d c46e 8f3e cbde 523f bd1b 073f
00000050: 77e6 523f ec3c bb3e 81bf b83e 1d95 3d3f
00000060: 5aad 263f 5258 283f fcce 823e 7ab9 083f
00000070: e892 f23d 632f b33d 86d6 773e fb10 183f
00000080: 2d03 423e 188e 3c3f 6d45 9c3e 5665 173f
00000090: 2a7a 253f ec71 3f3f 3487 9b3e bd5f 053f
000000a0: cc1e 383f 632a 073f daf0 c03d b59f 1a3e
000000b0: b723 213f eb42 443f 8c98 2c3f b18c 593f
000000c0: 56da 433f 0393 013e 754a 8c3e c5dd 843e
000000d0: 0144 f13e edc0 053f 6c8b 803d 005b 9c3e
000000e0: 5360 273f 28a1 1e3f edc0 113f 14db 193f
000000f0: 7d2e be3e 50d3 153f 8aa8 613f faf3 563f
00000100: 8b5a 013f 3762 4f3f bca1 2c3f 5901 1d3f
00000110: c13e 113f e77c 073e f404 833e 0a88 573f
00000120: 23c9 533f cd39 303f cd50 023f cdaf 5e3f
00000130: 2ec6 1a3f d115 b23e 8cf9 3d3f 33a8 043f
00000140: 6058 e83e ed6d 823e 5598 a23e d6f7 933e
00000150: 2b5f 443f d397 293f 8927 bf3e 635e 413f
00000160: af7d b83e 0405 2f3e 0709 413f 2984 463f
00000170: ec8c 3b3f 5d8e d03e f5ba fc3d d006 223f
00000180: d85e 2c3f a401 263f 178d fb3e 0171 6e3e
00000190: 1866 563f a461 373f 9aaf 4a3f ebf7 553e
000001a0: 8453 3c3e c99c 9b3e 4962 343f ff4d d33d
000001b0: c308 2d3f 80ba 3e3f 287f 383f c422 7e3e
000001c0: 298e 5a3f fec4 043f 9d75 453f 96a0 3c3f
000001d0: 0514 4a3f b616 2b3f 4efa 4b3f 919d df3e
000001e0: 7132 2c3f afee 183f e7d9 e63d c0f3 2d3f
000001f0: 2aa3 093f 32cf c33e 53ae 443f 5292 cf3d
00000200: e4f4 123f bff5 3e3f 652c cd3e 682e 973e
00000210: b1f6 da3d aceb c73e c3b0 3b3f e674 3d3f
00000220: 3454 ac3e 479d 6e3e e22b 213f 7dd2 0a3f
00000230: 504d 3a3f d1b4 023e db36 5a3f 5eb4 573f
00000240: d8b9 ae3e 0992 1f3f b611 e73e 2bea f63e
00000250: 7df4 5e3f 9769 1e3f f210 0c3f 05a9 503d
00000260: da76 613f fa8f 7d3e bad2 103e 94e4 ad3e
00000270: eac4 403f 53be d53e 0dfe 373d aada d03e
00000280: 40ec 0d3e f21a 3f3f 9084 573f ef4a df3e
00000290: 23fe 473f 2352 913e 408c 123f 6d27 e33e
000002a0: 577b e03e 9704 283f 2371 cc3d 9026 d23e
000002b0: 5271 e43e 1921 103f ff75 533f f6e0 4a3f
000002c0: f2f7 e43e 1f66 1b3f 2015 603f 9356 8e3e
000002d0: a44c b13e 05f4 a53e 468c cb3e 67a5 153f
000002e0: 943d 9a3d c6b2 6c3f de3e b03e f76d f03d
000002f0: f156 563f 8203 063f ead8 a83e ac9f 303f
00000300: 8c1c 7b3e e660 c93e 8d6b 233f a2ca fd3d
00000310: 538c f73e ba45 2f3f dbfd 463f a99b 223f
00000320: 8949 323f 38b3 a43e ce28 f23e 314d 3b3f
00000330: 6ee3 1a3f b529 de3d eb23 093d 9955 a33e
00000340: 9e83 413e f677 ef3d 3efc de3d 56a2 033f
00000350: 8e4b 273f 0fa2 9b3e 3832 5b3f 2e57 8d3e
00000360: e7e7 1b3e 4df3 033f 1874 083f eb35 a23d
00000370: 67db b53e d1ee 033f 1902 083f 306c da3d
00000380: 11ba 393f 0647 0c3f fdf2 f43d e8b0 8a3d
00000390: d857 603f d6ae 3d3f 8e9f b23e 6519 433e
000003a0: d9e9 343e 46b1 3f3f 8213 c63e c1fa 083f
000003b0: b886 3d3f b761 043f 0bcd 013f 940b 443e
000003c0: 0eb7 3a3f 8976 bc3c 701c e53d 64d2 7d3f
000003d0: c866 0f3e 6929 883e f2b0 483f 52ec fe3e
000003e0: 8efc 013f b67a 933e ef1c 383f e415 f23e
000003f0: 010f 8c3e 34cc 423f 06f3 5d3f 3822 3f3f

bn1.bias f4 [512]
-0.07518164 0.14620319 -0.0021169013 0.09574983 0.056093454 -0.104895614 0.22817914 0.035891198
0.0079615675 0.041219853 0.070852354 0.085351504 -0.018624997 -0.0669617 -0.025240753 -0.032546356
-0.19799988 -0.040001906 -0.10814934 0.09190171 -0.06576917 0.056870505 0.076503605 0.082451046
0.061172254 0.07276305 0.0604546 0.0714001 -0.00042561226 -0.14090696 -0.009610259 0.087564714
0.035880473 0.14307465 0.11946267 0.107506685 0.029692188 0.09018104 0.0734391 -0.0314081
-0.03343934 0.006337643 0.067930005 0.03580358 0.00868005 -0.004846905 -0.049382303 0.10403742
-0.01658346 -0.08897189 0.14851399 0.15459973 0.14377907 0.11543133 -0.054144002 0.039071936
0.05838734 0.08631058 0.10689196 0.086812265 0.10008025 -0.019605903 0.04195877 0.01764899
0.06432273 0.023395255 0.12999028 0.08734991 0.13181205 -0.047998425 -0.02232762 -0.04134337
0.040128507 0.04546272 0.020163236 0.085873656 0.0806013 0.047718596 0.07112221 0.06091238
0.084512845 -0.11271036 -0.006412068 0.058727175 -0.06584544 0.016511278 -0.038869776 0.0006744634
0.12072235 -0.081035584 0.074412204 -0.056321617 0.075278044 0.04000996 -0.059825968 0.003039025
0.092094146 0.10913828 0.0004756645 0.0048008696 -0.049815502 0.12464749 0.030141927 -0.013348374
0.08068347 0.028707705 0.07521654 -0.15394728 0.02457209 0.07557222 -0.0043058586 0.00359851
-0.032992546 -0.030490806 0.09950383 0.037872758 0.030687183 0.043371785 0.029332725 -0.04582461
0.02881067 0.06688521 -0.16088021 -0.030744823 -0.103895746 0.048764676 0.103667445 0.13011843
0.11608408 0.13025026 0.06916979 -0.07256182 -0.02948015 0.056727473 0.10567375 0.08181769
-0.027096834 -0.0059485775 0.15889233 0.07288988 0.06098388 -0.065847196 0.21799234 0.06798719
-0.007762681 0.04639989 0.098952346 0.027259214 0.121602595 0.061954316 0.11433465 -0.0136673115
-0.047779176 0.06070304 -0.0982549 0.09279749 0.121557556 0.096796885 -0.15349214 -0.057659037
0.030492142 0.039181676 0.036570787 0.058040384 0.09971167 -0.031305145 0.080233045 0.08003754
0.07677706 0.060746174 -0.0016749097 0.05971764 0.047627907 0.083028525 -0.10795798 0.03771067
0.079586886 0.00560582 0.102128506 -0.022722738 0.052517463 -0.029484695 -0.029609095 -0.016902907
-0.15588659 0.07064135 0.08148026 -0.1157676 0.08062756 0.054702125 0.06600626 0.018025769
0.045939192 -0.003524009 -0.025093442 -0.044880282 0.1021902 -0.015590012 0.21722116 -0.018284652
0.00045425916 -0.05084001 0.08516882 -0.022530006 0.038604695 0.22739697 -0.06573382 0.12593047
-0.021690603 0.10213855 0.3026423 -0.054972887 -0.045464635 0.101339586 0.0633266 0.12485168
0.1446778 0.050465487 0.14382134 0.03798315 0.078762926 0.025230534 0.117341936 0.07574633
0.10271708 0.07063086 -0.04243614 -0.13114229 0.10653531 -0.02331334 0.048582472 0.10586022
-0.04438501 0.020671396 0.09212243 0.008579333 -0.035295535 0.029461507 -0.020326393 0.038166907
-0.049949817 -0.034949586 -0.00017513425 0.06792002 0.12044217 0.018829206 0.117058344 0.13311028
0.039595958 0.041903842 0.08452868 0.101283625 0.045789313 0.19865458 0.117692076 0.13131954
00000000: d5f8 99bd 4ab6 153e b6bb 0abb 7d18 c43d
00000010: 40c2 653d 83d3 d6bd cba7 693e a602 133d
00000020: 3c71 023c 26d6 283d 0a1b 913d c5cc ae3d
00000030: 7393 98bc 3723 89bd b2c5 cebc 544f 05bd
00000040: 7bc0 4abe 0ad9 23bd 677d ddbd f736 bc3d
00000050: fdb1 86bd 0cf1 683d ecad 9c3d 18dc a83d
00000060: c28f 7a3d cb04 953d 3e9f 773d 373a 923d
00000070: b624 dfb9 ea49 10be 5974 1dbc 2155 b33d
00000080: 67f7 123d 2982 123e d8a8 f43d 772c dc3d
00000090: 083d f33c d6b0 b83d 3d67 963d c8a5 00bd
000000a0: b0f7 08bd 01ac cf3b e31e 8b3d c6a6 123d
000000b0: c536 0e3c c9d2 9ebb 1945 4abd 9211 d53d
000000c0: 09da 87bc e536 b6bd 0d14 183e 644f 1e3e
000000d0: d23a 133e 4367 ec3d 1ac6 5dbd e509 203d
000000e0: 9027 6f3d 9ac3 b03d 2cea da3d a1ca b13d
000000f0: e0f6 cc3d 8f9c a0bc f6dc 2b3d 9d94 903c
00000100: a3bb 833d 68a7 bf3c 2c1c 053e 82e4 b23d
00000110: bdf9 063e ff99 44bd 6ae8 b6bc aa57 29bd
00000120: ca5d 243d 1e37 3a3d 5f2d a53c 87de af3d
00000130: 4b12 a53d 9374 433d 85a8 913d 437f 793d
00000140: 1215 ad3d b0d4 e6bd 531c d2bb e88b 703d
00000150: f9d9 86bd a942 873c ea35 1fbd 79ce 303a
00000160: 483d f73d fcf5 a5bd 6d65 983d 7fb1 66bd
00000170: 602b 9a3d 7ce1 233d 130c 75bd 612a 473b
00000180: db9b bc3d e483 df3d 9c62 f939 9d50 9d3b
00000190: 570b 4cbd 2f47 ff3d 34ec f63c 23b3 5abc
000001a0: 603d a53d 6c2c eb3c 210b 9a3d 5ba4 1dbe
000001b0: 684b c93c 9cc5 9a3d 2918 8dbb fbd4 6b3b
000001c0: 3123 07bd dbc7 f9bc aac8 cb3d 7720 1b3d
000001d0: b063 fb3c 9da6 313d 2f4b f03c 96b2 3bbd
000001e0: 5b04 ec3c 1dfb 883d c8bd 24be 91dc fbbc
000001f0: 4bc7 d4bd 78bd 473d 994f d43d c43d 053e
00000200: 7dbd ed3d 5360 053e e4a8 8d3d 4b9b 94bd
00000210: 5b80 f1bc 115b 683d 7b6b d83d 0890 a73d
00000220: 2efa ddbc 49ec c2bb acb4 223e 4a47 953d
00000230: 3cca 793d e5da 86bd 6239 5f3e de3c 8b3d
00000240: 175e febb d00d 3e3d 87a7 ca3d b74e df3c
00000250: c80a f93d cfc3 7d3d 4928 ea3d dcec 5fbc
00000260: 19b4 43bd c0a3 783d dd39 c9bd 9c0c be3d
00000270: 2bf3 f83d 723d c63d 0b2d 1dbe e22b 6cbd
00000280: a8ca f93c f77c 203d 40cb 153d c1bb 6d3d
00000290: a235 cc3d d339 00bd 3951 a43d b9ea a33d
000002a0: 4b3d 9d3d fbd0 783d a588 dbba 7c9a 743d
000002b0: 7b15 433d dc0a aa3d 1319 ddbd 8176 1a3d
000002c0: 73fe a23d 07b1 b73b c028 d13d 0925 babc
000002d0: 8d1c 573d e389 f1bc c68e f2bc f777 8abc
000002e0: bca0 1fbe 69ac 903d 1fdf a63d 9017 edbd
000002f0: 1020 a53d 560f 603d 4a2e 873d c7aa 933c
00000300: bc2a 3c3d 0ff3 66bb c390 cdbc 63d4 37bd
00000310: 1849 d13d 406d 7fbc 396f 5e3e b2c9 95bc
00000320: a229 ee39 9d3d 50bd fe6c ae3d d990 b8bc
00000330: f51f 1e3d c0da 683e 749f 86bd ebf3 003e
00000340: 7eb0 b1bc 042e d13d eef3 9a3e 402b 61bd
00000350: 2039 3abd 218b cf3d 60b1 813d 3db2 ff3d
00000360: 6b26 143e e6b4 4e3d e745 133e 3894 1b3d
00000370: 754e a13d 44b0 ce3c f850 f03d e420 9b3d
00000380: 555d d23d eaa6 903d 85d1 2dbd 2a4a 06be
00000390: 2f2f da3d 9efb bebc 6afe 463d 3ecd d83d
000003a0: 0ecd 35bd 0f57 a93c afaa bc3d 5590 0c3c
000003b0: 0d92 10bd 4259 f13c 8983 a6bc e754 1c3d
000003c0: 2e98 4cbd 4c27 0fbd 3ea4 37b9 a719 8b3d
000003d0: 62aa f63d b53f 9a3c 49bc ef3d 104e 083e
000003e0: 5f2f 223d 5da3 2b3d 5f1d ad3d ca6d cf3d
000003f0: 938d 3b3d 1b6c 4b3e 8b08 f13d a178 063e

bn1.running_mean f4 [512]
3.365669 1.2420955 0.053891882 0.47463527 1.4252708 0.47278902 0.364258 0.39435148
0.97385925 0.33114696 1.3915988 0.2901205 1.2787337 0.9927832 0.107838035 0.50975597
1.6247916 0.42521366 0.40213495 1.7775347 0.7762196 0.4976405 0.1319886 0.8325565
0.45615286 0.28765956 0.15926899 0.4905339 1.0273584 0.8476853 0.1333855 1.2887889
0.13206072 0.39627188 0.48920998 1.2150818 0.44565162 0.7413233 0.095530264 0.6223812
0.5463461 1.2654833 0.4936813 0.47352543 0.5833003 0.82713544 1.2032292 0.056668274
0.98136866 0.59044033 0.9400159 0.23075962 0.38754922 0.7860014 1.4030201 1.0669941
0.12431912 0.14510027 1.424294 0.76791507 0.09965624 0.8681332 0.83532417 1.1275666
1.4405966 0.97453547 0.049887124 0.615716 0.8140785 0.89493924 0.82549036 1.2303247
0.7761414 0.5503628 0.4874746 0.18606324 0.18548155 1.0640838 1.8951706 0.9225587
0.62790686 1.0659864 0.12707368 0.25413638 1.826267 0.26824746 2.0481365 0.64066523
0.259805 1.6412535 0.51897734 0.44898775 0.88473535 1.5684767 0.30408993 0.6740159
1.5275539 0.32087916 0.20055355 0.3266548 3.8936033 2.1952431 0.5853993 0.21612781
0.3150299 0.14123741 0.7730237 0.6282562 0.7486858 0.978037 0.42109132 0.64490104
0.59429014 0.1730125 0.8455354 0.35293368 0.9126247 0.57565933 0.86390334 0.37312308
0.120448716 1.4406644 0.07265595 0.5211688 0.40107906 0.1078883 0.15841967 0.81757724
0.06722087 0.086846724 0.34980118 0.14690728 0.31058756 0.3088411 0.6476767 0.90646315
0.7344069 1.0252893 0.42602336 0.15424044 0.37377438 0.36682382 0.2517829 1.3029816
0.100240536 1.0908355 0.08263039 0.48685345 0.44290513 0.22219032 0.37242544 0.6987938
0.372655 0.3928276 0.80316067 0.3500117 0.82316786 0.91367364 1.4294811 0.6997164
1.2613288 0.7899716 0.57479364 1.2429839 0.11797061 0.14707069 0.18876491 1.7350074
0.2125365 0.8709735 0.609009 0.32312232 0.36363664 1.0931723 2.8143306 0.7756204
0.12842044 0.29497913 0.47793666 0.8691773 1.0351889 0.20595738 0.6492278 1.8689252
0.5910233 0.11151542 0.08265429 0.31669793 0.3028684 0.57097423 0.69361836 0.41987008
0.41007647 0.16854724 0.4513519 0.89643234 0.32073918 0.1699283 0.9570066 1.3948107
0.4373772 0.41741496 1.1305244 0.62524915 1.3830695 0.17364958 0.43302056 0.7411976
0.36033633 0.3273391 0.501751 1.685983 0.53038776 0.10154585 0.48957086 0.29341963
0.21413963 0.042939786 0.214472 0.7100965 0.19493939 0.60501343 0.8546219 0.44241568
0.67582977 0.4641048 0.12478116 0.22694306 0.74571186 0.6877684 0.36146638 0.1371686
0.570594 1.4845735 0.26737732 0.659304 1.3525542 0.10433949 1.5415576 0.27865905
2.2884307 0.9968189 0.6954781 0.22103952 0.59165275 1.0062331 0.8319688 0.48042774
1.0032766 0.77679473 0.9307325 1.3973751 0.30146846 0.3151331 0.30037805 0.20061925
00000000: 1f67 5740 fcfc 9e3f bcbd 5c3d 6503 f33e
00000010: 466f b63f 6711 f23e 0680 ba3e 70e8 c93e
00000020: d74e 793f 188c a93e e91f b23f ad8a 943e
00000030: 8cad a33f 0a27 7e3f 30da dc3d 5e7f 023f
00000040: 2cf9 cf3f 9bb5 d93e a2e4 cd3e 4286 e33f
00000050: 54b6 463f bcca fe3e 0528 073e 6c22 553f
00000060: de8c e93e 1d48 933e 6917 233e 4227 fb3e
00000070: 7b80 833f e701 593f 3596 083e 09f7 a43f
00000080: ed3a 073e 26e4 ca3e bb79 fa3e cd87 9b3f
00000090: 732c e43e 5dc7 3d3f 5fa5 c33d 6054 1f3f
000000a0: 57dd 0b3f 5bfb a13f ccc3 fc3e ed71 f23e
000000b0: 2b53 153f 26bf 533f 6a03 9a3f fe1c 683d
000000c0: fa3a 7b3f 1927 173f e2a4 703f 404c 6c3e
000000d0: da6c c63e 6337 493f 2a96 b33f 4393 883f
000000e0: 069b fe3d 2a95 143e 444f b63f 1596 443f
000000f0: 9218 cc3d fa3d 5e3f ced7 553f 1a54 903f
00000100: 7865 b83f 287b 793f 7156 4c3d 909f 1d3f
00000110: 7367 503f bd1a 653f 5653 533f 487b 9d3f
00000120: 34b1 463f 94e4 0c3f 4596 f93e 5d87 3e3e
00000130: e0ee 3d3e e633 883f f394 f23f cf2c 6c3f
00000140: 81be 203f 3e72 883f 9a1f 023e 2a1e 823e
00000150: 1ec3 e93f bb57 893e ab14 0340 a302 243f
00000160: 2905 853e 9814 d23f b3db 043f b9e1 e53e
00000170: 047e 623f d8c3 c83f adb1 9b3e 4e8c 2c3f
00000180: e386 c33f 464a a43e e95d 4d3e 4c3f a73e
00000190: cc30 7940 dd7e 0c40 bbdc 153f 9c50 5d3e
000001a0: 994b a13e 8aa0 103e e2e4 453f 66d5 203f
000001b0: dfa9 3f3f a260 7a3f 4899 d73e 3c18 253f
000001c0: 6623 183f 302a 313e 0275 583f b9b3 b43e
000001d0: c6a1 693f 695e 133f c528 5d3f fd09 bf3e
000001e0: d1ad f63d b167 b83f a5cc 943d 526b 053f
000001f0: 3c5a cd3e 8bf4 dc3d c438 223e be4c 513f
00000200: 18ab 893d b2dc b13d 2419 b33e dd6e 163e
00000210: 5505 9f3e 6c20 9e3e 24ce 253f f80d 683f
00000220: 1702 3c3f ae3c 833f bc1f da3e 35f1 1d3e
00000230: 5b5f bf3e 55d0 bb3e b0e9 803e 1ac8 a63f
00000240: e94a cd3d 7fa0 8b3f 1f3a a93d db44 f93e
00000250: 76c4 e23e dc85 633e 8cae be3e 27e4 323f
00000260: a3cc be3e b320 c93e f09b 4d3f bc34 b33e
00000270: 21bb 523f 84e6 693f 3df9 b63f 9d20 333f
00000280: 3973 a13f 943b 4a3f ad25 133f 191a 9f3f
00000290: 939a f13d b399 163e 974b 413e b914 de3f
000002a0: 2ba3 593e 1ff8 5e3f 04e8 1b3f 4a70 a53e
000002b0: 952e ba3e 12ed 8b3f fe1d 3440 0f8f 463f
000002c0: a680 033e 8107 973e 1db4 f43e 6782 5e3f
000002d0: 1281 843f 7ee6 523e cb33 263f f138 ef3f
000002e0: 4e4d 173f 3262 e43d a746 a93d 3b26 a23e
000002f0: 9111 9b3e 5e2b 123f f990 313f 36f9 d63e
00000300: 8bf5 d13e a697 2c3e 9917 e73e 977c 653f
00000310: ed37 a43e af01 2e3e 62fe 743f 2889 b23f
00000320: e8ef df3e 6ab7 d53e 06b5 903f 5410 203f
00000330: 6c08 b13f 32d1 313e dfb4 dd3e 20bf 3d3f
00000340: 017e b83e fe98 a73e c172 003f 4ace d73f
00000350: 7ec7 073f 45f7 cf3d 08a9 fa3e 193b 963e
00000360: 6b47 5b3e a1e1 2f3d 8c9e 5b3e e2c8 353f
00000370: 319e 473e 29e2 1a3f 80c8 5a3f 4f84 e23e
00000380: 2e03 2d3f 259f ed3e 448d ff3d c363 683e
00000390: f9e6 3e3f 9711 303f 1f12 b93e ed75 0c3e
000003a0: 7312 123f 8106 be3f aee5 883e 26c8 283f
000003b0: 7f20 ad3f f1af d53d c251 c53f 66ac 8e3e
000003c0: a675 1240 862f 7f3f da0a 323f 2f58 623e
000003d0: 8e76 173f 3fcc 803f e8fb 543f a0fa f53e
000003e0: 5e6b 803f 05dc 463f 7c44 6e3f 30dd b23f
000003f0: 135a 9a3e 2059 a13e 27cb 993e 226f 4d3e
