2 - Continuous Control -DDPG/trained_agents/ddpg_reacher_checkpoint_critic.pth (torch_old, 308684 bytes, 9 tensors)

fc1.weight f4 [256, 33]
0.1582025 0.022535028 0.004093911 -0.15125361 0.38606343 0.040277105 0.068619065 0.023038853
0.21546866 -0.009297601 -0.03197282 0.0019294431 -0.0686329 -0.120635904 0.024641022 0.09706519
-0.08948578 0.68566406 0.46451566 -0.16754597 -0.0182488 0.030118616 -0.028622953 0.045199573
0.033358134 -0.012323644 0.109309874 0.21186665 -0.20899405 0.023106545 -0.21624655 0.0077740625
0.36749834 -0.18185915 0.05757871 0.07462761 -0.106206425 0.027599152 -0.3029816 -0.20399612
-0.04128504 0.12305033 -0.023607926 -0.08216868 -0.01413028 -0.044334084 0.09073121 -0.0065821204
-0.15976155 0.3236442 0.33326662 -0.16280273 -0.5799059 0.046269614 -0.012059001 0.015423691
-0.028567787 4.82115e-05 -0.054782107 0.038736247 0.18831772 0.20544438 -0.04516884 -0.11884092
-6.5647066e-05 0.48656464 0.07900296 -0.09275679 0.27853924 -0.123766616 0.29840928 -0.013739917
0.32129425 -0.05063576 0.21874292 0.21714748 -0.18665713 -0.12707068 -0.042745966 -0.0021356957
0.05605362 -0.092266805 0.02524728 0.4284976 -0.6933055 -0.0046800184 0.14215285 0.011730847
0.03213407 -0.032367405 -0.019889906 0.12750874 -0.045544587 0.04869116 -0.006616152 -0.025546417
-0.12527986 0.009856708 -0.12201421 -0.12870938 -0.21165387 0.08764036 0.059509713 -0.055013638
0.15154776 -0.45729217 -0.048403278 -0.09804972 -0.07756414 0.015848693 -0.06471578 -0.089920945
0.16198345 0.19535895 0.028604953 0.36912465 -0.27855602 0.3328045 -0.1441891 -0.036575638
0.119834565 -0.068669066 -0.013197278 0.07852395 0.11546338 -0.08370491 0.095538884 -0.1198959
-0.021629356 -0.20582116 -0.049072735 0.37919518 0.14733157 -0.13536745 0.13258688 -0.29778588
0.6578977 0.15124023 -0.030291468 0.01487363 0.27611578 0.193286 -0.013773933 0.07712028
-0.11738274 -0.08148975 0.084929526 0.076143116 0.25214437 -0.19284545 -0.0112771075 0.5468381
-0.017105749 -0.025735866 -0.08828614 0.20181543 0.00662149 0.04476814 -0.010300338 0.24933146
0.045582112 -0.034156755 -0.26090062 0.0024517104 0.015961276 -0.019078264 -0.02277933 0.090150155
0.47176427 -0.6493077 -0.34475738 0.026507802 0.04436443 -0.119370714 0.22948664 -0.06282553
0.0014036011 0.055298965 -0.03746787 -5.2109186e-05 -0.011008106 0.5124845 0.03423902 0.21805039
0.27326587 0.0035246804 0.047099803 0.0717243 -0.24698922 0.014653656 -0.0016228666 -0.04196629
0.23751047 0.042138975 0.026004367 -0.20559913 -0.054006338 0.3508968 -0.112851046 0.05885165
-0.11651197 -0.04417333 -0.22296286 -0.13957766 -0.31504932 -0.16825442 -0.012802955 -0.06638305
-0.027173176 0.08629241 -0.06541053 -0.045760036 0.034850378 0.16367438 -0.28523004 0.021314384
-0.18593848 -0.19688231 0.06593613 0.080269925 0.043366026 0.06257563 0.060962707 0.095586
0.09989694 0.1921131 -0.052105483 -0.017418802 -0.19331223 0.006590031 0.8246496 0.08354164
0.14348425 0.004186233 -0.10728337 0.263446 0.26467428 0.80997175 -0.0844394 0.053907167
-0.10938198 0.08624082 0.04466517 0.04057804 -0.033944145 -0.12445128 0.09029415 0.527017
-0.06057463 0.1513917 0.14500058 -0.048094317 -0.0868658 -0.06343748 -0.039963137 -0.03389707
00000000: d6ff 213e 619b b83c 3726 863b 3ae2 1abe
00000010: 1baa c53e 9bf9 243d 2788 8c3d fabb bc3c
00000020: d1a3 5c3e f754 18bc eff5 02bd 5ee5 fc3a
00000030: 688f 8cbd f50f f7bd f8db c93c 1dca c63d
00000040: 5244 b7bd ae87 2f3f ffd4 ed3e 2c91 2bbe
00000050: 827e 95bc 51bb f63c af7a eabc 3023 393d
00000060: 8aa2 083d 1ce9 49bc dbdd df3d 92f3 583e
00000070: 8902 56be f049 bd3c bc6f 5dbe 90bd fe3b
00000080: be28 bc3e 4939 3abe a7d7 6b3d 5cd6 983d
00000090: c182 d9bd 9e17 e23c 6720 9bbe 5ce4 50be
000000a0: 811a 29bd d001 fc3d 6965 c1bc 0e48 a8bd
000000b0: b182 67bc a897 35bd 49d1 b93d d4ae d7bb
000000c0: 8898 23be b1b4 a53e eca1 aa3e c2b5 26be
000000d0: b774 14bf 3585 3d3d 1e93 45bc a6b3 7c3c
000000e0: fe06 eabc b436 4a38 3463 60bd e6a9 1e3d
000000f0: 5cd6 403e 0360 523e f602 39bd de62 f3bd
00000100: 00ac 89b8 001f f93e 4ecc a13d 46f7 bdbd
00000110: b29c 8e3e 5a79 fdbd 1ac9 983e 641d 61bc
00000120: ae80 a43e 7167 4fbd 25fe 5f3e e95b 5e3e
00000130: 0c23 3fbe d11e 02be 6516 2fbd 07f7 0bbb
00000140: 7b98 653d 61f6 bcbd 62d3 ce3c 0a64 db3e
00000150: 787c 31bf d75a 99bb 8490 113e bd32 403c
00000160: 049f 033d af93 04bd 28f0 a2bc a791 023e
00000170: f68c 3abd 6270 473d 4ecc d8bb b846 d1bc
00000180: 5d49 00be 087e 213c 96e2 f9bd 64cc 03be
00000190: cbbb 58be ca7c b33d 75c0 733d fb55 61bd
000001a0: 562f 1b3e 3322 eabe 8442 46bd 4bce c8bd
000001b0: f3d9 9ebd 1ed5 813c b589 84bd 7928 b8bd
000001c0: fdde 253e 2d0c 483e ef54 ea3c e8fd bc3e
000001d0: e59e 8ebe 5a65 aa3e 4fa6 13be 56d0 15bd
000001e0: d36b f53d 5ea2 8cbd 6539 58bc 2ad1 a03d
000001f0: 1178 ec3d 7b6d abbd e4a9 c33d fb8b f5bd
00000200: 0c30 b1bc c8c2 52be 7e00 49bd df25 c23e
00000210: 16de 163e c49d 0abe dbc4 073e 6477 98be
00000220: fc6b 283f b8de 1a3e d025 f8bc 87b0 733c
00000230: 0c5f 8d3e c4ec 453e 10ac 61bc 3df1 9d3d
00000240: 5d66 f0bd 19e4 a6bd 88ef ad3d ecf0 9b3d
00000250: 1119 813e 4779 45be 9ec3 38bc 95fd 0b3f
00000260: 5b21 8cbc 06d4 d2bc 5dcf b4bd b4a8 4e3e
00000270: 16f9 d83b cc5e 373d c0c2 28bc bf50 7f3e
00000280: 4fb4 3a3d f4e7 0bbd c494 85be e0ac 203b
00000290: 39c1 823c 054a 9cbc b89b babc a5a0 b83d
000002a0: 168b f13e 0839 26bf 0a84 b0be e426 d93c
000002b0: 7ab7 353d a278 f4bd 8cfe 6a3e acaa 80bd
000002c0: 0af9 b73a 2b81 623d e977 19bd d08f 5ab8
000002d0: 585b 34bc 2f32 033f 373e 0c3d 9a48 5f3e
000002e0: 81e9 8b3e 53fe 663b b9eb 403d 31e4 923d
000002f0: beea 7cbe e315 703c 5eb6 d4ba d8e4 2bbd
00000300: f235 733e eb99 2c3d 1c07 d53c 9488 52be
00000310: c035 5dbd bfa8 b33e 731e e7bd 6e0e 713d
00000320: d49d eebd 18ef 34bd 6050 64be 72ed 0ebe
00000330: 254e a1be e34a 2cbe 7cc3 51bc d6f3 87bd
00000340: 489a debc 13ba b03d f5f5 85bd e06e 3bbd
00000350: 45bf 0e3d 429a 273e ac09 92be 819b ae3c
00000360: a866 3ebe 849b 49be 8609 873d 8f64 a43d
00000370: 93a0 313d a727 803d 08b4 793d 98c2 c33d
00000380: c496 cc3d 4cb9 443e 8f6c 55bd e0b1 8ebc
00000390: a4f3 45be 30f1 d73b 3c1c 533f e117 ab3d
000003a0: 89ed 123e ab2c 893b 62b7 dbbd 65e2 863e
000003b0: 6383 873e 4f5a 4f3f 90ee acbd c3cd 5c3d
000003c0: a903 e0bd 079f b03d d3f2 363d 2935 263d
000003d0: 0409 0bbd 50e0 febd 24ec b83d 96ea 063f
000003e0: 1a1d 78bd 6d06 1b3e 087b 143e 8cfe 44bd
000003f0: b2e6 b1bd 82eb 81bd 63b0 23bd a7d7 0abd

fc1.bias f4 [256]
-0.25534323 -0.04889677 0.056367077 -0.05737541 -0.26143807 -0.32152873 -0.36978722 -0.18728173
-0.30183718 -0.3537122 -0.29409006 -0.29563278 -0.043930177 -0.17213584 -0.1402513 -0.1416155
-0.20914681 -0.4425538 -0.20350075 -0.26816544 -0.116851054 -0.28567654 -0.09580266 -0.2624727
-0.045804128 -0.1499108 -0.020972436 -0.116103 -0.22173707 -0.2992813 -0.07879853 -0.28686643
-0.05185204 -0.25075454 -0.09497729 -0.067538336 -0.24532536 -0.30639496 -0.04183545 -0.14193752
-0.2703129 -0.117234126 -0.2699369 0.04276066 -0.37127537 -0.31442073 -0.07718902 -0.042751595
0.06362432 -0.19206554 -0.15849431 -0.19673103 -0.044213064 0.08782148 -0.046670053 -0.05248422
-0.12442829 -0.008843629 -0.25397125 -0.058435954 -0.21994554 0.0510372 -0.21412507 -0.23741105
-0.33224818 -0.26077202 -0.07244359 -0.1397696 -0.047155917 -0.1110316 -0.06552903 -0.051853955
-0.1735463 -0.2488699 -0.30938414 -0.1918465 -0.1492633 -0.30910423 -0.22916216 -0.30364951
0.17384975 -0.13358432 -0.18125546 -0.38600162 -0.09369913 -0.14837193 -0.17787263 -0.29693884
-0.164093 -0.35411218 -0.26250505 -0.18844296 -0.36864886 -0.059353303 -0.23606712 -0.18343052
0.0064370995 -0.41177276 -0.0131995445 -0.38030815 -0.50393784 -0.0748994 0.1090466 -0.15704958
0.10952086 -0.30188474 -0.07238788 -0.198488 -0.13184798 -0.15023448 -0.22554685 -0.21778135
-0.24913965 -0.091817334 0.19189405 -0.24853416 -0.23937635 -0.07691054 -0.027829606 -0.099045694
-0.23735633 -0.24988395 -0.20424661 -0.2893684 -0.41309237 -0.25537795 -0.011366407 0.10922012
-0.21368243 -0.42971432 -0.2992332 -0.0013057792 -0.09630086 -0.20718603 -0.4399657 0.046332564
-0.13083357 0.005090675 -0.23506145 0.1487086 -0.1301191 -0.1963789 -0.030574085 -0.058747042
-0.065107636 0.024900425 -0.02223672 -0.23537569 -0.1298398 -0.28786275 -0.2630821 -0.3311442
0.07169624 -0.17962606 0.011484365 -0.16386391 -0.29784217 -0.41759077 -0.1712478 -0.47607112
-0.3213433 -0.22629705 -0.11237523 -0.09002965 -0.1151944 -0.12303905 -0.021064904 -0.25178495
-0.16080642 -0.38004133 -0.15202679 -0.14955333 0.116129644 -0.034708124 0.22656275 -0.19501461
-0.061807994 0.05576729 -0.40456912 -0.12529454 -0.14171803 -0.13739659 -0.038994413 0.022374835
0.018676052 -0.1599259 -0.3562088 -0.23973086 0.0830844 -0.37162894 -0.3377323 -0.32931465
-0.12090609 0.13631533 -0.10460326 -0.07075156 -0.39663404 -0.33303 -0.12267018 -0.2335681
-0.35254315 -0.42630458 -0.13921218 -0.18555255 -0.26156583 -0.32339436 -0.12393143 -0.115700446
-0.34633315 -0.09250457 -0.35751706 -0.35918057 -0.11273406 -0.24289188 -0.09119088 -0.017658768
-0.14915332 -0.22782005 0.0045130053 -0.3521863 -0.25133717 -0.11403466 -0.17082284 -0.21678528
0.00988316 -0.24938472 -0.47767368 0.20963919 -0.25048947 -0.31246132 -0.11132938 -0.1983121
-0.26568985 -0.20642309 -0.10589411 -0.17212647 -0.48924166 -0.036356322 -0.0854282 -0.22040857
-0.024005054 0.014911843 -0.20763698 0.14397565 -0.042862523 -0.15503156 0.13641961 0.06527509
-0.3933649 -0.2618293 -0.06941884 -0.33961847 -0.024783973 -0.42464483 -0.25876263 0.036868
00000000: 59bc 82be fb47 48bd 2ae1 663d 7a02 6bbd
00000010: 36db 85be 6a9f a4be c054 bdbe c8c6 3fbe
00000020: 678a 9abe c419 b5be f992 96be 2e5d 97be
00000030: 21f0 33bd 6144 30be 099e 0fbe a703 11be
00000040: 952a 56be 6996 e2be 8062 50be fb4c 89be
00000050: 9b4f efbd 3244 92be 2f34 c4bd d262 86be
00000060: 1c9d 3bbd 3782 19be 63ce abbc 69c7 edbd
00000070: 0b0f 63be 663b 99be 2061 a1bd 28e0 92be
00000080: ce62 54bd e662 80be 7483 c2bd 8a51 8abd
00000090: 9236 7bbe cddf 9cbe a65b 2bbd 1258 11be
000000a0: 7466 8abe 7218 f0bd 2b35 8abe cd25 2f3d
000000b0: ce17 bebe c1fb a0be 4715 9ebd 4c1c 2fbd
000000c0: 784d 823d d4ac 44be 554c 22be dc73 49be
000000d0: c218 35bd c0db b33d 1929 3fbd b2f9 56bd
000000e0: 42d4 febd dee4 10bc 8508 82be 8a5a 6fbd
000000f0: 6739 61be 620c 513d 9a43 5bbe e21b 73be
00000100: 6f1c aabe e983 85be 4e5d 94bd c31f 0fbe
00000110: 9026 41bd 8964 e3bd 1634 86bd d064 54bd
00000120: 1fb6 31be c0d7 7ebe 9967 9ebe 6973 44be
00000130: 7ad8 18be e942 9ebe 7ca9 6abe f377 9bbe
00000140: ab05 323e 54ca 08be 089b 39be 01a2 c5be
00000150: 54e5 bfbd d0ee 17be 3e24 36be 5e08 98be
00000160: ff07 28be 314e b5be 1067 86be 31f7 40be
00000170: 8bbf bcbe 731c 73bd 94bb 71be 36d5 3bbe
00000180: 4eee d23b e1d3 d2be e742 58bc c0b7 c2be
00000190: 1202 01bf db64 99bd d353 df3d 9bd1 20be
000001a0: 794c e03d a390 9abe 1940 94bd 7040 4bbe
000001b0: 2803 07be 11d7 19be c1f5 66be 1302 5fbe
000001c0: 771e 7fbe ba0a bcbd e07f 443e bd7f 7ebe
000001d0: 131f 75be 4683 9dbd eafa e3bc 78d8 cabd
000001e0: 8a0d 73be 94e1 7fbe 0626 51be 1828 94be
000001f0: d880 d3be e6c0 82be 2b3a 3abc ccae df3d
00000200: 91cf 5abe 8403 dcbe 1835 99be ae26 abba
00000210: 6339 c5bd 9328 54be 2f43 e1be 37c7 3d3d
00000220: 3cf9 05be adcf a63b f3b3 70be 1147 183e
00000230: f13d 05be 8d17 49be 8176 fabc bda0 70bd
00000240: 2757 85bd fafb cb3c c829 b6bc 5306 71be
00000250: b9f4 04be bf62 93be b2b2 86be bc8b a9be
00000260: 7ad5 923d e5ef 37be eb28 3c3c f1cb 27be
00000270: c57e 98be 75ce d5be 955b 2fbe 98bf f3be
00000280: 1c87 a4be 6aba 67be fc24 e6bd 7761 b8bd
00000290: 0beb ebbd e6fb fbbd 4e90 acbc f5e9 80be
000002a0: 70aa 24be c794 c2be e9ac 1bbe 8224 19be
000002b0: 61d5 ed3d 1b2a 0ebd 1100 683e e9b1 47be
000002c0: 612a 7dbd 3e6c 643d af23 cfbe 364d 00be
000002d0: 881e 11be b1b1 0cbe 9bb8 1fbd 6e4b b73c
000002e0: 85fe 983c 9dc3 23be 0061 b6be 027c 75be
000002f0: 2728 aa3d 2646 bebe 3feb acbe ee9b a8be
00000300: 9d9d f7bd 3f96 0b3e 3c3a d6bd 32e6 90bd
00000310: 9e13 cbbe e882 aabe 813a fbbd 7a2c 6fbe
00000320: 8980 b4be 9844 dabe a38d 0ebe 7d01 3ebe
00000330: f5eb 85be f293 a5be c3cf fdbd 5bf4 ecbd
00000340: 9452 b1be 0973 bdbd 7a0c b7be 84e6 b7be
00000350: 1de1 e6bd a6b8 78be 49c2 babd 1fa9 90bc
00000360: a6bb 18be a949 69be d5e1 933b c351 b4be
00000370: 44af 80be 018b e9bd 2fec 2ebe f6fc 5dbe
00000380: faec 213c b55e 7fbe a591 f4be a8ab 563e
00000390: 2840 80be eefa 9fbe a800 e4bd 5412 4bbe
000003a0: 8008 88be 9360 53be 03df d8bd ec41 30be
000003b0: e27d fabe 5eea 14bd fbf4 aebd c9b2 61be
000003c0: 3fa6 c4bc ce50 743c ca9e 54be 5a6e 133e
000003d0: 9d90 2fbd 98c0 1ebe 95b1 0b3e f2ae 853d
000003e0: 2067 c9be 7d0e 86be 772b 8ebd 79e2 adbe
000003f0: c207 cbbc 0c6b d9be 897c 84be e602 173d

fc2.weight f4 [256, 260]
0.19892406 -0.04178912 -0.08211056 -0.1115642 -0.033770066 -0.1376057 0.08381764 -0.07842882
0.10357721 0.17659378 -0.03273456 0.09267198 -0.054389346 0.018603016 -0.14676349 -0.13244711
0.091566905 -0.4947129 0.19111668 -0.049208492 -0.1821228 0.0032481954 0.14075941 0.066989556
-0.20633881 -0.08741693 -0.04675243 -0.3485467 0.27053356 -0.13313082 -0.17938821 -0.10150855
-0.0424715 -0.18987995 -0.14584625 0.20645095 0.2040473 0.04664375 0.14485751 -0.13154626
0.26271406 -0.1527443 -0.07091468 0.1160107 -0.015707193 0.080713704 0.022696879 -0.21035595
-0.2452601 -0.1759912 0.16058168 0.045598306 0.08831076 -0.13418399 0.07669384 0.008166432
0.15515928 -0.030788317 0.026651613 -0.12779947 0.20007084 -0.09462836 -0.03756324 -0.13315597
-0.35668853 -0.070074596 -0.13267931 -0.061698403 0.15565631 -0.21971725 -0.054527882 0.0024597875
0.02683145 0.009889007 -0.44967142 0.10288577 0.06829035 -0.15256386 0.050264046 0.0002742257
0.20499586 0.08060615 0.12016487 -0.108268075 -0.06938965 0.1037282 -0.039996803 0.2979688
0.05543978 0.02595784 -0.10246997 -0.03844921 -0.11473007 0.07575307 0.028469322 0.051553488
-0.2720376 0.018864 0.08030676 0.024874318 -0.031603385 0.14106314 0.013517043 -0.034513768
-0.12991199 -0.017842818 -0.36611634 -0.011532845 -0.026390905 -0.02352792 0.0666689 -0.13889474
0.0328419 0.0071670054 0.07431224 -0.26592904 0.008074188 0.09337161 -0.05078622 0.014851843
0.020120155 -0.13364372 -0.25142682 -0.06598073 -0.14562292 0.11350224 -0.33854687 0.14270821
-0.17834531 -0.1292048 0.19741094 0.01654969 -0.05916127 -0.29449996 0.1474061 -0.27196407
-0.10954315 0.029018305 -0.00982956 -0.09222751 -0.3287487 0.20776078 0.13927442 -0.08945342
-0.0060839187 -0.12144684 -0.16687806 -0.14745487 -0.0828289 -0.10125842 -0.28625748 -0.4132743
0.060160518 -0.259476 -0.08262273 -0.008810243 -0.1655029 -0.27036712 0.02437271 -0.13352813
-0.18313834 -0.1077524 -0.03204178 0.22483107 0.17226875 -0.055999964 0.09850324 0.15928477
0.082999624 -0.2695689 0.0024522836 0.27672017 0.06585352 -0.15526856 -0.078603305 -0.17130229
0.1143203 0.12539999 0.011753351 0.02520321 0.00837149 -0.038568076 0.027198886 0.013932156
0.045422737 -0.059074003 -0.14533322 -0.12111883 0.032596294 -0.12273168 0.16151056 -0.0895922
0.3189977 0.297043 0.05737829 -0.093858175 0.20760803 -0.10792934 0.01519828 0.12075732
-0.054446816 0.084516324 -0.14596276 0.12052898 -0.093778096 -0.14171341 -0.06585953 -0.6045954
-0.13364838 0.10908519 0.05894235 -0.053270258 -0.0717282 0.057455137 -0.1469215 0.020954313
-0.15176372 0.03231218 0.1811156 -0.11315871 -0.18737572 0.032908864 0.24682947 -0.033416774
0.13979608 -0.22751974 -0.16198379 0.13399887 -0.091410086 0.28904724 -0.1880282 -0.16742666
-0.052622776 0.032528523 -0.16995643 0.017825434 0.12337806 -0.02974372 -0.0052311886 -0.072007746
0.06260637 0.024411408 -0.03424934 -0.13371016 -0.052455768 -0.02360466 -0.13086037 -0.1035404
0.025345128 0.1217143 -0.23908517 0.00035684713 0.044189665 -0.25727573 0.08612384 0.09954528
00000000: c0b2 4b3e 112b 2bbd 9529 a8bd c57b e4bd
00000010: 7b52 0abd 82e8 0cbe 95a8 ab3d 4a9f a0bd
00000020: 4a20 d43d 00d5 343e ad14 06bd cfca bd3d
00000030: 5dc7 5ebd 5a65 983c 2b49 16be 37a0 07be
00000040: 6e87 bb3d 024b fdbe 17b4 433e d88e 49bd
00000050: 667e 3abe addf 543b 3c23 103e d231 893d
00000060: 7b4a 53be a607 b3bd 7a7f 3fbd b774 b2be
00000070: 6083 8a3e 7253 08be 8bb1 37be b7e3 cfbd
00000080: 98f6 2dbd e46f 42be b858 15be e167 533e
00000090: c7f1 503e 840d 3f3d 8755 143e 10b4 06be
000000a0: 7582 863e 0069 1cbe b73b 91bd 0597 ed3d
000000b0: 5fac 80bc 3a4d a53d ceee b93c 8d67 57be
000000c0: 7725 7bbe 0a37 34be 866f 243e 4ac5 3a3d
000000d0: 46dc b43d 8767 09be a911 9d3d 80cc 053c
000000e0: 13e2 1e3e c837 fcbc 7c54 da3c dddd 02be
000000f0: 5fdf 4c3e 83cc c1bd e9db 19bd 0a5a 08be
00000100: e19f b6be 4583 8fbd 16dd 07be 77b7 7cbd
00000110: 5e64 1f3e 8ffd 60be a158 5fbd 6334 213b
00000120: a1cd db3c 8005 223c 553b e6be c6b5 d23d
00000130: d0db 8b3d b339 1cbe ace1 4d3d f3c5 8f39
00000140: 6fea 513e d614 a53d 0019 f63d a7bb ddbd
00000150: 291c 8ebd 736f d43d b0d3 23bd 5e8f 983e
00000160: d314 633d 89a5 d43c c7db d1bd eb7c 1dbd
00000170: 99f7 eabd 6d24 9b3d 7f38 e93c c029 533d
00000180: 8348 8bbe ad88 9a3c df77 a43d 3ac5 cb3c
00000190: 8d72 01bd db72 103e 9676 5d3c 4f5e 0dbd
000001a0: a607 05be 1a2b 92bc 9a73 bbbe 42f4 3cbc
000001b0: bd31 d8bc a0bd c0bc b489 883d 6c3a 0ebe
000001c0: 3a85 063d 33d9 ea3b 0431 983d da27 88be
000001d0: 9949 043c 9d39 bf3d 3605 50bd 2555 733c
000001e0: 06d3 a43c e6d9 08be 04bb 80be e820 87bd
000001f0: 2d1e 15be dd73 e83d 0456 adbe 1a22 123e
00000200: 27a0 36be 434e 04be 1826 4a3e 3793 873c
00000210: 1653 72bd b3c8 96be a0f1 163e e03e 8bbe
00000220: 2958 e0bd ccb7 ed3c 2a0c 21bc c7e1 bcbd
00000230: c051 a8be 3ebf 543e f49d 0e3e 5b33 b7bd
00000240: 9c5b c7bb 1fb9 f8bd 15e2 2abe 69fe 16be
00000250: 33a2 a9bd 9360 cfbd 5790 92be b098 d3be
00000260: e06a 763d 0ada 84be 1b36 a9bd d658 10bc
00000270: 9879 29be 8f6d 8abe 47a9 c73c 99bb 08be
00000280: 9e88 3bbe 4aad dcbd 3e3e 03bd 1e3a 663e
00000290: 3867 303e 3860 65bd 11bc c93d 8c1b 233e
000002a0: b5fb a93d ef04 8abe 7eb6 203b 44ae 8d3e
000002b0: 36de 863d b9fe 1ebe c5fa a0bd de69 2fbe
000002c0: c320 ea3d db68 003e 2191 403c f676 ce3c
000002d0: 9328 093c 8ff9 1dbd 33d0 de3c b343 643c
000002e0: 310d 3a3d 95f7 71bd 3bd2 14be 260d f8bd
000002f0: b183 053d bf5a fbbd 0663 253e 1e7c b7bd
00000300: ab53 a33e 0516 983e 7f05 6b3d b738 c0bd
00000310: 3397 543e 0f0a ddbd 3502 793c 9d4f f73d
00000320: a003 5fbd e516 ad3d 4377 15be e6d7 f63d
00000330: bb0e c0bd 521d 11be 5ce1 86bd c4c6 1abf
00000340: 1fdb 08be 0e68 df3d 896d 713d ea31 5abd
00000350: 3ce6 92bd 1456 6b3d 9772 16be 61a8 ab3c
00000360: f367 1bbe c759 043d 5e76 393e c1bf e7bd
00000370: 6cdf 3fbe 72cb 063d ddc0 7c3e 07e0 08bd
00000380: b426 0f3e effa 68be 14df 25be 0037 093e
00000390: 3635 bbbd 00fe 933e 778a 40be e571 2bbe
000003a0: fb8a 57bd a13c 053d 0f09 2ebe a506 923c
000003b0: a3ad fc3d 1aa9 f3bc 646a abbb cc78 93bd
000003c0: c537 803d 6ffa c73c 0949 0cbd 51eb 08be
000003d0: dcdb 56bd 8f5e c1bc 4300 06be fd0c d4bd
000003e0: 96a0 cf3c 5945 f93d bed2 74be 3617 bb39
000003f0: 3900 353d a5b9 83be b261 b03d 65de cb3d

fc2.bias f4 [256]
-0.12257802 -0.18886217 -0.14246525 -0.19542292 -0.08273885 -0.13534075 -0.21239884 -0.23798805
-0.16304688 0.04900505 -0.19466981 -0.1337115 -0.12367764 -0.21899986 -0.09247038 -0.17523812
-0.189323 -0.251389 -0.17845698 -0.19336106 -0.059051678 0.026545392 -0.21522033 0.141117
-0.18193826 -0.00075922086 -0.21021146 -0.15324835 -0.052925073 -0.20441009 -0.12853394 -0.13710707
0.20977008 -0.20955709 -0.16167542 -0.19445013 -0.1046831 -0.17916942 0.059262823 -0.0031940865
-0.09800524 -0.2345321 -0.15007868 -0.26199803 -0.14188677 -0.22507639 -0.13396505 -0.15787706
-0.1595002 -0.21653363 -0.14695829 -0.22728655 -0.12690872 -0.13161708 -0.19947389 -0.27620602
-0.19277067 -0.23221548 -0.16264443 -0.20674525 -0.100571595 -0.08484856 -0.15280268 -0.1387024
0.0028403804 -0.14808074 0.02013835 -0.21926713 -0.25063595 -0.20399173 -0.07311024 0.017103925
-0.1255749 -0.083188154 -0.20493904 -0.13045564 0.01756339 -0.19735247 0.028500171 0.1001226
0.20504774 0.06519601 -0.17471275 -0.2184987 -0.20011033 -0.14953205 -0.14975849 -0.14228907
-0.21922468 -0.050763898 -0.23318541 -0.12926972 -0.037089664 -0.06824536 0.04807756 -0.081252106
0.006630549 -0.16519211 -0.23625854 -0.15533347 -0.19072832 -0.08503668 -0.13521367 -0.14179638
-0.071524784 -0.25047004 0.039465725 -0.2520584 -0.10426152 -0.15653937 -0.2245048 -0.0502383
-0.1538005 -0.12333232 -0.118925676 -0.24765088 -0.22431882 -0.14406545 -0.17512313 -0.21544926
-0.2152936 0.17441557 -0.12796538 -0.104713015 -0.2020894 -0.13147904 -0.05474961 -0.16517402
-0.17543142 0.14820752 -0.17630814 -0.15512644 -0.20816582 -0.13665745 -0.07172981 -0.1977892
-0.20727226 0.023991127 -0.08768564 -0.15017907 -0.10382296 -0.17018978 -0.07165091 -0.05264916
-0.20468673 -0.23197183 -0.1427172 -0.2335846 -0.01144635 -0.24039835 -0.18361041 -0.21034177
-0.167613 0.066127986 -0.07932118 -0.14615561 -0.21396893 -0.102277055 -0.18129927 -0.18043327
0.03486525 -0.06368376 -0.068454176 0.10261267 0.0028742526 -0.11320055 -0.22154118 -0.17877585
-0.16540688 -0.19778414 -0.1029642 0.05256902 -0.16105348 0.04610139 -0.055045653 -0.135233
-0.14061739 -0.008908402 -0.13601351 -0.058339186 -0.22026482 -0.042714246 0.11066252 -0.1856127
-0.1065228 -0.21033263 0.12108418 -0.11037768 0.0060522133 -0.123190664 -0.22012685 -0.11591752
-0.14150782 -0.20376591 -0.20975345 -0.15645999 -0.08590829 -0.18555911 -0.122841746 -0.12324511
-0.025564851 -0.15778144 -0.18465304 -0.15796319 -0.16412464 -0.15474766 -0.11110295 -0.047874104
-0.14433657 -0.23654614 -0.057063483 -0.005017537 -0.14364736 0.061879806 -0.25315735 -0.19412678
-0.18640082 -0.085661724 -0.17935681 -0.11379591 -0.2423621 -0.19120386 -0.2205732 -0.22188483
-0.21359295 -0.09389352 -0.05781054 -0.22614007 -0.2349762 0.0072910716 -0.09186224 -0.02364103
-0.375954 -0.08502373 -0.13566075 -0.1692213 -0.15320951 -0.052517034 -0.10826555 -0.018856397
-0.080862574 -0.14340767 -0.12392298 -0.20054418 -0.08863173 -0.13316299 -0.2204204 0.12415051
-0.23131809 -0.12997024 -0.019296113 -0.04922924 -0.19149965 -0.19526133 -0.067370765 -0.21599352
00000000: 2f0a fbbd 1665 41be 69e2 11be f21c 48be
00000010: fc72 a9bd c496 0abe 157f 59be 24b3 73be
00000020: c3f5 26be 85b9 483d 8657 47be abeb 08be
00000030: b44a fdbd 8041 60be 1c61 bdbd 9f71 33be
00000040: e3dd 41be 0fb6 80be 6dbd 36be 7100 46be
00000050: 2ce0 71bd b975 d93c b862 5cbe fa80 103e
00000060: 064e 3abe 7306 47ba ac41 57be 23ed 1cbe
00000070: f6c7 58bd e150 51be 679e 03be cc65 0cbe
00000080: f8cd 563e 2296 56be 3e8e 25be ef1d 47be
00000090: 1864 d6bd 3078 37be 93bd 723d e153 51bb
000000a0: f9b6 c8bd 2f29 70be 3aae 19be 9b24 86be
000000b0: c44a 11be 6d7a 66be 222e 09be 86aa 21be
000000c0: 0554 23be feba 5dbe 3c7c 16be cebd 68be
000000d0: 5cf4 01be a1c6 06be e242 4cbe e06a 8dbe
000000e0: ad65 45be e5c9 6dbe 438c 26be 07b5 53be
000000f0: 7bf8 cdbd 15c5 adbd 4e78 1cbe 0008 0ebe
00000100: ad25 3a3b 7aa2 17be 2ef9 a43c 9087 60be
00000110: 5b53 80be 35e3 50be d2ba 95bd 881d 8c3c
00000120: b596 00be 8d5e aabd 8adb 51be 2a96 05be
00000130: 19e1 8f3c c416 4abe 3179 e93c 140d cd3d
00000140: 09f8 513e 7c85 853d e6e7 32be 20be 5fbe
00000150: b9e9 4cbe ee1e 19be 4a5a 19be 3ab4 11be
00000160: 6f7c 60be ceed 4fbd 28c8 6ebe 485f 04be
00000170: 55eb 17bd 39c4 8bbd faec 443d 8167 a6bd
00000180: 1445 d93b 1f28 29be c2ed 71be bd0f 1fbe
00000190: 494e 43be b627 aebd 7475 0abe 1233 11be
000001a0: 967b 92bd 9c3d 80be d0a6 213d cc0d 81be
000001b0: 1087 d5bd db4b 20be 96e4 65be adc6 4dbd
000001c0: e17d 1dbe a895 fcbd 4e8f f3bd 3198 7dbe
000001d0: d5b3 65be e585 13be 7a53 33be bb9e 5cbe
000001e0: ed75 5cbe ff99 323e 5b09 03be c773 d6bd
000001f0: 86f0 4ebe 71a2 06be 2141 60bd 6123 29be
00000200: 4ba4 33be b6c3 173e 1f8a 34be 77d9 1ebe
00000210: 6c29 55be eeef 0bbe 14e7 92bd 4189 4abe
00000220: 2e3f 54be 0a89 c43c 8794 b3bd 8bc8 19be
00000230: 22a1 d4bd 3b46 2ebe b6bd 92bd a5a6 57bd
00000240: 6699 51be 068a 6dbe 7524 12be cd30 6fbe
00000250: 7989 3bbc fc2a 76be 5e04 3cbe d563 57be
00000260: bea2 2bbe 1c6e 873d 2573 a2bd d1a9 15be
00000270: ac1a 5bbe a276 d1bd 84a6 39be 80c3 38be
00000280: ddce 0e3d a26c 82bd b431 8cbd 9726 d23d
00000290: f55d 3c3b b1d5 e7bd b1db 62be 0411 37be
000002a0: 6c60 29be ed87 4abe e5de d2bd 9d52 573d
000002b0: 34eb 24be d0d4 3c3d 8d77 61bd 857a 0abe
000002c0: 01fe 0fbe 8cf4 11bc 2047 0bbe 12f5 6ebd
000002d0: 1a8d 61be 22f5 2ebd 08a3 e23d 4111 3ebe
000002e0: a028 dabd 7061 57be fcfa f73d b10d e2bd
000002f0: a551 c63b 634b fcbd ef68 61be 2a66 edbd
00000300: 6de7 10be 03a8 50be 9cc9 56be 0c37 20be
00000310: b0f0 afbd 3503 3ebe 7494 fbbd ef67 fcbd
00000320: 616d d1bc 7591 21be b015 3dbe 1ac1 21be
00000330: 4a10 28be 2c76 1ebe f289 e3bd a317 44bd
00000340: f7cc 13be 2739 72be 66bb 69bd 276a a4bb
00000350: 4b18 13be ae75 7d3d d79d 81be 2cc9 46be
00000360: dbdf 3ebe 6a6f afbd 50a9 37be d40d e9bd
00000370: c52d 78be f2ca 43be f1dd 61be c735 63be
00000380: 1cb8 5abe 3f4b c0bd bfca 6cbd 4391 67be
00000390: 9a9d 70be f1e9 ee3b 4522 bcbd d5aa c1bc
000003a0: 0b7d c0be ec20 aebd a7ea 0abe 5948 2dbe
000003b0: f4e2 1cbe 1a1c 57bd 54ba ddbd bb78 9abc
000003c0: 479b a5bd 76d9 12be 55cb fdbd 745b 4dbe
000003d0: 8d84 b5bd e15b 08be e3b5 61be 9f42 fe3d
000003e0: a6de 6cbe eb16 05be e212 9ebc 99a4 49bd
000003f0: 7c18 44be 96f2 47be aff9 89bd 682d 5dbe

fc3.weight f4 [1, 256]
-0.19108564 0.13136469 -0.13619976 -0.12369887 0.06711206 -0.060247697 0.06398468 0.13037188
-0.06627331 0.069455594 -0.09669274 0.09868321 0.06566861 -0.09839357 0.07465549 0.06883228
0.10781428 0.23648548 -0.076780595 -0.10958245 0.093642525 0.075864434 -0.08173539 0.037615754
-0.07969881 0.06623748 -0.05619508 -0.09384001 0.062486377 -0.060341507 0.07517792 -0.09977765
0.06761786 -0.12499248 -0.08897745 -0.050007377 -0.084641725 -0.097271666 0.06538272 0.04024199
0.058656383 -0.101929694 0.090049334 -0.06553103 0.10430282 -0.058937892 -0.09305756 -0.08756113
-0.060724467 -0.072907306 0.094441585 -0.08397215 -0.08558372 -0.05358179 -0.07042619 -0.10540863
-0.067570604 0.20070645 -0.13935359 -0.10435779 0.08763522 0.074003085 0.07862398 0.13843502
0.06911216 -0.06296705 0.05858447 -0.0746908 -0.103857346 -0.09515381 0.05741698 0.045943588
-0.08437857 -0.11333813 -0.070330724 -0.053552616 0.051671278 -0.09056056 0.07042139 0.07490018
0.06208125 0.051444218 -0.13314877 -0.12326928 -0.07804149 -0.085407205 -0.147143 0.09454142
0.09586766 0.044426486 -0.0682888 0.10674562 0.088292524 0.05585015 0.05730167 0.06659699
0.044679366 -0.12980726 -0.1546736 -0.12059712 0.15846385 0.0957457 0.089658506 0.111161925
-0.06426598 -0.046618156 0.039065104 -0.1586039 -0.08189066 -0.066125564 -0.10022968 0.04437265
0.07490809 0.070355155 -0.07320879 0.2162668 -0.103309296 -0.12619124 -0.11713811 -0.069333345
-0.09423531 0.070310354 -0.087102756 0.07938042 -0.12767485 -0.06882465 0.054945074 -0.091687195
-0.11948535 0.03175969 0.0866034 0.12468717 -0.08880055 0.09933087 0.08405846 -0.15527302
-0.078230344 0.06299013 -0.06711257 -0.15546802 0.073929474 0.1114192 0.046414673 0.07010273
0.13213257 -0.08213762 -0.07977512 -0.10925551 0.05624975 -0.100670815 -0.06602372 0.053894445
0.22479327 0.04720835 0.042585697 0.07624231 -0.08878009 -0.08378853 0.0994634 -0.059574094
0.059306376 0.048207276 0.066224605 0.057661254 0.06152569 0.09432823 -0.0882997 -0.068965025
-0.08392206 -0.086777106 -0.10162894 0.04544595 -0.103440896 0.09240585 0.07460661 -0.06808157
-0.116519846 0.04571493 -0.09383191 -0.09686976 -0.09256183 0.07582222 0.04679289 -0.12637709
0.07713307 0.11104794 0.0740037 0.062307972 0.04207083 -0.11295188 -0.120784536 -0.08630095
-0.09750604 -0.0993989 -0.100408375 -0.099619165 0.083007164 -0.16201305 -0.0852426 0.08790573
0.04800299 0.07066828 -0.06675538 0.14558685 0.08489982 0.06815978 0.08946513 0.07434976
0.07763499 -0.08139459 0.06357482 0.058541067 0.08481867 0.05732852 0.15497988 0.113861226
0.15668158 0.10025237 -0.06386948 0.062173195 -0.09065753 -0.07392733 -0.1268638 -0.047226124
-0.12305017 0.06952744 0.04372661 -0.086113274 -0.066082634 0.07300734 -0.08018834 0.057855953
-0.048903566 -0.07623012 -0.10713778 0.110461205 -0.094971254 0.070821695 0.06598255 0.082279645
0.14955492 -0.05848458 -0.07860521 -0.08782173 -0.08103741 -0.07389603 0.10247868 0.054718025
-0.07226243 0.08773378 0.08382977 0.03970055 -0.062468756 -0.08679725 -0.06392171 -0.11101223
00000000: f4ab 43be 7784 063e f377 0bbe d555 fdbd
00000010: 0c72 893d 4ac6 76bd 660a 833d 3580 053e
00000020: 4dba 87bd bc3e 8e3d d806 c6bd 6c1a ca3d
00000030: 447d 863d 9182 c9bd fae4 983d f0f7 8c3d
00000040: bccd dc3d 4029 723e 253f 9dbd c36c e0bd
00000050: a7c7 bf3d d05e 9b3d e264 a7bd fa12 1a3d
00000060: 2139 a3bd 84a7 873d d02c 66bd 312f c0bd
00000070: b7f1 7f3d a828 77bd e2f6 993d 3958 ccbd
00000080: 3c7b 8a3d 0ffc ffbd cf39 b6bd 89d4 4cbd
00000090: a458 adbd 5e36 c7bd 60e7 853d c9d4 243d
000000a0: ad41 703d 84c0 d0bd c96b b83d 2235 86bd
000000b0: b89c d53d dc68 71bd f694 bebd 4053 b3bd
000000c0: 38ba 78bd 6d50 95bd 976a c13d 97f9 abbd
000000d0: 8446 afbd 9478 5bbd 9b3b 90bd 7be0 d7bd
000000e0: 7562 8abd fe85 4d3e b5b2 0ebe 89b9 d5bd
000000f0: 187a b33d ee8e 973d 9c05 a13d e9c1 0d3e
00000100: ad8a 8d3d def4 80bd 45f6 6f3d 7df7 98bd
00000110: 29b3 d4bd 00e0 c2bd 112e 6b3d 582f 3c3d
00000120: acce acbd d21d e8bd 8e09 90bd fd59 5bbd
00000130: 43a5 533d d177 b9bd 1739 903d 4465 993d
00000140: e948 7e3d 2cb7 523d 2758 08be 9b74 fcbd
00000150: 37d4 9fbd f9e9 aebd a8ac 16be ef9e c13d
00000160: 4456 c43d 8cf8 353d 00db 8bbd 739d da3d
00000170: b6d2 b43d 20c3 643d 28b5 6a3d 0164 883d
00000180: b601 373d 32ec 04be c262 1ebe 9ffb f6bd
00000190: 5944 223e 5216 c43d e19e b73d dda8 e33d
000001a0: e29d 83bd aef2 3ebd bb02 203d 1069 22be
000001b0: 4ab6 a7bd d76c 87bd 3845 cdbd 19c0 353d
000001c0: 6a69 993d 5d16 903d 7dee 95bd 0b75 5d3e
000001d0: d393 d3bd 4738 01be 1be6 efbd a4fe 8dbd
000001e0: 71fe c0bd e0fe 8f3d ee62 b2bd 3492 a23d
000001f0: 32bd 02be f0f3 8cbd 160e 613d 7fc6 bbbd
00000200: bcb4 f4bd 7316 023d 205d b13d fd5b ff3d
00000210: 10dd b5bd fc6d cb3d d826 ac3d e4ff 1ebe
00000220: 3b37 a0bd f800 813d 5172 89bd 0233 1fbe
00000230: 5668 973d c02f e43d 501d 3e3d 0592 8f3d
00000240: c34d 073e c537 a8bd 2361 a3bd 5ac1 dfbd
00000250: 2366 663d 802c cebd 7237 87bd 6cc0 5c3d
00000260: 3530 663e 8b5d 413d 576e 2e3d ee24 9c3d
00000270: 56d2 b5bd 5299 abbd 78b3 cb3d f703 74bd
00000280: 3eeb 723d fe74 453d c4a0 873d 352e 6c3d
00000290: 5d02 7c3d 292f c13d 79d6 b4bd 893d 8dbd
000002a0: 54df abbd 32b8 b1bd d522 d0bd 8825 3a3d
000002b0: d2d8 d3bd 473f bd3d 5acb 983d 5a6e 8bbd
000002c0: f5a1 eebd 943f 3b3d f22a c0bd a763 c6bd
000002d0: 0f91 bdbd ae48 9b3d e7a9 3f3d ff68 01be
000002e0: f1f7 9d3d 1a6d e33d 408f 973d a536 7f3d
000002f0: 7652 2c3d 5153 e7bd e25d f7bd 8dbe b0bd
00000300: 3fb1 c7bd a791 cbbd e8a2 cdbd 2205 ccbd
00000310: a9ff a93d c0e6 25be ac93 aebd eb07 b43d
00000320: c99e 443d 88ba 903d 0bb7 88bd b814 153e
00000330: f5df ad3d 5b97 8b3d 7e39 b73d b044 983d
00000340: 18ff 9e3d 35b2 a6bd 8433 823d c2c8 6f3d
00000350: 69b5 ad3d 4fd1 6a3d 0cb3 1e3e 1330 e93d
00000360: 2371 203e 1d51 cd3d 00ce 82bd 52a9 7e3d
00000370: a8aa b9bd 3667 97bd 96e8 01be 2e70 41bd
00000380: ba01 fcbd 6764 8e3d ac1a 333d 285c b0bd
00000390: 5556 87bd df84 953d c939 a4bd 5dfa 6c3d
000003a0: 1b4f 48bd 8a1e 9cbd 0d6b dbbd 7c39 e23d
000003b0: 4a80 c2bd f70a 913d dc21 873d 3b82 a83d
000003c0: ed24 193e 878d 6fbd c5fb a0bd e1db b3bd
000003d0: f1f6 a5bd cd56 97bd 58e0 d13d 0220 603d
000003e0: 53fe 93bd c5ad b33d f1ae ab3d 0b9d 223d
000003f0: 3ddf 7fbd c2c2 b1bd 63e9 82bd 615a e3bd

bn1.weight f4 [256]
0.41776732 0.6404155 0.27760768 0.34498736 0.448169 0.44439077 0.5403696 0.56356263
0.47115642 0.43958986 0.65851694 0.47669733 0.7553921 0.49863055 0.5593909 0.5764079
0.41137043 0.335401 0.79440516 0.3661564 0.48467574 0.49548623 0.73880506 0.6326397
0.60720974 0.451945 0.62301594 0.56510824 0.22290778 0.50138146 0.6933915 0.34308663
0.6391099 0.39860433 0.49828243 0.280124 -0.33710414 0.45856014 0.11523849 0.59472585
-0.44369462 0.38406843 0.5140962 0.58224714 0.5764751 0.5374852 0.5741493 0.52628344
0.24305685 0.6085088 0.46829978 0.60048276 0.40956637 0.8796474 0.5714027 0.607768
0.5823953 0.59635645 0.37150788 0.5818405 0.37559548 0.42771682 0.4663211 0.33437145
0.61065394 0.6085248 0.49941325 0.6124521 0.54362756 0.5903225 0.48597184 0.40189403
0.6354706 0.3725639 0.47335228 0.47774205 0.5240831 0.52399355 0.26986048 0.3105361
0.22384165 0.37285405 0.4406709 0.6104714 0.41887274 0.52409714 0.548175 -0.37842843
0.5281673 0.5154505 0.3939918 0.64999175 0.46472046 0.6123634 0.7690991 0.36862665
0.48607552 0.6223005 0.6658993 0.3962648 0.52405506 0.40846905 0.5673234 0.3776765
0.45915318 0.45375255 0.4971649 0.587274 0.68128705 0.62059474 0.43266517 0.3510618
0.30652303 0.3982912 0.3608948 0.40574774 0.39709613 0.51403666 0.393154 0.8346226
0.6232464 0.5760032 0.35466558 0.73773617 0.5758289 0.49344823 0.33062395 0.369875
0.54928565 0.36182198 0.22412342 0.57223547 0.66473347 0.552722 0.5910794 0.51965475
0.6497327 0.39368406 0.5315988 0.5194865 0.5047379 0.45300665 0.41985115 0.8124255
0.40715703 0.60203856 0.31746733 0.44224173 0.42024195 0.7097825 0.41185597 0.5279061
0.44333315 0.53073657 0.43378675 0.4001595 0.7059901 0.42965192 0.6770296 0.29027557
0.4045775 0.62187845 0.4726778 0.10775183 0.7084492 0.51787204 0.5648072 0.17495403
0.5099014 0.47206593 0.43812615 0.5354802 0.54556715 0.5165343 0.19640534 0.69189006
0.5709323 0.49771973 0.6303658 0.3938239 0.73327017 0.5056293 0.7093881 0.7072393
0.62535876 0.68936723 0.5978755 0.65522534 0.5568592 0.650892 0.59423757 0.36264557
0.34667268 0.46641463 0.51977354 0.33373278 0.49749002 0.7085918 0.27496082 0.75859356
0.6453716 0.3660801 0.86241806 0.62747854 0.6800329 0.38523784 0.5335586 0.55085474
0.4963644 0.72672087 0.21451715 0.3081733 0.24167557 0.7894086 0.44932622 0.7454667
0.47368172 1.0753423 0.2452101 0.51937354 0.49380443 0.5510442 0.4993309 0.5008993
0.6446794 0.6309969 0.33848733 0.068203956 0.45124272 0.386775 0.5593708 0.4627053
0.68981117 0.35023034 0.43204895 0.60366505 0.29165116 0.54355085 0.3188974 0.6940495
0.5327653 0.5410504 0.5135686 0.46918422 0.43397683 0.5678095 0.5198795 0.8096296
0.6173924 0.59459335 0.5942827 0.68015957 0.55713695 0.39390314 0.2917292 0.5197092
00000000: 99e5 d53e 45f2 233f 9822 8e3e 2fa2 b03e
00000010: 6876 e53e 3087 e33e a955 0a3f a445 103f
00000020: 6a3b f13e ec11 e13e 9194 283f ac11 f43e
00000030: 6061 413f 814c ff3e 3e34 0f3f 788f 133f
00000040: 259f d23e aeb9 ab3e 235e 4b3f da78 bb3e
00000050: 6b27 f83e 5fb0 fd3e 5422 3d3f adf4 213f
00000060: 1972 1b3f 5665 e73e f97d 1f3f efaa 103f
00000070: f041 643e 895a 003f 1b82 313f 0da9 af3e
00000080: b59c 233f de15 cc3e e01e ff3e 6a6c 8f3e
00000090: ea98 acbe 65c8 ea3e 2802 ec3d f43f 183f
000000a0: f12b e3be 9ea4 c43e cf9b 033f 260e 153f
000000b0: df93 133f a198 093f 73fb 123f 83ba 063f
000000c0: e5e3 783e 3cc7 1b3f fdc4 ef3e 3db9 193f
000000d0: afb2 d13e 9230 613f 7347 123f af96 1b3f
000000e0: dc17 153f d1aa 183f 4836 be3e 80f3 143f
000000f0: 0d4e c03e b3fd da3e a4c1 ee3e bc32 ab3e
00000100: d153 1c3f 48c8 1b3f 18b3 ff3e a9c9 1c3f
00000110: 2d2b 0b3f 601f 173f 4dd1 f83e 0ec5 cd3e
00000120: 34ae 223f b2c0 be3e 3b5b f23e 9b9a f43e
00000130: 4f2a 063f 7124 063f 272b 8a3e 96fe 9e3e
00000140: bf36 653e bae6 be3e 9e9f e13e db47 1c3f
00000150: 7d76 d63e 3b2b 063f 3255 0c3f 5fc1 c1be
00000160: f935 073f 90f4 033f 4bb9 c93e dc65 263f
00000170: d7ef ed3e d9c3 1c3f aee3 443f a2bc bc3e
00000180: e4de f83e 164f 1f3f 6078 2a3f 38e3 ca3e
00000190: 7928 063f db22 d13e 1b3c 113f d05e c13e
000001a0: 2016 eb3e 4152 e83e 668c fe3e 9757 163f
000001b0: d468 2e3f 4cdf 1e3f 4a86 dd3e 5fbe b33e
000001c0: 96f0 9c3e d3ec cb3e 34c7 b83e 2bbe cf3e
000001d0: 2f50 cb3e e897 033f 7b4b c93e d4a9 553f
000001e0: 138d 1f3f f274 133f ba96 b53e 47dc 3c3f
000001f0: 8669 133f 3fa5 fc3e 8b47 a93e 4260 bd3e
00000200: fc9d 0c3f bb40 b93e 9c80 653e 067e 123f
00000210: f92b 2a3f 307f 0d3f fb50 173f 1808 053f
00000220: e254 263f f590 c93e dc16 083f 11fd 043f
00000230: 8136 013f 7df0 e73e bbf6 d63e 1efb 4f3f
00000240: e376 d03e 331f 1a3f 148b a23e 826d e23e
00000250: f429 d73e 4eb4 353f c9de d23e db24 073f
00000260: 90fc e23e 5ade 073f 4c19 de3e b5e1 cc3e
00000270: c4bb 343f 56fb db3e d051 2d3f 009f 943e
00000280: c824 cf3e 6d33 1f3f d302 f23e feac dc3d
00000290: ed5c 353f 4393 043f 3497 103f 2627 333e
000002a0: e688 023f a0b2 f13e 1252 e03e 3b15 093f
000002b0: 4aaa 0b3f 983b 043f 7b1e 493e b51f 313f
000002c0: 9f28 123f 1fd5 fe3e a75f 213f 49a3 c93e
000002d0: 98b7 3b3f ec70 013f 759a 353f a20d 353f
000002e0: 8317 203f 5f7a 303f 5e0e 193f d9bc 273f
000002f0: 538e 0e3f dca0 263f f41f 183f aeac b93e
00000300: 157f b13e e6cd ee3e e10f 053f 06df aa3e
00000310: 03b7 fe3e 4666 353f aac7 8c3e 3033 423f
00000320: 1337 253f da6e bb3e 6ec7 5c3f 6fa2 203f
00000330: a316 2e3f e53d c53e 4c97 083f d104 0d3f
00000340: 7a23 fe3e 610a 3a3f 62aa 5b3e e4c8 9d3e
00000350: cd79 773e af16 4a3f 160e e63e e8d6 3e3f
00000360: 6986 f23e d1a4 893f 5b18 7b3e aaf5 043f
00000370: efd3 fc3e 3c11 0d3f 4da8 ff3e f03a 003f
00000380: b609 253f 0389 213f 364e ad3e 84ae 8b3d
00000390: 4909 e73e 5f07 c63e ed32 0f3f b6e7 ec3e
000003a0: 7797 303f 6451 b33e 8535 dd3e cb89 1a3f
000003b0: 4d53 953e 2626 0b3f 8546 a33e 3aad 313f
000003c0: 4f63 083f 4782 0a3f 3b79 033f ea38 f03e
000003d0: 3632 de3e f75b 113f d316 053f e343 4f3f
000003e0: 6e0d 1e3f 4537 183f e922 183f f01e 2e3f
000003f0: 87a0 0e3f acad c93e 885d 953e aa0b 053f

bn1.bias f4 [256]
0.082261585 0.2563157 0.16208467 0.09631066 0.028396914 0.18753752 0.14404805 0.13269798
0.04522833 0.13846438 0.09905988 0.16238748 0.17497478 0.08694603 0.16427045 0.16791001
0.05897692 0.13299978 0.17616753 -0.043502443 0.08690257 0.1731865 0.18402797 0.15166743
0.09342197 0.18246059 0.112643585 0.15231931 -0.04946583 0.2277881 0.17876948 0.16575277
0.14083724 0.10047414 0.15618129 -0.1148918 -0.24823971 -0.060752776 -0.27220607 0.212323
-0.100323424 0.116972424 0.11028646 0.112722464 0.121994115 0.062263608 0.16837731 0.0019054135
0.048173707 0.21024866 0.046301927 0.1470317 0.05353662 0.18280734 0.08993499 0.15433243
-0.024338758 0.18190812 0.19048867 0.12271836 0.12451027 0.06840332 0.039421305 0.107988834
0.13404292 0.14024383 0.14043823 0.18249004 0.014620263 0.20851639 0.18507911 0.06915873
0.27809903 -0.007882329 0.16948679 0.10655015 0.097531065 0.011489846 -0.26425368 -0.017280359
-0.18198669 0.038768128 0.093244925 0.18317142 0.075534 0.008130787 0.0034743724 -0.097541064
0.10234663 0.12676293 0.09609432 0.10016906 0.118514195 0.23915955 0.091120996 0.05583831
0.34255973 0.15933192 0.22458237 0.12139906 0.015549885 0.12697151 0.11718539 -0.034111254
0.10445625 -0.034855064 0.100186646 0.13833424 0.24521309 0.09195123 0.09755492 -0.027536098
-0.20382553 0.16471991 0.22809118 0.069642544 0.02969579 0.27609736 0.037040465 0.10619786
0.13825755 0.15292676 0.14946797 0.113876946 0.17062916 0.0981322 0.104890876 0.13696547
0.16040853 0.13006704 -0.10514766 0.19492392 0.14589214 0.09901167 0.072318 0.13515954
0.040944003 0.0928181 0.05953268 0.1383844 0.24837218 -0.0004011985 0.08173979 0.14631182
0.012673702 0.18712889 0.20994116 0.21339339 0.0815405 0.2179186 0.07681283 0.07582284
0.06741988 0.07632555 0.12576668 0.2440555 0.17550902 0.14227729 0.07613097 0.07752256
0.17949341 0.15935278 0.013933935 -0.34548876 0.16617909 -0.0067572873 0.09075781 -0.11440832
0.100382134 0.10629316 0.074798755 -0.008730264 0.11765042 0.15942661 0.31467134 0.22388509
0.13644859 0.07566316 0.12361079 -0.105469756 0.15324816 0.12450928 0.060198836 -0.014962004
-0.013272324 0.15382393 0.1317741 0.16806768 0.11615367 0.08746774 -0.087008364 0.072003394
-0.0036594472 0.048336428 0.1537332 0.12429704 0.05805071 0.18323256 -0.031061828 0.24773458
0.045238264 -0.0069203447 0.07250573 0.15241624 -0.0038415322 0.108169556 0.1399703 0.17744422
0.005185278 0.14680988 -0.14077978 -0.0035242853 0.2291743 0.12004354 0.048375066 0.17114252
0.13774726 0.17976682 -0.039401636 0.08526304 0.083415315 0.1290374 0.026754014 0.08077618
0.12389051 0.16641916 0.032949965 -0.19112507 0.10817525 0.10590475 0.13108478 0.07436447
0.022501031 -0.015031911 0.10848196 0.21402994 0.08356358 -0.0045037167 0.18641137 0.17653401
0.020650258 0.21671101 0.08333685 0.14681894 0.12757494 0.1471314 0.14054473 0.15564927
0.16117905 -0.0076708514 0.17873143 0.112881295 -0.014423856 0.07130173 -0.08052575 0.16280738
00000000: c378 a83d d03b 833e 86f9 253e 863e c53d
00000010: a5a0 e83c d609 403e 5581 133e fbe1 073e
00000020: 5741 393d 9bc9 0d3e e8df ca3d e748 263e
00000030: 972c 333e c310 b23d 8336 283e 9af0 2b3e
00000040: c891 713d 1831 083e 4365 343e 9e2f 32bd
00000050: faf9 b13d cd57 313e d471 3c3e b54e 1b3e
00000060: 0554 bf3d f3d6 3a3e aeb1 e63d 98f9 1b3e
00000070: af9c 4abd 4941 693e 590f 373e 18bb 293e
00000080: a337 103e 63c5 cd3d fded 1f3e 644c ebbd
00000090: 8d32 7ebe e7d7 78bd 985e 8bbe 336b 593e
000000a0: 5e76 cdbd 3d8f ef3d dedd e13d 09db e63d
000000b0: 0dd8 f93d 2008 7f3d 1a6b 2c3e 11bf f93a
000000c0: cb51 453d 6d4b 573e 17a7 3d3d 7a8f 163e
000000d0: 3749 5b3d d931 3b3e d62f b83d 5209 1e3e
000000e0: 1362 c7bc 1f46 3a3e 760f 433e c353 fb3d
000000f0: 3eff fe3d 0a17 8c3d 3c78 213d 4029 dd3d
00000100: 8c42 093e 149c 0f3e 0acf 0f3e abde 3a3e
00000110: d489 6f3c 5285 553e 6185 3d3e 18a3 8d3d
00000120: ff62 8e3e e224 01bc f28d 2d3e f736 da3d
00000130: 5ebe c73d e83f 3c3c 424c 87be 8a8f 8dbc
00000140: b85a 3abe 54cb 1e3d 32f7 be3d 4a91 3b3e
00000150: 92b1 9a3d fe36 053c 4cb2 633b 9cc3 c7bd
00000160: 1c9b d13d 24ce 013e 19cd c43d 7025 cd3d
00000170: 92b7 f23d 3ee6 743e a59d ba3d b6b6 643d
00000180: fd63 af3e e827 233e ecf8 653e 12a0 f83d
00000190: f2c4 7e3c d204 023e e5fe ef3d 3eb8 0bbd
000001a0: 29ed d53d 2fc4 0ebd a82e cd3d 7ea7 0d3e
000001b0: 2419 7b3e ed50 bc3d e0ca c73d 6293 e1bc
000001c0: a4b7 50be 56ac 283e bc90 693e c0a0 8e3d
000001d0: 9644 f33c a25c 8d3e beb7 173d 437e d93d
000001e0: 6393 0d3e d598 1c3e 220e 193e 5138 e93d
000001f0: 69b9 2e3e 89f9 c83d 07d1 d63d ad40 0c3e
00000200: 2242 243e 4b30 053e a857 d7bd 239a 473e
00000210: c064 153e a1c6 ca3d 761b 943d 4367 0a3e
00000220: e6b4 273d 6a17 be3d 8ad8 733d a4b4 0d3e
00000230: 4755 7e3e f357 d2b9 3167 a73d c4d2 153e
00000240: 5ca5 4f3c b79e 3f3e d1fa 563e cc83 5a3e
00000250: b5fe a63d 0e26 5f3e 0c50 9d3d 0149 9b3d
00000260: 6f13 8a3d 9250 9c3d fbc8 003e afe9 793e
00000270: a3b8 333e 23b1 113e 8eea 9b3d 26c4 9e3d
00000280: 1fcd 373e 602d 233e 294b 643c e7e3 b0be
00000290: da2a 2a3e 3c6c ddbb 3bdf b93d e94e eabd
000002a0: 2695 cd3d 3ab0 d93d 1730 993d 6209 0fbc
000002b0: b4f2 f03d bb40 233e 9a1c a13e 2242 653e
000002c0: 2eb9 0b3e 49f5 9a3d a727 fd3d 8700 d8bd
000002d0: 16ed 1c3e b9fe fe3d 0e93 763d 3123 75bc
000002e0: 2974 59bc 0584 1d3e caef 063e ef19 2c3e
000002f0: fae1 ed3d 4922 b33d 7131 b2bd 8476 933d
00000300: 56d3 6fbb 6bfc 453d 3c6c 1d3e 728f fe3d
00000310: 95c6 6d3d 51a1 3b3e 6075 febc 22ae 7d3e
00000320: c24b 393d 0fc4 e2bb e27d 943d 0113 1c3e
00000330: 37c2 7bbb 0088 dd3d 6054 0f3e f0b3 353e
00000340: 44e9 a93b 5455 163e 9328 10be b2f7 66bb
00000350: abac 6a3e 63d9 f53d ef24 463d fc3f 2f3e
00000360: 9e0d 0d3e cb14 383e 9c63 21bd 649e ae3d
00000370: a6d5 aa3d 6122 043e 3c2b db3c fb6d a53d
00000380: 4fba fd3d c969 2a3e 8bf6 063d 4ab6 43be
00000390: fc8a dd3d 97e4 d83d 173b 063e 664c 983d
000003a0: 1554 b83c 6848 76bc ca2b de3d aa2a 5b3e
000003b0: 6223 ab3d ea93 93bb 9fe2 3e3e 55c5 343e
000003c0: bb2a a93c 7ee9 5d3e 83ac aa3d b457 163e
000003d0: 01a3 023e 9da9 163e f5ea 0f3e 8662 1f3e
000003e0: 1f0c 253e c45b fbbb 5f05 373e 4f2e e73d
000003f0: 0952 6cbc a406 923d afea a4bd fab6 263e

bn1.running_mean f4 [256]
0.15371735 0.19533256 0.35171545 0.22144769 0.228728 0.32928446 0.10141695 0.17160255
0.061464235 0.14373773 0.09745595 0.08906236 0.15532865 0.22315457 0.29491168 0.4227274
0.14652571 0.07578441 0.19072722 0.16719474 0.16597486 0.16561832 0.11515424 0.10880972
0.23064674 0.16567984 0.30406663 0.17564543 0.24375203 0.07576942 0.3232494 0.22076096
0.22871722 0.10385052 0.40408143 0.34380424 0.0934288 0.31115526 0.7633612 0.20816441
0.08143576 0.22566482 0.19730283 0.2487197 0.21190909 0.19655518 0.21265149 0.23733713
0.7510581 0.20002818 0.27195612 0.13299702 0.30768663 0.24540967 0.31673905 0.1715441
0.2886054 0.2131629 0.1660385 0.21844944 0.08609564 0.20772368 0.28678414 0.08408448
0.04438869 0.09481277 0.20799467 0.12958914 0.36444548 0.27084512 0.32995796 0.6682178
0.23127578 0.18285313 0.14666978 0.10091947 0.3010833 0.18528026 0.31050164 0.11819657
0.36297122 0.24631515 0.2579125 0.30923462 0.15375702 0.38355774 0.16230436 0.09485833
0.17371367 0.07105471 0.14207298 0.22199075 0.083294675 0.30807155 0.22863029 0.15178433
0.7884903 0.061300844 0.33543757 0.23194286 0.28822082 0.27198493 0.26485887 0.118472755
0.42770997 0.14614901 0.10701927 0.3100728 0.40264016 0.2378516 0.275922 0.10535588
0.5120423 0.4292694 0.7627734 0.059897482 0.23668562 0.25443166 0.13267887 0.27234238
0.30047822 0.22133379 0.26126546 0.23064958 0.08422783 0.21271375 0.15976088 0.40762383
0.27080175 0.080641516 0.25248373 0.3581752 0.20292234 0.25306368 0.34353772 0.47377583
0.14859764 0.2800198 0.34566036 0.301398 0.2164211 0.29772407 0.17171395 0.17115189
0.3245048 0.3936582 1.0299481 0.3464724 0.13645777 0.29354396 0.13780542 0.0612678
0.6038607 0.2839285 0.2616295 0.2749225 0.10851274 0.06699377 0.26527324 0.024592992
0.16327477 0.15318711 0.10891568 0.2533695 0.20111321 0.15692928 0.334185 0.38633737
0.22781698 0.28834537 0.19997503 0.12477545 0.65800416 0.26020244 0.47991705 0.23781554
0.17343153 0.6571043 0.07707733 0.23667054 0.1636822 0.23191927 0.2910444 0.4576457
0.2402488 0.13452509 0.108076766 0.12912269 0.20677328 0.3378542 0.24730426 0.2342807
0.1817582 0.6564134 0.19002728 0.18435238 0.2500562 0.09946437 0.22702502 0.37358743
0.24105448 0.35546762 0.22321479 0.13257885 0.11520986 0.10382874 0.42005575 0.0587363
0.12583062 0.351017 0.17889874 0.3404745 0.37728962 0.1592908 0.10632078 0.13698585
0.18167543 0.21323723 0.39955175 0.3221309 0.17667544 0.1511471 0.22066164 0.09369787
0.3571558 0.43447375 0.09507777 0.5457157 0.17586768 0.21965443 0.27504975 0.065912455
0.19450565 0.16976883 0.30797967 0.22628474 0.14479946 0.32339427 0.3450986 0.21448871
0.2113122 0.42555687 0.12197313 0.24941379 0.16825652 0.15868463 0.36606905 0.3191619
0.09934321 0.18469912 0.11443186 0.09227991 0.53636664 0.1246041 0.1762823 0.27577078
00000000: 1568 1d3e 4205 483e 0c14 b43e 2fc3 623e
00000010: ac37 6a3e f997 a83e b1b3 cf3d 94b8 2f3e
00000020: ecc1 7b3d fc2f 133e fc96 c73d 5466 b63d
00000030: 790e 1f3e a282 643e aafe 963e ba6f d83e
00000040: d60a 163e db34 9b3d ff4d 433e 1935 2b3e
00000050: 50f5 293e d997 293e fcd5 eb3d a1d7 de3d
00000060: a92e 6c3e faa7 293e 9fae 9b3e 65dc 333e
00000070: 229a 793e ff2c 9b3d f280 a53e 290f 623e
00000080: d934 6a3e 95af d43d c3e3 ce3e 1c07 b03e
00000090: 9957 bf3d be4f 9f3e a46b 433f 0d29 553e
000000a0: cbc7 a63d ae14 673e c109 4a3e 61b0 7e3e
000000b0: b2fe 583e c345 493e 50c1 593e 8108 733e
000000c0: 5845 403f 30d4 4c3e d53d 8b3e 5f30 083e
000000d0: 1a89 9d3e ac4c 7b3e 9f2b a23e 42a9 2f3e
000000e0: 16c4 933e 6047 5a3e ff05 2a3e 36b1 5f3e
000000f0: e952 b03d 84b5 543e 5fd5 923e 7c34 ac3d
00000100: ead0 353d 332d c23d 8efc 543e 04b3 043e
00000110: 9998 ba3e 36ac 8a3e 40f0 a83e 5210 2b3f
00000120: 8fd3 6c3e da3d 3b3e 9a30 163e deae ce3d
00000130: 9727 9a3e 1cba 3d3e 12fa 9e3e 0b11 f23d
00000140: 5dd7 b93e 0a3a 7c3e 1b0d 843e 0054 9e3e
00000150: 7b72 1d3e ae61 c43e 1d33 263e 1645 c23d
00000160: ffe1 313e 2285 913d 947b 113e 8b51 633e
00000170: 6696 aa3d 8ebb 9d3e 0f1e 6a3e 5a6d 1b3e
00000180: 80da 493f 9816 7b3d 79be ab3e 6e82 6d3e
00000190: ae91 933e 9c41 8b3e 959b 873e d8a1 f23d
000001a0: cdfc da3e 16a8 153e eb2c db3d ddc1 9e3e
000001b0: da26 ce3e 5f8f 733e a645 8d3e d3c4 d73d
000001c0: 3415 033f 33c9 db3e 1e45 433f 1057 753d
000001d0: b75d 723e de44 823e f8dc 073e 7670 8b3e
000001e0: 48d8 993e 53a5 623e 96c4 853e 672f 6c3e
000001f0: a47f ac3d a2d1 593e 5b98 233e 12b4 d03e
00000200: 87a6 8a3e 6127 a53d 8c45 813e bd62 b73e
00000210: e0ca 4f3e 9091 813e 2de4 af3e bf92 f23e
00000220: fb29 183e c15e 8f3e 65fa b03e d750 9a3e
00000230: 7e9d 5d3e 4a6f 983e c8d5 2f3e 7142 2f3e
00000240: 7e25 a63e 918d c93e 57d5 833f d564 b13e
00000250: 96bb 0b3e 654b 963e dd1c 0d3e f2f3 7a3d
00000260: 9d96 1a3f 145f 913e 4df4 853e a4c2 8c3e
00000270: ed3b de3d 0834 893d e5d1 873e 3e77 c93c
00000280: 8031 273e 15dd 1c3e 2f0f df3d a6b9 813e
00000290: 9ff0 4d3e 12b2 203e 4c1a ab3e 03ce c53e
000002a0: db48 693e 01a2 933e 41c6 4c3e 458a ff3d
000002b0: f672 283f 4139 853e b0b7 f53e eb85 733e
000002c0: 0998 313e fd37 283f b8da 9d3d c359 723e
000002d0: 4e9c 273e 3f7c 6d3e c603 953e 8a50 ea3e
000002e0: c803 763e f2c0 093e 5a57 dd3d bd38 043e
000002f0: 60bc 533e 3afb ac3e 543d 7d3e 48e7 6f3e
00000300: d21e 3a3e b50a 283f 8396 423e dfc6 3c3e
00000310: 5e07 803e fab3 cb3d 3f79 683e da46 bf3e
00000320: fcd6 763e daff b53e 6b92 643e c0c2 073e
00000330: 26f3 eb3d 2aa4 d43d 8c11 d73e 7995 703d
00000340: bed9 003e 80b8 b33e 3b31 373e ac52 ae3e
00000350: 1b2c c13e 211d 233e b6be d93d 0546 0c3e
00000360: 2009 3a3e dc5a 5a3e 0c92 cc3e 57ee a43e
00000370: 68ea 343e 4ec6 1a3e 20f5 613e abe4 bf3d
00000380: 20dd b63e 5873 de3e 22b8 c23d 06b4 0b3f
00000390: a816 343e 17ed 603e 52d3 8c3e 1cfd 863d
000003a0: 7d2c 473e e1d7 2d3e 83af 9d3e 30b7 673e
000003b0: 4f46 143e ef93 a53e c4b0 b03e eea2 5b3e
000003c0: 3a62 583e 97e2 d93e 0ccd f93d 5466 7f3e
000003d0: 704b 2c3e 397e 223e 676d bb3e 3069 a33e
000003e0: 7474 cb3d c421 3d3e 405b ea3d 40fd bc3d
000003f0: 534f 093f 6f30 ff3d 5983 343e d431 8d3e
