2 - Continuous Control -DDPG/trained_agents/ddpg_reacher20_checkpoint_critic.pth (torch_old, 308684 bytes, 9 tensors)

fc1.weight f4 [256, 33]
-0.028323272 0.11616382 -0.2639977 -0.11381742 0.30461815 0.029562993 -0.020358209 0.018453388
0.15166245 0.0316819 0.027787335 0.022625033 -0.13074857 -0.038403735 0.018419242 -0.009097087
-0.029221253 0.052512135 0.08526483 -0.04778267 0.060053337 0.031553578 0.05391904 0.051741134
0.019402906 -0.20004374 0.1453697 0.11286592 -0.0014390991 -0.025812335 -0.14347254 -0.048851267
0.17481878 0.046797957 0.082197964 0.07832067 -0.08202775 -0.16568266 -0.20526706 -0.05825623
0.10004058 0.17976691 -0.06822537 -0.06515686 -0.011460925 0.09521376 0.042638745 0.04390669
0.006401794 0.12646924 0.015780373 0.013432239 -0.0073290877 0.0063450746 -0.05175731 0.032570593
-0.0135368435 0.015282722 0.074503034 -0.05036756 0.0017602538 0.13932231 -0.021083347 -0.063952945
0.05481808 0.5786592 0.021076279 0.23252398 0.0244692 -0.0036454364 -0.18062103 0.03885966
0.10725619 0.05226599 0.066192284 0.07487992 -0.038252268 0.048845556 -0.055346187 0.09513793
0.0068150717 0.058402885 -0.101367086 -0.05655976 -0.052631915 0.12772901 0.08027147 0.10324847
0.06919159 0.18585196 -0.065567054 0.06357328 -0.11151037 0.11051581 0.062159773 -0.022660494
-0.042876787 0.056588456 -0.25576496 -0.096349716 0.020211862 -0.0054703597 0.06607349 -0.01402478
0.19365877 -0.039550062 0.051307518 0.37780705 0.015667172 0.09636841 -0.007416569 0.038426492
0.08860891 0.21896768 0.07998885 0.041434865 -0.03297114 -0.051351212 -0.002607911 0.020736462
-0.037012447 0.026565097 0.14684533 -0.08507835 0.03158263 0.082853444 -0.019446013 0.11386515
0.06021683 0.009107694 0.03654789 0.14027557 -0.0946034 0.09972241 -0.032474287 -0.110227264
0.028259825 0.06982973 -0.11246859 0.09758973 0.13477279 -0.017032368 0.07064708 0.020880407
0.026940819 0.05373464 -0.24772419 -0.15760124 0.12193348 -0.017261812 -0.13230215 0.011910676
-0.021263992 0.08734626 0.016118199 -0.056996677 0.001317665 0.006678437 -0.0579419 0.27402714
0.04442806 0.060855888 -0.21278699 0.0123324245 0.2500705 -0.021629719 -0.03739233 0.08815285
-0.09679988 -0.13423578 0.064017676 0.07511316 -0.13381454 0.041146096 -0.071698494 -0.15517868
0.16145727 0.0632546 -0.08065416 0.038515553 0.040526185 0.0038902087 0.09037705 -0.12143221
0.046581138 0.10711635 0.01410177 0.097841896 -0.058702983 -0.045279294 0.19271615 -0.036160596
0.11582799 -0.106683776 -0.03201423 -0.11029452 0.004370764 0.060950585 -0.10191039 0.030751428
-0.161514 0.08636577 0.04660932 0.06926302 0.029986765 0.028266037 0.008122287 0.0682904
0.041909683 0.056571815 -0.025999572 0.1269246 0.059292216 0.057958603 -0.044881124 -0.035418853
0.040106006 0.013976397 0.004055415 -0.021833973 -0.0461582 -0.034065142 -0.00018282671 0.106984265
-0.051122673 -0.017566102 0.12116399 0.009524085 -0.04830448 0.045449354 -0.48273876 0.102783866
-0.014772545 -0.10502422 -0.11502846 -0.2190293 0.073961526 0.08152282 -0.10487033 0.05397191
-0.085205816 -0.086021334 -0.1295857 0.055793904 -0.025948407 0.006396071 -0.03461508 -0.14775439
0.16465004 -0.10027837 -0.066608965 0.1419914 0.1186301 0.053875566 -0.08040314 0.020755382
00000000: 3506 e8bc 4ce7 ed3d b52a 87be 1c19 e9bd
00000010: e9f6 9b3e 172e f23c 42c6 a6bc 8f2b 973c
00000020: 674d 1b3e e1c4 013d 44a2 e33c 2258 b93c
00000030: f4e2 05be 3c4d 1dbd f3e3 963c f30b 15bc
00000040: 6961 efbc f716 573d 549f ae3d c3b7 43bd
00000050: 7dfa 753d 533e 013d 36da 5c3d 83ee 533d
00000060: d8f2 9e3c 44d8 4cbe cbdb 143e 3f26 e73d
00000070: 27a0 bcba 6474 d3bc 77ea 12be 4418 48bd
00000080: b203 333e 37af 3f3d 6857 a83d 9666 a03d
00000090: 2afe a7bd b7a8 29be 8731 52be 169e 6ebd
000000a0: 13e2 cc3d d114 383e beb9 8bbd f670 85bd
000000b0: 9bc6 3bbc 6fff c23d f7a5 2e3d 80d7 333d
000000c0: 24c6 d13b 2781 013e d745 813c e512 5c3c
000000d0: d828 f0bb 58ea cf3b 79ff 53bd be68 053d
000000e0: a3c9 5dbc 6264 7a3c 0c95 983d 374e 4ebd
000000f0: 51b8 e63a 82aa 0e3e fcb6 acbc c3f9 82bd
00000100: ec88 603d 0223 143f 29a8 ac3c c41a 6e3e
00000110: a273 c83c 46e8 6ebb b8f4 38be 4f2b 1f3d
00000120: 22a9 db3d dd14 563d d28f 873d a55a 993d
00000130: 69ae 1cbd 4712 483d afb2 62bd add7 c23d
00000140: f750 df3b dd37 6f3d 8c99 cfbd 35ab 67bd
00000150: 9094 57bd 65cb 023e 5e65 a43d ef73 d33d
00000160: 52b4 8d3d fa4f 3e3e 0548 86bd b532 823d
00000170: 8d5f e4bd 1d56 e23d 3f9b 7e3d 80a2 b9bc
00000180: 929f 2fbd 4cc9 673d a0f3 82be 0053 c5bd
00000190: 5993 a53c b440 b3bb 8a51 873d 31c8 65bc
000001a0: 7c4e 463e 3fff 21bd d527 523d ed6f c13e
000001b0: 7158 803c cd5c c53d b106 f3bb 1965 1d3d
000001c0: 9778 b53d 1039 603e 32d1 a33d 9bb7 293d
000001d0: bf0c 07bd a655 52bd 7ce9 2abb 83df a93c
000001e0: 5d9a 17bd 0c9f d93c 9f5e 163e 8f3d aebd
000001f0: ca5c 013d 11af a93d 3f4d 9fbc 2232 e93d
00000200: eca5 763d 7038 153c 3eb3 153d 66a4 0f3e
00000210: 6dbf c1bd 433b cc3d c203 05bd d5be e1bd
00000220: 2681 e73c e402 8f3d ef55 e6bd 20dd c73d
00000230: e101 0a3e 7787 8bbc 6baf 903d 630d ab3c
00000240: feb2 dc3c db18 5c3d 69ab 7dbe 3862 21be
00000250: 43b8 f93d a568 8dbc 377a 07be ff24 433c
00000260: d331 aebc 99e2 b23d 500a 843c 5975 69bd
00000270: 80b5 ac3a cad6 da3b 7c54 6dbd 494d 8c3e
00000280: 33fa 353d 0644 793d d5e4 59be f00d 4a3c
00000290: 3e09 803e cf30 b1bc b328 19bd 7b89 b43d
000002a0: 043f c6bd 1b75 09be b31b 833d eed4 993d
000002b0: ae06 09be cf88 283d a9d6 92bd 29e7 1ebe
000002c0: 0e55 253e a18b 813d 022e a5bd 7cc2 1d3d
000002d0: c9fe 253d dff2 7e3b 9a17 b93d 73b1 f8bd
000002e0: ddcb 3e3d d15f db3d 1c0b 673c 5561 c83d
000002f0: 8a72 70bd c876 39bd 6257 453e 221d 14bd
00000300: 3a37 ed3d 067d dabd 5a21 03bd 18e2 e1bd
00000310: a038 8f3b 52a7 793d 65b6 d0bd 6bea fb3c
00000320: ed63 25be 89e0 b03d 6ae9 3e3d c5d9 8d3d
00000330: cea6 f53c 2d8e e73c 5713 053c d6db 8b3d
00000340: 7da9 2b3d d9b7 673d 0efd d4bc 86f8 013e
00000350: 65dc 723d 0066 6d3d 45d5 37bd 5c13 11bd
00000360: 3246 243d 42fd 643c 49e3 843b 29dd b2bc
00000370: 6110 3dbd e487 0bbd 2cb5 3fb9 911a db3d
00000380: 0266 51bd c9e6 8fbc d324 f83d e80a 1c3c
00000390: ebda 45bd 1a29 3a3d 8929 f7be 5980 d23d
000003a0: 8b08 72bc f016 d7bd 0b94 ebbd 3849 60be
000003b0: 2479 973d 70f5 a63d 41c6 d6bd a611 5d3d
000003c0: 6380 aebd f42b b0bd 1db2 04be 2688 643d
000003d0: c191 d4bc 2296 d13b 8bc8 0dbd ed4c 17be
000003e0: 059a 283e bf5e cdbd 486a 88bd 3266 113e
000003f0: 56f4 f23d a0ac 5c3d 67aa a4bd 3107 aa3c

fc1.bias f4 [256]
-0.043496467 -0.19807504 0.052403055 -0.20627196 -0.21201059 -0.21970987 -0.040819883 -0.15175478
-0.26708803 -0.060992654 -0.06724744 -0.0450703 -0.08296142 -0.13439505 0.014698104 -0.08790575
-0.1578925 0.026136044 0.048235457 -0.042787425 -0.14725187 -0.08619086 -0.2636597 0.0739191
0.0003805949 -0.12866637 -0.2583072 0.061737414 -0.2525514 0.01636609 -0.10042233 -0.043696247
-0.14286503 -0.12292492 0.12146621 -0.34314072 -0.076867186 -0.08304514 -0.28238505 -0.060404066
0.10191163 -0.14792794 -0.23774013 0.13507769 0.11689154 -0.0780677 -0.23050731 -0.17132542
-0.0030456542 -0.113869905 -0.4334135 -0.07089989 -0.06658713 -0.13775995 -0.30763462 -0.23226665
-0.12001869 -0.18241732 -0.23870957 0.030062193 0.012729246 -0.12225713 -0.037776083 -0.32490644
-0.018990172 -0.08493645 -0.16094539 0.00497403 -0.058636263 -0.2948249 0.08121204 -0.025858391
0.035954885 0.06403714 -0.041645125 0.04954966 -0.26059946 -0.16276379 -0.13001187 -0.12096104
0.10085384 -0.2482622 0.02147222 0.07754805 -0.07580682 -0.14899652 -0.13602234 -0.0077674417
-0.019020205 -0.19963136 -0.074453235 -0.25618756 -0.06630151 -0.35996258 -0.4064036 -0.13520487
-0.04280945 -0.030041264 0.03998458 -0.03328772 -0.14053214 -0.10043579 -0.32961792 -0.34594306
-0.031209107 0.04219229 -0.06689706 -0.15201811 -0.18037163 -0.33033273 -0.14841524 -0.3694132
-0.055976484 -0.067964174 -0.09775489 -0.13007188 0.0022922556 0.03927533 -0.26947644 -0.16555104
-0.0645413 0.15090232 0.063690834 -0.3028196 0.016331112 -0.15136896 -0.05491729 -0.13532723
-0.26913956 -0.17984326 -0.12609197 -0.17135718 -0.07653197 -0.2588327 -0.18560131 -0.18392691
-0.15376885 -0.17058869 -0.11196194 -0.34870023 -0.14343336 -0.19110577 -0.078530364 -0.068594344
-0.2269567 -0.3016643 -0.010449492 -0.0058948044 -0.081256524 -0.2310548 -0.3661396 -0.3109401
-0.10674092 -0.19795667 -0.18511741 -0.35070324 -0.19317761 -0.11110523 -0.22898017 -0.14968096
-0.16331744 0.025590789 -0.13796589 -0.3839057 0.06874298 -0.08139264 -0.011235663 -0.23304291
0.04930549 -0.1073226 -0.09469661 -0.070676506 -0.027237909 -0.1875073 -0.20475824 -0.0015607777
-0.007844783 0.0048403414 -0.13453071 0.018407293 -0.12934487 -0.2747066 -0.16206749 -0.12402314
-0.20707747 0.055340394 -0.060380757 -0.27083576 0.098383866 -0.29598415 -0.08799194 -0.35921687
-0.26157382 -0.1432051 0.06666828 -0.28418842 0.02279744 -0.0837287 -0.024368968 -0.011328402
0.076269284 -0.12405371 -0.017098716 -0.06670439 -0.07785569 -0.23169917 0.19313352 -0.060042724
-0.11724085 0.034015037 -0.4207006 -0.28547767 -0.23351645 -0.10031228 -0.06502261 -0.18827662
-0.21137568 0.106027134 -0.06182663 -0.12723318 -0.08323237 -0.04675418 0.021205897 -0.12026753
0.0076610898 -0.08984569 -0.087766364 -0.1414719 -0.25259912 -0.06942012 -0.25981396 -0.14660089
0.0991631 0.07086162 -0.110704996 -0.20737603 -0.08996737 0.15492442 -0.16724968 -0.14362933
-0.10961818 -0.1968983 -0.07799101 -0.21908447 -0.123058386 0.14143562 -0.1735943 -0.26567668
0.13499455 -0.23094577 -0.25867316 -0.09887369 -0.2188518 -0.31315383 -0.005041002 0.027811665
00000000: 5a29 32bd 2fd4 4abe 96a4 563d f538 53be
00000010: 4e19 59be a0fb 60be c032 27bd 9b65 1bbe
00000020: c3bf 88be 6fd3 79bd 07b9 89bd a39b 38bd
00000030: ade7 a9bd db9e 09be 51d0 703c ee07 b4bd
00000040: 92ae 21be 421b d63c 8b92 453d de41 2fbd
00000050: 32c9 16be d584 b0bd 67fe 86be e662 973d
00000060: 958a c739 1ec1 03be d740 84be 5fe0 7c3d
00000070: 6b4e 81be 2e12 863c 39aa cdbd d6fa 32bd
00000080: 364b 12be 0fc0 fbbd 47c3 f83d 24b0 afbe
00000090: 8b6c 9dbd 9213 aabd c694 90be 416a 77bd
000000a0: 0bb7 d03d 6c7a 17be 2672 73be ce51 0a3e
000000b0: d564 ef3d f5e1 9fbd 1c0a 6cbe ee6f 2fbe
000000c0: 9999 47bb a034 e9bd 60e8 ddbe f633 91bd
000000d0: d55e 88bd f210 0dbe 4982 9dbe 4fd7 6dbe
000000e0: 5ccc f5bd 9bcb 3abe 4870 74be fd44 f63c
000000f0: 548e 503c f261 fabd 18bb 1abd 235a a6be
00000100: 4791 9bbc 29f3 adbd dece 24be 30fd a23b
00000110: 942c 70bd 4af3 96be 7f52 a63d fad4 d3bc
00000120: 6e45 133d e725 833d 1494 2abd 96f4 4a3d
00000130: 4b6d 85be 8dab 26be d521 05be 6cba f7bd
00000140: 758c ce3d 7238 7ebe 82e6 af3c 83d1 9e3d
00000150: 9b40 9bbd 8b92 18be 7149 0bbe 0686 febb
00000160: 43d0 9bbc 2a6c 4cbe f07a 98bd 042b 83be
00000170: 16c9 87bd 044d b8be 2214 d0be 2573 0abe
00000180: f658 2fbd 1919 f6bc dfc6 233d b458 08bd
00000190: a8e7 0fbe 48b1 cdbd aec3 a8be 731f b1be
000001a0: 3eaa ffbc d3d1 2c3d 5301 89bd a3aa 1bbe
000001b0: 57b3 38be 5f21 a9be 2afa 17be ba23 bdbe
000001c0: 9947 65bd cd30 8bbd b733 c8bd 9031 05be
000001d0: ab39 163b 2bdf 203d d1f8 89be 3686 29be
000001e0: 3b2e 84bd 2386 1a3e 5770 823d 2c0b 9bbe
000001f0: d3c8 853c 7700 1bbe f4f0 60bd 3993 0abe
00000200: a9cc 89be d528 38be 411e 01be 4278 2fbe
00000210: cbbc 9cbd b885 84be 450e 3ebe 5657 3cbe
00000220: 9575 1dbe cdae 2ebe 4d4c e5bd d688 b2be
00000230: 32e0 12be 3bb1 43be 87d4 a0bd 317b 8cbd
00000240: 5667 68be be73 9abe 5934 2bbc 3429 c1bb
00000250: d269 a6bd a199 6cbe a676 bbbe 8a33 9fbe
00000260: fc9a dabd 27b5 4abe 6b8f 3dbe 608f b3be
00000270: 5ad0 45be 248b e3bd c779 6abe f745 19be
00000280: b03c 27be c6a3 d13c ee46 0dbe 4a8f c4be
00000290: 1fc9 8c3d 2fb1 a6bd c915 38bc cda2 6ebe
000002a0: 8ef4 493d f4cb dbbd 4cf0 c1bd d8be 90bd
000002b0: 0922 dfbc ea01 40be 25ac 51be 0293 ccba
000002c0: 6887 00bc ba9b 9e3b 6bc2 09be e4ca 963c
000002d0: fb72 04be 58a6 8cbe 05f5 25be d8ff fdbd
000002e0: 1e0c 54be 9cac 623d d051 77bd fcaa 8abe
000002f0: 7b7d c93d 3c8b 97be 1e35 b4bd 46eb b7be
00000300: 01ed 85be 5ca4 12be 6189 883d 2581 91be
00000310: b2c1 ba3c f479 abbd 6ea1 c7bc c39a 39bc
00000320: 1233 9c3d df0f febd 9b12 8cbc 509c 88bd
00000330: ce72 9fbd 8c42 6dbe cbc4 453e 5cef 75bd
00000340: f91b f0bd 5a53 0b3d 1266 d7be 212a 92be
00000350: f01e 6fbe 8670 cdbd 932a 85bd 96cb 40be
00000360: de72 58be c124 d93d ec3d 7dbd 6a49 02be
00000370: bc75 aabd 5081 3fbd fdb7 ad3c d34e f6bd
00000380: e109 fb3b 0401 b8bd dabe b3bd 02de 10be
00000390: ac54 81be 232c 8ebd 5606 85be 8b1e 16be
000003a0: 0616 cb3d e61f 913d 4db9 e2bd 625a 54be
000003b0: d040 b8bd 82a4 1e3e 8043 2bbe 9113 13be
000003c0: 7f7f e0bd b59f 49be c0b9 9fbd ae57 60be
000003d0: 0906 fcbd 80d4 103e b4c2 31be c606 88be
000003e0: 033c 0a3e 0c7d 6cbe cf70 84be 4a7e cabd
000003f0: b01a 60be b355 a0be fd2e a5bb 4ad5 e33c

fc2.weight f4 [256, 260]
0.0032502534 -0.009829889 0.0055592926 0.06759258 -0.01379588 -0.14101693 -0.013845358 0.07484544
-0.011875122 -0.22210185 0.05611125 -0.14432949 -0.10515833 0.097877495 -0.1277856 -0.11848045
0.042066097 -0.06956669 0.017050805 -0.04334875 -0.053273913 -0.038078897 -0.30692533 0.055043057
-0.17112301 0.00543027 -0.222376 0.006897315 -0.073213965 0.012129128 0.043639544 -0.13987349
-0.00300879 -0.08354983 -0.036399484 -0.027077598 -0.0013419144 0.01042901 -0.02001904 0.0077058445
0.09796354 -0.014980908 -0.068242826 0.042983525 0.023814242 0.09248587 -0.16888395 -0.0002950735
-0.20396614 -0.022689352 -0.012528918 0.040090214 -0.24739619 -0.018972704 -0.11942633 0.017502451
-0.1054883 -0.015108282 0.1290205 -0.08116004 -0.03860545 0.02559356 0.019323131 -0.037241235
-0.06993307 -0.01958657 -0.1935089 0.036498457 -0.012503363 0.0025774566 -0.062784 0.016001754
-0.06602432 0.035829462 0.017911876 -0.009254796 -0.11798077 0.059523016 0.005041143 0.0076815835
0.030310031 -0.107497804 -0.1150371 0.031936694 0.04159889 0.03890343 0.051963963 -0.03380884
-0.025231263 0.09577919 -0.0807836 -0.14532657 -0.006459277 -0.031973124 -0.109273136 -0.15640062
-0.16534984 -0.15957852 0.036945388 -0.04901743 -0.062129907 -0.053575274 -0.029610457 -0.036578424
0.010221741 0.019575076 -0.03472516 -0.093229264 -0.060653932 0.07266805 -0.22109409 0.08335422
-0.11903349 -0.38359833 0.039092697 -0.07607023 -0.09340259 -0.0560619 -0.121186815 -0.09004107
-0.1543713 -0.09386849 -0.12733726 0.015125164 0.01624626 -0.11529632 -0.101987 -0.101986945
0.026946433 -0.004698117 0.08233337 -0.113601744 0.011792006 -0.19080578 0.009750032 -0.017643366
0.08923958 -0.047894824 -0.010847404 -0.039494436 -0.09170535 -0.057932068 0.16324294 -0.05986942
-0.029078575 -0.061035443 -0.01608576 0.06541915 0.10281913 0.060798094 -0.07157448 -0.040409807
-0.0765187 0.066954166 0.015485712 -0.1710873 -0.09406353 -0.2646721 -0.0697437 0.019404192
-0.098863 -0.078396335 0.10729512 0.13568807 0.03905062 0.04798957 -0.09243264 -0.12336241
0.048205633 0.0341015 -0.23048274 0.027177455 -0.077208 0.08768062 -0.024554389 -0.07836701
-0.1444126 -0.0019123936 0.07391622 0.12580884 -0.060629208 -0.2569334 -0.075871356 -0.11883675
0.013521373 -0.12750204 0.10170288 0.1074542 -0.06026786 0.07813838 -0.1480697 -0.10528873
-0.20293608 -0.18005893 -0.039912943 -0.1401666 -0.19663922 -0.033519994 -0.1007514 -0.072952986
0.11638158 -0.13510112 -0.18968758 0.015109568 0.1335742 -0.05752937 -0.13707419 -0.013265021
0.008031023 0.0048011276 -0.15386648 0.0805308 0.08680765 0.0849418 -0.07536544 -0.19943197
-0.017268617 -0.09858762 -0.09594354 -0.09179133 0.06766525 -0.034656733 0.12593389 -0.07624248
0.06909734 -0.10928281 -0.117003605 -0.041998945 -0.1459935 0.026923625 0.08236394 -0.084986076
0.024146358 -0.08234993 -0.06825956 -0.1414131 -0.029956529 0.0908861 -0.011770589 -0.011342805
-0.15694064 -0.05653856 -0.060305696 0.069445565 0.018710535 0.0031470645 0.059360757 -0.054405507
-0.04415764 0.0010628725 -0.007989093 -0.0072356197 -0.15085043 -0.1332577 -0.11923987 -0.16744398
00000000: 3402 553b 8b0d 21bc ba2a b63b fb6d 8a3d
00000010: 1d08 62bc be66 10be a4d7 62bc 9148 993d
00000020: df8f 42bc ab6e 63be e9d4 653d 1ccb 13be
00000030: 405d d7bd ff73 c83d 3ada 02be e1a5 f2bd
00000040: 804d 2c3d fb78 8ebd 21ae 8b3c 758e 31bd
00000050: bf35 5abd 9ef8 1bbd 5125 9dbe d474 613d
00000060: df3a 2fbe 68f0 b13b 89b6 63be df02 e23b
00000070: 34f1 95bd 40b9 463c 61bf 323d ff3a 0fbe
00000080: 1f2f 45bb 2c1c abbd a017 15bd d7d1 ddbc
00000090: 2de3 afba 70de 2a3c f8fe a3bc 4f81 fc3b
000000a0: 1ca1 c83d 7b72 75bc e5c2 8bbd 7e0f 303d
000000b0: 1616 c33c 3b69 bd3d eaef 2cbe 18b4 9ab9
000000c0: 80dc 50be 05df b9bc 1746 4dbc a335 243d
000000d0: 6d55 7dbe a56c 9bbc cb95 f4bd 4d61 8f3c
000000e0: 400a d8bd ba88 77bc f31d 043e 3c37 a6bd
000000f0: c020 1ebd 96a9 d13c 8b4b 9e3c 448a 18bd
00000100: 1239 8fbd 0474 a0bc 3227 46be 687f 153d
00000110: e8da 4cbc 8cea 283b e694 80bd 1c16 833c
00000120: c237 87bd eac1 123d edbb 923c 6ea1 17bc
00000130: e79f f1bd 68ce 733d 2c30 a53b cbb5 fb3b
00000140: be4c f83c cf27 dcbd 9298 ebbd 0dd0 023d
00000150: 9963 2a3d 3459 1f3d 2ad8 543d 237b 0abd
00000160: cbb1 cebc e127 c43d df71 a5bd 7dd0 14be
00000170: 58a8 d3bb 40f6 02bd 98ca dfbd 7c27 20be
00000180: 7851 29be 8d68 23be 0c54 173d 80c6 48bd
00000190: ee7b 7ebd bf71 5bbd a191 f2bc 42d3 15bd
000001a0: 1779 273c e95b a03c f83b 0ebd fcee bebd
000001b0: 4270 78bd fdd2 943d 7d66 62be 9eb5 aa3d
000001c0: d5c7 f3bd 0067 c4be aa1f 203d b5ca 9bbd
000001d0: db49 bfbd 2aa1 65bd cb30 f8bd 7467 b8bd
000001e0: 8313 1ebe 1f3e c0bd b364 02be 89cf 773c
000001f0: e016 853c 7a20 ecbd 8fde d0bd 88de d0bd
00000200: c4be dc3c a9f2 99bb 669e a83d 08a8 e8bd
00000210: 4233 413c 9762 43be 99be 1f3c d288 90bc
00000220: 3ec3 b63d 5d2d 44bd 4fb9 31bc ebc4 21bd
00000230: 04d0 bbbd 2d4a 6dbd 2829 273e a339 75bd
00000240: 3136 eebc 4d00 7abd 49c6 83bc 7afa 853d
00000250: d692 d23d 6c07 793d a495 92bd c184 25bd
00000260: d6b5 9cbd 441f 893d c9b7 7d3c 8231 2fbe
00000270: 61a4 c0bd 1a83 87be c9d5 8ebd 8af5 9e3c
00000280: af78 cabd 428e a0bd 8bbd db3d d0f1 0a3e
00000290: 8bf3 1f3d b690 443d 534d bdbd 6ea5 fcbd
000002a0: 4573 453d 04ae 0b3d ab03 6cbe 41a3 de3c
000002b0: 3a1f 9ebd e691 b33d 4926 c9bc e27e a0bd
000002c0: e6e0 13be 48a9 faba 6361 973d 08d4 003e
000002d0: 5556 78bd c68c 83be 7162 9bbd af60 f3bd
000002e0: c088 5d3c e58f 02be 9949 d03d f310 dc3d
000002f0: 6edb 76bd 0407 a03d 959f 17be 9ea1 d7bd
00000300: 7ace 4fbe 5e61 38be c17b 23bd d587 0fbe
00000310: cb5b 49be 434c 09bd c056 cebd 6068 95bd
00000320: 7759 ee3d f357 0abe 763d 42be 1f8e 773c
00000330: adc7 083e eba3 6bbd 2d5d 0cbe 8855 59bc
00000340: 8d94 033c c752 9d3b 2d8f 1dbe 55ed a43d
00000350: 36c8 b13d f7f5 ad3d 3259 9abd e537 4cbe
00000360: ea76 8dbc 4ee8 c9bd 0c7e c4bd 18fd bbbd
00000370: 1494 8a3d 38f4 0dbd d0f4 003e 0425 9cbd
00000380: e882 8d3d aacf dfbd 969f efbd 1607 2cbd
00000390: 527f 15be ef8e dc3c 6dae a83d 2e0d aebd
000003a0: 95ce c53c 15a7 a8bd abcb 8bbd 98ce 10be
000003b0: 6567 f5bc 7e22 ba3d 6ed9 40bc 2cd7 39bc
000003c0: 0cb5 20be fa94 67bd 1b03 77bd 7a39 8e3d
000003d0: d646 993c fb3e 4e3b 4424 733d 4fd8 5ebd
000003e0: a4de 34bd 1550 8b3a afe4 02bc c718 edbb
000003f0: 8978 1abe b574 08be 0834 f4bd 6f76 2bbe

fc2.bias f4 [256]
-0.093287215 -0.14987934 -0.23162219 -0.17669967 -0.12693408 -0.07206065 -0.043944683 -0.0008244141
0.050203484 -0.22183506 -0.1301614 -0.19268677 -0.12506391 -0.03010656 -0.074563414 0.00880697
-0.0914496 -0.16876534 0.03594743 -0.1095989 -0.059138548 -0.1362936 -0.19234933 -0.11072086
-0.05161165 -0.08018854 -0.013333597 -0.24507076 0.017423192 -0.19498888 -0.19904701 -0.16600685
-0.07440963 -0.107269004 -0.13714781 -0.1275434 0.0813456 -0.14148708 -0.17181641 -0.036660027
-0.21400729 -0.18939656 -0.1314579 -0.15744916 -0.19200115 -0.1295398 -0.14942956 -0.10968942
-0.12417829 -0.18963565 -0.13769838 -0.16236055 -0.17439406 -0.049464397 -0.07761535 -0.10295716
-0.09299984 -0.12487088 -0.07584136 -0.012796807 -0.03676499 -0.13475879 -0.22586235 0.054095738
-0.18383849 -0.16300328 -0.055293873 -0.10205937 -0.14462726 -0.07005138 -0.13247961 -0.14836103
-0.12838829 -0.17339343 -0.2358071 -0.08970783 -0.015962074 -0.13944583 -0.010803175 -0.070190154
-0.008768733 -0.11736178 -0.26404336 -0.20448717 -0.20443337 -0.19485112 -0.038288783 -0.17332786
-0.18813121 -0.20720673 -0.19063465 0.024093311 -0.18416993 -0.20399857 -0.12574811 0.018927786
-0.09499536 -0.11279449 -0.0070339222 -0.19137391 -0.19045979 -0.09670724 -0.20069508 -0.041139163
-0.14218275 0.00046369203 -0.119187996 -0.17363168 -0.0908652 -0.21295007 -0.21693979 -0.18884411
-0.11310405 -0.090822525 -0.22587918 -0.21475491 -0.010937449 -0.14826243 -0.051603224 -0.074732445
-0.07722537 -0.12658873 -0.10757125 -0.151746 -0.092228845 0.10325439 -0.028011084 -0.08088541
-0.22517446 -0.067305 0.0046742703 -0.19605215 -0.14498472 -0.10529815 -0.15316013 -0.078978725
-0.1005122 -0.1646851 0.032608707 -0.096455134 -0.03891126 -0.06459069 -0.17951216 -0.14118248
-0.11947492 -0.17831346 -0.17825855 -0.1876449 -0.052702107 -0.17527641 -0.07918616 -0.1870793
-0.12476052 -0.20082618 0.028623136 -0.17726672 -0.15546627 -0.026797922 -0.13598242 -0.1620452
-0.15112564 -0.08096518 -0.2019894 -0.2106969 -0.152877 -0.09622076 -0.13436265 -0.080980696
-0.15078785 -0.13995443 0.12406984 -0.04696042 -0.18594268 -0.1531674 -0.07952682 0.049723618
-0.15660155 -0.104023755 -0.12702928 0.01626162 -0.049217753 -0.1421942 0.023602232 -0.08418095
-0.24545655 -0.17273575 -0.1680147 -0.16786742 -0.27953354 -0.15844426 -0.16749215 0.19381592
-0.010812417 -0.17057993 0.025134778 -0.035081808 -0.18661663 -0.12803045 0.043383818 -0.11000736
-0.14432606 -0.083072476 -0.118975416 0.05381658 -0.17137587 -0.08774268 0.09281797 -0.07701689
-0.09308346 0.08725361 -0.16581358 -0.23546204 0.0012663639 -0.13324569 -0.09769289 -0.03814183
-0.19352253 -0.12303025 -0.18691212 -0.20501798 0.005729875 0.011184524 -0.035876565 0.009338737
-0.15906952 -0.1047541 -0.17812179 -0.15796745 -0.1595985 -0.04860773 -0.13198918 -0.0541856
-0.15774317 0.05601929 -0.000833624 0.063044205 -0.043292027 -0.11726016 0.021599336 -0.058326624
-0.071666814 -0.21543162 -0.05762981 -0.0877602 -0.20006321 -0.24547786 -0.20368193 -0.23558953
-0.13052034 -0.123741895 -0.18518117 -0.023928002 -0.031874288 -0.18952774 -0.05440437 -0.12912607
00000000: 5e0d bfbd f879 19be 5e2e 6dbe c2f0 34be
00000010: 02fb 01be 8994 93bd 57ff 33bd 7e1d 58ba
00000020: 2ba2 4d3d bb28 63be 0849 05be ae4f 45be
00000030: c110 00be 08a2 f6bc b4b4 98bd 1c4b 103c
00000040: ee49 bbbd d2d0 2cbe 9d3d 133d 6375 e0bd
00000050: 433b 72bd 8d90 0bbe 39f7 44be 9ec1 e2bd
00000060: bd66 53bd e439 a4bd 2975 5abc d4f3 7abe
00000070: 15bb 8e3c 2aab 47be fbd2 4bbe b3fd 29be
00000080: 1364 98bd daaf dbbd 7a70 0cbe bd9a 02be
00000090: 8698 a63d fde1 10be a4f0 2fbe d328 16bd
000000a0: ba24 5bbe 2cf1 41be e69c 06be 5a3a 21be
000000b0: f39b 44be 15a6 04be 1004 19be d9a4 e0bd
000000c0: 3051 febd d92f 42be ce00 0dbe d841 26be
000000d0: 5b94 32be 2e9b 4abd ccf4 9ebd 34db d2bd
000000e0: b376 bebd 4ebc ffbd b752 9bbd b3a9 51bc
000000f0: e396 16bd 35fe 09be 7648 67be 7e93 5d3d
00000100: 2840 3cbe 55ea 26be d47b 62bd 8104 d1bd
00000110: 2b19 14be 1977 8fbd bca8 07be f4eb 17be
00000120: 3878 03be 0c8e 31be 6b77 71be bdb8 b7bd
00000130: e5c2 82bc e3ca 0ebe cdff 30bc dbbf 8fbd
00000140: bbaa 0fbc 5f5b f0bd b130 87be 1665 51be
00000150: fb56 51be 0d87 47be b3d4 1cbd dc7c 31be
00000160: 78a5 40be 002e 54be bb35 43be 565f c53c
00000170: 0b97 3cbe 00e5 50be 1dc4 00be 720e 9b3c
00000180: ed8c c2bd cc00 e7bd d17c e6bb 86f7 43be
00000190: e407 43be 720e c6bd 0383 4dbe 8a81 28bd
000001a0: 5b98 11be b11b f339 d618 f4bd 81cc 31be
000001b0: 8917 babd 950f 5abe 7725 5ebe 5a60 41be
000001c0: 19a3 e7bd 2901 babd df4c 67be b6e8 5bbe
000001d0: fc32 33bc 1bd2 17be e75d 53bd 530d 99bd
000001e0: 5628 9ebd 7aa0 01be 514e dcbd 4e63 1bbe
000001f0: 7ae2 bcbd 0a77 d33d 8077 e5bc 40a7 a5bd
00000200: 2294 66be 34d7 89bd 9f2a 993b e5c1 48be
00000210: e076 14be 8ea6 d7bd 02d6 1cbe 99bf a1bd
00000220: 57d9 cdbd 36a3 28be b590 053d 458a c5bd
00000230: 6a61 1fbd 2048 84bd 09d2 37be 2492 10be
00000240: 44af f4bd ce97 36be 6989 36be fc25 40be
00000250: 2ade 57bd a97b 33be 5a2c a2bd b791 3fbe
00000260: 7282 ffbd 61a5 4dbe 117b ea3c 6885 35be
00000270: 8d32 1fbe 5187 dbbc fa3e 0bbe 2def 25be
00000280: aec0 1abe 13d1 a5bd 4fd6 4ebe eec0 57be
00000290: ca8b 1cbe 640f c5bd 5d96 09be 35d9 a5bd
000002a0: 2168 1abe 3750 0fbe 5418 fe3d 9259 40bd
000002b0: c267 3ebe ead7 1cbe f5de a2bd feaa 4b3d
000002c0: 285c 20be 680a d5bd f713 02be 1737 853c
000002d0: 8e98 49bd 5b9b 11be 7859 c13c 1067 acbd
000002e0: f658 7bbe a4e1 30be 0c0c 2cbe 70e5 2bbe
000002f0: 051f 8fbe 363f 22be 1083 2bbe ae77 463e
00000300: 9026 31bc 81ac 2ebe 73e7 cd3c f1b1 0fbd
00000310: 6e18 3fbe 6a1a 03be 3bb3 313d 8a4b e1bd
00000320: 36ca 13be e721 aabd 62a9 f3bd c66e 5c3d
00000330: 287d 2fbe 6fb2 b3bd 5917 be3d 08bb 9dbd
00000340: 8ba2 bebd 05b2 b23d 09cb 29be f61c 71be
00000350: 1ffc a53a 8f71 08be 3613 c8bd 9c3a 1cbd
00000360: c52a 46be 49f7 fbbd e465 3fbe 3cf0 51be
00000370: adc1 bb3b 4b3f 373c 4ef3 12bd 8101 193c
00000380: 1fe3 22be 5189 d6bd 8f65 36be 38c2 21be
00000390: ca6d 23be e618 47bd 2c28 07be b8f1 5dbd
000003a0: 6d87 21be 7c74 653d 8f87 5aba 521d 813d
000003b0: fb52 31bd 1826 f0bd 17f1 b03c e6e7 6ebd
000003c0: 0dc6 92bd 1b9a 5cbe 3c0d 6cbd 9fbb b3bd
000003d0: 5fdd 4cbe 8c5e 7bbe ff91 50be 623e 71be
000003e0: 20a7 05be 646c fdbd 22a0 3dbe a804 c4bc
000003f0: 9d8e 02bd 8f13 42be 1ed7 5ebd a039 04be

fc3.weight f4 [1, 256]
-0.024552375 -0.0304973 -0.069051325 -0.05328252 -0.028831784 0.024486944 0.013435694 0.016444813
0.03136567 -0.005590671 -0.024862766 -0.010707036 0.010368088 0.029379541 0.013457848 0.018089313
-0.029135037 0.029284382 0.05092609 -0.017641915 -0.017266387 0.023567902 -0.043706276 0.06692239
0.008984723 -0.022261143 0.039278973 -0.04121307 0.053511824 -0.049100246 -0.04546119 -0.16830869
0.013072087 0.01268112 -0.025165826 -0.05345087 0.034231845 0.01623989 0.004682312 0.008971331
-0.004707781 -0.07256595 -0.10477746 -0.031566776 0.01072887 -0.021445403 0.01420485 -0.045488402
-0.034419257 -0.027937833 -0.02412165 -0.028997349 0.033279028 0.013937275 -0.026970927 -0.029671676
0.011434934 0.051695045 0.009507822 0.02670982 0.015008824 -0.008010801 -0.035006724 0.027083186
0.021816107 -0.024689388 0.024040105 -0.013152095 0.035943184 0.013886464 -0.024111725 -0.0150264995
-0.014885784 -0.01927449 0.03701859 0.027351478 0.011679751 0.014188961 0.008579031 -0.019537946
0.017503371 -0.012286981 -0.046251025 -0.030511418 5.6911264e-05 0.028836587 0.027391654 -0.032057967
0.013031713 -0.03290817 -0.037291087 0.028655175 0.02173457 -0.084041715 0.045824077 0.007447823
-0.030592248 -0.010046812 0.031230703 -0.010067107 -0.022855135 -0.012120865 0.018539013 0.01078202
0.010716251 0.023403201 -0.026278827 0.014809449 -0.012584473 0.0014262587 -0.016780216 -0.029729502
-0.03896819 0.012696785 -0.025418993 -0.022704741 0.03264331 0.024375396 0.01663524 -0.052917354
0.014860133 -0.021710971 -0.025091903 -0.011287005 -0.097281605 0.026298828 0.030736214 0.026643388
-0.054812085 -0.035989806 0.02493447 -0.080797926 -0.08546501 0.01653884 -0.12514547 0.014622691
0.01277738 0.00094623194 0.030195551 0.009638696 0.02892453 0.026297018 -0.045170438 0.020027902
0.0019603132 0.12161022 -0.03741261 -0.0629547 0.03314423 -0.012390093 0.018834803 -0.023216536
-0.018210433 -0.08846037 0.02105811 -0.029374901 0.012720074 0.010490695 -0.048402827 -0.009161734
-0.023009513 -0.018488204 -0.019639928 -0.031215604 -0.008442514 0.018309245 -0.0228987 0.023941766
0.030736284 -0.019852197 0.03600992 0.017314786 -0.039100554 -0.06767745 0.04912674 0.036104828
-0.012870403 -0.017185377 -0.030379312 0.039963692 0.011427907 -0.024325825 0.056199066 0.023544617
-0.0043816324 -0.027583575 0.008281528 -0.022579862 -0.028521901 -0.016356856 -0.044031613 0.07241014
0.006206227 -0.02031151 0.032337204 0.050719816 -0.0109857675 -0.050689146 0.021584248 -0.019791292
0.044195883 0.015664347 0.015244639 0.042079613 -0.11236373 -0.024202088 0.03410173 0.011444789
0.013894156 0.025093323 -0.031959698 -0.017291078 0.008159682 -0.016562143 -0.05261526 0.017248912
-0.077520125 -0.004439661 -0.001040553 -0.023894763 0.01347471 0.022015918 0.00878065 0.0214909
-0.01531538 -0.020044819 -0.025885183 -0.021707889 -0.037136767 0.022149187 -0.018673604 -0.048489735
0.0037257706 0.044781588 0.011503031 0.011955761 0.011833227 0.02274557 0.031744376 -0.018795067
0.010947243 -0.020942703 0.011767331 -0.10452887 0.02142731 -0.03230318 -0.022660365 0.0026359968
-0.012720186 0.012141655 0.022557907 0.013281868 0.018054347 0.01022186 0.0121254185 0.011224467
00000000: 1022 c9bc 79d5 f9bc c86a 8dbd c63e 5abd
00000010: a230 ecbc d898 c83c 6321 5c3c 46b7 863c
00000020: 4a79 003d f331 b7bb 00ad cbbc 906c 2fbc
00000030: eade 293c 5dad f03c 4e7e 5c3c 0a30 943c
00000040: 9aac eebc cde5 ef3c e097 503d c785 90bc
00000050: 3d72 8dbc 7911 c13c 5a05 33bd 9b0e 893d
00000060: a934 133c 005d b6bc fde2 203d 09cf 28bd
00000070: 372f 5b3d 571d 49bd 8335 3abd 1d59 2cbe
00000080: 4f2c 563c 79c4 4f3c 9028 cebc 4def 5abd
00000090: b136 0c3d 8509 853c 146e 993b 7dfc 123c
000000a0: bb43 9abb 759d 94bd 9195 d6bd 2a4c 01bd
000000b0: 24c8 2f3c 45ae afbc 76bb 683c 0c52 3abd
000000c0: 35fb 0cbd e2dd e4bc c49a c5bc d98b edbc
000000d0: 974f 083d 2b59 643c 22f2 dcbc 0412 f3bc
000000e0: 9759 3b3c 2fbe 533d b2c6 1b3c 8dce da3c
000000f0: 92e7 753c bc3f 03bc 3663 0fbd 8fdd dd3c
00000100: b1b7 b23c 6641 cabc c1ef c43c e27b 57bc
00000110: 2939 133d 0d84 633c f485 c5bc b531 76bc
00000120: 81e3 73bc 89e5 9dbc cea0 173d 3510 e03c
00000130: 6d5c 3f3c d178 683c 108f 0c3c 0b0e a0bc
00000140: 3b63 8f3c 554f 49bc b771 3dbd 15f3 f9bc
00000150: 01b4 6e38 b53a ec3c 7664 e03c 374f 03bd
00000160: f782 553c b8ca 06bd 8abe 18bd 42be ea3c
00000170: b20c b23c 101e acbd 07b2 3b3d de0c f43b
00000180: 989c fabc 629b 24bc 88d7 ff3c 82f0 24bc
00000190: b13a bbbc 9896 46bc 21df 973c 12a7 303c
000001a0: 3793 2f3c 12b8 bf3c b246 d7bc 55a3 723c
000001b0: 1b2f 4ebc 4df1 ba3a aa76 89bc 498b f3bc
000001c0: 1c9d 1fbd 2d06 503c 7e3b d0bc 4bff b9bc
000001d0: feb4 053d e9ae c73c a046 883c debf 58bd
000001e0: ea77 733c 35db b1bc 898d cdbc 21ed 38bc
000001f0: 943b c7bd a470 d73c 83ca fb3c 3c43 da3c
00000200: a382 60bd 0c6a 13bd 6043 cc3c 6279 a5bd
00000210: 4708 afbd 767c 873c 2226 00be 0394 6f3c
00000220: 3758 513c 8d0c 783a a95c f73c 9feb 1d3c
00000230: 23f3 ec3c d86c d73c a304 39bd 8e11 a43c
00000240: 9978 003b c70e f93d f73d 19bd 65ee 80bd
00000250: 3ec2 073d d1ff 4abc 724b 9a3c 9b30 bebc
00000260: 0c2e 95bc b62a b5bd 0f82 ac3c a2a3 f0bc
00000270: db67 503c 2ae1 2b3c 0b42 46bd 191b 16bc
00000280: 727e bcbc 9374 97bc eae3 a0bc deb7 ffbc
00000290: 7852 0abc 45fd 953c 0e96 bbbc 8621 c43c
000002a0: a9ca fb3c 13a1 a2bc 237f 133d bdd7 8d3c
000002b0: e727 20bd 7a9a 8abd 1f39 493d a8e2 133d
000002c0: 62de 52bc 59c8 8cbc 09de f8bc f8b0 233d
000002d0: 1e3c 3b3c f446 c7bc fe30 663d a4e0 c03c
000002e0: cc93 8fbb f3f6 e1bc 3faf 073c 67f9 b8bc
000002f0: c3a6 e9bc d0fe 85bc 7e5a 34bd c44b 943d
00000300: 9b5d cb3b 5364 a6bc 0474 043d 95bf 4f3d
00000310: a6fd 33bc 6c9f 4fbd 73d1 b03c 5921 a2bc
00000320: be06 353d 8452 803c a6c4 793c ac5b 2c3d
00000330: f51e e6bd 7543 c6bc 41ae 0b3d ed82 3b3c
00000340: 50a4 633c 8390 cd3c 2ce8 02bd 05a6 8dbc
00000350: 30b0 053c 55ad 87bc 1983 57bd 974d 8d3c
00000360: dfc2 9ebd 937a 91bb 2a63 88ba f3be c3bc
00000370: 08c5 5c3c ba5a b43c b7dc 0f3c af0d b03c
00000380: 5ced 7abc 0835 a4bc 2a0d d4bc bed4 b1bc
00000390: b91c 18bd 3672 b53c 63f9 98bc 2c9d 46bd
000003a0: 0f2c 743b e66c 373d 3577 3c3c 19e2 433c
000003b0: 27e0 413c eb54 ba3c 6406 023d 1df8 99bc
000003c0: 115c 333c 0890 abbc c3cb 403c 3b13 d6bd
000003d0: 5388 af3c 5750 04bd 3ba2 b9bc b0c0 2c3b
000003e0: 5468 50bc cbed 463c 5ccb b83c 319c 593c
000003f0: b6e6 933c 9779 273c b1a9 463c d4e6 373c

bn1.weight f4 [256]
0.25731316 0.35382554 0.23396382 0.33189 0.31196627 0.3008898 0.27851728 0.19115797
0.23620208 0.3312227 0.26075268 0.42654094 0.4121771 0.46558812 0.15932536 0.6803739
0.22861469 0.40163416 0.6311969 0.57743895 0.14289549 0.27175382 0.8860772 0.14806007
0.52632535 0.17926042 0.27787346 0.7934942 0.536488 0.8247618 0.22977552 0.436066
0.15097567 0.27523836 0.61634994 0.18653437 0.92636657 0.28140625 0.48051152 0.4285442
0.19705737 0.6704283 0.45642576 0.44420323 0.6310619 0.22712493 0.28713542 0.5600558
0.25293636 0.24175191 0.24389692 0.20532824 0.37850323 0.2872291 0.024379857 0.93106294
0.18941301 0.21786064 0.23868008 0.3392254 0.10543879 0.26489964 0.19440694 0.17795143
0.28479192 0.37000737 0.48497212 0.23158494 0.28113803 0.16752495 0.2433435 0.46957934
0.4822916 0.35788783 0.13386522 0.3166176 0.09519945 0.34038192 0.11000474 0.27450302
0.070327446 0.35312787 0.3045615 0.6373288 0.5219974 0.06939282 0.09741602 0.25402337
0.33807194 0.07322931 0.09530074 0.017324932 0.5356238 0.28497198 0.23847282 0.6442152
0.36134708 0.15023395 0.5376418 0.2967107 0.2874933 0.15524013 0.3412886 0.14218077
0.24869572 0.30037987 0.20800188 0.41955522 0.057371598 0.061420012 0.2346381 0.0018833459
0.14551167 0.18653147 0.19186173 0.6049322 0.2842173 0.24110566 -0.0011508296 0.27811056
0.41030583 0.1712908 0.7596516 0.094337024 0.62032074 0.5927309 0.34953487 0.07453712
0.026222037 0.21755412 0.30601063 0.27371803 0.6225816 0.19246913 0.61304563 0.45707285
0.31416216 0.44571164 0.21935283 0.17769107 0.011852721 0.06690933 0.11259695 0.24743627
0.21858878 0.20319013 0.22821833 0.6379502 0.4840203 0.008782437 0.17396316 0.12869494
0.3864351 -0.0551056 0.43756944 0.10616953 0.03709824 0.08972389 0.50746715 0.19821058
0.300614 0.11414269 0.16345234 -0.010581701 0.38185912 0.22796284 0.2802134 0.54948115
0.29715496 0.28917328 0.4686338 0.27672085 0.26990104 0.531978 0.10944558 0.77966243
0.47512573 0.70987606 0.29237798 0.25613388 0.65767664 0.36272898 0.43800896 0.19439973
0.17969081 0.2545722 0.05971544 0.009255152 0.18863961 0.3712808 0.21222559 0.07733345
0.53976893 0.49590132 0.6097947 0.08360998 0.68196493 0.10440058 0.0780093 0.8777271
0.3414313 0.25504348 0.63005096 0.40951553 0.0066434667 0.6256886 0.47810143 0.03975387
0.47415906 0.4776104 0.07100547 0.42127624 0.034274124 0.5487451 0.4136579 0.67036116
0.7230828 0.50478107 0.04734776 0.15522277 0.4659547 0.5290931 0.88527113 0.36934423
0.1891813 0.0743566 0.37094656 0.69244766 0.1675081 0.39476717 0.04120051 0.23631415
0.6242022 0.4148167 0.6603645 0.65820974 0.12346214 0.21935141 0.82452315 0.46672538
0.3959237 0.2680049 0.44036198 0.45743734 0.31118217 0.63605267 0.08250979 0.13897628
0.4322761 0.35478482 0.0934122 0.68248457 0.4565748 0.15621355 0.39875463 0.024916187
00000000: 8dbe 833e 9f28 b53e 3694 6f3e 7ced a93e
00000010: 0bba 9f3e 3a0e 9a3e d199 8e3e eabe 433e
00000020: f5de 713e 0696 a93e 6081 853e 9363 da3e
00000030: e008 d33e 9161 ee3e 3026 233e fc2c 2e3f
00000040: f819 6a3e fea2 cd3e 1f96 213f 0ad3 133f
00000050: 3253 123e 5123 8b3e f5d5 623f 0f9d 173e
00000060: 42bd 063f 0b90 373e 6e45 8e3e 7022 4b3f
00000070: 4757 093f 9723 533f 464a 6b3e 0b44 df3e
00000080: 5e99 1a3e 0bec 8c3e 1cc9 1d3f de02 3f3e
00000090: 5c26 6d3f 7b14 903e 9b05 f63e 256a db3e
000000a0: 68c9 493e 30a1 2b3f a3b0 e93e 9b6e e33e
000000b0: 468d 213f 7093 683e 6a03 933e d15f 0f3f
000000c0: e080 813e d08d 773e 1dc0 793e 9141 523e
000000d0: 2dcb c13e b10f 933e 44b8 c73c 245a 6e3f
000000e0: 7cf5 413e dc16 5f3e 8d68 743e f4ae ad3e
000000f0: 4bf0 d73d eda0 873e 9d12 473e e638 363e
00000100: 3fd0 913e 9b71 bd3e 444e f83e 9a24 6d3e
00000110: 53f1 8f3e a98b 2b3e 0a2f 793e b46c f03e
00000120: edee f63e 133d b73e f713 093e b41b a23e
00000130: eef7 c23d 8a46 ae3e 2a4a e13d a98b 8c3e
00000140: d607 903d 2dcd b43e 7cef 9b3e fb27 233f
00000150: 9fa1 053f d31d 8e3d 0d82 c73d 5a0f 823e
00000160: c417 ad3e 40f9 953d 092d c33d 04ed 8d3c
00000170: a41e 093f d9e7 913e 3832 743e 4aeb 243f
00000180: 7c02 b93e eed6 193e e5a2 093f 77ea 973e
00000190: 5232 933e 45f7 1e3e 61bd ae3e d697 113e
000001a0: 17aa 7e3e 64cb 993e 72fe 543e f1cf d63e
000001b0: 7bfe 6a3d 8d93 7b3d f844 703e 9ada f63a
000001c0: 0301 153e 1b02 3f3e 6777 443e d6dc 1a3f
000001d0: ee84 913e 67e4 763e 6fd7 96ba 8264 8e3e
000001e0: 9b13 d23e db66 2f3e 8778 423f c533 c13d
000001f0: 57cd 1e3f 36bd 173f 3cf6 b23e eba6 983d
00000200: 99cf d63c 82c6 5e3e 6dad 9c3e c524 8c3e
00000210: 8261 1f3f a116 453e 8ff0 1c3f 7405 ea3e
00000220: ddd9 a03e 5134 e43e 079e 603e a6f4 353e
00000230: ea31 423c c207 893d 3b99 e63d ef5f 7d3e
00000240: bdd5 5f3e 1311 503e 11b2 693e b450 233f
00000250: 82d1 f73e 36e4 0f3c 6623 323e 9bc8 033e
00000260: d2da c53e 69b6 61bd 1a09 e03e 696f d93d
00000270: 53f4 173d 29c1 b73d 5ee9 013f b7f7 4a3e
00000280: 14ea 993e a5c3 e93d 0d60 273e df5e 2dbc
00000290: 0a83 c33e 176f 693e 2178 8f3e ccaa 0c3f
000002a0: b224 983e 850e 943e c5f0 ef3e 5bae 8d3e
000002b0: 7830 8a3e b62f 083f 0125 e03d f597 473f
000002c0: ae43 f33e 70ba 353f 91b2 953e fb23 833e
000002d0: 7f5d 283f 9db7 b93e b642 e03e b910 473e
000002e0: de00 383e 4a57 823e 2d98 743d eca2 173c
000002f0: be2a 413e 8418 be3e aa51 593e 0061 9e3d
00000300: 4c2e 0a3f c7e6 fd3e 811b 1c3f b63b ab3d
00000310: 4195 2e3f f9cf d53d 57c3 9f3d b9b2 603f
00000320: 15d0 ae3e 0f95 823e 054b 213f 05ac d13e
00000330: 70b1 d93b 212d 203f b6c9 f43e f4d4 223d
00000340: fac4 f23e 5a89 f43e 516b 913d 85b1 d73e
00000350: 0663 0c3d 8f7a 0c3f f8ca d33e ca9c 2b3f
00000360: f41b 393f 5539 013f baef 413d b8f2 1e3e
00000370: 9d91 ee3e a572 073f 21a1 623f b01a bd3e
00000380: beb8 413e 4648 983d b5ec bd3e 4044 313f
00000390: 3e87 2b3e ec1e ca3e dec1 283d 56fc 713e
000003a0: b7cb 1f3f db62 d43e a60d 293f 6f80 283f
000003b0: b8d9 fc3d a89d 603e f313 533f a1f6 ee3e
000003c0: 83b6 ca3e f037 893e 2077 e13e 3a35 ea3e
000003d0: 4553 9f3e 59d4 223f e5fa a83d cc4f 0e3e
000003e0: 4b53 dd3e 5ba6 b53e e54e bf3d 4fb7 2e3f
000003f0: 2cc4 e93e 72f6 1f3e 9129 cc3e 081d cc3c

bn1.bias f4 [256]
0.14018582 0.12704667 0.08524834 -0.046883162 -0.008180438 0.19963917 -0.17710303 0.15943485
0.11165356 0.13750988 0.12154403 0.033868328 0.011741741 -0.019332796 0.25848696 -0.021807529
0.020380266 0.001006694 -0.012433755 -0.1131806 0.008432573 0.11627354 0.28020403 -0.10229568
0.10989478 -0.08011344 0.19786954 -0.010500513 0.057617113 0.045257784 -0.026286945 0.157678
0.061207376 0.02324394 0.0356992 0.033102646 0.026213706 -0.042958602 0.024412153 -0.03520619
-0.18771775 0.16630252 0.03057161 -0.097306885 0.23525625 0.07399376 -0.012335221 -0.0039345725
0.01900826 -0.008443879 -0.15072447 -0.028950732 -0.07135929 -0.0025960573 0.28690377 0.055746138
0.1937848 0.023626901 -0.12216962 0.016252855 -0.106128186 0.05779679 -0.06636399 0.21719122
0.103776805 0.15305331 0.17568937 0.041306358 0.1827671 -0.017372278 -0.017763989 0.04088878
0.013061121 -0.032326456 0.007080324 -0.0044049188 -0.031669017 0.0038367584 0.119743645 0.036322854
0.15183131 -0.033302736 0.012227764 -0.012624407 -0.02077149 0.13381939 0.0015874949 0.14901453
0.01035228 -0.05730451 0.057100438 0.16765465 -0.026225403 0.0027697284 -0.0760189 -0.05162467
0.023049043 0.17137747 0.14879107 0.009117039 -0.11843008 0.065737054 0.03813851 0.010107497
0.050830383 0.10006153 -0.097476944 0.2458923 -0.06688484 -0.2252162 -0.017773276 -0.17725135
0.03338418 0.07883568 0.05855198 -0.06555263 0.08881171 0.19718568 0.26099136 -0.07365907
0.006067609 0.056681484 0.094621845 -0.038295414 0.013147108 -0.048853133 0.013579049 0.29170778
0.029475404 0.06404021 0.15283804 -0.10290545 0.0075569153 -0.005940676 -0.03640746 0.098414354
0.035628885 0.068688504 -0.10536982 0.005627353 0.20742422 -0.12304376 -0.0038111154 -0.051703878
0.028053338 0.032694355 -0.0075772423 0.033255123 0.12126942 0.10658019 0.057583183 -0.009838958
-0.009395375 -0.20905848 -0.046958175 0.22049342 0.029912092 0.07299923 0.11340912 -0.08984499
0.00038662564 0.13224444 -0.21351843 -0.17706433 0.07072108 -0.020595832 0.06409334 0.057215326
0.10006399 0.0067302575 0.012390121 0.04332689 0.14115395 0.05639919 0.24809851 -0.0065140836
0.021670055 0.11692993 -0.014446675 0.083303794 0.118830256 0.0016001315 -0.030040313 0.17577219
0.06286686 -0.08992289 -0.20568807 -0.2270803 0.033529416 0.0952397 0.008925382 0.12833205
0.072654925 0.15401654 -0.019033864 -0.09039308 0.15031603 -0.11265552 0.16195077 -0.08412449
0.051122427 -0.022280287 0.091749005 -0.07063188 -0.17296478 -0.031917624 0.09761561 0.19249192
0.10725485 0.04442948 0.066657916 0.05842055 -0.13681401 -0.032502986 -0.030587185 0.008560653
-0.023295717 -0.13671838 -0.0071855783 0.19875106 0.23172803 0.13874242 -0.030894965 -0.0038512195
-0.0939616 -0.008843851 0.039602954 0.041064207 0.11670871 0.02283819 -0.09943705 -0.07600885
-0.024878778 0.0368333 0.001741488 0.0120637445 0.15608692 0.058358926 0.022146666 -0.004753085
0.22493713 0.23564968 0.043088738 0.076046094 0.07368949 0.096196376 -0.0058109676 0.09658146
0.10938172 -0.10971848 -0.09670481 0.01550789 -0.09036814 0.033900715 0.29768112 0.1843008
00000000: df8c 0f3e 8618 023e af96 ae3d 8f08 40bd
00000010: 3e07 06bc 366e 4c3e 7f5a 35be e442 233e
00000020: 9faa e43d 64cf 0c3e 14ec f83d 84b9 0a3d
00000030: 6e60 403c d05f 9ebc 6758 843e b4a5 b2bc
00000040: 84f4 a63c 0cf3 833a f3b6 4bbc 3bcb e7bd
00000050: c628 0a3c d220 ee3d e776 8f3e 6680 d1bd
00000060: 8410 e13d 8412 a4bd 509e 4a3e 580a 2cbc
00000070: ecff 6b3d 3a60 393d b857 d7bc 5776 213e
00000080: 96b4 7a3d 136a be3c 5339 123d a496 073d
00000090: 20be d63c 5cf5 2fbd fffb c73c 5e34 10bd
000000a0: 1539 40be 354b 2a3e 5071 fa3c d548 c7bd
000000b0: 04e7 703e 0a8a 973d ab19 4abc 96ed 80bb
000000c0: 36b7 9b3c 3258 0abc 8457 1abe 162a edbc
000000d0: d224 92bd 9d22 2abb 0de5 923e 1056 643d
000000e0: 866f 463e 348d c13c 1134 fabd b524 853c
000000f0: bc59 d9bd 54bc 6c3d d8e9 87bd 6067 5e3e
00000100: ef88 d43d 02ba 1c3e eae7 333e db30 293d
00000110: 4c27 3b3e 4f50 8ebc c985 91bc fe7a 273d
00000120: 50fe 553c bf68 04bd 1002 e83b 2357 90bb
00000130: 5fb7 01bd 2072 7b3b 283c f53d 46c7 143d
00000140: ab79 1b3e 7368 08bd f656 483c 9ad6 4ebc
00000150: f928 aabc f307 093e 7d13 d03a 4497 183e
00000160: 9c9c 293c 22b8 6abd 26e2 693d a9ad 2b3e
00000170: a8d6 d6bc 5584 353b ccaf 9bbd 6474 53bd
00000180: 59d1 bc3c 937d 2f3e b05c 183e a25f 153c
00000190: 788b f2bd 26a1 863d 2037 1c3d ea99 253c
000001a0: 8533 503d 0fed cc3d fea1 c7bd 31cb 7b3e
000001b0: ebfa 88bd 139f 66be 4399 91bc 6181 35be
000001c0: dabd 083d 9a74 a13d 33d4 6f3d 7540 86bd
000001d0: eae2 b53d 0beb 493e a9a0 853e 91da 96bd
000001e0: cbd2 c63b d82a 683d 19c9 c13d a7db 1cbd
000001f0: f866 573c 391a 48bd a97a 5e3c b95a 953e
00000200: 6776 f13c 8327 833d 9381 1c3e 18c0 d2bd
00000210: 00a0 f73b 01aa c2bb fd1f 15bd 778d c93d
00000220: 98ef 113d 8fac 8c3d 22cc d7bd a965 b83b
00000230: 0467 543e 5efe fbbd e8c3 79bb 72c7 53bd
00000240: 1dd0 e53c 84ea 053d 844a f8bb 8636 083d
00000250: 1a5c f83d b746 da3d 58dc 6b3d 9533 21bc
00000260: 0fef 19bc 6d13 56be 3757 40bd 07c9 613e
00000270: 340a f53c 9f80 953d 0a43 e83d a600 b8bd
00000280: 04b4 ca39 166b 073e 93a4 5abe 5a50 35be
00000290: 37d6 903d 97b8 a8bc 5e43 833d 9e5a 6a3d
000002a0: 59ee cc3d 7e89 dc3b efff 4a3c 8977 313d
000002b0: a98a 103e d602 673d 890d 7e3e 1874 d5bb
000002c0: 6685 b13c f678 ef3d bfb1 6cbc 2e9b aa3d
000002d0: 475d f33d 81bb d13a 1a17 f6bc a0fd 333e
000002e0: 57c0 803d 7e29 b8bd e59f 52be bd87 68be
000002f0: 2456 093d 080d c33d c43b 123c 7a69 033e
00000300: 1bcc 943d 83b6 1d3e e8ec 9bbc 0220 b9bd
00000310: 72ec 193e f0b7 e6bd 6cd6 253e 7649 acbd
00000320: c065 513d 2685 b6bc e7e6 bb3d 72a7 90bd
00000330: ae1d 31be 0ebc 02bd b1ea c73d 9a1c 453e
00000340: 6ea8 db3d b0fb 353d f283 883d 634a 6f3d
00000350: f918 0cbe da21 05bd fa91 fabc fb41 0c3c
00000360: a9d6 bebc e7ff 0bbe 0075 ebbb 6685 4b3e
00000370: 1d4a 6d3e 7e12 0e3e 7017 fdbc be64 7cbb
00000380: f06e c0bd cde5 10bc b536 223d f132 283d
00000390: fa04 ef3d 2817 bb3c a7a5 cbbd 87aa 9bbd
000003a0: 94ce cbbc 84de 163d a442 e43a 03a7 453c
000003b0: 40d5 1f3e c509 6f3d ed6c b53c c4bf 9bbb
000003c0: eb55 663e 264e 713e d17d 303d 0ebe 9b3d
000003d0: 84ea 963d 9b02 c53d ee69 bebb 80cc c53d
000003e0: 8603 e03d 15b4 e0bd 2c0d c6bd ce14 7e3c
000003f0: ee12 b9bd 7adb 0a3d a969 983e 59b9 3c3e

bn1.running_mean f4 [256]
0.17516041 0.13798085 0.04780066 0.23371199 0.11307992 0.18136826 0.20968394 0.15273903
0.06924594 0.31190142 0.4928201 0.37497506 0.13732235 0.00020382092 0.3907328 0.045841064
0.020856112 0.19796537 0.48266795 0.13680537 0.2833747 0.04171682 0.041210733 0.10041905
0.17248844 0.035666917 0.5080869 0.07479872 0.058530718 0.07794125 0.43982968 0.41590673
0.29471052 0.01003913 0.3830096 0.33432692 0.006763153 0.007049974 0.10898623 0.1509532
0.14438418 0.17421411 3.188951e-05 0.09926266 0.46752897 0.33667532 0.020873157 0.012665158
0.33054113 3.126964e-06 0.16203335 0.062610514 0.14336835 0.16490667 9.971109e-09 0.09577256
0.056803618 0.04611977 0.04404007 0.061938442 0.57524574 0.15797234 0.2767661 0.1125744
0.025604839 0.5926324 0.499308 0.0475369 0.23976144 0.010779438 0.26839668 0.21231458
0.42354065 0.1351665 0.18357515 0.17503035 5.973463e-05 0.07257425 0.022712052 0.15770978
0.7068087 3.1871597e-08 0.1822046 0.24992698 0.069102675 0.090360135 0.0036016686 0.5287023
0.06844013 0.15356275 0.002916322 9.824175e-07 0.13671936 0.21907765 0.0003697975 0.15498714
0.44932908 0.8901801 0.106200516 0.0018091152 0.12984705 0.0014283991 3.0670527e-08 0.0005129761
0.01890435 0.054608736 0.13782132 0.23409119 0.5193963 0.27399713 0.26379654 1.459524e-39
0.046721727 0.03315637 0.12432143 0.21700421 0.083347216 0.74326485 0.009267732 0.3486281
1.5825545e-06 0.39071265 0.59266114 0.013659851 0.024453819 0.119361185 0.051682282 0.0040170737
0.00035753555 0.040450744 0.19022787 0.27789462 0.12490179 0.0008850882 0.09863852 0.05316259
0.10876078 0.019200748 0.29968083 4.4424996e-19 0.029308943 0.10417108 0.059096023 0.080269456
7.8714436e-07 0.009665129 0.115087435 0.15514217 0.0010652856 0.015121866 4.8443212e-08 0.00044761735
0.25962788 0.10816334 0.12475615 1.485529e-39 0.049423918 1.2165656e-07 0.59919804 0.09519167
9.250479e-06 0.25201252 0.37854266 6e-45 0.45246595 0.41646588 0.05426343 0.24161254
0.07465585 0.05587993 0.12886623 0.07800989 0.16323063 0.39368686 0.06707475 0.14458176
0.6013348 0.29122213 0.066742696 0.28582436 0.118236504 0.1293369 0.048570283 1.5843272e-05
5.926698e-19 0.20026365 0.5137094 6.4332667e-06 0.45234564 1.9803487e-05 0.00067940727 5.5124445e-05
0.06084118 0.07758343 0.1880815 0.06772372 0.13351278 0.31979877 1.050676 0.36615485
0.33726197 0.0004510576 0.18457013 0.03889799 0.024893513 0.10969067 0.17748478 0.89499485
0.06966986 0.17759585 0.00014814305 0.0977185 0.07078647 0.3131726 0.48260865 7.3299407e-09
0.108175874 0.42977983 0.045641422 0.25673547 0.104982026 0.8941553 0.025461374 0.2925887
0.15775405 0.00022635749 0.13799554 3.9303444e-08 0.0090664765 1.4833922e-05 0.0036509964 0.121981494
0.32670698 0.29649848 0.3845709 5.3552203e-06 0.10346204 0.59796596 0.047082286 0.13119225
0.65486586 0.852808 0.25227797 0.15352355 0.22323462 0.09326865 0.050532587 0.29029584
0.9456888 0.2766705 0.29378143 0.1496897 0.25327194 0.021676848 0.073204085 0.641823
00000000: 405d 333e da4a 0d3e a0ca 433d 3252 6f3e
00000010: 7296 e73d 9ab8 393e 63b7 563e 9f67 1c3e
00000020: d1d0 8d3d 8bb1 9f3e eb52 fc3e bbfc bf3e
00000030: 3b9e 0c3e c3b8 5539 210e c83e d7c3 3b3d
00000040: 70da aa3c 6fb7 4a3e 4120 f73e b516 0c3e
00000050: 7d16 913e 42df 2a3d 96cc 283d 81a8 cd3d
00000060: cfa0 303e 7917 123d fc11 023f 1230 993d
00000070: e8bd 6f3d a99f 9f3d 5b31 e13e baf1 d43e
00000080: 4ce4 963e 2a7b 243c d619 c43e e62c ab3e
00000090: 709d dd3b 7803 e73b 2c34 df3d 7a93 1a3e
000000a0: 72d9 133e 2f65 323e 1ac1 0538 394a cb3d
000000b0: f55f ef3e b560 ac3e 2ffe aa3c 8681 4f3c
000000c0: b03c a93e d5d8 5136 12ec 253e f139 803d
000000d0: 27cf 123e 4bdd 283e 674d 2b32 6724 c43d
000000e0: e9aa 683d 15e8 3c3d 5c63 343d 2ab3 7d3d
000000f0: 4e43 133f 80c3 213e 49b4 8d3e 688d e63d
00000100: 3dc1 d13c c2b6 173f 4ca5 ff3e 0db6 423d
00000110: 0684 753e 3d9c 303c 4a6b 893e fe68 593e
00000120: 52da d83e 1669 0a3e 20fb 3b3e 283b 333e
00000130: 928b 7a38 cfa1 943d a00e ba3c ac7e 213e
00000140: 6af1 343f 31e3 0833 d893 3a3e dcec 7f3e
00000150: b485 8d3d bc0e b93d f909 6c3b 0959 073f
00000160: 572a 8c3d 8e3f 1d3e c41f 3f3b 9cdb 8335
00000170: 2900 0c3e e455 603e 61e1 c139 f3b4 1e3e
00000180: 760e e63e d8e2 633f a87f d93d d51f ed3a
00000190: a0f6 043e 1f39 bb3a 9aba 0333 3e79 063a
000001a0: 4cdd 9a3c 69ad 5f3d 0821 0d3e 9ab5 6f3e
000001b0: 28f7 043f 5a49 8c3e 5710 873e 8fe4 0f00
000001c0: 485f 3f3d f9ce 073d 3c9c fe3d 5a36 5e3e
000001d0: f2b1 aa3d 9b46 3e3f afd7 173c 627f b23e
000001e0: 2968 d435 7d0b c83e a4b8 173f 91cd 5f3c
000001f0: 6053 c83c a373 f43d cdb0 533d a8a1 833b
00000200: 9c73 bb39 aeaf 253d 18cb 423e 3448 8e3e
00000210: 82cc ff3d 4305 683a fe02 ca3d 04c1 593d
00000220: f9bd de3d e34a 9d3c c46f 993e 941e 0321
00000230: 4f19 f03c a657 d53d ac0e 723d 5064 a43d
00000240: 264c 5335 7d5a 1e3c f6b2 eb3d 97dd 1e3e
00000250: 0ea1 8b3a b4c1 773c e00f 5033 2fae ea39
00000260: f2ed 843e be84 dd3d 2780 ff3d 0d2d 1000
00000270: bc70 4a3d b3a0 0234 0b65 193f daf3 c23d
00000280: 8132 1b37 c907 813e 58d0 c13e 0400 0000
00000290: 9ea9 e73e 043b d53e 5543 5e3d 4769 773e
000002a0: 2be5 983d 5ae2 643d 82f5 033e a6c3 9f3d
000002b0: ee25 273e 5391 c93e 7d5e 893d 3e0d 143e
000002c0: 14f1 193f 111b 953e 65b0 883d 9257 923e
000002d0: fb25 f23d e470 043e a2f1 463d 2be7 8437
000002e0: ddec 2e21 ea11 4d3e 7682 033f 57dd d736
000002f0: d999 e73e aa1f a637 401a 323a 6c35 6738
00000300: 9a34 793d 10e4 9e3d 7098 403e bcb2 8a3d
00000310: 93b7 083e aabc a33e 8d7c 863f a678 bb3e
00000320: 9aad ac3e ed7b ec39 f4ff 3c3e 8053 1f3d
00000330: 7bed cb3c 81a5 e03d 92be 353e 621e 653f
00000340: 12af 8e3d b0db 353e d956 1b39 a320 c83d
00000350: 7ff8 903d 2958 a03e 7b18 f73e d7da fb31
00000360: 508b dd3d 1a0c dc3e 80f2 3a3d d572 833e
00000370: d100 d73d 5de7 643f 5f94 d03c 30ce 953e
00000380: 478a 213e 605a 6d39 b44e 0d3e 98ce 2833
00000390: 8f8b 143c 36df 7837 8e45 6f3b 6fd1 f93d
000003a0: 2346 a73e a6ce 973e 7ae6 c43e feb0 b336
000003b0: e8e3 d33d 4c14 193f 5bd9 403d 4357 063e
000003c0: 4aa5 273f a051 5a3f 942a 813e 4735 1d3e
000003d0: 9e97 643e a203 bf3d 42fb 4e3d a8a1 943e
000003e0: a918 723f c1a7 8d3e 856a 963e 4248 193e
000003f0: dcac 813e a593 b13c 06ec 953d 834e 243f
