2 - Continuous Control -DDPG/trained_agents/ddpg_reacher_checkpoint_actor.pth (torch_old, 307672 bytes, 10 tensors)

fc1.weight f4 [256, 33]
-0.037468262 0.048411686 0.06810943 0.025769645 -0.07293702 0.28577295 0.006915451 0.002378241
-0.088108785 -5.09252e-05 0.0027159236 0.006921008 0.0012877537 0.07809079 -0.012308644 -0.035753738
0.0024341368 -0.052490592 -0.06470483 0.02807068 0.0229163 0.02200777 -0.0076066633 -0.0008758239
0.00016811784 0.02568496 -0.033165954 0.15599911 -0.045489114 -0.059913367 -0.14913051 -0.0045448616
-0.0983381 -0.083087765 -0.057940062 -0.04342171 0.16772403 0.04197812 -0.11059498 -0.09866165
0.060416266 -0.12799773 0.001017245 0.014884933 0.014152771 -0.027508056 -0.041556597 -0.015602612
-0.020061415 0.118652806 0.15036972 0.17662434 0.08429897 -0.03073744 -0.10377872 0.03426461
-0.019427227 0.021517381 0.005603512 0.09466326 0.0051173414 0.0023737529 0.025628053 0.0657595
-0.04818806 -0.078505 -0.003971534 -0.0004903827 0.0042262985 -0.012701843 -0.075221114 0.08373019
-0.0010117256 0.0734906 -0.17322102 -0.04582308 -0.006969584 0.00045225536 -0.04577304 0.025924593
-0.001046527 0.026150169 -0.231989 0.17915806 0.07577135 0.15603833 -0.048647333 0.07590422
0.005395484 -0.024576716 0.0038117806 -0.010241478 -0.05915877 0.133714 -0.0066144764 -0.038827874
-0.120488234 0.026507676 -0.082321845 0.07537161 -0.0059078145 -0.027644582 0.2247166 -0.1278886
-0.088216424 -0.029775044 -0.052867383 -0.102203265 0.08809097 0.049447864 -0.0068233274 -0.07581417
0.04093242 0.002853743 -0.045416012 -0.12993135 0.13397081 -0.10224261 -0.12052721 0.08372907
-0.11001497 0.01030119 -0.041137166 0.004955758 -0.005199886 -0.012734734 -0.02868389 0.040869724
-0.06202095 0.04350105 0.002107516 -0.043763403 0.027750729 -0.04457723 0.027444744 -0.07205275
0.1490532 -0.06748479 -0.05621075 0.056632277 0.0787211 0.03291331 0.07038559 0.02441662
0.01737859 0.09357712 0.0044201124 0.0035777325 -0.1465838 0.098181516 -0.15185261 0.030195454
-0.090520084 0.08014911 -0.016308405 0.018444391 -0.047197536 0.0004242359 -0.038843486 0.11256919
-0.008205047 0.035283387 -0.13887836 0.0255436 -0.030391248 0.059146233 -0.03927807 -0.027175646
0.024145605 -0.019875027 -0.05382566 0.12631734 -0.008834649 -0.016032683 0.021733845 -0.011263177
0.020421974 -0.001316719 -0.03515144 0.0052302564 0.046420548 0.024379848 -0.074149854 0.15517132
0.020012464 0.0066075996 0.07048721 -0.03424401 0.040235497 -0.0093920175 -0.020678094 -0.014158123
0.13872316 -0.030987317 0.014496304 -0.08646822 0.05793219 0.3768446 0.07918722 0.04278481
-0.015678955 0.038176935 -0.13715945 -0.045907874 0.1655592 0.007891346 0.002825647 0.041993085
0.00075350585 0.03394001 0.004386908 -0.035752032 0.019998835 0.123555526 -0.06765708 -0.108393624
-0.10146955 -0.01411458 0.028515792 -0.019508574 0.007023134 0.055447053 -0.012498274 -0.010294126
0.046639733 0.07319762 0.022026287 -0.040769167 -0.04237649 -0.029888429 -0.18779977 0.082834005
-0.030858794 -0.06094723 -0.032161705 -0.18625595 0.026859941 0.0117100235 0.028525691 0.10153006
-0.026562532 0.017056413 0.011707021 0.048987657 0.041172244 0.0025910842 0.03617366 0.03602259
-0.21270569 0.16572659 0.056978438 0.006020652 -0.010486933 -0.019300511 0.0035890136 -0.005777332
00000000: 5278 19bd 554b 463d f57c 8b3d dd1a d33c
00000010: 0160 95bd d550 923e 029b e23b 43dc 1b3b
00000020: 6172 b4bd 8498 55b8 a3fd 313b a0c9 e23b
00000030: d8c9 a83a 10ee 9f3d 32aa 49bc 8372 12bd
00000040: 0a86 1f3b 6000 57bd f783 84bd 7cf4 e53c
00000050: f7ba bb3c a449 b43c 5141 f9bb 8c97 65ba
00000060: ca48 3039 4469 d23c 06d9 07bd 3bbe 1f3e
00000070: cb52 3abd b867 75bd abb5 18be 10ed 94bb
00000080: 7c65 c9bd eb29 aabd 8f52 6dbd f7da 31bd
00000090: d9bf 2b3e 40f1 2b3d 9f7f e2bd 1f0f cabd
000000a0: 0c77 773d d611 03be 1455 853a efdf 733c
000000b0: 06e1 673c 9358 e1bc 4037 2abd 19a2 7fbc
000000c0: d657 a4bc 3e00 f33d 85fa 193e 03dd 343e
000000d0: f0a4 ac3d 15cd fbbc f089 d4bd 0c59 0c3d
000000e0: d925 9fbc 3845 b03c aa9d b73b d0de c13d
000000f0: 5faf a73b f790 1b3b ecf1 d13c ebac 863d
00000100: d860 45bd 3bc7 a0bd a423 82bb 078d 00ba
00000110: c37c 8a3b 641b 50bc 870d 9abd bc7a ab3d
00000120: e19b 84ba 3d82 963d da60 31be fbb0 3bbd
00000130: 1c61 e4bb b01c ed39 837c 3bbd d05f d43c
00000140: 9e2b 89ba e138 d63c 868e 6dbe 3675 373e
00000150: 022e 9b3d 83c8 1f3e 6d42 47bd ac73 9b3d
00000160: 9acc b03b 1c55 c9bc 11cf 793b dfcb 27bc
00000170: 7750 72bd 53ec 083e 40be d8bb fa09 1fbd
00000180: 89c2 f6bd a026 d93c 5b98 a8bd 6e5c 9a3d
00000190: 5796 c1bb e476 e2bc 1c1c 663e 3bf5 02be
000001a0: d0aa b4bd cbea f3bc 788b 58bd f24f d1bd
000001b0: 0a69 b43d d889 4a3d 3896 dfbb 7644 9bbd
000001c0: c1a8 273d dd05 3b3b 2406 3abd b90c 05be
000001d0: a52f 093e 9364 d1bd f8d6 f6bd 267a ab3d
000001e0: 874f e1bd 53c6 283c 727f 28bd e963 a23b
000001f0: ce63 aabb 59a5 50bc 7afa eabc 0367 273d
00000200: ae09 7ebd 282e 323d 401e 0a3b 4141 33bd
00000210: 7f55 e33c 9d96 36bd cdd3 e03c 6490 93bd
00000220: 67a1 183e 7735 8abd 3e3d 66bd 3ff7 673d
00000230: 8738 a13d 1bd0 063d 5226 903d 5d05 c83c
00000240: 8b5d 8e3c 5ca5 bf3d 97d6 903b 6478 6a3b
00000250: 101a 16be 6413 c93d 407f 1bbe 755c f73c
00000260: 9862 b9bd 3725 a43d 3499 85bc b118 973c
00000270: 3452 41bd fb6b de39 591a 1fbd ad8a e63d
00000280: 766e 06bc 5085 103d 2136 0ebe d040 d13c
00000290: 11f7 f8bc 5243 723d 0be2 20bd 769f debc
000002a0: 01cd c53c f4d0 a2bc 4c78 5cbd 5559 013e
000002b0: 34bf 10bc f956 83bc 2d0b b23c 3089 38bc
000002c0: fc4b a73c c295 acba f5fa 0fbd 9262 ab3b
000002d0: 7923 3e3d 3fb8 c73c e1db 97bd 3be5 1e3e
000002e0: 2ef1 a33c 9084 d83b 995b 903d 7243 0cbd
000002f0: facd 243d fae0 19bc 1b65 a9bc 79f7 67bc
00000300: 720d 0e3e 1dd9 fdbc e881 6d3c 4016 b1bd
00000310: 4e4a 6d3d c7f1 c03e e92c a23d 203f 2f3d
00000320: 2771 80bc 6b5f 1c3d 8773 0cbe e509 3cbd
00000330: 5a88 293e b44a 013c 7d2e 393b f100 2c3d
00000340: ec86 453a ae04 0b3d 0dc0 8f3b b970 12bd
00000350: 99d4 a33c ae0a fd3d cc8f 8abd 7afd ddbd
00000360: 44cf cfbd d740 67bc f399 e93c 72d0 9fbc
00000370: 5122 e63b 731c 633d 90c5 4cbc b2a8 28bc
00000380: 4e09 3f3d a2e8 953d 7970 b43c 92fd 26bd
00000390: f892 2dbd 94d8 f4bc 954e 40be e0a4 a93d
000003a0: 95cb fcbc cda3 79bd febb 03bd e1b9 3ebe
000003b0: 6109 dc3c 66db 3f3c b6ae e93c feee cf3d
000003c0: ab99 d9bc e4b9 8b3c cece 3f3c 48a7 483d
000003d0: 3aa4 283d 2ecf 293b d52a 143d 6c8c 133d
000003e0: 85cf 59be 3bb4 293e 3962 693d e448 c53b
000003f0: 63d1 2bbc 1b1c 9ebc a835 6b3b c64f bdbb

fc1.bias f4 [256]
-0.17035562 0.044625904 -0.20200884 0.15900728 -0.066062644 -0.20211244 -0.17468928 0.046660073
-0.254878 -0.124639995 -0.21139051 -0.18790828 -0.2405813 -0.09102866 0.08533673 -0.16441856
0.17557946 -0.1774255 -0.043532368 0.077757046 -0.0059617534 -0.0028731897 -0.041651387 -0.20453894
-0.31053185 -0.088878796 -0.26420978 -0.04093311 -0.0904854 0.014948691 -0.020504206 -0.26245433
-0.22770962 -0.15193088 -0.15941857 -0.09570867 -0.09101278 -0.19804539 -0.040318623 0.00785955
-0.18114796 -0.18649003 0.14001389 0.06209041 -0.07432105 -0.0034693049 -0.17500259 -0.1371132
-0.1586377 -0.11485072 0.031034892 -0.13906199 0.004789519 -0.15389608 -0.049582146 0.073826395
-0.12182879 -0.1144648 -0.10382461 -0.14082347 -0.14504296 -0.034761313 -0.15768714 -0.1884277
0.058916904 -0.17129771 0.061028022 0.053458415 -0.010279186 -0.2503735 -0.22740585 -0.06619507
-0.20966624 -0.13867603 -0.23962544 3.6909973e-05 0.056297377 -0.06854128 -0.015144401 -0.29147822
-0.054270014 -0.14601694 -0.2688241 -0.06170409 -0.013266268 0.10144584 0.05438859 0.06921967
-0.07186865 0.014411031 -0.0023797862 -0.1512678 -0.16007055 -0.1034469 -0.09457524 0.14507544
-0.14752395 -0.035798058 -0.23213552 -0.04650242 -0.17716312 -0.20329438 -0.16677345 0.06290273
0.17563961 0.09919336 -0.13805851 -0.03171149 0.009691458 -0.32045782 -0.26082054 0.29826218
-0.09034386 -0.0045932 -0.16924307 0.03584567 -0.1344244 -0.19008307 -0.21782312 -0.1601482
-0.029698757 -0.28964677 -0.08897582 -0.1175667 -0.16513342 0.015782638 0.0073124077 -0.09421172
0.22016035 0.0064261043 -0.0738494 0.06391078 -0.11122196 0.021611942 -0.064076945 -0.0023902697
0.015519561 0.16176873 -0.028248109 -0.03847269 0.05407405 -0.04223996 -0.22762586 -0.047940273
-0.23852362 -0.21273687 -0.19334474 -0.01110639 0.20368509 -0.096275166 -0.13186182 0.047573287
0.08093674 -0.21482812 0.098669074 -0.14696942 -0.07498659 0.09195402 -0.13897578 -0.16222398
0.024353074 -0.047831677 0.08121581 -0.06378398 -0.10601483 0.048587646 0.16975589 0.022218639
0.06901931 -0.2408287 -0.09812992 -0.12221727 -0.16412461 -0.07121265 0.057521995 -0.0078118215
-0.036898796 -0.24869752 -0.034895163 0.10720579 -0.25069606 -0.094574645 -0.114615805 -0.014267854
-0.19192258 -0.08856032 -0.04984281 -0.08460521 0.089609705 0.09612726 -0.10985975 -0.08304287
-0.24466793 -0.17457502 -0.14321367 -0.13138527 -0.17760876 -0.049862 -0.22681044 -0.22543758
0.033817384 0.05653904 -0.16218813 0.079241686 -0.077141926 -0.018705461 -0.07700971 0.019323472
-0.14992817 -0.26893958 -0.027251927 -0.25276816 -0.011348883 0.006433541 -0.16008477 0.0323588
-0.22696102 -0.11187664 -0.07965364 -0.08923018 -0.21127221 -0.029953158 -0.14176215 0.015009919
-0.08951753 -0.19340268 -0.13154398 -0.13202405 -0.18000585 -0.23342101 -0.17190251 -0.040353596
-0.031438235 0.043567043 0.117256984 -0.099079005 -0.100811616 -0.14591569 -0.14513718 0.075022615
-0.091958135 -0.023491688 -0.12361701 -0.08569575 -0.03724116 -0.1665135 0.12177509 -0.14193974
-0.22026883 -0.15399836 -0.14831914 -0.019098833 -0.23269047 -0.1759297 -0.14061634 -0.13721317
00000000: b471 2ebe a7c9 363d 68db 4ebe ced2 223e
00000010: da4b 87bd 90f6 4ebe bfe1 32be a21e 3f3d
00000020: 5f7f 82be 4143 ffbd c176 58be 076b 40be
00000030: f25a 76be 3c6d babd 06c5 ae3d 575d 28be
00000040: 1acb 333e 08af 35be ff4e 32bd 163f 9f3d
00000050: d05a c3bb 204c 3cbb a59a 2abd a872 51be
00000060: 08fe 9ebe 1606 b6bd 8146 87be 7aa9 27bd
00000070: 6950 b9bd 5beb 743c 70f8 a7bc 6a60 86be
00000080: b62c 69be c593 1bbe 9f3e 23be e802 c4bd
00000090: e964 babd 69cc 4abe 2425 25bd 58c5 003c
000000a0: da7e 39be 3ef7 3ebe cd5f 0f3e 8452 7e3d
000000b0: a235 98bd 475d 63bb e133 33be 6767 0cbe
000000c0: ec71 22be db36 ebbd e33c fe3c 4466 0ebe
000000d0: 66f1 9c3b ef96 1dbe a616 4bbd 4b32 973d
000000e0: 5f81 f9bd 856c eabd ffa1 d4bd 0734 10be
000000f0: 2486 14be e161 0ebd bd78 21be 31f3 40be
00000100: da52 713d ab68 2fbe 85f8 793d 36f7 5a3d
00000110: 086a 28bc f530 80be 14dd 68be 4891 87bd
00000120: bfb2 56be 1701 0ebe 5f60 75be c8cf 1a38
00000130: 1498 663d 5f5f 8cbd 3920 78bc a23c 95be
00000140: 3c4a 5ebd 7785 15be 50a3 89be 6ebd 7cbd
00000150: c35a 59bc d6c2 cf3d 92c6 5e3d 0bc3 8d3d
00000160: df2f 93bd 3f1c 6c3c 30f6 1bbb f2e5 1abe
00000170: 89e9 23be f8db d3bd aab0 c1bd a88e 143e
00000180: 8510 17be fca0 12bd efb4 6dbe 5279 3ebd
00000190: 406a 35be 672c 50be a9c6 2abe 26d3 803d
000001a0: dfda 333e e325 cb3d 365f 0dbe e8e3 01bd
000001b0: ecc8 1e3c 0c13 a4be 458a 85be d2b5 983e
000001c0: 3406 b9bd 8e82 96bb 0e4e 2dbe e9d2 123d
000001d0: 8da6 09be 23a5 42be 060d 5fbe e4fd 23be
000001e0: cf4a f3bc 954c 94be f438 b6bd cfc6 f0bd
000001f0: bc18 29be 974a 813c ec9c ef3b 13f2 c0bd
00000200: b771 613e 1292 d23b 5b3e 97bd a8e3 823d
00000210: 57c8 e3bd 870b b13c c63a 83bd 12a6 1cbb
00000220: c245 7e3c b4a6 253e 9468 e7bc 8a95 1dbd
00000230: c07c 5d3d cf03 2dbd c116 69be 055d 44bd
00000240: 893f 74be b2d7 59be 2afc 45be 93f7 35bc
00000250: d392 503e ea2b c5bd c906 07be 35dc 423d
00000260: 29c2 a53d e7fb 5bbe 0313 ca3d 277f 16be
00000270: 9292 99bd 6452 bc3d ab4f 0ebe 0b1e 26be
00000280: 1980 c73c 26eb 43bd 7954 a63d 2da1 82bd
00000290: 4e1e d9bd d703 473d 7dd4 2d3e dd03 b63c
000002a0: ff59 8d3d cc9b 76be 57f8 c8bd 0c4d fabd
000002b0: 4810 28be f0d7 91bd 2f9c 6b3d 4ffa ffbb
000002c0: 3123 17bd 90aa 7ebe 3bee 0ebd b68e db3d
000002d0: 3c5b 80be 5ab0 c1bd b1bb eabd b8c3 69bc
000002e0: 5a87 44be 1d5f b5bd f927 4cbd 7f45 adbd
000002f0: 4b85 b73d 5ede c43d 26fe e0bd 6112 aabd
00000300: 3b8a 7abe cbc3 32be 9ba6 12be dc89 06be
00000310: 12df 35be 193c 4cbd ff40 68be 1cd9 66be
00000320: 1984 0a3d 7b95 673d a514 26be 7749 a23d
00000330: 96fc 9dbd 323c 99bc 44b7 9dbd 424c 9e3c
00000340: c586 19be 73b2 89be 6f3f dfbc d46a 81be
00000350: aaf0 39bc 74d0 d23b 43ed 23be a98a 043d
00000360: 7868 68be 941f e5bd 7321 a3bd 50be b6bd
00000370: be57 58be 5360 f5bc 192a 11be 2aec 753c
00000380: f754 b7bd 5a0b 46be 77b3 06be 5031 07be
00000390: 7453 38be eb05 6fbe 3607 30be d049 25bd
000003a0: 61c5 00bd 5b73 323d 6e24 f03d efe9 cabd
000003b0: 5276 cebd ec6a 15be d79e 14be 75a5 993d
000003c0: 8c54 bcbd a471 c0bc ea2a fdbd 4181 afbd
000003d0: 308a 18bd 8482 2abe 3865 f93d a758 11be
000003e0: 278e 61be bfb1 1dbe f9e0 17be 2875 9cbc
000003f0: 6946 6ebe ea26 34be bbfd 0fbe 9c81 0cbe

fc2.weight f4 [256, 256]
-0.025987148 0.08567957 0.15344284 0.0025965548 0.033430934 0.28370672 0.11131836 0.054199554
-0.1101339 0.044262752 -0.013999341 0.04306713 -0.1046624 -0.03529975 0.089959405 0.099174835
-0.043062273 -0.0036489626 -0.15544121 0.023059793 -0.049047485 0.23694871 -0.14310563 0.08039619
0.07034072 -0.046966817 0.1791673 -0.09737633 -0.035903957 -0.08738428 0.10947957 0.0072419927
0.039836563 0.012550376 -0.045033168 -0.022598537 0.10321421 0.12028251 -0.12113134 0.051669713
-0.2509375 -0.002343182 0.04775232 0.048386518 0.070803605 -0.09397421 -0.07855231 -0.3150653
-0.040430777 0.07110904 -0.06678369 -0.075676076 0.08960549 0.13004477 0.0678349 -0.14839642
-0.05083519 0.06495088 -0.055457436 -0.0016607657 -0.21157421 0.07798925 0.13503133 -0.07263631
-0.014431303 0.19595334 0.07385891 0.18976264 0.025448471 0.10363727 0.0029220583 0.15220279
0.10167126 -0.02709908 -0.08073908 0.20161422 -0.02550032 0.08579571 0.057776384 -0.12014919
-0.063611194 0.11485105 -0.08689812 -0.04074095 0.2362921 0.20765124 -0.04767071 0.09322242
0.13454486 0.16233009 -0.11447113 -0.04934914 -0.07582044 0.09377412 0.0012416879 0.10538645
0.14331567 0.28473678 0.20746519 -0.15092221 -0.09538657 -0.03859349 -0.007905417 0.042457275
0.08113734 -0.09447088 -0.14635244 0.130844 -0.015193427 -0.12138628 0.09606648 -0.019320216
0.053390615 0.08482251 0.2201616 0.03161443 -0.07052798 -0.07352574 -0.021573333 0.07786185
0.11146225 -0.16939348 0.011049854 0.09461962 0.058930818 0.0494788 0.13187486 0.18365914
0.107034475 0.069429465 -0.005606316 -0.107612535 0.17979588 -0.19252475 0.0323911 0.037463054
-0.036284186 -0.12782727 -0.08400267 0.038764328 -0.06727083 0.010868786 0.0075704325 -0.24229464
-0.113642015 -0.04014042 0.11401914 0.04613558 0.065832175 0.060145095 0.22072342 0.18270825
0.10208853 0.040623832 0.030562358 0.069853336 -0.019139716 -0.07157572 0.11570362 0.028268792
0.01726552 -0.015222998 -0.17928919 -0.14231695 0.09396957 -0.20105109 0.09802697 -0.22067247
-0.04660167 -0.02928175 -0.03525589 0.039771166 0.017319987 -0.057815917 0.10860862 -0.011586828
0.08040416 0.08666123 -0.0054907124 -0.036577314 0.22666407 -0.000889334 0.25332096 0.27071851
-0.057827834 -0.048009552 0.050415207 -0.07672588 -0.06748999 0.08747289 0.09198441 0.1361875
0.078730725 0.04981878 0.3064249 0.011779844 -0.03438891 0.116788484 0.20675981 0.015473632
-0.17937973 0.014104673 0.119495615 0.14689597 0.13270131 -0.2279358 0.13409314 -0.14186852
-0.050203864 -0.004048525 -0.1261901 0.088277176 0.08589128 0.031237006 0.13341008 0.036672346
0.008263993 0.073803924 -0.08146507 0.07067718 0.0044478057 0.1028745 -0.051061906 0.045204274
-0.13072684 0.2036455 -0.009997386 -0.078780144 0.07144286 0.054252148 0.18912837 -0.22552688
0.14988966 0.109769195 -0.104613714 -0.012583114 0.004927736 0.15969038 0.1378638 -0.054502513
0.16007884 -0.10940129 0.041789316 -0.0701252 0.0418568 -0.05375601 0.23269443 0.0068615596
0.050592847 -0.07806751 -0.13766481 0.056097586 -0.062003132 0.21835616 0.008963361 0.0548568
00000000: 00e3 d4bc c578 af3d 1f20 1d3e f62a 2a3b
00000010: e0ee 083d 0242 913e e1fa e33d 5a00 5e3d
00000020: e28d e1bd dc4c 353d 7e5d 65bc 2967 303d
00000030: 3e59 d6bd 7896 10bd a33c b83d 2d1c cb3d
00000040: 1162 30bd 6f23 6fbb fb2b 1fbe e4e7 bc3c
00000050: 04e6 48bd afa2 723e 488a 12be c2a6 a43d
00000060: cc0e 903d 4760 40bd a277 373e 3e6d c7bd
00000070: 0710 13bd 88f6 b2bd d336 e03d 3d4e ed3b
00000080: aa2b 233d 18a0 4d3c b374 38bd 9120 b9bc
00000090: f961 d33d ad56 f63d b513 f8bd 9fa3 533d
000000a0: e17a 80be 1290 19bb f097 433d f130 463d
000000b0: 7b01 913d 8d75 c0bd 09e0 a0bd 3d50 a1be
000000c0: be9a 25bd 9ea1 913d e3c5 88bd 0ffc 9abd
000000d0: 1583 b73d 752a 053e 06ed 8a3d 3bf5 17be
000000e0: 8f38 50bd f804 853d 5627 63bd 0dae d9ba
000000f0: e9a6 58be d4b8 9f3d a745 0a3e 58c2 94bd
00000100: 4671 6cbc fea7 483e 5743 973d 2351 423e
00000110: 5079 d03c c73f d43d 0180 3f3b 0cdb 1b3e
00000120: 0639 d03d e4fe ddbc 885a a5bd f573 4e3e
00000130: 0ce6 d0bc a9b5 af3d eea6 6c3d c710 f6bd
00000140: 9646 82bd 0737 eb3d a4f7 b1bd fbdf 26bd
00000150: 8ef6 713e 87a2 543e 5d42 43bd 65eb be3d
00000160: 21c6 093e dc39 263e d76f eabd 5322 4abd
00000170: bf47 9bbd a50c c03d 22c0 a23a dad4 d73d
00000180: 58c1 123e 05c9 913e c171 543e 5a8b 1abe
00000190: 095a c3bd 3514 1ebd b985 01bc aee7 2d3d
000001a0: 552b a63d f379 c1bd 6add 15be f8fb 053e
000001b0: daed 78bc 5f99 f8bd 81be c43d 6e45 9ebc
000001c0: 1eb0 5a3d 6db7 ad3d 0b72 613e 227e 013d
000001d0: f970 90bd aa94 96bd 8fba b0bc 0976 9f3d
000001e0: 5246 e43d 7c75 2dbe 720a 353c eec7 c13d
000001f0: 7161 713d 48aa 4a3d 340a 073e 2411 3c3e
00000200: e434 db3d 0931 8e3d 30b5 b7bb f663 dcbd
00000210: 691c 383e 3525 45be 88ac 043d dc72 193d
00000220: ba9e 14bd 27e5 02be 9809 acbd 58c7 1e3d
00000230: 4ac5 89bd fe12 323c 6411 f83b 161c 78be
00000240: 25bd e8bd 486a 24bd de82 e93d a9f8 3c3d
00000250: 05d3 863d b45a 763d 5205 623e df17 3b3e
00000260: cb13 d13d 2d65 263d e95d fa3c 440f 8f3d
00000270: e5ca 9cbc 4b96 92bd 05f6 ec3d f493 e73c
00000280: 6b70 8d3c e269 79bc 9697 37be 89bb 11be
00000290: 1e73 c03d 56e0 4dbe 5dc2 c83d f7f7 61be
000002a0: 65e1 3ebd 48e0 efbc 7b68 10bd 17e7 223d
000002b0: a5e2 8d3c 62d0 6cbd 326e de3d aed6 3dbc
000002c0: f0aa a43d 717b b13d 6feb b3bb 18d2 15bd
000002d0: a01a 683e 3222 69ba 49b3 813e 9e9b 8a3e
000002e0: e1dc 6cbd aaa5 44bd 2d80 4e3d 7522 9dbd
000002f0: 3138 8abd fd24 b33d 5362 bc3d bc74 0b3e
00000300: 933d a13d c70e 4c3d b9e3 9c3e 3f00 413c
00000310: 63db 0cbd cd2e ef3d d8b8 533e 1e85 7d3c
00000320: 52af 37be 4917 673c 1eba f43d e66b 163e
00000330: dae2 073e 0168 69be b64f 093e fb45 11be
00000340: 91a2 4dbd 7da9 84bb fa37 01be aaca b43d
00000350: c4e7 af3d c0e4 ff3c a79c 083e be35 163d
00000360: b365 073c 8326 973d 29d7 a6bd 33bf 903d
00000370: e6be 913b deaf d23d 4a26 51bd 1e28 393d
00000380: 42dd 05be 7288 503e 13cc 23bc 7c57 a1bd
00000390: a250 923d 8037 5e3d deaa 413e 85f0 66be
000003a0: ad7c 193e acce e03d b73f d6bd 6829 4ebc
000003b0: d878 a13b e085 233e 2b2c 0d3e 073e 5fbd
000003c0: b5eb 233e c90d e0bd 462b 2b3d cd9d 8fbd
000003d0: 0972 2b3d 432f 5cbd 7347 6e3e efd6 e03b
000003e0: 723a 4f3d dce1 9fbd 01f8 0cbe 95c6 653d
000003f0: fff6 7dbd c298 5f3e 10db 123c 86b1 603d

fc2.bias f4 [256]
-0.054775592 0.11668698 0.0025370393 -0.03108311 -0.0020292369 -0.014284909 -0.027408043 0.0734529
0.08549245 0.1123236 0.010343793 0.0078057596 -0.047744565 0.030615974 -0.10327558 0.038757313
-0.08472871 -0.022513386 -0.015439319 0.02355694 0.03643727 -0.050921056 0.013075961 0.05124686
-0.031364728 -0.014774254 0.11491412 0.024987008 0.073890164 -0.08537148 -0.022858849 0.0053179413
-0.009007607 0.06799897 0.017120501 -0.060840506 0.027821245 0.009120101 0.04415508 0.0038571458
-0.14432526 0.0023479823 0.07562499 -0.013796089 0.020323537 -0.07805112 -0.025508078 -0.048863266
0.019494604 0.061414994 0.022499692 -0.0013475188 0.06283496 0.056434058 -0.028877225 0.11904626
0.017192276 0.03931464 -0.023114514 0.02151565 -0.02434063 0.06407626 -0.13422583 0.05182798
-0.03560244 -0.04726656 0.112115405 -0.06263687 0.01523954 -0.046659417 0.086052716 0.09641537
0.046844065 -0.0110662775 -0.07422592 -0.04742512 0.11024035 0.04470322 0.12865302 0.07339881
0.07574869 -0.009796231 0.020415943 -0.031371333 -0.020846685 0.020250794 0.048457555 0.07707206
0.023553751 -0.06350867 -0.014781253 -0.11776333 0.017479777 -0.043790948 0.15063195 0.04195513
0.007390688 0.08791248 -0.008302303 0.0143749 0.003979366 0.038532488 0.0056740795 -0.020204922
0.035183933 0.025413927 0.040636435 0.0572902 -0.05035152 -0.03923385 0.09340971 -0.027284082
-0.0065161427 0.08532157 -0.06008964 0.059122026 -0.01772285 -0.011291945 -0.019139472 -0.023027185
0.022943323 -0.015222903 0.06625903 0.043725155 0.04467329 0.14646238 0.011242572 0.08612034
-0.081201315 0.022585006 -0.021836225 -0.08191175 0.06329285 0.081390195 -0.032143835 -0.008398017
0.10999465 0.05584937 0.02977205 0.07465694 -0.026243769 -0.040979706 -0.15451635 0.021697728
-0.008547766 0.013133938 -0.067822725 0.07568915 -0.10006637 0.0066512995 -0.148433 0.022318145
0.002514808 0.11902324 0.034378648 -0.14336087 0.07052671 -0.0023097668 0.022001654 -0.05653304
-0.08698155 0.06241169 0.030577438 -0.011170257 0.08421385 -0.020733174 0.03441343 0.059075043
0.07143458 -0.039454743 0.09069648 0.097634606 -0.08825602 0.0020829225 -0.020343544 -0.02189811
-0.0022230274 -0.09770192 0.00018632002 -0.037589736 0.010122145 -0.05835298 -0.04335387 -0.07203346
-0.042253867 -0.050375205 0.060198303 0.01130376 0.061125245 -0.034656305 -0.05981233 0.0029067807
0.05862921 0.07286926 0.018151065 -0.04759626 0.035558917 -0.02600701 0.056539174 0.0040935758
-0.037168555 -0.1528006 0.058304675 0.06308705 -0.06375104 0.06452826 -0.059987616 0.031592283
0.010438404 0.020599974 -0.04886545 0.065752335 0.059126657 0.050274663 -0.01617262 0.004567704
-0.01806169 0.029144747 0.02917222 0.09585561 0.01584232 0.012401428 0.018298263 0.065787256
-0.07775294 0.049102973 -0.005271644 -0.00617638 -0.012722247 -0.025929578 -0.05198133 -0.02832198
-0.048368674 -0.030061698 0.07652597 -0.0027909123 0.06802441 0.040891513 0.0021202376 -0.09392739
-0.027190514 -0.06503114 -0.05499134 -0.034756772 0.040700965 -0.021722293 0.09797001 0.006743415
0.051754337 0.12436103 0.10510665 -0.052766893 -0.030737735 -0.037468694 0.086433396 0.15205418
00000000: 5f5c 60bd 95f9 ee3d 7544 263b 02a2 febc
00000010: f2fc 04bb 400b 6abc d586 e0bc 796e 963d
00000020: aa16 af3d ea09 e63d 0379 293c 75c7 ff3b
00000030: ce8f 43bd 5ace fa3c 2682 d3bd fdbf 1e3d
00000040: 3f86 adbd fe6d b8bc 33f5 7cbc 7cfa c03c
00000050: 3f3f 153d 9992 50bd 8e3c 563c 3ae8 513d
00000060: 4d78 00bd b60f 72bc 1858 eb3d 8eb1 cc3c
00000070: ba53 973d 3ed7 aebd 7b42 bbbc 2042 ae3b
00000080: a494 13bc 0b43 8b3d 4b40 8c3c e533 79bd
00000090: 61e9 e33c 7a6c 153c f5db 343d 2bc8 7c3b
000000a0: 00ca 13be 9be0 193b 46e1 9a3d fe08 62bc
000000b0: 8c7d a63c 44d9 9fbd 51f6 d0bc d924 48bd
000000c0: 26b3 9f3c 4a8e 7b3d 4651 b83c 3a9f b0ba
000000d0: 9eaf 803d 6627 673d ee8f ecbc 87ce f33d
000000e0: d1d6 8c3c 6308 213d a65a bdbc 9741 b03c
000000f0: 0066 c7bc 6a3a 833d 7f72 09be 9349 543d
00000100: ddd3 11bd 959a 41bd c39c e53d c247 80bd
00000110: 43af 793c f21d 3fbd 683c b03d 6c75 c53d
00000120: 90df 3f3d 554f 35bc c203 98bd d840 42bd
00000130: b1c5 e13d b91a 373d 9ebd 033e 1e52 963d
00000140: 2122 9b3d 5f80 20bc 563f a73c 3a7f 00bd
00000150: abc6 aabc fee4 a53c 6e7b 463d f5d7 9d3d
00000160: ccf3 c03c d510 82bd 122d 72bc e72d f1bd
00000170: c031 8f3c 235e 33bd 433f 1a3e 24d9 2b3d
00000180: 962d f23b 750b b43d 6206 08bc b384 6b3c
00000190: 5765 823b 3ed4 1d3d a1ed b93b cb84 a5bc
000001a0: 071d 103d de30 d03c 6472 263d 21a9 6a3d
000001b0: 653d 4ebd acb3 20bd 974d bf3d de82 dfbc
000001c0: 5e85 d5bb 13bd ae3d 8e20 76bd f029 723d
000001d0: 832f 91bc da01 39bc 62ca 9cbc 82a3 bcbc
000001e0: a3f3 bb3c 7c69 79bc d0b2 873d 2619 333d
000001f0: 57fb 363d 3cfa 153e c432 383c dc5f b03d
00000200: e04c a6bd 3104 b93c e2e1 b2bc 59c1 a7bd
00000210: af9f 813d e7af a63d 41a9 03bd d697 09bc
00000220: e044 e13d 4fc2 643d 84e4 f33c bde5 983d
00000230: 2cfd d6bc 56da 27bd 8939 1ebe 6fbf b13c
00000240: ee0b 0cbc bb2f 573c a4e6 8abd ea02 9b3d
00000250: 99ef ccbd 25f3 d93b d2fe 17be 8bd4 b63c
00000260: 7acf 243b 75c2 f33d a0d0 0c3d 31cd 12be
00000270: 4f70 903d 755f 17bb d03c b43c 308f 67bd
00000280: 6223 b2bd 66a3 7f3d 897d fa3c 7403 37bc
00000290: 5078 ac3d 9ed8 a9bc 19f5 0c3d acf8 713d
000002a0: 4b4c 923d 4c9b 21bd 13bf b93d a7f4 c73d
000002b0: 92bf b4bd a481 083b 81a7 a6bc aa63 b3bc
000002c0: 36b0 11bb f217 c8bd e65e 4339 b2f7 19bd
000002d0: 5ad7 253c 8903 6fbd d493 31bd 4786 93bd
000002e0: 6412 2dbd 3b56 4ebd 7f92 763d 6833 393c
000002f0: 775e 7a3d c5f3 0dbd c6fd 74bd b07f 3e3b
00000300: 2f25 703d 7b3c 953d 8bb1 943c 4cf4 42bd
00000310: 3aa6 113d a70c d5bc 9f95 673d 6723 863b
00000320: 0e3e 18bd c377 1cbe e2d0 6e3d c933 813d
00000330: e88f 82bd 6427 843d 93b5 75bd e966 013d
00000340: d705 2b3c 47c1 a83c 2327 48bd 29a9 863d
00000350: cb2e 723d ceec 4d3d 717c 84bc aeac 953b
00000360: 1cf6 93bc f7c0 ee3c 94fa ee3c f24f c43d
00000370: c1c7 813c 5c2f 4b3c 3de6 953c 78bb 863d
00000380: ef3c 9fbd 3320 493d c1bd acbb 3b63 cabb
00000390: f970 50bc 446a d4bc 60ea 54bd 7f03 e8bc
000003a0: 3b1e 46bd f343 f6bc a6b9 9c3d bde7 36bb
000003b0: 6250 8b3d dc7d 273d aff3 0a3b 015d c0bd
000003c0: a4be debc 0c2f 85bd 993e 61bd 1e5d 0ebd
000003d0: 0eb6 263d f3f2 b1bc 80a4 c83d ddf7 dc3b
000003e0: 5bfc 533d ffb0 fe3d 2842 d73d 1922 58bd
000003f0: b4cd fbbc c678 19bd fe03 b13d 17b4 1b3e

fc3.weight f4 [4, 256]
0.027299108 -0.09633737 0.10199113 -0.2551693 0.296026 -0.078032546 0.03829468 0.11371818
0.11998089 0.14062068 0.09621941 -0.20814782 0.22108835 -0.12295608 -0.060770903 -0.03700238
0.03476234 -0.15802859 0.07653433 -0.0017348514 0.19892938 0.027734505 0.071426824 0.04223772
-0.06083355 0.07944729 0.117492884 -0.18988122 0.24900815 -0.01961428 -0.010489115 -0.10235664
0.08298587 0.19508825 0.13959213 0.14166974 0.24502134 0.027545044 0.2804017 0.097059235
0.14455883 -0.04382906 0.13130349 -0.12639852 0.3007709 -0.16941841 0.1764903 -0.41759002
0.22155634 0.41450557 -0.19736257 0.022300562 -0.43744102 0.08142387 0.21638413 -0.43748152
0.20206414 -0.011716483 -0.015285881 0.16928445 -0.07079737 -0.16202325 -0.032071058 0.14024778
-0.08668739 0.3234147 0.13257524 -0.05270736 -0.06604061 -0.32575858 -0.16515072 -0.28072965
0.100925066 -0.5436291 0.4750748 -0.15055488 0.2833296 -0.37013555 -0.29287183 0.102707505
0.16160162 0.23503006 -0.030748157 0.28426158 0.033993825 -0.07247973 0.12540212 -0.039929178
0.20380785 -0.17957205 -0.14507572 -0.26162302 -0.27906147 0.2682016 -0.23986055 0.089095734
0.2138206 0.14747757 -0.11132354 0.15923345 -0.15975593 0.028146151 -0.15494098 0.030448923
0.10246823 0.36570334 -0.12433997 0.20989725 0.15379259 -0.06975369 -0.015551568 0.09080338
0.13978532 -0.1549801 0.09048381 0.21321872 0.036818128 -0.4063487 -0.032967977 0.069712855
-0.10719581 -0.17112409 0.049096733 -0.31571767 0.2160926 -0.28250307 -0.105980046 -0.081115134
0.008252419 0.0919688 -0.016118415 -0.423781 0.38723996 0.14324841 0.12314505 -0.07788641
-0.3783736 0.13969187 0.14597104 -0.23204969 -0.2807971 0.15907726 -0.059278104 0.10748223
-0.06545446 -0.16963685 -0.22041497 -0.060741372 0.06249061 -0.3122094 0.14349301 -0.25542614
0.18461072 0.13748981 0.0925134 0.059342563 -0.31468827 0.20582503 -0.11901535 0.049642336
-0.22630562 -0.03459583 -0.15719275 -0.5111025 -0.16687812 0.29417783 0.08403956 -0.3301125
0.06436578 -0.1525709 0.10728199 -0.31775895 -0.21458519 -0.2030294 -0.21700196 0.15732084
-0.18957709 -0.019537654 0.0918146 0.2624083 -0.61411035 -0.08782519 0.19674087 0.13880447
0.14263687 0.12204833 0.13027202 -0.08728414 0.1364453 0.07185436 -0.07273131 -0.013198675
-0.24818403 -0.17193007 0.12818116 -0.13943376 0.047892556 0.0031066842 0.018038636 0.11922335
-0.3466752 0.23967016 -0.31688306 -0.01984269 0.17104265 0.045907825 0.09730901 -0.10293511
0.15660372 -0.3052806 -0.24118204 -0.3137067 -0.33548987 -0.19964424 -0.120517254 0.013389825
-0.15734604 0.26885355 -0.30405098 -0.116816804 0.038889267 0.20506255 0.17867167 0.011033314
0.26323304 -0.1264931 -0.19951935 -0.03295443 0.25853541 0.21010788 -0.18088971 -0.008903699
-0.0893085 0.08502847 0.095513284 -0.3324984 -0.3241455 0.16669267 0.01672933 -0.009170728
0.16316657 -0.038688164 -0.100433476 -0.31648996 0.22026135 0.26694596 -0.036035493 0.07557355
-0.28894308 0.0561926 -0.20694503 -0.27357253 -0.0690432 -0.17719853 -0.052365206 -0.0074750595
00000000: 61a2 df3c 874c c5bd bae0 d03d 8da5 82be
00000010: b890 973e 87cf 9fbd e2da 1c3d 14e5 e83d
00000020: 8ab8 f53d defe 0f3e af0e c53d b424 55be
00000030: fc64 623e 66d0 fbbd e9ea 78bd cf8f 17bd
00000040: f562 0e3d 3fd2 21be 08be 9c3d f463 e3ba
00000050: 25b4 4b3e 7933 e33c 3a48 923d 7601 2d3d
00000060: 9a2c 79bd 43b5 a23d 1ca0 f03d 3970 42be
00000070: fefb 7e3e 20ae a0bc 89da 2bbc 5ca0 d1bd
00000080: 7ff4 a93d 37c5 473e 3df1 0e3e df11 113e
00000090: e0e6 7a3e 25a6 e13c d090 8f3e fec6 c63d
000000a0: 3b07 143e 1a86 33bd 6c74 063e 9d6e 01be
000000b0: a5fe 993e 057c 2dbe e0b9 343e 5cce d5be
000000c0: aadf 623e 133a d43e 6a19 4abe abaf b63c
000000d0: 45f8 dfbe 8fc1 a63d cd93 5d3e 94fd dfbe
000000e0: e7e9 4e3e 7ef6 3fbc a271 7abc e758 2d3e
000000f0: 36fe 90bd 6ce9 25be f15c 03bd 1d9d 0f3e
00000100: 2989 b1bd 9d96 a53e cec1 073e ace3 57bd
00000110: 4d40 87bd d4c9 a6be 451d 29be ccbb 8fbe
00000120: cdb1 ce3d 472b 0bbf 013d f33e 0f2b 1abe
00000130: 9410 913e 6882 bdbe 4cf3 95be 5058 d23d
00000140: e57a 253e b8ab 703e 8fe3 fbbc bc8a 913e
00000150: 1c3d 0b3d 4170 94bd 6a69 003e c78c 23bd
00000160: 01b3 503e bce1 37be bb8e 14be 74f3 85be
00000170: 25e1 8ebe b851 893e 019e 75be d377 b63d
00000180: caf3 5a3e 5c04 173e 99fd e3bd 180e 233e
00000190: 0f97 23be c292 e63c d9a8 1ebe 0570 f93c
000001a0: ddda d13d 783d bb3e f4a5 febd 4eef 563e
000001b0: ce7b 1d3e 06db 8ebd 01cc 7ebc 1ff7 b93d
000001c0: e223 0f3e 1ab3 1ebe 934f b93d 0256 5a3e
000001d0: 9bce 163d f00c d0be 6e09 07bd 9dc5 8e3d
000001e0: 7a89 dbbd 273b 2fbe a819 493d bfa5 a1be
000001f0: 6147 5d3e 3ea4 90be 110c d9bd b11f a6bd
00000200: 2735 073c 235a bc3d c40a 84bc d3f9 d8be
00000210: 5144 c63e b6af 123e 7933 fc3d e982 9fbd
00000220: 2fba c1be 630b 0f3e 6f79 153e 6f9e 6dbe
00000230: a3c4 8fbe 26e5 223e 99cd 72bd a51f dc3d
00000240: fd0c 86bd 48b5 2dbe 76b4 61be f2cb 78bd
00000250: 27f6 7f3d e9d9 9fbe d5ef 123e 37c7 82be
00000260: 980a 3d3e 21ca 0c3e aa77 bd3d 3011 733d
00000270: d21e a1be ccc3 523e 52be f3bd c355 4b3d
00000280: a9bc 67be 5bb4 0dbd 23f7 20be 9dd7 02bf
00000290: 19e2 2abe 7a9e 963e ef1c ac3d 8104 a9be
000002a0: 35d2 833d 8c3b 1cbe a9b6 db3d 4db1 a2be
000002b0: 38bc 5bbe f0e6 4fbe c335 5ebe b718 213e
000002c0: 7f20 42be 6e0d a0bc 4b09 bc3d 615a 863e
000002d0: 5636 1dbf b1dd b3bd 7076 493e c222 0e3e
000002e0: 660f 123e 7af4 f93d 0766 053e 07c2 b2bd
000002f0: 51b8 0b3e 6128 933d 27f4 94bd 413f 58bc
00000300: f423 7ebe 700e 30be ec41 033e b9c7 0ebe
00000310: fc2a 443d 8399 4b3b c3c5 933c 5f2b f43d
00000320: 697f b1be 186c 753e 7f3e a2be 238d a2bc
00000330: ce25 2f3e d809 3c3d f249 c73d a5cf d2bd
00000340: ba5c 203e bd4d 9cbe 6df8 76be 2a9e a0be
00000350: 54c5 abbe 8a6f 4cbe c0d1 f6bd ff60 5b3c
00000360: 521f 21be 2ca7 893e 92ac 9bbe a63d efbd
00000370: 5a4a 1f3d ebfb 513e b5f5 363e 13c5 343c
00000380: 7bc6 863e 6887 01be cd4e 4cbe 39fb 06bd
00000390: c15e 843e 8526 573e 273b 39be d2e0 11bc
000003a0: 60e7 b6bd 6823 ae3d 789c c33d 3b3d aabe
000003b0: 66f6 a5be 7cb1 2a3e f30b 893c d240 16bc
000003c0: 2315 273e 7b77 1ebd 11b0 cdbd f90a a2be
000003d0: 318c 613e 24ad 883e f499 13bd 4ec6 9a3d
000003e0: 59f0 93be 362a 663d 66e9 53be b311 8cbe
000003f0: 8566 8dbd 8873 35be e67c 56bd 58f1 f4bb

fc3.bias f4 [4]
0.002896966 -0.048339542 0.023572812 -0.08609138
00000000: 06db 3d3b afff 45bd c51b c13c ad50 b0bd

bn1.weight f4 [256]
0.5734091 0.4253727 0.89316624 0.40093568 0.44953015 0.3761705 0.96514267 0.7156529
0.61845016 1.147719 0.61103314 0.4871968 -0.4423287 0.613241 1.0413084 0.58495486
0.46743086 0.73661596 0.56408787 0.8242247 0.5936146 0.59221154 0.5264978 0.81736165
1.1940583 0.7464849 0.5895251 0.57167983 0.70029205 0.3444873 0.8792454 0.68600106
0.77989346 0.75877815 0.663049 0.4320838 0.43283033 0.64534646 0.6739193 0.58920306
0.73076665 0.41146442 1.0695001 0.57647127 0.43703938 0.7522875 0.5230273 0.55756015
0.42887798 0.5944919 1.0524583 0.53119296 0.79930377 0.9854359 0.736282 0.47993845
1.0797436 0.87230253 0.5722323 0.76406735 0.5282415 0.7983585 0.82669353 0.8178567
0.9428236 0.50573564 0.4505536 0.6306366 1.1491104 0.32719713 0.49633282 0.3622341
1.108845 1.1633421 1.0015079 0.5950355 0.91100734 0.5157048 0.8257922 0.46244133
0.4065235 0.33461562 0.4113329 1.0622895 0.78425694 0.888508 0.8008675 0.7517687
1.1833566 0.76002705 0.56062216 0.91756743 0.96835023 0.94610304 0.6593126 0.34135702
0.9316471 0.747426 0.33378103 1.0626205 0.5651956 0.91864955 1.0652757 1.0195919
0.8965266 0.34801677 0.958602 0.36077237 0.83841056 0.35825068 0.4348606 0.8362391
0.50846434 0.5398623 1.3497444 0.832825 0.51672316 0.64063734 0.9274238 1.1085203
0.49989346 0.5435419 1.0909452 0.8203682 0.8557491 0.49312407 0.5639889 0.46583453
0.6761731 0.60444117 0.46749327 0.6306231 0.8591422 0.5821986 0.5305389 0.9916717
1.0635333 0.96305346 1.0192444 0.47196501 1.1078397 0.3971943 0.40907273 0.49515158
0.70111036 1.0108533 0.9778652 0.42721993 1.1121793 0.95399046 1.19955 0.5566201
0.32677892 0.94366705 0.35501522 0.47578648 0.47226268 0.6007571 0.92055917 0.59078324
1.1152328 0.48562524 1.0748167 0.61630404 0.78305715 0.42805013 0.8430482 0.6191789
0.89181906 0.5683586 1.109938 0.57261616 1.2577792 0.5615793 0.6495985 0.7003476
0.74950933 0.990912 0.97016007 1.0067111 0.57504845 0.880136 0.53047234 0.95449936
0.4857719 1.0269887 0.48260403 0.6588493 0.7199326 1.1049597 1.058501 1.084203
0.4933327 0.59294116 0.5754383 0.69767386 1.0953405 0.55819726 1.2286658 0.5881933
0.609978 1.1172109 0.8714235 1.1396294 0.34828418 0.7776909 0.43058223 0.5073208
0.6638062 0.7618908 0.43845442 0.33731636 1.0617353 0.68442315 0.44959757 0.689334
1.1308897 0.71054584 0.97761303 0.3527187 0.7751166 0.4505004 0.4416167 0.95312494
0.57725906 0.47213346 0.57110363 0.42563626 0.56956077 0.8320058 0.69994706 1.1997532
0.829425 0.9502396 0.95474124 0.4493891 0.35725367 1.226599 0.39975786 -0.5067487
1.2322764 0.8001203 0.9472932 0.7989789 1.1695935 0.3396324 0.8292983 1.0293355
0.35880163 0.5456349 0.6609831 0.82124394 1.1038489 1.1808324 0.72083503 0.7168724
00000000: f0ca 123f 73ca d93e 8ba6 643f 7147 cd3e
00000010: d128 e63e 6b99 c03e 9713 773f 0735 373f
00000020: c052 1e3f 75e8 923f ab6c 1c3f dc71 f93e
00000030: e878 e2be 5dfd 1c3f 9849 853f 9abf 153f
00000040: 1953 ef3e dd92 3c3f 1068 103f 6400 533f
00000050: 20f7 173f 2d9b 173f 8fc8 063f 9d3e 513f
00000060: e7d6 983f a219 3f3f 1eeb 163f 9c59 123f
00000070: 5746 333f a460 b03e 3a16 613f c49d 2f3f
00000080: 19a7 473f 493f 423f 94bd 293f 163a dd3e
00000090: f09b dd3e 6d35 253f fa85 2c3f 03d6 163f
000000a0: 8613 3b3f 77ab d23e 61e5 883f 9f93 133f
000000b0: a0c3 df3e ea95 403f 1ee5 053f 43bc 0e3f
000000c0: e595 db3e 9f30 183f f4b6 863f 43fc 073f
000000d0: 2c9f 4c3f 8745 7c3f fa7c 3c3f 7eba f53e
000000e0: 0a35 8a3f 384f 5f3f d17d 123f eb99 433f
000000f0: d63a 073f 3961 4c3f 30a2 533f 0f5f 513f
00000100: e35c 713f e477 013f f6ae e63e 6671 213f
00000110: 0d16 933f 6286 a73e 561f fe3e bf76 b93e
00000120: a2ee 8d3f 65e8 943f 6931 803f 3f54 183f
00000130: c737 693f 3b05 043f 1e67 533f 1cc5 ec3e
00000140: d923 d03e bd52 ab3e 3a9a d23e 1af9 873f
00000150: 10c5 483f 4375 633f a705 4d3f ea73 403f
00000160: 3b78 973f 2291 423f ef84 0f3f b3e5 6a3f
00000170: cde5 773f cf33 723f b6c8 283f 59c6 ae3e
00000180: 6d80 6e3f 4f57 3f3f 59e5 aa3e f303 883f
00000190: a9b0 103f 9e2c 6b3f f45a 883f fd81 823f
000001a0: c482 653f 412f b23e f166 753f 28b7 b83e
000001b0: 13a2 563f a26c b73e 0ca6 de3e c413 563f
000001c0: b82a 023f 6a34 0a3f 6dc4 ac3f 0534 553f
000001d0: f847 043f cf00 243f a56b 6d3f fee3 8d3f
000001e0: 09f2 ff3e 9025 0b3f 18a4 8b3f a603 523f
000001f0: 5f12 5b3f c27a fc3e 9461 103f dd81 ee3e
00000200: ae19 2d3f a8bc 1a3f 475b ef3e 8470 213f
00000210: bef0 5b3f f80a 153f 66d1 073f 32de 7d3f
00000220: dc21 883f ac8a 763f 9a76 823f 66a5 f13e
00000230: b1cd 8d3f 0d5d cb3e fb71 d13e 8284 fd3e
00000240: f87b 333f a463 813f 6055 7a3f 92bc da3e
00000250: e45b 8e3f b838 743f db8a 993f a87e 0e3f
00000260: 914f a73e 2a94 713f 8ec4 b53e 499a f33e
00000270: 6acc f13e 38cb 193f c4a9 6b3f 923d 173f
00000280: f3bf 8e3f dfa3 f83e 9893 893f 1ac6 1d3f
00000290: 6f76 483f 6329 db3e 02d2 573f 8282 1e3f
000002a0: 414e 643f f37f 113f 7312 8e3f f996 123f
000002b0: e9fe a03f a9c3 0f3f 164c 263f fb49 333f
000002c0: d8df 3f3f 69ac 7d3f 695c 783f e9db 803f
000002d0: 6036 133f 9850 613f 09cd 073f 125a 743f
000002e0: 18b7 f83e 5e74 833f e017 f73e 59aa 283f
000002f0: 814d 383f 526f 8d3f f67c 873f 2ac7 8a3f
00000300: 1b96 fc3e feca 173f ed4f 133f c19a 323f
00000310: 1e34 8c3f 04e6 0e3f ec44 9d3f d693 163f
00000320: 8527 1c3f c400 8f3f 9c15 5f3f 60df 913f
00000330: 4e52 b23e c016 473f 4675 dc3e c7df 013f
00000340: 34ef 293f 470b 433f 197d e03e bbb4 ac3e
00000350: f1e6 873f 5b36 2f3f a731 e63e 3178 303f
00000360: fec0 903f 55e6 353f d944 7a3f 8c97 b43e
00000370: 0b6e 463f fda7 e63e 961b e23e ffff 733f
00000380: 40c7 133f 7abb f13e d933 123f ffec d93e
00000390: bcce 113f 55fe 543f bb2f 333f 8391 993f
000003a0: 3255 543f e742 733f ec69 743f 5416 e63e
000003b0: f4e9 b63e 3201 9d3f 10ad cc3e 48ba 01bf
000003c0: 3cbb 9d3f afd4 4c3f cf81 723f e289 4c3f
000003d0: 3db5 953f 4ce4 ad3e e54c 543f 44c1 833f
000003e0: d9b4 b73e bbae 0b3f 3036 293f 0b3d 523f
000003f0: ec4a 8d3f 8425 973f a588 383f f384 373f

bn1.bias f4 [256]
0.060354155 -0.03522499 0.011613537 0.005356175 -0.045429643 -0.108850405 -0.062895976 -0.036691163
-0.064845406 0.032408662 -0.003824747 0.09350598 0.14508076 -0.061547793 -0.00875444 -0.007257537
-0.10639398 -0.07235948 -0.0013156707 0.017036136 -0.05613919 -0.025290916 -0.05577073 -0.018033769
-0.06255736 -0.10290294 -0.019667624 0.09231088 -0.007785361 0.0011336204 -0.010863736 -0.04571584
0.059276782 0.064278394 -0.021788394 0.014362543 0.036263954 -0.041556217 -0.0074010696 -0.006556395
-0.06039653 -0.019748827 -0.052365538 0.03473432 0.06120715 0.0027668697 0.025654642 -0.01793416
-0.01285348 -0.063611194 0.05927731 0.012789199 0.011331072 -0.026991803 0.03954224 -0.07225262
0.0043966635 -0.014999839 0.06442725 0.0103835715 0.076360464 -0.017072607 -0.012700646 -0.06660252
0.019950224 0.013971451 -0.010925384 -0.0075453813 -0.022285208 -0.09047801 -0.01549753 -0.11273885
0.029046366 -0.047329243 0.03393328 -0.12436244 -0.10292809 0.053738825 -0.12530549 -0.062339213
0.04280956 0.064462036 -0.11536518 0.020686114 -0.091287546 -0.0021765204 -0.008181895 -0.0419126
-0.031831436 0.03875582 -0.060867064 0.059707146 -0.008276407 -0.006754807 -0.11139923 0.025838617
-0.06217323 -0.0100892885 -0.07028667 0.020741297 -0.004954671 -0.014856955 0.080722935 -0.038361993
0.028119149 -0.02907283 0.020733843 -0.010203631 -0.07172157 0.11536089 -0.050482213 0.00026310742
-0.09160331 -0.09918091 0.019510746 -0.026370741 -0.04180505 -0.10697837 -0.039029185 -0.019358318
0.009033714 0.021153199 -0.044546094 0.014404564 -0.11722496 0.018219164 -0.048634116 0.04480502
-0.03381249 0.025901897 -0.0015440595 -0.07507109 -0.051056985 0.032620803 -0.032916013 0.0061659655
-0.04202323 -0.028097924 0.0032030325 0.08273081 -0.03694059 -0.03294819 -0.06513713 0.007901826
0.015929166 -0.022345953 -0.031149466 0.03785796 -0.0029453454 -0.060716372 -0.05385361 -0.038303453
0.002802157 0.083301805 -0.015610976 -0.046218514 -0.00071963225 0.028666036 -0.09582843 -0.004573443
0.04575792 0.09813063 -0.038318355 0.12132174 0.0040659416 -0.09593777 -0.10022694 -0.0035858536
0.06954681 -0.029502723 0.06317249 -0.021346318 0.020683195 -0.05023742 -0.013709386 -0.024786683
-0.06830712 0.023942675 -0.06311585 -0.05511525 -0.016854826 -0.020316873 -0.10640262 -0.04384695
-0.04719899 -0.09395836 -0.037513096 -0.036960963 -0.037432518 0.068825856 -0.018508632 -0.15110643
-0.06490042 -0.10016323 -0.015923105 0.008977025 0.00075577 0.026748672 0.076022364 0.03895369
-0.026967617 -0.11063749 -0.09371592 0.013282247 -0.07216129 -0.03847979 0.055055488 -0.076507166
-0.03214315 0.016373938 -0.04621573 -0.05164175 -0.06306098 -0.0035953124 -0.03822607 -0.05559945
0.02330636 0.025075614 0.09213256 -0.01800322 -0.037436448 -0.08437203 0.0010743455 -0.1114345
-0.03730943 -0.08909177 0.029414235 0.08550318 -0.03695251 0.0879346 -0.010885582 0.02828419
0.012615054 0.014676765 -0.06397172 -0.0925041 -0.008110515 -0.004864021 -0.08035252 0.034697406
-0.046520244 -0.01938251 -0.029707812 -0.07941334 0.05158986 0.03690513 0.010007108 0.02701874
-0.044374015 -0.087326154 -0.044125848 -0.067852534 -0.040400766 -0.096190006 -0.06081401 0.009190813
00000000: eb35 773d 1448 10bd b446 3e3c da82 af3b
00000010: 6f14 3abd f6ec debd 9bcf 80bd 7949 16bd
00000020: abcd 84bd f2be 043d 9ba8 7abb 1080 bf3d
00000030: 0d90 143e 8a19 7cbd c86e 0fbc a2d0 edbb
00000040: 16e5 d9bd 3531 94bd 9572 acba 5e8f 8b3c
00000050: 35f2 65bd e52e cfbc d96f 64bd 8ebb 93bc
00000060: 131e 80bd c7be d2bd ff1d a1bc 7d0d bd3d
00000070: 571c ffbb fd95 943a d0fd 31bc 8840 3bbd
00000080: 36cc 723d 64a4 833d 937d b2bc df50 6b3c
00000090: 8389 143d da36 2abd ac84 f2bb 07d7 d6bb
000000a0: 5a62 77bd 4bc8 a1bc 3f7d 56bd 9345 0e3d
000000b0: 59b4 7a3d 5f54 353b af29 d23c a9ea 92bc
000000c0: 6797 52bc 9646 82bd c4cc 723d ca89 513c
000000d0: f6a5 393c ea1d ddbc 0bf7 213d 2ef9 93bd
000000e0: e311 903b e2c1 75bc 6ff2 833d db1f 2a3c
000000f0: e062 9c3d dadb 8bbc 5f16 50bc e766 88bd
00000100: a76e a33c 83e8 643c 6200 33bc 3f3f f7bb
00000110: 788f b6bc 894c b9bd 5ae9 7dbc a0e3 e6bd
00000120: a5f2 ed3c 4fdc 41bd 9ffd 0a3d bcb1 febd
00000130: f6cb d2bd 3e1d 5c3d 1550 00be 6757 7fbd
00000140: 1459 2f3d ac04 843d 9444 ecbd ed75 a93c
00000150: f7f4 babd f4a3 0ebb 5b0d 06bc 8cac 2bbd
00000160: ae61 02bd 6cbe 1e3d be4f 79bd 7b8f 743d
00000170: c499 07bc 6e57 ddbb 4825 e4bd 82ab d33c
00000180: 5ba9 7ebd 8b4d 25bc 75f2 8fbd a7e9 a93c
00000190: cb5a a2bb 966a 73bc 1152 a53d 7721 1dbd
000001a0: 215a e63c 252a eebc 05da a93c 212d 27bc
000001b0: c2e2 92bd 5542 ec3d 70c6 4ebd aef1 8939
000001c0: 849a bbbd 5c1f cbbd 00d5 9f3c 7407 d8bc
000001d0: c63b 2bbd 7a17 dbbd 11dd 1fbd 5695 9ebc
000001e0: 2502 143c 7949 ad3c f775 36bd 1f01 6c3c
000001f0: a413 f0bd 5b40 953c 9134 47bd 7885 373d
00000200: f77e 0abd 3730 d43c 0a62 caba dfbe 99bd
00000210: 2121 51bd 649d 053d f1d2 06bd de0b ca3b
00000220: 8d20 2cbd 9e2d e6bc f8e9 513b c56e a93d
00000230: 044f 17bd aef4 06bd 9e66 85bd a976 013c
00000240: e27d 823c dc0e b7bc 2a2d ffbc f310 1b3d
00000250: b206 41bb bbb1 78bd 9a95 5cbd 15e4 1cbd
00000260: 65a4 373b 239a aa3d 2ec5 7fbc a04f 3dbd
00000270: b4a5 3cba 09d5 ea3c b241 c4bd d2dc 95bb
00000280: a86c 3b3d b6f8 c83d b5f3 1cbd 8877 f83d
00000290: 973b 853b 067b c4bd c843 cdbd a400 6bbb
000002a0: 8f6e 8e3d b2af f1bc 9460 813d 79de aebc
000002b0: ce6f a93c c1c5 4dbd 559d 60bc 710d cbbc
000002c0: 9ae4 8bbd 6e23 c43c e242 81bd 87c0 61bd
000002d0: 2213 8abc 926f a6bc 9ee9 d9bd dc98 33bd
000002e0: ba53 41bd 3e6d c0bd 55a7 19bd 6164 17bd
000002f0: d752 19bd 92f4 8c3d 6a9f 97bc a5bb 1abe
00000300: 83ea 84bd 6122 cdbd 2c71 82bc 5f14 133c
00000310: de1e 463a 0820 db3c 9db1 9b3d e88d 1f3d
00000320: 31eb dcbc e995 e2bd 22ee bfbd c89d 593c
00000330: 4cc9 93bd fc9c 1dbd dd81 613d caaf 9cbd
00000340: 89a8 03bd a322 863c b54c 3dbd 4d86 53bd
00000350: 1d26 81bd 559f 6bbb f192 1cbd 40bc 63bd
00000360: fbec be3c 606b cd3c ffaf bc3d 7d7b 93bc
00000370: f656 19bd 3ecb acbd 0ed1 8c3a c537 e4bd
00000380: c6d1 18bd bf75 b6bd 1ff6 f03c 4b1c af3d
00000390: 845b 17bd 0e17 b43d 7159 32bc 3fb4 e73c
000003a0: 5faf 4e3c d076 703c 9b03 83bd ca72 bdbd
000003b0: f7e1 04bc 5e62 9fbb dd8f a4bd de1e 0e3d
000003c0: 038c 3ebd 12c8 9ebc cc5d f3bc 76a3 a2bd
000003d0: e44f 533d d529 173d daf4 233c 6856 dd3c
000003e0: 87c1 35bd 0ed8 b2bd 4ebd 34bd 45f6 8abd
000003f0: 467b 25bd 44ff c4bd 1d18 79bd 1095 163c

bn1.running_mean f4 [256]
0.020194134 0.39426523 0.03668503 0.49039376 0.106998384 0.023587823 0.15758157 0.21592553
0.03355214 0.20492834 0.014429007 0.077313825 0.05076114 0.017366087 0.12139859 0.1009624
0.5430486 0.059729584 0.20026612 0.5229581 0.060638458 0.06804863 0.18686256 0.25264055
0.036511585 0.060245983 0.07039559 0.29025808 0.123630814 0.040422082 0.059388455 0.023643605
0.07112873 0.16231678 0.10088823 0.03272608 0.0693789 0.0077643534 0.1864844 0.31264058
0.062312268 0.18918432 0.14738888 0.19897817 0.06612978 0.20391622 0.02932576 0.22192404
0.03680599 0.04260837 0.4837818 0.11333329 0.6677022 0.1287665 0.20439388 0.23604032
0.34910306 0.10502985 0.319833 0.14794481 0.016878147 0.10524956 0.04216947 0.07684146
0.3665029 0.015855938 0.1460232 0.23731057 0.19486666 0.010608743 0.019386312 0.008300885
0.052792814 0.097519755 0.045647785 0.0993795 0.11189922 0.07862123 0.062923126 0.023754682
0.15530598 0.14696638 0.015151834 0.4244742 0.04896344 0.18232867 0.20406261 0.2530947
0.15168898 0.5431757 0.01923834 0.054972243 0.024714438 0.06471854 0.0913717 0.30820197
0.024699857 0.07269751 0.024555892 0.5316355 0.09563735 0.04228682 0.1675999 0.12105625
0.38442022 0.26607352 0.2005451 0.07919139 0.12384309 0.00220864 0.021396818 0.79325277
0.14929718 0.36670458 0.036081597 0.21224537 0.12747961 0.012891626 0.05266579 0.02579788
0.049366586 0.027727727 0.23971763 0.0394343 0.043806937 0.046999905 0.28971785 0.02511179
0.578403 0.059373327 0.019213665 0.18272848 0.0680377 0.16270126 0.07241527 0.41335255
0.07803899 0.33086398 0.041870948 0.0274674 0.13797273 0.05805669 0.07814348 0.07725038
0.043685477 0.007940824 0.20794743 0.013674207 0.71729237 0.035668194 0.31904823 0.05924156
0.40483028 0.030264705 0.20077038 0.031451974 0.14391994 0.38922578 0.044476174 0.037561134
0.521092 0.15675712 0.35162753 0.028436292 0.1713385 0.47973123 0.3284046 0.2560728
0.28986526 0.12411657 0.11409834 0.03386872 0.040956404 0.025918268 0.16204832 0.02609434
0.04173013 0.029480668 0.057630926 0.16395253 0.09709338 0.052221116 0.3997469 0.05046158
0.019187264 0.037669227 0.24791296 0.08864646 0.113241605 0.4005175 0.045961726 0.04067368
0.010929935 0.00727977 0.016924402 0.13089402 0.14728373 0.009117068 0.037515197 0.14796509
0.25993642 0.075853065 0.15286492 0.16630356 0.026759628 0.025336102 0.045267664 0.19376066
0.050133895 0.04108855 0.16581292 0.023998754 0.080615304 0.23736387 0.063659035 0.020226093
0.03833515 0.119410485 0.30590644 0.019433377 0.09022856 0.014169579 0.05640543 0.060624886
0.08657928 0.03056843 0.033217832 0.07540765 0.12245911 0.16791788 0.10192819 0.04302993
0.052114546 0.29844797 0.32856846 0.11124429 0.035011426 0.052249406 0.07152779 0.16310832
0.059047442 0.043364763 0.030787155 0.15317374 0.02020088 0.08130321 0.39872384 0.10505627
0.06776886 0.04043613 0.02674454 0.015331377 0.022863537 0.023122786 0.011123768 0.07953303
00000000: 2b6e a53c 22dd c93e 0b43 163d e414 fb3e
00000010: f821 db3d 403b c13c 105d 213e 951b 5d3e
00000020: f86d 093d bcd8 513e a467 6c3c b656 9e3d
00000030: eaea 4f3d 5343 8e3c d39f f83d 60c5 ce3d
00000040: 3c05 0b3f 02a7 743d 9012 4d3e 95e0 053f
00000050: 0860 783d 155d 8b3d e658 3f3e 1a5a 813e
00000060: 2c8d 153d 7ec4 763d 902b 903d b59c 943e
00000070: 2732 fd3d a091 253d 4f41 733d 3cb0 c13c
00000080: f1ab 913d 5f36 263e 7d9e ce3d c80b 063d
00000090: 8616 8e3d 1e6c fe3b c4f5 3e3e 6d12 a03e
000000a0: 263b 7f3d 89b9 413e 1ced 163e efc0 4b3e
000000b0: 0d6f 873d 6acf 503e 943c f03c 0e40 633e
000000c0: e1c1 163d 1d86 2e3d 40b2 f73e 491b e83d
000000d0: 88ee 2a3f 5edb 033e a14c 513e 8eb4 713e
000000e0: a3bd b23e e419 d73d 27c1 a33e d87e 173e
000000f0: 0a44 8a3c 158d d73d e5b9 2c3d 0e5f 9d3d
00000100: 45a6 bb3e 50e4 813c 1b87 153e 8b01 733e
00000110: 208b 473e 4bd0 2d3c 0bd0 9e3c 6f00 083c
00000120: 473d 583d 70b8 c73d 2cf9 3a3d 7b87 cb3d
00000130: 6b2b e53d 2b04 a13d d7dd 803d 2e99 c23c
00000140: 8808 1f3e 5b7e 163e 663f 783c af54 d93e
00000150: e38d 483d 5eb4 3a3e caf5 503e a195 813e
00000160: 5b54 1b3e 900d 0b3f b999 9d3c 932a 613d
00000170: ef75 ca3c 278b 843d 1621 bb3d a6cc 9d3e
00000180: 5b57 ca3c 6fe2 943d 7029 c93c 4419 083f
00000190: 84dd c33d f234 2d3d 4f9f 2b3e 57ec f73d
000001a0: bad2 c43e ca3a 883e b25b 4d3e 182f a23d
000001b0: 72a1 fd3d d5be 103b 6148 af3c 9d12 4b3f
000001c0: 5ce1 183e b4c0 bb3e 4cca 133d da56 593e
000001d0: 048a 023e 6637 533c 15b8 573d 1356 d33c
000001e0: 9e34 4a3d 4225 e33c 8a78 753e dc85 213d
000001f0: e76e 333d f982 403d e655 943e 3eb7 cd3c
00000200: 3812 143f 7231 733d fa65 9d3c 2d1d 3b3e
00000210: 5a57 8b3d 299b 263e 754e 943d f2a2 d33e
00000220: e8d2 9f3d 0167 a93e df80 2b3d 5003 e13c
00000230: b948 0d3e dacc 6d3d b009 a03d 7235 9e3d
00000240: 8bef 323d 3b1a 023c 2cf0 543e c809 603c
00000250: 79a0 373f d018 123d 4a5a a33e 47a7 723d
00000260: ea45 cf3e b0ed f73c c096 4d3e c9d3 003d
00000270: c05f 133e 9a48 c73e a62c 363d b4d9 193d
00000280: 4966 053f f084 203e 8608 b43e 3af3 e83c
00000290: 5c73 2f3e 559f f53e a624 a83e f91b 833e
000002a0: 3869 943e d430 fe3d 64ac e93d edb9 0a3d
000002b0: e7c1 273d 8c52 d43c ffef 253e ccc3 d53c
000002c0: 36ed 2a3d 7181 f13c 680e 6c3d 2ce3 273e
000002d0: e5d8 c63d cfe5 553d a0ab cc3e cdb0 4e3d
000002e0: 9c2e 9d3c 0c4b 1a3d e5dc 7d3e 468c b53d
000002f0: 37eb e73d a110 cd3e 5d42 3c3d 7299 263d
00000300: 7813 333c 238b ee3b 0ba5 8a3c 1509 063e
00000310: 8cd1 163e c15f 153c 89a9 193d 2984 173e
00000320: 6316 853e da58 9b3d 9f88 1c3e 7b4b 2a3e
00000330: 0237 db3c a88d cf3c 966a 393d 3269 463e
00000340: 3359 4d3d 784c 283d ddca 293e 0999 c43c
00000350: a319 a53d 840f 733e ab5f 823d 31b1 a53c
00000360: 5105 1d3d 7c8d f43d c59f 9c3e bf32 9f3c
00000370: c0c9 b83d 8627 683c 6109 673d cd51 783d
00000380: 7a50 b13d a56a fa3c 6c0f 083d 536f 9a3d
00000390: d8cb fa3d aaf2 2b3e babf d03d 2740 303d
000003a0: 1076 553d 2cce 983e 203a a83e 0cd4 e33d
000003b0: 2468 0f3d 7903 563d 297d 923d de05 273e
000003c0: bbdb 713d 409f 313d 5835 fc3c 94d9 1c3e
000003d0: 517c a53c 4c82 a63d 8825 cc3e be27 d73d
000003e0: 66ca 8a3d 5ba0 253d 5e17 db3c 7530 7b3c
000003f0: 504c bb3c ff6b bd3c 7740 363c 37e2 a23d
