2 - Continuous Control -DDPG/trained_agents/ddpg_reacher20_checkpoint_actor.pth (torch_old, 307672 bytes, 10 tensors)

fc1.weight f4 [256, 33]
0	0xbca26098	-0.01982145
1	0x3703578c	7.828592e-06
2	0x3da5bd84	0.08092788
3	0x3d78a5e9	0.0607051
4	0xbdb3be47	-0.08776527
5	0x3d3de947	0.04636505
6	0xbcc2dc1f	-0.023786603
7	0xbc9812c2	-0.018563632
8	0xbe46d919	-0.19418754
9	0x3d48139a	0.04884682
10	0xbd82aaea	-0.063802555
11	0xba46e3af	-0.0007587028
12	0x3d03d569	0.032185946
13	0xbbd7cce3	-0.0065857037
14	0x3db26f69	0.08712656
15	0x3c6c63e3	0.014428112
16	0xbdd1e849	-0.10249383
17	0xbc676079	-0.014122122
18	0xbdc2318f	-0.09482109
19	0xbd0fe655	-0.03513177
20	0xbb91fef4	-0.0044554416
21	0xbcebd791	-0.028789314
22	0xbcbef21d	-0.023308808
23	0x3ca584a1	0.020204844
24	0x3d258cdd	0.04041754
25	0x3dac6812	0.08418287
26	0x3d88be66	0.066769406
27	0x3d6c4e50	0.057691872
28	0xbba02b82	-0.004887999
29	0x3cc95244	0.02457536
30	0xbdab5bdd	-0.08367131
31	0x3cddb268	0.02706261
32	0xbe0bfa46	-0.1366969
33	0x3c9a1ae0	0.018811643
34	0x3d382d23	0.04496492
35	0xbd19249a	-0.03738842
36	0x3cc6ea2c	0.024281584
37	0x3d30d592	0.043172427
38	0x3d332d51	0.04374439
39	0xbd8ada84	-0.0677996
40	0x3cd73f58	0.026275322
41	0x3b0ef86f	0.0021815558
42	0xbb99f51e	-0.0046984097
43	0x3d11cb9c	0.035594568
44	0xbc06983b	-0.0082150055
45	0xbc9b26bf	-0.018939374
46	0xbc080b84	-0.008303527
47	0xbb9f1a59	-0.004855436
48	0xbdcd62c9	-0.100286074
49	0xbd6f87db	-0.05847917
50	0x3c3017e2	0.010747882
51	0x3c95e38c	0.01829698
52	0xbd3f5335	-0.04671021
53	0x3ae783e4	0.0017663208
54	0xbdb75236	-0.08951227
55	0x3c739eac	0.014869373
56	0x3c4187b3	0.011812138
57	0xbc900b2f	-0.017583458
58	0x3d5827b0	0.052772224
59	0x3ca71508	0.02039577
60	0x3dc7726b	0.0973862
61	0x3d4debfb	0.050273877
62	0x3d0152c0	0.031573057
63	0xbdcd7581	-0.10032178
64	0xbb4c82e0	-0.0031205937
65	0xbe79ada0	-0.24382639
66	0x3cb87434	0.022516347
67	0x3d2a961a	0.041647054
68	0x3b20700b	0.0024480845
69	0x3cdb1c3f	0.026746867
70	0xbd5fa8b0	-0.054604232
71	0xbd0ecab0	-0.034861267
72	0x3d8aaaeb	0.06770881
73	0x3d403c4e	0.04693251
74	0x3d18ef5b	0.037337642
75	0x3d068be1	0.032848243
76	0x3d135498	0.035969347
77	0x3c34cf1f	0.01103571
78	0xbdac6301	-0.08417321
79	0xbca6c87a	-0.020359267
80	0xbd18fdb2	-0.037351318
81	0xbd1b508f	-0.037918624
82	0xbd08a18e	-0.033357196
83	0x3be2be65	0.0069196695
84	0xba96f8c0	-0.0011518225
85	0xbbe92f1f	-0.007116213
86	0x3ba5ae70	0.005056195
87	0xbc9666e4	-0.018359609
88	0xbd0885aa	-0.033330597
89	0x3dd393d8	0.10330933
90	0xbd146c51	-0.03623611
91	0xbca10b3d	-0.01965868
92	0x3d9d370f	0.07676517
93	0x3cabe1a5	0.02098162
94	0x3cedeedb	0.02904456
95	0x3d79fa7a	0.06102989
96	0xbd102702	-0.03519345
97	0x3d341f58	0.043975204
98	0xbe01565b	-0.12630598
99	0xbd15465f	-0.036444064
100	0x3e098239	0.13428582
101	0xbde6f9c1	-0.112781055
102	0xbc4c0baf	-0.012453957
103	0x3bb3304e	0.005468405
104	0x3bbbd361	0.0057319854
105	0xbc39018d	-0.011291874
106	0x3c5f8487	0.013642437
107	0x3cda8d50	0.026678711
108	0x3c980582	0.018557314
109	0x3b5a81bf	0.0033341495
110	0xbc8deda2	-0.017325226
111	0x3c9ec4f5	0.019381026
112	0x3bcd6208	0.0062677898
113	0xbdc49aac	-0.09599814
114	0x3cc330d6	0.023826998
115	0xbd2c7fb5	-0.04211398
116	0xbd192f9f	-0.03739893
117	0x3d3821a8	0.044953972
118	0xbc75e40a	-0.015007982
119	0x3ca4ce72	0.020117972
120	0x3adfef17	0.0017084804
121	0x3c7f6ae3	0.015589449
122	0xba314747	-0.00067626353
123	0xbd508315	-0.05090626
124	0xbc857223	-0.016289776
125	0x3b740817	0.0037236267
126	0x3c861d9c	0.01637154
127	0x3d36133e	0.044451945
128	0x3c7b5810	0.01534082
129	0xbcde41ac	-0.027130924
130	0x3d39a862	0.045326598
131	0xbe07326e	-0.13202831
132	0xbd4e8fd6	-0.05043014
133	0x3d97fddb	0.07421466
134	0x3d8066ab	0.06269582
135	0x3c930951	0.017948778
136	0xbd8466b0	-0.064648986
137	0xbcab7711	-0.020930799
138	0xbc9059ff	-0.017621038
139	0xbca221d9	-0.01979153
140	0xbd9270a0	-0.07150388
141	0xbcfa482b	-0.03055199
142	0x3d29a153	0.041413616
143	0x3aef1473	0.0018240347
144	0x3c33d1e1	0.010975332
145	0x3de5d265	0.1122177
146	0xbc8132ef	-0.015771357
147	0x3c3eb20b	0.011639128
148	0xbc24bb38	-0.010054402
149	0xbcd3ddec	-0.025862657
150	0xbcaef91e	-0.021359023
151	0xbcaac6f0	-0.020846814
152	0x3c3afaeb	0.011412363
153	0xbc89c854	-0.016819157
154	0xbcb7eb37	-0.022451026
155	0x3b525663	0.0032094948
156	0xbcd0f823	-0.025508946
157	0xbc7063e1	-0.0146722505
158	0xbd9027f2	-0.07038869
159	0x3dcdb3eb	0.10044082
160	0xbc940b3c	-0.018071763
161	0x3d1498c8	0.036278516
162	0xbdde5147	-0.10855346
163	0x3cc7efe8	0.024406388
164	0xbc92f45d	-0.017938787
165	0xbd0ee5fe	-0.034887306
166	0xbc78d16a	-0.015186647
167	0xbc9b19c3	-0.018933183
168	0x3c0f58a6	0.008749163
169	0x3b86519a	0.004099083
170	0x3cd471de	0.025933202
171	0xbd753fe2	-0.059875377
172	0xbb3910d0	-0.002823878
173	0x3af4a32b	0.001866435
174	0x3d861323	0.06546619
175	0x3c993924	0.018704005
176	0xbba28d08	-0.00496066
177	0xbd67bb4f	-0.056575116
178	0x3c4988f4	0.012300719
179	0x3e0c0a98	0.13675916
180	0xbd4696c9	-0.048483644
181	0x3d1e6a59	0.03867564
182	0x3d257281	0.040392403
183	0x3dc2e4f4	0.095163256
184	0x3c0b90ff	0.0085184565
185	0xbb5c535b	-0.003361902
186	0xbd281221	-0.041032914
187	0xbd26ed73	-0.040753793
188	0x3cd650b0	0.026161522
189	0x3cf83fb6	0.030303817
190	0xbcd99db0	-0.02656445
191	0xbb37737d	-0.002799242
192	0x3de3e629	0.11127884
193	0xbd35f599	-0.044423673
194	0x3d16fb22	0.036860593
195	0xbd462fdf	-0.048385497
196	0x3d3069a0	0.04306948
197	0x3d0e17a5	0.034690518
198	0xbd3b35ba	-0.045705535
199	0xbd9c151d	-0.076212145
200	0x3ca43399	0.020044135
201	0x3c44f330	0.012020871
202	0xbdd37ff1	-0.10327137
203	0xbdca95d0	-0.09891856
204	0x3c146243	0.009056631
205	0xbd9aea88	-0.075642645
206	0x3dfee638	0.124462545
207	0x3cc3405e	0.023834404
208	0x3c292d37	0.010325721
209	0x3bddcce6	0.0067688106
210	0xbd85e1ba	-0.065371946
211	0xbcce9aa9	-0.025220232
212	0x3ccc5e17	0.02494721
213	0x3a9e4e98	0.0012077866
214	0x3ca68e0b	0.020331403
215	0x3c12e88c	0.008966576
216	0xbc87a74c	-0.016559266
217	0xbd0f9593	-0.035054754
218	0xbbaf0469	-0.005341102
219	0x3db76f44	0.08956769
220	0xbcedf77b	-0.029048672
221	0x3d831d91	0.06402124
222	0xbc0fbf42	-0.008773627
223	0xbdcbb16c	-0.0994595
224	0x3d22caf1	0.03974432
225	0x3e08ee51	0.1337216
226	0xbcac0cdd	-0.021002227
227	0xbcb7edb4	-0.022452213
228	0xbdf1cbbc	-0.118064374
229	0x3d0d2946	0.03446319
230	0x3e0813de	0.13288829
231	0xbddc3bc6	-0.107535884
232	0xbd5afdbc	-0.053464636
233	0xbca96dbe	-0.020682212
234	0xbc144607	-0.009049899
235	0xbbd8de0b	-0.0066182665
236	0xbd99ad88	-0.075038016
237	0xbcd05ee5	-0.025435874
238	0xbd9ab0a5	-0.075532235
239	0xbd0d7d47	-0.034543302
240	0x3bf8a35c	0.0075878333
241	0xbb3516db	-0.002763203
242	0xbcaa082b	-0.020755848
243	0x3cc897ee	0.024486508
244	0x3d91083c	0.07081649
245	0xbb71b68a	-0.0036882483
246	0x3d117ea0	0.03552115
247	0x3ae9f3d4	0.0017849156
248	0x3c6c8507	0.014436013
249	0x3bea6aa1	0.0071538244
250	0x3be958df	0.00712119
251	0x3cdcb415	0.026941339
252	0xbd26505f	-0.04060399
253	0xbcde58e0	-0.027141988
254	0x3ce3239b	0.027726939
255	0xbcaec31b	-0.021333268

fc1.bias f4 [256]
0	0xbc7d6686	-0.015466338
1	0xbe73588b	-0.23764245
2	0xbdc2b15d	-0.095064856
3	0x3bea9686	0.007159057
4	0xbdc66379	-0.09686942
5	0xbdc2af2e	-0.09506069
6	0xbdcc9514	-0.09989372
7	0xbdb9af0e	-0.09066592
8	0xbe1db69c	-0.15401691
9	0x3d3dfe75	0.046385247
10	0xbdc07e3a	-0.09399076
11	0xbe8c5978	-0.2741201
12	0xbd5db125	-0.054124016
13	0x3d731334	0.059344485
14	0xbe2b09d3	-0.16702966
15	0x3e1fbd2c	0.15599507
16	0x3cde1f28	0.027114466
17	0xbe4618d0	-0.19345403
18	0xbdd1e111	-0.10248006
19	0xbe33f3f0	-0.17573524
20	0x3d42f603	0.047597896
21	0xbda089e8	-0.078388035
22	0x3cd08b73	0.02545712
23	0xbe1847fc	-0.1487121
24	0xbc9d1892	-0.019176755
25	0x3d52114d	0.05128603
26	0xbdd21ac4	-0.102590114
27	0xbd0472c2	-0.032336004
28	0xbe295bc9	-0.1653892
29	0xbddfd546	-0.109293506
30	0xbd914866	-0.07093887
31	0xbda9f8b0	-0.082993865
32	0xbe1ab94f	-0.15109752
33	0xbdd0f66c	-0.10203251
34	0xbd4515e5	-0.048116583
35	0xbde6c2a2	-0.11267592
36	0x3cdcaca3	0.026937788
37	0xbe93315d	-0.287486
38	0xbe581919	-0.21103324
39	0xbcf60072	-0.03002951
40	0xbe5ebf35	-0.21752627
41	0x3e1537ad	0.1457202
42	0xbcc2cb3d	-0.023778552
43	0xbe374260	-0.17896414
44	0xbe58e2a1	-0.21180202
45	0xbe255bba	-0.16148272
46	0xbda27e1a	-0.07934208
47	0x3d1519cd	0.03640156
48	0xbe915017	-0.28381416
49	0xbd040ac7	-0.03223684
50	0xbbe24d83	-0.006906213
51	0xbdbe6f25	-0.09298543
52	0x3e638deb	0.22222106
53	0x3adfce5f	0.0017075053
54	0xbd0c427b	-0.03424309
55	0xbe1fd22c	-0.15607518
56	0xbdac075b	-0.083998404
57	0xbdcd7015	-0.100311436
58	0xbe3d2e5c	-0.18474716
59	0xbd6a80a1	-0.057251576
60	0xbd8f1219	-0.06985874
61	0xbe43a517	-0.19105946
62	0xbe3d5dcc	-0.18492812
63	0xbe4b7e64	-0.19872433
64	0xbe0a4752	-0.13503769
65	0x3e06f7e5	0.13180502
66	0xbc23f3df	-0.010006874
67	0xbe4b04c2	-0.19826034
68	0x3d51c942	0.051217325
69	0x3dcaad8b	0.09896382
70	0xbe583eb5	-0.21117671
71	0x3e3cd531	0.18440701
72	0xbe2f0798	-0.1709274
73	0x3bb3a500	0.005482316
74	0x3e3aac64	0.18229824
75	0xbdb2e941	-0.08735896
76	0xbe5aa419	-0.21351661
77	0xbe461f18	-0.19347799
78	0xbe74364e	-0.2384884
79	0xbbbfb296	-0.0058501465
80	0xbdf141d8	-0.11780137
81	0x3d013415	0.03154381
82	0xbe030237	-0.12793814
83	0xbe824686	-0.2544443
84	0x3c374994	0.011186976
85	0xbdc7ec75	-0.097618975
86	0xbe5b21b3	-0.21399574
87	0xbdf5e3aa	-0.12006314
88	0xbcb1131b	-0.021615556
89	0xbe2d77d5	-0.16940244
90	0x3d90f2fe	0.07077597
91	0xbdfd8c63	-0.12380292
92	0xbe137ea7	-0.14403783
93	0x3dca320c	0.09872827
94	0x3d4ab648	0.049490243
95	0xbdf7fbd5	-0.1210858
96	0xbbf1119a	-0.0073568346
97	0xbe65bfbf	-0.22436427
98	0xbca32f1d	-0.019919926
99	0xbe47ead4	-0.19523174
100	0xbe819161	-0.25306228
101	0x3d5cc5b5	0.053899486
102	0xbdefd86b	-0.117112
103	0xbe314237	-0.17310415
104	0xbd6e480d	-0.05817418
105	0x3d1432d7	0.036181297
106	0x3da29c5a	0.07939978
107	0x3d4788c0	0.0487144
108	0x3db8a0d7	0.09015053
109	0x3d17440e	0.036930136
110	0xbe3c9348	-0.18415558
111	0xbe5edd91	-0.21764208
112	0xbe262d6d	-0.16228266
113	0x3daf54b4	0.08561078
114	0xbd9a7581	-0.07541943
115	0xbdf03732	-0.11729278
116	0xbdf67c3f	-0.12035417
117	0xbe73d989	-0.23813452
118	0xbe16bbc3	-0.14720063
119	0xbdccfd81	-0.100092895
120	0x3d96f9e0	0.073718786
121	0xbe79f7c2	-0.24410918
122	0xbde2a143	-0.110659145
123	0xbe10d0ea	-0.14142194
124	0x3e23a882	0.1598225
125	0xbe650e08	-0.22368634
126	0xbe3b5eee	-0.18297932
127	0xbcd2682c	-0.025684439
128	0x3dcebf94	0.100951344
129	0x3dbe3e12	0.09289183
130	0xbb12a4d4	-0.0022376077
131	0x3d2f5060	0.04280126
132	0xbdc3af06	-0.095548674
133	0xbc263a73	-0.010145771
134	0xbafac597	-0.0019132373
135	0xbd7ed3ac	-0.062213585
136	0x3d9c15d8	0.07621354
137	0xbe3f6dc2	-0.18694213
138	0x3c607c84	0.013701562
139	0xbddc3c84	-0.1075373
140	0x3e32ecac	0.17473096
141	0x3cc68deb	0.024237594
142	0xbd16362d	-0.03667276
143	0x3de1bb23	0.110220216
144	0x3d98e920	0.0746634
145	0x3d304cd3	0.043042015
146	0xbd3826ef	-0.044959005
147	0x3d5104ad	0.05102985
148	0xbdd273d4	-0.10275999
149	0xbd0dbcc1	-0.034603838
150	0xbe6392e6	-0.22224006
151	0x3bab6725	0.0052308016
152	0xbd424ae3	-0.0474347
153	0xbccd47ff	-0.025058744
154	0x3ddc3516	0.10752313
155	0xbe0c83c0	-0.13722134
156	0xb7426558	-1.1586897e-05
157	0xbdfde76d	-0.123976566
158	0x3d92f9e9	0.07176573
159	0x3e14588f	0.14486907
160	0xbe70f96a	-0.23532644
161	0xbe5fb6cc	-0.21847075
162	0xbe19027c	-0.14942354
163	0xbe541b63	-0.20713572
164	0xbdeba620	-0.11506295
165	0x3df4906f	0.11941611
166	0xbdd47fe5	-0.103759564
167	0xbe196c01	-0.14982606
168	0x3d6b42c1	0.05743671
169	0xbe04a10b	-0.12952058
170	0xbd6b5312	-0.05745227
171	0xbe3a73ad	-0.1820819
172	0xbe69608e	-0.22790739
173	0x3d81660d	0.06318293
174	0xbdec558b	-0.115397535
175	0xbddf6fc0	-0.109099865
176	0x3e3c1e25	0.18370874
177	0x3c51551e	0.012776641
178	0xbd9f5df3	-0.07781591
179	0x3c661b58	0.014044605
180	0xbd8429ec	-0.064533085
181	0xbdd6eb92	-0.1049415
182	0x3d1f9d97	0.03896865
183	0xbda4e794	-0.080519825
184	0xbe6c9c94	-0.23106605
185	0xbd15fee7	-0.036620047
186	0xbd298238	-0.041383952
187	0x3c53f27d	0.012936232
188	0xbdfbf750	-0.123030305
189	0xbe899db7	-0.2687814
190	0xbe13c849	-0.14431871
191	0xbd4feb59	-0.050761554
192	0xbd8a812a	-0.06762917
193	0x3c0918cc	0.008367728
194	0xbe3c9630	-0.18416667
195	0xbc58cfa5	-0.0132331
196	0x3d5363ca	0.05160884
197	0xbe09bbf3	-0.13450603
198	0xbcd5007a	-0.026001204
199	0xbe933070	-0.28747892
200	0xbe1ad75a	-0.15121213
201	0xbe4876ee	-0.19576618
202	0x3ca1acb5	0.019735673
203	0x3e51417d	0.20435138
204	0xbe3244d5	-0.1740907
205	0x3c4cff31	0.012512014
206	0xbe2d2c9f	-0.16911553
207	0xbdb8d6b6	-0.09025328
208	0xbce3004f	-0.027710108
209	0xbcacbcc8	-0.021086112
210	0xbdbbb3a0	-0.0916512
211	0xbe63be6c	-0.22240609
212	0x3d6d5d0f	0.057950076
213	0xbd2b6349	-0.041842733
214	0xbe843713	-0.25823268
215	0x3e070ccf	0.1318848
216	0xbdad17d9	-0.08451814
217	0xbbf8e368	-0.0075954683
218	0x3ac3503f	0.0014901235
219	0x3e1be832	0.15225294
220	0xbe134171	-0.14380433
221	0x3df507bf	0.11964368
222	0xbd8e6d1f	-0.06954407
223	0x3cb75870	0.022381037
224	0xbd1885ea	-0.037237085
225	0xbc109c69	-0.008826354
226	0xbe978b08	-0.2959826
227	0x3c86e0ba	0.01646458
228	0xbe288fe1	-0.16461135
229	0xbe3a3513	-0.18184309
230	0xbd51b888	-0.051201373
231	0x3d9ddaa8	0.07707721
232	0xbc0953da	-0.008381808
233	0xbe113650	-0.14180875
234	0xbdafe603	-0.08588793
235	0x3dc66d00	0.09688759
236	0xbd854fd3	-0.06509366
237	0x39a25480	0.00030962005
238	0x3e199bbf	0.15000819
239	0xbc12b450	-0.008954123
240	0xbd95bac6	-0.07311015
241	0x3dba652e	0.0910133
242	0xbe0e4d32	-0.13896635
243	0xbe0ffd40	-0.14061451
244	0xbde452a3	-0.11148574
245	0xbd202592	-0.03909833
246	0xbd9e410a	-0.07727249
247	0xbe1e0c0b	-0.15434282
248	0x3c894d02	0.016760353
249	0xbda92542	-0.082590595
250	0x3d83d894	0.064377934
251	0xbe61d5d2	-0.22054222
252	0xbdee81dc	-0.116458625
253	0xbe496cde	-0.19670436
254	0x3c8443cf	0.016145615
255	0xbe2b396f	-0.16721128

fc2.weight f4 [256, 256]
0	0xbdbf1cb1	-0.09331644
1	0xbd4f7513	-0.05064876
2	0x3d1ea976	0.03873583
3	0x3cbe0305	0.0231948
4	0xbdd39216	-0.10330598
5	0xbe4e2a81	-0.20133401
6	0xbd98a387	-0.07453065
7	0xbd67f478	-0.056629628
8	0x3d9a5196	0.075350925
9	0xbcf84ece	-0.030311015
10	0x3c29f595	0.010373493
11	0x3d35095d	0.044198383
12	0x3e90b485	0.28262725
13	0x3cc0fd33	0.023558235
14	0xbcaa7c40	-0.0208112
15	0x3b2858c6	0.0025687679
16	0xbda6bd13	-0.08141532
17	0xbcbe71f8	-0.023247704
18	0xbcd4ae0e	-0.025961902
19	0xbd07e042	-0.033172853
20	0xbcc6b14e	-0.024254467
21	0xbd8e7d4c	-0.06957492
22	0x3d4c8a46	0.049936555
23	0xbdbeaa4b	-0.093098246
24	0x3df5fdbe	0.12011288
25	0x3e028e88	0.12749684
26	0xbdb4fefe	-0.088376984
27	0x3db0e1aa	0.08636792
28	0xbe0ede83	-0.13952069
29	0x3cb14203	0.021637922
30	0xbd4169ef	-0.047220167
31	0x3d94181b	0.0723116
32	0x3d626ebe	0.055281393
33	0x3d3e8625	0.04651465
34	0x3d3fda10	0.04683882
35	0xbd8de649	-0.06928689
36	0xbdab4baf	-0.08364045
37	0xbd82ad99	-0.063807674
38	0x3cdfc88f	0.027317313
39	0x3d93d830	0.07218969
40	0x3d7b0fa3	0.06129421
41	0x3af09192	0.001835393
42	0xbd4a6511	-0.04941279
43	0x3e0c0cb9	0.13676728
44	0x3d808eb6	0.0627722
45	0xbd23c1a6	-0.0399796
46	0xbbeecb9e	-0.0072874567
47	0x3d5a8e32	0.053358264
48	0xbd3307bd	-0.04370855
49	0xbd420718	-0.047370046
50	0x3db275e4	0.08713892
51	0xbe25143d	-0.16121002
52	0xbd67c042	-0.056579836
53	0xbccf0204	-0.025269516
54	0xbcfcaa56	-0.030842941
55	0xbcf9f5a3	-0.030512637
56	0x3d0637be	0.032768004
57	0x3d5db11e	0.05412399
58	0x3e617f97	0.22021328
59	0xbc8471a3	-0.016167467
60	0xbcc14d78	-0.02359651
61	0x3c715679	0.014730089
62	0xbdcc1cba	-0.09966417
63	0x3db86844	0.09004262
64	0xbe565831	-0.2093208
65	0x3c016572	0.007897722
66	0xbd0f7699	-0.035025213
67	0x3c206ce9	0.009791591
68	0xba872a7f	-0.0010312347
69	0xbd2e7195	-0.04258879
70	0xbd3615f5	-0.044454534
71	0xbda53875	-0.08067409
72	0xbd1cca1d	-0.038278688
73	0xbe352774	-0.17690831
74	0x3d14d11f	0.036332246
75	0xbc87b6c2	-0.016566638
76	0xbd93e298	-0.07220954
77	0xbdd79d5b	-0.1052806
78	0xbda9bbf0	-0.08287799
79	0xbdac2eca	-0.08407362
80	0x3e3a41a5	0.18189104
81	0x3b525e3d	0.0032099627
82	0x3da29410	0.07938397
83	0x3d547863	0.051872622
84	0xbcdf88b6	-0.027286869
85	0xbdc1ef58	-0.09469479
86	0x3deabbdf	0.11461615
87	0x3bd9a569	0.006642033
88	0xbbe6a383	-0.007038535
89	0x3db4048d	0.087899305
90	0xbd63fbf8	-0.055660218
91	0x3d1bc211	0.038026873
92	0x3d888489	0.06665904
93	0xbc13ba00	-0.009016514
94	0x3d6e66f7	0.058203664
95	0xbd2a116f	-0.041520532
96	0xbda24908	-0.07924086
97	0xbd699ee8	-0.05703631
98	0xbd79e745	-0.06101157
99	0xbdac2a17	-0.084064655
100	0xbc39ab3b	-0.011332328
101	0xbe1d11e0	-0.1533885
102	0x3c05adc5	0.008159106
103	0x3daaf004	0.083465606
104	0x3dc49cb9	0.09600205
105	0xbbaad327	-0.0052131596
106	0xbdcfdf31	-0.10149992
107	0x3d5c9cd3	0.053860497
108	0x3c401a02	0.011724951
109	0xbce617be	-0.028087493
110	0x3e0c23b2	0.13685492
111	0x3d88c311	0.06677831
112	0xbdbe0e97	-0.092801265
113	0x3d1da903	0.03849126
114	0x3cfad9b3	0.030621385
115	0xb9578c8e	-0.00020556359
116	0x3c217726	0.009855067
117	0x3b2834af	0.0025666167
118	0x3cfcb708	0.030848995
119	0xbdc68193	-0.09692683
120	0x3dfe9b41	0.12431956
121	0x3d014e7f	0.031569
122	0xbcee637a	-0.029100168
123	0xbe422b07	-0.18961726
124	0x3cf8a0c8	0.030350104
125	0x39b841ed	0.00035144333
126	0x3c945604	0.018107422
127	0xbd01ff6a	-0.031737722
128	0xbd6e47d3	-0.058173966
129	0xbdebc16b	-0.11511501
130	0xbcc15975	-0.023602227
131	0xbd003469	-0.031299982
132	0x3de38059	0.11108465
133	0x3c4a1d68	0.012336113
134	0x3cb5733f	0.02214968
135	0x3c623eff	0.013808965
136	0x3d136906	0.03598883
137	0xbce555b9	-0.027994977
138	0xbd164686	-0.03668835
139	0xbddf38dd	-0.10899518
140	0xbc8926f5	-0.016742209
141	0xbb81b92b	-0.0039588413
142	0xbd6ec4f5	-0.0582933
143	0xbd1d8506	-0.03845694
144	0x3d4fcbc1	0.050731424
145	0x3ce74158	0.0282294
146	0xbd39c1be	-0.045350783
147	0xbd49e13e	-0.049287073
148	0xbe6cc067	-0.2312027
149	0x3cb62c8b	0.022238037
150	0x3b6563e5	0.0035002169
151	0x3d82404d	0.06359921
152	0xbc3f6d7a	-0.011683816
153	0xbcdcfed9	-0.02697699
154	0x3bf02e22	0.007329718
155	0xbc4a1c9a	-0.012335921
156	0x3d96f36d	0.073706485
157	0x3c2baddc	0.010478463
158	0xbcd37e5d	-0.02581709
159	0xbe142f5f	-0.14471196
160	0xbd1abb63	-0.037776362
161	0x3dbf5494	0.09342304
162	0x3cc5c92c	0.024143778
163	0xbcf28beb	-0.029607734
164	0xbe190024	-0.1494146
165	0xbe23bcfb	-0.15990059
166	0x3d970122	0.07373263
167	0xbcf4bf1e	-0.029876288
168	0x3d1fb160	0.038987517
169	0x3e0bde93	0.13659124
170	0x3d22df10	0.03976351
171	0x3ea67d6a	0.32517558
172	0xbd3103cd	-0.043216515
173	0x3de04d8e	0.109522924
174	0xbe11c25e	-0.14234301
175	0x3d32cfa7	0.043655064
176	0x3c4d3b11	0.01252629
177	0xbc810b7b	-0.015752545
178	0xbd9647cb	-0.07337912
179	0xbd7225f0	-0.05911821
180	0x3d0b9dc1	0.034085993
181	0xbdc65fdb	-0.09686252
182	0x3d8b8082	0.0681162
183	0xbd9325e9	-0.07184965
184	0xbd49fd40	-0.049313784
185	0xbd003ff9	-0.03131101
186	0xbcc380a8	-0.023865059
187	0xbd21e534	-0.039525226
188	0xbd87d967	-0.06633263
189	0xbaec1e66	-0.001801443
190	0xbd9b4f48	-0.07583481
191	0x3cf33b5b	0.029691389
192	0x3cfe7ea3	0.031066244
193	0xbbaa8e51	-0.0052049537
194	0xbb12d62a	-0.0022405484
195	0x3c064bb0	0.008196756
196	0x3d1d8e65	0.038465876
197	0x3b53762a	0.0032266476
198	0xbe194251	-0.14966704
199	0xbc309cb2	-0.010779547
200	0x3d59ddf6	0.053190194
201	0xbc209bdc	-0.009802785
202	0x3d95215f	0.07281756
203	0xbd628b1d	-0.05530845
204	0x3e303068	0.17205966
205	0xbdf4b57b	-0.11948677
206	0x3d9232ac	0.07138571
207	0xbd3bc112	-0.045838423
208	0xbde57389	-0.11203677
209	0x3d3b0b27	0.045664933
210	0xbe1a9ace	-0.15098116
211	0xbde32ff6	-0.11093132
212	0xbc446a65	-0.011988257
213	0xbd578714	-0.052619055
214	0xbd4686db	-0.048468452
215	0xbe13aaa0	-0.14420557
216	0xbd73fbc1	-0.059566263
217	0x3dae3ca4	0.0850766
218	0xbdcded40	-0.100550175
219	0xbb90961a	-0.0044124248
220	0xbe445d70	-0.19176269
221	0xbd66bc68	-0.056332022
222	0xbd5bb46b	-0.053638857
223	0x3d4309e3	0.04761685
224	0x3cfbe4f0	0.030748814
225	0xbd0bc386	-0.034122013
226	0xbe2a6eb0	-0.16643786
227	0xbd9fde6a	-0.07806094
228	0x3dfc9cb5	0.12334577
229	0xbd0f0254	-0.03491433
230	0x3d3ce556	0.04611715
231	0x3c93e2eb	0.018052539
232	0xbded5511	-0.11588491
233	0xbcf50903	-0.029911524
234	0xbdcde56e	-0.10053526
235	0x3dfdd01a	0.12393208
236	0x3c8d7822	0.017269198
237	0xbcf2cae5	-0.029637763
238	0xbcf4999b	-0.029858401
239	0xbd4d5a8f	-0.05013519
240	0xbcd6f20f	-0.02623847
241	0xbd05639c	-0.032565698
242	0x3e1b8144	0.1518603
243	0x3dd37ba8	0.1032632
244	0xbde0eadd	-0.109822966
245	0xb963a381	-0.00021709317
246	0x3e100104	0.14062887
247	0xbbada885	-0.00529963
248	0xbe026bef	-0.12736486
249	0x3d1944ab	0.037419003
250	0xbd1176b3	-0.03551359
251	0x3cd57d9c	0.026060872
252	0x3dec0591	0.11524499
253	0x3d43a1f8	0.047761887
254	0x3bf61453	0.007509747
255	0xbe315278	-0.17316616

fc2.bias f4 [256]
0	0x3d0f3570	0.03496307
1	0x3c83491e	0.016026076
2	0x3d39fe5f	0.045408603
3	0xbc854357	-0.016267462
4	0xbda1eec0	-0.07906866
5	0x3dba646a	0.09101184
6	0x3a9fb1be	0.0012183709
7	0x3d92625d	0.071476676
8	0x3d0a8036	0.033813678
9	0x3d1ab377	0.037768807
10	0xbc9707b7	-0.018436296
11	0x3d820fab	0.06350645
12	0x3d2e87e8	0.04261008
13	0xbd2d1d6b	-0.042264383
14	0xbb3bef2e	-0.0028676498
15	0x3d030e0d	0.03199582
16	0x3dbd503c	0.09243819
17	0xbe0d1596	-0.13777766
18	0x3c9dd79e	0.019267853
19	0xbcca3c8b	-0.024687072
20	0x3dfe2112	0.124086514
21	0x3d2419b2	0.040063567
22	0x3d0ac80c	0.033882186
23	0xbc9c4254	-0.019074596
24	0xbd923bc5	-0.071403064
25	0x3d15cee0	0.036574244
26	0x3dd0e72e	0.10200344
27	0xbd4d71dc	-0.050157413
28	0x39fdc89b	0.00048405383
29	0xbd4a4515	-0.049382288
30	0xbc273fed	-0.010208112
31	0x3d6694ff	0.056294437
32	0xbb308bf8	-0.0026938897
33	0x3d8a94b3	0.067666434
34	0x3da80430	0.08203924
35	0x3d953be3	0.07286813
36	0xbcdb2819	-0.026752518
37	0x3d621389	0.05519441
38	0x3d7d1bfe	0.061794274
39	0xbd910708	-0.07081419
40	0xbbdaeb6d	-0.006680897
41	0x3d790815	0.060798723
42	0x3b14dbe6	0.0022714077
43	0x3c0f900e	0.008762373
44	0xbd8b6577	-0.06806462
45	0x3d650c6a	0.055920042
46	0x3d732baa	0.059367813
47	0x3dd18a7c	0.10231492
48	0xbcec61ed	-0.028855288
49	0xbcbfcd10	-0.023413211
50	0x3cc9a324	0.024613924
51	0x3d1dc54e	0.038518243
52	0xbcdca266	-0.026932906
53	0x3dd098fa	0.10185428
54	0xbc1c4430	-0.009537742
55	0x3d9400e6	0.07226734
56	0xbd1748f9	-0.036934827
57	0x3d69ab15	0.057047922
58	0xbcf1ea64	-0.029530711
59	0xbc0da9cb	-0.008646439
60	0x3ba26133	0.0049554347
61	0xbd96c6f9	-0.0736217
62	0xbd270ead	-0.04078548
63	0xbdc7c74a	-0.09754808
64	0xbe193a40	-0.14963627
65	0x3c85695a	0.016285587
66	0x3d46835c	0.048465118
67	0x3d13565f	0.03597104
68	0xbce7297f	-0.028218029
69	0x3d77db06	0.06051161
70	0xbd23f020	-0.040023923
71	0xbdc1f0ba	-0.09469743
72	0xbd92bca5	-0.07164887
73	0x3d381b5f	0.044947978
74	0x3d140442	0.036136873
75	0xbcf55989	-0.02994992
76	0x3c2c05df	0.010499447
77	0x3bfcded3	0.0077169924
78	0xbda90775	-0.082533754
79	0xbd2ef1c0	-0.04271102
80	0x3a985a40	0.0011623576
81	0x3d3a83dd	0.04553591
82	0x3d887a42	0.06663944
83	0x3d49b647	0.0492461
84	0x3cd1f6f2	0.025630448
85	0x3d6e590b	0.058190387
86	0x3d0681f5	0.03283878
87	0x3d17bdbd	0.037046183
88	0xbd83eaae	-0.06441246
89	0x3ad36464	0.0016127941
90	0x3dad794a	0.084704
91	0xbd56d155	-0.05244573
92	0xbdb4c59f	-0.08826756
93	0xbd31bd71	-0.043393556
94	0x3dbf785f	0.09349131
95	0xb8f9ff1c	-0.00011920763
96	0xbd5400ca	-0.051758565
97	0x3d86bedc	0.06579372
98	0x3d347acc	0.04406242
99	0x3d546b68	0.051860243
100	0xbd529ab3	-0.051417064
101	0xbc7e7eec	-0.01553319
102	0xbbebebb9	-0.007199731
103	0x3d1bc889	0.038033042
104	0xbdaa13e8	-0.08304578
105	0x3d15a8cd	0.036537934
106	0x3c399e9b	0.011329318
107	0x3d1c4b55	0.03815778
108	0xbd0c34ff	-0.03423023
109	0x3d535b40	0.051600695
110	0xbdfd0982	-0.12355329
111	0x3ce43f67	0.027862264
112	0x3d58c0f0	0.052918375
113	0xbd9c92c1	-0.076451786
114	0x3dc28b64	0.09499243
115	0x3c951772	0.018199656
116	0x3cfbad37	0.030722244
117	0xbda5f0da	-0.081025794
118	0x3d96c468	0.0736168
119	0x3c7222ea	0.014778832
120	0xbd6cd388	-0.05781892
121	0xbdc5f1f1	-0.09665287
122	0x3b417da6	0.0029524355
123	0x3d87519d	0.066073634
124	0xbd388c08	-0.04505542
125	0xbda25858	-0.079270065
126	0x3bab90ec	0.005235782
127	0xbab2f366	-0.0013652861
128	0x3c889b91	0.016675742
129	0x3d5aed34	0.05344887
130	0x3d58af9a	0.05290184
131	0xbd0460ec	-0.032318994
132	0x3d4c29e5	0.04984464
133	0x3d5254a2	0.051350243
134	0x3d8d0d4f	0.06887304
135	0x3d11c64e	0.03558951
136	0x3d34de39	0.04415724
137	0xbcc705e0	-0.024294794
138	0x3cb374ff	0.021906374
139	0xbd6c1f18	-0.05764684
140	0xbd8efa6e	-0.069813594
141	0x3caf3d06	0.021391403
142	0xbcf2fb24	-0.029660769
143	0x3b28a8da	0.002573541
144	0xbc2b181d	-0.010442761
145	0x3d1b8918	0.03797254
146	0x3cd322aa	0.025773365
147	0xbc84d810	-0.016216308
148	0xbc9c9f12	-0.01911882
149	0x3d3ef637	0.046621528
150	0xbdb01411	-0.08597577
151	0x3cfba731	0.030719372
152	0x3db1650b	0.086618505
153	0x3de56dca	0.11202581
154	0x3c971028	0.018440321
155	0xbd17793e	-0.03698086
156	0xbd8b3f13	-0.0679914
157	0x3ba2154a	0.0049463855
158	0xbc3efd8d	-0.011657131
159	0x3d578bcd	0.05262356
160	0x3da1459c	0.07874605
161	0xbe009611	-0.12557246
162	0xbdafc853	-0.08583131
163	0xbd4c699f	-0.049905416
164	0x3bc8c649	0.006127153
165	0x3d5e7ab8	0.054316252
166	0x3a6a8246	0.0008945804
167	0x3dff4102	0.12463571
168	0xbd37a381	-0.044833664
169	0xbe14b37a	-0.1452159
170	0x3c9d4af9	0.019200789
171	0x3d9faa90	0.07796204
172	0x3ddaec13	0.10689559
173	0xbd092e7b	-0.033491593
174	0xbc4ed7f3	-0.0126247285
175	0x3ca4fced	0.020140136
176	0xbd8076b0	-0.06272638
177	0x3d7878a2	0.06066192
178	0x3cdb5093	0.02677182
179	0xbd1df065	-0.038559336
180	0xbc3dda76	-0.01158773
181	0x3d63d3a5	0.05562176
182	0x3d2aff4c	0.041747376
183	0xbe09c6d1	-0.13454749
184	0x3a293d2d	0.0006455954
185	0x3c4c186d	0.012456995
186	0x3da43877	0.08018582
187	0xbcb994d2	-0.02265397
188	0x3d512e66	0.05106964
189	0xbd2d75cb	-0.042348664
190	0x3c943d2f	0.01809558
191	0x3d8f69c2	0.070025936
192	0x3d384941	0.044991735
193	0xbcaedff9	-0.021347033
194	0x3da4d91d	0.080492236
195	0xbc026abc	-0.007960018
196	0xbd8e0320	-0.0693419
197	0xbddb7204	-0.10715106
198	0x3c434a41	0.011919559
199	0xbd9f2ff2	-0.07772817
200	0xbd4209b1	-0.047372524
201	0x3d939e78	0.0720796
202	0x3d95a720	0.07307267
203	0xbc22c7e2	-0.009935351
204	0xbcc0a5c3	-0.023516541
205	0x3d7990f9	0.060929272
206	0x3d967f3f	0.07348489
207	0x3d05a8bc	0.03263162
208	0x3d78d00a	0.060745277
209	0x3c1a7610	0.009427562
210	0x3d920cbe	0.07131337
211	0xbb29c2b6	-0.002590341
212	0xbda14dde	-0.0787618
213	0x3c8f676c	0.01750537
214	0x3bb2bfbd	0.005454986
215	0x3d0f9431	0.035053436
216	0x3cb85901	0.022503378
217	0x3d5ab7fe	0.053398125
218	0x3d6752f1	0.056475583
219	0xbcb72d3d	-0.022360438
220	0xbcb9fdf8	-0.02270411
221	0x3d8c8f48	0.06863266
222	0x3d8846c5	0.06654123
223	0xbd282c63	-0.041057955
224	0x3d26f090	0.040756762
225	0x3d592d7e	0.0530219
226	0x3d904cea	0.0704592
227	0x3cca860b	0.02472212
228	0x3da04d2c	0.07827219
229	0xbd32da23	-0.043665063
230	0x39c47ee9	0.0003747859
231	0x3db76480	0.08954716
232	0x3d5f9ac7	0.054590967
233	0x3db55dc3	0.08855774
234	0x3d501e92	0.050810404
235	0x3d3c9b65	0.046046633
236	0x3cc4cedd	0.024024421
237	0x3d8a4483	0.06751349
238	0x3d881ad6	0.066457435
239	0x3d6bc258	0.057558388
240	0x3c8545f0	0.0162687
241	0xbdd500bb	-0.1040053
242	0x3d888e24	0.06667736
243	0x3dc2fd19	0.09520931
244	0x3d2ea482	0.042637356
245	0xbd89b2e9	-0.067235775
246	0x3ac02d8e	0.0014662014
247	0x3d979dab	0.0740312
248	0x3d27f843	0.041008245
249	0x3d702ccc	0.05863647
250	0x3d32babe	0.043635122
251	0x3bd62d28	0.0065361448
252	0x3caf0aad	0.021367395
253	0xbbfa12cb	-0.007631635
254	0x3b839203	0.0040152087
255	0x3de0d27c	0.10977647

fc3.weight f4 [4, 256]
0	0x3dd252fa	0.10269733
1	0xbd214db8	-0.03938076
2	0xbd0dfe3c	-0.034666285
3	0x3e2f98a2	0.17148069
4	0xbe30706e	-0.17230389
5	0x3c57ffa9	0.013183513
6	0x3d8d7507	0.06907087
7	0xbe0d1d59	-0.13780726
8	0x3d5ac341	0.053408865
9	0x3d9c4ed1	0.076322205
10	0xbe780a50	-0.24222684
11	0xbda668f9	-0.08125491
12	0xbc98bb08	-0.018643871
13	0xbe12dac9	-0.14341272
14	0x3d95aa9b	0.07307931
15	0xbd8d357e	-0.068949685
16	0x3cbf500d	0.0233536
17	0x3cc0f2d1	0.023553284
18	0xbdbc9c8c	-0.092095464
19	0x3bb481ff	0.005508661
20	0xbe09bb6f	-0.13450406
21	0x3e4e0a46	0.20121107
22	0xbd9f4195	-0.07776181
23	0xbe83a8f5	-0.2571484
24	0xbe7412f5	-0.23835357
25	0xbe4689c2	-0.19388488
26	0x3dc0d283	0.09415152
27	0x3e07cad0	0.1326096
28	0x3ebc47ca	0.3677352
29	0xbe40895d	-0.188024
30	0x3e24e251	0.16101958
31	0x3e9125b0	0.28349066
32	0xbe5966f6	-0.21230683
33	0x3dcbae37	0.09945338
34	0xbdc1b087	-0.09457498
35	0xbc42337b	-0.011853094
36	0x3caa2c29	0.02077301
37	0x3e549910	0.20761514
38	0xbe2bc94e	-0.1677601
39	0xbb51fdff	-0.0032042263
40	0xbded1896	-0.11576955
41	0x3b1195fc	0.0022214642
42	0x3e820fe4	0.2540275
43	0x3dd3cc07	0.103416495
44	0xbcef2b2f	-0.029195396
45	0xbdaee49d	-0.08539698
46	0xbc11b18e	-0.00889243
47	0xbd11d55b	-0.035603862
48	0xbde58251	-0.112064965
49	0x3de1f9c7	0.11033969
50	0xba46d98f	-0.00075855193
51	0x3ddbe7e7	0.10737591
52	0x3dba5d50	0.09099829
53	0x3dffe342	0.12494518
54	0x3db4f0fb	0.08835026
55	0xbdd8e4ad	-0.105904914
56	0x3e25130f	0.16120552
57	0xbe37012d	-0.17871542
58	0xbc8ac9b5	-0.016941885
59	0x3e06aeee	0.13152668
60	0x3e4bcaa2	0.19901517
61	0x3d9bf5fa	0.07615276
62	0x3db9358b	0.09043416
63	0x3e24a039	0.16076745
64	0xbd01c9a8	-0.031686455
65	0x3e1417ea	0.14462247
66	0x3e2859e1	0.16440536
67	0x3d0a812b	0.03381459
68	0xbc53a353	-0.0129173575
69	0x3e167d88	0.14696324
70	0xbd71ebbf	-0.059062716
71	0xbe06308a	-0.13104454
72	0xbd68765a	-0.056753494
73	0xbd16d26e	-0.036821775
74	0xbdc01c50	-0.093804
75	0x3dc99a9d	0.09843943
76	0x3ca5b8af	0.020229666
77	0x3ddb67d4	0.10713163
78	0x3e33e5d8	0.17568147
79	0x3b879be9	0.004138459
80	0x3e14ca84	0.14530379
81	0x3e34a0da	0.17639485
82	0xbd385842	-0.045006044
83	0xbd6910e5	-0.056900878
84	0x3d2fdc2b	0.042934578
85	0x3dd0d19f	0.10196232
86	0xbd895154	-0.06704965
87	0x3dd08816	0.10182206
88	0xbda26a5e	-0.07930444
89	0xbe1eda7a	-0.1551303
90	0xbe01511c	-0.12628597
91	0x3da948c2	0.082658306
92	0xbc4333e9	-0.011914232
93	0xbdc3e6c9	-0.09565503
94	0x3d505a24	0.050867215
95	0xbdd62554	-0.104563385
96	0x3de3a2aa	0.1111501
97	0xbdaf4029	-0.085571595
98	0xbd8831a8	-0.06650096
99	0xbe22782f	-0.15866159
100	0x3ce2ad7f	0.02767062
101	0xbd9a0291	-0.07520021
102	0xbd178392	-0.03699071
103	0xbb5ac93b	-0.0033384103
104	0x3d544bd1	0.051830117
105	0x3e016434	0.1263588
106	0x3cd8b570	0.026453704
107	0x3df34f8f	0.11880409
108	0x3c92ef8b	0.017936489
109	0x3d5b6c64	0.053570166
110	0x3dbbc286	0.09167962
111	0xbcffcff4	-0.03122709
112	0xbdcfbdee	-0.10143648
113	0x3e738478	0.23781002
114	0xbdaf16c3	-0.08549263
115	0xbe16e8b4	-0.14737207
116	0xbe3b4449	-0.18287767
117	0x3e141c8d	0.14464016
118	0x3d9bfc6d	0.07616506
119	0xbe3590d7	-0.17731033
120	0xbe330032	-0.17480543
121	0xbd920069	-0.071289845
122	0x3d5a506e	0.05329936
123	0xbe2f523a	-0.1712121
124	0x3d0e9885	0.034813423
125	0xbe528412	-0.20558193
126	0xbde45648	-0.11149269
127	0x3ced5c3e	0.028974649
128	0x3e466b3d	0.19376846
129	0xbbc76a67	-0.006085682
130	0xbd9ddb22	-0.07707812
131	0x3df32d31	0.11873854
132	0x3d72a3ca	0.059238233
133	0xbd9f6a44	-0.077839404
134	0x3e64b9af	0.22336458
135	0x3c818de7	0.015814735
136	0x3e0c8208	0.13721478
137	0xbc5bf38d	-0.013424766
138	0xbde0ec25	-0.10982541
139	0xbd56342c	-0.05229585
140	0x3cd480e3	0.025940364
141	0x3d8b93c8	0.068152964
142	0xbcc47b78	-0.023984656
143	0x3c13d028	0.009021796
144	0xbdd7fd4d	-0.1054636
145	0xbdc453e5	-0.09586314
146	0x3d8d48b2	0.06898631
147	0x3e0f3cc9	0.13988031
148	0xbe13e1c3	-0.1444159
149	0x3ddeff40	0.10888529
150	0xbdaf8d86	-0.08571915
151	0x3dbb45f7	0.09144204
152	0x3c0e012b	0.008667271
153	0xbd91ab85	-0.07112793
154	0x3dfe879b	0.124282084
155	0x3e4ab24a	0.19794574
156	0xbd70a5c4	-0.058751836
157	0xbd26c6cd	-0.040716935
158	0x3e21769d	0.15767904
159	0x3dde467c	0.108532876
160	0xbe84c48b	-0.259312
161	0xbd5a0d51	-0.053235356
162	0xbe85dea1	-0.26146415
163	0xbe366064	-0.17810208
164	0xbd9a113a	-0.07522817
165	0xbdab6563	-0.08368947
166	0xbda9e3ac	-0.08295378
167	0xbe758da7	-0.23979817
168	0xbd9e21d4	-0.07721296
169	0xbc9459e9	-0.018109279
170	0x3dfb303e	0.12265061
171	0xbde0fa75	-0.10985271
172	0x3df47d59	0.11937971
173	0x3e5892cf	0.21149753
174	0xbcc07af5	-0.02349613
175	0xbd375506	-0.04475882
176	0x3de4196d	0.11137662
177	0x3cd6afb0	0.026206821
178	0xbca1067d	-0.019656414
179	0xbca1afe5	-0.019737193
180	0x3cafff68	0.021484092
181	0xbd536725	-0.05161204
182	0x3bfe433e	0.0077594807
183	0xbc553ea6	-0.013015425
184	0x3d2ec12d	0.042664696
185	0x3e78dd0e	0.24303076
186	0x3e1595c9	0.1460792
187	0xbdd7114c	-0.10501346
188	0xbda87328	-0.08225089
189	0xbea13680	-0.31486893
190	0xbe0f8786	-0.14016542
191	0x3e25ef63	0.162046
192	0x3da68823	0.08131435
193	0x3be2e43a	0.0069241794
194	0x3e74e9c1	0.23917295
195	0x3df53d07	0.11974531
196	0xbe28d6e6	-0.16488227
197	0xbe1f348a	-0.15547386
198	0xbe10697b	-0.14102738
199	0x3e0e52cd	0.13898773
200	0x3e42440a	0.18971267
201	0xbda66f56	-0.081267044
202	0xbd095f82	-0.03353835
203	0xbe3dad3b	-0.18523113
204	0xbe425df6	-0.18981156
205	0xbe384f13	-0.17998914
206	0xbcdf1de7	-0.027235938
207	0xbd898332	-0.06714477
208	0xbd85a057	-0.06524723
209	0x3e95be72	0.2924686
210	0xbd7e995e	-0.06215798
211	0x3e3c5831	0.18393017
212	0xbd4f7db2	-0.05065698
213	0x3e29ef28	0.16595137
214	0x3d1b626e	0.037935667
215	0x3c3ef492	0.01165499
216	0xbe2b2a2c	-0.16715306
217	0xbcdcd455	-0.026956717
218	0x3e132578	0.14369762
219	0xbd2d0a21	-0.042245988
220	0xbe6b5b8f	-0.22984146
221	0x3d18292c	0.03714864
222	0x3dd38165	0.103274144
223	0x3e11b21f	0.14228104
224	0xbd815a88	-0.063160956
225	0x3dda2543	0.10651638
226	0x3c4df048	0.012569495
227	0xbd562354	-0.052279785
228	0x3e349ec9	0.17638697
229	0xbd96451b	-0.073373996
230	0x3cb067ec	0.021533929
231	0xbd14b781	-0.036307815
232	0xbe45d613	-0.19319944
233	0xbd372022	-0.04470838
234	0xbda219c2	-0.07915069
235	0x3daef124	0.08542088
236	0xbcfc7fc0	-0.030822635
237	0xbdd4cc7c	-0.10390565
238	0xbc8445ed	-0.016146624
239	0xbd284d64	-0.04108943
240	0x3d6f9642	0.058492906
241	0x3dc9176a	0.09818919
242	0x3cec32e5	0.028832862
243	0xbdb43988	-0.08800036
244	0x3e4db1f1	0.2008741
245	0x3d1994bd	0.037495364
246	0x3da39cf2	0.07988919
247	0xbdbdd555	-0.092692055
248	0x3da3ed8a	0.08004291
249	0x3cf85000	0.030311584
250	0xbd42af05	-0.047530193
251	0xbcbc4230	-0.02298078
252	0x3c6100fa	0.013733143
253	0x3d09af82	0.033614643
254	0xbd4915d2	-0.049093075
255	0xbe4e00ef	-0.20117544

fc3.bias f4 [4]
0	0xbb927a5d	-0.0044701532
1	0xbcad3e95	-0.021148006
2	0x3cca11d3	0.024666702
3	0x3d0a2c99	0.033733938

bn1.weight f4 [256]
0	0x3e9edb7d	0.3102683
1	0x3ed3f0b6	0.41394585
2	0x3f238f1f	0.6389026
3	0x3f297ad9	0.66203076
4	0x3f18fb93	0.5975887
5	0x3eaef68a	0.3417247
6	0x3f122198	0.5708251
7	0x3ece3a34	0.4027878
8	0x3f8ed2a7	1.1158036
9	0x3ec52a66	0.3850891
10	0x3f003af1	0.5008994
11	0x3f62b252	0.88553345
12	0x3ebfa1cd	0.37428132
13	0x3e9ab068	0.30212712
14	0x3f867903	1.050568
15	0x3f6365db	0.88827294
16	0x3f598fa1	0.84984785
17	0x3f318a85	0.6935199
18	0x3f037e44	0.5136454
19	0x3f4ecebd	0.8078421
20	0x3f1311be	0.5744895
21	0x3f07caa1	0.5304356
22	0x3e9d6d90	0.30747652
23	0x3f2e8df4	0.68185353
24	0x3eedf125	0.4647304
25	0x3f190342	0.59770596
26	0x3f05ff9d	0.5234316
27	0x3f785d53	0.970174
28	0x3f1339c5	0.57510024
29	0x3f0699ea	0.52578604
30	0x3f82011e	1.0156591
31	0x3f89383b	1.0720285
32	0x3edfa3b0	0.4367957
33	0x3ec9f433	0.39444122
34	0x3f31096c	0.69155
35	0x3eb16408	0.3464663
36	0x3ee1f4fc	0.4413222
37	0x3ee014b8	0.43765807
38	0x3f17b7cc	0.59264827
39	0x3f8197fc	1.0124507
40	0x3f5feef4	0.8747399
41	0x3f4acf68	0.79222727
42	0x3f85aa60	1.0442619
43	0x3f3ac4fe	0.72956836
44	0x3f0595af	0.52181524
45	0x3f7ff066	0.99976194
46	0x3f5c6186	0.8608631
47	0x3f8253b6	1.0181797
48	0x3ecfd884	0.40594876
49	0x3f4ff962	0.812399
50	0x3f58b964	0.84657884
51	0x3f89a0a9	1.0752155
52	0x3f13a060	0.5766659
53	0x3f45749e	0.7713107
54	0x3f4fb830	0.8114042
55	0x3eede0ee	0.4646067
56	0x3ef7b9e6	0.48384017
57	0x3f2eed97	0.68331283
58	0x3ebf2aae	0.3733725
59	0x3ec058a2	0.3756762
60	0x3f1f3954	0.6219685
61	0x3f63220a	0.88723814
62	0x3f92ece3	1.1478542
63	0x3f010638	0.50400114
64	0x3f3437d8	0.7039771
65	0x3f2f9d6d	0.6859959
66	0x3f4f82b5	0.8105882
67	0x3f2cfcd8	0.6757331
68	0x3f75077a	0.95714533
69	0x3f80b569	1.0055362
70	0x3ec83277	0.39101002
71	0x3f093db9	0.53609806
72	0x3f85e9d6	1.0461986
73	0x3f68c558	0.9092612
74	0x3f4780c4	0.77930856
75	0x3f0455a6	0.5169319
76	0x3edce08f	0.43140075
77	0x3f398e74	0.7248299
78	0x3eb61f7f	0.35570905
79	0x3f76b7e2	0.9637433
80	0x3f2eb33f	0.6824226
81	0x3e8f4811	0.2798467
82	0x3ec71545	0.38883415
83	0x3ee8788b	0.45404467
84	0x3ec2f5d8	0.3807819
85	0x3f1accd4	0.6046879
86	0x3ec309bb	0.3809336
87	0x3edc1893	0.429875
88	0x3f896ed2	1.0736945
89	0x3f3499b3	0.70547026
90	0x3edcd9a9	0.43134812
91	0x3f7b050b	0.9805457
92	0x3f80e3f0	1.0069561
93	0x3ec6b86e	0.38812584
94	0x3e4b3eee	0.19848225
95	0x3f00fb25	0.50383216
96	0x3f624adc	0.88395476
97	0x3f8c4c92	1.0960867
98	0x3f1737ea	0.59069693
99	0x3ecc1e49	0.39866856
100	0x3ed13e8d	0.40868035
101	0x3f3a4ed8	0.72776556
102	0x3f7d9de1	0.9906903
103	0x3f680a53	0.90640754
104	0x3e94dd6c	0.2907518
105	0x3f719a13	0.94375724
106	0x3ec91a93	0.39278087
107	0x3f815e06	1.0106819
108	0x3f1daa30	0.6158781
109	0x3f45f998	0.77333975
110	0x3f7d3a38	0.9891696
111	0x3f85b627	1.0446213
112	0x3f081309	0.53154045
113	0x3f2cf8d9	0.6756721
114	0x3f90a752	1.1301062
115	0x3f0bb602	0.54574597
116	0x3f297e88	0.66208696
117	0x3edb6ba7	0.4285557
118	0x3f647b09	0.89250237
119	0x3f563573	0.8367531
120	0x3f238253	0.63870734
121	0x3f91fc7d	1.1405178
122	0x3efdda61	0.49580672
123	0x3f338b45	0.70134383
124	0x3f589668	0.846045
125	0x3f2fa84e	0.6861619
126	0x3f853bd9	1.0408889
127	0x3ec1cb1f	0.37850282
128	0x3eabe7dc	0.33575332
129	0x3f819572	1.0123732
130	0x3f2d8fbb	0.6779744
131	0x3ece5139	0.40296343
132	0x3eff25b1	0.49833444
133	0x3f2b87df	0.670042
134	0x3eac05c0	0.33598137
135	0x3f15daf0	0.585372
136	0x3f2ed603	0.68295306
137	0x3f5f2293	0.8716213
138	0x3f83b211	1.0288717
139	0x3ea18982	0.31550223
140	0x3f207699	0.62680966
141	0x3eeb5ea6	0.4597065
142	0x3f4bc099	0.79590756
143	0x3ef6d75d	0.48211184
144	0x3f51db49	0.8197523
145	0x3f20c2b3	0.6279709
146	0x3eafe834	0.34356844
147	0x3f7538c0	0.9578972
148	0x3f083334	0.5320313
149	0x3f5f71e8	0.8728318
150	0x3f834ba6	1.0257461
151	0x3f6cc972	0.9249488
152	0x3f384005	0.71972686
153	0x3ec9c531	0.39408258
154	0x3f8454a9	1.0338336
155	0x3f82c4fb	1.0216364
156	0x3ec5ede2	0.38658053
157	0x3f487e2a	0.7831751
158	0x3f88bf68	1.0683413
159	0x3f23a55b	0.6392419
160	0x3f5b0404	0.85553
161	0x3ead9410	0.33902025
162	0x3f595cc8	0.849072
163	0x3f1ae2f5	0.6050256
164	0x3f712cbf	0.942089
165	0x3f56c67b	0.8389661
166	0x3f8111c1	1.0083543
167	0x3f7d40b8	0.9892688
168	0x3f83db53	1.0301307
169	0x3f90fbd2	1.132685
170	0x3f4ca273	0.7993538
171	0x3ee57835	0.44818273
172	0x3f4fd256	0.8118032
173	0x3f8abeb5	1.0839449
174	0x3f47e704	0.78086877
175	0x3f44dea5	0.7690223
176	0x3f693923	0.9110281
177	0x3f5fa9be	0.8736838
178	0x3f8760ad	1.0576378
179	0x3f741b40	0.9535408
180	0x3f17edb7	0.593471
181	0x3f34e64a	0.70663893
182	0x3f54fc4d	0.8319748
183	0x3f09c135	0.53810436
184	0x3f467f01	0.7753754
185	0x3f1bc818	0.60852194
186	0x3f2d700b	0.6774909
187	0x3ebb2bfd	0.36556998
188	0x3f37a740	0.7173958
189	0x3f315380	0.69268036
190	0x3f3a1fab	0.7270457
191	0x3ea5f3e7	0.32412645
192	0x3f888539	1.0665656
193	0x3f07990c	0.52967906
194	0x3ef87d8a	0.4853328
195	0x3ef1130e	0.4708485
196	0x3eb0af63	0.3450881
197	0x3f027133	0.5095398
198	0x3f1b2f05	0.6061862
199	0x3ed2aa67	0.41145632
200	0x3f2a0fd2	0.6643039
201	0x3f9746cf	1.1818484
202	0x3f0f04f4	0.5586693
203	0x3f373c32	0.71576226
204	0x3eec374f	0.46135947
205	0x3ea6c669	0.3257325
206	0x3f2b8637	0.6700167
207	0x3eae55b5	0.34049764
208	0x3f87cd09	1.0609447
209	0x3e0c3253	0.13691072
210	0x3f947f26	1.1601303
211	0x3e9dd3cc	0.3082565
212	0x3f44a98f	0.76821226
213	0x3f0b303b	0.5437047
214	0x3ed11573	0.40836677
215	0x3ec26e0c	0.37974584
216	0x3f4b622c	0.79446673
217	0x3f81d21c	1.0142245
218	0x3f51c6d3	0.81944007
219	0x3f679c98	0.9047332
220	0x3ead5e00	0.3386078
221	0x3f71f991	0.94521433
222	0x3f090188	0.5351796
223	0x3f84182b	1.0319875
224	0x3f3600c7	0.71094936
225	0x3f10f120	0.5661793
226	0x3ed08a96	0.40730733
227	0x3f7c5d0f	0.98579496
228	0x3f8ae37b	1.0850672
229	0x3f803cdd	1.0018574
230	0x3f84440f	1.033327
231	0x3f65f6db	0.89829797
232	0x3edcefa0	0.4315157
233	0x3f359da0	0.7094364
234	0x3eb3638c	0.35036886
235	0x3f5aba74	0.85440755
236	0x3f8521cb	1.0400938
237	0x3f660e81	0.8986588
238	0x3f0907c7	0.5352749
239	0x3f2c04ce	0.6719483
240	0x3f8272f4	1.0191331
241	0x3ecfe07c	0.40600955
242	0x3f21526e	0.630164
243	0x3f8cd836	1.1003482
244	0x3f850b61	1.0394098
245	0x3f2700b8	0.6523547
246	0x3f3d6a82	0.73990643
247	0x3eee4e4c	0.4654411
248	0x3f2d51b9	0.67702824
249	0x3f79cb7b	0.9757611
250	0x3ec2b548	0.38028932
251	0x3f76ea48	0.96451235
252	0x3f26096c	0.64858127
253	0x3f4b5efa	0.794418
254	0x3f47b443	0.7800943
255	0x3f1367b2	0.575801

bn1.bias f4 [256]
0	0xbbe05c7d	-0.006846963
1	0xbc692cba	-0.014231855
2	0xbdafa9ec	-0.08577332
3	0xbccd0322	-0.025025908
4	0xbd0afea3	-0.033934247
5	0xbd4526d3	-0.04813273
6	0x3d0af663	0.03392638
7	0x3d9753e3	0.07389047
8	0xbd5502f9	-0.052004788
9	0x3d3e0078	0.046387166
10	0x3c712604	0.014718536
11	0xbcba303d	-0.02272808
12	0x3cab37c2	0.02090061
13	0x3e17c076	0.14819512
14	0xbd776651	-0.06040031
15	0x3de9c71e	0.11414932
16	0xbcd5bb9f	-0.026090441
17	0x3ceac2d6	0.028657358
18	0xbca62e69	-0.020285802
19	0xbd2a8aa7	-0.041636135
20	0x3d88212d	0.06646953
21	0xbd232ae9	-0.039835844
22	0xbd544769	-0.051825915
23	0x3c690d34	0.014224339
24	0xbc8b3f38	-0.016997918
25	0x3d8463a4	0.064643174
26	0x3d09e952	0.033669777
27	0xbd3297b2	-0.0436017
28	0x3d1bce0d	0.038038302
29	0x3d78e0e6	0.060761355
30	0x3d9e42e2	0.07727601
31	0x3c5feae2	0.01366684
32	0xbc4e6875	-0.012598147
33	0xbce6bcef	-0.028166262
34	0x3c58a7d8	0.013223611
35	0xbd11c128	-0.0355846
36	0xbd6d77e6	-0.057975672
37	0xbb21d313	-0.002469246
38	0xb8d19bd4	-9.994922e-05
39	0xbdc7b592	-0.09751429
40	0xbdbbd22c	-0.091709465
41	0xbd29b800	-0.04143524
42	0xbd170ecb	-0.036879342
43	0xbc8947db	-0.016757896
44	0x3c13c088	0.009018071
45	0xbdac460e	-0.08411799
46	0xbde55e70	-0.11199653
47	0x3d3f4554	0.046696976
48	0x3b7a9126	0.0038233488
49	0x3ab4c5a6	0.0013791814
50	0x3bccc738	0.0062493347
51	0xbd6503be	-0.055911772
52	0x3ce7ef7c	0.028312437
53	0xbc7f7f91	-0.015594379
54	0xbd84c706	-0.06483273
55	0xbb97549b	-0.00461824
56	0xbca41079	-0.020027386
57	0xbd343906	-0.043999694
58	0x3ce49e05	0.02790738
59	0xbccbe36a	-0.024888713
60	0xbdaa9ed6	-0.08331077
61	0xbdfa111e	-0.12210296
62	0x3d259b18	0.040431112
63	0xbcd58862	-0.026066009
64	0xbdaeed2a	-0.08541329
65	0x3c683d6b	0.014174799
66	0x3c4f0717	0.012635968
67	0xbc45a502	-0.012063267
68	0x3c8a794a	0.016903538
69	0xbc4888fa	-0.012239689
70	0xbbdb7bd4	-0.006698111
71	0xbd1133e5	-0.03544988
72	0xbd9dd191	-0.07705987
73	0x3c0d6745	0.008630578
74	0x3ded47db	0.11585971
75	0xbd9a9aa1	-0.075490244
76	0xbd2e6c12	-0.042583533
77	0xbd5d9261	-0.054094676
78	0xbda41f14	-0.0801374
79	0xbd4cd11e	-0.050004117
80	0xbe0f970b	-0.14022462
81	0x390a49f0	0.0001318825
82	0x3dfae5a6	0.12250833
83	0xbd2aa90f	-0.041665133
84	0xbcf7f96b	-0.030270299
85	0xbdab15c6	-0.08353762
86	0xbc0afa24	-0.00848249
87	0xbd334847	-0.0437701
88	0x3cbe7a1f	0.023251591
89	0xbdcfdd8e	-0.1014968
90	0x3d0320f9	0.032013867
91	0xbd758d1b	-0.05994902
92	0x3d3d936a	0.046283163
93	0x3c7629cc	0.015024614
94	0x3d7e8af6	0.062144242
95	0xbd12034a	-0.035647668
96	0x3d5a8e56	0.0533584
97	0xbd34ff86	-0.044189
98	0xbda39124	-0.07986668
99	0xbc14fd48	-0.00909359
100	0x3d11b6cb	0.035574716
101	0xbd86cce2	-0.06582047
102	0xbd94500b	-0.072418295
103	0x3d15e0a9	0.036591206
104	0x3d2b5bf2	0.041835733
105	0xbd07c1f2	-0.033143945
106	0xbdaed6cd	-0.08537064
107	0x3d4ce432	0.05002231
108	0xbbb0f065	-0.005399751
109	0xbca11d69	-0.019667344
110	0xbc2de552	-0.010613756
111	0x3d7ce983	0.06174613
112	0xbcdf840d	-0.027284646
113	0x3ccecb52	0.025243435
114	0xbc19d7a6	-0.0093897935
115	0xbd9a0282	-0.075200096
116	0x3d7cd52d	0.061726738
117	0xbcb71f1f	-0.022353707
118	0xbdc6fb13	-0.09715857
119	0x3c8b99ed	0.017041171
120	0x3c8624f9	0.016375052
121	0xbd879498	-0.06620139
122	0xbc9e7a23	-0.019345349
123	0x3e1d8d0f	0.15385841
124	0xbce5fb6c	-0.028073989
125	0x3ce5a9c7	0.028035058
126	0x3d15c9df	0.036569472
127	0x3d76e934	0.060280994
128	0xbd99bd2a	-0.07506783
129	0xbdd72679	-0.10505385
130	0x3cae0af7	0.021245463
131	0x3d567559	0.052358005
132	0xbaa5bb33	-0.0012644291
133	0xbcf8ecd4	-0.030386366
134	0x3c405245	0.011738365
135	0x3dceb211	0.10092557
136	0x3d3ea011	0.04653937
137	0xbca0beab	-0.019622168
138	0xbd114077	-0.03546187
139	0xbd06b377	-0.032885995
140	0xbdc45a82	-0.095875755
141	0xbc92245b	-0.017839601
142	0x3d785c6f	0.060635027
143	0xbcbb29c6	-0.022847068
144	0xbbf64dd5	-0.0075166025
145	0xbcddf384	-0.027093656
146	0xbd80fc67	-0.06298142
147	0x3bcc8232	0.0062411064
148	0x3d185178	0.03718707
149	0x3d1c6b31	0.038188163
150	0xbaee4b3f	-0.0018180384
151	0x3c753e19	0.0149684185
152	0xbdebc2c2	-0.115117565
153	0x3d485ec4	0.0489185
154	0x3bfd579d	0.0077313916
155	0xbd9081f7	-0.07056039
156	0x3db1dd13	0.08684745
157	0x3987f719	0.0002593331
158	0xbdce6168	-0.100771725
159	0x3bf2607e	0.0073967567
160	0xbca4da24	-0.020123549
161	0x3d47d101	0.048783306
162	0x3c95c0b2	0.01828036
163	0xbc2f57ee	-0.010702116
164	0xbcb54e8f	-0.022132186
165	0xbd60ffe7	-0.054931547
166	0x3d2629bc	0.040567145
167	0xbcd35b2d	-0.025800312
168	0xbd39fb2c	-0.04540555
169	0xbd4b2fdf	-0.0496062
170	0x3d7c6f31	0.061629478
171	0x3bf7c241	0.0075609987
172	0xbd08faf2	-0.033442445
173	0xbc6025a8	-0.013680853
174	0xbd68e0a3	-0.056854855
175	0x3d499bf3	0.04922099
176	0x3d702d31	0.058636848
177	0xbd04d4d8	-0.032429546
178	0xbd138b98	-0.0360218
179	0xbc2547d1	-0.010087923
180	0xbb91106a	-0.0044270055
181	0x3c339e73	0.01096307
182	0x3b6ea5ca	0.0036414736
183	0x3d1b6234	0.03793545
184	0x3cad8625	0.02118213
185	0x3d23f052	0.04002411
186	0xbd3aa96a	-0.045571722
187	0x3d29d6eb	0.041464727
188	0x3d060b9e	0.032725923
189	0xbca0ecd9	-0.019644188
190	0xbd2e0cf2	-0.042492814
191	0xbc08f7b1	-0.0083598355
192	0xbdabf601	-0.08396531
193	0x3d2de04e	0.04245024
194	0x3c44fda3	0.012023362
195	0x3ccccbd6	0.02499954
196	0x3d20a158	0.03921637
197	0xbd264d6c	-0.04060118
198	0xbc6a6267	-0.0143056875
199	0xbcd165e0	-0.025561273
200	0xbd4c0176	-0.04980608
201	0x3cc67a2a	0.024228174
202	0xbc77ccc6	-0.015124505
203	0xbda9f3cb	-0.08298453
204	0x3d4f6148	0.050629884
205	0x3d058314	0.03259571
206	0x3d1bd156	0.038041435
207	0x3d75bd9d	0.059995282
208	0xbdbb5861	-0.09147716
209	0xbd17da4c	-0.03707342
210	0x3d520374	0.051272824
211	0x3b3a2d43	0.0028408326
212	0xbd14dfeb	-0.036346357
213	0xbd945d7d	-0.07244394
214	0xbd910d43	-0.070826076
215	0xbc41c767	-0.011827326
216	0xbcc2c0a6	-0.023773503
217	0xbd434167	-0.047669794
218	0xbdae7e39	-0.08520169
219	0xb9a20424	-0.00030902133
220	0x3cbb90d5	0.02289621
221	0x3d56a188	0.052400142
222	0xbdf81492	-0.121132985
223	0xbd828a42	-0.06374027
224	0x3dd486d9	0.10377283
225	0xbb36a8b4	-0.002787155
226	0xbc8922b6	-0.016740184
227	0xbdad6205	-0.08465961
228	0xbc50299e	-0.012705235
229	0x3cb14eb9	0.021643983
230	0xbd3494d2	-0.04408724
231	0x3d7d175c	0.061789855
232	0xbcac8199	-0.02105789
233	0xbd3c38bd	-0.045952547
234	0xbc20f6ce	-0.009824468
235	0xbcbb45d3	-0.022860443
236	0xbd671128	-0.056412846
237	0xbccc6f9c	-0.024955563
238	0xbddbd303	-0.10733607
239	0xbd91f64e	-0.07127057
240	0x3b96f00e	0.0046062535
241	0x3cbd69b9	0.023121702
242	0x3cfed258	0.03110616
243	0xbcb0f3af	-0.021600572
244	0xbc85bda4	-0.01632578
245	0xbd74e753	-0.05979092
246	0xbd15ea23	-0.036600243
247	0x3c5a282d	0.013315243
248	0xbda1fb71	-0.07909287
249	0x3b8d3a35	0.0043099173
250	0xbd27e2e4	-0.040987864
251	0xbd7852ce	-0.060625844
252	0x3caaad5d	0.02083462
253	0x3d3179fb	0.04332922
254	0xbd3c2442	-0.045933016
255	0x3d47310d	0.048630763
