2 - Continuous Control -DDPG/trained_agents/ddpg_reacher20_checkpoint_critic.pth (torch_old, 308684 bytes, 9 tensors)

fc1.weight f4 [256, 33]
000000 e6 5f 06 be 91 42 6b bd 71 a1 ec 3d 9a b6 15 be
       -0.1312252 -0.05743653 0.1155423 -0.14620438
000010 0d ce 4c be 99 64 05 be be 6f 06 3e b9 e1 c2 3c
       -0.20000477 -0.13026656 0.13128564 0.023789274
000020 d3 33 a7 3d b9 70 7d bd 4d ff 35 bd 75 5f 1d 3d
       0.081641816 -0.06187508 -0.044432927 0.038421113
000030 c0 17 8a bd 18 72 a7 3d 07 04 cf bb d1 7c d1 bd
       -0.06742811 0.081760585 -0.006317619 -0.10228885
000040 c8 9c a6 bd b3 41 32 3a 85 e1 a2 3d 23 d6 9d bd
       -0.081353724 0.0006799951 0.07953171 -0.07706859
000050 39 5e b2 3c df 9f fd 3d a3 6d 84 3d 34 d3 f6 3d
       0.021773444 0.123840086 0.06466224 0.120520025
000060 b0 34 b6 bd 3c 13 db bd 0b b3 86 bb f9 1f 2a 3e
       -0.08896768 -0.10697028 -0.004110699 0.16613759
000070 85 0b 24 be f0 49 bd 3c ff 9b 2e be 90 bd fe 3b
       -0.1602002 0.023106545 -0.17051695 0.0077740625
000080 3f 1a 5c 3e 6e 72 06 be 4f 5e d8 3d 89 d4 de bd
       0.21494387 -0.13129589 0.10564863 -0.108803816
000090 fe 4a e8 bb 82 7c a2 bd 70 67 de 3c 2e a4 b1 bd
       -0.007089018 -0.07933904 0.027148932 -0.08673893
0000a0 e7 a2 17 bd 8b cd 90 bd 95 1e 27 3e 40 f6 23 bd
       -0.03702059 -0.07070454 0.1632026 -0.040029764
0000b0 19 b3 ee bc 8b 53 06 bd d7 6c 6c 3d 1f e4 97 bd
       -0.029138135 -0.032794517 0.057720985 -0.074165575
0000c0 47 de 49 bc 8c ea 9a 3c a8 e7 d6 bb c5 99 e7 bc
       -0.012321061 0.018910669 -0.0065583773 -0.028271565
0000d0 17 48 25 bc 41 b5 bb 3a 3f 82 b6 3c 10 00 ae 3c
       -0.010087988 0.0014320986 0.022278903 0.021240264
0000e0 24 d7 ce 3b f8 1f 13 3c bd 0e b1 3b cd 85 08 3e
       0.006312268 0.00897979 0.0054033683 0.13332291
0000f0 53 8a ba 3e 5c b3 0e 3e f6 02 39 bd fb f7 96 be
       0.36433658 0.13935608 -0.04516884 -0.2948607
000100 00 ac 89 b8 89 eb 0b bf cb c8 5b 3d fd 9b 9a 3c
       -6.5647066e-05 -0.54656273 0.053658288 0.01887321
000110 39 59 67 3e c7 6c a9 bb 8a 86 2c bb ac 4d 0c bd
       0.2259263 -0.005170438 -0.0026325309 -0.03425376
000120 e0 49 b9 bd 6d f2 e2 3c c9 89 a4 3b 0c 87 af 3d
       -0.09047294 0.027703488 0.005021308 0.0857068
000130 83 d7 b3 3d 1c 61 a3 bd 0e 0e 1b bd 16 b5 c0 3c
       0.0878134 -0.079775065 -0.0378552 0.023523849
000140 cb 1c 66 be 19 11 50 3d dd 18 ca 3d fd 00 c2 bc
       -0.22471921 0.050797556 0.098680235 -0.023682112
000150 5d 45 a7 3c 09 ef 8a 3c 0b 73 32 3d 43 42 48 bd
       0.020418817 0.016959684 0.043566745 -0.048891317
000160 39 ac 2f bd d7 6d 93 3d 8b a3 ea bd 94 88 54 3d
       -0.042888854 0.07198685 -0.114569746 0.051888064
000170 3b 17 99 3d e5 ef 91 bd b6 04 16 3e b8 46 d1 bc
       0.07475134 -0.071258344 0.14650235 -0.025546417
000180 90 ad ae bb 08 7e 21 3c 3f b7 4c be a9 e6 c4 bd
       -0.005330749 0.009856708 -0.19991778 -0.096143074
000190 90 2d 24 3e b7 f8 48 3d ef 17 ef 3c 81 b0 33 3d
       0.16033006 0.049065318 0.029186217 0.0438695
0001a0 0b 00 52 bd d1 29 2e bd 9a 52 0b bc 48 41 ba bd
       -0.051269572 -0.042520348 -0.0085035805 -0.09094483
0001b0 86 0f 46 be 60 05 2f 3c a5 8d 5f 3c 99 be 2e 3c
       -0.19341859 0.010682434 0.0136446105 0.010665559
0001c0 ef cf d1 bb 30 09 27 bd fb 83 90 bc 1d d0 23 3d
       -0.0064029614 -0.040780246 -0.017641058 0.039993394
0001d0 5b 2e 9c bd e8 ed 1f 3e 27 0a 6f bc bd 10 df 3c
       -0.07626029 0.15618098 -0.014589823 0.027229661
0001e0 ef df 2e 3c 92 80 aa 3b 6d 78 03 3d e7 8a c3 3b
       0.010673507 0.005203315 0.03209727 0.005967486
0001f0 fc 9f 9d 3c 5d b1 f4 3c 43 62 0f 3e c9 75 c7 bd
       0.019241326 0.02986973 0.14002328 -0.097392626
000200 0c 30 b1 bc 66 28 80 be 7e 00 49 bd e4 8a 83 3f
       -0.021629356 -0.25030822 -0.049072735 1.0276761
000210 22 21 f9 ba b0 13 90 bc 81 0b dc bd 50 89 f3 bd
       -0.0019007067 -0.017587513 -0.10744382 -0.11891425
000220 47 42 d3 bd a0 5e 98 3c e4 09 b4 bd 0f e2 34 bd
       -0.10315376 0.018599808 -0.08790949 -0.0441609
000230 22 27 e4 3e be 8d 8f bd 8b 22 06 3d 69 68 42 3d
       0.44561106 -0.07009457 0.032747786 0.047462855
000240 d5 29 5f 3c 2c 97 09 3d 2f df ea bc d4 77 f9 bd
       0.013620813 0.033591434 -0.028670875 -0.121810585
000250 29 3a a6 bd 0e 86 88 3c a5 c1 5d bd 8d d4 ef bc
       -0.08116562 0.016665485 -0.054139752 -0.029276157
000260 f5 95 d7 3c e4 47 a5 3d e0 90 dd 3b ca a1 1a 3e
       0.026316622 0.08070353 0.006761655 0.1510078
000270 75 8a 46 bc 21 11 36 bd 75 9e da bc 14 28 3d 3e
       -0.012117972 -0.04444993 -0.026686886 0.1847232
000280 9e 52 f8 3d f4 e7 0b bd 84 01 49 be e0 ac 20 3b
       0.12125133 -0.034156755 -0.19629484 0.0024517104
000290 75 42 d1 3e b8 03 70 3d 86 70 fa bb 62 3a 46 3d
       0.40871015 0.058597296 -0.0076428084 0.048395522
0002a0 48 74 93 3c 4e f6 1a 3d 4c a0 5a bc 34 13 34 bb
       0.017999783 0.03783255 -0.013343882 -0.0027477266
0002b0 b3 0b f7 bb 40 4b c3 3c 8e 30 89 3c ac d9 37 bc
       -0.0075392365 0.023839593 0.016746785 -0.011221331
0002c0 dd 80 05 3b bb 99 99 3c 16 cc 39 bd 87 28 08 3b
       0.0020370998 0.018750062 -0.045360647 0.002077611
0002d0 11 74 1e bd 92 2f 13 3d ca 98 80 3c d1 40 b3 bc
       -0.03868491 0.03593404 0.015697856 -0.021881493
0002e0 b3 07 4c 3c 6c 1e 01 3b 92 70 86 3b ef 14 c1 3b
       0.0124530075 0.001970197 0.004102775 0.005892388
0002f0 5e 49 de bc 64 26 52 3b 6c 14 ae 3b 7f 3b 3c ba
       -0.027134594 0.003206634 0.005312493 -0.00071804965
000300 99 88 62 3e da 7e c3 3d 1c 07 d5 3c 5b db 41 be
       0.2212242 0.095456794 0.026004367 -0.18931334
000310 c0 35 5d bd 35 d3 71 3f 92 0e 49 bc 02 ed 79 bc
       -0.054006338 0.944629 -0.01227154 -0.015254261
000320 36 14 38 3e 34 fb 94 3d 33 ec cb 3d 88 36 fd 3d
       0.1797646 0.07274476 0.09957161 0.12363917
000330 8e c9 1f 3c 7f 1f bf bc b9 53 bf 3d 49 5a 1b bd
       0.009752644 -0.023330448 0.09342141 -0.0379279
000340 33 ff d1 bd d4 e5 40 bd 84 bc 31 3e 53 48 b8 3c
       -0.102537535 -0.04709418 0.17357069 0.022495424
000350 a9 df 01 be 19 d8 19 3e e3 42 50 3d 69 6a 8d 3d
       -0.12682976 0.15023841 0.05084504 0.06905062
000360 05 a8 8c 3d 86 18 a1 bc 3c de 6d bd 91 cc e0 3d
       0.06867985 -0.019665014 -0.058073267 0.10976518
000370 e0 a9 f7 bc b4 54 1f bd 03 c1 65 3d cf 9b 8f bc
       -0.03023237 -0.03889914 0.056092273 -0.01753035
000380 02 67 f0 3d eb b8 5a 3e fa 6f d9 bc e0 b1 8e bc
       0.11738397 0.21359603 -0.026542652 -0.017418802
000390 1d f3 5b be 30 f1 d7 3b 88 df 91 3c 2c ae 13 3e
       -0.21479459 0.006590031 0.017806783 0.1442191
0003a0 47 2d 47 be 10 7d 3d 3d d6 41 97 3c 27 f8 3a bd
       -0.19450866 0.046261847 0.01846401 -0.045646813
0003b0 4c f2 8f 3d 0d d7 44 3d 34 42 58 bd 8f 32 49 bd
       0.07028636 0.04805665 -0.05279751 -0.049120482
0003c0 e0 cc 87 3c 92 e0 6b 3b 3b 81 39 bd 37 52 53 bc
       0.016577184 0.0035992009 -0.04528926 -0.0128980195
0003d0 40 bd 57 be 73 c5 14 3e 04 f7 97 bd 33 34 bf bc
       -0.21068287 0.14528446 -0.07420161 -0.02334032
0003e0 cd 94 59 3d f4 04 a4 3c b2 8b 45 3c a3 25 0b bc
       0.053120423 0.020021893 0.012057232 -0.00849286
0003f0 88 d3 20 3c f1 c6 46 3c c7 1f 99 bd 1e a6 fe 3c
       0.009816058 0.012132392 -0.07476764 0.03108507

fc1.bias f4 [256]
000000 31 a5 56 be a5 50 66 be 8d 8c 34 3e 57 9c d0 bd
       -0.20961453 -0.22491701 0.17631741 -0.101860695
000010 5d 8e 49 be c5 48 9c be 40 55 c8 be df 6c 9f bd
       -0.19683214 -0.3052427 -0.3912754 -0.077844374
000020 15 0a 4e bd 98 68 2e be 74 28 fd bd 13 e2 46 be
       -0.050302584 -0.17032087 -0.123612314 -0.19422178
000030 4e 68 f9 bd 88 85 44 be 86 d5 8a bd 9d 61 44 be
       -0.12178098 -0.19191563 -0.067790076 -0.19177862
000040 fd 09 24 3c 69 7f d5 be ea 39 42 be 4a 1f 3f bd
       0.010012147 -0.4169877 -0.18967405 -0.0466607
000050 87 e1 83 be 91 58 17 be 86 37 be 3d b2 d2 7d 3d
       -0.25758 -0.14779879 0.09287934 0.061968513
000060 60 9f ba bd 7b b4 80 bd bc d4 d7 bd fe 36 af be
       -0.091124296 -0.06284424 -0.10538623 -0.34221643
000070 66 f8 87 3d fe 48 53 be ca 9b 98 bc 9a 83 46 be
       0.06639175 -0.20633313 -0.018628974 -0.1938614
000080 64 ae 30 3e 95 15 98 bc 74 8a ef bc 22 20 2b be
       0.17254025 -0.018564979 -0.029240824 -0.16711476
000090 c9 8e 8a bd 58 47 84 be b2 49 e2 be 67 89 e8 bd
       -0.06765515 -0.2583568 -0.4419685 -0.113543324
0000a0 d7 8f 40 be 5d 57 ad 3d 4c c1 68 be 8c 83 fd bc
       -0.1880487 0.08463929 -0.22729987 -0.030946516
0000b0 00 52 39 be 78 92 4a be 6b 80 73 3d b4 ca 0d be
       -0.18097687 -0.19782436 0.05944864 -0.13846856
0000c0 3b 49 5e be 56 06 25 be 90 3d 0b be f1 6b 75 3c
       -0.21707623 -0.16115698 -0.13597703 0.0149793485
0000d0 6d e7 c7 bd 13 0e 04 3e 64 76 d4 3d 7c 0b 16 bd
       -0.09760938 0.12895994 0.10374144 -0.036632046
0000e0 ec 3c 03 bc e9 09 36 be bc a7 48 be 37 1a 0f bd
       -0.00801013 -0.17777218 -0.19595236 -0.03493711
0000f0 6f c4 ec bd e3 f6 84 bd 4b fa 87 bd 0a 9a 0d bd
       -0.11560904 -0.064924024 -0.066395365 -0.03457073
000100 6a fe 7c bd 61 48 91 be 2c 1f f4 bd a5 74 82 be
       -0.061766066 -0.28375533 -0.11920008 -0.25479618
000110 aa 60 04 bd 4e 6a 0e 3d b6 50 50 be db b9 87 bd
       -0.03231875 0.03476935 -0.20343289 -0.06627246
000120 59 23 e7 bd de b0 20 bc 08 3d 9e be d4 9d 80 be
       -0.11286039 -0.009807793 -0.30905938 -0.25120413
000130 08 e4 93 be e5 19 af be d3 83 a6 be 71 c6 a3 be
       -0.28884912 -0.34199443 -0.3252245 -0.31987336
000140 7a c5 14 3e b8 0b 93 3d 11 96 63 be 81 70 96 be
       0.14528456 0.071799695 -0.22225215 -0.2938271
000150 53 42 dd 3d bf 6f bf 3c 46 d6 e8 bd d6 f2 39 be
       0.10803666 0.023368714 -0.113689944 -0.18159041
000160 f4 1c 33 be 6d a6 85 be f8 01 e2 bd 9c 9f 99 be
       -0.17491513 -0.26103535 -0.11035532 -0.30004585
000170 41 c7 30 be 5e 0f d3 bd cb 07 d6 bc 3b 8d ce bd
       -0.1726351 -0.103056654 -0.026126763 -0.10085531
000180 a9 7d a0 bd 33 a0 3a be cc 17 53 be f9 72 71 be
       -0.07836468 -0.18225174 -0.20614547 -0.23579015
000190 75 61 6e be 01 ea 68 be 0e 0b 1d 3e 73 e6 3c be
       -0.23279364 -0.22745515 0.15336248 -0.18447284
0001a0 b6 b9 df bc b0 d9 8c be 54 d3 a4 bd fd 11 91 be
       -0.027310234 -0.27509832 -0.0804812 -0.28334036
0001b0 9e 26 4a bd 49 ec 33 be 6a 5c 51 be dc 5a 9e bd
       -0.049353234 -0.17570604 -0.2044541 -0.07732174
0001c0 00 72 57 bd 58 d6 12 be 6a c7 68 bd 32 e3 1b be
       -0.052598953 -0.14339578 -0.0568308 -0.15223387
0001d0 26 41 17 bd 70 a1 65 3c 17 7c 94 bd a2 2a 5c be
       -0.036927365 0.0140155405 -0.07250231 -0.21500638
0001e0 cf a9 32 be ca cd b5 bd 7f 44 8f be f5 c2 c7 be
       -0.1744759 -0.08877142 -0.27981946 -0.39015928
0001f0 2d cf 86 be 29 d7 39 be 2d 44 fa 3e c9 6d 9c 3d
       -0.26329938 -0.18148483 0.4888014 0.07638127
000200 a5 2c 7b bd 21 62 86 be f2 8c 2b 3d 76 6c fb bc
       -0.061321873 -0.2624674 0.041882463 -0.030691367
000210 4a e0 3f bd 6f 2d d9 bd 23 db 0a be f0 e4 84 3c
       -0.046844758 -0.10604369 -0.13560157 0.016222447
000220 5a 6a 04 bd 27 d7 9d bd a7 83 cd bd b2 f3 f6 3c
       -0.032327987 -0.07707053 -0.10034876 0.0301455
000230 4d f8 f2 bd 71 1b 9f be 43 46 45 bc 87 e4 10 3e
       -0.11863766 -0.31075624 -0.0120406775 0.14149676
000240 07 75 f2 bd c9 74 ff 3d 25 8b 01 be 2f d9 f1 bc
       -0.118387274 0.12473447 -0.12650736 -0.029522507
000250 86 8d 6c bd f4 51 cf bd 89 bd 43 bd 14 10 18 be
       -0.057752155 -0.10123053 -0.047788177 -0.14849883
000260 58 63 b0 bd 62 93 a1 be 35 e1 f0 bd 88 13 bb bd
       -0.08612698 -0.31557757 -0.11761705 -0.09134585
000270 30 e8 52 be 38 bb de bd 8c 96 83 be 20 5d 4b bb
       -0.20596385 -0.10875553 -0.25700796 -0.0031030849
000280 ba e1 ae be 84 80 2b be 78 53 94 bc 0f 9a 31 be
       -0.3415659 -0.16748244 -0.018106207 -0.17343925
000290 96 5a 8a be 6d 51 5c bc 5d 6b 9d be 3a 7a a9 be
       -0.27022237 -0.013447148 -0.30745974 -0.33101064
0002a0 12 43 27 be e1 c7 87 be 0a 80 54 be d3 ba 24 be
       -0.16334179 -0.26519683 -0.20751968 -0.16086893
0002b0 71 13 f3 bc f1 d9 ce bd 8f 5e 08 be 6e 89 86 bd
       -0.029672356 -0.10100163 -0.13317321 -0.065691814
0002c0 1b 98 a2 ba 50 41 8b bc 8c ee 82 be da dd 70 3c
       -0.001240495 -0.016998917 -0.25572622 0.014701331
0002d0 a8 e0 0b bd 0a 3c 03 be d3 84 98 bd 73 8b de 3c
       -0.034149796 -0.12815872 -0.07447209 0.027166104
0002e0 4d cf 96 3d 7e 30 d2 bd c3 e4 50 be 79 86 5c be
       0.07363758 -0.102631554 -0.20399766 -0.21535672
0002f0 08 09 c1 3d ef e7 86 be 5a b0 a8 be 63 2a 7e be
       0.09425551 -0.26348826 -0.32947046 -0.24820857
000300 19 19 9e bd a7 1c 55 be 42 5f e0 bd 41 ee b0 bd
       -0.07719631 -0.20811711 -0.10955669 -0.08639193
000310 4c f9 6b be c6 26 04 be 46 1e 92 be 7f cf c2 be
       -0.23044318 -0.12905416 -0.28538722 -0.38048932
000320 dc bc 86 be c7 ff 0b be 3a f8 2f be 80 17 a9 be
       -0.26315963 -0.1367179 -0.17184535 -0.33025742
000330 cf 9e d9 bd 64 33 17 be a0 85 35 be 50 ba 34 bd
       -0.106259935 -0.14765698 -0.17726755 -0.044122994
000340 5c c4 89 be 34 b8 4d be 77 e5 79 be 5d 61 df be
       -0.26907623 -0.20089799 -0.2440394 -0.4362897
000350 58 c6 5d bc c2 98 b7 be 5b 92 93 bd a1 70 15 3e
       -0.013536058 -0.35858732 -0.072056495 0.14593746
000360 75 fa 9b bd 78 68 ab bd 97 c2 45 bd 3b 80 81 be
       -0.0761613 -0.08369535 -0.04828128 -0.25293145
000370 2a 83 6b be 85 8a 73 bd bc 15 c8 bc 77 45 11 be
       -0.22999254 -0.059458274 -0.024424426 -0.14186655
000380 e0 53 25 be 95 48 30 bd e2 d1 97 be 96 6f 15 3b
       -0.16145277 -0.04303797 -0.29652315 0.0022802106
000390 20 c6 74 be a0 75 26 be e1 ce 69 bd 2b 37 90 3d
       -0.23903704 -0.16255808 -0.05708206 0.070417725
0003a0 b3 75 95 be e7 96 13 39 20 c9 2e be 3a 8b 01 be
       -0.2919136 0.00014075228 -0.1706891 -0.12650767
0003b0 06 fe a7 be 4b 92 0f be 69 dd 93 bd 4f 99 13 be
       -0.32810992 -0.1402065 -0.07219965 -0.14413951
0003c0 f7 1a 7f be 32 b6 c3 3d fa 9c 26 be 5f 17 00 3b
       -0.2491263 0.095562354 -0.1627082 0.001954518
0003d0 12 bb 4d bd 17 5e 5c bc 03 13 40 bd 5e ae 3b 3b
       -0.050227232 -0.013450167 -0.04689313 0.0028637866
0003e0 3a 05 24 be 73 a6 82 be 71 87 42 bd 5c e9 35 bd
       -0.16017619 -0.25517616 -0.04749245 -0.044412002
0003f0 bc 34 10 bd 56 2a 9c be 54 ee fb bd 6a f4 9a bd
       -0.03520654 -0.3050105 -0.12301317 -0.075661495

fc2.weight f4 [256, 260]
000000 d9 5d 52 3d e4 03 83 bd 97 26 be bd 9e 11 75 3d
       0.05135903 -0.063972265 -0.09284704 0.059831254
000010 9c 75 06 3d 89 20 87 bd 7d 9e 45 3d 15 1f 4c 3c
       0.032827005 -0.065980025 0.04824685 0.012458582
000020 f9 a0 6f 3d 2b 3f fe bb 83 9f 26 bd 9c 15 0b 3e
       0.058503125 -0.007758995 -0.040679466 0.13582462
000030 f5 0c 97 bd 3b aa a0 3d c4 31 03 bd 02 69 52 be
       -0.07375518 0.07844969 -0.032029882 -0.2054787
000040 03 b3 4c 3c ea 3f 91 3d a1 64 87 3c d2 90 cf bd
       0.012493852 0.07092269 0.016527476 -0.10135044
000050 48 93 bb 3d 13 90 d6 bc b5 45 ac 3d f9 52 bb bc
       0.09158951 -0.026191747 0.08411733 -0.022866713
000060 d3 ce 5b bd dd 03 23 be f7 6a 2c 3d 46 00 cd bd
       -0.05366404 -0.15919442 0.042094197 -0.10009818
000070 c8 c4 15 3e c2 28 19 be 7b 91 ed 3c ff 6e a3 bd
       0.14625847 -0.14956954 0.029000035 -0.07980155
000080 be 2a 61 bb 68 b8 e3 bd c4 a9 9e 3b 51 16 d1 3d
       -0.0034357752 -0.11119157 0.004842015 0.10209335
000090 73 4a 33 3d d4 23 5d 3d 23 7d a2 3d 8a 99 af be
       0.043772172 0.053989246 0.07934024 -0.34296829
0000a0 67 2e 01 3e 7c 3f 95 bd 6b d4 c0 bd 24 e3 15 be
       0.12615357 -0.07287499 -0.094155155 -0.14637429
0000b0 4a ad a4 3d cd 0c 8b bd c2 af af 3d c4 17 98 3d
       0.08040865 -0.06789551 0.08578445 0.07426408
0000c0 b0 64 c3 3d b3 00 8a bd d6 08 6f bc f3 f9 9a 3b
       0.09540689 -0.067384146 -0.014589509 0.0047295033
0000d0 c4 d5 0a 3d f5 e9 5f be 6f 8a cc bd d3 3f 48 3e
       0.03389527 -0.21866591 -0.099873416 0.19555597
0000e0 64 6c fb 3c 6c f0 68 bd 63 02 73 3d 8b 33 f5 bd
       0.030691333 -0.05686991 0.059328448 -0.11972722
0000f0 75 bf 83 3d 64 ad 43 3d b5 bf 5d bc c3 7b 22 3e
       0.06433002 0.04777278 -0.013534476 0.15867524
000100 cd a3 da bc bc a7 d4 bd e5 eb 5a bd 62 91 04 bc
       -0.026689434 -0.10383555 -0.053447623 -0.008091303
000110 27 de b6 3d 70 12 cf bd 8f ac 82 bd 20 6e c3 bd
       0.08929091 -0.101109385 -0.06380569 -0.09542489
000120 60 5a 81 bd 7a 19 5e 3c fc 1c 81 bd a8 2e 3c bd
       -0.06316066 0.013555879 -0.063043565 -0.045942932
000130 40 7c 98 bd 5f be aa 3c cd 0e 4e bb bc db 1d bd
       -0.07445574 0.02084273 -0.0031441927 -0.038539633
000140 51 a8 16 3e 58 57 eb bc ec 10 63 be 42 d0 9d bd
       0.14712645 -0.028728172 -0.22174424 -0.07705738
000150 90 59 56 3d 05 26 09 3d c7 79 86 bd 88 35 16 3e
       0.052331507 0.033483524 -0.06566196 0.14668858
000160 6a ed 57 3d 47 fa 8b bc 32 db 4b be 41 17 85 bd
       0.05271665 -0.017087115 -0.19907835 -0.06498576
000170 53 1e 1e bd 2f 6c 14 be 95 5e 7c bd 1e b0 14 3d
       -0.03860314 -0.14494394 -0.061613638 0.03630077
000180 16 2d 05 be d9 7d 9a 3c 48 ef 19 bd 53 85 f1 3b
       -0.1300548 0.018858837 -0.037581712 0.00737063
000190 bb 88 90 bb cf 8b bf be a4 ac 7d be b0 a7 5c bd
       -0.004410831 -0.37411353 -0.24772888 -0.053870857
0001a0 5b fa 5f 3d 0c 61 f3 bd ac 13 2b 3d d6 14 77 be
       0.054682117 -0.118837446 0.041766807 -0.24129042
0001b0 1f 7f 8b bc a2 7f f5 bc c9 0e a0 3b 46 2e c1 bc
       -0.01702839 -0.029968087 0.004884575 -0.023581635
0001c0 35 b9 1e 3e 06 84 c3 3d 63 87 4c 3d 7f 0a 76 bd
       0.15500338 0.09546666 0.049933802 -0.060068604
0001d0 03 c3 a3 bc bf 16 03 bd 7e 72 a6 bd f7 94 2f bc
       -0.01999045 -0.032004114 -0.081273064 -0.010716668
0001e0 04 31 92 3d 4f 0c d6 bd 49 86 8b bc ed 6d 0e 3c
       0.07138255 -0.104515664 -0.017031806 0.008693201
0001f0 8a 44 c5 bd e2 1a ba 3c c3 c6 eb 3d 1a 76 b3 ba
       -0.096322134 0.022717897 0.1151252 -0.0013691813
000200 8e 95 81 be c5 59 28 be 6a 89 4e be 74 e6 97 bd
       -0.25309414 -0.16440494 -0.20169607 -0.07417002
000210 9c 22 24 bc 6b 95 c5 bd d1 a5 06 be 6b eb 8d bd
       -0.010018017 -0.0964764 -0.13149191 -0.06929668
000220 43 d0 65 bc 7d c8 62 be 3c d6 bb bd 37 48 29 be
       -0.014026704 -0.22146793 -0.09171721 -0.16531454
000230 a5 ab 67 bd 83 56 90 3d ac de 3a bc 47 39 de bc
       -0.056560177 0.07047751 -0.011405628 -0.027126921
000240 fc 62 95 3d 85 e3 ad bd c4 a0 be bd 73 68 31 be
       0.072942704 -0.084906615 -0.09308007 -0.17325
000250 8f 60 2e 3d e2 b4 87 bd 13 ed 8b 3d ba ea ca 3d
       0.042572554 -0.066262975 0.06832328 0.09908052
000260 b0 1f 5a 3d b6 32 be bd 1f 38 8a bc d1 96 d2 bd
       0.053252876 -0.09287016 -0.016872464 -0.10282672
000270 4c 94 c1 bb 2e 44 0a be 33 4f 39 bd 6c 14 d1 bc
       -0.005907571 -0.13502571 -0.045241546 -0.025522433
000280 d7 83 8f bd 82 22 90 bd 09 bb 87 bd 1d 0a 10 3e
       -0.07007568 -0.07037832 -0.06627471 0.14066358
000290 52 f6 81 3d a2 f0 0e bd 38 ae ac 3c 76 66 8a 3d
       0.0634581 -0.034897454 0.021079168 0.06757824
0002a0 4d a9 16 3e 45 63 9c bd 9b 66 34 bc 51 45 68 bd
       0.1471302 -0.07636122 -0.011010791 -0.05670673
0002b0 be 3f 11 bd 3d 26 f3 bd 51 15 10 be 98 b1 db bd
       -0.03546118 -0.11872528 -0.14070632 -0.10727233
0002c0 34 0a f2 bd 1a df 68 3d 2f 38 32 bd 2b 62 81 3c
       -0.11818352 0.05685339 -0.043510612 0.01579388
0002d0 ba 6f 59 bc b4 f9 d4 bd e5 9d 9d bc 64 fb 83 bd
       -0.013271267 -0.103991896 -0.019240329 -0.06444433
0002e0 52 a7 59 3c 31 ee b9 bd f2 45 23 bd 5c c0 5a be
       0.013284521 -0.090786345 -0.039861627 -0.21362442
0002f0 66 5b 31 be 7c e7 79 be 0d af d8 bc 4b ca 4e be
       -0.17320022 -0.2440471 -0.026450658 -0.20194356
000300 f6 55 e8 bc 71 ce dc 3b 03 6b f7 bd 59 98 c5 3d
       -0.028361302 0.006738477 -0.12080958 0.09648199
000310 82 84 a0 bc 3a 8a bb bd 2e 13 2a 3e 2e 45 5a bd
       -0.019594435 -0.09157224 0.16608879 -0.05328863
000320 76 47 62 3d c9 67 6b 3d d2 d3 9c bc 26 33 cb bc
       0.05524393 0.057472024 -0.019143973 -0.024804663
000330 61 c8 8d 3d b2 9d a2 3d 34 66 69 bd 30 dc 8f 3c
       0.06922985 0.07940234 -0.056982234 0.017561048
000340 b5 8c bc 3c 59 cc c0 bc 41 35 e0 bd f3 99 07 3e
       0.023016313 -0.02353494 -0.109476574 0.1324232
000350 9f 01 3d be d7 1b ce bc 3c a1 e0 bd bd 95 09 3d
       -0.1845765 -0.02515976 -0.10968253 0.033590067
000360 b5 21 6f bd d4 91 ff bc 43 99 bc 3c fa 94 81 be
       -0.058381755 -0.031197466 0.0230223 -0.25308973
000370 1c 3f 8d 3d 8d fa 0f be 52 e3 5b be 95 3e 3f 3e
       0.06896803 -0.14060421 -0.21473435 0.18676217
000380 a3 79 3e 3d e0 a8 2c bc 6e f2 04 be d7 75 08 3e
       0.04650272 -0.01053831 -0.12983105 0.13326202
000390 b2 86 31 be 3d 07 88 3d 78 3a 1f be be 59 1a be
       -0.17336538 0.066420056 -0.15549648 -0.15073296
0003a0 c5 d5 69 3d 53 46 06 3e 97 21 3d bd c2 33 ea bb
       0.057088632 0.13112764 -0.046174612 -0.0071472833
0003b0 7f cb 10 3e 0a 3d 01 bd f7 bd c9 3d e6 10 b5 bd
       0.14140128 -0.031552352 0.09850686 -0.08841114
0003c0 35 9c 82 bc 39 b0 b5 bd 9f 04 ad 3c 0d ac 8a 3d
       -0.015943626 -0.088715024 0.021120368 0.06771097
0003d0 1e 6e e1 3d cb 83 a8 3c 9d eb fb bc 69 4d 00 3d
       0.11007331 0.020570656 -0.030751998 0.031323824
0003e0 83 1e 59 bc 10 97 d0 bc e7 a9 cf bc 98 5c ff bd
       -0.0132519035 -0.025462657 -0.02534957 -0.12468833
0003f0 0c 11 87 3d d3 9b 98 bc 34 93 99 bc 57 c7 f2 bc
       0.06595048 -0.01862899 -0.01874695 -0.029636068

fc2.bias f4 [256]
000000 b1 2c 75 bd 09 89 90 bd 5d a3 23 be e8 e8 db bd
       -0.059857074 -0.070573874 -0.15980287 -0.10737783
000010 f7 e7 a8 bc 09 57 18 be 0d 0c 6e bd b1 90 3f be
       -0.020618422 -0.14876951 -0.05811696 -0.18707539
000020 e7 b6 0e be 1b 75 c2 3a 70 a1 30 be 0b 80 5d be
       -0.13936959 0.0014835926 -0.17249084 -0.21630876
000030 d0 d3 58 bd 27 d6 50 be c0 02 bb bd ce 6e aa bd
       -0.052936375 -0.20394193 -0.09131384 -0.083219156
000040 3d 0f e9 bd 77 93 39 be 6f f1 25 bd f3 88 0e be
       -0.113798596 -0.1812266 -0.040513452 -0.1391943
000050 07 20 88 bd 80 ab 0b be e2 b6 29 be da 5e 3b be
       -0.06646734 -0.13639641 -0.1657367 -0.18297902
000060 6c 39 67 be 28 2c 0e be 6c ee 3d be 48 a5 47 be
       -0.22580498 -0.13884032 -0.18547982 -0.19496644
000070 2f d7 b1 3b a2 03 2a be 48 24 71 be 81 f3 98 bd
       0.005427263 -0.16602948 -0.23548996 -0.0746832
000080 7f 17 2c bc 70 fb f2 bd f6 e8 84 be ed 2a 35 be
       -0.010503649 -0.11864364 -0.25958985 -0.17692156
000090 2b ab 04 be 93 20 3d be 4f ef 82 be a6 61 26 be
       -0.1295592 -0.18469457 -0.25573203 -0.16248187
0000a0 0c 41 b8 bd a3 60 09 be 97 6f 15 be 77 13 39 be
       -0.08996782 -0.1341577 -0.1459335 -0.18073831
0000b0 3f 7f 41 be 3f c3 2b be 08 3e 26 be c8 d6 23 be
       -0.18896197 -0.16773699 -0.162346 -0.15999901
0000c0 3c 08 54 be fd cd 4c be ed dc 0e bd d4 3a 22 be
       -0.20706266 -0.20000453 -0.03487866 -0.15842754
0000d0 c1 a8 12 be 27 2b e6 bd b7 77 f7 bd 25 ba 00 be
       -0.14322187 -0.112386994 -0.12083381 -0.12571009
0000e0 4a 38 4d bd c7 e1 11 be 36 60 30 be c2 87 53 be
       -0.05010251 -0.14246283 -0.17224202 -0.20657256
0000f0 f3 41 37 be d3 4d e8 bd e7 b1 c2 bd 9a 6c 38 bd
       -0.17896251 -0.11342969 -0.095065884 -0.045025446
000100 4d a5 d3 3d 19 12 e9 bd be 02 a9 bc 74 cc 72 be
       0.10334263 -0.11380405 -0.02063119 -0.23710805
000110 3d 0e 2b be 4c 04 6f be 9e 53 2a be 22 81 f3 bc
       -0.1670465 -0.23341483 -0.1663346 -0.029724661
000120 b1 d0 10 be 94 64 ed 3c 9d 48 38 be e2 8e 22 be
       -0.1414211 0.028978623 -0.1799645 -0.15874818
000130 fe 33 02 bc 32 ec 21 be 01 95 e6 bd c6 3b b1 3b
       -0.007946966 -0.15812758 -0.11258889 0.005408737
000140 76 d3 ba bd dd c7 62 bd 68 e3 2c be a5 a2 69 be
       -0.09122364 -0.055366386 -0.16883624 -0.2281595
000150 d8 b6 ce bd b6 46 e0 bd cf 32 b7 bd 2d cd b7 bc
       -0.100934684 -0.10950987 -0.08945238 -0.022436703
000160 0a 1b 0b 3d c5 86 bf bc 2a 1d 25 be 94 89 47 be
       0.033961333 -0.023379693 -0.16124406 -0.19486076
000170 da 6f a9 bd aa 57 49 be 8c 2a 78 3b 2c 4d c9 bd
       -0.08273287 -0.19662347 0.0037867157 -0.098291725
000180 a2 12 c1 bc ba 5e 19 be 45 67 3e be 33 d8 c5 bd
       -0.023568455 -0.14977542 -0.18594082 -0.09660377
000190 c2 65 d2 bd 88 ee a4 3c c4 58 2e bd 39 85 14 be
       -0.10273315 0.020133272 -0.042565122 -0.14503945
0001a0 85 00 b2 bd d8 bf 60 bd 27 f4 39 bd 72 32 4c be
       -0.08691505 -0.054870456 -0.045398857 -0.19941118
0001b0 1c 34 4e bd 8d 36 c4 bc 37 53 49 be 38 64 1d be
       -0.050342664 -0.023951793 -0.1966065 -0.15370262
0001c0 0e 91 cb bd 3b 63 54 bd 8e 17 d2 bd 4e d4 4a be
       -0.09939776 -0.051852446 -0.10258399 -0.1980755
0001d0 3e 3a 21 be 4e 4e 17 be ff 15 2d be b6 1b 23 be
       -0.15744874 -0.14775965 -0.16902922 -0.1592854
0001e0 4c 34 b8 bd 2e 74 4f bd 85 d3 08 be 65 85 14 be
       -0.0899435 -0.050647907 -0.13361938 -0.14504011
0001f0 11 40 33 be f2 5b 3a bd 3b 63 32 be 50 f4 2a be
       -0.17504908 -0.045497842 -0.17420666 -0.1669476
000200 f4 0a 9c 3d 67 c5 17 bd d6 d7 92 be 9c 00 07 be
       0.07619277 -0.037053492 -0.28680295 -0.13183826
000210 c4 91 1b be ad e8 29 be 1b f6 10 be 81 27 1c be
       -0.15192324 -0.16592665 -0.14156382 -0.15249445
000220 82 2a 32 be b5 02 32 be af 64 2f be 78 7d b6 bd
       -0.17399028 -0.17383845 -0.17128251 -0.0891065
000230 42 0a 4a be 75 6f e2 bd 88 44 4d be e6 b1 07 bd
       -0.19730476 -0.11056415 -0.20045674 -0.03312864
000240 df 40 33 be b5 f2 3c be c9 32 4b be dd 0c 1b be
       -0.17505215 -0.1845196 -0.19843592 -0.15141626
000250 9b af 23 3b 6f 50 27 be 1a 51 3e be 90 70 13 be
       0.0024976495 -0.16339277 -0.18585625 -0.14398408
000260 c2 23 d6 bd 4f a8 a0 3d cf 79 18 3d da bd 22 be
       -0.10456039 0.07844602 0.03722554 -0.15892735
000270 c6 c3 94 bd a2 27 8f bd d9 df 2d be d7 37 2a be
       -0.07263903 -0.06989981 -0.16979922 -0.16622864
000280 d3 31 13 be 8b b5 83 be a2 0e 50 be 14 29 a3 3d
       -0.14374475 -0.25724444 -0.20318082 0.079668194
000290 b5 52 f6 3b fb 32 45 be e9 bf 32 be 31 4f 21 be
       0.0075171837 -0.19257729 -0.1745602 -0.15752865
0002a0 e4 04 06 be e1 fb 29 be 28 39 c5 bd 54 e9 05 be
       -0.13087803 -0.1659999 -0.09630042 -0.13077289
0002b0 cc 0c 89 be 15 ff b6 bc 9a d3 48 be 68 54 02 be
       -0.26767576 -0.02233843 -0.1961197 -0.12727511
0002c0 b8 eb d3 bd ba fb 8e bd 03 b6 55 be 66 9e b5 bd
       -0.10347694 -0.06981607 -0.20870213 -0.08868103
0002d0 09 33 53 be 25 06 46 be c0 c1 1a be 2f 5c d7 bd
       -0.20624937 -0.19338281 -0.15112972 -0.105156295
0002e0 e2 f0 e7 bd cd e8 9d bd 13 6f d5 bd 19 2f 4d bc
       -0.113252416 -0.07710419 -0.10421576 -0.012523436
0002f0 56 68 cd 3d 60 a5 0d be e0 5e 5d be 6c f5 91 b6
       0.10029666 -0.13832617 -0.21618223 -4.3499076e-06
000300 ce 58 9a bd 70 86 9d bd db 47 32 be 2b df 12 be
       -0.075364694 -0.076916575 -0.17410223 -0.14342944
000310 49 cc e9 3c c6 9c 3e 3e 07 26 5d be 9e d9 19 be
       0.028539794 0.18614492 -0.21596538 -0.1502442
000320 40 da 3c be e4 1e a9 3c 0c 03 a8 bd 87 db 6b be
       -0.18442631 0.020644613 -0.08203706 -0.23032962
000330 81 69 34 be 08 c8 22 be 89 84 0f bd 7f 9f b8 bd
       -0.17618372 -0.15896618 -0.035038505 -0.090147965
000340 fa 8b 11 bd 12 68 0f be 50 62 a5 bd 01 de 20 be
       -0.035533883 -0.14004543 -0.08075392 -0.15709688
000350 f4 da 07 be 5d 8a 70 bd 02 f8 b4 bd 29 83 21 be
       -0.13267118 -0.058725704 -0.08836366 -0.1577269
000360 1b 1b 7a be 99 9e 14 be 35 5b 69 be ab 49 e4 bd
       -0.24424402 -0.14513625 -0.22788699 -0.111468635
000370 2b f4 22 be 71 85 b6 bd 59 a7 84 be e1 52 0b be
       -0.15913455 -0.08912171 -0.25908926 -0.13605835
000380 9d 42 3a be 70 dc 18 be 09 2f 42 be 5d db 01 be
       -0.18189473 -0.1492784 -0.18963255 -0.12681337
000390 8c 85 d4 bd 71 b4 42 be f0 0b f4 bd 85 5f 60 bd
       -0.103770345 -0.19014145 -0.119163394 -0.054778595
0003a0 49 35 84 3d c1 5c f0 bd b4 22 d9 bd c3 d4 57 be
       0.06455476 -0.117364414 -0.10602322 -0.21077256
0003b0 0b f2 22 be 3b 2d a1 bd 26 6c 3c be 5b fd 97 bd
       -0.15912645 -0.07869955 -0.1840063 -0.074213706
0003c0 61 11 10 be f1 c2 8b bd 2a 72 7d bd 49 f8 28 be
       -0.1406913 -0.068242915 -0.061876453 -0.16500963
0003d0 49 62 e7 bd 59 06 ab bd 15 46 60 be db c6 00 bd
       -0.11298043 -0.0835082 -0.21901734 -0.031439643
0003e0 7a 37 35 be 9b 97 eb bd 50 b2 0a be a7 18 2d bd
       -0.17696944 -0.11503526 -0.13544583 -0.04225984
0003f0 d3 4a 2a be 31 38 67 bd b8 48 dd bc 66 4c 5b be
       -0.16630106 -0.056450073 -0.027012214 -0.21415862

fc3.weight f4 [1, 256]
000000 d2 86 9c bc e1 bb c0 3c a2 9d 2b bd ba 44 07 bd
       -0.019107256 0.023527088 -0.041898377 -0.033024527
000010 48 81 25 3d 4c 11 0d 3a 95 0e ff 3c b9 61 44 3d
       0.040406495 0.00053813006 0.031134883 0.047944758
000020 fe f0 11 bd 48 e0 12 3d 45 9a 1d bd ef 12 7f bd
       -0.03563022 0.035858423 -0.0384772 -0.062273916
000030 8d cb e0 3c cf e0 d1 bd 20 20 b4 3c 7e c8 90 3c
       0.02744081 -0.10247957 0.021987975 0.017673727
000040 f7 21 df 3c cd 59 5d 3c c9 2f 77 3c 16 63 07 bd
       0.027237875 0.01351018 0.015087076 -0.03305348
000050 be 09 40 3d c9 25 b3 3d 5a 88 0f bc fd 0d 3a 3d
       0.04688429 0.08747441 -0.008760536 0.045423497
000060 12 91 34 3c 95 ed bd 3c c5 af 1b 3c e8 f7 28 bd
       0.011020916 0.023184577 0.009502356 -0.041252047
000070 c9 4e 8c 3c 14 b3 a1 bd 8b c1 8f 3d 9d e9 a6 bd
       0.017127411 -0.078954846 0.07019337 -0.08150027
000080 37 bc a3 3c 9b 43 72 3c 56 50 ab bd 54 c4 c3 bc
       0.019987209 0.014786626 -0.08364932 -0.023897327
000090 f2 ed 0f bd b1 13 34 bd 91 25 36 3d 11 94 1c bd
       -0.03513903 -0.04396409 0.04446942 -0.038227145
0000a0 1b 1d df 3c 2a 09 46 bd 27 cd 75 ba e1 c8 53 bd
       0.027235558 -0.048348583 -0.00093765784 -0.051705245
0000b0 6e a1 86 3c 48 95 26 bd af 98 3f bd 00 e6 34 bd
       0.016434398 -0.04066971 -0.04677647 -0.044164658
0000c0 87 4f 59 bd 9d 0a dc bc 3c 78 30 3d 16 1c ef bc
       -0.05305436 -0.02686053 0.043083414 -0.029188197
0000d0 4e cc db 3b 6e 82 16 bd e5 10 72 bd a8 ac 1c bd
       0.0067077046 -0.03674548 -0.059098143 -0.038250595
0000e0 2d 9a 96 3c 82 53 4c bd 92 c8 34 bd 45 4d da bc
       0.018384064 -0.049884327 -0.04413659 -0.026648173
0000f0 5b 56 6c 3d af aa d7 3c f0 49 da 3c 2f 09 ce 3c
       0.057699542 0.026326505 0.026646584 0.025150863
000100 aa 82 51 3d 2b aa f6 bc 75 b1 ce 3c 5c 97 0a bd
       0.05115 -0.03011044 0.025231102 -0.033835754
000110 23 60 91 bc 1a 58 67 bc 21 c4 2b 3d e2 f9 aa 3c
       -0.017746037 -0.014120126 0.04193509 0.020871107
000120 c5 a6 93 bd aa bf 2e 3d 38 4c 16 bd 98 5f f9 bc
       -0.07209543 0.042663254 -0.03669378 -0.03044109
000130 91 ae c1 3c af d6 12 3d c1 f7 bf 3b ce 58 6c 3d
       0.02364281 0.03584927 0.005858392 0.05770188
000140 95 ed 49 3d 35 60 28 3d a2 f8 e2 bc bf 0b 69 bd
       0.04929884 0.041107375 -0.027706448 -0.056895968
000150 17 85 33 3d 9c 29 f1 bd 9f 13 d2 bc 84 68 f6 3c
       0.043828096 -0.117755145 -0.025644122 0.030079134
000160 a1 32 2b 3d 1e 9c 14 3d a6 4f c2 3c d2 9c a2 bd
       0.04179633 0.036281697 0.02371962 -0.07940067
000170 84 e6 07 3d f4 62 98 bd 4b b5 98 3c 23 c0 73 3c
       0.03317882 -0.07440749 0.018641135 0.014877352
000180 ce f5 bf 3c 0c 5c c8 bd 78 f1 c2 bc 4b c5 06 bd
       0.023432638 -0.097831815 -0.023796782 -0.032902997
000190 34 e2 b8 3c 57 e8 1f 3d e4 c9 9e 3c cd c5 21 3d
       0.0225688 0.039039936 0.019383378 0.03949528
0001a0 aa c1 0c bd 0a 89 95 3c 0a 8e 30 3d 2d f9 bb bc
       -0.03436438 0.018253822 0.04310421 -0.022945965
0001b0 77 99 b3 3c 19 92 08 3d 93 48 ff bc c1 2e 81 3d
       0.021923764 0.033342455 -0.031162536 0.06307746
0001c0 4a 95 d5 bc 53 ef ec 3c 8b 1c 3d bd c3 23 10 bd
       -0.026072163 0.028922712 -0.0461698 -0.035190355
0001d0 63 4f fc bc 28 89 0c 3d 4f 30 28 bd 63 f3 96 bc
       -0.030799573 0.03431049 -0.041061696 -0.018426603
0001e0 ed 64 98 bc c2 9c 9f 3c 98 ae 38 bd 24 f5 fb 3c
       -0.018602813 0.019483928 -0.04508838 0.03075654
0001f0 4e c6 8b bd 9d 50 43 bd 01 1b 48 bd 4e 1c 28 bd
       -0.06824933 -0.0476843 -0.048853878 -0.04104262
000200 81 28 20 3d 36 a3 01 3d fc 11 01 bd 88 5e 31 bd
       0.039101128 0.03164979 -0.03151129 -0.043303043
000210 fc fb 69 bd f3 e1 db 3c 7b 55 c8 bc fa a2 b1 bc
       -0.057125077 0.02684114 -0.024454823 -0.021684159
000220 28 88 2f bd 6d 3c 1b 3d 50 d0 e7 3b 77 98 27 bd
       -0.042854458 0.037899423 0.0070743933 -0.040916886
000230 c3 a9 8d bd 55 49 fc 3c fd b9 65 3d 9b 95 7d 3c
       -0.06917145 0.030796686 0.056085575 0.015477563
000240 60 36 57 3d c1 3e 1c bd 62 1a 85 bd 8c 87 81 bd
       0.05254209 -0.038145784 -0.06499173 -0.06324682
000250 68 e5 14 3d 43 50 d9 3c 63 39 74 bd 9e 84 5e bd
       0.03635159 0.02652753 -0.05962504 -0.054325692
000260 75 0e 2c 3d 0d 4d ef 3c 86 e0 85 3d fc 08 2a 3d
       0.042005975 0.029211545 0.06536965 0.041512474
000270 0e db 35 3d 86 86 a2 bc ac e8 22 bd c6 b2 42 3d
       0.04439836 -0.019839536 -0.039772674 0.047533773
000280 8b 7a cf bd 94 58 66 bd 5b f6 8e 3d cf 95 4f 3d
       -0.10130795 -0.05623682 0.06980582 0.050679978
000290 c1 fc 8b 3c 4f 28 be bc 92 a5 b4 bc 5a b3 f6 bc
       0.017088296 -0.02321258 -0.022051606 -0.030114818
0002a0 fd c2 9c bc d4 11 59 bd d5 2c 50 bd d7 eb 95 bd
       -0.019135946 -0.052995518 -0.050824005 -0.073203735
0002b0 48 c0 4d bd ae e5 d4 3c 45 30 ae 3d 92 c8 bc bc
       -0.0502322 0.025988426 0.085053004 -0.023044858
0002c0 e3 15 5e bd 17 9e a0 3c 4b 30 9c bc 3a 7d ef bc
       -0.05422009 0.019606633 -0.019065997 -0.029234517
0002d0 b0 eb 83 bd b0 4d 28 bd d2 e4 99 3d df 55 04 bd
       -0.06441438 -0.041089714 0.07514347 -0.032308456
0002e0 9f 30 a2 bb 98 fd b7 3c 06 92 00 3d e6 d3 c5 3c
       -0.0049496437 0.02245979 0.03138926 0.024148893
0002f0 2f 81 25 3d 44 e4 14 3d 1b fb 85 bd a4 99 85 3c
       0.040406402 0.036350504 -0.06542035 0.016308613
000300 c3 47 de bc e9 33 48 3d 2f d3 10 bd 93 64 11 bc
       -0.027133828 0.04887763 -0.03535765 -0.008874076
000310 56 2a 16 3d 22 dd 73 3d fc 88 92 3d 89 9d bc 3d
       0.03666147 0.05953706 0.07155034 0.09209735
000320 1e 3f 1d bd 40 38 95 3d ea 0f e3 bc aa cd 58 bd
       -0.03839027 0.072861195 -0.02771755 -0.05293051
000330 76 b4 1d bd 71 34 18 bd 7f 9d ca 3c ae 22 02 3d
       -0.03850218 -0.037159387 0.024733303 0.031771354
000340 02 27 e4 3c 1b 25 55 3d 9f a8 2f 3d a3 75 e3 3c
       0.027850632 0.05203734 0.04288542 0.027766054
000350 d4 89 15 3d 04 0f d7 3c f4 cf 7c 3d 3d 32 a4 3c
       0.036508396 0.026252277 0.061721757 0.020043487
000360 ee f1 32 bb 9d 44 6f 3d 75 f0 f1 bc 6c b7 1e 3d
       -0.0027304846 0.058415044 -0.029533604 0.038749143
000370 29 98 a4 3c 70 e8 24 3d 58 80 66 bd 37 5a ec bc
       0.020092087 0.040260732 -0.056274742 -0.028851612
000380 ef fc d5 bc be ef 3b 3d 3a 7a ac bc e8 3f ed bc
       -0.026121585 0.045882933 -0.021054376 -0.028961137
000390 ba 3e 3b bd ef 87 bb bc e0 4c 31 bd 38 5a d0 3c
       -0.045714118 -0.022891967 -0.043286204 0.025433645
0003a0 2f 37 0b 3d 56 c0 90 bd 52 68 85 3d f5 78 53 bd
       0.033988174 -0.07067935 0.06514038 -0.051629025
0003b0 93 9f a5 bc 5d 7e ff 3c d4 9c 9e bc db 95 01 3d
       -0.020217692 0.031188184 -0.01936189 0.031637054
0003c0 dd 30 80 bd d3 6f 64 bc 63 d1 c4 bc 0c d1 bb bd
       -0.0625932 -0.013942677 -0.024025625 -0.09170732
0003d0 d0 d9 26 bd be c5 ce 3c 16 c0 20 bd 3b 83 1e 3d
       -0.040735066 0.025240775 -0.039245687 0.03869937
0003e0 01 4f 57 bd 9c d3 9e 3c 5e 25 a0 3a f7 b3 11 3d
       -0.05256558 0.019388013 0.0012218168 0.03557202
0003f0 8d 74 32 3b f5 31 fa 3c 7d ef f4 3c 24 bd 4f bd
       0.0027230114 0.0305414 0.029899353 -0.050717488

bn1.weight f4 [256]
000000 75 b3 0f 3e c9 9f 01 3f 1c 81 b0 3d 59 a0 91 3e
       0.14033301 0.5063444 0.08618376 0.28442648
000010 33 b0 b1 3e 6f 9f 16 3f f7 dd e5 3e 6e 62 63 3f
       0.34704742 0.58837026 0.44895908 0.88822067
000020 0d 4c d5 3e 98 23 ce 3e ae ae 41 3f d5 7a 99 3e
       0.41659585 0.4026153 0.75657165 0.29976526
000030 fb 4d 4c 3f 51 db 37 3f f1 9e 2c 3f 06 21 00 3f
       0.7980649 0.71819025 0.67430025 0.5005039
000040 f6 12 96 3e a4 a6 32 3e bf 00 30 3f 4f 40 d1 3e
       0.2931134 0.17446381 0.6875114 0.40869376
000050 96 c7 50 3e a3 98 8a 3e d3 90 86 3f e0 5c d1 3e
       0.20388636 0.27069578 1.0512947 0.4089117
000060 63 e5 69 3e 9d c6 92 3e f2 63 2b 3f b4 9c 05 3f
       0.2284141 0.28667155 0.6694938 0.52192235
000070 15 40 d2 3d 17 fd ff 3d 05 b5 5b 3f d8 f6 42 3e
       0.10266129 0.12499445 0.8582309 0.19039476
000080 33 5e 9a 3e 26 8b a2 3d 07 6b ba 3e b3 fa 9f 3d
       0.30149993 0.07936697 0.3640978 0.07811489
000090 01 54 c5 3c ba 33 a0 3e 52 56 3d bc 2b 76 fa 3e
       0.024087908 0.31289464 -0.011556225 0.4891828
0000a0 c5 0f 66 3d 05 c0 0e 3e 17 a6 e3 3e b1 e3 ec 3e
       0.056167383 0.13940437 0.44462654 0.46267465
0000b0 00 16 f2 3e bc 5d a8 3e d7 d7 89 3e f0 ee 99 3e
       0.4728241 0.32884014 0.26922485 0.30065107
0000c0 64 e8 77 3c fa a0 2b 3f 54 a8 13 3f 5c 68 0a 3f
       0.01513109 0.67042506 0.57678723 0.5406549
0000d0 67 60 a4 3e 93 07 db 3e 52 fa ed 3e e2 1b 31 3f
       0.321048 0.42779216 0.46480042 0.6918317
0000e0 87 f0 5a 3e 78 9b fb 3e a5 18 27 3e 56 8f 6d 3e
       0.21380816 0.4914205 0.16317995 0.2319921
0000f0 8c 65 53 3e 6b 87 b0 3e b7 36 13 3f 2c 4c 13 3e
       0.20644206 0.34478316 0.57505363 0.14384526
000100 05 a7 fa 3e 0a 63 1a 3f 3c 79 2c 3e 00 02 e8 3e
       0.4895555 0.6030737 0.16843122 0.45314026
000110 69 ca bd 3e 69 a9 85 3e ac 84 19 3f ad 24 75 3e
       0.3706849 0.26105812 0.59968066 0.23939772
000120 bc de 14 3f 56 22 9e 3e be 67 2c 3f 99 10 37 3e
       0.58152366 0.3088557 0.673458 0.17877425
000130 4e 8e 7b 3e 16 2e 8d 3e 0d 4a 2f 3e 8c 8d 03 3e
       0.24566004 0.27574223 0.17118092 0.12846965
000140 46 b3 68 3c 58 39 c7 3e 02 af f7 3e 17 ac 12 3f
       0.014202898 0.38910937 0.48375708 0.5729384
000150 ad a2 ba 3e 36 71 a2 3e 10 f3 09 3f 0d d7 40 3d
       0.36452237 0.31726998 0.5388651 0.04708009
000160 19 fd f1 3e c3 ef b0 3e 24 8b ea 3e 2c fa 92 3e
       0.4726341 0.34557924 0.4580928 0.2870649
000170 da de f5 3e 13 b7 33 3f 2c 7a c9 3e 01 6b 90 3e
       0.48021585 0.70201224 0.39351022 0.28206638
000180 86 34 76 3e 17 54 d5 3e 4e bf 3e 3f 21 53 17 3f
       0.24043474 0.41665718 0.7451066 0.5911122
000190 60 9a 04 3f c6 0d 66 3e 5d c5 1d 3f 7b aa 54 3e
       0.5179806 0.22466192 0.6162928 0.20768158
0001a0 70 2c 93 3e f2 a4 6d 3e 30 81 e7 3e df 11 d7 3e
       0.2874484 0.23207453 0.4521575 0.42005822
0001b0 b1 86 0b 3f fb 91 8a 3e 19 e4 73 3e 7d e8 d7 3d
       0.545024 0.270645 0.23817481 0.105423905
0001c0 7b 04 27 3e 64 63 df 3e 07 99 2e 3e e0 3e 27 3e
       0.16310303 0.43630517 0.17050563 0.16332579
0001d0 28 5a 95 3e 98 93 77 3e 55 b8 4a 3e a2 59 3d 3f
       0.29170346 0.24177396 0.1979688 0.73964894
0001e0 55 39 01 3f 7a 26 03 3f 93 f0 43 3e c5 16 2e 3f
       0.50478107 0.51230586 0.1913474 0.68003494
0001f0 c5 ed fd 3e e6 23 b3 3e 6b 99 15 3a ec 80 9d 3e
       0.49595466 0.34988326 0.000570676 0.30762422
000200 95 c9 92 3e 48 97 e0 3e 77 df a4 3d 4c fd 29 3f
       0.2866942 0.43865418 0.08050435 0.66402125
000210 d7 90 29 3f 20 3a cc 3c bf bf 1b 3f 85 50 11 3f
       0.66236633 0.02493006 0.60839456 0.5676349
000220 98 87 f3 3e 04 fa 4c 3e 31 8e 01 3f 6f e7 eb 3e
       0.47564387 0.20017248 0.5060759 0.46075007
000230 28 77 81 3e bc 57 d5 3e 47 c7 99 3e e3 19 47 3f
       0.25286222 0.416685 0.3003485 0.77773875
000240 7e 01 85 3e be 6d b6 3e d8 3b 35 3e 91 bd 41 3e
       0.259777 0.35630602 0.1769861 0.1891997
000250 b4 33 22 3f 07 42 0e 3f 47 e0 0f 3d f9 47 a9 3e
       0.6336014 0.555695 0.035125997 0.33062723
000260 02 a3 c2 3e 40 5d dc 3e 90 f3 5c 3e 13 19 06 3e
       0.3801499 0.43039894 0.21577287 0.13095503
000270 f5 10 d6 3e c3 3f 30 3e 8e 1b 18 3f 52 92 ea 3d
       0.41809812 0.17211823 0.59417045 0.1145369
000280 97 df c7 3e e5 ce 43 3f b8 e0 6e 3e 5e b1 4a 3d
       0.39037773 0.7648757 0.23327911 0.049485557
000290 a9 7c dd 3e 5f cf 95 3e 62 4c 12 3f f7 bb 13 bd
       0.4325917 0.29259774 0.571478 -0.03606793
0002a0 d7 dc af 3e 75 08 cb 3e ca 86 b1 3e fe 62 cc 3e
       0.34348175 0.3965489 0.34673148 0.39919275
0002b0 43 22 ed 3e 72 27 f7 3d 05 c4 9e 3d 07 8f 24 3f
       0.46315202 0.120680705 0.077522315 0.6428074
0002c0 9d 1b 06 3f fa f1 f8 3e 9b cb 44 3f 73 37 9d 3e
       0.52385885 0.48622113 0.7687318 0.30706367
0002d0 c6 8e 0e 3f b3 4d f5 3e 76 6f 95 3e b3 d2 18 3f
       0.55686605 0.47910842 0.291866 0.596965
0002e0 f9 81 33 3e b8 a5 d4 3e 78 f3 3c 3f 2b e8 62 3e
       0.1753005 0.41532683 0.73809004 0.22158878
0002f0 a2 b5 40 3e 49 41 28 3f 75 51 9e 3e e7 61 6d 3e
       0.18819287 0.6572462 0.30921522 0.23181878
000300 6d a8 d8 3e 45 3f 6b 3e a2 e3 fb 3e 92 5d 0a 3e
       0.42316 0.22973354 0.49197108 0.13512257
000310 48 19 ee 3e 1e 00 52 3f 40 28 f1 3d 1a 4c ed 3e
       0.46503663 0.8203143 0.11775255 0.46347123
000320 f8 54 e8 3e dc 1d 44 3e eb 50 22 3f b6 a3 fa 3e
       0.45377326 0.19152015 0.6340472 0.48953027
000330 cf 83 93 3e ad dd 4d 3e 81 72 9e 3e 91 24 01 3f
       0.288115 0.20104094 0.30946735 0.5044642
000340 6c 1b 9c 3e 99 84 27 3f 63 56 70 3e fe d1 7a 3e
       0.3048967 0.654367 0.23470454 0.24494168
000350 7b b3 fd 3d 61 27 f4 3e 05 8d be 3e c3 7c 2e 3f
       0.12387749 0.47686294 0.37216964 0.6815912
000360 4d 18 4f 3e ce 47 69 3f 28 6a 0f 3e 9e 2b 31 3f
       0.20224114 0.9112519 0.14005339 0.6920718
000370 de c5 c5 3e a1 bc 8e 3e e7 7e 05 3f 9f 10 1c 3e
       0.38627523 0.27878287 0.5214676 0.15240715
000380 55 f9 d7 3e c0 46 04 3f 58 55 0a 3e 1e 2c 17 3e
       0.42182413 0.51670456 0.13509119 0.14762923
000390 ea 5a 2b 3e 10 5b b3 3d 87 b1 0b 3f 89 21 0c 3f
       0.167339 0.08757603 0.5456776 0.5473867
0003a0 95 28 c8 3e b2 3a 5a 3e 47 6b 3b 3d 54 8f fb 3e
       0.39093462 0.21311453 0.045756605 0.49132788
0003b0 a0 92 69 3e ae 3b f2 3e 61 5d ed 3e bf ee 10 3f
       0.22809839 0.47311157 0.46360305 0.566143
0003c0 9c 57 21 3f 5c e8 ae 3e 50 09 78 3f cb ad 58 3f
       0.63024306 0.3416165 0.9688921 0.8464019
0003d0 f5 31 30 3f d0 a0 2a 3f 2d 27 17 3f 75 d2 56 3f
       0.6882623 0.6665163 0.5904415 0.8391488
0003e0 8e fb 4c 3f 05 33 af 3e a8 b3 3b 3f 00 11 35 3f
       0.8007134 0.34218612 0.7332101 0.70729065
0003f0 50 bb b5 3e d9 1a ef 3e fd 8c 77 3e 9e b7 28 3f
       0.3549447 0.4670017 0.24174877 0.6590518

bn1.bias f4 [256]
000000 c3 05 99 3d a8 d2 13 3e 3d 1a 52 3e ce bc 83 3c
       0.07471802 0.14435828 0.20517822 0.01608124
000010 d1 ca b7 3d ed eb f9 bc 38 11 0a 3e 69 98 67 3e
       0.08974231 -0.030508006 0.13483131 0.22616734
000020 bd 1c 3e bd b1 28 dd 3d 08 83 86 bc 2a 70 7d 3c
       -0.046414126 0.10798777 -0.016419902 0.0154686365
000030 df 6b 91 bc dc 42 85 bd bc 82 15 b9 81 8c 8f 3d
       -0.017751632 -0.06506893 -0.0001425845 0.07009221
000040 f5 ef 6d 3e b0 08 be bd 11 85 c8 3d 34 41 12 bd
       0.23236068 -0.09279001 0.097910054 -0.035706714
000050 ef fe 84 3d 7f fe ec 3d fd ed f6 3d 7a 8e a9 3b
       0.06493937 0.11571979 0.120571114 0.0051744552
000060 b4 d5 d4 3d 63 a5 65 3e d3 8d 97 3d bf 5c 27 3d
       0.10392323 0.22426371 0.07400098 0.040859934
000070 8f a4 20 3c 8e 3c a8 3d fb 49 0f 3e fa a3 24 3d
       0.009804859 0.08214675 0.13993065 0.040195443
000080 d4 c3 a0 3c 02 af 13 3e 9b 50 d7 3d 8f ca 63 be
       0.019624628 0.14422229 0.10513421 -0.22245239
000090 1f ab 83 be 35 01 f3 bd f1 9c 5d be 51 3d a0 3e
       -0.25716493 -0.118654646 -0.216419 0.3129678
0000a0 74 e8 1a be 49 95 72 3e 82 b5 b0 3c 0b e5 66 3e
       -0.15127736 0.2368976 0.021570925 0.2254831
0000b0 27 75 a9 bc 11 c4 44 3d ba 39 8d bd b9 c8 21 be
       -0.020685745 0.048038546 -0.06895776 -0.15799226
0000c0 85 22 50 be 87 b8 31 3e 41 e0 aa 3a 10 90 58 3e
       -0.20325668 0.17355548 0.0013036804 0.21148705
0000d0 f7 23 87 bd e5 ab 8d 3d e0 d9 0d 3e 63 cf 5e 3e
       -0.065986566 0.06917552 0.13852644 0.21758799
0000e0 22 70 67 bd 13 52 2c 3d 16 22 b2 3d 46 f4 5f 3c
       -0.056503423 0.04207046 0.086979076 0.013669079
0000f0 ad 90 a8 3b d7 3b ae bd 18 bc 08 3d dd 48 19 3d
       0.0051442 -0.08507507 0.033382505 0.037423003
000100 55 cd cd 3d 0b 3c 04 3e 7e 3b 37 3e 6f b6 2d 3d
       0.100489296 0.1291353 0.17893788 0.04241031
000110 59 d3 1b 3e c5 3c 89 3d 30 c8 99 3d e9 40 8f 3d
       0.15217341 0.06701044 0.07508886 0.069948025
000120 0d b5 b3 3d 8c f5 c8 3d a1 70 6d 3d 91 a4 ef 3d
       0.08774767 0.09812459 0.05796874 0.117013104
000130 02 6f 0d 3d 72 13 06 be 4b 3b d2 bd be aa bd bd
       0.034529693 -0.13093355 -0.102652155 -0.09261082
000140 72 d7 6c be 39 0f 0d 3e 35 32 fd 3c d3 b7 ed 3d
       -0.23129061 0.13775338 0.03090773 0.11607327
000150 62 a1 b8 bd ab 79 d3 3d c7 c4 d4 3c 3f 36 77 be
       -0.09015156 0.10325941 0.025972737 -0.24141787
000160 47 a6 95 3d 04 32 c4 3c b6 48 95 3d 41 d2 e3 3c
       0.073071055 0.02394963 0.07289259 0.027810218
000170 f0 8d b7 3c ed 66 b6 3d ce c7 a4 3d e4 1e 5e 3d
       0.022406548 0.0890635 0.08045922 0.05422868
000180 77 d2 76 3d 84 ee 09 3e f4 1b d7 3d d6 d1 29 3e
       0.06025931 0.13469893 0.105033785 0.16583952
000190 e1 ce 7a 3c ba a0 3c 3c 76 0e d9 3d 36 60 b6 bd
       0.015308113 0.01151293 0.10598461 -0.089050695
0001a0 33 c0 79 bc 4b 31 84 3d eb dd cd 3d aa 22 38 bc
       -0.015243578 0.064547144 0.10052093 -0.011238733
0001b0 7f 7a 8c bc 4c 45 2c 3d 8b 07 23 3e 37 b4 a3 bd
       -0.017148254 0.042058274 0.15920846 -0.07993358
0001c0 89 81 38 be e7 2c 1c 3c 8e 70 8b 3d 8f a6 de bb
       -0.18018164 0.00953219 0.068085775 -0.0067947577
0001d0 b2 76 88 3d 70 78 bd 3d 44 30 28 3a 64 d7 62 bd
       0.06663264 0.09251487 0.00064158835 -0.055381194
0001e0 33 63 dd 3d 9d b0 0b 3d 2a 47 01 3e 2a 21 b9 3d
       0.108099364 0.03410398 0.12624803 0.09039529
0001f0 96 9f 6a 3e 48 c6 31 3d af 76 86 be 51 11 30 3e
       0.2291244 0.043401986 -0.26262423 0.17194106
000200 64 1c 04 3d 76 70 4c 3e a8 73 49 bd 4c 73 1d 3e
       0.032253638 0.19964775 -0.049182564 0.15376014
000210 0a ff ca 3d 5b a0 37 3e 97 b9 cd bd 38 70 97 bb
       0.09911926 0.17932265 -0.10045164 -0.004621532
000220 54 f3 3e bd 20 dc 31 3c fb 8f c0 3d 56 5e c7 3d
       -0.046618775 0.010855705 0.09402462 0.0973479
000230 d2 39 f8 3d a0 ce af bd dd 9f 82 3c ef 94 2c bc
       0.12120403 -0.085843325 0.01594537 -0.010533555
000240 6a ac a0 bd 09 81 29 3e 74 38 2a 3d fc 67 8f 3d
       -0.078453854 0.1655313 0.041557744 0.07002255
000250 23 cf 39 bd e1 1d 0f 3d b9 c8 f7 bd f4 9e 1b 3e
       -0.045363557 0.034940604 -0.12098832 0.15197355
000260 9c 0f f4 3d d6 b3 9f bd ab 2b 57 3c a9 8a 54 3e
       0.1191704 -0.07797973 0.01313297 0.2075602
000270 e3 eb 5a 3e 0b 52 3e 3e 01 de e2 bc 37 ec 00 3e
       0.21379046 0.18585984 -0.02769375 0.12590109
000280 c3 4a ec 3d 2c c5 10 3e 5c 7a 30 3c a7 18 7d be
       0.11537697 0.14137715 0.01077136 -0.24716435
000290 80 4f db 3d c8 22 bb 3d 2f d2 5a 3d d8 93 0e be
       0.10708523 0.09137493 0.053423103 -0.13923585
0002a0 64 33 d5 3c a3 85 91 3e be 94 64 be 15 25 f7 3c
       0.026025482 0.2842227 -0.22322366 0.03016905
0002b0 4d 29 bc bb 80 ec 65 3e 01 d1 68 3e c6 51 12 3e
       -0.005742228 0.22453499 0.22735979 0.14289007
0002c0 4b 02 0f 3e f4 a0 49 3d 75 e9 af 3b f3 bd 2a be
       0.13965718 0.049225762 0.0053684064 -0.16674022
0002d0 4b fd ec 3d 9c 92 01 3d 99 cb bf 3d ef f4 19 bd
       0.11571749 0.03163396 0.09365005 -0.037587103
0002e0 73 0f 93 3e 68 a3 5f be af e4 53 3d ef 14 5f bd
       0.28722724 -0.21839678 0.05173176 -0.054463323
0002f0 4e 55 db 3d 26 66 97 3e 5c 13 d8 3d 00 b6 4e 3c
       0.1070963 0.2957012 0.105505675 0.012616634
000300 e2 ea ae 3d 0c 95 36 bd cd aa e6 3c 3c e8 64 3c
       0.08540894 -0.044575736 0.028157616 0.013971385
000310 91 e5 d7 bc d2 cb 44 3e 33 68 96 3d 40 4a f3 3d
       -0.026354583 0.19218376 0.07344093 0.118793964
000320 79 c2 9f 3d 45 bb f1 3d 5f 8c 6d 3d a2 d8 f3 bd
       0.078007646 0.11803297 0.057995196 -0.11906554
000330 a7 f2 4e 3a bb 7c fc bb f8 4f d6 3d b1 25 3d 3e
       0.00078944344 -0.0077052987 0.104644716 0.1847141
000340 9f df 58 3d e0 8f 1e 3d da fe 0e 3c 19 46 97 bd
       0.052947637 0.03871143 0.008727754 -0.07386417
000350 f8 75 c3 bd 46 fa a7 3d 11 b2 d2 3d 20 27 ea bc
       -0.09543985 0.08202033 0.1028787 -0.02858311
000360 0a bf 85 bd 8a 0b dd bc 8c 6a c8 bd fa ad 35 3e
       -0.065305784 -0.026983041 -0.09785947 0.17742148
000370 22 59 dd 3d cc fa b8 3d cc ab 75 3e 92 cb 09 be
       0.10808016 0.09032211 0.23991317 -0.13456562
000380 63 dd a6 bc 7e 51 72 bd 7d 5d 4a 3e 3d c1 85 bc
       -0.020369237 -0.05915975 0.19762225 -0.016327495
000390 f4 20 cd bc 31 1a 2c 3e e0 99 68 3d 6e c7 d0 bd
       -0.025040127 0.16806866 0.05678737 -0.10194288
0003a0 34 e6 c2 3d df 2e 8c bb ad 2a ea bc 21 fe 36 3e
       0.09516564 -0.0042780484 -0.028584803 0.1787038
0003b0 fe 08 ee bb a5 7b d6 3d ff 43 5b 3d 3e c5 36 bd
       -0.0072642555 0.10472802 0.053531643 -0.0446217
0003c0 5a 0c 51 bd e4 27 0d 3e ac 24 d3 3c f9 fc 9b 3d
       -0.05103717 0.13784748 0.025774322 0.0761661
0003d0 3d ca 7d 3c 49 ce 4c 3e 5d a5 8c 3d f2 3e a5 3c
       0.015490112 0.20000567 0.06867478 0.020171616
0003e0 26 d7 23 bd 51 04 2a 3d 4a 08 32 3e 91 74 5c 3e
       -0.040000103 0.041508023 0.17385975 0.21528842
0003f0 ea 27 3e bd 2d 06 0a bd 30 2c f3 bd 72 a1 20 3d
       -0.046424784 -0.033697296 -0.118736625 0.039216466
