2 - Continuous Control -DDPG/trained_agents/ddpg_reacher_checkpoint_actor.pth (torch_old, 307672 bytes, 10 tensors)

fc1.weight f4 [256, 33]
000000 e9 28 2a bd 84 ae 8a 3b 94 07 45 3c 98 e4 87 be
       -0.04154292 0.0042322297 0.012025733 -0.2654159
000010 c5 66 fe 3d 2a a1 2f ba 54 3a df 3c 06 66 a3 bd
       0.124219455 -0.00066997355 0.027249493 -0.07978444
000020 35 3e da bd a4 4e c4 3d b9 45 c6 3c 05 fd 5a 3b
       -0.10656396 0.09585312 0.024203168 0.0033414972
000030 f8 ca 0e 3c 7a 39 11 3d 34 ef e8 3c 4c ed a0 3d
       0.008715384 0.035455205 0.028434373 0.07857761
000040 cc 01 f1 3d b8 38 d0 3d 71 95 13 be 2d c2 f5 bd
       0.11767921 0.10167068 -0.14412476 -0.11999927
000050 82 c0 50 bc 01 54 c3 bd fe 5d 8d bc 18 a1 70 bc
       -0.01274121 -0.09537507 -0.017256733 -0.014686845
000060 d3 0f 59 bc 4f 6f c8 3c 12 ce d6 bc 2a 1a cc 3d
       -0.013248402 0.024467139 -0.026221309 0.09965928
000070 88 27 49 bd 6e b7 1c 3d a8 ee cc bd 88 45 d7 3c
       -0.049109966 0.03826087 -0.100064576 0.026278272
000080 60 ca 16 bd 48 09 02 3d c9 e3 0a bc 20 4d 38 bd
       -0.036814094 0.031747133 -0.00847716 -0.044995427
000090 af 61 d1 3c cf 00 ac bb a9 72 15 3e fd d7 4f 3d
       0.025559274 -0.00524912 0.1459452 0.05074309
0000a0 9d 07 14 3d d5 62 80 bc a3 cd fe bc c1 0c 19 38
       0.036140073 -0.015672127 -0.031103915 3.648992e-05
0000b0 28 b9 e2 bb a7 e9 a7 3c 7d 52 b1 3c fb 2f c7 3b
       -0.006919045 0.020497156 0.021645779 0.0060787178
0000c0 00 c0 9a 3d b7 75 f5 3d 8e 3e 3c be 19 7b 1c bd
       0.07556152 0.11985343 -0.18383238 -0.038203333
0000d0 e8 b7 99 3c f5 4e ee 3b 94 f7 0f ba 2f fe 1f bd
       0.018764451 0.007272596 -0.0005491909 -0.039060768
0000e0 82 a7 ef 3a 83 88 9c 3c 27 d4 30 3d 0d de fe bb
       0.0018284174 0.019108063 0.043171074 -0.0077779354
0000f0 8d d4 bc 3d e1 2c b0 3c 80 ef 71 3c d1 7e 3e be
       0.09220228 0.021505775 0.014766574 -0.18603064
000100 a0 0b 66 3b dc 48 91 3e c1 3e 99 bc d7 b1 0e bc
       0.0035102144 0.283759 -0.018706681 -0.0087093925
000110 93 3f 9c 3d 2d 65 a2 bd df 3a b3 3d 07 58 85 3d
       0.07629313 -0.07929454 0.08751463 0.065109305
000120 20 59 58 3d c2 66 18 3d eb 3a 14 3d e4 a5 05 bd
       0.05281937 0.037207372 0.036189 -0.03262891
000130 e1 5f 22 bd 88 95 9a bb a8 50 34 3d 24 86 26 3d
       -0.03964222 -0.0047175325 0.044022232 0.04065527
000140 72 45 43 3d 32 1c 0e 3b d4 6f 2b 3e aa 51 7e 3b
       0.04767365 0.0021684286 0.16741878 0.0038806
000150 c2 b1 bf bd 7f 80 68 bd 44 4c 2b bd 0d 02 87 bd
       -0.093600765 -0.05676317 -0.04182078 -0.06592188
000160 1c f6 86 ba c0 9a 2e 3d 79 51 26 3c 72 92 e8 3c
       -0.0010296735 0.04262805 0.0101512605 0.028390143
000170 2f 92 cc bb eb bf be bd 0d b4 48 3d d0 26 63 3d
       -0.0062430124 -0.09313949 0.048999835 0.055456936
000180 73 f7 fa 3d 5e 2a 61 3d 84 71 bc bd e0 8e a6 3d
       0.122542284 0.054972045 -0.09201339 0.0813272
000190 1a c0 33 3d 0e 0a 9e bd eb dd a9 3b 9e 70 05 be
       0.043884374 -0.077167615 0.0051839254 -0.13031241
0001a0 a3 6d df bc 8c e2 bb bd 2d 4e e3 3c 47 b1 a1 bd
       -0.027273959 -0.0917407 0.027747238 -0.07895141
0001b0 d9 7a ba bb 13 c8 5d 3d ea 5c 24 3d 94 da b3 3b
       -0.005690914 0.054145884 0.040127672 0.005488703
0001c0 32 f5 a1 3c 8f ee 0c bd ef 1f 83 3d 98 83 dc bd
       0.019770239 -0.034407195 0.06402575 -0.10767287
0001d0 5e 3e a5 3d b8 6d 91 bd a4 11 d1 3d ef ce f4 bc
       0.08068536 -0.07101005 0.10208443 -0.02988383
0001e0 70 e1 10 bd 92 eb b6 3c bf 4f d6 bc c5 c5 f0 bc
       -0.035371244 0.022329126 -0.026161073 -0.029391179
0001f0 08 64 3e 3d c6 d9 aa bc 10 1a 32 3e 1f a1 b4 bc
       0.046482116 -0.020855796 0.17392755 -0.022049485
000200 9e d9 6c 3d 35 36 a1 bd b8 43 24 bd c7 c0 ef 3b
       0.057824723 -0.07871667 -0.040103644 0.007316682
000210 a1 7d 66 3c 63 9c 0c bc 4e 3e b5 3b 91 d2 b0 3d
       0.014068038 -0.008582207 0.005531109 0.08633912
000220 8c d0 e5 bd df aa a4 3a 14 4f e6 bb 88 6f 41 3d
       -0.11221418 0.0012563131 -0.00702847 0.047225505
000230 27 ea d4 3b 91 6d ba 3c 90 3d 0e 3c d7 35 0d 3d
       0.0064976397 0.022757323 0.00868167 0.034475174
000240 78 4c 1c bc de 47 90 3c 5a ca 80 3d 0f 70 a4 bd
       -0.009539716 0.017612394 0.062885955 -0.08029186
000250 11 19 c6 bd 71 a8 20 3d 81 5b 9f 3d 75 27 e1 bd
       -0.0967275 0.03922314 0.07781125 -0.10993854
000260 8a d8 20 3a 44 2e 21 bd b5 af 5d bb 37 98 cb bb
       0.00061357825 -0.039350763 -0.0033826653 -0.006213214
000270 b6 c2 28 bd d4 cd 57 bd 57 5b dc 3b b1 2a d2 3d
       -0.041201316 -0.052686527 0.0067247557 0.10262049
000280 dc 1b e8 bb fa c8 27 3d 8d 27 fe bd e8 b1 66 3d
       -0.007083399 0.04096315 -0.124098875 0.05632201
000290 32 a3 57 be 26 6a 3e bd 7d c9 96 3c a3 0a ab ba
       -0.21058348 -0.04648795 0.018406624 -0.0013049435
0002a0 c8 f7 b8 bd 79 56 0d 3c a2 35 0a 3d c7 eb 59 3c
       -0.090316355 0.008626574 0.033742554 0.013300843
0002b0 d5 ad 10 bb 8b 39 f8 bc 49 8e e6 3c 0b 30 95 bc
       -0.0022076268 -0.030300876 0.028144019 -0.018211385
0002c0 8f 6b 88 3a 2d 9a 10 bc 35 07 37 3d c9 fb c4 3c
       0.0010408032 -0.008825821 0.044684608 0.024045842
0002d0 f6 87 3e 3c fb e9 d8 3d 09 e8 2b 3d 4e c9 83 3d
       0.011629095 0.10591503 0.041969333 0.0643488
0002e0 11 b5 81 3b 9c e2 81 3c aa fb 7a 3c e9 d0 34 bc
       0.0039583524 0.015855126 0.01531879 -0.011036136
0002f0 e9 1e 15 3c 5a 27 6b 3c 4f bc 3f bc 44 f8 90 bd
       0.009101608 0.014352644 -0.011702611 -0.07078603
000300 39 b4 61 3d 52 f3 0c bd 14 ce 7f 3d 3a bd 09 be
       0.055103514 -0.034411736 0.06245239 -0.1345109
000310 0e 00 7f 3d fd 7e a2 3e fb 06 d9 bd ab 9c 98 3d
       0.06225591 0.3173751 -0.105970345 0.07451757
000320 6e 0d c8 3b 62 60 8a bd cf be 16 3e c1 ef 45 bd
       0.0061051166 -0.06756665 0.14721225 -0.04832435
000330 9a 52 f9 bc 4d 75 24 3c 08 11 e3 3c 28 2c 84 3c
       -0.030434895 0.010037732 0.027718082 0.016134337
000340 44 dd 46 bc 87 f0 c2 3c 1d 4a 90 bd 22 77 12 bd
       -0.012137715 0.023796333 -0.07045386 -0.035758145
000350 fd 55 c8 3b 63 c1 bc 3c 93 13 af bd 7e f4 86 bb
       0.006113766 0.023041433 -0.08548655 -0.004118501
000360 49 25 0c 3e ba c7 b9 bd 72 fb 8e ba 05 91 c2 3a
       0.13686098 -0.09071298 -0.0010908677 0.0014844245
000370 da c3 db bb be 77 d2 bc 43 fd 24 3b 7d 5f 34 3d
       -0.006706697 -0.025691863 0.002517537 0.044036377
000380 3e f2 ba bc e4 44 26 3e 3d ea ca 3c 68 0e c5 3c
       -0.022820588 0.16237217 0.024769897 0.024054721
000390 42 0e 2d be 08 d9 6f 3d 13 62 b1 3d 27 d1 ce bd
       -0.1689997 0.058556587 0.08661284 -0.100984864
0003a0 e4 24 c4 bb 5e 80 81 3d e0 98 f2 bc 59 16 0e be
       -0.005985843 0.06323312 -0.029613912 -0.13875712
0003b0 3a ce 0e 3e a5 ec ed bc 68 1b d7 bc 4f 22 96 bd
       0.13945857 -0.029043505 -0.026258186 -0.073307626
0003c0 3e 38 bc 3d 80 53 6f ba 70 7c 2c 3c 14 84 80 3c
       0.09190415 -0.0009129569 0.010527715 0.01568798
0003d0 a5 d1 59 3d ed 34 0b 3b c1 b9 1b 3d 93 0d 57 be
       0.05317845 0.0021241263 0.038018946 -0.21001272
0003e0 42 91 0b be ea 10 9d bd 33 e7 1f 3d f3 5f 02 bc
       -0.1362963 -0.07669242 0.039038848 -0.007957446
0003f0 25 e7 ca bb e3 72 c0 3c 0f 83 e6 3c da 5e 41 38
       -0.0061921054 0.023492282 0.028138665 4.6103123e-05

fc1.bias f4 [256]
000000 dc b5 fb bd 75 d4 5a bd 23 b4 6f 3e 40 18 1f bd
       -0.12290546 -0.05342527 0.2340856 -0.038841486
000010 d4 37 1f be 0e bc 59 be 91 17 a7 be 06 c6 6d be
       -0.1554864 -0.21263143 -0.32635167 -0.23220071
000020 f3 00 2d be a0 31 56 be 0f 4e cc 3d f4 9c 85 bd
       -0.16894893 -0.20917368 0.09975826 -0.06524077
000030 19 b2 06 bd 95 4f 1d be 91 b8 3b 3d 03 83 31 bd
       -0.03288469 -0.1536239 0.045830313 -0.043337833
000040 72 e2 0d bc 2e b7 48 be 95 e0 43 be e4 2f 5a bd
       -0.008659946 -0.19601128 -0.1912864 -0.05326833
000050 5d 23 07 be 70 36 1b be 4c 82 fb 3c 7e 15 8a bd
       -0.13197084 -0.15157485 0.030701779 -0.067423806
000060 5e d8 2c bd 07 6e 8b bd 1e 05 70 be c3 f1 25 be
       -0.04219853 -0.068080954 -0.23439452 -0.16205506
000070 21 00 5c bd 75 cc 24 be 6c e8 cf 3d 47 54 d8 bd
       -0.05371106 -0.16093619 0.10151753 -0.1056295
000080 2e 63 1e 3e 90 e1 b6 3d 90 f7 d3 bd 2e 40 dd bd
       0.15467522 0.089297414 -0.10349953 -0.10803257
000090 45 55 08 bd ba 38 35 be 53 57 cd bd ce 08 32 bd
       -0.033284444 -0.1769742 -0.100264214 -0.043465428
0000a0 6d f0 83 bd 7b 91 ca bd 5c 0d f5 bd cd fc 41 3d
       -0.06442342 -0.098910294 -0.11965439 0.04736023
0000b0 3c 36 24 be 74 79 0f be e2 e9 c1 3b 20 16 1d bd
       -0.16036314 -0.14011174 0.0059177736 -0.03835118
0000c0 9b 07 8b bd c8 c6 d7 bd b3 e9 47 be b0 b0 81 bd
       -0.0678856 -0.105359614 -0.19522743 -0.063325286
0000d0 58 20 02 39 e5 be 96 3d 0e fd 8c 3c cc e5 eb bd
       0.00012409815 0.07360629 0.01721051 -0.1151844
0000e0 6e c4 fb 3d 97 96 03 3c 86 48 ce bd dd 0f 9f bc
       0.12293325 0.008031509 -0.100724265 -0.019416744
0000f0 53 3e e7 bc e4 a1 bb bd fe 94 b0 bd f8 a7 33 3d
       -0.02822796 -0.091617376 -0.08622168 0.04386136
000100 22 ba 23 bd 38 e9 64 be 32 b7 dc 3c 73 b3 f9 bd
       -0.039972432 -0.22354591 0.026942823 -0.1219243
000110 f6 08 a5 3c 39 27 a8 bc 4d 77 19 be 1a ba 7b be
       0.020145874 -0.020526515 -0.14986916 -0.24582711
000120 56 ce 2f bd 06 72 16 3d 9e de 02 be ba b5 d6 bc
       -0.042921387 0.036729835 -0.12780234 -0.0262097
000130 ed 14 1a be 79 36 9d be 07 a6 9d be c6 81 39 be
       -0.15047045 -0.30705622 -0.3079073 -0.18115911
000140 ea f8 33 3e 90 cd 24 3d 59 ca 84 be 78 b2 0e be
       0.17575422 0.040235102 -0.2593563 -0.13935268
000150 b3 70 9c 3c dc db 45 bd f2 47 a5 3d 2b 44 bb bd
       0.019096708 -0.048305377 0.08070363 -0.091438614
000160 e7 96 ab 3a 43 96 6c be 2b b0 98 3d 50 ec 5a be
       0.0013091237 -0.23104195 0.074554764 -0.21379209
000170 03 20 7e be 0e 4d e6 bd 62 3d 0c be 81 b5 b6 bd
       -0.24816899 -0.11245166 -0.1369529 -0.08921338
000180 0d 5e a4 3c df 90 0a be 17 f3 ba bd ec 0c 50 be
       0.020064378 -0.13531826 -0.09128397 -0.2031743
000190 4c e6 4f be 23 55 d7 bd 7d e8 da 3d 56 f3 4e be
       -0.20302695 -0.105142854 0.10688875 -0.20210013
0001a0 1b a3 da bc 7f 81 66 be 58 10 85 bd ae e9 07 be
       -0.026689103 -0.22510336 -0.06497258 -0.13272735
0001b0 05 35 01 be 47 be 16 bd 15 e1 62 be 5b 11 0c bd
       -0.12617882 -0.036802556 -0.22156174 -0.03419624
0001c0 2c 96 cf bd 49 52 11 3d 3a 95 30 3e fa 2c bc bd
       -0.10136065 0.035478864 0.17244425 -0.09188266
0001d0 72 a0 0e be 2c e1 39 3e b3 b8 fb 3c 44 0e 80 be
       -0.13928393 0.18152303 0.03072772 -0.25010884
0001e0 d5 61 27 be 40 b1 f6 3d d7 3b f8 bd 3c b6 49 be
       -0.16345914 0.120455265 -0.121207885 -0.19698423
0001f0 25 15 54 be 85 65 30 be a8 23 32 bd e7 9a de 3c
       -0.20711191 -0.17226227 -0.043491036 0.027173473
000200 4e 74 10 be 4c 4c 58 be 58 41 10 3e 2a d5 86 bd
       -0.14106867 -0.21122855 0.14087427 -0.065836266
000210 05 c3 d2 bd d2 9a 9e 3d 22 6d c9 bd e2 23 b8 3d
       -0.10291103 0.077443734 -0.098352686 0.08991219
000220 ec 99 d2 3d 8d 58 7e bc 66 d8 0b be b0 5d a0 3d
       0.102832645 -0.015524042 -0.13656768 0.078303695
000230 0b c7 c3 bd 55 94 08 be e8 c8 b4 3c 3c a6 dd 3c
       -0.09559449 -0.13337834 0.022068456 0.027056806
000240 91 96 5b 3b ed cc 09 bd a0 9f 4c 3d 87 12 bf bd
       0.0033506493 -0.033642698 0.049956918 -0.09329706
000250 ab 04 18 3c 2b 90 4a be 65 62 d2 bd 9e 8d 18 be
       0.009278457 -0.19781558 -0.102726735 -0.14897773
000260 7e 73 17 be 5c cc 5a be b0 16 22 be 3e e4 49 bd
       -0.1479015 -0.2136702 -0.15828967 -0.049289934
000270 6a d2 09 be 67 9f 58 be e1 d0 05 be 64 03 26 bd
       -0.13459173 -0.21154557 -0.13067962 -0.040530577
000280 5b 82 5b be 90 0f a8 3d 8f b6 9f bd dd 61 0c 3c
       -0.21436445 0.08206093 -0.07798492 0.008568254
000290 b9 70 67 be f1 ee 44 3c 50 80 64 be 25 e2 18 bd
       -0.22601594 0.012019859 -0.22314572 -0.037325043
0002a0 80 d3 16 be 3f 6a 1a be c9 d9 b8 bd b1 6e 6a bc
       -0.14729118 -0.15079592 -0.09025914 -0.014308617
0002b0 80 4a 88 3d 19 68 25 3e 2a 56 be 3c 15 5a 91 bd
       0.06654835 0.16152991 0.023234446 -0.0709726
0002c0 98 e3 6e 3d 7d a4 0e 3e e4 1a a2 be a9 ba 88 3d
       0.05832252 0.13929935 -0.3166114 0.066762276
0002d0 61 28 cd bd 24 4a c1 bd 7b 2f 27 be 33 6e 35 3c
       -0.10017467 -0.09437969 -0.16326706 0.011073637
0002e0 1f 9a 01 3e 30 c3 20 be f5 10 d9 bd 02 f6 2b be
       0.12656449 -0.15699458 -0.105989374 -0.16793063
0002f0 5a 83 ce 3c 99 7d 57 be a7 23 2c bd c6 7a 0b be
       0.025209118 -0.21044005 -0.04202619 -0.13621053
000300 27 69 9d bd 4f f9 46 3d f6 43 a0 bc cf a3 eb bd
       -0.07686072 0.048577603 -0.019563656 -0.115058534
000310 d3 4b 4e be f4 26 56 be ac 65 60 be e6 5e 17 be
       -0.20146112 -0.20913297 -0.21913785 -0.14782295
000320 93 47 28 be cc 82 3d be 0f 1c 47 be 2c 7b 26 be
       -0.16433553 -0.18506926 -0.19444297 -0.16257924
000330 17 eb 64 bc 56 4c 32 be 63 2c c0 bd 80 b8 ef bd
       -0.013972065 -0.17411932 -0.09383466 -0.117051125
000340 48 9e 94 be ed 2c 29 be 76 e3 da bd 7b b9 d1 bd
       -0.2902701 -0.16521044 -0.10687916 -0.10240456
000350 07 f8 87 bc b8 e4 4d be 00 39 80 3d ed 55 47 3d
       -0.01659776 -0.2010678 0.06260872 0.04866593
000360 dd eb 10 bc f3 51 ac bd 75 35 2e bd 5b 1f 06 be
       -0.008845297 -0.08414068 -0.04253145 -0.13097899
000370 3a e3 0b be f7 c9 ab bd a0 da aa bc 6a e4 db bd
       -0.13660899 -0.08388131 -0.020856202 -0.10736926
000380 d5 ae ab bd ab 88 d4 bd 86 47 29 be b3 fe 0e bd
       -0.08382956 -0.1037763 -0.1653119 -0.03491087
000390 cb 09 58 be e1 e4 85 bd 60 65 07 be c5 87 a8 3d
       -0.21097486 -0.06537796 -0.13222265 0.08229021
0003a0 15 e8 4b be 96 15 49 3d 4a 83 1e bd 1f e0 3b be
       -0.19912751 0.04909285 -0.038699426 -0.18347214
0003b0 79 09 98 be b2 44 47 3e b0 b7 9a bd cf d1 59 be
       -0.29694727 0.19459799 -0.07554567 -0.21271442
0003c0 c5 69 08 bd f2 3b 0a bc 98 69 08 be c7 eb d8 3d
       -0.033303995 -0.008437144 -0.13321531 0.10591846
0003d0 fb 5c 9d 3c 52 fb 2a be 67 c9 92 3d 0d 6a e8 bc
       0.019209376 -0.16697434 0.07167321 -0.028370881
0003e0 3e 96 05 be b7 5b 25 be e3 5f 88 bd ed 02 1a bd
       -0.13045594 -0.16148268 -0.06658914 -0.037600446
0003f0 c3 9d 8e 3b 00 07 6b be 6b d7 c5 bd 17 c9 18 bd
       0.0043523028 -0.22951889 -0.09660228 -0.03730115

fc2.weight f4 [256, 256]
000000 a0 c6 d1 bd a1 16 5a 3c f8 5f 87 bd fe 18 b2 3d
       -0.10242963 0.013311059 -0.066101015 0.08696173
000010 e0 65 21 3e 55 5e 1e 3e 34 bc f2 bc cc c9 83 3d
       0.15761518 0.15465672 -0.029630758 0.06434974
000020 7b ab 58 be ab 04 8b 3e dc 9b 92 bd ce a6 37 3d
       -0.21159165 0.27152 -0.07158634 0.04483681
000030 b3 07 d7 bd e4 c3 e8 3d 67 fb 44 3d 8a c1 e9 3d
       -0.104995154 0.11365488 0.04809132 0.11413868
000040 8e ba 3e be ba 1d bb bd 96 81 3b 3d fe 7d e1 3d
       -0.18625852 -0.09136529 0.04577788 0.11010359
000050 e3 28 4f bc 60 56 e0 3d dc a1 ef 3c 91 9b 9b bd
       -0.0126440255 0.10953975 0.029251985 -0.07598031
000060 0d a4 9d 3d e9 22 a5 3d ce 27 46 bd 96 30 6b 3e
       0.07697306 0.08063299 -0.048377804 0.22967753
000070 ba a5 17 bc 7e 1f 5d bc 12 70 be 3d 98 33 15 3e
       -0.009255821 -0.013496278 0.092987195 0.14570463
000080 4d 11 25 3c 68 08 01 be e1 40 55 be 1c f0 d5 3d
       0.010074926 -0.12600863 -0.2082553 0.10446188
000090 77 e0 2c 3e c4 91 cc 3d 81 87 52 bd 07 70 f5 bb
       0.16882502 0.0998874 -0.051398758 -0.0074901613
0000a0 d0 c1 40 be 0e 96 de 3d 8a 05 a0 3b 6b 11 c6 3c
       -0.18823934 0.108684644 0.004883473 0.024178227
0000b0 4a 63 93 bd 46 42 2e 3e ae 97 28 3d 90 24 62 3d
       -0.07196672 0.17017469 0.041160278 0.05521065
0000c0 de e1 80 bd 70 9a 22 bd fc cb c7 bc a5 ab da 3c
       -0.06293081 -0.039698064 -0.02438926 0.026693175
0000d0 b4 4d 1b bc 92 86 1b bd 5d 06 3a 3d 4d 64 db bd
       -0.009478975 -0.037970133 0.045416225 -0.1071249
0000e0 1f a0 4b be ef d8 77 3d ba 3b ea bd 55 27 4b 3c
       -0.198853 0.06050962 -0.11437173 0.012399514
0000f0 2d 49 a9 bc 88 e2 2d bd 42 b3 89 bb 46 84 3e 3d
       -0.020664776 -0.042452365 -0.0042022774 0.046512865
000100 bd cf 8e 3c 2b 24 17 be 56 5a cd bc 5d aa 65 bc
       0.017433042 -0.1475989 -0.02506749 -0.014017669
000110 24 c7 27 be bb 46 80 bc 7b 50 8c 3d b0 76 bc 3b
       -0.1638456 -0.015658727 0.06851288 0.0057514533
000120 38 0b bc 3d ef cf a9 bd ec ef 33 bb e3 e3 22 3e
       0.09181827 -0.08291613 -0.0027456237 0.15907244
000130 1b dd b8 3d 5f 99 f8 3c 81 2a 63 3d c5 08 03 be
       0.090265475 0.03034657 0.055460457 -0.12796314
000140 0c 4e 96 bd 9e 2e 42 ba 58 ac 94 3b 25 a0 50 bd
       -0.07339105 -0.0007407459 0.0045371465 -0.050933976
000150 d9 a3 08 bc 87 8c 09 3e 26 c3 3b be 34 cf 9e bd
       -0.008339846 0.13432513 -0.18336162 -0.077543646
000160 19 17 f7 bd 69 00 ce bd 12 ae c0 3b 18 19 dc 3d
       -0.120649524 -0.10058672 0.005880126 0.10746974
000170 80 82 80 3d 47 57 c2 3d 10 d8 91 3d 79 05 60 bd
       0.06274891 0.09489303 0.07121289 -0.05469272
000180 0a b8 40 bd ed 8f 8a bd 7a e0 3c 3c 22 06 0a 3d
       -0.047050513 -0.06765733 0.011528129 0.033697255
000190 81 68 c0 bd ca 1e 58 3d 53 16 4b 3d 0b 15 1f 3e
       -0.093949325 0.052763738 0.049581837 0.15535371
0001a0 2b c9 83 bc 0d 35 d1 bc 75 ea 65 3d 29 c8 aa bd
       -0.016087135 -0.025537992 0.0561318 -0.08338959
0001b0 cb 05 9d be 86 90 82 be b9 c4 0d 3e 4d 99 80 bd
       -0.30668482 -0.25500888 0.13844575 -0.0627924
0001c0 40 b2 72 be 59 b2 2f bd ee 1d 0d be 88 43 ea 3d
       -0.2370081 -0.042894695 -0.13780949 0.11438662
0001d0 ca eb ac 3d d2 70 86 3d c1 aa cf 3d 61 6b b3 3c
       0.08443411 0.065644875 0.101399906 0.021901788
0001e0 5b d8 91 bd 68 5c 12 bd 0d 05 5d 3d 8b 50 6e 3a
       -0.07121345 -0.035732657 0.053959895 0.00090909813
0001f0 f3 30 df 3c 39 e8 3b 3d 4d cb 3c be 0e b9 a9 3d
       0.02724502 0.04587576 -0.18436928 0.082872495
000200 1c 65 e7 bb 75 54 04 be 59 1d e5 bd 0f 39 41 be
       -0.0070616137 -0.12922843 -0.11187238 -0.18869422
000210 c2 23 62 3d d7 d2 bf bb ac bd 23 3d 9d f1 3a bd
       0.055209883 -0.0058539915 0.039975807 -0.045640577
000220 01 d8 19 3b 7d 1b 97 bc 0d 65 e4 3d d0 8e 13 bc
       0.0023474696 -0.018445725 0.111520864 -0.009006217
000230 6d 75 99 3c bb ba dc bd d7 07 c1 bc 3d 0f 1d 3d
       0.01873275 -0.107778035 -0.023563309 0.03834461
000240 f5 09 a7 3b 5e 09 3f 3e d0 db e7 bd ff e6 e6 3d
       0.0050976225 0.18655917 -0.11321223 0.11274528
000250 4d 07 22 3d 05 d6 2b be 6a 2f fd bd 3a b2 93 3c
       0.039557744 -0.1678086 -0.12362559 0.018029321
000260 0d b4 36 3d 4f b8 0e 3d 50 33 3e 3d a5 3c f2 bd
       0.044605304 0.03484374 0.046435654 -0.11827973
000270 de fc 0a be c2 fa 19 bd 0d d3 8f bd 32 eb 8d bd
       -0.13573024 -0.037592657 -0.070226766 -0.069296256
000280 a5 a4 a5 bd 47 18 8d bd 19 ea f9 3d d7 51 01 3e
       -0.08088044 -0.06889396 0.12202854 0.12628876
000290 90 67 5f bd 9f 19 d1 bd be aa 74 bd a4 50 05 bc
       -0.054542124 -0.10209965 -0.059733145 -0.008136902
0002a0 1f 0b f2 3d 0c ef 2c 3d 48 36 0b be 00 2c ab 3d
       0.118185274 0.04222016 -0.13594925 0.08358002
0002b0 76 e6 1a 3c f6 fd be 3d e7 9b 93 3d be 0f e8 b9
       0.00945436 0.09325783 0.072074704 -0.00044262217
0002c0 19 28 66 3b 7b 7c 27 3d 6c e2 04 3e 09 3d c8 bd
       0.0035119115 0.0408902 0.12976998 -0.097772665
0002d0 12 9b b0 bd e6 af 1b 3d a3 ea 72 bd db d0 f4 3c
       -0.08623327 0.038009547 -0.0593058 0.029884746
0002e0 e8 33 3e be de 48 fe 3c 62 59 91 3d 2b 6d 92 bd
       -0.18574488 0.031040605 0.070971265 -0.071497284
0002f0 47 ed 87 bd 20 6b 99 3d d4 11 14 bd 2a 86 d3 3b
       -0.06637054 0.074911356 -0.036149815 0.0064552026
000300 6b a8 84 bc a6 fe ad bd 7b 55 68 3c 4f d4 82 3c
       -0.01619359 -0.08495836 0.014180536 0.015970377
000310 1b ff 35 3c 75 e8 98 3c 6d f5 43 3b de 78 cc 3d
       0.011108185 0.018665532 0.0029900924 0.09983991
000320 32 d2 80 be dc 39 d7 3d 86 f4 fd 3d df 68 37 3d
       -0.25160366 0.10509083 0.12400155 0.044777747
000330 45 f7 41 be 16 5e db bc 26 e2 19 bd 0a 79 ad 3d
       -0.18941982 -0.026778262 -0.037569188 0.08470352
000340 6a 8d a6 3d 3d a6 fc bd 0d a6 b4 bc 6f 88 af 3d
       0.08132441 -0.12336395 -0.022051835 0.085709445
000350 99 4e da bd 35 6b d7 3c ef 90 5a bc ec b0 2e be
       -0.106595226 0.026296237 -0.013340219 -0.17059678
000360 9e 8b 09 be 99 14 4a 3d 4f 2a 24 be ea 83 bb bd
       -0.13432166 0.04933605 -0.16031764 -0.0915602
000370 0d d8 32 3d 7d 70 f4 bd 71 8a 0d be ed a3 84 bd
       0.043663073 -0.11935518 -0.13822342 -0.06476579
000380 99 b0 dd bd a2 f7 d6 bc df 7a a0 bc a0 96 96 3c
       -0.10824699 -0.026241127 -0.01958984 0.01838237
000390 7e 6e 09 bd b5 c0 26 3d 8b d6 75 3d f3 d5 b4 bd
       -0.03355264 0.040711123 0.060019057 -0.0882987
0003a0 62 13 8d bd b9 0d 57 3c c0 0e 63 be 91 51 9e bb
       -0.068884626 0.01312583 -0.22173595 -0.004831501
0003b0 5e 45 03 be 57 36 a8 bd 50 93 64 3c 5f b3 1e bc
       -0.1281943 -0.082134895 0.013951138 -0.00968632
0003c0 6f 7f 84 bd 1e 79 c2 3c 65 10 29 be 8c 00 8a bd
       -0.064696185 0.023739394 -0.1651016 -0.067383856
0003d0 c3 41 49 be 61 69 8f bd a9 0d ae bd 58 19 6f 3b
       -0.19653992 -0.07002521 -0.08498699 0.0036483612
0003e0 84 56 2d be ab 07 93 3d 1a b8 4c be eb f3 f3 3c
       -0.16927534 0.07179197 -0.19992104 0.029779395
0003f0 ee 34 b6 3c 54 73 39 3c 72 52 93 3c a1 a7 16 be
       0.022242036 0.011319 0.017983649 -0.14712383

fc2.bias f4 [256]
000000 98 55 58 3d d1 77 c7 3d 9c 9d fa 3c 39 4c 35 bd
       0.052816004 0.0973965 0.030592732 -0.044262145
000010 27 40 a2 bd 34 b1 7f bd 05 84 32 bb 26 fb 2b bd
       -0.07922392 -0.062424853 -0.0027239334 -0.04198756
000020 8a ca dc 3d b8 d5 86 bb dc 06 98 3d e5 2c 87 3c
       0.10780819 -0.0041148327 0.07423183 0.0165009
000030 ef 87 6f 3d bf 0e 18 3d 65 5a 0e 3d 08 a4 f4 3d
       0.058479246 0.037123438 0.034754176 0.11945349
000040 b0 b2 49 bc 4e c5 55 3d bf 54 18 3c 4c 07 9f 3c
       -0.012310669 0.052190118 0.009297549 0.01941266
000050 39 4a 87 3d b9 17 09 3e 0c 05 03 3d 20 6c d4 3d
       0.06605954 0.13387956 0.031987235 0.10372186
000060 b8 87 d1 3c 73 4e 4c 3d 7f a4 a5 3d 78 c0 08 bd
       0.025577411 0.049879503 0.08088016 -0.033386678
000070 88 05 3d 3d f3 d0 ac bc 64 ef 8f 3d 7a df fa 3d
       0.046147853 -0.021095729 0.07028082 0.12249656
000080 06 65 9e bc f0 dc 4f 3d 06 6d 92 bd 44 fe f5 3c
       -0.019335281 0.05074781 -0.07149701 0.03002847
000090 6d 9f 1f bc 38 92 02 bd b7 03 2c bc 5d b9 87 3c
       -0.0097426 -0.031877726 -0.010498933 0.01656788
0000a0 82 7e ce 3c f1 13 cf bb 5a 0b 19 bd cf 48 25 bd
       0.025206808 -0.006319516 -0.03736434 -0.04035264
0000b0 85 45 a5 bd ed d9 be bb f4 ab a4 3c d3 ac 81 3c
       -0.080699004 -0.0058243186 0.020101525 0.01582948
0000c0 dc 6f 5a 3d c1 d5 a7 3c a0 ac 4c 39 af 4c d1 bc
       0.053329334 0.020487668 0.00019519264 -0.02554926
0000d0 f0 0c 1b bd cc d4 42 3d 1c 92 76 bc a7 28 46 3d
       -0.037854135 0.04756622 -0.015049484 0.048378613
0000e0 a5 89 a7 bc 2c 01 3d 3d 75 a7 2e 3d aa 0c d9 3d
       -0.020451376 0.046143696 0.04264017 0.105981186
0000f0 85 d5 09 3a 1a f1 50 bd af 3d a0 bc 27 eb 44 3d
       0.0005257952 -0.051011182 -0.019560663 0.04807582
000100 c0 27 af 3d a3 76 d8 bd 58 85 b1 3d e8 cf 4a b9
       0.085525036 -0.10569503 0.086680114 -0.00019341672
000110 74 4f 04 3d cb b7 a8 3d 41 00 0f 3d 96 ab 12 3e
       0.032302335 0.08238181 0.03491235 0.14323267
000120 80 2f c1 ba bd fd 24 3d c0 cd 1c 3d 8f d0 93 bd
       -0.0014738888 0.040281046 0.038282156 -0.07217514
000130 e6 01 d4 bc 41 f4 84 3c 90 ea 21 bd 41 39 26 3d
       -0.025879811 0.01622975 -0.039530337 0.040581945
000140 ae c7 63 bd 9b 84 51 3d 1a 63 7e 3d 44 bf 39 3d
       -0.05561035 0.051151853 0.06210623 0.04534842
000150 35 37 aa 3d f6 7b 24 bd 71 ce 84 3d a5 22 a9 3d
       0.08311311 -0.04015728 0.06484688 0.08258561
000160 d5 06 97 3c c1 a5 a1 bd 03 b0 02 3d 4e 71 b6 3d
       0.018435875 -0.07892943 0.03190614 0.0890833
000170 1b b5 ce bc a7 fd 74 3d f4 fd ca bc db 2b 50 3d
       -0.025232842 0.059812214 -0.024779297 0.050823074
000180 02 1c a7 3d fc 96 11 3c 19 b5 c0 3d e7 a1 af 3d
       0.08159639 0.008886095 0.09409542 0.08575802
000190 ea 88 f4 3c 7a 3b 73 3b 99 f7 1c 3d 83 0e ff bb
       0.029850442 0.0037114308 0.038322065 -0.0077837124
0001a0 81 fb 30 bd 80 ff 48 3d 95 3c d0 3c a9 4c 74 3d
       -0.043208603 0.04907179 0.025419513 0.05964342
0001b0 32 bf e4 bc 96 c7 51 bd 1c fa 2e 3d d6 5b 2e 3d
       -0.0279232 -0.05121573 0.04271899 0.04256805
0001c0 d6 64 91 3d cf 6d cc bd 47 d7 04 3d a8 63 32 3e
       0.07099311 -0.09981882 0.032431867 0.17420828
0001d0 4c 6f c7 bc fa 52 b0 3d 47 d1 a7 3b d1 26 1a bd
       -0.024345063 0.086095765 0.0051213834 -0.037634674
0001e0 66 e3 43 3d 4c 23 30 bd e6 5f a9 3d 04 36 18 3d
       0.047824286 -0.04300241 0.08270244 0.03716089
0001f0 84 b3 82 3d c6 00 dc 3d 2c bb 74 3d 64 29 fd 3c
       0.06381896 0.10742335 0.059748814 0.030903526
000200 5b 56 33 3d eb dc 0b 3a 02 35 9c 3b c7 d3 43 3d
       0.043783527 0.00053353485 0.004767061 0.04780939
000210 a5 d0 4a bd 79 95 11 3d e7 5b 9d 3d 61 63 19 3d
       -0.049515385 0.03554294 0.076835446 0.03744829
000220 62 36 03 bd dd 83 11 3c 72 fe 1d bd 5a 4c b2 bc
       -0.032034285 0.008881536 -0.038572736 -0.021764923
000230 8d 06 73 3d 39 0a ed 3b 4b e1 4c 3d 55 9e 12 3d
       0.05933242 0.0072338847 0.050019544 0.03579553
000240 71 df bd 3d 14 fd 54 bd dd 63 18 3d 9d 3a b9 3d
       0.09271134 -0.051999167 0.037204612 0.09044383
000250 8d f8 c1 3d 32 26 c6 3d 6a e5 2e 3e 35 87 9c 3c
       0.094712354 0.09675254 0.17079702 0.01910744
000260 d8 2f 70 3c 86 a9 68 3d 12 14 42 bc 68 44 13 3d
       0.014659844 0.056802295 -0.011845605 0.03595391
000270 3c 18 42 3d 70 9d 36 3d a9 f4 f6 bb 53 89 ba 3b
       0.047386393 0.044583738 -0.00753649 0.00569264
000280 4a 86 04 3e 78 d0 65 3d de 3a 80 3c 6e 7b fb 3c
       0.12941852 0.056107014 0.01565307 0.030698504
000290 a6 77 a6 3d be f9 18 bd 01 5b 51 3b f1 5b cd 3d
       0.0812829 -0.037347548 0.0031945112 0.10027302
0002a0 ed 23 e2 3d 17 99 9f 3c 6d e4 b6 3d 87 79 91 3d
       0.110420085 0.019482179 0.089302875 0.071032576
0002b0 ea 2d f2 bb 23 9c 47 3d 69 3a 54 3d 37 15 c0 bd
       -0.0073907273 0.048732888 0.051813517 -0.093790464
0002c0 10 78 e2 3d 8f 17 fb bc 79 65 a0 bd 53 f4 a8 3d
       0.11058056 -0.030650882 -0.078318544 0.08249726
0002d0 4b ea 83 3d bc d5 8e bc e7 fe 8b 3d 56 06 96 3d
       0.06441172 -0.0174359 0.06835728 0.07325427
0002e0 1a fb da 3c eb 1f 8c 3d 9b 68 70 3c 48 b7 7d bd
       0.026731063 0.06842025 0.014673377 -0.06194237
0002f0 b2 5e 0f bc db ab 61 3d 46 20 b2 3d 4e 24 ea 3c
       -0.008750604 0.055095535 0.08697562 0.028581765
000300 92 b0 3b 3d 14 bd 25 bd 8b fe a8 3d ef e7 b5 bc
       0.045822687 -0.040463522 0.08251675 -0.022205321
000310 f2 a4 9e 3c 0d 50 be bc 48 27 f2 bc 1b 21 0a 3d
       0.019365761 -0.02323153 -0.029559746 0.033722978
000320 39 21 7b 3d 24 d3 fe 3b 80 1f 9e 3d 41 c5 9a 3d
       0.06131098 0.007776635 0.07720852 0.075571544
000330 07 45 de 3c ba 59 7e 3d 76 8c 82 3d a5 d1 14 3c
       0.027132524 0.06209729 0.06374447 0.009083186
000340 d8 23 66 bd 83 20 00 bc da 1d e1 3c da 58 a1 3d
       -0.056186527 -0.007820251 0.027480055 0.07878275
000350 7c f9 16 3d b7 37 15 3d 24 e0 02 be 2c 04 05 3c
       0.03685902 0.036430087 -0.12780815 0.00811867
000360 c1 86 6a bd 89 41 75 3d b9 1b 67 3c e7 b7 e7 3b
       -0.057257418 0.059876952 0.014105731 0.0070714834
000370 44 5a c6 ba 02 9a a3 3c 24 02 21 bb 64 c8 8c bd
       -0.0015133102 0.019970898 -0.0024567926 -0.06874159
000380 cb d7 24 bc 29 d5 6c 3d 04 9d 9b bd a1 07 b1 3c
       -0.010061215 0.057820473 -0.07598308 0.021610083
000390 fd e7 07 bd 94 55 ca 3d 8b 63 be 3d 12 df f0 3c
       -0.033180226 0.09879604 0.0929633 0.029403243
0003a0 52 ea 9a 3d df fb 6b bc 7a 00 81 3d 81 0d f6 bb
       0.07564224 -0.0144033125 0.06298919 -0.007508934
0003b0 9e 03 25 3c e8 a3 cd 3d 4b 9c 03 3d fc b0 40 bd
       0.010071663 0.10041028 0.032131474 -0.047043785
0003c0 3e 47 05 bd 88 e1 26 3c 12 cc 72 bc c0 c9 7d bd
       -0.032538645 0.010185607 -0.014819162 -0.061959982
0003d0 29 a5 73 3d e9 fe 24 bd a7 59 2a 3e a8 52 c6 bd
       0.05948368 -0.040282164 0.16635762 -0.09683734
0003e0 9b e6 f2 3d e0 e2 00 3e 71 df c6 3d da c2 19 3e
       0.11860391 0.12586546 0.09710587 0.15015736
0003f0 82 70 5e 3d 4c 88 87 3c 5b 1a c7 bd 9a a4 95 3d
       0.054306515 0.016544484 -0.09721824 0.07306786

fc3.weight f4 [4, 256]
000000 da d0 88 3e 2d 22 b0 be 2c 2c b4 3e dd b2 90 3c
       0.2672184 -0.34401074 0.3518995 0.017663414
000010 a9 e6 d2 3d e4 5e 6d bc 99 4f a1 be fc 78 00 3f
       0.10297901 -0.014487956 -0.3150604 0.5018461
000020 33 38 1b be 0a 15 a3 bc 47 f4 9a be 32 63 24 3e
       -0.15158157 -0.019907493 -0.30264494 0.16053465
000030 d8 96 a3 3e 1a e1 84 be c6 76 bf 3d d7 0c 12 3e
       0.31951022 -0.2595299 0.09348826 0.1426271
000040 72 31 0d 3e 6a e7 3a bd 78 67 16 bd 75 83 68 bb
       0.13788393 -0.04563085 -0.03671977 -0.0035478745
000050 03 1d e4 3b 30 56 f2 bd 0d b6 b4 be f0 02 0c be
       0.0069614663 -0.11832845 -0.35295144 -0.13672996
000060 62 71 8d 3e 52 d5 2a 3e b4 8e 6d 3e a9 11 67 bd
       0.27625567 0.16682938 0.23198968 -0.056413326
000070 b2 b9 c4 bc 79 4c 46 3e a2 ce 9b 3d f4 98 57 bd
       -0.024014328 0.1936511 0.076077715 -0.0526361
000080 3d 9e 6a 3c 68 a8 59 3e c4 14 7c bd 17 00 ec 3d
       0.0143199535 0.21255648 -0.06154324 0.11523455
000090 0f 10 74 3e 92 81 24 3d 4e e6 95 3e ef a8 4b bd
       0.23834251 0.04016263 0.2927727 -0.049721655
0000a0 03 f4 78 be b8 a9 c5 3d 48 2f 0b be bc 96 88 3e
       -0.24311833 0.09651512 -0.13592255 0.266775
0000b0 c3 34 74 bd 14 c4 52 3e df 40 6f 3e 5d 46 be 3d
       -0.05962063 0.2058261 0.2336459 0.092907645
0000c0 6a db 98 bd 72 73 c4 bd db 6a 05 bd ca 87 da be
       -0.07463725 -0.09592332 -0.03257261 -0.42681724
0000d0 7a e4 94 3e d0 92 7b 3d e1 bd 01 3f 8a 2b 06 3e
       0.29080564 0.06141931 0.5068036 0.13102546
0000e0 d2 60 d6 be c1 f7 b3 be 9f f4 04 be 76 d6 fc bd
       -0.41870743 -0.3514996 -0.1298394 -0.12345593
0000f0 04 e3 85 bd d4 64 88 bd bf 25 ca 3e e9 7f 13 3e
       -0.065374404 -0.066598564 0.39481923 0.14404263
000100 a0 20 c1 be d6 17 a5 3d 2b 48 c3 be 9c e1 c1 bd
       -0.37720203 0.08061187 -0.38140997 -0.0946686
000110 1c e9 c9 3d 50 12 a1 3d e2 b0 21 3d 40 68 17 be
       0.09858915 0.07864821 0.03947533 -0.14785862
000120 7c 2e 66 bd 8a 96 31 bc 7c 28 1b be 2e 40 44 be
       -0.056196675 -0.010839114 -0.15152162 -0.19165108
000130 55 29 a0 bb 40 cc 80 3a d9 95 c8 3e f0 29 4f bb
       -0.0048877397 0.0009826496 0.39176825 -0.003161069
000140 6e 06 c2 be 73 36 40 bd f9 07 39 be 54 c6 22 bd
       -0.3789553 -0.046926927 -0.18069448 -0.03973992
000150 66 00 ab 3d 76 b0 26 bd 17 12 01 bd 12 a5 3a be
       0.08349685 -0.04069563 -0.031511392 -0.18227032
000160 88 9a e3 3d 05 40 bc 3a 37 7e c5 bd 93 a8 66 be
       0.11113459 0.0014362341 -0.09643214 -0.22525243
000170 f1 26 7b be a3 e8 3a 3e 5c 33 f4 bd ba 12 57 3e
       -0.24526574 0.18252806 -0.119238585 0.21003237
000180 f7 e1 e3 bc 18 e0 19 3d e7 a2 7d be 63 b6 02 bd
       -0.02781771 0.037567228 -0.24769174 -0.03191222
000190 1c 9f 63 bd 2e b2 95 bd 70 56 9e bd 42 95 13 3e
       -0.05557166 -0.07309376 -0.077313304 0.14412406
0001a0 b1 70 58 3e 59 88 a8 3e 1c 5a 07 3f 2c 83 07 be
       0.21136738 0.32916525 0.5287187 -0.13233632
0001b0 0c 95 e5 bd 8e 5e 7f bc b7 58 ad 3d 65 50 ed 3d
       -0.11210069 -0.015586508 0.08464187 0.115876
0001c0 cd c0 a0 3e 24 b2 16 3e a0 e5 be 3e 15 9b 06 3e
       0.31397095 0.14716393 0.37284565 0.13145097
0001d0 19 30 04 3d 75 f9 24 bc 99 3c b8 bd 64 23 a0 3e
       0.032272432 -0.010069241 -0.08995933 0.31277
0001e0 7a e9 85 be 0c 73 31 be d6 64 0b 3e c2 20 af 3d
       -0.2615469 -0.17329043 0.13612685 0.0855117
0001f0 39 fa 11 be 9e 5a cd 3d b9 bd dd 3e 18 65 3c be
       -0.14255609 0.100270495 0.4330881 -0.18397939
000200 25 69 91 3c 60 bc b5 bd 7d 39 9c be 71 03 b1 be
       0.017750332 -0.0887382 -0.3051261 -0.34572938
000210 38 ae 5b bd a2 68 26 3e 5d ad 8d bd 99 f9 14 3e
       -0.053632945 0.16250852 -0.06917832 0.14548339
000220 43 17 98 be 66 53 ee bb 9f b6 40 be 83 82 93 bd
       -0.29705247 -0.0072731255 -0.18819664 -0.072026275
000230 e9 e7 9b bc 24 0d 67 be d2 bd 15 3c 25 0d 8d 3d
       -0.019031482 -0.22563607 0.009139495 0.06887273
000240 88 bf e6 bc 7d 21 51 3e d8 e3 1a be 7b 16 cb bc
       -0.028167501 0.20422931 -0.15125978 -0.024790993
000250 f9 7a 96 3d 15 66 76 bd 13 c2 25 bd 6e 96 08 bc
       0.07347674 -0.060155947 -0.040468287 -0.0083366465
000260 90 99 eb 3d 2d 15 1e bd 0a 76 75 bd 1a 1c 9f bd
       0.11503899 -0.038594414 -0.059927024 -0.07769032
000270 2c 70 c6 bd f3 e7 25 3e 6f 3e 21 3d 28 d8 b2 3d
       -0.09689364 0.16201763 0.039366182 0.08732635
000280 69 66 c5 bd 18 bc 7b bd a4 69 b2 3e d1 25 a6 be
       -0.09638674 -0.061458677 0.34846222 -0.32450727
000290 96 19 30 bd 85 fe 98 3e a4 e2 a0 bd e4 c6 83 3e
       -0.04299315 0.29881683 -0.07855728 0.2573768
0002a0 ff 1a 74 be ff bc 1a 3e a8 25 96 3d c5 e9 43 be
       -0.23838423 0.15111159 0.07331401 -0.19132145
0002b0 8f 3c 2f 3d ea 28 34 be 36 a0 e3 bd bf 43 6e 3e
       0.042782363 -0.17593732 -0.11114542 0.2326803
0002c0 21 52 00 bd 52 10 78 3d 72 94 e0 3d d7 20 50 3e
       -0.031328324 0.06056244 0.10965814 0.20325027
0002d0 e9 45 02 be 10 27 a7 3e 14 31 71 3e 70 95 28 bd
       -0.12721981 0.3264699 0.23553878 -0.04115814
0002e0 d6 83 b1 3e 93 ac 47 3c b9 31 8b 3e 3a 40 30 be
       0.34670895 0.012187141 0.27186373 -0.17212
0002f0 df d0 b1 3e ea fb 88 bd 43 4c a9 bd 1c ff f9 bd
       0.34729668 -0.06688674 -0.08266499 -0.122068614
000300 ee f2 2d be 60 8b f5 3e 80 29 83 3e f8 df 2d 3e
       -0.16987202 0.47957897 0.256176 0.16979969
000310 95 88 42 3d c7 c0 e4 bd 7e 19 84 3e 81 27 26 bd
       0.047493536 -0.11169582 0.258007 -0.040565018
000320 6d 05 f3 be 8a 4b 67 3c 65 09 62 bd e4 38 1d be
       -0.47465077 0.014117131 -0.05518474 -0.15353733
000330 e7 b0 42 be 51 22 1a 3e 8d 81 e5 bd 51 6f 4c bd
       -0.19012795 0.15052153 -0.112063505 -0.049910847
000340 f6 c5 4c 3c 5b 0a cd bd 9d e9 1f 3e ba 65 45 3e
       0.012498369 -0.10011741 0.1561646 0.19277087
000350 88 5f 59 3e 05 82 38 be d4 9e e0 3e 5e 1d a0 be
       0.21227849 -0.18018349 0.43871176 -0.31272405
000360 49 ee a4 3e fc 39 8d 3e 2a 8e 37 3e db 1c b5 3e
       0.32213047 0.275833 0.17925325 0.35373577
000370 50 a8 3d 3d b8 55 47 be be bf b2 ba 9e 6a ad 3e
       0.046303093 -0.19466293 -0.0013637466 0.33870405
000380 cd ab 31 bd 45 9b a5 bd 47 fe c7 bd 88 14 93 bd
       -0.043376733 -0.08086256 -0.097652964 -0.071816504
000390 c9 17 82 be da 3c 3d 3e 38 af 1f be b8 72 30 3e
       -0.25408772 0.18480244 -0.15594184 0.17231262
0003a0 ad 7b 09 be 2f c3 dd 3e 71 0f 9b bd cc 67 2a 3e
       -0.13426085 0.43312976 -0.075713046 0.16641158
0003b0 3d b6 33 3e 9d b9 85 bc 41 9d 43 bd 33 99 6d bd
       0.17549987 -0.016323859 -0.04775739 -0.05800743
0003c0 65 30 8d bd 82 3d 7d be 34 b3 8b bd e3 b8 b8 3e
       -0.06893996 -0.24730495 -0.0682129 0.36078557
0003d0 ed be 37 3d 37 e4 18 be 48 f7 7e bd d7 32 86 3d
       0.044859815 -0.14930807 -0.062247545 0.06552666
0003e0 11 44 43 3b c1 42 66 bc 1a 16 bc 3d b3 a7 e1 bc
       0.002979521 -0.014054001 0.09183903 -0.027545786
0003f0 6c e5 43 3e 80 8a da bc ce 9c 86 3e 26 89 ed 3d
       0.19130486 -0.02667737 0.26291507 0.115984246

fc3.bias f4 [4]
000000 74 75 56 3b 17 bd 54 bc ea 02 fe bd 48 2f f9 3c
       0.0032723816 -0.012984536 -0.124028996 0.030418053

bn1.weight f4 [256]
000000 23 77 eb 3e e5 ef 84 3f 30 07 50 3f 3e a0 11 3f
       0.45989332 1.038571 0.8126097 0.56885135
000010 50 4a 3a 3f 6e 32 7f 3f 18 d6 ca 3e 34 a1 5c 3f
       0.7276964 0.99686325 0.39616466 0.86183476
000020 ad b9 87 3f a6 69 16 3f 60 3e 8d 3f 79 5b 2f 3f
       1.0603539 0.58754957 1.103466 0.6849895
000030 8e 06 4c 3f 3b 3b 51 3f 2b 50 77 3f 2b 5c 8a 3f
       0.796975 0.81731004 0.966067 1.0809377
000040 16 77 2a 3f 27 a9 3e 3f 5b cc 3d 3f d2 87 87 3f
       0.6658796 0.74476856 0.74139947 1.0588324
000050 e1 11 22 3f 77 08 01 3f 63 93 2f 3f c2 f2 db 3e
       0.6330853 0.5040354 0.6858427 0.42958647
000060 77 85 79 3f 4b 02 ee 3e 6b 3e 69 3f 46 85 03 3f
       0.97469276 0.46486124 0.9111087 0.51375234
000070 73 ed 2a 3f 22 09 ca 3e b3 07 04 3f 59 f6 de 3e
       0.6676857 0.39460093 0.5157425 0.43547323
000080 41 fc 85 3f 8d 86 5c 3f f6 a6 07 3f 3c 8b 91 3f
       1.0467607 0.8614281 0.5298914 1.1370616
000090 84 9d 3c 3f 96 c6 8c 3f bb 31 f8 3e 81 89 37 3f
       0.7367785 1.0998104 0.4847544 0.7169419
0000a0 a7 6e 3c 3f b1 3f f2 3e 83 c2 0a 3f c0 00 00 3f
       0.7360634 0.47314218 0.5420305 0.50001144
0000b0 a0 ee 81 3f 10 69 4b 3f 75 71 5d 3f 63 8f 80 3f
       1.0150948 0.7945719 0.86501247 1.0043758
0000c0 26 93 02 3f 55 6b 99 3f e4 6f 29 3f a2 7d 1f 3f
       0.5100578 1.198588 0.66186357 0.62301075
0000d0 5f ad 80 3f 00 4f 3d 3f ae 27 44 3f 7f 30 42 3f
       1.0052909 0.7394867 0.76623046 0.7585525
0000e0 6c aa 37 3f 9b 42 29 3f 22 3c 9a 3f d8 de 78 3f
       0.7174442 0.66117257 1.2049601 0.9721503
0000f0 aa 0b 62 3f c0 e9 1b 3f 33 c3 4c 3f 51 54 4a 3f
       0.8829905 0.6090355 0.7998535 0.79034907
000100 71 b4 5d 3f 57 16 90 3f e0 fe 24 3f fe 58 86 3f
       0.86603457 1.1256818 0.6445141 1.0495908
000110 86 04 14 3f 41 1c 9a 3f 7f af 1b 3f 4b dd 5f 3f
       0.578194 1.2039872 0.6081466 0.8744704
000120 fd 3d 4b 3f d0 41 9a 3f 80 5d 79 3f ed 6a 6c 3f
       0.7939146 1.2051334 0.97408295 0.92350656
000130 9c f4 6d 3f 26 fd 14 3f ff 11 71 3f 40 cb 37 3f
       0.9295137 0.58198774 0.94168085 0.7179451
000140 bc 9c 5f 3f 4f 04 24 3f 84 a5 82 3f 8e 53 64 3f
       0.8734853 0.64069074 1.0206761 0.89189994
000150 49 93 32 3f 73 42 27 3f 26 23 5e 3f 00 8f f8 3e
       0.6975599 0.6533577 0.8677238 0.485466
000160 7d 18 e3 3e e6 8b 51 3f bc d0 86 3f 53 3d 03 3f
       0.4435462 0.81854093 1.0532451 0.5126545
000170 21 1e 23 3f e6 b0 11 3f 72 51 93 3f 38 a6 79 3f
       0.6371785 0.5691055 1.150923 0.97519255
000180 b5 88 f3 3e 41 8a be 3e 2c e6 86 3f 52 1e 85 3f
       0.47565237 0.37214854 1.0538993 1.0399878
000190 27 28 03 3f 09 28 dc 3e bc ac 05 3f 34 6d 02 3f
       0.5123314 0.42999294 0.52216697 0.5094788
0001a0 80 0b 9a 3f 64 36 f1 3e 41 f9 7e 3f 95 bb 42 3f
       1.203476 0.4711181 0.9959908 0.7606748
0001b0 54 b3 3d 3f 05 15 33 3f a8 93 51 3f eb ae df 3e
       0.7410176 0.6995395 0.8186593 0.4368814
0001c0 06 5d 14 3f c3 ae 2a 3f f9 6a 8e 3f 79 bf 86 3f
       0.5795444 0.66672915 1.1126395 1.0527183
0001d0 06 a9 c9 3e 6a bc 5b 3f 07 f1 0e 3f d1 37 0a 3f
       0.39386767 0.8583437 0.5583653 0.5399142
0001e0 fd 9a 7b 3f 42 23 7d 3f 2b 35 e7 3e d8 e6 91 3f
       0.9828337 0.98881924 0.4515775 1.1398573
0001f0 13 f3 64 3f a4 22 06 3f f6 23 28 3f c1 12 4a 3f
       0.894334 0.5239661 0.6567987 0.78934866
000200 49 53 ac 3e 89 2d 0e 3f a4 24 30 3f b7 40 0b 3f
       0.33657292 0.5553823 0.6880591 0.5439562
000210 2b 6c 40 3f ce fb 93 3f 60 5b 0c 3f 54 82 84 3f
       0.7516505 1.156122 0.5482693 1.0352273
000220 13 71 87 3f 4e ec d8 3e 67 3a 5e 3f 13 13 75 3f
       1.0581383 0.42367786 0.86807865 0.9573223
000230 a5 0d 80 3f 54 e2 4e 3f 2a ab 4f 3f 54 c0 42 3f
       1.0004164 0.808141 0.8112055 0.7607472
000240 9c 94 89 3f b5 0c 93 3f 74 01 50 3f a5 d0 65 3f
       1.0748477 1.1488253 0.8125222 0.8977149
000250 5f e9 3e 3f 62 3d 13 3f 45 d0 b5 3e a7 6d f0 3e
       0.74574846 0.5751554 0.3551046 0.46958658
000260 35 1a 59 3f 88 81 81 3f 51 3e f2 3e 1d c3 d3 3e
       0.84805614 1.0117655 0.4731317 0.41359797
000270 8b f6 2e 3f 7e 4f d3 3e 28 7b d2 3e f9 b6 8f 3f
       0.68344945 0.41271585 0.41109586 1.1227714
000280 ce 73 f5 3e ff 3e 88 3f 70 da 2f 3f 77 70 91 3f
       0.47939914 1.0644225 0.68692684 1.1362447
000290 6b 10 57 3f cf e7 8c 3f 95 c3 f5 3e be 99 32 3f
       0.84009427 1.1008242 0.4800078 0.6976584
0002a0 f1 10 41 3f bd b9 12 3f bd af 9d 3f 2a 45 93 3f
       0.75416476 0.57314664 1.2319256 1.1505482
0002b0 d7 cc 30 3f 42 23 41 3f 58 90 fa 3e 69 db 91 3f
       0.6906256 0.75444424 0.4893825 1.1395084
0002c0 a9 c6 70 3f bb 1c 7f 3f 75 0d e4 3e cf 93 87 3f
       0.9405313 0.99653214 0.44541517 1.0591983
0002d0 a3 c3 8d 3f d8 d1 8f 3f 3a 48 e9 3e 6d 20 bc 3e
       1.1075329 1.1235914 0.45562917 0.3674349
0002e0 7e 96 66 3f 0d 5d db 3e 9a a6 5a 3f cb da 3d 3f
       0.9007338 0.4284443 0.85410464 0.74161977
0002f0 4f 7e 53 3f 4e 45 fd 3e f8 95 8c 3f ed 4d 03 3f
       0.82614607 0.49466938 1.0983267 0.5129078
000300 75 32 25 3f 69 61 1f 3f e0 89 8f 3f 18 53 eb 3e
       0.64530116 0.6225801 1.1213951 0.45961833
000310 39 9a 6c 3f 4b 62 91 3f d6 b1 2a 3f 69 22 01 bf
       0.92422825 1.1358122 0.66677606 -0.5044313
000320 00 d4 01 3f 1d ee 0f 3f 22 7d 36 3f 12 3a db 3e
       0.5071411 0.5622271 0.7128469 0.42817742
000330 cb 19 0f 3f 2a 11 10 3f 95 12 47 3f 25 7e 98 3f
       0.5589873 0.5627619 0.7776273 1.1913496
000340 78 a4 11 3f e5 aa 1f 3f d7 23 03 3f 2d 43 63 3f
       0.56891584 0.6237014 0.5122656 0.8877438
000350 ed 57 60 3f 51 07 25 3f 02 b3 80 3f 44 0a 86 3f
       0.87634164 0.6446429 1.0054629 1.0471883
000360 40 47 0a 3f 16 79 de 3e e5 f5 bb 3e 40 10 17 3f
       0.5401497 0.43451756 0.3671104 0.5900917
000370 f3 62 85 3f 79 82 ea 3e be 39 45 3f d4 4c 32 3f
       1.0420822 0.45802668 0.7704123 0.6964848
000380 21 cd 1e 3f 1f 43 33 3f 0f 84 03 3f 59 43 4b 3f
       0.6203175 0.70024294 0.5137338 0.7939964
000390 37 d9 31 3f 32 2e 6c 3f 30 94 60 3f 3e ed d5 3e
       0.6947207 0.9225799 0.87726116 0.41782564
0003a0 ef c8 d8 3e 3d 8d 01 3f 9a d1 5a 3f d6 09 df 3e
       0.423408 0.5060614 0.85476077 0.43562192
0003b0 9b cb e8 3e ab 90 47 3f fb 63 98 3f 44 19 1d 3f
       0.4546784 0.7795512 1.1905512 0.6136668
0003c0 37 0f 01 3f fc 2a 81 3f e2 c9 94 3f 1c fe 2d 3f
       0.5041384 1.0091243 1.162411 0.67965865
0003d0 08 1e 38 3f 9b 41 cd 3e cf 60 88 3f bd 67 6c 3f
       0.71920824 0.40089116 1.0654544 0.9234579
0003e0 f5 e0 6e 3f c3 3f d1 3e ab 40 0e 3f 86 bf 7c 3f
       0.9331201 0.4086896 0.55567425 0.9872974
0003f0 6b 6c 1f 3f e8 37 d7 3e 53 f8 4c 3f b8 ec ff 3e
       0.6227481 0.4203484 0.8006641 0.4998529

bn1.bias f4 [256]
000000 74 1d 24 3e 42 46 dd bc db de b5 bc ce 68 8e bc
       0.1602686 -0.02701104 -0.022200992 -0.01738396
000010 7d a6 1e be 37 2b 28 bd 38 d6 de 3c ed 6c dc bd
       -0.15493198 -0.041056838 0.027201757 -0.107629634
000020 9a ce 9f 3d 54 de 31 bd 32 21 b1 3c 23 ea 62 3d
       0.07803078 -0.04342492 0.021622274 0.05539907
000030 d2 b2 71 bd 7e b9 38 3d 75 21 ef bc f7 86 00 bc
       -0.059008427 0.045098774 -0.029190758 -0.007844678
000040 12 a3 74 bd 68 38 33 3c 29 e2 ed 3b 23 1a 6f bd
       -0.05972583 0.010938741 0.0072596264 -0.058374535
000050 50 94 f9 3b ae 22 84 3d b5 2b 26 be f8 de f9 3c
       0.007616557 0.06451927 -0.1622761 0.030501828
000060 b4 22 ca bc 1e c3 c0 bd fd 7c b2 3d 63 bd 37 bd
       -0.02467475 -0.09412216 0.08715246 -0.044858348
000070 b6 ed 67 3b 62 05 1b be 0b 56 97 bc 16 48 a0 bc
       0.003538949 -0.15138772 -0.018473646 -0.019565623
000080 36 fa 12 3d 18 80 a8 bd db 4e fc 3c dd 50 2e bd
       0.03588315 -0.08227557 0.03079932 -0.042557586
000090 41 c3 2c bd a9 2d b4 bd 81 23 fe 3d df f7 a0 bd
       -0.042178396 -0.087977715 0.124091156 -0.07859778
0000a0 68 dc 91 3b a7 30 88 3d f2 66 9c bd 0f 82 8a bd
       0.0044513233 0.06649905 -0.07636823 -0.06763088
0000b0 05 fa 91 bd a8 0f 82 bb e1 dc 21 bd 2a a2 11 be
       -0.071277656 -0.0039691515 -0.039517287 -0.14222017
0000c0 00 87 f8 bc 93 b9 88 bd 7c e0 5c bc 4c 09 50 bc
       -0.03033781 -0.066760205 -0.013481256 -0.012697529
0000d0 cc 4a 28 bc dd d1 c6 3b fe 55 9e bd a7 69 cb bc
       -0.010271739 0.006067498 -0.077312455 -0.024830652
0000e0 22 a7 d8 bd fd 2d 61 bd d9 e1 a4 bc 21 d6 bf bc
       -0.10578753 -0.0549755 -0.020127224 -0.023417534
0000f0 0f d4 80 bd 2c 9d 1f bd 19 5f ca 3c df 4f 9f 3c
       -0.06290447 -0.03896825 0.02470355 0.019447265
000100 c1 d3 ef bd 74 c4 c5 bb ab 8f 75 bd 34 47 fa 3d
       -0.11710311 -0.006035382 -0.059951466 0.12220612
000110 17 32 59 3d 67 06 f8 3c 16 c2 9d bd 3f db a9 bd
       0.053026285 0.03027649 -0.077030346 -0.08293771
000120 31 cd 0f bd 80 4b a0 bd 43 4c eb 3b a0 fb c2 3d
       -0.035107795 -0.078269005 0.007180722 0.0952065
000130 a9 10 9d bd 6b ed 1f bd bd 1d b8 bd 9e 0e aa bd
       -0.07669193 -0.03904478 -0.08990047 -0.08303569
000140 33 82 d9 bc de 90 92 3d a6 b5 37 bc 46 40 ee 3d
       -0.026551342 0.071565375 -0.011212742 0.11633353
000150 de d6 ab bc 8c 29 d8 bd a6 57 f6 bc 42 c3 e6 3c
       -0.02097648 -0.105547994 -0.03007109 0.028169278
000160 5b 99 89 3b 33 b1 ae 3d 84 26 07 3c 0e 3f 49 3d
       0.0041991896 0.08529892 0.008248929 0.0491324
000170 73 bb 93 bd 21 fd f1 bd ad 83 81 bd de a9 aa bd
       -0.072134875 -0.11815859 -0.06323943 -0.08333181
000180 70 4c 11 3e 7e fb 37 bd 1d 16 0d 3e 6d d0 b5 bd
       0.14189315 -0.044917576 0.13777967 -0.08877645
000190 43 55 c6 bd af 87 a4 bd dd 88 77 3d d4 9b 16 bc
       -0.09684231 -0.08033692 0.060433257 -0.009192426
0001a0 dd db d0 bd 0c a0 c7 bd 7f 46 00 3d a0 da 15 3d
       -0.101981856 -0.097473234 0.03131723 0.03658545
0001b0 33 9b a8 3c 45 ad 19 bd ac 8b 8e 3d af 7f 11 bd
       0.020581817 -0.03751876 0.06960234 -0.03552216
0001c0 ff 83 29 3c c6 f7 c2 3c 5e 37 99 bd ae 74 b4 bd
       0.010346412 0.023799788 -0.074812636 -0.088113174
0001d0 04 8a 24 be 1c d7 34 3d 66 5b 8f bc 01 c6 ef bd
       -0.16068274 0.044150457 -0.017499637 -0.11707688
0001e0 ea e1 af bd 06 19 7e bd 09 1e 08 be ea 98 d1 bc
       -0.085880116 -0.062035583 -0.13292708 -0.02558561
0001f0 07 9d 7e bd 19 19 98 3c 4a e5 ab 3d 3b ce 9d bd
       -0.06216147 0.018566655 0.08393343 -0.07705351
000200 90 c1 4e 3e 5c cd d6 bc 02 13 25 3c 46 ab 75 3c
       0.20191026 -0.02622097 0.010075333 0.014994448
000210 75 4d c6 bc 56 d8 39 bd f5 7f 42 3d 73 c5 0a be
       -0.024206856 -0.04537233 0.04748531 -0.13551883
000220 f4 42 85 bc bb 1b af 3c 58 dc 13 be f4 b6 39 3c
       -0.016267277 0.021375528 -0.14439523 0.011335123
000230 20 49 70 bb 82 7e 93 3d e8 96 0d bd 37 62 06 bc
       -0.003666468 0.07201864 -0.034567744 -0.008202127
000240 9c e0 b8 3d 81 e3 0d bc 84 b5 50 bd 04 84 39 bd
       0.09027216 -0.008660198 -0.050954357 -0.045291916
000250 6f ff b4 3c 42 4a 61 bc d6 e5 3e bd 6c db 68 bd
       0.022094456 -0.013750615 -0.046605907 -0.056849882
000260 29 ec 19 be 9a f9 c5 3d 41 40 d9 bd 57 02 41 bd
       -0.15031494 0.09666748 -0.106079586 -0.047121372
000270 2b 9e 56 3c 37 8c ae 3c f0 15 08 3d 11 53 6d bd
       0.013099234 0.021307094 0.033224046 -0.057940546
000280 73 52 db bd af c9 c8 3c a8 de 24 3e 36 1b 14 bc
       -0.10709085 0.024510233 0.16100562 -0.009039691
000290 43 33 b0 bd 61 dc 77 bd 8a c1 2f be 8b 1f c9 3c
       -0.086035274 -0.060512904 -0.17163673 0.024551174
0002a0 d0 53 9c bc 98 a1 e5 3d 48 e0 76 3c ac 49 e7 bd
       -0.019082934 0.11212462 0.015068121 -0.11293349
0002b0 f8 0c cd bd 06 73 eb 3c 26 f4 a4 3c f5 ce 11 bd
       -0.10012239 0.02874137 0.02013595 -0.03559776
0002c0 a5 fd 05 be ca f7 d4 bc 57 04 d5 3d b3 7d 62 3c
       -0.13085039 -0.025997061 0.104012184 0.013823914
0002d0 ff 2b 07 bd 3f 72 5b bd 80 06 f4 bd 19 bf f7 bd
       -0.033000942 -0.05357575 -0.11915302 -0.12096996
0002e0 8a 3d 5e 3d 5a d3 88 bd 87 74 12 bd 3a 8d 6e 3d
       0.054257907 -0.06680937 -0.03575566 0.058240153
0002f0 4c 64 21 bb 80 68 87 3d 18 0b 03 3e 4d 74 21 3d
       -0.0024626432 0.06611729 0.127972 0.039417554
000300 a4 29 4b bd fb 2f 57 3d 40 eb 11 3c 2c 82 1a be
       -0.04960026 0.052535992 0.008906186 -0.15088719
000310 d6 d2 33 bb 02 70 a6 bd 68 0e cd bd 8c cf a6 3d
       -0.00274389 -0.081268325 -0.100125134 0.08145055
000320 76 60 2d bd 29 cc 8c bd 4d 4a fc bd 68 15 ac bd
       -0.04232832 -0.06874878 -0.12318859 -0.084025204
000330 c4 a5 14 3c 80 18 4d 3d e3 34 34 bd 77 1e ba 3b
       0.009072725 0.050072193 -0.04399575 0.005679901
000340 1b 6e 29 bd f7 f0 45 bc 02 d3 44 bc 14 11 a5 3d
       -0.04136477 -0.012081376 -0.012013199 0.08059898
000350 5f a6 43 3d c8 53 a3 3d 11 f6 3c bd 40 65 15 3d
       0.047766086 0.079749644 -0.046133105 0.036473513
000360 02 06 50 bd a6 a6 8f bd 7d ef 1c 3d c7 53 c1 bd
       -0.05078698 -0.070142075 0.03831433 -0.094398074
000370 d9 91 b3 bd ae ae b8 bd 8a 1a a2 3d 70 d5 1b bd
       -0.087680526 -0.090176925 0.07915218 -0.038045347
000380 b7 d8 5e bc 7f c8 e1 bc a9 8f 15 bd cc c9 fa 3c
       -0.0136014735 -0.027561424 -0.036513958 0.030613802
000390 e4 9e 11 be dd f0 a0 bd 3c 63 f4 bd 38 78 6b 3c
       -0.14220768 -0.07858441 -0.1193299 0.014371924
0003a0 27 cc f1 3c 1b a3 9a 3d 9e 21 61 bd 34 b9 50 bd
       0.029516293 0.07550641 -0.0549637 -0.050957873
0003b0 e8 dc 7b 3c 6d 2a 96 3d 4a 78 53 3d 3b 10 96 bd
       0.015372492 0.07332311 0.05162839 -0.073273145
0003c0 e6 06 9e bd c2 20 45 3d ca 67 7c 3c 68 5e 09 be
       -0.077161595 0.048126943 0.015405605 -0.1341492
0003d0 d2 b8 98 bc fa a5 8d bc cd 4c c7 3c 89 38 22 3b
       -0.018642817 -0.017291058 0.024328614 0.0024752936
0003e0 43 e2 92 bd 9c 65 67 bd ab c8 a4 3d ba d1 aa 3c
       -0.07172062 -0.056493387 0.08046087 0.020851959
0003f0 35 c2 99 bd 34 b7 b6 bd 3a 46 ba 3d 59 64 58 bb
       -0.07507745 -0.08921662 0.09095426 -0.0033018796
