2 - Continuous Control -DDPG/trained_agents/ddpg_reacher_checkpoint_critic.pth (torch_old, 308684 bytes, 9 tensors)

fc1.weight f4 [256, 33]
000000 56 02 b0 3d 02 fc 70 bd e5 4f ab 3d 6b 8e 58 3d
       0.085941955 -0.058834083 0.08364848 0.052870195
000010 04 98 77 bd 6a a9 1c 3e 96 56 88 be 40 e9 b5 3d
       -0.060447708 0.15299001 -0.2662856 0.088823795
000020 21 bb 0e be 42 4d 22 3d 76 0b dc bd 19 50 ca 3c
       -0.13938572 0.03962446 -0.107443735 0.024696397
000030 4e bd c0 bb 23 e8 28 bc 39 40 5f bc 64 19 86 3d
       -0.005881942 -0.010309252 -0.013626152 0.065478116
000040 3e 12 82 be e7 10 2a bf 41 39 d4 3e 95 d5 30 be
       -0.25404543 -0.6643204 0.4144993 -0.17268975
000050 03 37 e5 bd cd 3f 1f 3c 25 f4 55 3d c9 63 88 bd
       -0.11192133 0.009719801 0.052234787 -0.066596575
000060 f6 8a c3 bd 86 08 f5 bc c2 19 bc 3d a1 e4 8d 3e
       -0.09547989 -0.02991129 0.091846004 0.27713493
000070 d8 cb 26 be c0 8d f6 ba 3f 6d 7a be b8 dd e3 3c
       -0.16288698 -0.0018810555 -0.24455737 0.027815685
000080 da 8f 0b 3f 47 6a 27 3e 14 83 56 3e 26 8d f8 3d
       0.54516375 0.16349135 0.2094844 0.12136297
000090 64 aa 67 3e f3 d7 0d 3e 78 cf 18 3d a9 1b 6d be
       0.22623593 0.1385191 0.037307233 -0.23155083
0000a0 d9 87 0c 3d 34 6e df 3d 9c f6 30 3e 1b 2d 6a 3d
       0.034309242 0.109096915 0.17281574 0.057171922
0000b0 5f 55 0e 3d bf 9b be 3d c3 4c d9 3d ab 94 2d bd
       0.034749385 0.0930705 0.10610344 -0.04237811
0000c0 f5 ef 3f 3e 32 99 3c 3d c4 21 00 bf 6a db 95 bc
       0.1874388 0.046044536 -0.5005152 -0.018293101
0000d0 6d 0c be be c6 3f e5 3d e0 25 f8 bc c6 86 b3 bc
       -0.37118855 0.111938044 -0.030291498 -0.02191485
0000e0 9f 10 c8 3d d1 09 22 3d 78 e4 88 3d 5e 0a f4 3d
       0.09768795 0.039560143 0.06684202 0.1191604
0000f0 d3 59 53 3e 9d 60 9b bb 0c 3a 1a 3d a7 94 85 be
       0.20639734 -0.004741742 0.037653014 -0.26089975
000100 4c 4b 9d bc 72 e0 0d 3f 33 13 a5 bc 9f 6e 10 bd
       -0.019200943 0.554206 -0.020150756 -0.035261746
000110 9e 99 2b bc 6e 36 6f be eb 0f 3a be fe 12 d1 be
       -0.010473637 -0.23360607 -0.18170135 -0.40834802
000120 f5 56 02 be 10 ac 07 3b 05 0c 03 3e 87 17 42 bd
       -0.12728484 0.0020701922 0.12797554 -0.04738572
000130 20 86 3d 3d 5f d0 67 3e 85 19 a1 38 9c 4a 4f bd
       0.04627049 0.22638081 7.6818316e-05 -0.050608262
000140 9f 85 7f 3c 03 3c 9e 3d bf c0 18 3e b0 e2 0d 3b
       0.015595823 0.0772629 0.14917277 0.002165001
000150 06 a3 6c 3b 93 46 5e bd 1d fe a6 be ce 12 69 3e
       0.0036107912 -0.054266524 -0.32615748 0.2276108
000160 25 b9 03 3e eb 47 3d bd 1c 06 98 bd 29 84 97 bd
       0.12863596 -0.046211164 -0.0742304 -0.073982544
000170 12 71 fc 3c 80 8a 3d 3e 9f 9e 89 bd 00 39 d4 bc
       0.030815635 0.18509865 -0.06719708 -0.025906086
000180 fc fa 77 be 70 9c 4e 3d 74 a1 21 bf 2c d6 29 bd
       -0.24216837 0.05044216 -0.6313698 -0.041464016
000190 48 56 3d 3e 0e 81 14 be ab 2e 9f 3c 13 47 8a be
       0.18489945 -0.14502355 0.019431433 -0.2700735
0001a0 f6 08 74 bd 0e 5b f9 bc 58 0a 3c 3e 6c ef 47 3e
       -0.05957886 -0.030438926 0.18363321 0.19524926
0001b0 df 85 07 3d 95 44 f1 bc ff 6f c7 3d de fd 00 3e
       0.033086654 -0.029451648 0.097381584 0.12596843
0001c0 52 c4 37 be 2b 8b 72 bd b6 eb 7e be 8d 0d 5b be
       -0.17945984 -0.059214752 -0.24894604 -0.21391888
0001d0 e3 cb 96 be 26 c0 a2 3e 7f 9c 04 3d 9d 00 1b 3d
       -0.29452428 0.31787223 0.03237581 0.03784238
0001e0 a9 57 57 bd da b3 0e be b3 33 b3 3d b4 da c1 3d
       -0.052573834 -0.13935795 0.08750095 0.094655424
0001f0 ed df 33 3d 01 e4 4d bd 38 3b 2f 3c dc 94 8d bd
       0.043914724 -0.05026627 0.010695271 -0.06913158
000200 4c f2 d0 bc c4 99 76 bc fe b7 0a 3d 9c b8 f6 bd
       -0.025506161 -0.015051309 0.033866875 -0.1204693
000210 5c e9 33 be ab 3a 00 3e 41 34 c8 bd c2 89 dd bd
       -0.17569488 0.1252238 -0.09775592 -0.10817291
000220 99 ee 97 bc 33 55 3a 3d 8b 29 e0 3c fe ac d8 bb
       -0.01854639 0.04549141 0.02736356 -0.006612419
000230 f3 fe 12 be c4 ca 86 bd 0d 8b 4a bd ed b3 e1 3b
       -0.14355068 -0.06581643 -0.049449015 0.006887904
000240 f7 23 a5 3c f2 f0 b0 3d af e9 1e be fc 7f 8c 3e
       0.020158751 0.08639707 -0.1551883 0.27441394
000250 54 e6 ed 3d 88 35 1a 3c fe ad 5f be d7 d4 86 3d
       0.11616197 0.009412177 -0.21843717 0.06583565
000260 11 2c 27 3b 98 39 c6 3c fa 2f ca bb 58 54 c9 bc
       0.0025508443 0.024197385 -0.00617027 -0.024576351
000270 f0 0f 31 bd b1 b1 3c 3c 12 7a 01 bc 6f 11 0a 3e
       -0.04322809 0.011516974 -0.007902639 0.13483213
000280 4f 86 7c be c4 ea 9c bc c5 b5 ee bd a2 0f 04 bd
       -0.2466061 -0.019154914 -0.116557635 -0.03224147
000290 3e fc 62 be 5f c0 da 3a 23 68 99 3e f5 d3 04 3e
       -0.22166535 0.0016689411 0.29962263 0.1297148
0002a0 d1 6f 33 bd 02 59 26 be 5b 42 e8 3e 5e b0 24 bf
       -0.04380781 -0.16244891 0.45363125 -0.64331615
0002b0 86 86 59 3d 6a 88 83 bd e7 82 1d be 08 a0 9a 3d
       0.053106807 -0.06422503 -0.15381967 0.07550055
0002c0 e0 6b 87 3d d8 17 f2 3b f2 33 d0 bc ac ca 18 be
       0.066123724 0.0073880963 -0.025415394 -0.14921063
0002d0 af 2f 56 bd c5 34 ea bc f7 8f 98 be f8 44 31 3b
       -0.05229157 -0.028589616 -0.29797336 0.0027049165
0002e0 24 46 e6 3d 67 3d 08 3d e3 cd a8 3d b3 6b 52 bb
       0.11243847 0.033261683 0.08242395 -0.003210765
0002f0 8c 12 1f 3d 88 c2 0f bd 91 b0 6b ba df 13 4c bd
       0.038836047 -0.03509763 -0.0008990849 -0.049823638
000300 1c 69 90 bd 58 11 a3 3d c8 59 1f 3c 48 99 6e 3c
       -0.07051298 0.079622924 0.009725995 0.014562912
000310 5e 41 5a 3d 1c 77 4a bf 14 fd 91 bd 20 41 1a be
       0.053284995 -0.79087996 -0.07128349 -0.15063906
000320 a4 c7 80 3c 2a e6 56 3e 9f 91 15 3d 7d e3 36 3e
       0.015720196 0.20986238 0.03651583 0.17860217
000330 81 31 78 3e a5 19 59 3d 45 f6 42 be 15 5b 2c be
       0.24237634 0.053002972 -0.19039257 -0.1683162
000340 9e d1 3b bd 7b f5 ff bb a0 fd 08 bd 6e ef 37 bd
       -0.045854203 -0.007811246 -0.033445 -0.044906072
000350 7b 12 94 3d 23 b9 76 bd 84 96 49 bc e0 a1 47 3e
       0.07230087 -0.060235154 -0.012303952 0.19495344
000360 d7 aa ad 3e 65 7a d0 3d 49 f5 27 bc f2 69 d2 3b
       0.33919403 0.10179595 -0.010251352 0.006421321
000370 1b ae 6b ba c7 47 45 bd 09 c8 86 3c ea fc d1 bd
       -0.00089904823 -0.048164155 0.016452806 -0.10253318
000380 0c 48 f2 3d 91 9f 15 3e 35 ed 74 3d a0 22 3a 3c
       0.11830148 0.14611651 0.05979653 0.011360794
000390 5b c2 9d bd 80 7c 77 3c 80 e6 87 bf 05 34 cc bc
       -0.07703086 0.015105367 -1.0617218 -0.024927149
0003a0 4e 88 89 3d c4 56 65 3e 5f 7d af 3e 15 7e a3 be
       0.06715451 0.2239638 0.34275338 -0.3193213
0003b0 8f 04 6e be a0 0d 09 3e 6e e1 62 3c d2 ff 9f 3d
       -0.23243926 0.13384104 0.013847692 0.07812466
0003c0 2d 6a 90 3e 47 ab 14 bd c1 84 90 3c 15 82 f7 bb
       0.28206006 -0.036296155 0.017641427 -0.007553349
0003d0 27 3c 97 bd 06 98 aa bd d2 a8 41 be 31 bb d5 be
       -0.0738452 -0.083297774 -0.18912056 -0.41744378
0003e0 c1 7b be be 5e d6 b8 3e 7f 34 1d be a8 36 08 bd
       -0.37203792 0.3610105 -0.15352057 -0.03325525
0003f0 72 ea 4f be e6 b4 2e bd 85 23 81 3c 08 b8 72 3c
       -0.20304278 -0.042652987 0.015764007 0.014814384

fc1.bias f4 [256]
000000 5b 2f 90 be 99 22 e4 bd f2 8e c9 bd 4d e3 ff 3d
       -0.2816113 -0.111394115 -0.09841718 0.12494526
000010 14 43 84 bd eb d8 c3 bd 16 d5 c3 3c d2 f6 84 be
       -0.06458107 -0.09562858 0.023905318 -0.2596956
000020 e0 f3 13 be dc ea 97 bd cb 78 a1 be 71 6c 63 be
       -0.144485 -0.07417843 -0.3153747 -0.22209336
000030 13 06 4f be 24 00 9e be cf 08 92 bd 42 c4 da be
       -0.20217161 -0.30859482 -0.07130586 -0.42727858
000040 5a 79 c0 be 54 10 25 be 12 5e 74 be 57 e0 e9 bd
       -0.37592584 -0.1611951 -0.2386401 -0.114197426
000050 b0 d0 85 bc 2f 9c 82 be af f3 70 bd 8c 33 f8 bd
       -0.016334862 -0.25509784 -0.058826145 -0.12119207
000060 8e 7f 44 be 99 4c bd bd 5e 68 33 be 71 5b aa bd
       -0.19189283 -0.092431255 -0.17520282 -0.08318222
000070 a6 cb 3f be 41 99 f1 bd 38 f8 b5 bd 78 02 09 3e
       -0.1873003 -0.11796809 -0.088852346 0.13379848
000080 0f 6c 31 bd d0 64 c7 bd d4 05 39 bd 73 eb a6 3d
       -0.043315943 -0.09736025 -0.045171574 0.08150377
000090 ea c1 e4 bd bc 4c 9d bd d1 74 58 bc 55 56 6e bd
       -0.11169799 -0.076806515 -0.013211445 -0.0581878
0000a0 6a 6b 4a 3d d8 a1 db bd f3 d9 a0 be b7 3a df bd
       0.049418844 -0.107242286 -0.31416282 -0.10899871
0000b0 a3 1e de be 7c 11 72 be 7a d1 13 bd fa d9 6d bd
       -0.4338275 -0.23639482 -0.036088444 -0.058069207
0000c0 26 fa c2 bd 47 ac c0 be 7d 28 a3 3d f3 9b 7c be
       -0.09520368 -0.37631437 0.07966707 -0.24668865
0000d0 a2 9d 6c be de 40 aa bd c2 2c af be 0d ad aa be
       -0.23107007 -0.08313154 -0.34213835 -0.33335152
0000e0 69 2e bd be e9 16 87 be 8c dd 08 3d 68 a5 0f be
       -0.3694947 -0.26384667 0.03341441 -0.14027941
0000f0 90 cb b2 bd a7 be 54 be d2 55 a3 be 29 e3 97 be
       -0.08730233 -0.20775853 -0.31901413 -0.29665497
000100 69 82 6b 3d 47 12 88 be 18 4d 9a be 87 52 cd be
       0.057497416 -0.26576445 -0.30136943 -0.40102026
000110 0a de 83 be 0f d4 92 be 52 eb 52 be 94 8f 13 be
       -0.2575534 -0.28677413 -0.2059758 -0.1441024
000120 6c 96 62 be 44 50 70 bd 41 c8 82 be a8 80 b7 be
       -0.22127694 -0.058670297 -0.25543407 -0.35840344
000130 de 35 d9 be 6f bf e2 3d 92 3f e0 bd b7 b3 d2 be
       -0.4242391 0.11071669 -0.10949625 -0.41152737
000140 f5 25 28 3d 59 4c 9c be cf fb 68 be 6e 11 ca be
       0.041051824 -0.30527 -0.22752307 -0.39466423
000150 5d dc e9 bc 98 ab 8d be 70 9a 40 be e8 1e 96 bd
       -0.02854746 -0.27669978 -0.18808913 -0.07330114
000160 d1 d1 46 be 7c 45 56 be 3a dd 8d be 26 ec 59 be
       -0.19415976 -0.20924944 -0.27707845 -0.2128149
000170 36 70 f1 bd 16 a3 2a be 50 53 81 3e 4d 6e ee bd
       -0.11788981 -0.16663775 0.25258875 -0.11642132
000180 6c d3 9c be 70 bb 9e be 97 9f a7 be 7b 84 76 3c
       -0.30630052 -0.31002378 -0.32738945 0.015046234
000190 f6 4b b8 bc 7b e8 d9 be 57 fd 6b bd bf 55 33 be
       -0.022497158 -0.4256018 -0.05761465 -0.17513178
0001a0 42 ae 23 be 94 a3 0e be 0b a2 72 be ae 92 00 be
       -0.15984443 -0.13929588 -0.23694627 -0.12555954
0001b0 21 37 3a be 0f 03 a5 3d 65 59 b3 be bf 36 d6 be
       -0.18185093 0.08057224 -0.3502914 -0.41838643
0001c0 92 e0 91 be f5 ee 02 bd f7 8d 0b be 81 71 54 bd
       -0.28491646 -0.03196617 -0.13628374 -0.05186606
0001d0 07 b2 8a bc ea 01 34 3e a2 6d 8c bd d6 89 2d be
       -0.016930593 0.17578855 -0.06856848 -0.16947111
0001e0 35 08 c1 be 58 62 6e be a5 e6 6b be 6f d7 cc bd
       -0.37701574 -0.23279703 -0.23037203 -0.10002028
0001f0 13 fc 88 be 5e 51 b2 be 99 15 03 3e 10 ca bb bd
       -0.26754817 -0.34827703 0.12801208 -0.091694
000200 8a c2 58 be 92 52 9b 3e c5 b8 87 be 80 31 69 be
       -0.21167961 0.30336434 -0.26508155 -0.22772789
000210 bc d2 40 be 15 27 7c be c4 09 8c 3c a9 9e 26 be
       -0.18830389 -0.24624284 0.0170945 -0.16271462
000220 f6 3d 79 3c 16 7b aa bd 0a b3 6c be d5 3c 23 be
       0.015212527 -0.08324258 -0.23115173 -0.15941174
000230 ea d3 ff bd 9a a2 7c bc af 71 81 be 3f ab 84 be
       -0.12491591 -0.015419627 -0.25282046 -0.259119
000240 f1 c5 21 3d 68 88 e0 bd 6d 44 ab be 18 46 9b be
       0.039495412 -0.109635174 -0.33450642 -0.30326915
000250 1b c6 99 be 30 83 84 be 25 a6 ff be 1e 63 25 be
       -0.30033955 -0.25881338 -0.49931446 -0.16151091
000260 9d 72 45 be 22 d5 39 be a6 5f cb be 6f 22 9c be
       -0.19282003 -0.1814771 -0.3972141 -0.3049502
000270 0d 51 40 be 69 4c f3 3c d5 f3 f2 bd 99 05 ac bc
       -0.18780918 0.029699521 -0.118629135 -0.020998763
000280 01 7d 91 3e fc 77 1b be 11 4c 01 3d 6a 45 89 be
       0.28415683 -0.15182489 0.031566683 -0.2681077
000290 31 fc 8d bd d8 ee cb be 9a 0e 4e be 1a e9 83 be
       -0.06932867 -0.3983066 -0.20122758 -0.2576378
0002a0 86 11 9d be 81 86 24 be 22 61 3d be 4b 62 e3 3d
       -0.30677432 -0.16066934 -0.18494084 0.11102732
0002b0 b5 77 f3 bd c7 32 81 be 23 84 55 bd db 41 2c be
       -0.11888067 -0.25234053 -0.05212797 -0.16821997
0002c0 20 f6 9d bd c6 2e a4 bb 16 00 12 3d 6e 16 96 be
       -0.0771296 -0.0050104586 0.035644613 -0.29313987
0002d0 04 8e 88 be eb 34 5e 3e 9f 68 c5 be 61 21 0b be
       -0.2667085 0.21699874 -0.38556382 -0.13586952
0002e0 74 49 96 3b 90 b5 3a be 3e 6e 69 be 38 3a 03 3d
       0.004586393 -0.18233323 -0.2279596 0.032037944
0002f0 a8 e6 40 be 2b a1 ac be 3d e3 af 3d 20 cf e3 bd
       -0.18837988 -0.3371671 0.08588264 -0.1112349
000300 3e 7c df bd cd 13 ab be 64 6a 3f be 99 e2 aa bd
       -0.10912369 -0.33413544 -0.18692929 -0.08344001
000310 e8 0f 10 3e 35 37 59 be 39 6c 93 bd b7 4e b4 3c
       0.14068568 -0.21212466 -0.07198376 0.02201019
000320 9c be 33 bc e2 b8 8b be ab ce be be ad 61 be be
       -0.010970738 -0.27289492 -0.3726705 -0.37183896
000330 89 6d 72 be 88 ad 62 be eb d6 e8 be 8e 11 1b be
       -0.23674597 -0.2213651 -0.4547647 -0.15143415
000340 5f fb 96 be a1 62 8b bd 8d 0d 49 be ea bb da bd
       -0.29488656 -0.06805921 -0.19634075 -0.10680373
000350 0d 11 62 be 57 06 e3 bd 6a 81 cc be a1 62 99 be
       -0.22076817 -0.110851936 -0.39942485 -0.2995806
000360 56 b8 5b be 83 d7 d1 3b c8 fc f0 3d d2 da 4e bd
       -0.21457037 0.006403865 0.11766964 -0.050501652
000370 46 61 4b be 65 76 94 be e1 61 0f 3e 10 f3 59 bd
       -0.19861326 -0.28996578 0.14002182 -0.053210318
000380 7c 78 ca bd d3 85 a6 be ad 00 9b be 6e c2 53 3d
       -0.09886262 -0.32523975 -0.30273953 0.051699094
000390 28 5f 1d be 0d 4e 84 be 8f 52 9c be cc 66 98 be
       -0.1536833 -0.25840798 -0.30531737 -0.29765928
0003a0 96 e9 06 be c0 28 25 be 02 cf 08 be 47 5c 52 be
       -0.13175043 -0.16128826 -0.13360217 -0.20543014
0003b0 1c 30 16 be 7a 55 90 3d f8 1d d6 3d fc f8 8a be
       -0.1466679 0.07047553 0.10454935 -0.27143085
0003c0 b8 17 84 3c 5e f4 b0 be 7a 47 6a be ac 40 58 be
       0.016124591 -0.34561437 -0.22878829 -0.2111842
0003d0 39 aa bc be 2d 82 ec be 09 05 9a bd 1c 4a 91 3d
       -0.3684862 -0.46193066 -0.07520492 0.07094213
0003e0 ae 91 94 3d fd a7 26 be 35 d6 8d be f4 c6 b4 bd
       0.07254349 -0.1627502 -0.2770249 -0.0882701
0003f0 fd e2 cc be ef c5 58 be c7 62 67 be ff 44 8b be
       -0.40016928 -0.21169256 -0.22596274 -0.27201077

fc2.weight f4 [256, 260]
000000 ee c3 a9 bc 5b 85 fc bd c3 36 75 be ab 0d a1 bc
       -0.02072331 -0.12330123 -0.23946671 -0.019659838
000010 5a 17 0e bd 94 c6 5d be 7b 28 95 bd 5b 1d b4 bd
       -0.03469024 -0.21657783 -0.07283112 -0.087946616
000020 ed bd fa be 83 9a df 3d 3c 77 1a 3d ce 40 95 3c
       -0.48973027 0.10918143 0.037711367 0.018219378
000030 c0 a7 e4 3d d5 00 a8 bd be c7 76 be 46 53 52 3d
       0.11164808 -0.08203284 -0.24099633 0.051348947
000040 ca 75 26 be 69 57 3d bd 47 d4 11 bb 30 9a bb be
       -0.1625587 -0.04622594 -0.0022251771 -0.36641073
000050 9e 3b 3f be 22 01 72 3d 5d 6a 3e bc df 37 c4 bc
       -0.18675086 0.05908311 -0.011622039 -0.023952423
000060 6e c9 be bc 12 21 f8 bd 94 52 48 be 43 9f af 3c
       -0.023289409 -0.12115683 -0.19562751 0.021438247
000070 82 07 1f 3c 36 3b 58 3e 7e 31 a8 bd fc a3 2d bc
       0.00970638 0.21116337 -0.08212565 -0.010598179
000080 a9 fb e3 be ca b9 da 3d ce a3 46 bd ef 26 9b bd
       -0.4452794 0.10679968 -0.04849606 -0.07575785
000090 3c 5c a7 bd 9a ae d7 bd a7 1c 1a 3e 96 5f 19 3e
       -0.08171889 -0.105313495 0.15049993 0.1497787
0000a0 82 96 ab bd 72 d8 11 be 45 a4 4a be 8e 62 a3 3d
       -0.083783165 -0.14242724 -0.19789226 0.07977782
0000b0 55 cc 5d 3a b0 9a 84 bd e9 e0 96 3d 87 a6 05 3c
       0.0008460929 -0.06474817 0.07367117 0.008157379
0000c0 31 6a fa 3c 25 ea 9d 3b e8 32 c1 bd 75 85 77 3e
       0.030568214 0.004819172 -0.09433538 0.24172004
0000d0 df 31 a9 3d 61 25 bb 3d f1 88 5c bc 70 32 1b be
       0.08261465 0.09137989 -0.013460384 -0.15155959
0000e0 c2 70 0a be 2c 4b 73 bd ea 44 94 be 50 86 c9 3d
       -0.13519576 -0.05939786 -0.28958827 0.09840071
0000f0 55 f2 f3 bd 5c f8 dd 3c 26 db be bc b3 2f 18 be
       -0.119114555 0.027095966 -0.023297857 -0.14861946
000100 cd fc e2 bd 00 47 70 bd 49 ab 38 bd 13 09 c5 bd
       -0.11083374 -0.05866146 -0.045085225 -0.096208714
000110 b0 ba a7 3d ef ed 43 be bf 4d 90 be 43 d3 5e bd
       0.08189905 -0.19133733 -0.28184316 -0.054400694
000120 2d b8 bb be 0e 55 50 be 46 3d 92 bd 3d 78 dd bd
       -0.36663952 -0.20344946 -0.07140593 -0.10813949
000130 8f 87 3a be f4 0d ae bc 7d a0 05 3c d5 a1 2d 3e
       -0.18215774 -0.021246888 0.008155939 0.16956265
000140 d3 7d 11 3d ba 03 11 bc e1 16 20 be 24 c2 46 be
       0.035520386 -0.008850986 -0.15633728 -0.19409996
000150 34 4a 18 3d 5b 25 1f 3d be 59 40 3d 27 08 cd 3b
       0.03718014 0.038853984 0.046960585 0.0062570754
000160 e1 72 dd bd f3 8b aa be 54 08 e9 bc c1 69 7b 3b
       -0.10812927 -0.33309898 -0.028446354 0.0038362595
000170 23 a8 1e 3e 86 15 5d be 69 f0 24 be 30 3d 21 3e
       0.15493827 -0.21590242 -0.16107334 0.15745997
000180 4f c6 4e bd 21 67 af 3d 00 67 c2 3d ef 99 53 be
       -0.05048209 0.08564592 0.09492302 -0.2066419
000190 4a bb ec 3d 58 3e 29 3e 58 a5 25 3d 0e 80 82 be
       0.1155916 0.16527689 0.040440887 -0.25488323
0001a0 7f 72 33 bd 5e 29 9e be a6 ba 00 3e 0a 89 4b be
       -0.043810364 -0.30890936 0.125712 -0.19876495
0001b0 7f 8c 09 be 32 bd 24 3d a5 e6 17 bc df 34 9b bc
       -0.13432501 0.040219493 -0.009271299 -0.01894611
0001c0 78 d8 09 3d f0 36 0b bd 2f b0 1a 3e af 7a 55 be
       0.033653706 -0.03398794 0.15106271 -0.20847581
0001d0 97 98 17 be 25 17 eb 3c 5b 95 bb 3c 63 eb 8b be
       -0.14804302 0.02869756 0.022898367 -0.27328023
0001e0 46 01 83 bd 46 4a 20 be a2 88 16 be 47 ce 49 3d
       -0.06396727 -0.15653333 -0.14700559 0.049268987
0001f0 84 a2 d6 bd 61 86 da bd ae 19 13 be f4 e2 9b 3d
       -0.10480216 -0.10670162 -0.14365265 0.07611647
000200 3b ba 75 bd 36 f2 6c 3d 42 28 ae 3b 4f 1d 74 bd
       -0.059992056 0.057848178 0.0053148577 -0.059598263
000210 fa 7d 1b be 25 05 cb be a7 52 ee 3d f9 12 48 bd
       -0.15184775 -0.39652362 0.116368584 -0.04884622
000220 4c 5f 20 be 24 b3 f5 3d e9 ee b0 bd 54 f1 fb 3c
       -0.15661353 0.11997059 -0.086393185 0.030754723
000230 50 5a 63 be a2 14 7d 3d 17 91 9c 3c 22 83 2c bd
       -0.2220242 0.061787255 0.019112153 -0.042117245
000240 46 ac d2 3d 55 92 58 bd 2c 0c aa 3d 37 25 a3 3c
       0.10286765 -0.052873928 0.08303103 0.019915206
000250 4e 86 94 3c 3a a4 2d be 0e 00 8b 3d cd fe ec bd
       0.018130448 -0.16957179 0.0678712 -0.11572037
000260 91 89 f2 bd 00 95 58 3d 13 be 9d 3e 39 f5 83 be
       -0.11842645 0.052876472 0.30809078 -0.25773028
000270 46 59 c6 bc a5 d7 dd bc d2 48 c9 be 76 d1 d9 bd
       -0.02421249 -0.027080366 -0.3931337 -0.10635655
000280 8b 7b 7c 3d 29 d2 40 be fc 17 f6 3c 64 28 a4 bc
       0.061641257 -0.1883017 0.030040734 -0.020038791
000290 db fc 73 be fc f8 59 be 3b cc 27 3d 69 6b 8e 3d
       -0.23826925 -0.21286386 0.040966254 0.069540806
0002a0 9f 95 c6 bc 53 54 8d be af 8a 6c be 88 3c 31 be
       -0.024241267 -0.27603397 -0.23099779 -0.17308247
0002b0 8a 0e 42 bd 64 84 3b 3c 21 41 cd 3c 19 23 8c be
       -0.047377147 0.011445139 0.02505547 -0.27370527
0002c0 fc 4a 92 3b b9 cc ac 3d a3 a3 b8 bd 48 b0 10 3d
       0.0044645052 0.08437485 -0.09015586 0.035324365
0002d0 f3 d1 05 3e c8 66 c3 bd df a0 01 be 12 71 5b be
       0.1306837 -0.09541088 -0.12659024 -0.21429852
0002e0 55 54 8e 3d 8f 6f fd 3c b6 49 49 3e 6c 29 05 3d
       0.06949679 0.030936984 0.19657025 0.032510206
0002f0 7c 81 ea 3b 0e 22 b2 bc ec f5 d2 3d e5 0b 4b bd
       0.007156549 -0.021744754 0.10300812 -0.04957189
000300 6b e0 05 be db ba 4b bd b2 82 a4 3c 1d d7 2b bd
       -0.1307389 -0.049738746 0.020081852 -0.041953195
000310 e9 32 4c bd f1 e0 8a 3d f0 02 0d be 84 f9 4b be
       -0.04985324 0.067811854 -0.13770652 -0.19919401
000320 8e 51 49 3e c6 a2 95 be 3d 67 a7 3b ea a9 19 3d
       0.19660017 -0.2922575 0.0051087425 0.03751556
000330 dc e0 35 bd b8 67 92 bc 3b a0 93 be 7d ec 1d bd
       -0.044403896 -0.017871723 -0.28833184 -0.03855561
000340 02 42 e0 3d 8f 41 16 3d 54 b7 b4 be 33 39 83 bd
       0.1095009 0.036683615 -0.35296118 -0.06407394
000350 6d 8e 72 be 3c e1 bd bb e2 84 ad 3c 61 f4 bc 3d
       -0.23687144 -0.0057946723 0.021181528 0.09226299
000360 0e 9c 50 3b a1 63 b9 be a7 74 ea 3d 59 34 48 3e
       0.0031831297 -0.36208823 0.11448031 0.19551219
000370 2d 6f 89 3c ed 00 94 bc f0 de 70 be bd 71 fe ba
       0.016776646 -0.018066848 -0.23522544 -0.0019412559
000380 62 89 98 bd e1 1a 40 3e 03 0f 8c 3c 94 c7 07 3e
       -0.07448079 0.18760253 0.017097002 0.13259727
000390 9b 8a be 3d e3 eb 93 bd c8 58 7f be 6e c7 a8 be
       0.09303781 -0.07222726 -0.24936211 -0.32964653
0003a0 71 52 68 be f5 d9 0d 3e 28 17 1d 3e c9 f4 a3 3d
       -0.22687699 0.13852675 0.15340865 0.080056734
0003b0 14 05 13 3e 48 e5 3d bd 0e 47 0d 3c 97 ba ab 3d
       0.14357406 -0.046361238 0.008622898 0.083851986
0003c0 11 81 e8 3d 6e 3d eb 3d 1d 08 03 bd 18 d8 b6 be
       0.113527425 0.11486326 -0.03199016 -0.3571174
0003d0 fd f6 aa 3d 85 f1 26 3e 7c 5e 84 3d a4 4e 85 3e
       0.083478905 0.1630307 0.06463334 0.2603656
0003e0 ca 4d 9a bc 7b ab cd 3d 10 e8 03 3e 4f 35 b8 bc
       -0.01883592 0.10042473 0.12881494 -0.022486357
0003f0 b9 9d c7 3c 63 45 c3 3d 72 60 6f 3d bd 59 48 be
       0.0243672 0.09534719 0.058441587 -0.19565482

fc2.bias f4 [256]
000000 e8 5a 23 be 58 a3 40 be 6b 03 07 be 1a cb 36 be
       -0.15952647 -0.1881231 -0.13184898 -0.17850915
000010 e7 76 35 be 88 9f a9 3d db 14 03 3c a3 09 01 be
       -0.17721139 0.08282381 0.008000578 -0.12601332
000020 c8 a4 17 be da 5d 10 be 77 ce 85 bd c8 a6 d4 bd
       -0.14808953 -0.14098302 -0.06533521 -0.103833735
000030 bf 5f fe bd 5f 63 aa be 12 b4 28 be d4 63 80 be
       -0.12420606 -0.3327894 -0.16474941 -0.25076163
000040 59 50 0c be 58 bd 58 be 74 99 50 be 7d 0d 53 be
       -0.13702525 -0.21165979 -0.20371038 -0.20610614
000050 2a 8c e7 bd b6 f4 fd bd 12 83 00 be 9f 89 88 bb
       -0.11306031 -0.124001905 -0.1255 -0.0041667963
000060 6d 7c c2 bc f1 bc ed bc 7c a3 c8 bd 91 41 c4 bd
       -0.023740971 -0.029020758 -0.09796807 -0.09582818
000070 cc cd 88 be c0 4d 4e be 21 51 46 be f9 7e 5e be
       -0.2671951 -0.20146847 -0.19366886 -0.21728124
000080 73 0e 24 be 20 2f 8b bd 69 04 6b 3b 4f c5 5c be
       -0.16021137 -0.06796098 0.0035860783 -0.21559642
000090 2f 62 29 be ee 1a 45 bd 71 f3 15 be 86 2e f3 3d
       -0.1654136 -0.048121385 -0.14643647 0.11874108
0000a0 26 5a 2b be 61 5c 10 be cc 8b 05 be f6 39 a3 bc
       -0.16733608 -0.1409774 -0.1304161 -0.019925099
0000b0 4a 80 17 be 36 ec 9a bd 9f bc e8 bd 53 ff 16 be
       -0.14795032 -0.07564585 -0.113641016 -0.14745836
0000c0 44 18 48 bd f4 f3 49 be 33 b5 20 be fd ce 10 be
       -0.048851267 -0.19721967 -0.15694122 -0.1414146
0000d0 1f e0 9b bd 43 89 50 be b5 f6 dc bd 9e 29 7f be
       -0.07611107 -0.20364861 -0.10789243 -0.2491822
0000e0 21 6d df bd ec a8 18 be 9d c2 41 be cf b8 34 be
       -0.109094866 -0.14908189 -0.18921895 -0.17648624
0000f0 27 2f 1d be 1b 8a 72 bd 66 04 14 be 60 b4 2b be
       -0.15350018 -0.05921374 -0.14454803 -0.16768026
000100 cd ea 53 be 0f 45 ea 3c 8d 31 84 bc 4a c6 d4 bd
       -0.20695038 0.028597383 -0.016136909 -0.10389383
000110 19 8c 5d be ef e6 57 be 87 b2 25 be 0e d7 e2 bc
       -0.21635474 -0.21084188 -0.16181384 -0.027690437
000120 b5 2d 2f be 65 46 82 3c 9f e5 3e be 58 ed 09 3d
       -0.1710728 0.015902707 -0.18642281 0.033673614
000130 cf a0 c8 bd 1b b4 58 be 83 0b b1 bd 95 71 47 be
       -0.09796297 -0.21162455 -0.08644774 -0.19476922
000140 dc 4e e5 3d 5a 3b 23 bc e6 fb 3f 3e 77 5f 39 be
       0.11196682 -0.009962881 0.18748435 -0.18102823
000150 54 b9 e3 bd a9 06 da 3c 16 c9 17 be 93 6e c5 3d
       -0.11119333 0.026614504 -0.14822802 0.09640231
000160 cb 01 0f bc 8e 28 43 bd 0e 84 20 be 2f ee 2a be
       -0.008728455 -0.047646098 -0.15675375 -0.16692422
000170 af b5 cd bd 37 96 13 be 83 21 13 be ec e8 26 be
       -0.10044419 -0.14412771 -0.14368252 -0.1629979
000180 60 ff fd bd ad b0 d4 bd 49 31 10 be c3 bf 64 be
       -0.124022245 -0.10385261 -0.14081301 -0.22338776
000190 8d 55 da 3c 47 7b 0f be cb b4 d8 bd 8e fd 27 be
       0.026652122 -0.1401187 -0.105813585 -0.16405317
0001a0 c5 35 18 be d0 78 fe 3c 9e c1 61 be f2 ec 96 be
       -0.14864261 0.031063467 -0.22046515 -0.2947765
0001b0 e9 4d 78 be 49 b5 23 be 10 24 58 3d 0c d6 1f be
       -0.2424847 -0.15987124 0.052768767 -0.15608996
0001c0 d8 94 44 bc ef be cd bd 0b 32 16 be e3 10 b7 3a
       -0.011998378 -0.10046183 -0.14667527 0.0013966825
0001d0 63 6c 31 be 1c 62 18 be 28 0d b5 bd 6e 88 f9 3c
       -0.17326503 -0.14881176 -0.088404 0.030460563
0001e0 08 2b 33 be 5c 60 32 be f7 c6 83 be d4 90 c3 bb
       -0.17496884 -0.1741957 -0.25737736 -0.0059681926
0001f0 9f 9c 14 bd b1 09 1b be 4a 64 00 be 73 2d bc bd
       -0.036282178 -0.15140416 -0.12538257 -0.09188356
000200 b6 a3 c8 bd 0c 58 f9 bd c8 a3 bf bd 81 8d 4d be
       -0.097968504 -0.12174997 -0.09357411 -0.2007351
000210 3e 5e 15 be ab a1 fe bd 31 4e ba 3d 95 75 e8 bd
       -0.14586732 -0.124331795 0.09096945 -0.11350552
000220 15 1b 18 3c 94 7f 11 be 09 c1 19 be 9e f2 35 be
       0.009283801 -0.14208823 -0.15015043 -0.17768332
000230 5b 4c 50 be d7 a4 50 be 28 5f c1 3d 2a c8 35 be
       -0.20341627 -0.20375381 0.09441978 -0.17752138
000240 ee 41 6f be 8a 7c e0 bd cd 94 56 be 01 03 43 be
       -0.23364994 -0.10961254 -0.209552 -0.19044115
000250 98 5b 4b be 18 f8 b9 bd ae c1 fc bd 77 58 48 be
       -0.19859159 -0.09080523 -0.12341629 -0.19564997
000260 1c 3a db 3d 99 64 bd 3d 54 02 e7 bd 4e 27 44 bd
       0.10704443 0.09247703 -0.11279741 -0.047889046
000270 d9 f1 82 be 03 1a 38 be aa 12 37 be a4 c0 71 be
       -0.2557514 -0.17978673 -0.17878214 -0.23608643
000280 32 33 49 be ac fd e0 bc dd 27 0f be 6a 70 2c be
       -0.19648436 -0.02746471 -0.1398005 -0.16839758
000290 45 07 2b be 98 4e 2f be 7a e1 6e be 21 a3 3b 3d
       -0.16701992 -0.17119825 -0.233282 0.04580987
0002a0 c7 10 3d be 5c 29 3d be ab fd f6 bd 24 a6 e6 3c
       -0.18463431 -0.18472809 -0.12060102 0.028155394
0002b0 a5 6f 23 be 8b 72 9d bd 77 b1 0f be 51 4c 22 be
       -0.15960558 -0.07687863 -0.14032541 -0.15849425
0002c0 ae 51 f1 bd 86 4e 99 bd f7 83 93 be 43 7d c8 3c
       -0.11783157 -0.0748568 -0.2881162 0.024473792
0002d0 ab 9f 74 3e 19 fb 1b be 73 69 5e be 3f 48 86 be
       0.23889033 -0.15232505 -0.21719913 -0.26226994
0002e0 1b 02 04 be a9 3d b1 be fb 88 86 be c2 83 19 be
       -0.12891428 -0.34617355 -0.26276383 -0.14991668
0002f0 13 fa af 3d 15 7d 4f 3d a1 76 64 be a5 3b 27 be
       0.0859262 0.050656397 -0.22310878 -0.16331346
000300 9f fa 42 be 4d 1c 07 3e 6a 10 a1 be 77 dd 6f be
       -0.19040917 0.1319439 -0.31457835 -0.23424326
000310 88 4b 39 be 96 06 b0 3d c4 1f 7a be 43 69 81 be
       -0.18095219 0.08595006 -0.2442618 -0.2527562
000320 33 47 a5 3d fb 63 0b bc 6e 88 71 be fe a9 cc bd
       0.08070221 -0.008507724 -0.235872 -0.09993361
000330 9b f1 4c be 21 07 0c be 33 aa d8 bc 20 d2 dd bd
       -0.2001404 -0.13674594 -0.026448345 -0.10831094
000340 4b f1 c3 bd 1f fb 17 be b6 e5 81 be 8d 19 9a bd
       -0.09567507 -0.14841889 -0.25370568 -0.07524405
000350 fe f0 2a be 87 c9 2a be 06 47 18 be 5d 65 90 bc
       -0.16693494 -0.16678439 -0.14870843 -0.017626459
000360 53 39 21 be 3d ce 0b be 59 09 43 be 57 4c 3f be
       -0.15744524 -0.13652892 -0.19046535 -0.18681465
000370 bf 38 37 be 6d 1d 51 be 2e 3c 2b be b7 57 fc bd
       -0.1789274 -0.20421381 -0.16722175 -0.12321418
000380 fa 74 9a bd df aa cd bd 5c fa 04 3d f3 b3 3f bd
       -0.07541843 -0.10042357 0.032465324 -0.046802472
000390 3b e9 49 be 83 b4 7d be 3e f9 d9 bd 94 ac 09 be
       -0.19717877 -0.24775891 -0.10643242 -0.1344474
0003a0 9a e7 66 be 28 50 2b be 80 4d 55 be f0 42 f5 bd
       -0.22549286 -0.16729796 -0.20830345 -0.11975658
0003b0 cb b6 40 be bd 6d 9d bd f7 f4 2f be c2 a9 3d be
       -0.1881973 -0.076869465 -0.1718329 -0.18521789
0003c0 cd 9f 0b be bf 4d 39 be 07 ca 38 3d b9 bb 32 be
       -0.13635178 -0.18096064 0.045114543 -0.17454423
0003d0 aa 4d 38 be 86 17 79 bd 7e 00 28 be 59 67 60 be
       -0.17998376 -0.06081345 -0.16406438 -0.21914424
0003e0 79 c8 80 be 13 72 2e be df 3b f1 bd 48 cd e0 3d
       -0.25152948 -0.17035703 -0.11778998 0.10976654
0003f0 0c 0d 37 be 6b 4f 56 3e d3 2d 18 be 5f 8f 54 bd
       -0.1787607 0.20928733 -0.1486123 -0.05189454

fc3.weight f4 [1, 256]
000000 1e e6 c6 bd 22 68 b3 bd 40 b3 44 3e 70 85 70 3d
       -0.0971186 -0.08760096 0.19209003 0.058721006
000010 9d 5e 75 bd 0f a7 54 3d 80 66 7a 3d 45 2a 5c be
       -0.059904683 0.051917132 0.061132908 -0.215005
000020 ef ae 00 3e 06 ba 7e bd 8c 1f 95 3d b4 50 d6 bd
       0.12566732 -0.062189125 0.07281408 -0.10464612
000030 35 79 76 bd b7 1d 8c bd 4f b4 ea bd 00 1a 92 bd
       -0.060174186 -0.06841605 -0.114601724 -0.07133865
000040 ac 11 58 3d 73 b3 4e be 9e 48 36 be 0c f6 3c 3e
       0.05275123 -0.20185642 -0.17801139 0.18453234
000050 b6 34 8e bd 82 bd 96 3d 47 0d b6 bd 18 17 5b 3d
       -0.069436476 0.073603645 -0.08889251 0.05348882
000060 f0 e6 bb 3d 91 bd c1 3d 8b f2 b7 bd 6d a3 7c bd
       0.09174907 0.09459985 -0.08981808 -0.061679292
000070 e2 83 e9 bd 49 dc b5 bd 8a 41 de bd 26 68 11 be
       -0.11402108 -0.08879907 -0.10852344 -0.14199886
000080 67 55 9f 3d f9 1b 8f 3d e0 44 6e 3d e6 a3 dc bd
       0.07779961 0.06987757 0.058171153 -0.10773449
000090 70 ee d3 bd f0 bd 5c 3d 4c e2 8b bd 36 fe 95 3d
       -0.10348213 0.053892076 -0.06830272 0.073238775
0000a0 1d 49 b8 bd a6 50 97 bd 75 5d bf 3d c7 8e 2d 3d
       -0.0899832 -0.07388429 0.093439974 0.04237249
0000b0 69 b5 b4 3d ab 54 89 3d fb 09 cb 3d d5 d3 93 bd
       0.08823664 0.06705602 0.09914013 -0.07218138
0000c0 77 29 3b 3d fa 4e af bd d1 00 a2 3d 40 7f 86 bd
       0.04569384 -0.085599855 0.07910312 -0.0656724
0000d0 f3 24 9c 3d 49 0b 34 3e 15 12 f7 3d b5 dd ca bd
       0.07624235 0.1758243 0.12063996 -0.099055685
0000e0 f4 ef 83 3d 42 e9 f0 bd fa ea c5 3d 3a 39 e0 3d
       0.06442252 -0.117632404 0.09663959 0.10948415
0000f0 d4 81 ab bd b2 19 3c 3d 9d 1c 76 bd 7e 70 da bd
       -0.08374372 0.045922942 -0.06008588 -0.106659874
000100 16 54 f8 3d 4f 31 3d 3d db fd b0 3d 72 b2 0a 3e
       0.12125413 0.046189602 0.08642169 0.13544634
000110 c9 13 11 be 84 b2 92 bd e5 6e 6a 3e 9a c6 91 3d
       -0.14167704 -0.071629554 0.22893865 0.07117958
000120 51 bd 9d bd f7 92 5e 3d e8 21 16 be a0 ca 92 3d
       -0.07702125 0.054339375 -0.14661372 0.07167554
000130 ab 68 cd 3d 41 a6 ce bd cf 1d a3 3d d4 50 01 be
       0.100297295 -0.10090304 0.0796467 -0.1262849
000140 c4 2e 8e 3d 34 8d 95 3d df c3 92 3d 1e d8 ae bd
       0.069425136 0.07302323 0.07166266 -0.08537315
000150 d6 08 a5 bd ce e5 95 3d f1 e9 ee bd 0d 84 99 3d
       -0.08058326 0.073192224 -0.116657145 0.0749589
000160 6e 99 3f 3d 2d 0c 95 bd 34 33 9b bd 48 0a a7 bd
       0.04677718 -0.07277713 -0.075781256 -0.08156258
000170 19 52 b5 3d 8d 0b 18 be 67 66 08 be ca a4 e3 bd
       0.088535495 -0.14848156 -0.13320313 -0.111154154
000180 37 17 87 bd 1d dc 7e bd e8 2a 09 3e b8 1c c5 bd
       -0.06596225 -0.062221635 0.13395274 -0.09624618
000190 8c 2a 93 3d ac a9 03 3e 4b 91 f5 3d b1 7a 88 bd
       0.071858495 0.12857693 0.11990603 -0.066640265
0001a0 e8 d3 a5 bd 14 92 87 3d 47 81 ec 3d ba b3 20 be
       -0.080970585 0.06619659 0.11548095 -0.1569356
0001b0 9b 2f d6 bd d2 26 09 be fe 72 5e 3d 9e eb b5 bd
       -0.10458299 -0.13393715 0.054308884 -0.08882831
0001c0 a3 f7 bb 3d 49 75 dc bd f6 76 a0 bd ce a0 74 3d
       0.09178092 -0.10764558 -0.0783519 0.059723668
0001d0 a4 81 cd bd ef d0 cc bd a6 19 a1 3d f7 55 74 3d
       -0.100344926 -0.100007884 0.0786622 0.059652295
0001e0 0f 5e cd bd cd e6 37 be 87 9c bc bd 32 e7 7f 3d
       -0.10027706 -0.17959137 -0.09209543 0.062476344
0001f0 b0 61 92 3d 67 a7 d3 bd 9a b9 3d 3d 8a 1c fa bd
       0.07147539 -0.10334664 0.04631958 -0.12212475
000200 0a c9 8c 3d f9 4b e6 3d e6 e8 b2 3d aa 07 1d 3e
       0.06874283 0.112449594 0.08735828 0.15334955
000210 f0 a6 70 3d 85 90 d2 bd 94 0d 82 3d b1 e2 de bd
       0.058752954 -0.10281471 0.06350246 -0.10883082
000220 49 0c 72 3d 1b b4 01 3e 7d e5 3b bd a4 1e b3 3d
       0.059093747 0.12666361 -0.045873154 0.087460786
000230 ca 84 a1 bd 54 de 1a be 91 fd 70 3d f8 ed f8 bd
       -0.07886656 -0.15123874 0.05883557 -0.12154764
000240 ca 50 94 3d 7b cc 9f bd 86 43 0a be 28 a2 9b bd
       0.07241972 -0.078026734 -0.1350232 -0.07599288
000250 88 b0 a5 bd 08 16 7b 3d 99 44 fc 3d eb 89 04 3e
       -0.08090311 0.061300308 0.123177715 0.12943237
000260 de 77 5e 3d 96 aa 68 3d aa fe 72 3d 5d 60 87 3d
       0.054313533 0.05680331 0.059324898 0.06610177
000270 50 35 23 bd a4 86 09 be 0b a7 bc bd 62 53 ac bd
       -0.039845765 -0.13430268 -0.092115484 -0.084143415
000280 ba a4 e2 bd 99 73 81 3d 19 bd a8 3d c3 7d 23 be
       -0.11066575 0.06320877 0.082391925 -0.15965943
000290 36 fc 0f be e5 4f ce 3d c0 b9 b0 bd bf d4 42 3d
       -0.14061055 0.100738324 -0.08629179 0.04756617
0002a0 ba 5d 07 be eb 67 e4 bd cd 09 07 3e 8d 82 76 3d
       -0.13219348 -0.11152633 0.13187332 0.060183097
0002b0 4f 9d 90 bd 0e a1 c0 3d 16 cf 1f 3e ed ef 8c bd
       -0.07061254 0.09405719 0.15606341 -0.068817
0002c0 27 8a a7 3d 61 ae 63 3d 86 f8 af bd 0c 9e 77 3d
       0.08180647 0.055586223 -0.08592324 0.06045346
0002d0 7d b4 86 3d 0f 4f bf bd ba f8 f8 3d db e2 13 3e
       0.06577394 -0.09341251 0.12156816 0.14442007
0002e0 ee db ad bd 31 56 15 3e 7b 5a f5 bd b7 b1 50 bd
       -0.08489214 0.1458366 -0.119801484 -0.050950732
0002f0 61 f6 9b 3d fe 97 cf 3d 2a 00 ca bd 68 a7 19 be
       0.076153524 0.10136412 -0.098633125 -0.15005267
000300 29 f6 da bd a4 51 97 3d b8 73 14 3e 42 76 ed bd
       -0.106914826 0.073886186 0.14497268 -0.115948215
000310 17 0e ec bd 5b 75 68 3d 1d 7b d4 bd 38 de 2a be
       -0.11526125 0.056752544 -0.103750445 -0.16686332
000320 01 f5 69 3d 3c 63 e5 3d bb c1 a0 bd 33 67 ad bd
       0.05711842 0.11200568 -0.07849451 -0.08466949
000330 4b b7 b6 3d 40 ee 4d 3d 70 f1 6d 3d 89 94 b4 3d
       0.08921679 0.05027604 0.05809158 0.08817393
000340 95 76 8d bd 36 09 bf 3d c4 bc e1 bd 88 f9 cc 3d
       -0.06907383 0.09327929 -0.11022332 0.10008532
000350 3f 6c d5 bd 05 6b ca bd d4 4e 77 3e 23 7f ac 3d
       -0.10421037 -0.098836936 0.24151164 0.08422687
000360 24 32 fd bd f6 6f 70 bd 10 d8 8f bd 91 72 c9 3d
       -0.12363079 -0.058700524 -0.070236325 0.09836305
000370 27 d2 d0 bd ca 48 f2 bd 0b ed c6 bd d5 a0 00 3e
       -0.101963334 -0.1183029 -0.09713181 0.12561353
000380 53 9f b3 3d 04 4a 83 3d 00 3d 87 3d 82 12 7a 3d
       0.08770623 0.06410602 0.06603432 0.061052807
000390 3f 2d 7e bd 4a 4b 88 bd 5d 05 f2 bd d2 68 ec bd
       -0.06205487 -0.06654985 -0.11817429 -0.115434304
0003a0 08 6d 09 be 4c 2e f2 bd ae 85 0f be de f1 cd bd
       -0.13420498 -0.11825237 -0.14015839 -0.10055898
0003b0 67 ca d7 bd b6 ae 9d 3d 5d a7 87 bd ff e8 e5 bd
       -0.10536652 0.07699339 -0.06623719 -0.11226081
0003c0 4c 77 96 3d 43 67 70 bd 42 b4 64 3d 54 ff 2c 3e
       0.07346973 -0.058692228 0.05583597 0.16894275
0003d0 a1 0a 14 be 4f eb d0 3d 55 9e a9 bd d5 3c ad bd
       -0.1445718 0.102011316 -0.082821526 -0.084588684
0003e0 59 a2 ba bd 49 49 85 3e 6a f5 8d 3d 0d 1e 8f 3d
       -0.091129966 0.26032475 0.06931575 0.069881536
0003f0 34 46 ff bd 5a 57 8b 3d 88 92 ab bd 0d d7 a5 3d
       -0.12464562 0.0680377 -0.08377558 0.08097658

bn1.weight f4 [256]
000000 2a fc 07 3f d0 51 20 3f 67 9e 81 3e ae 15 ce 3d
       0.53119147 0.62624836 0.25316164 0.10062729
000010 5b 36 21 3f 5f ad 31 3f 4b 83 1e 3f fc ea d5 3e
       0.62973565 0.6940517 0.6191909 0.4178084
000020 65 9c f9 3e 70 3b 0a 3f c1 a8 aa 3e 93 a2 ec 3e
       0.48752132 0.53996944 0.33331874 0.46217784
000030 72 ec c5 3e c3 2b 22 3f f1 6e 9b 3e a4 bb 81 3e
       0.38656956 0.63348025 0.3035808 0.2533847
000040 bf e4 18 3f 99 eb cc 3e 95 93 ad 3e 1e 92 f7 3e
       0.5972404 0.40023497 0.3390166 0.48353666
000050 6e f8 e1 3e b1 d1 11 3f 81 29 1c 3f c7 4c 2f 3f
       0.4413485 0.5696059 0.6100083 0.6847653
000060 6a a4 05 3f 81 d8 07 3f 1e 4b 74 3e be ee 91 3e
       0.52204 0.53064734 0.2385678 0.28502458
000070 26 a4 0b 3f 72 8e e4 3e fd 32 cc 3e e9 c2 0a 3f
       0.54547346 0.44639927 0.3988265 0.5420366
000080 9b 71 fd 3e 3d 05 d0 3e 30 24 06 3f ea 8b f2 3e
       0.49500737 0.40628996 0.5239897 0.4737237
000090 bf 91 b5 3e bb 0f 04 3f bd 39 e4 3e 7b 3c ad 3e
       0.35462758 0.515865 0.445753 0.33835205
0000a0 b4 f5 cd 3e cf 62 2a 3f 5c 04 b6 3e 9e 51 eb 3e
       0.4022652 0.6655702 0.355502 0.45960706
0000b0 73 60 29 3f c2 95 53 3f 38 f7 2a 3f 22 c3 dd 3e
       0.66162795 0.8265039 0.66783476 0.43312937
0000c0 d1 44 d1 3e 5f 47 36 3f f5 3c 08 3f b5 9d ae 3e
       0.40872815 0.71202654 0.53218013 0.34104696
0000d0 bf 6a 12 3f c2 27 00 3f a4 f5 fd 3e 04 98 e6 3e
       0.5719413 0.50060666 0.4960147 0.45037854
0000e0 f2 c4 9d 3e 56 9d e1 3e 05 05 dc 3e 4f b6 c9 3e
       0.3081432 0.4406535 0.4297258 0.39396903
0000f0 88 5b fd 3e 41 d7 98 3e ae 2c 1d 3f 3f 13 af 3e
       0.49483895 0.29851726 0.613963 0.3419437
000100 bf 77 c1 3e 4f fa b8 3e 01 ae 9f 3e c7 28 ac 3e
       0.37786672 0.3612847 0.31187442 0.3362486
000110 fe 85 3c 3f c5 56 b9 3e f1 be 01 3f 69 a0 8a 3e
       0.73641956 0.36199012 0.5068198 0.27075508
000120 3b 5e b2 3e 7b fe 16 3f 83 ae 0b 3f cb f1 f5 3e
       0.34837517 0.58982056 0.5456316 0.48036036
000130 d2 05 02 3f f1 bd e1 3e f6 c4 9b 3e 06 1c c1 3e
       0.5079013 0.44090226 0.30423707 0.37716693
000140 ff be 0a 3f e0 3e a4 3e ad 64 98 3e 21 96 04 3f
       0.54197687 0.3207922 0.2976431 0.5179158
000150 84 44 92 3e 57 f0 d3 3e f6 6d a5 3e d1 bc 14 3f
       0.28567898 0.41394302 0.32310456 0.5810061
000160 5e 97 fd 3e d1 a7 c2 3e 60 ab f1 3e 14 f6 fe 3e
       0.49529546 0.3801866 0.4720106 0.49797118
000170 6a 0f e9 3e 75 35 c5 3e f5 7f 22 3f 82 db 00 3f
       0.45519572 0.38517347 0.63476497 0.5033494
000180 e1 42 5f 3f 31 62 12 3f e5 82 ed 3e 57 c5 18 3f
       0.87211424 0.5718108 0.46388927 0.59676117
000190 a5 98 2c 3f 06 e3 0f 3f 11 13 f8 3e a1 64 98 3e
       0.6742042 0.56205785 0.48452047 0.29764274
0001a0 0e b8 14 3f 06 a5 a3 3e d9 3e 98 3e cb 8f c2 3e
       0.58093345 0.3196184 0.2973545 0.3800033
0001b0 a9 a3 e8 3c 6a 5a d7 3e b7 80 ea 3e 02 6a 1a 3f
       0.028398352 0.42061168 0.45801327 0.60318005
0001c0 0f 2e 0d 3f 42 60 35 3f 24 24 9c be f4 11 a7 3e
       0.55148405 0.7085 -0.30496323 0.32630885
0001d0 14 14 6a 3f d2 f7 3a 3f 6e 2d d0 3e 37 1a 1f 3f
       0.91436887 0.73034394 0.4065966 0.62149376
0001e0 d1 94 15 3f c9 81 b8 3e 46 eb ba 3e e7 cf 49 3f
       0.584302 0.36036518 0.36507624 0.7883286
0001f0 c9 a8 ed 3e 8a df b1 3e 3b 19 f2 3e 59 d9 a6 3e
       0.46417835 0.3474086 0.47284874 0.32587698
000200 a2 f6 2b 3f ed ab d7 3d 6e ec e2 3e 3c 70 9c 3e
       0.67173207 0.10530839 0.44321007 0.30554378
000210 40 60 70 3e 1e 1f a0 3e 14 48 07 3f 5b 1f eb 3e
       0.23474216 0.3127374 0.5284436 0.4592236
000220 21 3c 08 3f ea 0d 1a 3f c4 89 05 3f 1a cd 38 3f
       0.5321675 0.6017748 0.5216334 0.7218796
000230 ab 7c 15 3f 46 ca e1 3e aa d3 0f 3f 7e ac c9 3e
       0.58393353 0.44099635 0.5618235 0.39389414
000240 fd aa c1 3e cf 7d cb 3e 44 e8 73 3e 89 f0 58 3e
       0.37825766 0.39744422 0.23819071 0.21185507
000250 ae c8 eb 3e 4a 92 1b 3f e0 30 a0 3e e7 aa 1e 3f
       0.46051544 0.60770094 0.3128729 0.61979526
000260 37 5d 95 3e 81 33 41 3e f6 98 e2 3e 76 a4 be 3e
       0.2917268 0.18867303 0.44257325 0.3723485
000270 07 19 d2 3e e0 2f 14 3f 0b a2 cb 3e 1b a2 fb 3e
       0.4103472 0.5788555 0.39772066 0.49147114
000280 a4 47 02 3f 47 d0 b2 3e be 5a 48 3e a7 14 0f 3f
       0.50890565 0.34924528 0.19565865 0.5589089
000290 e7 3d 07 3f 97 8c 9b 3e be ca d8 3e 4a dd f7 3e
       0.5282883 0.303807 0.4234218 0.48411018
0002a0 ce 91 fd 3e 09 d6 ff 3e af a4 da 3e 18 ba 88 3f
       0.49525303 0.49967983 0.4270377 1.0681791
0002b0 9a 86 ee 3e 56 b4 b1 3e 4c 1e 3c 3f df 5e 14 3f
       0.46587068 0.34707898 0.7348373 0.5795726
0002c0 c9 1a a7 3e 45 23 01 3f 00 db 86 3e 7b f2 93 3e
       0.32637623 0.5044444 0.2633896 0.28895935
0002d0 0e 94 f5 3e 50 69 01 3f 81 7b 2a 3f b8 ee e2 3e
       0.4796452 0.5055132 0.665947 0.44322753
0002e0 19 a2 17 3f 8b 64 de 3e 15 da c2 3e 16 32 da 3e
       0.59231716 0.43436083 0.38057008 0.42616338
0002f0 d4 94 aa 3e 37 cd 5a 3e 00 5b 97 3e 73 a1 c2 3e
       0.33316672 0.21367346 0.29561615 0.380138
000300 ad 23 f3 3e 41 84 05 3f 45 ef 12 3f b5 77 49 3f
       0.47488156 0.5215493 0.57396346 0.78698283
000310 7b b9 f0 3e c6 87 97 3e 65 cb 14 3f e2 72 07 3f
       0.4701651 0.29595774 0.58122855 0.5290967
000320 3b f0 a6 3e 07 b3 28 3f 5f 07 13 3f ce 0a d5 3e
       0.32605156 0.65898174 0.5743312 0.41609806
000330 06 7c cd 3e 30 a0 b4 3e 91 fe 0d 3f d7 90 ed 3e
       0.40133685 0.35278463 0.5546656 0.46399567
000340 27 50 24 3f e0 74 8c 3e d4 73 d7 3e 17 ba bf 3e
       0.641848 0.2743292 0.42080557 0.37446663
000350 60 de 0c 3f 31 16 89 3e d7 ad 96 3e fa 93 cc 3e
       0.5502682 0.26774743 0.29429504 0.39956647
000360 c4 58 18 3f 67 47 e0 3e e1 85 03 3f 65 d3 23 3f
       0.59510446 0.43804476 0.5137616 0.6399444
000370 0b 68 ab 3e d4 9f fe 3e 03 26 11 3f 37 a9 06 3f
       0.33477816 0.49731314 0.56698626 0.5260195
000380 71 62 0d 3f 03 99 e4 3e 6b 07 a6 3e b1 ac 04 3f
       0.55228335 0.4464799 0.32427534 0.51826006
000390 37 3c c7 3e 95 98 8b 3e 56 ff a6 3e e7 f6 8b 3e
       0.38913128 0.27264848 0.3261668 0.2733681
0003a0 da 28 a2 3e 14 1c f2 3e 5a 30 ee 3e 21 2a b6 3e
       0.31671792 0.47287047 0.46521264 0.35579017
0003b0 5c 1b 01 3e cf ae c9 3e ce ba 53 3f 72 64 06 3f
       0.12608093 0.3939118 0.82706916 0.5249702
0003c0 15 22 16 3f 60 44 dc 3e 01 7e b6 3e d4 14 0a 3f
       0.58645755 0.43020916 0.35643008 0.5393803
0003d0 80 fb ca 3e 95 86 eb 3e d7 3a 41 3f f8 1f af 3e
       0.39645004 0.46001115 0.7548041 0.34204078
0003e0 28 5f 24 3f 94 3c a1 3e 46 09 cf 3e 25 68 ae 3e
       0.64207697 0.3149153 0.40436763 0.3406383
0003f0 12 51 98 3e ec 74 34 3f 5c c0 0f 3f 18 55 bd 3e
       0.29749352 0.7049091 0.5615289 0.36978984

bn1.bias f4 [256]
000000 33 a4 96 bd 17 a5 10 3e 8e a4 e2 3d 68 82 c5 bd
       -0.07355537 0.14125477 0.110665426 -0.09644014
000010 74 3e 90 3c 2c 1d 6e 3e 80 d7 40 3e 48 2f 79 3e
       0.017607905 0.23253316 0.18832207 0.24334443
000020 7c cb 16 3e ba 75 0b 3e 91 2c 0b 3c 6d b2 e0 3d
       0.1472606 0.13619128 0.008494512 0.10971532
000030 c0 e8 c5 3d 42 58 35 3e 11 9f 51 3e 89 cf 7a 3d
       0.09663534 0.17709449 0.20470835 0.061233077
000040 68 bd 29 3e d0 4e cd 3d a6 78 b6 3d 27 6c 1c 3e
       0.16576159 0.10024798 0.089097306 0.15275632
000050 a2 c3 e9 3c e7 32 ef 3d b9 49 80 3e b8 8a 4d 3e
       0.028535668 0.11679631 0.25056246 0.20072448
000060 71 81 98 3d 14 7f 4e 3e cf ec a2 3d 90 d8 97 bd
       0.07446564 0.20165664 0.07955324 -0.07414353
000070 a6 81 fe 3d 2e ac 20 3e ba 6c f7 3d 18 ca 13 3e
       0.12427072 0.15690681 0.12081285 0.14432561
000080 4a 42 08 3e 32 9f 01 3d ae 6f 48 3e 74 de 5c bc
       0.13306537 0.03164596 0.19573852 -0.013480771
000090 de 48 d1 3d ea cf 92 3d 14 c2 ee 3d c3 03 dd 3d
       0.102189764 0.07168563 0.11658111 0.10791733
0000a0 f0 95 b2 3d 49 35 1d 3e 73 70 64 3d 64 6f 50 3e
       0.087200046 0.15352358 0.055771302 0.20354992
0000b0 64 d6 28 3e 50 24 43 3e 0b 11 41 3d 42 06 4c 3e
       0.16488034 0.19056821 0.047135394 0.19924262
0000c0 e2 c7 cc 3d 8f 50 1c 3e 97 5b d0 3d dc b9 76 3d
       0.09999062 0.15265106 0.101737194 0.060235843
0000d0 8b 13 2a 3e e2 89 11 3e 09 17 bd 3d c4 4f f4 3d
       0.16609018 0.14212754 0.09232909 0.119292766
0000e0 01 34 a1 bc aa 4c 41 3d 52 79 00 3e 51 ea ed 3d
       -0.019678118 0.047192253 0.1254628 0.11616958
0000f0 9d 73 c2 3c 10 88 dd bc dd 06 2f 3d aa e5 fc 3c
       0.02373677 -0.027042419 0.042731155 0.030871231
000100 53 3e 19 3e 75 80 33 3c 24 0a e1 3d 1f de f8 3d
       0.14965181 0.0109559195 0.10988262 0.12151741
000110 3d 85 3e 3e 0d 93 fb bb c6 b7 bc 3d e3 40 08 be
       0.18605514 -0.007677442 0.092147395 -0.13306002
000120 a9 e9 f5 3c 81 c4 2b 3e cd d1 13 3e 3c 8c 37 3d
       0.030018644 0.16774179 0.14435501 0.044811472
000130 88 4c 0b 3e 1a f6 a5 bb 31 96 41 3d d4 a6 eb 3d
       0.13603413 -0.005064738 0.047262374 0.11506429
000140 47 68 05 3e 4f 34 1a 3e a6 4a 30 3d bd 1d 76 3e
       0.1302806 0.15059017 0.04303994 0.24034782
000150 32 bb 11 be 32 44 80 3e 26 82 53 bc c6 3f 0a 3e
       -0.14231566 0.2505203 -0.012909448 0.1350089
000160 70 4a df 3d 70 04 fc 3d f9 d6 e5 3d 99 02 d9 3d
       0.1090287 0.12305534 0.112226434 0.105961986
000170 bb 95 67 3d 44 d0 39 bd 91 e1 5e 3d 01 02 e6 3d
       0.05653928 -0.045364633 0.054414336 0.11230851
000180 8c 61 0d 3e 12 2b d1 3d 88 28 8b 3d 6b 19 81 3d
       0.13806742 0.10213293 0.0679484 0.06303676
000190 2a f5 e1 3d 03 6f 39 3e 8d 2a 8a 3d 2a 41 ff 3d
       0.110330895 0.18108754 0.06746397 0.12463601
0001a0 b4 c0 02 3b b3 97 02 3e 07 2a 4e 3d 97 41 c4 3d
       0.0019951286 0.12753181 0.05033305 0.09582823
0001b0 42 7d df 3e a1 c3 15 3e b1 eb c0 3d 2b e9 09 3e
       0.43650252 0.14625408 0.094199546 0.13467853
0001c0 2a 5c a6 3b 77 45 f9 3d 9d 87 91 be 18 bc ed 3d
       0.005076905 0.121714525 -0.28423777 0.11608142
0001d0 17 61 50 3c a7 cc d8 3d d7 78 63 bc 20 4e 12 3e
       0.0127184605 0.10585909 -0.013883791 0.14287615
0001e0 20 2a a5 3d 2b e9 15 bc 18 2e 38 3e e7 05 2c 3e
       0.08064675 -0.00914983 0.17986333 0.16799127
0001f0 46 64 0c 3d 55 8d 75 bd 2c 1d 62 3d 2b e2 18 3b
       0.034275316 -0.059949238 0.0552036 0.0023328166
000200 18 3b ad 3d cb 04 4e be bd 21 eb 3d 3d a8 96 3d
       0.08458537 -0.20119016 0.114810444 0.07356308
000210 6a c9 8e 3e e1 e9 12 3e 45 52 17 3e d1 15 37 3e
       0.27888042 0.1434703 0.14777477 0.17879416
000220 2e 4a d0 3d c1 64 03 3e 1d c8 00 3e a3 f3 8d 3d
       0.10170399 0.12831403 0.12576337 0.06931236
000230 dd 3d a9 3d 21 bc 3b 3d 43 f8 13 3e c6 6a 12 3e
       0.082637526 0.04583371 0.14450173 0.14298543
000240 3e f2 d2 3d 61 14 f7 3d 88 7d 95 bd df d9 8c 3b
       0.1030011 0.12064434 -0.07299334 0.004298433
000250 01 c1 b1 bc 3c 00 5b 3e 1d 15 90 3c e7 1c 17 3e
       -0.021698477 0.21386808 0.017588193 0.14757119
000260 91 2f a1 3e 6f 72 72 3e 85 c2 13 3e ea b3 57 3e
       0.31481603 0.23676465 0.14429672 0.21064726
000270 0c 66 0c be 62 68 0c 3e e8 ab 72 3d 87 5c 02 3e
       -0.13710803 0.13711694 0.059245974 0.12730609
000280 01 06 c4 3d 95 91 2d 3d c3 39 43 be ad a3 70 3e
       0.09571458 0.042375166 -0.19065003 0.23499937
000290 41 9c a7 3d 5d 07 92 3d 76 d0 2d 3e 75 7d ba 3d
       0.081841 0.07130311 0.16974053 0.0910596
0002a0 f2 6b a8 3d c7 63 04 3c 96 88 25 3e 2a 2e 25 3e
       0.08223714 0.008080429 0.16165385 0.16130891
0002b0 f9 a8 45 3d d9 b4 2a 3e 50 ad fb 3d bc 93 02 3e
       0.048256848 0.1667055 0.12288916 0.12751669
0002c0 f8 d2 2d 3e 7d 8c 1b 3e eb d7 36 3e ac 21 51 3e
       0.1697501 0.15190311 0.17855804 0.20423001
0002d0 b8 1d 29 3e f6 bc af 3d 92 38 ae 3d 50 f5 ee 3c
       0.16515243 0.08580963 0.08506884 0.029169708
0002e0 a6 fd e8 3d 4d 7a dc 3d ac a4 18 3e 15 b2 35 3e
       0.113765046 0.107655145 0.14906567 0.17743714
0002f0 b7 6a f3 3d 9a a4 91 bd 94 c7 ec 3b 2f 30 d4 3d
       0.118855886 -0.071114734 0.00722594 0.10360753
000300 2d 45 d1 3d d4 4c 28 3e 8e 40 50 3e 09 a5 03 3e
       0.10218272 0.16435558 0.20337126 0.12855925
000310 5f 68 41 3d 9d b8 29 3c 6c 77 74 3d 87 d4 18 3e
       0.047218677 0.010358957 0.059684202 0.14924823
000320 bf eb 23 3e 06 3a 29 3e bd 37 21 3e 8d 90 93 3d
       0.16007899 0.1652604 0.15743919 0.07205305
000330 7a d1 85 3d 47 76 ec 3c 17 06 01 3e 6f 19 03 3e
       0.06534095 0.028864993 0.1259998 0.12802671
000340 a4 d6 13 3e 5f 4f 8d 3d de c4 99 3d c2 a7 fd 3c
       0.14437348 0.068999045 0.075082526 0.030963782
000350 10 75 b6 3d e7 85 ad 3b 47 61 4a 3d 1d 3b 8f 3d
       0.08909047 0.0052955034 0.049409177 0.06993697
000360 c6 5d 11 3e 8b b9 46 3e f7 4a b7 3d 40 c9 28 3e
       0.14195928 0.19406717 0.08949845 0.16483021
000370 b3 0e 05 be 08 d7 69 3d 63 2c 12 3e 38 76 87 3d
       -0.12993889 0.057089835 0.14274745 0.06614345
000380 2b f4 f2 3d 7d c5 5e 3d 79 11 a1 bd df 2d ae 3c
       0.118629776 0.05438756 -0.07864661 0.021262107
000390 7e 25 26 bc 39 bf 5e 3b 93 ba 82 3d 5d 36 5b 3d
       -0.010140775 0.003398849 0.063832425 0.05351864
0003a0 e3 81 7d 3d 78 28 cb 3d 17 b4 00 3e d0 f2 14 3e
       0.061891448 0.09919828 0.12568699 0.1454575
0003b0 44 44 99 be 39 75 8e 3d 8f 04 3c 3e bb 5d e0 3d
       -0.29934895 0.06955952 0.18361114 0.10955378
0003c0 c0 05 dc 3d d0 d8 80 3d f2 6d a8 bb c1 b6 1c 3e
       0.10743284 0.06291354 -0.0051400596 0.1530409
0003d0 75 47 7a 3d cd 50 20 3d 9a d7 6c 3e ad 71 9e 3d
       0.061103303 0.039139558 0.2312912 0.07736526
0003e0 ce f0 47 3e 6c d5 6e 3d e1 b0 4a 3e 01 b2 be bd
       0.19525453 0.058309004 0.19794036 -0.09311295
0003f0 95 36 a9 bd e7 07 d3 3d d8 94 4b 3d c9 3e 13 3d
       -0.08262364 0.103042416 0.049702495 0.03594855
