2 - Continuous Control -DDPG/trained_agents/ddpg_reacher20_checkpoint_actor.pth (torch_old, 307672 bytes, 10 tensors)

fc1.weight f4 [256, 33]
000000 af 04 cf ba 60 f9 ec 3c ce 38 85 bd eb 91 74 3a
       -0.0015794242 0.028927505 -0.06504975 0.0009329605
000010 d9 ef cb 3c 25 97 aa bc 03 e6 f6 3c 10 ed c1 3c
       0.024894642 -0.020824024 0.030138975 0.02367261
000020 b5 1c f9 bd 02 ba d3 bb 10 8d 32 3b db b9 3a bc
       -0.121636786 -0.006461383 0.0027244724 -0.01139685
000030 1a 79 a6 3c a5 2e 1f bd 7b 92 26 bd b2 d3 67 3d
       0.020321418 -0.038862843 -0.04066704 0.056598373
000040 28 b6 aa bc ea 6b 7f 3c 8d aa 1f 3b 96 51 65 3a
       -0.020838812 0.015589694 0.002436313 0.0008747814
000050 a5 70 87 3c 6c cf 95 3c f8 c7 7c 3c d1 84 95 bc
       0.016533205 0.018287383 0.015428536 -0.018251808
000060 90 d7 95 bc 84 a1 05 3d 24 9d 7a bc 32 8c 4e 3e
       -0.018291265 0.032624736 -0.015296254 0.20170668
000070 b0 68 27 3d 6e b7 1c 3d 6e f6 4e be 88 45 d7 3c
       0.040871322 0.03826087 -0.20211193 0.026278272
000080 4a ff 12 3d 10 29 04 bc 2d f3 c5 3d c2 87 d2 bd
       0.035887994 -0.008066431 0.09665523 -0.102798
000090 d9 17 55 bc f3 37 3e bc 68 39 af bc 6c 69 8f bc
       -0.013006174 -0.011610019 -0.021389678 -0.017506324
0000a0 2f f5 69 bd 2f 20 a7 bc 53 b9 f0 3c 7d b2 45 3d
       -0.05711859 -0.020401089 0.029385244 0.048265923
0000b0 36 ea a0 3a 1e 7e 23 bb 22 2d 2d 3d c7 23 7e bc
       0.0012276832 -0.0024946998 0.04227937 -0.01551146
0000c0 c4 0c c8 3c 47 09 f4 3c a2 96 ea 3c 57 25 14 3d
       0.02442015 0.02978958 0.02863628 0.036168423
0000d0 84 ff fe bc 46 10 9e 3b c5 0f fa bc bf 6f 39 bd
       -0.031127699 0.0048237173 -0.030525098 -0.045272585
0000e0 3e c9 a3 bb d5 f0 b8 bc 64 50 58 ba ff fc a3 3c
       -0.004998355 -0.022575775 -0.0008251725 0.020018099
0000f0 d1 74 af 3c cd d8 70 bd 80 ef 71 3c 89 08 ec bd
       0.021418007 -0.058800507 0.014766574 -0.115250655
000100 a0 0b 66 3b 4c ad 3d 3e 5b 4d 8f 3b 47 46 2c 3d
       0.0035102144 0.18523139 0.004373235 0.04205921
000110 93 00 d4 3d 1b c8 1f 3b b0 b0 1c bd 34 b6 f0 bc
       0.10351672 0.0024380747 -0.03825444 -0.029383756
000120 a5 ee 37 bc aa f0 d1 bc 0a d3 b7 bd 82 8a 80 3c
       -0.011226331 -0.025627453 -0.089757994 0.015691046
000130 80 86 80 bb 51 dd 3d 3c a8 d5 85 3c ed 32 8b 3c
       -0.0039222836 0.0115884105 0.01633723 0.016992057
000140 fe 6b 30 bc d4 14 65 bd 75 31 b5 bb 01 93 1e 3d
       -0.010767935 -0.055928066 -0.0055295774 0.038714413
000150 a2 33 02 bd 20 f9 ea ba 00 a3 92 3d 9c 36 c3 3c
       -0.031787522 -0.0017927028 0.07159996 0.02382975
000160 6f 1f 20 3c 83 08 aa b9 c4 b4 bd 3b 1e d0 c9 bd
       0.009773119 -0.00032431268 0.005789371 -0.09854148
000170 d5 26 0c 3d d1 4a 09 3e 2d 9d c1 3c d0 26 63 3d
       0.03421672 0.13407446 0.023634518 0.055456936
000180 55 5e d6 bd 5e 2a 61 3d 36 c6 ce bd fc 90 aa 3d
       -0.10467211 0.054972045 -0.100963995 0.08328435
000190 46 07 28 3d 12 05 93 bd 86 67 03 bd 8d 2a 15 3d
       0.04102256 -0.071787015 -0.03208115 0.036417533
0001a0 ab 1b 5d 3d 68 3e f8 bc 17 d0 16 3d a1 0e 52 bc
       0.053981464 -0.030303195 0.036819544 -0.012820871
0001b0 15 59 0d bb a2 6e 42 3d e5 1b 00 3b a7 e8 16 bc
       -0.002156799 0.04746879 0.0019547876 -0.009210742
0001c0 0f ff e4 bc 81 5e 69 3d 1a 1c 24 bc 55 8c 76 bc
       -0.027953653 0.05697489 -0.010016466 -0.015048106
0001d0 46 f2 98 3d ba 12 aa 3c 3a 76 59 3c 85 29 4c bd
       0.07468085 0.020760883 0.013272816 -0.049844284
0001e0 12 69 8d bd fa b6 01 3d b0 e8 90 bc 55 ea 7a bc
       -0.06904806 0.03166864 -0.017689079 -0.015314658
0001f0 12 4b da 3c a5 0c de 3c 74 0e 67 3e 92 0a 51 bd
       0.026647124 0.027105639 0.22564107 -0.05103547
000200 9e d9 6c 3d bc 8f 05 be b8 43 24 bd fa dc ed 3d
       0.057824723 -0.13043112 -0.040103644 0.116144136
000210 4a a3 ac 3c 84 64 8c bd 19 5e c4 bb f6 e3 c9 bc
       0.021073956 -0.06855109 -0.0059926626 -0.024644833
000220 86 bd 89 bb f1 c3 a0 3c a2 15 6c bb db 41 bb bc
       -0.004203501 0.019624682 -0.0036023636 -0.02285855
000230 80 b6 2c 3e 57 37 fe bc 0b 3d 09 bd 85 ce f3 bc
       0.16866493 -0.031032247 -0.03350548 -0.029761562
000240 a5 a2 d1 3c 03 2c 36 bd b1 af 70 3d 41 08 c7 3c
       0.02559025 -0.044475567 0.058761302 0.024295928
000250 f1 86 92 3b 38 07 45 3d 06 83 3c 3d 01 de 70 bc
       0.0044716527 0.048102587 0.04602339 -0.014701367
000260 4d 9d 53 3c fc 1d f1 3c 52 fa d0 3c 3a 59 af bd
       0.012915921 0.029433243 0.025509987 -0.085619405
000270 4c 18 98 bc 1a 95 35 3d 8c 6b 6f bd 23 35 1c 3d
       -0.018566273 0.044331647 -0.058452174 0.038136613
000280 d4 f0 e1 3a fa c8 27 3d cc 2f 74 bd e8 b1 66 3d
       0.001723791 0.04096315 -0.059615895 0.05632201
000290 0d 5c 33 be 39 3d db 38 51 dc 82 3d 4a 1e a7 bc
       -0.17515583 0.000104541374 0.06389678 -0.020400185
0002a0 ee ec 0f 3b a1 01 2e 3c 27 ac cb bc 2f 0b 10 bc
       0.002196129 0.010620506 -0.024862362 -0.008791729
0002b0 47 6a c1 38 90 3b 90 bc 99 1d 59 3d 76 22 99 bc
       9.222753e-05 -0.017606527 0.053006742 -0.01869319
0002c0 51 7c 33 3c 73 3d 9f bc 58 68 30 bb 56 83 75 bc
       0.010954932 -0.019438481 -0.0026917662 -0.014984926
0002d0 b4 73 84 bc e4 76 1c 3b 9f 20 ec bb d3 47 c2 3b
       -0.016168453 0.0023874575 -0.007206037 0.0059289723
0002e0 b2 42 e6 ba 22 81 91 3c 64 d5 25 bc a4 ff 43 bb
       -0.0017567484 0.01776177 -0.010121677 -0.0029907012
0002f0 2b b2 a6 3c 11 77 45 bb f3 fe 83 bc ee f9 7f 3d
       0.020348629 -0.0030130784 -0.01611278 0.06249421
000300 d3 4e cd 3c 37 ec 68 3b 14 ce 7f 3d 60 f4 d5 bd
       0.025062 0.0035541186 0.06245239 -0.104470015
000310 0e 00 7f 3d da 26 a9 be 00 1e 08 3c ba 7e 7b 3d
       0.06225591 -0.33037454 0.008307934 0.061400153
000320 df d5 0b 3d 27 75 17 3c cb 67 91 3c 9d 94 e7 bb
       0.03413951 0.00924424 0.017749688 -0.0070672766
000330 46 ba 80 bc 60 21 b5 3c 4a bf ad 3d c4 13 f6 bc
       -0.015713822 0.022110641 0.08483751 -0.030038722
000340 b8 6c ae 3c d9 eb 8f 3d aa 11 92 3d 21 ca 2b 3c
       0.021292076 0.07027406 0.071322754 0.010485203
000350 fb 2c 7f 3d d1 fe bc 3d bb b4 96 bc 41 f5 2d 3b
       0.062298756 0.0922829 -0.018396726 0.0026543888
000360 cd 55 c3 3b 7d 70 5f bc fd 4e e2 3c 38 16 f4 bb
       0.005961156 -0.013637659 0.027625555 -0.0074489377
000370 98 48 42 3c 1d a0 b2 3c 0a 74 f6 3c a5 ed d8 3c
       0.011858128 0.021804864 0.030084629 0.026480505
000380 e1 d1 a8 bb 9c 2a 0c 3e 75 83 e6 3c 68 0e c5 3c
       -0.0051519726 0.13688129 0.028138855 0.024054721
000390 16 f4 12 be 08 d9 6f 3d 84 a5 49 3e f0 ac e6 bc
       -0.14350924 0.058556587 0.19692045 -0.028158635
0003a0 2e 0f e9 3d 6b 76 39 bd f9 a6 bf ba e5 2b db bc
       0.113798484 -0.045278948 -0.0014621905 -0.026754329
0003b0 02 e9 42 3d 7c c0 c6 3c 03 f6 83 3c 37 5f a5 bc
       0.047585495 0.024261706 0.016108518 -0.020187004
0003c0 26 6e 3d 3d 92 23 94 3c 80 a2 3f 3d ad 1e 4d 3d
       0.046247624 0.018083367 0.04678583 0.050078083
0003d0 bf 4d 7c 3d 72 fa 0f 3d 02 73 a7 3d 9e dd 03 3c
       0.061597582 0.035150953 0.08176233 0.008048443
0003e0 dd dc 0c bc 9f ea f6 bb fd e4 e0 bc 4e 0b a0 ba
       -0.00859758 -0.007535293 -0.02745294 -0.00122104
0003f0 6f 72 07 3d ac 5b f4 bb 22 3a 46 3c 94 1b 91 3b
       0.033068117 -0.007457217 0.012098821 0.0044283364

fc1.bias f4 [256]
000000 5c 5a 66 be 19 33 8e 3c 42 1e e1 3b e3 75 b9 bd
       -0.22495407 0.01735835 0.006870062 -0.09055688
000010 7c 5f ba bd 14 f9 3a be 36 0b 9a be b1 91 ea bd
       -0.091002434 -0.18259078 -0.30086678 -0.1145357
000020 b9 82 3d bd c8 08 5d be 2b 1f 99 3b 11 fb 07 be
       -0.046267245 -0.21585381 0.004672905 -0.13279368
000030 70 d7 9b bc 24 d8 0a be fe 13 75 3c dd 08 2f bd
       -0.019023627 -0.13559014 0.01495838 -0.042733062
000040 19 61 88 3b 58 4b 7e be e9 a9 d7 bd d3 df e3 3d
       0.0041619656 -0.24833429 -0.10530455 0.111266755
000050 02 81 25 be 91 20 e4 bd 5c ec ff 3d 90 91 c9 bd
       -0.16162494 -0.11139024 0.12496254 -0.09842217
000060 a0 80 16 3b 83 17 03 be 9b 68 c1 bd be 21 be bd
       0.002296485 -0.12801938 -0.0944378 -0.092837796
000070 99 6a 81 ba 10 a9 93 bd 04 25 65 3d 9c 2d c0 bd
       -0.0009873688 -0.072099805 0.055943504 -0.09383699
000080 50 34 04 3e 8a 1f c9 3d 5a 58 80 bd bc 1f 37 be
       0.1291058 0.09820469 -0.06266852 -0.178832
000090 ef 96 9d bd 1a e7 51 be 7f 44 3d be 40 96 24 bd
       -0.07694804 -0.20498314 -0.1848316 -0.040182352
0000a0 ff 18 3d bd 6f f4 20 bd 79 6c 69 bd 27 8e af 3c
       -0.046166416 -0.03929561 -0.056988213 0.021430088
0000b0 c4 bb 28 be 94 17 7c bd cd ef cb 3c 73 3e 98 bd
       -0.16477877 -0.061545923 0.02489462 -0.07433786
0000c0 da c6 b9 3b 04 b2 8c bd ba 21 28 be bd 73 c0 bd
       0.005669457 -0.06869891 -0.16419116 -0.09397075
0000d0 2d 3d c0 3d 1a 85 5d bd d4 a4 39 3d c9 44 05 be
       0.09386668 -0.054082014 0.045323208 -0.1301452
0000e0 97 d6 a1 3d cd b2 b0 bd b4 02 4f bc 4c 47 d9 bd
       0.07902258 -0.086278535 -0.012634922 -0.10609302
0000f0 6f 9b 9a bd c7 63 a6 bc 0a 33 8a bd 47 e1 11 be
       -0.07549178 -0.02031125 -0.06748016 -0.14246093
000100 67 50 e0 bc 93 4a bf bd 88 83 9b bc d8 85 b7 bd
       -0.027382089 -0.09340396 -0.018983617 -0.089610755
000110 b8 9c a0 3d 3c e0 25 3e 7b 0a 54 3c d9 08 2d be
       0.07842392 0.1619882 0.012941952 -0.16897906
000120 41 8d bb bd a7 cf 0a 3d c9 57 20 be c7 cf 9d bd
       -0.091578014 0.03388944 -0.15658487 -0.07705646
000130 b2 e9 29 be a6 26 66 be 06 89 21 be b2 5b 1a be
       -0.16593054 -0.2247568 -0.15774927 -0.15074041
000140 d0 b5 67 3c 70 5b e5 3c 5a 3e 41 be f7 bb 51 be
       0.014142469 0.027997702 -0.18871441 -0.20481859
000150 c6 ce 63 3d 5d de 93 3c 3d 4f cc bc 34 45 10 be
       0.055617116 0.018050367 -0.024940128 -0.14088899
000160 c7 b6 51 be e4 d5 53 be 34 ec 6f bc d8 70 95 be
       -0.2047988 -0.20687062 -0.014643718 -0.29187655
000170 4e 16 16 be bf 0f d8 bc 81 0b 58 be f2 45 28 3d
       -0.14656946 -0.026374696 -0.21098138 0.04108233
000180 d6 ce cb 3b 40 99 f4 bd 9b 3f 3d be 38 7c 85 be
       0.006219725 -0.119432926 -0.18481295 -0.26071334
000190 8f df e4 bd 8e 1d b1 bd b6 8f ce 3d ce 87 f1 bd
       -0.11175453 -0.08648215 0.100860044 -0.11793481
0001a0 be f5 e6 bd a9 01 83 be 26 72 2c bd 3e f3 76 be
       -0.1127734 -0.25587204 -0.042101048 -0.24116227
0001b0 d9 1d 67 bd a3 61 7f bd 22 74 21 be 6c 85 0c bd
       -0.05642495 -0.062348973 -0.15766957 -0.03430693
0001c0 6d ea ba 3d 65 b2 6c 3d c2 2e 56 bc 1b 6f 7a 3a
       0.091267444 0.057787318 -0.013072671 0.0009553299
0001d0 62 cf ee bd 70 10 19 bd de 86 2e 3c 88 f8 80 be
       -0.11660649 -0.03736919 0.010652272 -0.25189614
0001e0 e4 0c 91 bd 89 dc a7 3d dd 1c 90 bd 90 e3 42 be
       -0.07082537 0.081963606 -0.07036755 -0.1903212
0001f0 79 19 55 be 0c 11 14 be a1 c2 7b 3d 50 f2 fc bc
       -0.20810498 -0.14459628 0.06146491 -0.030877262
000200 86 22 4c bd 04 be 56 be 46 d5 ea bd 24 7d 06 be
       -0.04983761 -0.20970923 -0.1146646 -0.13133675
000210 96 72 9a bd ad b0 a3 3d 72 5a 74 be f3 ae 89 3d
       -0.07541387 0.079926826 -0.23862627 0.06722822
000220 0e 5d 6f bc c2 5a 1e 3a 82 c2 fd bd f7 4e 82 3d
       -0.014609588 0.00060407456 -0.12390615 0.063627176
000230 bf 1e a6 bd 85 ec 83 be b3 aa a2 3d 59 b2 7c 3d
       -0.08111333 -0.25766388 0.079427145 0.061693523
000240 25 e1 59 bd 97 02 17 3e b4 4a 97 3b 71 47 7c 3c
       -0.05319323 0.14747082 0.0046170596 0.015397892
000250 00 8b f1 3d 10 9d 64 be ce 9a 14 be bb 8d 1f be
       0.1179409 -0.2232554 -0.14512178 -0.1558141
000260 d2 69 57 3c f6 80 ac bd e8 a2 41 be de f1 61 bd
       0.013147788 -0.08423035 -0.189098 -0.055162303
000270 cc a3 03 be bc b7 1b be 0c c6 31 be 2b 3d ad bd
       -0.12855452 -0.15206808 -0.17360705 -0.084589325
000280 c7 7a 62 be c1 20 b4 bd 6a e1 ab bd 8c 01 ab bd
       -0.22117148 -0.0879531 -0.08392604 -0.083499044
000290 b3 36 5a be 54 56 a7 bd 84 c9 51 be 19 f7 12 be
       -0.21309929 -0.08170763 -0.20487028 -0.14352073
0002a0 30 65 41 be 4d d3 37 be 9b 25 65 bd a6 71 d5 3c
       -0.18886256 -0.17951699 -0.055944066 0.026055168
0002b0 54 3d 04 3e 73 85 32 3e 29 ca f3 3d 72 16 45 3d
       0.1291402 0.1743372 0.11903793 0.04811711
0002c0 99 a9 bf 3d 62 f4 72 bd 23 d8 6b be e0 f2 82 3c
       0.0935852 -0.059315093 -0.23031668 0.015984952
0002d0 94 f6 c8 3c 91 89 b0 bc 6d 11 7e be 5f 98 28 3d
       0.02453164 -0.021549972 -0.24811335 0.041160937
0002e0 4c e9 17 3e 2b 06 1a be 29 5f 29 be 89 e0 16 be
       0.1483509 -0.15041415 -0.16540207 -0.14734091
0002f0 3d e2 09 3e dc a4 4d be f3 50 87 be 63 a1 31 be
       0.1346521 -0.2008242 -0.26428947 -0.1734672
000300 31 ef 43 3e e8 10 14 3e 19 c3 b9 bc 14 cf 30 be
       0.19134213 0.14459574 -0.022676038 -0.17266494
000310 93 f4 02 be ad d2 a9 bd 8f 5c 26 be 9e 5f 56 be
       -0.1278861 -0.08292136 -0.16246246 -0.20934913
000320 fe 2b 23 be ce e8 61 be 37 37 59 be f4 db 60 be
       -0.1593475 -0.22061464 -0.21212469 -0.21958905
000330 2b fd 1f bd 03 10 df bd 5c 03 4c bc 4f 95 7f 3d
       -0.0390598 -0.10891726 -0.012451973 0.06239825
000340 d2 03 6c be 2a 60 46 be 26 64 f3 3c 15 f4 97 be
       -0.23048332 -0.19372621 0.02971084 -0.29678407
000350 37 4e 07 3d 73 4e 84 be f5 81 f7 bc bb 47 b7 3d
       0.033033576 -0.25841102 -0.030213336 0.089492284
000360 de 05 b5 bd a9 0c 0b be 62 f3 e2 3d 2a a7 97 bd
       -0.0883901 -0.13579048 0.11081578 -0.07404931
000370 b8 f3 b4 3b 05 4e a5 3d 80 89 de bc 70 94 cb 3c
       0.0055222176 0.08071522 -0.027165174 0.024851054
000380 b3 f4 dd bd 55 84 d7 bd 0e d0 2b be d4 d8 c4 3c
       -0.10837688 -0.10523287 -0.16778585 0.024029173
000390 ad 78 47 be 5d 57 5c bd b9 66 d6 bd e3 68 79 3c
       -0.19479628 -0.053794254 -0.104688115 0.015222761
0003a0 97 b5 e3 bd f6 d3 4f bd c9 20 e1 bd 03 e0 0f be
       -0.1111862 -0.05073925 -0.109925814 -0.14050297
0003b0 d2 5a 77 be 2a 36 1d 3e 6b 4a 6d bd ca 35 6e be
       -0.24155739 0.15352693 -0.0579323 -0.23262706
0003c0 ec 73 40 bd cd cb 46 bd 6b 03 93 bd d0 62 0a 3c
       -0.04698555 -0.048534203 -0.07178386 0.00844641
0003d0 50 4d 83 3c b3 60 3f be 6d 4c eb 3d 3f 52 58 3d
       0.016028076 -0.18689232 0.114891864 0.05281281
0003e0 78 e9 a3 3b 4f 6d f5 bd b0 00 c0 bd c4 ca 2f be
       0.005002197 -0.119837396 -0.09375131 -0.17167193
0003f0 66 09 af 3d 92 55 66 be de ac 3a be a5 18 39 bd
       0.085467145 -0.2249358 -0.18230006 -0.04518952

fc2.weight f4 [256, 256]
000000 51 0a 43 3d b1 d3 09 3e 0f 81 c0 bd 6b ac bf bd
       0.04761726 0.1345966 -0.09399616 -0.09359058
000010 47 0f 68 3d da a4 94 bd d7 f8 36 bd 9a ca ce 3d
       0.056655195 -0.072580054 -0.044670906 0.10097237
000020 a3 10 23 bd b7 2b 8d 3d ab 21 10 3d 55 4e f6 bc
       -0.039810788 0.068931036 0.03518836 -0.030066648
000030 40 c3 76 3c 74 28 a0 3c 10 a2 c3 bc 4a 30 bc 3d
       0.0150612 0.01955054 -0.023880988 0.09188898
000040 89 9c e4 ba 84 46 18 be f3 e1 cc 3d 21 56 b8 3d
       -0.0017441671 -0.1487065 0.10004034 0.09000803
000050 f1 d2 ed 3c 7e 0c 73 3e 23 a2 08 3e b8 cf f0 bc
       0.029031249 0.23735234 0.133431 -0.029395923
000060 6f 36 64 bd 39 a7 1b 3e 16 3f cb bd 25 1b cb 3d
       -0.055715974 0.15200509 -0.09924142 0.09917287
000070 d4 05 95 3c a0 0a a4 bd 9e 02 72 3d c7 7e ea 3c
       0.018191256 -0.08009839 0.059084527 0.028624905
000080 a7 b5 4c 3c 16 b4 1d 3d f5 66 82 bd 78 ce 0f 3e
       0.012494481 0.03850182 -0.06367294 0.14043605
000090 fa 7b 2c 3e 51 50 4d 3e e9 a9 69 3d 19 e1 89 3d
       0.16844168 0.2005017 0.057046805 0.06732387
0000a0 f3 bb c1 bb 00 ff b8 3d 09 a4 64 3d 3e 7e 76 bc
       -0.005912298 0.090330124 0.0558205 -0.015044747
0000b0 41 0b 12 3e ca 25 c2 3d b8 0e c4 3d 85 9d 8a 3d
       0.14262106 0.09479864 0.0957312 0.06768326
0000c0 06 ed 52 bd dd 7c 5e bd 32 aa d0 bd c0 a7 3a 3e
       -0.051495574 -0.054318298 -0.10188712 0.18228054
0000d0 47 99 84 3d 41 91 eb bc 56 a4 33 3e 95 64 b5 3d
       0.06474548 -0.028755786 0.17543158 0.08857075
0000e0 09 71 52 be e6 52 ab 3d 20 48 8f bc 7e f3 85 3d
       -0.20550932 0.08365421 -0.017490447 0.06540583
0000f0 05 f4 9b 3d 01 b4 ae 3c d3 25 b3 bd 48 69 e7 3c
       0.076149024 0.021326067 -0.08747449 0.028248444
000100 97 91 23 3e de ba 17 bc a8 d5 a5 bd 9c 73 19 b9
       0.15973507 -0.009260861 -0.08097392 -0.00014634285
000110 ac 93 a0 3d 0a 88 92 3c 53 e4 37 bd aa 47 29 3e
       0.07840666 0.017887134 -0.04489548 0.16531244
000120 06 0c 47 3e f7 b8 c1 bd e2 f7 7e 3d 9a fe 94 3d
       0.1943818 -0.09459107 0.06224812 0.07275124
000130 ae 97 91 bd 5e 3c c9 3c 4c e2 af 3d 35 9c 4f bd
       -0.07109009 0.024564918 0.085880846 -0.05068608
000140 83 32 c0 bd f4 81 59 bd 1b 8a b2 3d 0e ed 17 bd
       -0.09384634 -0.05310245 0.08717748 -0.037091307
000150 03 d6 89 bd 16 d9 a0 3d ea 08 18 be b0 7b 04 ba
       -0.067302726 0.07853906 -0.1484715 -0.0005053831
000160 17 9d c7 ba 6d 3f 3c 3d 44 41 77 bd aa aa 98 bd
       -0.0015229312 0.045958925 -0.060364977 -0.074544266
000170 c9 82 79 bd 06 c9 1d bb f8 0d 19 3e a4 92 90 3d
       -0.060915742 -0.0024076118 0.14946735 0.070592195
000180 31 09 ac 3a df aa 65 3d 9f ce 8f bd f4 3c 92 3d
       0.0013125298 0.05607116 -0.07021832 0.07140532
000190 8e 8a 31 bd bb d8 43 ba 3e 20 be bc 44 92 e4 bd
       -0.043345027 -0.0007470955 -0.023208734 -0.111607105
0001a0 b1 99 a2 3d eb ba 62 bd cf f4 8f 3d 4f 4c 57 3d
       0.079394706 -0.05535404 0.070291154 0.052563008
0001b0 f6 b2 ec bd 99 36 c5 bd 9f 46 48 bd 6c c5 12 3c
       -0.115575716 -0.09629554 -0.048895475 0.008958202
0001c0 e0 ab 54 3b c1 8b 52 bd 4b b7 a6 3d 73 7e 80 bd
       0.0032451078 -0.05140281 0.08140429 -0.06274118
0001d0 0b 0f 35 bc 65 f9 ae 3d 4e 60 be 3c bb 72 71 3d
       -0.01105095 0.08543662 0.023239281 0.058947306
0001e0 0a b8 a2 bd 6b ec 96 bd e3 72 86 bc 3f 27 bb 3c
       -0.07945259 -0.07369312 -0.016412204 0.022845862
0001f0 a5 9a 09 3e 86 9d 0c 3e 27 49 b2 bd 13 d5 1b bb
       0.13437898 0.13731965 -0.08705359 -0.0023778125
000200 c8 be 8a 3d 65 f3 58 3d 26 b1 27 be 82 7c de 3d
       0.0677467 0.052966494 -0.1637617 0.10863592
000210 e8 22 88 3d ce 8c 41 bd 42 80 9b 3d d6 ca ce 3d
       0.06647283 -0.047253422 0.075928226 0.10097282
000220 7f da d1 bd 56 3e 3d bd 1a 33 78 3d 41 54 87 3d
       -0.10246753 -0.046202026 0.06059561 0.06607867
000230 bd 69 38 3e 91 5b 04 be d4 05 bb bc 6a 14 b9 3c
       0.18009086 -0.12925555 -0.022829928 0.022592742
000240 44 1d 77 bd 80 ab 90 3c 05 10 4e 3d 11 77 60 bd
       -0.060330644 0.017659903 0.050308246 -0.05480105
000250 23 90 84 3d 9b c3 19 bd 45 26 a3 bd 2c 53 86 bd
       0.064728044 -0.03754006 -0.07966284 -0.065588325
000260 e1 57 72 3d 24 88 16 bd c4 94 92 b6 70 40 69 bd
       0.05916584 -0.036750928 -4.3684577e-06 -0.056946218
000270 cb 61 00 3e c4 9f f9 3b f9 f0 c6 bc 94 ca 81 3b
       0.12537305 0.0076179225 -0.024284827 0.003960917
000280 64 9d 09 be 46 8f 8d bd 92 15 2a 3e ea 02 80 3d
       -0.13438946 -0.06912093 0.16609791 0.06250556
000290 76 39 d2 3d f9 c3 66 bc e8 1b de 3d d4 5f 3f 3d
       0.10264866 -0.014084809 0.108451664 0.04672225
0002a0 8a 54 1b bd d0 b9 d5 3d 85 00 b8 bc e3 8e 30 3b
       -0.03792242 0.104358315 -0.022461185 0.0026940636
0002b0 cc 8c 79 bd 47 94 f3 3c 8f 31 2c 3d 35 8f fa 3d
       -0.06092529 0.02973379 0.04203945 0.12234346
0002c0 45 9e c3 3b 94 43 0c 3e fb 3b 53 bd 23 21 f9 bd
       0.005969795 0.13697654 -0.051570874 -0.121645235
0002d0 33 03 6e bd 00 53 8c bd f7 aa 2d bd 69 60 17 bd
       -0.05810852 -0.068517685 -0.042399373 -0.03695718
0002e0 15 fc 80 3d 7d 08 d4 3d 49 8b d8 3c 0a 84 50 3d
       0.06298081 0.103531815 0.026433604 0.050907172
0002f0 f8 38 ae 3c b3 33 c8 3d 38 de 43 bc 71 a8 9c bb
       0.0212674 0.09775486 -0.011954837 -0.004780822
000300 95 6d 82 3c 37 af 67 3d 8e 40 3a 3c 19 25 7a bd
       0.015921393 0.056563582 0.01136793 -0.061070535
000310 b9 14 84 bd 23 71 e4 bd f5 b9 c6 bb b9 07 ab bd
       -0.06449265 -0.111543916 -0.0060646483 -0.08351082
000320 97 97 34 3e 3d 9c 28 3d 7d 09 7f 3e c4 67 48 3d
       0.17635952 0.041164625 0.24905963 0.048927084
000330 96 35 bf bd 04 ae 40 be b7 64 3b 3d 31 a2 8b 3d
       -0.093363926 -0.18816382 0.045750346 0.06818045
000340 97 94 93 bc c3 78 4b 3d e7 f8 56 bc 4a 93 e9 3d
       -0.01801519 0.049675714 -0.013120866 0.11405046
000350 95 ac a4 bd 6e 60 24 be 10 d9 4c bd ba 98 a0 3c
       -0.0804073 -0.1605241 -0.050011694 0.019604076
000360 6a 87 9f 3d de 16 bf bd 4d 7e b7 3c cf 98 70 bd
       0.077895 -0.093305334 0.022399092 -0.05873948
000370 8a 60 7a bd 76 e2 78 bb bd 6e d7 3d 8f 44 b1 3b
       -0.061127223 -0.0037976778 0.105191685 0.005409784
000380 45 ca 9f bc ad bb bb bd b1 10 ee bc 26 94 a1 3c
       -0.01950563 -0.09166656 -0.029060693 0.019723963
000390 a5 8f 53 be f8 28 2f 3e 75 3a 5c bc 63 d8 2a 3c
       -0.20660265 0.17105472 -0.013441672 0.010427567
0003a0 53 c2 00 bd de 1c f3 bc f3 c3 d8 3a 17 c0 44 bd
       -0.031435322 -0.02967685 0.001653789 -0.048034754
0003b0 b4 8f 9c bd 45 8e b4 bd b2 74 80 3d bf 58 f3 3d
       -0.07644597 -0.08816198 0.06272258 0.11882161
0003c0 5e 4a ec bd c4 8a 6b bd 18 c2 4e 3d 05 e9 49 3c
       -0.11537622 -0.057505384 0.05047807 0.012323623
0003d0 3e 86 e7 bc 7e 87 14 3e d4 ae 9f 3d a0 c2 ce 3b
       -0.028262254 0.14504811 0.07797018 0.006309822
0003e0 04 52 c6 3c d3 71 7f 3d ce 42 bd 3b 8e f4 60 3d
       0.02420903 0.06236441 0.005775786 0.054920726
0003f0 18 2c 3b 3e e6 8b 04 bd bf eb 64 bd 86 00 f8 bd
       0.18278539 -0.03235998 -0.055888887 -0.12109475

fc2.bias f4 [256]
000000 57 67 2c bd 56 ce 61 3c 64 5a c5 bd 71 81 8e 3c
       -0.04209074 0.0137821045 -0.09636381 0.017395707
000010 5b 10 c4 3d 64 15 b7 3c 63 e1 a6 bc f3 ed fe bd
       0.09573432 0.022349067 -0.020371145 -0.12447729
000020 a0 01 99 3d 2d 8f 31 bd 81 b5 ea 3d 9e 72 d0 3c
       0.07471013 -0.043349434 0.114604004 0.025445279
000030 bc c5 0e 3d c7 95 02 3d 09 ff e3 bc a7 b1 4e bc
       0.034856543 0.03188112 -0.027831571 -0.012615598
000040 03 a9 46 3d 13 49 90 3c aa 6b ae bc 40 e7 73 bd
       0.048501026 0.01761297 -0.021291573 -0.05954671
000050 9c 2b 28 3d 3f 00 de 3c 4a 7d 91 bb be a4 8c 3d
       0.041057214 0.027099727 -0.0044399844 0.068673596
000060 49 37 2b bd f3 94 73 bd 6c 3b 9e 3d e6 aa 83 bc
       -0.04180077 -0.05946822 0.077261776 -0.016072702
000070 67 ba 91 bd 50 bc 1f be 63 c0 1d bd a2 c1 a9 bd
       -0.071156316 -0.1559918 -0.038513552 -0.08288886
000080 1c 08 73 3b 73 39 09 3d 85 a6 ee bb b1 93 88 3c
       0.003708369 0.033502053 -0.0072830343 0.016671987
000090 49 0c de bc 9a 10 c6 3a 66 17 6e bd 8f 33 b7 bd
       -0.027105467 0.0015111149 -0.058127783 -0.08945381
0000a0 ed 5f 0b 3d 29 d4 d2 bd 08 1d aa bc d8 b3 0b be
       0.03402703 -0.102943726 -0.020765796 -0.13642824
0000b0 c1 11 0b 3d 91 bd e3 3c 5f 33 60 bc 4b 06 af 3c
       0.03395248 0.027800353 -0.013684123 0.021365305
0000c0 26 0b fe bd 1c 63 fc 3c 3b f6 1a bd cd 2f 0a bd
       -0.1240447 0.030808978 -0.03783248 -0.033736993
0000d0 2d be 8d bc 7c 6f 94 3d 2a 57 df 3c 0b 99 97 3d
       -0.017302597 0.072478265 0.027263243 0.074022375
0000e0 95 64 2d bc 58 f3 8b bd 2c bd aa 3d b8 09 0d 3d
       -0.010583063 -0.068335235 0.08336863 0.034433097
0000f0 21 68 57 3d 21 2b 1c bd f5 e3 d5 3c c0 f7 07 3d
       0.05258954 -0.03812707 0.026109675 0.033195257
000100 ad 43 52 3d ad be db bd 09 78 95 bc e4 9f 38 bd
       0.051334072 -0.10729728 -0.018245714 -0.04507436
000110 dc 56 e1 3d e7 de d9 bb 65 e8 9c 3d c8 50 b8 bb
       0.11002895 -0.0066488865 0.07661513 -0.0056248643
000120 df 05 5d 3c 7a c2 05 39 cb 8c 88 3d 3d 81 0c be
       0.013490169 0.00012756317 0.06667479 -0.13721175
000130 da c5 d6 bc 87 2b 63 3d 9c 21 85 bd a1 3c 5b 3d
       -0.02621739 0.055461433 -0.06500551 0.053524617
000140 c5 4e ca bd 8a bd 99 3d 8a 0e e3 3c 02 78 27 bd
       -0.09878305 0.07506855 0.027716894 -0.040885933
000150 0c e3 4a 3d 51 37 b2 bd 63 7f e9 3d 45 10 55 3d
       0.049532935 -0.08701957 0.1140125 0.05201747
000160 91 95 3d bd d2 1a a2 bc b3 09 7d 3d 5d 8c 56 bc
       -0.046285216 -0.01978818 0.061776828 -0.013094989
000170 df 57 0a bc b4 09 78 bc 42 93 fd bc 19 03 3b 3d
       -0.008443802 -0.015139032 -0.030954007 0.04565725
000180 b9 01 9f 3c 42 15 20 bd 08 df 22 bd 79 a1 c4 3c
       0.019410001 -0.039082773 -0.03976348 0.024002777
000190 98 2b 93 bd 5a 50 28 bd 66 43 81 bc 6c e2 de 3d
       -0.07186049 -0.041092254 -0.015779208 0.1088303
0001a0 36 2e ec bd e3 02 b1 3d 0f d7 76 3c 0b 7f d8 3c
       -0.115322515 0.08643129 0.015065922 0.026427766
0001b0 a7 35 89 3c db 8a 00 3c 97 c1 1a bd a4 70 ab 3c
       0.016749216 0.007845606 -0.037782278 0.020927735
0001c0 39 67 80 3c c0 90 23 3d 1c 65 56 3d 3e a0 7f 3d
       0.01567422 0.039932966 0.05234252 0.06240868
0001d0 e2 71 c2 3c f8 c4 68 3d 7f b8 be bb de db 7c bc
       0.023735944 0.05682847 -0.0058203335 -0.01543328
0001e0 6b d7 b2 bc b8 36 02 3c a4 cf 28 bd 80 19 2e 3d
       -0.021831235 0.007947616 -0.041213647 0.042504787
0001f0 4d 78 8b 3c 43 b9 44 3d 85 d3 ed bc 01 f7 88 3d
       0.017025137 0.04802824 -0.029031524 0.06687737
000200 88 a5 a3 3d 88 7d e3 bc 8d 9b e1 3c c2 64 1a 3d
       0.07990557 -0.027769819 0.027539993 0.037693746
000210 dc 73 75 bd 49 64 00 3d cf f4 86 3d 20 b6 b2 bd
       -0.059924945 0.03134564 0.06589662 -0.08726144
000220 33 4a fd ba 53 a4 8d 3d 0b 51 01 bd 20 7c 07 3d
       -0.0019324481 0.06916108 -0.03157143 0.03307736
000230 78 ab ea 3c e8 24 b1 3d 1b 74 e4 3d 4b c0 41 bd
       0.028646216 0.086496174 0.11154958 -0.047302525
000240 a0 d0 10 3d b9 27 0b be 38 0e 81 bd 57 c6 6a 3c
       0.03535521 -0.13589372 -0.0630154 0.0143295145
000250 82 cd e1 3d e0 23 fc bd 6e 13 81 bc f8 35 95 bb
       0.11025526 -0.1231153 -0.015756335 -0.0045535527
000260 2a 0d fa b9 8a 8c 16 3d 1e ef cc bc 00 d3 ef 3b
       -0.00047693524 0.036755122 -0.025016364 0.0073188543
000270 13 3d 72 bd 59 bc a2 bc f2 40 2f bd 1a c2 ea bc
       -0.059140276 -0.019865202 -0.042786546 -0.028657008
000280 78 5e 7b 3d e6 70 61 bd 7b 50 b1 3d 89 8d aa bc
       0.06136939 -0.05503931 0.086579286 -0.020819442
000290 49 ef 27 bd 62 6d 95 bd 84 80 d2 ba d7 6c cb 3c
       -0.040999684 -0.07296254 -0.0016060029 0.024832172
0002a0 df f9 05 bd 05 9f c6 3d d0 78 5f 3b 96 79 0c 3d
       -0.032709 0.09698299 0.003409911 0.03429564
0002b0 34 6a 9e bc 6f f7 01 3e 07 32 09 3d 59 df db bc
       -0.019337751 0.12692045 0.033494975 -0.026839899
0002c0 81 f1 88 3c 50 01 24 bd a9 7b e4 bd e0 a3 3c bc
       0.01671672 -0.040040314 -0.11156399 -0.01151368
0002d0 8c a2 9e bc 32 f4 49 bc 1e 25 a3 3d 40 49 cd 3c
       -0.019364618 -0.012326287 0.07966064 0.025059342
0002e0 6a 53 7e bc ed a8 5c bd cf 88 33 3d 86 a3 95 bd
       -0.015522817 -0.053872038 0.043831643 -0.0730658
0002f0 fb 02 8e bd 28 1a b9 bd f2 7c 5b bd d5 91 b9 3a
       -0.06934162 -0.09038192 -0.053585954 0.0014157841
000300 83 c3 e2 bc d0 9c 43 bd d5 f1 7b bc 4e ff 48 3d
       -0.027681118 -0.04775697 -0.0153774815 0.049071603
000310 fe de 80 bd 22 f1 30 bd c0 8c 95 3c 62 e6 6f bd
       -0.062925324 -0.043198712 0.018255591 -0.05856932
000320 0a 35 88 bc 8b c1 03 be fc 48 a2 3c b7 70 37 3d
       -0.016626853 -0.128668 0.019810192 0.044785228
000330 be e9 88 bd 65 9f 84 3d 8e 9b 01 3d 25 bf 81 3c
       -0.06685208 0.064757146 0.03164249 0.015838215
000340 79 bc 23 be 50 4d a8 3b cc 12 0f be 66 17 f7 3d
       -0.15989865 0.0051361695 -0.13972014 0.1206501
000350 87 03 f3 bc 63 bf b2 3c f5 e5 17 be 67 34 81 3a
       -0.029664768 0.021819776 -0.14833815 0.0009857536
000360 6c a1 e6 bc 89 18 02 3e c6 ae 0b 3d 83 68 cb 3c
       -0.028153144 0.12704672 0.034102224 0.024830109
000370 77 d8 2b 3d d2 96 e9 3c e9 39 03 3d 8a de 46 bd
       0.041954484 0.0285143 0.03203765 -0.048552074
000380 33 99 70 bc 3b af 7e 3d 1a 3c 85 bd a6 b5 a3 3d
       -0.014684963 0.06217883 -0.06505604 0.07993631
000390 09 37 90 bd cd be d1 3d 5c 43 93 3c df 8c 65 3d
       -0.07041747 0.102414705 0.017976455 0.05604255
0003a0 7d fe 2b 3d b7 63 07 3c 93 d3 44 3d 0f 85 30 3c
       0.041990746 0.00826352 0.048053335 0.010773911
0003b0 96 6b 7d 3c cd 6f 83 bd dd c5 43 3d 2a 6f c8 3c
       0.015467545 -0.06417809 0.04779612 0.02446707
0003c0 73 08 94 bc 67 6a f6 3c 5e 8c 95 bd 22 61 5a bd
       -0.018070435 0.030080033 -0.073021635 -0.05331529
0003d0 b8 2e 09 bd a6 ae c0 bc f9 17 89 3d a7 8c 70 bc
       -0.03349182 -0.023520779 0.066940255 -0.014681972
0003e0 e0 e3 aa 3d e9 26 4a 3d ae 53 b5 bb 9a 85 86 bc
       0.08344245 0.049353514 -0.005533657 -0.016421128
0003f0 fe 07 63 3d 46 2e e2 bd 1c 9a c1 3c 4d 11 de 3a
       0.055427544 -0.11043982 0.023633055 0.0016942412

fc3.weight f4 [4, 256]
000000 0a da 7c 3d 02 fa 3d be 3d 54 5e bd 3b e6 30 bd
       0.061731376 -0.18552402 -0.054279555 -0.043188315
000010 6d 21 ca bd 8f f5 24 3d 93 6e 67 be 5a a1 5c 3e
       -0.09869657 0.040273245 -0.22600774 0.21545926
000020 71 b6 48 be 6a f3 9a 3c ff 84 1e 3e 8c e7 03 bd
       -0.19600846 0.018914897 0.15480421 -0.032203242
000030 92 1d b3 3d 62 fe 3a 3c bf c0 27 be 39 50 ce bd
       0.087458745 0.011413189 -0.1638212 -0.10073895
000040 dc ba 6d bd 5e eb e2 3d e3 2e 78 3d 18 5a 96 bd
       -0.05803953 0.11080049 0.06059159 -0.07341403
000050 67 82 c6 bd c2 79 25 be f8 2b 0f be e3 db fc bb
       -0.09692841 -0.16159728 -0.13981616 -0.007716642
000060 a2 98 47 3d 0b d9 2a 3e cb 06 3c bd 73 d2 85 3e
       0.048729546 0.16684358 -0.045904916 0.26137123
000070 05 5b e0 bc ea 51 b4 bc a7 b4 be 3c 6b 68 fe 3d
       -0.027387151 -0.022011716 0.023279501 0.1242226
000080 31 34 9d bd ae b9 30 3e c4 f6 85 3d a7 cc 25 be
       -0.0767597 0.17258331 0.065412074 -0.1619135
000090 2f 47 a2 bd de 30 d2 bd 20 94 71 bd f1 e0 63 be
       -0.079237334 -0.10263227 -0.058979154 -0.22253777
0000a0 d5 bd 2d 3d 44 b9 53 bd 92 d2 94 bd ae 20 de 3d
       0.042417366 -0.051690355 -0.072667256 0.10846077
0000b0 b5 07 59 3e f0 0a 93 3e de 63 be bc 16 19 1c 3e
       0.21194346 0.28719282 -0.02324098 0.15243945
0000c0 a7 c4 23 3e 70 62 31 3e 0d bf 30 be 39 09 02 be
       0.15992986 0.17322707 -0.1726038 -0.1269883
0000d0 58 12 ed bd f9 5b 84 be 7e cf 71 3d be 01 89 bc
       -0.115757644 -0.2585142 0.05903577 -0.016724464
0000e0 2b d6 24 be f8 b7 1e 3e 5a 8f 6a 3c e8 f3 3f be
       -0.16097324 0.15499866 0.014316404 -0.18745387
0000f0 2b 13 84 bd cb e5 d2 3d dd 5d 38 3e 3b 38 f1 3d
       -0.064489685 0.10297736 0.18004556 0.11778303
000100 56 6e a3 3b 80 c4 9d bd 88 1f 13 be 9a 4e c5 3d
       0.0049875183 -0.07703495 -0.14367497 0.09634133
000110 1e da ae bd 46 45 7f be 4e aa ea bd 82 79 10 3d
       -0.08537696 -0.2492877 -0.11458264 0.03527213
000120 8f 4a 92 be 0b 40 5c 3e 08 c9 c9 bb a8 81 32 3e
       -0.2857251 0.21508805 -0.006157998 0.17432272
000130 76 ba 96 bd 36 f0 83 3b 20 85 31 3e e1 75 12 3e
       -0.07359783 0.004026438 0.1733594 0.1430278
000140 62 18 33 be 87 6c a0 3d 83 df 05 be c6 cd 7f 3e
       -0.1748977 0.078332 -0.13073544 0.2498084
000150 6d 46 96 3d 49 70 67 3e 76 72 03 3e 0b ed fb bd
       0.073376514 0.22601427 0.12836632 -0.12301072
000160 2b 0c 06 3e 9a 73 3c 3e d0 55 d1 3d 62 3d 22 bc
       0.13090579 0.18403473 0.102214456 -0.00990233
000170 d8 01 f4 3b 76 57 bb 3c 06 ce 2d 3d f9 a0 fc bc
       0.007446509 0.022868853 0.042432807 -0.030838476
000180 84 cf cb 3d 53 d8 40 be cf 9b 8e be 2b 09 56 be
       0.0995169 -0.18832521 -0.27853248 -0.20901935
000190 93 1e 1d bd 13 3c 41 be 8c f8 51 3d 64 1f 4b 3d
       -0.038359236 -0.18870573 0.051262423 0.049590483
0001a0 77 ce ea 3d 67 cb 81 bb 5d 05 2c bd 60 14 4b 3e
       0.11465161 -0.003961015 -0.041997302 0.19831991
0001b0 77 8a 10 bd 32 a7 6a 3d ef 7a 87 3e 37 04 01 3d
       -0.0352883 0.057288356 0.26460978 0.03149816
0001c0 24 5e a2 3d 6b 8d 32 3d 1d dc a9 3e 15 ee 8e 3d
       0.07928112 0.043591898 0.33175746 0.06979004
0001d0 81 a4 ee bc 52 ff 3b be d6 24 9c bd 5f ca 60 3d
       -0.029131176 -0.18359116 -0.076242134 0.054880496
0001e0 d6 fd c3 bd 5e ed 0d 3b 5b 2d ad 3d ca 1c 3c bd
       -0.095699 0.0021656374 0.084559165 -0.045925893
0001f0 bb 54 7c bd bf f6 74 be c1 34 38 be c5 d4 32 3d
       -0.061604243 -0.23922251 -0.17988874 0.043659944
000200 c9 12 1a be 9c 02 35 bd a8 cf 93 3c 65 0a 6d bd
       -0.15046228 -0.04419194 0.018043354 -0.05787124
000210 5f 9a af 3d b3 91 2f 3e 7b 19 95 3d 60 af 2b 3d
       0.08574366 0.17145424 0.07280251 0.041915298
000220 28 34 82 be 80 bd 5f bc b8 ee 18 3d 0d dd bf 3e
       -0.25430417 -0.01365602 0.037337035 0.37473336
000230 29 5e f3 bb 87 0e 01 bd 3b 54 79 bc e1 17 d0 bd
       -0.0074269962 -0.031507995 -0.015217836 -0.101608045
000240 1e 21 84 bd 7e 30 86 3d 52 f5 b3 bd 65 96 a6 3c
       -0.06451629 0.06552218 -0.087870255 0.020335386
000250 e3 21 8c bc f8 80 11 3d d6 45 2b be 3c b0 61 3d
       -0.017106002 0.035523385 -0.16725859 0.05509971
000260 f9 a4 76 3c 66 a6 27 3d 21 5b 12 3e ba a4 17 bd
       0.015053981 0.040930174 0.14292575 -0.03702233
000270 cd c6 66 be 50 6e 03 3e 10 ae 3c 3d ae c6 29 bd
       -0.22536774 0.1283505 0.046064436 -0.04144924
000280 8b dc 4c 3e 0f 54 5f be cf b6 c7 bd ec 77 85 3b
       0.20006005 -0.2180941 -0.09751665 0.0040731337
000290 bb 0b dd bd 34 31 1c 3e ea 79 29 3e 75 17 66 3e
       -0.10793253 0.15253145 0.16550413 0.22469886
0002a0 81 de ec bd e7 f4 ee 3d 40 13 c3 3d 77 1d 2f bc
       -0.11565877 0.11667805 0.09525156 -0.010688177
0002b0 8e 42 9a 3d f8 08 5c 3e 81 5b 70 bc 4b b3 e3 bd
       0.075322255 0.21487796 -0.014670254 -0.11118182
0002c0 e2 3f 6e 3d 76 ed 3f bd 8f 77 57 bd 45 fd 4f be
       0.058166392 -0.04685732 -0.052604254 -0.20311458
0002d0 b0 49 c0 bc d7 48 6a 3e 60 1e 83 3d c2 56 8e be
       -0.023472637 0.22879349 0.06402278 -0.27800566
0002e0 68 c2 82 3d eb eb 93 bc 80 1f 26 bd a8 78 85 3d
       0.06384736 -0.01805683 -0.040557384 0.06517154
0002f0 91 cf 94 3d 82 22 92 bd 71 28 15 be 28 15 b0 3e
       0.07266153 -0.07135488 -0.14566208 0.3439114
000300 a0 95 b5 bb 91 50 c4 3d b2 a8 33 3d 8a bd 9a bc
       -0.0055415183 0.09585679 0.043862052 -0.018889207
000310 ae 16 ce bc da 28 2f 3c 1c cc f7 3c de c1 fa bc
       -0.025157299 0.010690892 0.030248694 -0.030610021
000320 c6 a1 bc 3d 83 8f db bd 80 de fd 3b 17 71 64 be
       0.09210543 -0.10720732 0.0077474713 -0.22308765
000330 db db 07 3e db be 7b bc 7d f2 6c 3d 46 45 d2 bd
       0.13267462 -0.015365328 0.057848442 -0.10267119
000340 c4 f3 c3 bc 92 94 26 3d 10 f9 f7 3c cf 6a 91 3d
       -0.023919947 0.04066903 0.03027013 0.0710045
000350 81 f2 e2 3c 96 08 ef bc dd 86 06 3e b9 e8 3b be
       0.027703525 -0.029178899 0.13137384 -0.18350495
000360 b7 71 fa 3d 58 de 25 3e 44 e3 1d bd ed a7 36 be
       0.12228721 0.16198099 -0.038546816 -0.17837496
000370 fc 24 fd 3c 58 1d d1 bd 95 71 b8 bd c5 55 0e 3e
       0.030901425 -0.10210675 -0.09006039 0.13899906
000380 16 6a 0d 3e 11 28 85 bb 7a 2b 5c 3d 98 39 14 3e
       0.1381 -0.004063614 0.0537524 0.14475095
000390 f7 53 e1 3c 25 ea dd bc 7f 8d 38 be 1e 03 73 3d
       0.027505858 -0.027089188 -0.18022726 0.059329145
0003a0 4b 51 0f bb 36 c2 26 3e 06 63 3d bc 46 61 20 bc
       -0.0021868523 0.16285023 -0.011559254 -0.009788817
0003b0 56 ba b1 3d cb 4d 88 be fd 9d 94 3d 2d b1 23 3e
       0.08678119 -0.2662185 0.072566964 0.15985556
0003c0 d4 37 d4 3c d4 62 1d 3c b8 2b 8c be e6 3b df bd
       0.025905527 0.009606082 -0.27377105 -0.109000966
0003d0 f7 91 d8 3c 01 60 b2 be 0e 69 cf bd 8f 90 62 3c
       0.026436789 -0.3483887 -0.101274595 0.013828411
0003e0 71 b9 92 bc 95 b0 87 3d fe aa dc 3d 00 f0 f4 bd
       -0.017910691 0.06625477 0.10774802 -0.11959839
0003f0 2c 0e 26 3d e8 40 a5 3e 10 43 f5 3d 09 11 64 be
       0.04054086 0.32276082 0.11975682 -0.22272123

fc3.bias f4 [4]
000000 d0 a0 25 3d 7e 15 d0 bc bd 06 12 bc 8f 0d f2 3c
       0.040436566 -0.025400873 -0.008912739 0.02954748

bn1.weight f4 [256]
000000 13 64 cc 3e 7f 36 61 3f fa 24 59 3f 08 50 04 3f
       0.399201 0.8797378 0.84822047 0.5168462
000010 20 98 21 3f fe 13 5f 3f 23 9e bf 3e 29 57 49 3f
       0.6312275 0.8713988 0.37425336 0.7864862
000020 dc 6d 71 3f f8 0e d8 3e 7c 18 86 3f ac 53 10 3f
       0.9430826 0.4219892 1.0476222 0.56377673
000030 d8 8f 31 3f 79 b0 1d 3f 13 0d 73 3f 39 6f 72 3f
       0.69360113 0.615974 0.94941825 0.9470096
000040 87 58 0c 3f c0 26 2d 3f 17 dc 24 3f c3 c6 7a 3f
       0.5482258 0.6763725 0.6439833 0.97959536
000050 03 c3 14 3f ea 0d f6 3e a2 e2 0e 3f 0e 93 c8 3e
       0.58110064 0.4805749 0.55814564 0.39174694
000060 7e 91 5e 3f 8f 13 b2 3e 09 a5 56 3f 9d 2e dd 3e
       0.86940753 0.34780547 0.83845574 0.43199626
000070 55 e4 0a 3f d6 f3 ab 3e 22 a0 e1 3e 92 0a d7 3e
       0.5425466 0.3358447 0.44067484 0.42000252
000080 0e fa 70 3f 4a cb 3a 3f 76 c5 0b 3f 42 1d 7a 3f
       0.94131553 0.72966444 0.54598176 0.97700894
000090 5a b8 22 3f 36 fe 84 3f 2f c9 f5 3e 5c 43 21 3f
       0.6356255 1.0390079 0.48005053 0.6299341
0000a0 e3 80 25 3f 3f e0 b9 3e 03 b8 e5 3e ff 8d db 3e
       0.6464979 0.363039 0.44866952 0.42881772
0000b0 57 d1 79 3f 95 81 26 3f 12 f5 27 3f 59 8d 63 3f
       0.9758505 0.65041476 0.6560832 0.88887554
0000c0 72 9c be 3e a3 3b 99 3f 74 f7 10 3f 39 de 24 3f
       0.37228733 1.1971325 0.56627584 0.64401585
0000d0 e8 00 5a 3f 47 11 2b 3f c0 42 53 3f 6c 24 38 3f
       0.8515763 0.6682324 0.8252373 0.71930575
0000e0 b0 54 3a 3f 6e 61 23 3f b1 56 87 3f 05 1c 63 3f
       0.7278547 0.6382054 1.0573331 0.8871463
0000f0 a1 cb 4d 3f 5d 82 0b 3f 95 9c 3e 3f 1d dc 4b 3f
       0.8038884 0.54495794 0.74457675 0.7963274
000100 59 a0 53 3f 36 b9 84 3f 25 3a 13 3f 8b d3 81 3f
       0.82666546 1.0369022 0.57510597 1.0142683
000110 a8 52 07 3f 5c f3 88 3f d7 41 f3 3e 48 33 40 3f
       0.528605 1.0699267 0.4751117 0.7507825
000120 7d c3 43 3f 58 56 9c 3f 20 f3 7e 3f 73 92 53 3f
       0.76470166 1.221385 0.9958973 0.8264534
000130 36 28 4d 3f 25 17 d3 3e 7e f8 47 3f b3 c0 18 3f
       0.8013948 0.41228595 0.78113544 0.59669036
000140 44 ca 60 3f c1 97 18 3f 05 b3 7c 3f af 8c 4e 3f
       0.8780863 0.5960656 0.9871066 0.80683416
000150 d5 10 ee 3e 9e f9 ec 3e bd e8 5b 3f ae e7 d1 3e
       0.46497217 0.46284193 0.85902005 0.4099707
000160 b3 18 c7 3e 4a ed 42 3f 4e ae 80 3f 15 32 e5 3e
       0.38886032 0.76143324 1.0053194 0.44764772
000170 f3 be 0b 3f b8 d9 f8 3e e4 40 85 3f 35 48 5a 3f
       0.5458824 0.48603606 1.0410428 0.8526643
000180 59 3b bd 3e c3 09 b9 3e c9 ef 7b 3f 11 b6 6d 3f
       0.3695934 0.3614026 0.9841276 0.92855936
000190 74 49 bf 3e 9c b1 8e 3e 0a 76 f0 3e 17 9e 08 3f
       0.37360728 0.2786988 0.46965057 0.53366226
0001a0 fe 26 90 3f 92 27 a4 3e 76 19 65 3f 22 d2 2d 3f
       1.12619 0.3206144 0.89491975 0.6789876
0001b0 73 5a 23 3f 1a b8 0d 3f 4e e7 40 3f ea ed e2 3e
       0.6380989 0.5535904 0.7535294 0.4432214
0001c0 f4 80 04 3f d4 a0 0a 3f 34 39 7e 3f 6e 6c 7d 3f
       0.51759267 0.54151654 0.99306035 0.98993576
0001d0 fb 5d e6 3e 3e 90 64 3f 07 40 f2 3e 51 8b e2 3e
       0.44993576 0.89282596 0.47314474 0.44246915
0001e0 ed 23 82 3f 7f cb 7a 3f 9f 4c d1 3e 64 c5 81 3f
       1.0167214 0.9796676 0.4087877 1.0138364
0001f0 9b 1a 40 3f a6 52 b0 3e 82 ed 0a 3f 09 3e 31 3f
       0.75040597 0.34438056 0.5426866 0.69235283
000200 c7 a7 ea 3e e8 97 0c 3f 09 1b 25 3f 80 62 0d 3f
       0.4583113 0.5491929 0.6449438 0.55228424
000210 d5 32 4e 3f f6 8d 91 3f 8a 6e 19 3f 55 4a 81 3f
       0.80546314 1.1371448 0.59934294 1.0100809
000220 d6 c3 8b 3f b0 07 97 3e 98 13 46 3f 31 2b 5d 3f
       1.0919139 0.29498053 0.7737365 0.8639403
000230 0f e6 71 3f 70 7e 58 3f 4f a3 56 3f 83 21 36 3f
       0.94491667 0.8456793 0.8384294 0.71144885
000240 ea ce 7b 3f af 21 85 3f 46 95 38 3f 09 46 59 3f
       0.983626 1.0400904 0.72102773 0.8487249
000250 ba 9a 22 3f 1f 22 0e 3f d0 99 a8 3e 3c ea b8 3e
       0.63517344 0.55520815 0.3292985 0.36116207
000260 4e b4 49 3f 66 67 5e 3f 23 3d 97 3e c1 ea bc 3e
       0.7879075 0.86876523 0.2953883 0.36897853
000270 3b 75 29 3f 00 38 16 3f ab bd af 3e 1b f5 88 3f
       0.66194504 0.586792 0.34324393 1.06998
000280 9d 7b e5 3e 29 62 94 3f 64 e3 4d 3f 9f 1f 8b 3f
       0.44820872 1.1592456 0.80425096 1.0869025
000290 eb a7 51 3f c8 75 80 3f 62 19 da 3e 19 70 11 3f
       0.8189685 1.0035944 0.4259749 0.5681167
0002a0 96 ea 22 3f 94 1f 1d 3f b5 a2 84 3f 40 a7 88 3f
       0.636392 0.6137631 1.0362154 1.0676041
0002b0 b0 00 34 3f 1b f6 29 3f a9 6c b7 3e d8 38 94 3f
       0.7031355 0.6639115 0.3582509 1.1579847
0002c0 77 c7 52 3f f1 cb 73 3f e1 1b e3 3e a3 92 69 3f
       0.8233561 0.95233065 0.44357207 0.91239375
0002d0 8d ee 87 3f 8f bb 84 3f 87 56 40 3e 85 2d d0 3e
       1.0619675 1.0369738 0.18783008 0.4065973
0002e0 1f b3 3e 3f ad 68 b4 3e 38 df 45 3f bf 69 06 3f
       0.7449207 0.3523611 0.7729373 0.52505106
0002f0 bc 1d 46 3f 99 2c a4 3e 96 56 7d 3f 6b 81 f5 3e
       0.7738912 0.32065275 0.98960245 0.479503
000300 7a 30 06 3f 1b a7 16 3f fe c1 7e 3f 33 ff ad 3e
       0.5241772 0.5884873 0.9951476 0.33983764
000310 3e 00 61 3f a2 37 92 3f d7 2e 19 3f 89 97 e3 3e
       0.87890995 1.1423228 0.59837097 0.4445155
000320 ce 8b ef 3e a5 4b db 3e 3f 33 2f 3f fc 4f aa 3e
       0.4678635 0.4283115 0.6843757 0.33264148
000330 37 0c ea 3e ae 5c f1 3e 48 0f 35 3f 3d 66 84 3f
       0.45712444 0.4714102 0.7072644 1.0343701
000340 3d 3b ed 3e 17 30 1c 3f 55 b0 cf 3e 0c 02 76 3f
       0.46334258 0.6101088 0.40564218 0.96096873
000350 eb 47 4d 3f d1 3c 16 3f f5 4d 82 3f fa 8e 8a 3f
       0.80187863 0.5868655 1.0180041 1.0824883
000360 01 20 f1 3e 2c 59 f0 3e fa b3 51 3e b2 60 ef 3e
       0.4709473 0.46943033 0.20478812 0.4675346
000370 4f 8d 6e 3f 7e 35 b9 3e c8 bb 31 3f b8 70 2c 3f
       0.9318437 0.36173624 0.69427156 0.67359495
000380 4b a5 e3 3e b7 0d 24 3f 0a 40 cb 3e f0 b6 2b 3f
       0.44462046 0.6408343 0.39697295 0.67076015
000390 57 00 37 3f bc aa 6b 3f 16 2c 5e 3f e7 ef 98 3e
       0.71484894 0.92057395 0.8678602 0.2987053
0003a0 5d 9e af 3e 53 59 d7 3e e6 a4 55 3f e7 90 ad 3e
       0.3430051 0.42060336 0.8345474 0.33899614
0003b0 a0 ef 7a 3e 00 12 35 3f 65 78 92 3f 60 42 15 3f
       0.24505472 0.7073059 1.1442991 0.58304405
0003c0 e4 66 07 3f 2d 6d 60 3f 18 46 86 3f 0f fd 2b 3f
       0.52891374 0.8766659 1.0490141 0.6718301
0003d0 5f 77 12 3f af dd c1 3e db cd 86 3f a8 35 59 3f
       0.57213396 0.37864444 1.0531572 0.848475
0003e0 26 16 4c 3f 81 2e a5 3e 69 c9 08 3f 25 63 7d 3f
       0.79721296 0.32262042 0.5343233 0.9897941
0003f0 ec b8 2e 3f a3 3f ae 3e 24 08 47 3f 30 15 d3 3e
       0.6825092 0.34032926 0.77746797 0.41227102

bn1.bias f4 [256]
000000 f9 97 5e bc fb c6 ac bc a5 9a 44 3e c6 c0 5a 3a
       -0.013586038 -0.021090975 0.19199617 0.00083447655
000010 eb b6 db ba c5 7d d5 bc 7b 87 ef bc 6f cc e0 bb
       -0.0016762888 -0.026060948 -0.029239407 -0.006860308
000020 4e 45 25 bc 4d e6 4c bd bd 0f a0 3d d0 eb 65 3d
       -0.010087324 -0.05002432 0.07815502 0.05613309
000030 a6 c4 b5 3b a1 a9 6b bd 1e 05 91 3a 4e af b1 bd
       0.005547124 -0.057534818 0.0011064147 -0.08676015
000040 e0 42 48 bd df 4a 16 bc c8 cb dd bd f2 90 ec 3d
       -0.048891902 -0.009173124 -0.10829884 0.115510836
000050 6c 28 c8 bd bf 73 e8 bd 49 3e 1f bd e1 b8 51 bd
       -0.09773335 -0.11350202 -0.03887776 -0.051201705
000060 6c b5 87 bc 35 03 1d bd fa 45 ef 3c 16 ab 35 bd
       -0.016566 -0.038333137 0.029208172 -0.044352613
000070 ba e1 d6 3d 5c 57 50 3c bb 2e 16 bc 12 3e 54 3d
       0.10492273 0.012716141 -0.009166415 0.051817007
000080 13 f8 76 3d 09 e7 f8 3c 1a f5 0f bc 8e 46 e0 bd
       0.060295176 0.030383604 -0.008786464 -0.10950957
000090 1a cf 94 bd 02 81 32 bd 76 1f 91 3c ff 27 ba bb
       -0.07266064 -0.043580063 0.017715197 -0.0056810374
0000a0 a4 83 85 3c 65 b4 06 be 13 db 81 bd 61 a4 07 3e
       0.016298123 -0.13154753 -0.06340613 0.132463
0000b0 eb d2 5f 3c 94 46 88 3d fc 45 f0 bc f0 54 8d bd
       0.013661127 0.06654087 -0.029330246 -0.06900966
0000c0 6d f2 51 3b 62 64 28 3d 09 86 c1 bc db 44 f6 bc
       0.0032035366 0.041111358 -0.023623483 -0.03006213
0000d0 ea 93 8b 3c 72 9b b9 3c 55 ba ae bb 94 cc 5e bd
       0.017038304 0.02265713 -0.005332271 -0.05439432
0000e0 2c 51 19 3e af b1 bd bb d0 8f 82 bb d1 e4 50 bc
       0.14972371 -0.005789004 -0.003984429 -0.012749867
0000f0 55 92 60 bd 0b a3 29 3d 45 cb 2b 3d 99 dd a6 bd
       -0.054827053 0.041415256 0.0419419 -0.08147735
000100 72 28 c4 bd c3 4c 25 3d 2d 10 c1 3d ae b0 0a 3c
       -0.09578027 0.04035641 0.094269134 0.008464975
000110 fb 3e 17 bd 62 8f 4e be 89 7c 7a bd 75 47 e1 bb
       -0.036925297 -0.20171884 -0.061153922 -0.0068749734
000120 ab 50 09 be 12 ed 8e 3d e2 a0 1b bc 34 46 69 bd
       -0.13409679 0.06978811 -0.009498807 -0.056951717
000130 12 c0 2d 3d bc 24 9c 3c 8c 41 e0 bc ff 37 40 3c
       0.0424195 0.019060485 -0.027375005 0.0117321005
000140 0d 50 32 3e cb fd 06 bd 0d c4 35 3c 34 51 93 bb
       0.1741335 -0.03295688 0.011094105 -0.004495764
000150 5b b1 b2 bc 74 9f b5 3c cc 91 18 bd 26 24 de ba
       -0.021813085 0.02217076 -0.037248418 -0.0016948029
000160 bc f9 85 bb a5 6c 4f bc 93 d8 70 3d a6 40 a2 bc
       -0.0040886085 -0.01266018 0.05880029 -0.019806217
000170 56 32 7b 3d 46 6c a6 bd 40 6b 9d bd d2 07 20 bd
       0.0613273 -0.0812612 -0.07686472 -0.039069958
000180 da e9 cb bd 1c 45 5d bc fb 2f 6b 3c 12 1b 9d bc
       -0.09956713 -0.0135052465 0.014354701 -0.019177947
000190 5c 76 33 3d 66 d5 b7 3c b1 5b 61 bd 4f 0a 17 bb
       0.04381405 0.022440623 -0.055019084 -0.0023046916
0001a0 86 1d 1b be 88 29 8f 3c d7 33 58 bc d6 39 aa bd
       -0.15147981 0.017475858 -0.013195953 -0.083118126
0001b0 b9 a3 59 3a ae 2f 48 3c d7 ea 85 bc 46 a2 7b 3e
       0.00083022896 0.012218399 -0.016347332 0.24573621
0001c0 54 f1 c1 bb 98 a6 c1 bc 81 09 c0 bc 09 f9 4d 3d
       -0.005918661 -0.023639008 -0.023442032 0.050286327
0001d0 a9 82 04 3d d5 a2 db bd 5f 53 09 bd f8 bc a5 bd
       0.03235117 -0.10724417 -0.033526774 -0.080926836
0001e0 b8 96 33 3e 62 51 0e 3d 35 2d ce 3b 2e d2 66 bd
       0.17537963 0.03474558 0.00629201 -0.056352787
0001f0 18 4e 41 bd 35 3c a2 bd 92 34 7d 3d 19 3c 24 3d
       -0.047193617 -0.0792164 0.061817713 0.040096376
000200 39 de d6 be b2 56 46 bd 42 fa c9 bd 5a 91 f7 bd
       -0.41966417 -0.048422523 -0.09862186 -0.120882705
000210 00 b9 c0 3c 97 6c 1e 3e dc ee 9b bd 8f d2 8d 3c
       0.023525715 0.15471111 -0.07613918 0.017312316
000220 1d c1 c4 bc 5e 77 8f bc 28 16 fc bd 67 c8 7e bd
       -0.024017865 -0.017512973 -0.123089135 -0.062202837
000230 88 aa b3 bd 04 c4 dd 3d 4c 80 9b bb d9 f9 fe bb
       -0.08772761 0.10828403 -0.004745519 -0.007781249
000240 2c e4 9e 3b 79 a1 90 3c 6b 20 ac 3c a6 3a df 3d
       0.0048489776 0.017655121 0.021011552 0.10899858
000250 f8 db 30 bc c7 3a ae bb 22 2b 3b bd d1 c4 33 bd
       -0.010794632 -0.0053170654 -0.04569543 -0.04388887
000260 a7 6b b5 bc dc b5 4c 3d 2b 4d 24 bd cc 11 34 3d
       -0.02214606 0.049978122 -0.040112656 0.043962285
000270 74 a4 a3 3c a0 93 24 3d 17 6a f3 ba a5 1b b7 3c
       0.019975878 0.04017985 -0.0018571046 0.02235205
000280 b2 a1 16 bc bf 35 0a 3d b2 36 82 bb 96 c9 39 bd
       -0.009193825 0.033742663 -0.0039738053 -0.045358263
000290 74 f5 36 be 2d 2c 1a 3e 69 a9 2d bd 8b 4b a1 bd
       -0.1786707 0.15055914 -0.04239789 -0.07875737
0002a0 e2 38 d2 bc 03 e5 7c bc 26 48 c2 3c 39 bb ad bc
       -0.02566189 -0.01543546 0.023716044 -0.021207439
0002b0 52 eb fc 3c b7 c9 57 3b d7 b1 4d 3b eb d4 95 bd
       0.030873928 0.0032926628 0.0031386518 -0.073160015
0002c0 1d 8f e9 bc 65 3b a5 bb fa e6 34 3d 06 3a 9e 3c
       -0.028510625 -0.005042481 0.04416559 0.019314777
0002d0 86 a0 eb bc 8a 81 aa 3d e5 bb 06 bd a8 8f a2 3d
       -0.028763067 0.08325489 -0.032894034 0.079375565
0002e0 ab 04 48 bb 3e bd 91 bd a1 19 5f 3d b7 56 a7 3c
       -0.003052036 -0.07116173 0.0544678 0.020427091
0002f0 92 4b a1 bb dc f7 d0 bd ec 1c 95 bc 31 a5 01 be
       -0.0049223388 -0.102035254 -0.018202268 -0.12660672
000300 5c fe f4 3d fa 79 81 3c 23 e8 ad bd b3 ee 00 bb
       0.11962578 0.015805233 -0.08491542 -0.0019673526
000310 2a 94 88 3a 47 3b 1a bd 80 db 44 3d b6 b0 62 3c
       0.0010420133 -0.037654188 0.048060894 0.0138360765
000320 d9 ae db bd d0 47 b5 3a 93 5a af bd 2f 53 13 3d
       -0.10726709 0.0013830606 -0.085621975 0.035968002
000330 4c 8f 00 bd 8d 8b e5 3d c0 c0 90 bd bd 3a 12 3c
       -0.03138666 0.11208258 -0.07068014 0.008925137
000340 31 4a 01 3d ad 1e 84 bd fa ce 4f bc 54 2c d2 bc
       0.031564895 -0.064511634 -0.012683624 -0.025655903
000350 64 e7 cf bc 8c d9 46 3d 02 f2 bd 3d 88 34 1f be
       -0.02537889 0.048547313 0.09274675 -0.15547383
000360 f4 55 3f bd b1 76 fc bc ab 25 fb bc 13 d1 83 3b
       -0.04671283 -0.030818315 -0.03065761 0.0040227263
000370 23 64 de 3d 88 93 b5 bc ef 3e dc bd 9e 40 4a 3d
       0.10858943 -0.022165075 -0.10754191 0.04937803
000380 ba dd 95 3a 90 3e 7b 3d 50 a7 5b bc e0 9f 8b bc
       0.0011433878 0.06133896 -0.01340659 -0.017044008
000390 fa a1 81 3d d0 29 bd bd e7 00 f8 bb 10 95 b6 bc
       0.06329723 -0.09236491 -0.007568467 -0.022287875
0003a0 9a 4f 47 3d 87 d6 c2 3c a5 66 15 3c 75 ec 74 3c
       0.0486599 0.023783935 0.009118711 0.014948954
0003b0 81 d0 ed 3b 94 22 6d 39 24 5f da 3c ab e3 9b bc
       0.0072575216 0.00022614963 0.026656695 -0.019029459
0003c0 59 ed a1 3d 8a b9 98 bd 47 21 e2 3c 97 59 4d bc
       0.079065986 -0.07457264 0.027603758 -0.012533567
0003d0 da a0 a0 3c 06 9e 81 3d 2f be 83 bc 13 ca 58 3c
       0.01960795 0.06328969 -0.016081898 0.013231772
0003e0 7c 59 51 bc c4 cf 60 bc 5a a8 8c 3b 0a b3 1d 3d
       -0.012777682 -0.01372141 0.00429253 0.038500823
0003f0 a2 3b 89 bd 80 df 08 3d 2f 1d 2d bd 1f 40 08 3d
       -0.06700827 0.03341627 -0.04226416 0.033264276
